…
test_initialization: false
average_loss: 20
iter_size: 1
I0208 19:21:38.364377 20693 solver.cpp:81] Creating training net from train_net file: trainval.prototxt
I0208 19:21:38.397042 20693 net.cpp:58] Initializing net from parameters: 
name: "FCNResNet152Train"
state {
  phase: TRAIN
}
layer {
  name: "data"
  type: "Python"
  top: "data"
  top: "sem"
  top: "geo"
  python_param {
    module: "siftflow_layers_distillation"
    layer: "SIFTFlowSegDataLayer"
    param_str: "{\'siftflow_dir\': \'../data/sift-flow\', \'seed\': 1337, \'split\': \'trainval\'}"
  }
}
layer {
  name: "conv1"
  type: "Convolution"
  bottom: "data"
  top: "conv1"
  convolution_param {
    num_output: 64
    bias_term: false
    pad: 3
    kernel_size: 7
    stride: 2
  }
}
layer {
  name: "bn_conv1"
  type: "BatchNorm"
  bottom: "conv1"
  top: "conv1"
  batch_norm_param {
    use_global_stats: true
  }
}
layer {
  name: "scale_conv1"
  type: "Scale"
  bottom: "conv1"
  top: "conv1"
  scale_param {
    bias_term: true
  }
}
layer {
  name: "conv1_relu"
  type: "ReLU"
  bottom: "conv1"
  top: "conv1"
}
layer {
  name: "pool1"
  type: "Pooling"
  bottom: "conv1"
  top: "pool1"
  pooling_param {
    pool: MAX
    kernel_size: 3
    stride: 2
  }
}
layer {
  name: "res2a_branch1"
  type: "Convolution"
  bottom: "pool1"
  top: "res2a_branch1"
  convolution_param {
    num_output: 256
    bias_term: false
    pad: 0
    kernel_size: 1
    stride: 1
  }
}
layer {
  name: "bn2a_branch1"
  type: "BatchNorm"
  bottom: "res2a_branch1"
  top: "res2a_branch1"
  batch_norm_param {
    use_global_stats: true
  }
}
layer {
  name: "scale2a_branch1"
  type: "Scale"
  bottom: "res2a_branch1"
  top: "res2a_branch1"
  scale_param {
    bias_term: true
  }
}
layer {
  name: "res2a_branch2a"
  type: "Convolution"
  bottom: "pool1"
  top: "res2a_branch2a"
  convolution_param {
    num_output: 64
    bias_term: false
    pad: 0
    kernel_size: 1
    stride: 1
  }
}
layer {
  name: "bn2a_branch2a"
  type: "BatchNorm"
  bottom: "res2a_branch2a"
  top: "res2a_branch2a"
  batch_norm_param {
    use_global_stats: true
  }
}
layer {
  name: "scale2a_branch2a"
  type: "Scale"
  bottom: "res2a_branch2a"
  top: "res2a_branch2a"
  scale_param {
    bias_term: true
  }
}
layer {
  name: "res2a_branch2a_relu"
  type: "ReLU"
  bottom: "res2a_branch2a"
  top: "res2a_branch2a"
}
layer {
  name: "res2a_branch2b"
  type: "Convolution"
  bottom: "res2a_branch2a"
  top: "res2a_branch2b"
  convolution_param {
    num_output: 64
    bias_term: false
    pad: 1
    kernel_size: 3
    stride: 1
  }
}
layer {
  name: "bn2a_branch2b"
  type: "BatchNorm"
  bottom: "res2a_branch2b"
  top: "res2a_branch2b"
  batch_norm_param {
    use_global_stats: true
  }
}
layer {
  name: "scale2a_branch2b"
  type: "Scale"
  bottom: "res2a_branch2b"
  top: "res2a_branch2b"
  scale_param {
    bias_term: true
  }
}
layer {
  name: "res2a_branch2b_relu"
  type: "ReLU"
  bottom: "res2a_branch2b"
  top: "res2a_branch2b"
}
layer {
  name: "res2a_branch2c"
  type: "Convolution"
  bottom: "res2a_branch2b"
  top: "res2a_branch2c"
  convolution_param {
    num_output: 256
    bias_term: false
    pad: 0
    kernel_size: 1
    stride: 1
  }
}
layer {
  name: "bn2a_branch2c"
  type: "BatchNorm"
  bottom: "res2a_branch2c"
  top: "res2a_branch2c"
  batch_norm_param {
    use_global_stats: true
  }
}
layer {
  name: "scale2a_branch2c"
  type: "Scale"
  bottom: "res2a_branch2c"
  top: "res2a_branch2c"
  scale_param {
    bias_term: true
  }
}
layer {
  name: "res2a"
  type: "Eltwise"
  bottom: "res2a_branch1"
  bottom: "res2a_branch2c"
  top: "res2a"
}
layer {
  name: "res2a_relu"
  type: "ReLU"
  bottom: "res2a"
  top: "res2a"
}
layer {
  name: "res2b_branch2a"
  type: "Convolution"
  bottom: "res2a"
  top: "res2b_branch2a"
  convolution_param {
    num_output: 64
    bias_term: false
    pad: 0
    kernel_size: 1
    stride: 1
  }
}
layer {
  name: "bn2b_branch2a"
  type: "BatchNorm"
  bottom: "res2b_branch2a"
  top: "res2b_branch2a"
  batch_norm_param {
    use_global_stats: true
  }
}
layer {
  name: "scale2b_branch2a"
  type: "Scale"
  bottom: "res2b_branch2a"
  top: "res2b_branch2a"
  scale_param {
    bias_term: true
  }
}
layer {
  name: "res2b_branch2a_relu"
  type: "ReLU"
  bottom: "res2b_branch2a"
  top: "res2b_branch2a"
}
layer {
  name: "res2b_branch2b"
  type: "Convolution"
  bottom: "res2b_branch2a"
  top: "res2b_branch2b"
  convolution_param {
    num_output: 64
    bias_term: false
    pad: 1
    kernel_size: 3
    stride: 1
  }
}
layer {
  name: "bn2b_branch2b"
  type: "BatchNorm"
  bottom: "res2b_branch2b"
  top: "res2b_branch2b"
  batch_norm_param {
    use_global_stats: true
  }
}
layer {
  name: "scale2b_branch2b"
  type: "Scale"
  bottom: "res2b_branch2b"
  top: "res2b_branch2b"
  scale_param {
    bias_term: true
  }
}
layer {
  name: "res2b_branch2b_relu"
  type: "ReLU"
  bottom: "res2b_branch2b"
  top: "res2b_branch2b"
}
layer {
  name: "res2b_branch2c"
  type: "Convolution"
  bottom: "res2b_branch2b"
  top: "res2b_branch2c"
  convolution_param {
    num_output: 256
    bias_term: false
    pad: 0
    kernel_size: 1
    stride: 1
  }
}
layer {
  name: "bn2b_branch2c"
  type: "BatchNorm"
  bottom: "res2b_branch2c"
  top: "res2b_branch2c"
  batch_norm_param {
    use_global_stats: true
  }
}
layer {
  name: "scale2b_branch2c"
  type: "Scale"
  bottom: "res2b_branch2c"
  top: "res2b_branch2c"
  scale_param {
    bias_term: true
  }
}
layer {
  name: "res2b"
  type: "Eltwise"
  bottom: "res2a"
  bottom: "res2b_branch2c"
  top: "res2b"
}
layer {
  name: "res2b_relu"
  type: "ReLU"
  bottom: "res2b"
  top: "res2b"
}
layer {
  name: "res2c_branch2a"
  type: "Convolution"
  bottom: "res2b"
  top: "res2c_branch2a"
  convolution_param {
    num_output: 64
    bias_term: false
    pad: 0
    kernel_size: 1
    stride: 1
  }
}
layer {
  name: "bn2c_branch2a"
  type: "BatchNorm"
  bottom: "res2c_branch2a"
  top: "res2c_branch2a"
  batch_norm_param {
    use_global_stats: true
  }
}
layer {
  name: "scale2c_branch2a"
  type: "Scale"
  bottom: "res2c_branch2a"
  top: "res2c_branch2a"
  scale_param {
    bias_term: true
  }
}
layer {
  name: "res2c_branch2a_relu"
  type: "ReLU"
  bottom: "res2c_branch2a"
  top: "res2c_branch2a"
}
layer {
  name: "res2c_branch2b"
  type: "Convolution"
  bottom: "res2c_branch2a"
  top: "res2c_branch2b"
  convolution_param {
    num_output: 64
    bias_term: false
    pad: 1
    kernel_size: 3
    stride: 1
  }
}
layer {
  name: "bn2c_branch2b"
  type: "BatchNorm"
  bottom: "res2c_branch2b"
  top: "res2c_branch2b"
  batch_norm_param {
    use_global_stats: true
  }
}
layer {
  name: "scale2c_branch2b"
  type: "Scale"
  bottom: "res2c_branch2b"
  top: "res2c_branch2b"
  scale_param {
    bias_term: true
  }
}
layer {
  name: "res2c_branch2b_relu"
  type: "ReLU"
  bottom: "res2c_branch2b"
  top: "res2c_branch2b"
}
layer {
  name: "res2c_branch2c"
  type: "Convolution"
  bottom: "res2c_branch2b"
  top: "res2c_branch2c"
  convolution_param {
    num_output: 256
    bias_term: false
    pad: 0
    kernel_size: 1
    stride: 1
  }
}
layer {
  name: "bn2c_branch2c"
  type: "BatchNorm"
  bottom: "res2c_branch2c"
  top: "res2c_branch2c"
  batch_norm_param {
    use_global_stats: true
  }
}
layer {
  name: "scale2c_branch2c"
  type: "Scale"
  bottom: "res2c_branch2c"
  top: "res2c_branch2c"
  scale_param {
    bias_term: true
  }
}
layer {
  name: "res2c"
  type: "Eltwise"
  bottom: "res2b"
  bottom: "res2c_branch2c"
  top: "res2c"
}
layer {
  name: "res2c_relu"
  type: "ReLU"
  bottom: "res2c"
  top: "res2c"
}
layer {
  name: "res3a_branch1"
  type: "Convolution"
  bottom: "res2c"
  top: "res3a_branch1"
  convolution_param {
    num_output: 512
    bias_term: false
    pad: 0
    kernel_size: 1
    stride: 2
  }
}
layer {
  name: "bn3a_branch1"
  type: "BatchNorm"
  bottom: "res3a_branch1"
  top: "res3a_branch1"
  batch_norm_param {
    use_global_stats: true
  }
}
layer {
  name: "scale3a_branch1"
  type: "Scale"
  bottom: "res3a_branch1"
  top: "res3a_branch1"
  scale_param {
    bias_term: true
  }
}
layer {
  name: "res3a_branch2a"
  type: "Convolution"
  bottom: "res2c"
  top: "res3a_branch2a"
  convolution_param {
    num_output: 128
    bias_term: false
    pad: 0
    kernel_size: 1
    stride: 2
  }
}
layer {
  name: "bn3a_branch2a"
  type: "BatchNorm"
  bottom: "res3a_branch2a"
  top: "res3a_branch2a"
  batch_norm_param {
    use_global_stats: true
  }
}
layer {
  name: "scale3a_branch2a"
  type: "Scale"
  bottom: "res3a_branch2a"
  top: "res3a_branch2a"
  scale_param {
    bias_term: true
  }
}
layer {
  name: "res3a_branch2a_relu"
  type: "ReLU"
  bottom: "res3a_branch2a"
  top: "res3a_branch2a"
}
layer {
  name: "res3a_branch2b"
  type: "Convolution"
  bottom: "res3a_branch2a"
  top: "res3a_branch2b"
  convolution_param {
    num_output: 128
    bias_term: false
    pad: 1
    kernel_size: 3
    stride: 1
  }
}
layer {
  name: "bn3a_branch2b"
  type: "BatchNorm"
  bottom: "res3a_branch2b"
  top: "res3a_branch2b"
  batch_norm_param {
    use_global_stats: true
  }
}
layer {
  name: "scale3a_branch2b"
  type: "Scale"
  bottom: "res3a_branch2b"
  top: "res3a_branch2b"
  scale_param {
    bias_term: true
  }
}
layer {
  name: "res3a_branch2b_relu"
  type: "ReLU"
  bottom: "res3a_branch2b"
  top: "res3a_branch2b"
}
layer {
  name: "res3a_branch2c"
  type: "Convolution"
  bottom: "res3a_branch2b"
  top: "res3a_branch2c"
  convolution_param {
    num_output: 512
    bias_term: false
    pad: 0
    kernel_size: 1
    stride: 1
  }
}
layer {
  name: "bn3a_branch2c"
  type: "BatchNorm"
  bottom: "res3a_branch2c"
  top: "res3a_branch2c"
  batch_norm_param {
    use_global_stats: true
  }
}
layer {
  name: "scale3a_branch2c"
  type: "Scale"
  bottom: "res3a_branch2c"
  top: "res3a_branch2c"
  scale_param {
    bias_term: true
  }
}
layer {
  name: "res3a"
  type: "Eltwise"
  bottom: "res3a_branch1"
  bottom: "res3a_branch2c"
  top: "res3a"
}
layer {
  name: "res3a_relu"
  type: "ReLU"
  bottom: "res3a"
  top: "res3a"
}
layer {
  name: "res3b1_branch2a"
  type: "Convolution"
  bottom: "res3a"
  top: "res3b1_branch2a"
  convolution_param {
    num_output: 128
    bias_term: false
    pad: 0
    kernel_size: 1
    stride: 1
  }
}
layer {
  name: "bn3b1_branch2a"
  type: "BatchNorm"
  bottom: "res3b1_branch2a"
  top: "res3b1_branch2a"
  batch_norm_param {
    use_global_stats: true
  }
}
layer {
  name: "scale3b1_branch2a"
  type: "Scale"
  bottom: "res3b1_branch2a"
  top: "res3b1_branch2a"
  scale_param {
    bias_term: true
  }
}
layer {
  name: "res3b1_branch2a_relu"
  type: "ReLU"
  bottom: "res3b1_branch2a"
  top: "res3b1_branch2a"
}
layer {
  name: "res3b1_branch2b"
  type: "Convolution"
  bottom: "res3b1_branch2a"
  top: "res3b1_branch2b"
  convolution_param {
    num_output: 128
    bias_term: false
    pad: 1
    kernel_size: 3
    stride: 1
  }
}
layer {
  name: "bn3b1_branch2b"
  type: "BatchNorm"
  bottom: "res3b1_branch2b"
  top: "res3b1_branch2b"
  batch_norm_param {
    use_global_stats: true
  }
}
layer {
  name: "scale3b1_branch2b"
  type: "Scale"
  bottom: "res3b1_branch2b"
  top: "res3b1_branch2b"
  scale_param {
    bias_term: true
  }
}
layer {
  name: "res3b1_branch2b_relu"
  type: "ReLU"
  bottom: "res3b1_branch2b"
  top: "res3b1_branch2b"
}
layer {
  name: "res3b1_branch2c"
  type: "Convolution"
  bottom: "res3b1_branch2b"
  top: "res3b1_branch2c"
  convolution_param {
    num_output: 512
    bias_term: false
    pad: 0
    kernel_size: 1
    stride: 1
  }
}
layer {
  name: "bn3b1_branch2c"
  type: "BatchNorm"
  bottom: "res3b1_branch2c"
  top: "res3b1_branch2c"
  batch_norm_param {
    use_global_stats: true
  }
}
layer {
  name: "scale3b1_branch2c"
  type: "Scale"
  bottom: "res3b1_branch2c"
  top: "res3b1_branch2c"
  scale_param {
    bias_term: true
  }
}
layer {
  name: "res3b1"
  type: "Eltwise"
  bottom: "res3a"
  bottom: "res3b1_branch2c"
  top: "res3b1"
}
layer {
  name: "res3b1_relu"
  type: "ReLU"
  bottom: "res3b1"
  top: "res3b1"
}
layer {
  name: "res3b2_branch2a"
  type: "Convolution"
  bottom: "res3b1"
  top: "res3b2_branch2a"
  convolution_param {
    num_output: 128
    bias_term: false
    pad: 0
    kernel_size: 1
    stride: 1
  }
}
layer {
  name: "bn3b2_branch2a"
  type: "BatchNorm"
  bottom: "res3b2_branch2a"
  top: "res3b2_branch2a"
  batch_norm_param {
    use_global_stats: true
  }
}
layer {
  name: "scale3b2_branch2a"
  type: "Scale"
  bottom: "res3b2_branch2a"
  top: "res3b2_branch2a"
  scale_param {
    bias_term: true
  }
}
layer {
  name: "res3b2_branch2a_relu"
  type: "ReLU"
  bottom: "res3b2_branch2a"
  top: "res3b2_branch2a"
}
layer {
  name: "res3b2_branch2b"
  type: "Convolution"
  bottom: "res3b2_branch2a"
  top: "res3b2_branch2b"
  convolution_param {
    num_output: 128
    bias_term: false
    pad: 1
    kernel_size: 3
    stride: 1
  }
}
layer {
  name: "bn3b2_branch2b"
  type: "BatchNorm"
  bottom: "res3b2_branch2b"
  top: "res3b2_branch2b"
  batch_norm_param {
    use_global_stats: true
  }
}
layer {
  name: "scale3b2_branch2b"
  type: "Scale"
  bottom: "res3b2_branch2b"
  top: "res3b2_branch2b"
  scale_param {
    bias_term: true
  }
}
layer {
  name: "res3b2_branch2b_relu"
  type: "ReLU"
  bottom: "res3b2_branch2b"
  top: "res3b2_branch2b"
}
layer {
  name: "res3b2_branch2c"
  type: "Convolution"
  bottom: "res3b2_branch2b"
  top: "res3b2_branch2c"
  convolution_param {
    num_output: 512
    bias_term: false
    pad: 0
    kernel_size: 1
    stride: 1
  }
}
layer {
  name: "bn3b2_branch2c"
  type: "BatchNorm"
  bottom: "res3b2_branch2c"
  top: "res3b2_branch2c"
  batch_norm_param {
    use_global_stats: true
  }
}
layer {
  name: "scale3b2_branch2c"
  type: "Scale"
  bottom: "res3b2_branch2c"
  top: "res3b2_branch2c"
  scale_param {
    bias_term: true
  }
}
layer {
  name: "res3b2"
  type: "Eltwise"
  bottom: "res3b1"
  bottom: "res3b2_branch2c"
  top: "res3b2"
}
layer {
  name: "res3b2_relu"
  type: "ReLU"
  bottom: "res3b2"
  top: "res3b2"
}
layer {
  name: "res3b3_branch2a"
  type: "Convolution"
  bottom: "res3b2"
  top: "res3b3_branch2a"
  convolution_param {
    num_output: 128
    bias_term: false
    pad: 0
    kernel_size: 1
    stride: 1
  }
}
layer {
  name: "bn3b3_branch2a"
  type: "BatchNorm"
  bottom: "res3b3_branch2a"
  top: "res3b3_branch2a"
  batch_norm_param {
    use_global_stats: true
  }
}
layer {
  name: "scale3b3_branch2a"
  type: "Scale"
  bottom: "res3b3_branch2a"
  top: "res3b3_branch2a"
  scale_param {
    bias_term: true
  }
}
layer {
  name: "res3b3_branch2a_relu"
  type: "ReLU"
  bottom: "res3b3_branch2a"
  top: "res3b3_branch2a"
}
layer {
  name: "res3b3_branch2b"
  type: "Convolution"
  bottom: "res3b3_branch2a"
  top: "res3b3_branch2b"
  convolution_param {
    num_output: 128
    bias_term: false
    pad: 1
    kernel_size: 3
    stride: 1
  }
}
layer {
  name: "bn3b3_branch2b"
  type: "BatchNorm"
  bottom: "res3b3_branch2b"
  top: "res3b3_branch2b"
  batch_norm_param {
    use_global_stats: true
  }
}
layer {
  name: "scale3b3_branch2b"
  type: "Scale"
  bottom: "res3b3_branch2b"
  top: "res3b3_branch2b"
  scale_param {
    bias_term: true
  }
}
layer {
  name: "res3b3_branch2b_relu"
  type: "ReLU"
  bottom: "res3b3_branch2b"
  top: "res3b3_branch2b"
}
layer {
  name: "res3b3_branch2c"
  type: "Convolution"
  bottom: "res3b3_branch2b"
  top: "res3b3_branch2c"
  convolution_param {
    num_output: 512
    bias_term: false
    pad: 0
    kernel_size: 1
    stride: 1
  }
}
layer {
  name: "bn3b3_branch2c"
  type: "BatchNorm"
  bottom: "res3b3_branch2c"
  top: "res3b3_branch2c"
  batch_norm_param {
    use_global_stats: true
  }
}
layer {
  name: "scale3b3_branch2c"
  type: "Scale"
  bottom: "res3b3_branch2c"
  top: "res3b3_branch2c"
  scale_param {
    bias_term: true
  }
}
layer {
  name: "res3b3"
  type: "Eltwise"
  bottom: "res3b2"
  bottom: "res3b3_branch2c"
  top: "res3b3"
}
layer {
  name: "res3b3_relu"
  type: "ReLU"
  bottom: "res3b3"
  top: "res3b3"
}
layer {
  name: "res3b4_branch2a"
  type: "Convolution"
  bottom: "res3b3"
  top: "res3b4_branch2a"
  convolution_param {
    num_output: 128
    bias_term: false
    pad: 0
    kernel_size: 1
    stride: 1
  }
}
layer {
  name: "bn3b4_branch2a"
  type: "BatchNorm"
  bottom: "res3b4_branch2a"
  top: "res3b4_branch2a"
  batch_norm_param {
    use_global_stats: true
  }
}
layer {
  name: "scale3b4_branch2a"
  type: "Scale"
  bottom: "res3b4_branch2a"
  top: "res3b4_branch2a"
  scale_param {
    bias_term: true
  }
}
layer {
  name: "res3b4_branch2a_relu"
  type: "ReLU"
  bottom: "res3b4_branch2a"
  top: "res3b4_branch2a"
}
layer {
  name: "res3b4_branch2b"
  type: "Convolution"
  bottom: "res3b4_branch2a"
  top: "res3b4_branch2b"
  convolution_param {
    num_output: 128
    bias_term: false
    pad: 1
    kernel_size: 3
    stride: 1
  }
}
layer {
  name: "bn3b4_branch2b"
  type: "BatchNorm"
  bottom: "res3b4_branch2b"
  top: "res3b4_branch2b"
  batch_norm_param {
    use_global_stats: true
  }
}
layer {
  name: "scale3b4_branch2b"
  type: "Scale"
  bottom: "res3b4_branch2b"
  top: "res3b4_branch2b"
  scale_param {
    bias_term: true
  }
}
layer {
  name: "res3b4_branch2b_relu"
  type: "ReLU"
  bottom: "res3b4_branch2b"
  top: "res3b4_branch2b"
}
layer {
  name: "res3b4_branch2c"
  type: "Convolution"
  bottom: "res3b4_branch2b"
  top: "res3b4_branch2c"
  convolution_param {
    num_output: 512
    bias_term: false
    pad: 0
    kernel_size: 1
    stride: 1
  }
}
layer {
  name: "bn3b4_branch2c"
  type: "BatchNorm"
  bottom: "res3b4_branch2c"
  top: "res3b4_branch2c"
  batch_norm_param {
    use_global_stats: true
  }
}
layer {
  name: "scale3b4_branch2c"
  type: "Scale"
  bottom: "res3b4_branch2c"
  top: "res3b4_branch2c"
  scale_param {
    bias_term: true
  }
}
layer {
  name: "res3b4"
  type: "Eltwise"
  bottom: "res3b3"
  bottom: "res3b4_branch2c"
  top: "res3b4"
}
layer {
  name: "res3b4_relu"
  type: "ReLU"
  bottom: "res3b4"
  top: "res3b4"
}
layer {
  name: "res3b5_branch2a"
  type: "Convolution"
  bottom: "res3b4"
  top: "res3b5_branch2a"
  convolution_param {
    num_output: 128
    bias_term: false
    pad: 0
    kernel_size: 1
    stride: 1
  }
}
layer {
  name: "bn3b5_branch2a"
  type: "BatchNorm"
  bottom: "res3b5_branch2a"
  top: "res3b5_branch2a"
  batch_norm_param {
    use_global_stats: true
  }
}
layer {
  name: "scale3b5_branch2a"
  type: "Scale"
  bottom: "res3b5_branch2a"
  top: "res3b5_branch2a"
  scale_param {
    bias_term: true
  }
}
layer {
  name: "res3b5_branch2a_relu"
  type: "ReLU"
  bottom: "res3b5_branch2a"
  top: "res3b5_branch2a"
}
layer {
  name: "res3b5_branch2b"
  type: "Convolution"
  bottom: "res3b5_branch2a"
  top: "res3b5_branch2b"
  convolution_param {
    num_output: 128
    bias_term: false
    pad: 1
    kernel_size: 3
    stride: 1
  }
}
layer {
  name: "bn3b5_branch2b"
  type: "BatchNorm"
  bottom: "res3b5_branch2b"
  top: "res3b5_branch2b"
  batch_norm_param {
    use_global_stats: true
  }
}
layer {
  name: "scale3b5_branch2b"
  type: "Scale"
  bottom: "res3b5_branch2b"
  top: "res3b5_branch2b"
  scale_param {
    bias_term: true
  }
}
layer {
  name: "res3b5_branch2b_relu"
  type: "ReLU"
  bottom: "res3b5_branch2b"
  top: "res3b5_branch2b"
}
layer {
  name: "res3b5_branch2c"
  type: "Convolution"
  bottom: "res3b5_branch2b"
  top: "res3b5_branch2c"
  convolution_param {
    num_output: 512
    bias_term: false
    pad: 0
    kernel_size: 1
    stride: 1
  }
}
layer {
  name: "bn3b5_branch2c"
  type: "BatchNorm"
  bottom: "res3b5_branch2c"
  top: "res3b5_branch2c"
  batch_norm_param {
    use_global_stats: true
  }
}
layer {
  name: "scale3b5_branch2c"
  type: "Scale"
  bottom: "res3b5_branch2c"
  top: "res3b5_branch2c"
  scale_param {
    bias_term: true
  }
}
layer {
  name: "res3b5"
  type: "Eltwise"
  bottom: "res3b4"
  bottom: "res3b5_branch2c"
  top: "res3b5"
}
layer {
  name: "res3b5_relu"
  type: "ReLU"
  bottom: "res3b5"
  top: "res3b5"
}
layer {
  name: "res3b6_branch2a"
  type: "Convolution"
  bottom: "res3b5"
  top: "res3b6_branch2a"
  convolution_param {
    num_output: 128
    bias_term: false
    pad: 0
    kernel_size: 1
    stride: 1
  }
}
layer {
  name: "bn3b6_branch2a"
  type: "BatchNorm"
  bottom: "res3b6_branch2a"
  top: "res3b6_branch2a"
  batch_norm_param {
    use_global_stats: true
  }
}
layer {
  name: "scale3b6_branch2a"
  type: "Scale"
  bottom: "res3b6_branch2a"
  top: "res3b6_branch2a"
  scale_param {
    bias_term: true
  }
}
layer {
  name: "res3b6_branch2a_relu"
  type: "ReLU"
  bottom: "res3b6_branch2a"
  top: "res3b6_branch2a"
}
layer {
  name: "res3b6_branch2b"
  type: "Convolution"
  bottom: "res3b6_branch2a"
  top: "res3b6_branch2b"
  convolution_param {
    num_output: 128
    bias_term: false
    pad: 1
    kernel_size: 3
    stride: 1
  }
}
layer {
  name: "bn3b6_branch2b"
  type: "BatchNorm"
  bottom: "res3b6_branch2b"
  top: "res3b6_branch2b"
  batch_norm_param {
    use_global_stats: true
  }
}
layer {
  name: "scale3b6_branch2b"
  type: "Scale"
  bottom: "res3b6_branch2b"
  top: "res3b6_branch2b"
  scale_param {
    bias_term: true
  }
}
layer {
  name: "res3b6_branch2b_relu"
  type: "ReLU"
  bottom: "res3b6_branch2b"
  top: "res3b6_branch2b"
}
layer {
  name: "res3b6_branch2c"
  type: "Convolution"
  bottom: "res3b6_branch2b"
  top: "res3b6_branch2c"
  convolution_param {
    num_output: 512
    bias_term: false
    pad: 0
    kernel_size: 1
    stride: 1
  }
}
layer {
  name: "bn3b6_branch2c"
  type: "BatchNorm"
  bottom: "res3b6_branch2c"
  top: "res3b6_branch2c"
  batch_norm_param {
    use_global_stats: true
  }
}
layer {
  name: "scale3b6_branch2c"
  type: "Scale"
  bottom: "res3b6_branch2c"
  top: "res3b6_branch2c"
  scale_param {
    bias_term: true
  }
}
layer {
  name: "res3b6"
  type: "Eltwise"
  bottom: "res3b5"
  bottom: "res3b6_branch2c"
  top: "res3b6"
}
layer {
  name: "res3b6_relu"
  type: "ReLU"
  bottom: "res3b6"
  top: "res3b6"
}
layer {
  name: "res3b7_branch2a"
  type: "Convolution"
  bottom: "res3b6"
  top: "res3b7_branch2a"
  convolution_param {
    num_output: 128
    bias_term: false
    pad: 0
    kernel_size: 1
    stride: 1
  }
}
layer {
  name: "bn3b7_branch2a"
  type: "BatchNorm"
  bottom: "res3b7_branch2a"
  top: "res3b7_branch2a"
  batch_norm_param {
    use_global_stats: true
  }
}
layer {
  name: "scale3b7_branch2a"
  type: "Scale"
  bottom: "res3b7_branch2a"
  top: "res3b7_branch2a"
  scale_param {
    bias_term: true
  }
}
layer {
  name: "res3b7_branch2a_relu"
  type: "ReLU"
  bottom: "res3b7_branch2a"
  top: "res3b7_branch2a"
}
layer {
  name: "res3b7_branch2b"
  type: "Convolution"
  bottom: "res3b7_branch2a"
  top: "res3b7_branch2b"
  convolution_param {
    num_output: 128
    bias_term: false
    pad: 1
    kernel_size: 3
    stride: 1
  }
}
layer {
  name: "bn3b7_branch2b"
  type: "BatchNorm"
  bottom: "res3b7_branch2b"
  top: "res3b7_branch2b"
  batch_norm_param {
    use_global_stats: true
  }
}
layer {
  name: "scale3b7_branch2b"
  type: "Scale"
  bottom: "res3b7_branch2b"
  top: "res3b7_branch2b"
  scale_param {
    bias_term: true
  }
}
layer {
  name: "res3b7_branch2b_relu"
  type: "ReLU"
  bottom: "res3b7_branch2b"
  top: "res3b7_branch2b"
}
layer {
  name: "res3b7_branch2c"
  type: "Convolution"
  bottom: "res3b7_branch2b"
  top: "res3b7_branch2c"
  convolution_param {
    num_output: 512
    bias_term: false
    pad: 0
    kernel_size: 1
    stride: 1
  }
}
layer {
  name: "bn3b7_branch2c"
  type: "BatchNorm"
  bottom: "res3b7_branch2c"
  top: "res3b7_branch2c"
  batch_norm_param {
    use_global_stats: true
  }
}
layer {
  name: "scale3b7_branch2c"
  type: "Scale"
  bottom: "res3b7_branch2c"
  top: "res3b7_branch2c"
  scale_param {
    bias_term: true
  }
}
layer {
  name: "res3b7"
  type: "Eltwise"
  bottom: "res3b6"
  bottom: "res3b7_branch2c"
  top: "res3b7"
}
layer {
  name: "res3b7_relu"
  type: "ReLU"
  bottom: "res3b7"
  top: "res3b7"
}
layer {
  name: "res4a_branch1"
  type: "Convolution"
  bottom: "res3b7"
  top: "res4a_branch1"
  convolution_param {
    num_output: 1024
    bias_term: false
    pad: 0
    kernel_size: 1
    stride: 2
  }
}
layer {
  name: "bn4a_branch1"
  type: "BatchNorm"
  bottom: "res4a_branch1"
  top: "res4a_branch1"
  batch_norm_param {
    use_global_stats: true
  }
}
layer {
  name: "scale4a_branch1"
  type: "Scale"
  bottom: "res4a_branch1"
  top: "res4a_branch1"
  scale_param {
    bias_term: true
  }
}
layer {
  name: "res4a_branch2a"
  type: "Convolution"
  bottom: "res3b7"
  top: "res4a_branch2a"
  convolution_param {
    num_output: 256
    bias_term: false
    pad: 0
    kernel_size: 1
    stride: 2
  }
}
layer {
  name: "bn4a_branch2a"
  type: "BatchNorm"
  bottom: "res4a_branch2a"
  top: "res4a_branch2a"
  batch_norm_param {
    use_global_stats: true
  }
}
layer {
  name: "scale4a_branch2a"
  type: "Scale"
  bottom: "res4a_branch2a"
  top: "res4a_branch2a"
  scale_param {
    bias_term: true
  }
}
layer {
  name: "res4a_branch2a_relu"
  type: "ReLU"
  bottom: "res4a_branch2a"
  top: "res4a_branch2a"
}
layer {
  name: "res4a_branch2b"
  type: "Convolution"
  bottom: "res4a_branch2a"
  top: "res4a_branch2b"
  convolution_param {
    num_output: 256
    bias_term: false
    pad: 1
    kernel_size: 3
    stride: 1
  }
}
layer {
  name: "bn4a_branch2b"
  type: "BatchNorm"
  bottom: "res4a_branch2b"
  top: "res4a_branch2b"
  batch_norm_param {
    use_global_stats: true
  }
}
layer {
  name: "scale4a_branch2b"
  type: "Scale"
  bottom: "res4a_branch2b"
  top: "res4a_branch2b"
  scale_param {
    bias_term: true
  }
}
layer {
  name: "res4a_branch2b_relu"
  type: "ReLU"
  bottom: "res4a_branch2b"
  top: "res4a_branch2b"
}
layer {
  name: "res4a_branch2c"
  type: "Convolution"
  bottom: "res4a_branch2b"
  top: "res4a_branch2c"
  convolution_param {
    num_output: 1024
    bias_term: false
    pad: 0
    kernel_size: 1
    stride: 1
  }
}
layer {
  name: "bn4a_branch2c"
  type: "BatchNorm"
  bottom: "res4a_branch2c"
  top: "res4a_branch2c"
  batch_norm_param {
    use_global_stats: true
  }
}
layer {
  name: "scale4a_branch2c"
  type: "Scale"
  bottom: "res4a_branch2c"
  top: "res4a_branch2c"
  scale_param {
    bias_term: true
  }
}
layer {
  name: "res4a"
  type: "Eltwise"
  bottom: "res4a_branch1"
  bottom: "res4a_branch2c"
  top: "res4a"
}
layer {
  name: "res4a_relu"
  type: "ReLU"
  bottom: "res4a"
  top: "res4a"
}
layer {
  name: "res4b1_branch2a"
  type: "Convolution"
  bottom: "res4a"
  top: "res4b1_branch2a"
  convolution_param {
    num_output: 256
    bias_term: false
    pad: 0
    kernel_size: 1
    stride: 1
  }
}
layer {
  name: "bn4b1_branch2a"
  type: "BatchNorm"
  bottom: "res4b1_branch2a"
  top: "res4b1_branch2a"
  batch_norm_param {
    use_global_stats: true
  }
}
layer {
  name: "scale4b1_branch2a"
  type: "Scale"
  bottom: "res4b1_branch2a"
  top: "res4b1_branch2a"
  scale_param {
    bias_term: true
  }
}
layer {
  name: "res4b1_branch2a_relu"
  type: "ReLU"
  bottom: "res4b1_branch2a"
  top: "res4b1_branch2a"
}
layer {
  name: "res4b1_branch2b"
  type: "Convolution"
  bottom: "res4b1_branch2a"
  top: "res4b1_branch2b"
  convolution_param {
    num_output: 256
    bias_term: false
    pad: 1
    kernel_size: 3
    stride: 1
  }
}
layer {
  name: "bn4b1_branch2b"
  type: "BatchNorm"
  bottom: "res4b1_branch2b"
  top: "res4b1_branch2b"
  batch_norm_param {
    use_global_stats: true
  }
}
layer {
  name: "scale4b1_branch2b"
  type: "Scale"
  bottom: "res4b1_branch2b"
  top: "res4b1_branch2b"
  scale_param {
    bias_term: true
  }
}
layer {
  name: "res4b1_branch2b_relu"
  type: "ReLU"
  bottom: "res4b1_branch2b"
  top: "res4b1_branch2b"
}
layer {
  name: "res4b1_branch2c"
  type: "Convolution"
  bottom: "res4b1_branch2b"
  top: "res4b1_branch2c"
  convolution_param {
    num_output: 1024
    bias_term: false
    pad: 0
    kernel_size: 1
    stride: 1
  }
}
layer {
  name: "bn4b1_branch2c"
  type: "BatchNorm"
  bottom: "res4b1_branch2c"
  top: "res4b1_branch2c"
  batch_norm_param {
    use_global_stats: true
  }
}
layer {
  name: "scale4b1_branch2c"
  type: "Scale"
  bottom: "res4b1_branch2c"
  top: "res4b1_branch2c"
  scale_param {
    bias_term: true
  }
}
layer {
  name: "res4b1"
  type: "Eltwise"
  bottom: "res4a"
  bottom: "res4b1_branch2c"
  top: "res4b1"
}
layer {
  name: "res4b1_relu"
  type: "ReLU"
  bottom: "res4b1"
  top: "res4b1"
}
layer {
  name: "res4b2_branch2a"
  type: "Convolution"
  bottom: "res4b1"
  top: "res4b2_branch2a"
  convolution_param {
    num_output: 256
    bias_term: false
    pad: 0
    kernel_size: 1
    stride: 1
  }
}
layer {
  name: "bn4b2_branch2a"
  type: "BatchNorm"
  bottom: "res4b2_branch2a"
  top: "res4b2_branch2a"
  batch_norm_param {
    use_global_stats: true
  }
}
layer {
  name: "scale4b2_branch2a"
  type: "Scale"
  bottom: "res4b2_branch2a"
  top: "res4b2_branch2a"
  scale_param {
    bias_term: true
  }
}
layer {
  name: "res4b2_branch2a_relu"
  type: "ReLU"
  bottom: "res4b2_branch2a"
  top: "res4b2_branch2a"
}
layer {
  name: "res4b2_branch2b"
  type: "Convolution"
  bottom: "res4b2_branch2a"
  top: "res4b2_branch2b"
  convolution_param {
    num_output: 256
    bias_term: false
    pad: 1
    kernel_size: 3
    stride: 1
  }
}
layer {
  name: "bn4b2_branch2b"
  type: "BatchNorm"
  bottom: "res4b2_branch2b"
  top: "res4b2_branch2b"
  batch_norm_param {
    use_global_stats: true
  }
}
layer {
  name: "scale4b2_branch2b"
  type: "Scale"
  bottom: "res4b2_branch2b"
  top: "res4b2_branch2b"
  scale_param {
    bias_term: true
  }
}
layer {
  name: "res4b2_branch2b_relu"
  type: "ReLU"
  bottom: "res4b2_branch2b"
  top: "res4b2_branch2b"
}
layer {
  name: "res4b2_branch2c"
  type: "Convolution"
  bottom: "res4b2_branch2b"
  top: "res4b2_branch2c"
  convolution_param {
    num_output: 1024
    bias_term: false
    pad: 0
    kernel_size: 1
    stride: 1
  }
}
layer {
  name: "bn4b2_branch2c"
  type: "BatchNorm"
  bottom: "res4b2_branch2c"
  top: "res4b2_branch2c"
  batch_norm_param {
    use_global_stats: true
  }
}
layer {
  name: "scale4b2_branch2c"
  type: "Scale"
  bottom: "res4b2_branch2c"
  top: "res4b2_branch2c"
  scale_param {
    b
I0208 19:21:38.399524 20693 layer_factory.hpp:77] Creating layer data
I0208 19:21:38.480239 20693 net.cpp:100] Creating Layer data
I0208 19:21:38.481739 20693 net.cpp:408] data -> data
I0208 19:21:38.481779 20693 net.cpp:408] data -> sem
I0208 19:21:38.481789 20693 net.cpp:408] data -> geo
I0208 19:21:38.742208 20693 net.cpp:150] Setting up data
I0208 19:21:38.742251 20693 net.cpp:157] Top shape: 1 3 256 256 (196608)
I0208 19:21:38.742257 20693 net.cpp:157] Top shape: 1 33 256 256 (2162688)
I0208 19:21:38.742261 20693 net.cpp:157] Top shape: 1 3 256 256 (196608)
I0208 19:21:38.742265 20693 net.cpp:165] Memory required for data: 10223616
I0208 19:21:38.742272 20693 layer_factory.hpp:77] Creating layer data_data_0_split
I0208 19:21:38.742287 20693 net.cpp:100] Creating Layer data_data_0_split
I0208 19:21:38.742305 20693 net.cpp:434] data_data_0_split <- data
I0208 19:21:38.742313 20693 net.cpp:408] data_data_0_split -> data_data_0_split_0
I0208 19:21:38.742324 20693 net.cpp:408] data_data_0_split -> data_data_0_split_1
I0208 19:21:38.742331 20693 net.cpp:408] data_data_0_split -> data_data_0_split_2
I0208 19:21:38.742374 20693 net.cpp:150] Setting up data_data_0_split
I0208 19:21:38.742383 20693 net.cpp:157] Top shape: 1 3 256 256 (196608)
I0208 19:21:38.742388 20693 net.cpp:157] Top shape: 1 3 256 256 (196608)
I0208 19:21:38.742391 20693 net.cpp:157] Top shape: 1 3 256 256 (196608)
I0208 19:21:38.742394 20693 net.cpp:165] Memory required for data: 12582912
I0208 19:21:38.742398 20693 layer_factory.hpp:77] Creating layer conv1
I0208 19:21:38.742409 20693 net.cpp:100] Creating Layer conv1
I0208 19:21:38.742413 20693 net.cpp:434] conv1 <- data_data_0_split_0
I0208 19:21:38.742419 20693 net.cpp:408] conv1 -> conv1
I0208 19:21:39.653193 20693 net.cpp:150] Setting up conv1
I0208 19:21:39.653235 20693 net.cpp:157] Top shape: 1 64 128 128 (1048576)
I0208 19:21:39.653239 20693 net.cpp:165] Memory required for data: 16777216
I0208 19:21:39.653256 20693 layer_factory.hpp:77] Creating layer bn_conv1
I0208 19:21:39.653268 20693 net.cpp:100] Creating Layer bn_conv1
I0208 19:21:39.653273 20693 net.cpp:434] bn_conv1 <- conv1
I0208 19:21:39.653290 20693 net.cpp:395] bn_conv1 -> conv1 (in-place)
I0208 19:21:39.661770 20693 net.cpp:150] Setting up bn_conv1
I0208 19:21:39.661782 20693 net.cpp:157] Top shape: 1 64 128 128 (1048576)
I0208 19:21:39.661798 20693 net.cpp:165] Memory required for data: 20971520
I0208 19:21:39.661809 20693 layer_factory.hpp:77] Creating layer scale_conv1
I0208 19:21:39.662164 20693 net.cpp:100] Creating Layer scale_conv1
I0208 19:21:39.662194 20693 net.cpp:434] scale_conv1 <- conv1
I0208 19:21:39.662212 20693 net.cpp:395] scale_conv1 -> conv1 (in-place)
I0208 19:21:39.662271 20693 layer_factory.hpp:77] Creating layer scale_conv1
I0208 19:21:39.666445 20693 net.cpp:150] Setting up scale_conv1
I0208 19:21:39.666472 20693 net.cpp:157] Top shape: 1 64 128 128 (1048576)
I0208 19:21:39.666476 20693 net.cpp:165] Memory required for data: 25165824
I0208 19:21:39.666486 20693 layer_factory.hpp:77] Creating layer conv1_relu
I0208 19:21:39.666496 20693 net.cpp:100] Creating Layer conv1_relu
I0208 19:21:39.666501 20693 net.cpp:434] conv1_relu <- conv1
I0208 19:21:39.666507 20693 net.cpp:395] conv1_relu -> conv1 (in-place)
I0208 19:21:39.666689 20693 net.cpp:150] Setting up conv1_relu
I0208 19:21:39.666702 20693 net.cpp:157] Top shape: 1 64 128 128 (1048576)
I0208 19:21:39.666705 20693 net.cpp:165] Memory required for data: 29360128
I0208 19:21:39.666709 20693 layer_factory.hpp:77] Creating layer pool1
I0208 19:21:39.666718 20693 net.cpp:100] Creating Layer pool1
I0208 19:21:39.666721 20693 net.cpp:434] pool1 <- conv1
I0208 19:21:39.666726 20693 net.cpp:408] pool1 -> pool1
I0208 19:21:39.666872 20693 net.cpp:150] Setting up pool1
I0208 19:21:39.666884 20693 net.cpp:157] Top shape: 1 64 64 64 (262144)
I0208 19:21:39.666888 20693 net.cpp:165] Memory required for data: 30408704
I0208 19:21:39.666893 20693 layer_factory.hpp:77] Creating layer pool1_pool1_0_split
I0208 19:21:39.666899 20693 net.cpp:100] Creating Layer pool1_pool1_0_split
I0208 19:21:39.666903 20693 net.cpp:434] pool1_pool1_0_split <- pool1
I0208 19:21:39.666908 20693 net.cpp:408] pool1_pool1_0_split -> pool1_pool1_0_split_0
I0208 19:21:39.666918 20693 net.cpp:408] pool1_pool1_0_split -> pool1_pool1_0_split_1
I0208 19:21:39.666949 20693 net.cpp:150] Setting up pool1_pool1_0_split
I0208 19:21:39.666954 20693 net.cpp:157] Top shape: 1 64 64 64 (262144)
I0208 19:21:39.666960 20693 net.cpp:157] Top shape: 1 64 64 64 (262144)
I0208 19:21:39.666962 20693 net.cpp:165] Memory required for data: 32505856
I0208 19:21:39.666966 20693 layer_factory.hpp:77] Creating layer res2a_branch1
I0208 19:21:39.666976 20693 net.cpp:100] Creating Layer res2a_branch1
I0208 19:21:39.666980 20693 net.cpp:434] res2a_branch1 <- pool1_pool1_0_split_0
I0208 19:21:39.666986 20693 net.cpp:408] res2a_branch1 -> res2a_branch1
I0208 19:21:39.667938 20693 net.cpp:150] Setting up res2a_branch1
I0208 19:21:39.667965 20693 net.cpp:157] Top shape: 1 256 64 64 (1048576)
I0208 19:21:39.667969 20693 net.cpp:165] Memory required for data: 36700160
I0208 19:21:39.667976 20693 layer_factory.hpp:77] Creating layer bn2a_branch1
I0208 19:21:39.667984 20693 net.cpp:100] Creating Layer bn2a_branch1
I0208 19:21:39.667989 20693 net.cpp:434] bn2a_branch1 <- res2a_branch1
I0208 19:21:39.667994 20693 net.cpp:395] bn2a_branch1 -> res2a_branch1 (in-place)
I0208 19:21:39.668663 20693 net.cpp:150] Setting up bn2a_branch1
I0208 19:21:39.668689 20693 net.cpp:157] Top shape: 1 256 64 64 (1048576)
I0208 19:21:39.668692 20693 net.cpp:165] Memory required for data: 40894464
I0208 19:21:39.668705 20693 layer_factory.hpp:77] Creating layer scale2a_branch1
I0208 19:21:39.668714 20693 net.cpp:100] Creating Layer scale2a_branch1
I0208 19:21:39.668717 20693 net.cpp:434] scale2a_branch1 <- res2a_branch1
I0208 19:21:39.668722 20693 net.cpp:395] scale2a_branch1 -> res2a_branch1 (in-place)
I0208 19:21:39.668798 20693 layer_factory.hpp:77] Creating layer scale2a_branch1
I0208 19:21:39.668915 20693 net.cpp:150] Setting up scale2a_branch1
I0208 19:21:39.668926 20693 net.cpp:157] Top shape: 1 256 64 64 (1048576)
I0208 19:21:39.668929 20693 net.cpp:165] Memory required for data: 45088768
I0208 19:21:39.668936 20693 layer_factory.hpp:77] Creating layer res2a_branch2a
I0208 19:21:39.668947 20693 net.cpp:100] Creating Layer res2a_branch2a
I0208 19:21:39.668951 20693 net.cpp:434] res2a_branch2a <- pool1_pool1_0_split_1
I0208 19:21:39.668957 20693 net.cpp:408] res2a_branch2a -> res2a_branch2a
I0208 19:21:39.669901 20693 net.cpp:150] Setting up res2a_branch2a
I0208 19:21:39.669929 20693 net.cpp:157] Top shape: 1 64 64 64 (262144)
I0208 19:21:39.669932 20693 net.cpp:165] Memory required for data: 46137344
I0208 19:21:39.669939 20693 layer_factory.hpp:77] Creating layer bn2a_branch2a
I0208 19:21:39.669947 20693 net.cpp:100] Creating Layer bn2a_branch2a
I0208 19:21:39.669952 20693 net.cpp:434] bn2a_branch2a <- res2a_branch2a
I0208 19:21:39.669957 20693 net.cpp:395] bn2a_branch2a -> res2a_branch2a (in-place)
I0208 19:21:39.670156 20693 net.cpp:150] Setting up bn2a_branch2a
I0208 19:21:39.670166 20693 net.cpp:157] Top shape: 1 64 64 64 (262144)
I0208 19:21:39.670171 20693 net.cpp:165] Memory required for data: 47185920
I0208 19:21:39.670181 20693 layer_factory.hpp:77] Creating layer scale2a_branch2a
I0208 19:21:39.670186 20693 net.cpp:100] Creating Layer scale2a_branch2a
I0208 19:21:39.670192 20693 net.cpp:434] scale2a_branch2a <- res2a_branch2a
I0208 19:21:39.670197 20693 net.cpp:395] scale2a_branch2a -> res2a_branch2a (in-place)
I0208 19:21:39.670234 20693 layer_factory.hpp:77] Creating layer scale2a_branch2a
I0208 19:21:39.670349 20693 net.cpp:150] Setting up scale2a_branch2a
I0208 19:21:39.670358 20693 net.cpp:157] Top shape: 1 64 64 64 (262144)
I0208 19:21:39.670362 20693 net.cpp:165] Memory required for data: 48234496
I0208 19:21:39.670374 20693 layer_factory.hpp:77] Creating layer res2a_branch2a_relu
I0208 19:21:39.670382 20693 net.cpp:100] Creating Layer res2a_branch2a_relu
I0208 19:21:39.670387 20693 net.cpp:434] res2a_branch2a_relu <- res2a_branch2a
I0208 19:21:39.670392 20693 net.cpp:395] res2a_branch2a_relu -> res2a_branch2a (in-place)
I0208 19:21:39.670708 20693 net.cpp:150] Setting up res2a_branch2a_relu
I0208 19:21:39.670723 20693 net.cpp:157] Top shape: 1 64 64 64 (262144)
I0208 19:21:39.670728 20693 net.cpp:165] Memory required for data: 49283072
I0208 19:21:39.670732 20693 layer_factory.hpp:77] Creating layer res2a_branch2b
I0208 19:21:39.670742 20693 net.cpp:100] Creating Layer res2a_branch2b
I0208 19:21:39.670747 20693 net.cpp:434] res2a_branch2b <- res2a_branch2a
I0208 19:21:39.670753 20693 net.cpp:408] res2a_branch2b -> res2a_branch2b
I0208 19:21:39.672104 20693 net.cpp:150] Setting up res2a_branch2b
I0208 19:21:39.672132 20693 net.cpp:157] Top shape: 1 64 64 64 (262144)
I0208 19:21:39.672137 20693 net.cpp:165] Memory required for data: 50331648
I0208 19:21:39.672143 20693 layer_factory.hpp:77] Creating layer bn2a_branch2b
I0208 19:21:39.672152 20693 net.cpp:100] Creating Layer bn2a_branch2b
I0208 19:21:39.672157 20693 net.cpp:434] bn2a_branch2b <- res2a_branch2b
I0208 19:21:39.672163 20693 net.cpp:395] bn2a_branch2b -> res2a_branch2b (in-place)
I0208 19:21:39.672363 20693 net.cpp:150] Setting up bn2a_branch2b
I0208 19:21:39.672374 20693 net.cpp:157] Top shape: 1 64 64 64 (262144)
I0208 19:21:39.672377 20693 net.cpp:165] Memory required for data: 51380224
I0208 19:21:39.672385 20693 layer_factory.hpp:77] Creating layer scale2a_branch2b
I0208 19:21:39.672392 20693 net.cpp:100] Creating Layer scale2a_branch2b
I0208 19:21:39.672396 20693 net.cpp:434] scale2a_branch2b <- res2a_branch2b
I0208 19:21:39.672406 20693 net.cpp:395] scale2a_branch2b -> res2a_branch2b (in-place)
I0208 19:21:39.672444 20693 layer_factory.hpp:77] Creating layer scale2a_branch2b
I0208 19:21:39.672557 20693 net.cpp:150] Setting up scale2a_branch2b
I0208 19:21:39.672569 20693 net.cpp:157] Top shape: 1 64 64 64 (262144)
I0208 19:21:39.672572 20693 net.cpp:165] Memory required for data: 52428800
I0208 19:21:39.672580 20693 layer_factory.hpp:77] Creating layer res2a_branch2b_relu
I0208 19:21:39.672585 20693 net.cpp:100] Creating Layer res2a_branch2b_relu
I0208 19:21:39.672590 20693 net.cpp:434] res2a_branch2b_relu <- res2a_branch2b
I0208 19:21:39.672595 20693 net.cpp:395] res2a_branch2b_relu -> res2a_branch2b (in-place)
I0208 19:21:39.672935 20693 net.cpp:150] Setting up res2a_branch2b_relu
I0208 19:21:39.672960 20693 net.cpp:157] Top shape: 1 64 64 64 (262144)
I0208 19:21:39.672963 20693 net.cpp:165] Memory required for data: 53477376
I0208 19:21:39.672968 20693 layer_factory.hpp:77] Creating layer res2a_branch2c
I0208 19:21:39.672978 20693 net.cpp:100] Creating Layer res2a_branch2c
I0208 19:21:39.672983 20693 net.cpp:434] res2a_branch2c <- res2a_branch2b
I0208 19:21:39.672991 20693 net.cpp:408] res2a_branch2c -> res2a_branch2c
I0208 19:21:39.673985 20693 net.cpp:150] Setting up res2a_branch2c
I0208 19:21:39.674001 20693 net.cpp:157] Top shape: 1 256 64 64 (1048576)
I0208 19:21:39.674005 20693 net.cpp:165] Memory required for data: 57671680
I0208 19:21:39.674012 20693 layer_factory.hpp:77] Creating layer bn2a_branch2c
I0208 19:21:39.674019 20693 net.cpp:100] Creating Layer bn2a_branch2c
I0208 19:21:39.674036 20693 net.cpp:434] bn2a_branch2c <- res2a_branch2c
I0208 19:21:39.674042 20693 net.cpp:395] bn2a_branch2c -> res2a_branch2c (in-place)
I0208 19:21:39.674216 20693 net.cpp:150] Setting up bn2a_branch2c
I0208 19:21:39.674226 20693 net.cpp:157] Top shape: 1 256 64 64 (1048576)
I0208 19:21:39.674228 20693 net.cpp:165] Memory required for data: 61865984
I0208 19:21:39.674237 20693 layer_factory.hpp:77] Creating layer scale2a_branch2c
I0208 19:21:39.674244 20693 net.cpp:100] Creating Layer scale2a_branch2c
I0208 19:21:39.674249 20693 net.cpp:434] scale2a_branch2c <- res2a_branch2c
I0208 19:21:39.674254 20693 net.cpp:395] scale2a_branch2c -> res2a_branch2c (in-place)
I0208 19:21:39.674291 20693 layer_factory.hpp:77] Creating layer scale2a_branch2c
I0208 19:21:39.674391 20693 net.cpp:150] Setting up scale2a_branch2c
I0208 19:21:39.674401 20693 net.cpp:157] Top shape: 1 256 64 64 (1048576)
I0208 19:21:39.674404 20693 net.cpp:165] Memory required for data: 66060288
I0208 19:21:39.674412 20693 layer_factory.hpp:77] Creating layer res2a
I0208 19:21:39.674418 20693 net.cpp:100] Creating Layer res2a
I0208 19:21:39.674423 20693 net.cpp:434] res2a <- res2a_branch1
I0208 19:21:39.674427 20693 net.cpp:434] res2a <- res2a_branch2c
I0208 19:21:39.674445 20693 net.cpp:408] res2a -> res2a
I0208 19:21:39.674609 20693 net.cpp:150] Setting up res2a
I0208 19:21:39.674623 20693 net.cpp:157] Top shape: 1 256 64 64 (1048576)
I0208 19:21:39.674626 20693 net.cpp:165] Memory required for data: 70254592
I0208 19:21:39.674630 20693 layer_factory.hpp:77] Creating layer res2a_relu
I0208 19:21:39.674638 20693 net.cpp:100] Creating Layer res2a_relu
I0208 19:21:39.674641 20693 net.cpp:434] res2a_relu <- res2a
I0208 19:21:39.674649 20693 net.cpp:395] res2a_relu -> res2a (in-place)
I0208 19:21:39.674839 20693 net.cpp:150] Setting up res2a_relu
I0208 19:21:39.674850 20693 net.cpp:157] Top shape: 1 256 64 64 (1048576)
I0208 19:21:39.674854 20693 net.cpp:165] Memory required for data: 74448896
I0208 19:21:39.674859 20693 layer_factory.hpp:77] Creating layer res2a_res2a_relu_0_split
I0208 19:21:39.674866 20693 net.cpp:100] Creating Layer res2a_res2a_relu_0_split
I0208 19:21:39.674870 20693 net.cpp:434] res2a_res2a_relu_0_split <- res2a
I0208 19:21:39.674877 20693 net.cpp:408] res2a_res2a_relu_0_split -> res2a_res2a_relu_0_split_0
I0208 19:21:39.674885 20693 net.cpp:408] res2a_res2a_relu_0_split -> res2a_res2a_relu_0_split_1
I0208 19:21:39.674923 20693 net.cpp:150] Setting up res2a_res2a_relu_0_split
I0208 19:21:39.674933 20693 net.cpp:157] Top shape: 1 256 64 64 (1048576)
I0208 19:21:39.674939 20693 net.cpp:157] Top shape: 1 256 64 64 (1048576)
I0208 19:21:39.674943 20693 net.cpp:165] Memory required for data: 82837504
I0208 19:21:39.674947 20693 layer_factory.hpp:77] Creating layer res2b_branch2a
I0208 19:21:39.674955 20693 net.cpp:100] Creating Layer res2b_branch2a
I0208 19:21:39.674959 20693 net.cpp:434] res2b_branch2a <- res2a_res2a_relu_0_split_0
I0208 19:21:39.674968 20693 net.cpp:408] res2b_branch2a -> res2b_branch2a
I0208 19:21:39.675900 20693 net.cpp:150] Setting up res2b_branch2a
I0208 19:21:39.675925 20693 net.cpp:157] Top shape: 1 64 64 64 (262144)
I0208 19:21:39.675930 20693 net.cpp:165] Memory required for data: 83886080
I0208 19:21:39.675936 20693 layer_factory.hpp:77] Creating layer bn2b_branch2a
I0208 19:21:39.675945 20693 net.cpp:100] Creating Layer bn2b_branch2a
I0208 19:21:39.675950 20693 net.cpp:434] bn2b_branch2a <- res2b_branch2a
I0208 19:21:39.675954 20693 net.cpp:395] bn2b_branch2a -> res2b_branch2a (in-place)
I0208 19:21:39.676147 20693 net.cpp:150] Setting up bn2b_branch2a
I0208 19:21:39.676157 20693 net.cpp:157] Top shape: 1 64 64 64 (262144)
I0208 19:21:39.676162 20693 net.cpp:165] Memory required for data: 84934656
I0208 19:21:39.676174 20693 layer_factory.hpp:77] Creating layer scale2b_branch2a
I0208 19:21:39.676182 20693 net.cpp:100] Creating Layer scale2b_branch2a
I0208 19:21:39.676185 20693 net.cpp:434] scale2b_branch2a <- res2b_branch2a
I0208 19:21:39.676192 20693 net.cpp:395] scale2b_branch2a -> res2b_branch2a (in-place)
I0208 19:21:39.676232 20693 layer_factory.hpp:77] Creating layer scale2b_branch2a
I0208 19:21:39.676342 20693 net.cpp:150] Setting up scale2b_branch2a
I0208 19:21:39.676352 20693 net.cpp:157] Top shape: 1 64 64 64 (262144)
I0208 19:21:39.676355 20693 net.cpp:165] Memory required for data: 85983232
I0208 19:21:39.676362 20693 layer_factory.hpp:77] Creating layer res2b_branch2a_relu
I0208 19:21:39.676367 20693 net.cpp:100] Creating Layer res2b_branch2a_relu
I0208 19:21:39.676372 20693 net.cpp:434] res2b_branch2a_relu <- res2b_branch2a
I0208 19:21:39.676378 20693 net.cpp:395] res2b_branch2a_relu -> res2b_branch2a (in-place)
I0208 19:21:39.676674 20693 net.cpp:150] Setting up res2b_branch2a_relu
I0208 19:21:39.676700 20693 net.cpp:157] Top shape: 1 64 64 64 (262144)
I0208 19:21:39.676715 20693 net.cpp:165] Memory required for data: 87031808
I0208 19:21:39.676719 20693 layer_factory.hpp:77] Creating layer res2b_branch2b
I0208 19:21:39.676729 20693 net.cpp:100] Creating Layer res2b_branch2b
I0208 19:21:39.676733 20693 net.cpp:434] res2b_branch2b <- res2b_branch2a
I0208 19:21:39.676739 20693 net.cpp:408] res2b_branch2b -> res2b_branch2b
I0208 19:21:39.677583 20693 net.cpp:150] Setting up res2b_branch2b
I0208 19:21:39.677609 20693 net.cpp:157] Top shape: 1 64 64 64 (262144)
I0208 19:21:39.677613 20693 net.cpp:165] Memory required for data: 88080384
I0208 19:21:39.677620 20693 layer_factory.hpp:77] Creating layer bn2b_branch2b
I0208 19:21:39.677628 20693 net.cpp:100] Creating Layer bn2b_branch2b
I0208 19:21:39.677644 20693 net.cpp:434] bn2b_branch2b <- res2b_branch2b
I0208 19:21:39.677652 20693 net.cpp:395] bn2b_branch2b -> res2b_branch2b (in-place)
I0208 19:21:39.677829 20693 net.cpp:150] Setting up bn2b_branch2b
I0208 19:21:39.677839 20693 net.cpp:157] Top shape: 1 64 64 64 (262144)
I0208 19:21:39.677844 20693 net.cpp:165] Memory required for data: 89128960
I0208 19:21:39.677851 20693 layer_factory.hpp:77] Creating layer scale2b_branch2b
I0208 19:21:39.677858 20693 net.cpp:100] Creating Layer scale2b_branch2b
I0208 19:21:39.677863 20693 net.cpp:434] scale2b_branch2b <- res2b_branch2b
I0208 19:21:39.677868 20693 net.cpp:395] scale2b_branch2b -> res2b_branch2b (in-place)
I0208 19:21:39.677907 20693 layer_factory.hpp:77] Creating layer scale2b_branch2b
I0208 19:21:39.678017 20693 net.cpp:150] Setting up scale2b_branch2b
I0208 19:21:39.678026 20693 net.cpp:157] Top shape: 1 64 64 64 (262144)
I0208 19:21:39.678030 20693 net.cpp:165] Memory required for data: 90177536
I0208 19:21:39.678037 20693 layer_factory.hpp:77] Creating layer res2b_branch2b_relu
I0208 19:21:39.678047 20693 net.cpp:100] Creating Layer res2b_branch2b_relu
I0208 19:21:39.678051 20693 net.cpp:434] res2b_branch2b_relu <- res2b_branch2b
I0208 19:21:39.678056 20693 net.cpp:395] res2b_branch2b_relu -> res2b_branch2b (in-place)
I0208 19:21:39.678359 20693 net.cpp:150] Setting up res2b_branch2b_relu
I0208 19:21:39.678397 20693 net.cpp:157] Top shape: 1 64 64 64 (262144)
I0208 19:21:39.678401 20693 net.cpp:165] Memory required for data: 91226112
I0208 19:21:39.678406 20693 layer_factory.hpp:77] Creating layer res2b_branch2c
I0208 19:21:39.678416 20693 net.cpp:100] Creating Layer res2b_branch2c
I0208 19:21:39.678419 20693 net.cpp:434] res2b_branch2c <- res2b_branch2b
I0208 19:21:39.678426 20693 net.cpp:408] res2b_branch2c -> res2b_branch2c
I0208 19:21:39.679392 20693 net.cpp:150] Setting up res2b_branch2c
I0208 19:21:39.679407 20693 net.cpp:157] Top shape: 1 256 64 64 (1048576)
I0208 19:21:39.679422 20693 net.cpp:165] Memory required for data: 95420416
I0208 19:21:39.679430 20693 layer_factory.hpp:77] Creating layer bn2b_branch2c
I0208 19:21:39.679436 20693 net.cpp:100] Creating Layer bn2b_branch2c
I0208 19:21:39.679440 20693 net.cpp:434] bn2b_branch2c <- res2b_branch2c
I0208 19:21:39.679458 20693 net.cpp:395] bn2b_branch2c -> res2b_branch2c (in-place)
I0208 19:21:39.679633 20693 net.cpp:150] Setting up bn2b_branch2c
I0208 19:21:39.679643 20693 net.cpp:157] Top shape: 1 256 64 64 (1048576)
I0208 19:21:39.679647 20693 net.cpp:165] Memory required for data: 99614720
I0208 19:21:39.679656 20693 layer_factory.hpp:77] Creating layer scale2b_branch2c
I0208 19:21:39.679662 20693 net.cpp:100] Creating Layer scale2b_branch2c
I0208 19:21:39.679666 20693 net.cpp:434] scale2b_branch2c <- res2b_branch2c
I0208 19:21:39.679672 20693 net.cpp:395] scale2b_branch2c -> res2b_branch2c (in-place)
I0208 19:21:39.679708 20693 layer_factory.hpp:77] Creating layer scale2b_branch2c
I0208 19:21:39.679811 20693 net.cpp:150] Setting up scale2b_branch2c
I0208 19:21:39.679821 20693 net.cpp:157] Top shape: 1 256 64 64 (1048576)
I0208 19:21:39.679824 20693 net.cpp:165] Memory required for data: 103809024
I0208 19:21:39.679831 20693 layer_factory.hpp:77] Creating layer res2b
I0208 19:21:39.679838 20693 net.cpp:100] Creating Layer res2b
I0208 19:21:39.679842 20693 net.cpp:434] res2b <- res2a_res2a_relu_0_split_1
I0208 19:21:39.679847 20693 net.cpp:434] res2b <- res2b_branch2c
I0208 19:21:39.679852 20693 net.cpp:408] res2b -> res2b
I0208 19:21:39.679877 20693 net.cpp:150] Setting up res2b
I0208 19:21:39.679883 20693 net.cpp:157] Top shape: 1 256 64 64 (1048576)
I0208 19:21:39.679888 20693 net.cpp:165] Memory required for data: 108003328
I0208 19:21:39.679891 20693 layer_factory.hpp:77] Creating layer res2b_relu
I0208 19:21:39.679896 20693 net.cpp:100] Creating Layer res2b_relu
I0208 19:21:39.679900 20693 net.cpp:434] res2b_relu <- res2b
I0208 19:21:39.679906 20693 net.cpp:395] res2b_relu -> res2b (in-place)
I0208 19:21:39.680078 20693 net.cpp:150] Setting up res2b_relu
I0208 19:21:39.680091 20693 net.cpp:157] Top shape: 1 256 64 64 (1048576)
I0208 19:21:39.680095 20693 net.cpp:165] Memory required for data: 112197632
I0208 19:21:39.680099 20693 layer_factory.hpp:77] Creating layer res2b_res2b_relu_0_split
I0208 19:21:39.680105 20693 net.cpp:100] Creating Layer res2b_res2b_relu_0_split
I0208 19:21:39.680109 20693 net.cpp:434] res2b_res2b_relu_0_split <- res2b
I0208 19:21:39.680114 20693 net.cpp:408] res2b_res2b_relu_0_split -> res2b_res2b_relu_0_split_0
I0208 19:21:39.680121 20693 net.cpp:408] res2b_res2b_relu_0_split -> res2b_res2b_relu_0_split_1
I0208 19:21:39.680161 20693 net.cpp:150] Setting up res2b_res2b_relu_0_split
I0208 19:21:39.680171 20693 net.cpp:157] Top shape: 1 256 64 64 (1048576)
I0208 19:21:39.680176 20693 net.cpp:157] Top shape: 1 256 64 64 (1048576)
I0208 19:21:39.680178 20693 net.cpp:165] Memory required for data: 120586240
I0208 19:21:39.680182 20693 layer_factory.hpp:77] Creating layer res2c_branch2a
I0208 19:21:39.680191 20693 net.cpp:100] Creating Layer res2c_branch2a
I0208 19:21:39.680194 20693 net.cpp:434] res2c_branch2a <- res2b_res2b_relu_0_split_0
I0208 19:21:39.680202 20693 net.cpp:408] res2c_branch2a -> res2c_branch2a
I0208 19:21:39.681350 20693 net.cpp:150] Setting up res2c_branch2a
I0208 19:21:39.681365 20693 net.cpp:157] Top shape: 1 64 64 64 (262144)
I0208 19:21:39.681381 20693 net.cpp:165] Memory required for data: 121634816
I0208 19:21:39.681388 20693 layer_factory.hpp:77] Creating layer bn2c_branch2a
I0208 19:21:39.681396 20693 net.cpp:100] Creating Layer bn2c_branch2a
I0208 19:21:39.681401 20693 net.cpp:434] bn2c_branch2a <- res2c_branch2a
I0208 19:21:39.681407 20693 net.cpp:395] bn2c_branch2a -> res2c_branch2a (in-place)
I0208 19:21:39.681594 20693 net.cpp:150] Setting up bn2c_branch2a
I0208 19:21:39.681604 20693 net.cpp:157] Top shape: 1 64 64 64 (262144)
I0208 19:21:39.681608 20693 net.cpp:165] Memory required for data: 122683392
I0208 19:21:39.681617 20693 layer_factory.hpp:77] Creating layer scale2c_branch2a
I0208 19:21:39.681623 20693 net.cpp:100] Creating Layer scale2c_branch2a
I0208 19:21:39.681627 20693 net.cpp:434] scale2c_branch2a <- res2c_branch2a
I0208 19:21:39.681632 20693 net.cpp:395] scale2c_branch2a -> res2c_branch2a (in-place)
I0208 19:21:39.681674 20693 layer_factory.hpp:77] Creating layer scale2c_branch2a
I0208 19:21:39.681785 20693 net.cpp:150] Setting up scale2c_branch2a
I0208 19:21:39.681794 20693 net.cpp:157] Top shape: 1 64 64 64 (262144)
I0208 19:21:39.681798 20693 net.cpp:165] Memory required for data: 123731968
I0208 19:21:39.681805 20693 layer_factory.hpp:77] Creating layer res2c_branch2a_relu
I0208 19:21:39.681810 20693 net.cpp:100] Creating Layer res2c_branch2a_relu
I0208 19:21:39.681814 20693 net.cpp:434] res2c_branch2a_relu <- res2c_branch2a
I0208 19:21:39.681821 20693 net.cpp:395] res2c_branch2a_relu -> res2c_branch2a (in-place)
I0208 19:21:39.682123 20693 net.cpp:150] Setting up res2c_branch2a_relu
I0208 19:21:39.682148 20693 net.cpp:157] Top shape: 1 64 64 64 (262144)
I0208 19:21:39.682164 20693 net.cpp:165] Memory required for data: 124780544
I0208 19:21:39.682168 20693 layer_factory.hpp:77] Creating layer res2c_branch2b
I0208 19:21:39.682178 20693 net.cpp:100] Creating Layer res2c_branch2b
I0208 19:21:39.682183 20693 net.cpp:434] res2c_branch2b <- res2c_branch2a
I0208 19:21:39.682188 20693 net.cpp:408] res2c_branch2b -> res2c_branch2b
I0208 19:21:39.683027 20693 net.cpp:150] Setting up res2c_branch2b
I0208 19:21:39.683043 20693 net.cpp:157] Top shape: 1 64 64 64 (262144)
I0208 19:21:39.683058 20693 net.cpp:165] Memory required for data: 125829120
I0208 19:21:39.683065 20693 layer_factory.hpp:77] Creating layer bn2c_branch2b
I0208 19:21:39.683074 20693 net.cpp:100] Creating Layer bn2c_branch2b
I0208 19:21:39.683079 20693 net.cpp:434] bn2c_branch2b <- res2c_branch2b
I0208 19:21:39.683084 20693 net.cpp:395] bn2c_branch2b -> res2c_branch2b (in-place)
I0208 19:21:39.683272 20693 net.cpp:150] Setting up bn2c_branch2b
I0208 19:21:39.683282 20693 net.cpp:157] Top shape: 1 64 64 64 (262144)
I0208 19:21:39.683286 20693 net.cpp:165] Memory required for data: 126877696
I0208 19:21:39.683295 20693 layer_factory.hpp:77] Creating layer scale2c_branch2b
I0208 19:21:39.683300 20693 net.cpp:100] Creating Layer scale2c_branch2b
I0208 19:21:39.683305 20693 net.cpp:434] scale2c_branch2b <- res2c_branch2b
I0208 19:21:39.683310 20693 net.cpp:395] scale2c_branch2b -> res2c_branch2b (in-place)
I0208 19:21:39.683349 20693 layer_factory.hpp:77] Creating layer scale2c_branch2b
I0208 19:21:39.683475 20693 net.cpp:150] Setting up scale2c_branch2b
I0208 19:21:39.683485 20693 net.cpp:157] Top shape: 1 64 64 64 (262144)
I0208 19:21:39.683490 20693 net.cpp:165] Memory required for data: 127926272
I0208 19:21:39.683496 20693 layer_factory.hpp:77] Creating layer res2c_branch2b_relu
I0208 19:21:39.683502 20693 net.cpp:100] Creating Layer res2c_branch2b_relu
I0208 19:21:39.683506 20693 net.cpp:434] res2c_branch2b_relu <- res2c_branch2b
I0208 19:21:39.683512 20693 net.cpp:395] res2c_branch2b_relu -> res2c_branch2b (in-place)
I0208 19:21:39.683852 20693 net.cpp:150] Setting up res2c_branch2b_relu
I0208 19:21:39.683877 20693 net.cpp:157] Top shape: 1 64 64 64 (262144)
I0208 19:21:39.683881 20693 net.cpp:165] Memory required for data: 128974848
I0208 19:21:39.683886 20693 layer_factory.hpp:77] Creating layer res2c_branch2c
I0208 19:21:39.683895 20693 net.cpp:100] Creating Layer res2c_branch2c
I0208 19:21:39.683899 20693 net.cpp:434] res2c_branch2c <- res2c_branch2b
I0208 19:21:39.683905 20693 net.cpp:408] res2c_branch2c -> res2c_branch2c
I0208 19:21:39.684928 20693 net.cpp:150] Setting up res2c_branch2c
I0208 19:21:39.684944 20693 net.cpp:157] Top shape: 1 256 64 64 (1048576)
I0208 19:21:39.684948 20693 net.cpp:165] Memory required for data: 133169152
I0208 19:21:39.684955 20693 layer_factory.hpp:77] Creating layer bn2c_branch2c
I0208 19:21:39.684963 20693 net.cpp:100] Creating Layer bn2c_branch2c
I0208 19:21:39.684978 20693 net.cpp:434] bn2c_branch2c <- res2c_branch2c
I0208 19:21:39.684984 20693 net.cpp:395] bn2c_branch2c -> res2c_branch2c (in-place)
I0208 19:21:39.685179 20693 net.cpp:150] Setting up bn2c_branch2c
I0208 19:21:39.685189 20693 net.cpp:157] Top shape: 1 256 64 64 (1048576)
I0208 19:21:39.685194 20693 net.cpp:165] Memory required for data: 137363456
I0208 19:21:39.685201 20693 layer_factory.hpp:77] Creating layer scale2c_branch2c
I0208 19:21:39.685209 20693 net.cpp:100] Creating Layer scale2c_branch2c
I0208 19:21:39.685212 20693 net.cpp:434] scale2c_branch2c <- res2c_branch2c
I0208 19:21:39.685216 20693 net.cpp:395] scale2c_branch2c -> res2c_branch2c (in-place)
I0208 19:21:39.685256 20693 layer_factory.hpp:77] Creating layer scale2c_branch2c
I0208 19:21:39.685359 20693 net.cpp:150] Setting up scale2c_branch2c
I0208 19:21:39.685369 20693 net.cpp:157] Top shape: 1 256 64 64 (1048576)
I0208 19:21:39.685372 20693 net.cpp:165] Memory required for data: 141557760
I0208 19:21:39.685389 20693 layer_factory.hpp:77] Creating layer res2c
I0208 19:21:39.685395 20693 net.cpp:100] Creating Layer res2c
I0208 19:21:39.685400 20693 net.cpp:434] res2c <- res2b_res2b_relu_0_split_1
I0208 19:21:39.685405 20693 net.cpp:434] res2c <- res2c_branch2c
I0208 19:21:39.685411 20693 net.cpp:408] res2c -> res2c
I0208 19:21:39.685436 20693 net.cpp:150] Setting up res2c
I0208 19:21:39.685442 20693 net.cpp:157] Top shape: 1 256 64 64 (1048576)
I0208 19:21:39.685446 20693 net.cpp:165] Memory required for data: 145752064
I0208 19:21:39.685451 20693 layer_factory.hpp:77] Creating layer res2c_relu
I0208 19:21:39.685456 20693 net.cpp:100] Creating Layer res2c_relu
I0208 19:21:39.685459 20693 net.cpp:434] res2c_relu <- res2c
I0208 19:21:39.685467 20693 net.cpp:395] res2c_relu -> res2c (in-place)
I0208 19:21:39.685648 20693 net.cpp:150] Setting up res2c_relu
I0208 19:21:39.685660 20693 net.cpp:157] Top shape: 1 256 64 64 (1048576)
I0208 19:21:39.685664 20693 net.cpp:165] Memory required for data: 149946368
I0208 19:21:39.685668 20693 layer_factory.hpp:77] Creating layer res2c_res2c_relu_0_split
I0208 19:21:39.685674 20693 net.cpp:100] Creating Layer res2c_res2c_relu_0_split
I0208 19:21:39.685679 20693 net.cpp:434] res2c_res2c_relu_0_split <- res2c
I0208 19:21:39.685686 20693 net.cpp:408] res2c_res2c_relu_0_split -> res2c_res2c_relu_0_split_0
I0208 19:21:39.685694 20693 net.cpp:408] res2c_res2c_relu_0_split -> res2c_res2c_relu_0_split_1
I0208 19:21:39.685734 20693 net.cpp:150] Setting up res2c_res2c_relu_0_split
I0208 19:21:39.685742 20693 net.cpp:157] Top shape: 1 256 64 64 (1048576)
I0208 19:21:39.685747 20693 net.cpp:157] Top shape: 1 256 64 64 (1048576)
I0208 19:21:39.685751 20693 net.cpp:165] Memory required for data: 158334976
I0208 19:21:39.685755 20693 layer_factory.hpp:77] Creating layer res3a_branch1
I0208 19:21:39.685763 20693 net.cpp:100] Creating Layer res3a_branch1
I0208 19:21:39.685770 20693 net.cpp:434] res3a_branch1 <- res2c_res2c_relu_0_split_0
I0208 19:21:39.685775 20693 net.cpp:408] res3a_branch1 -> res3a_branch1
I0208 19:21:39.687407 20693 net.cpp:150] Setting up res3a_branch1
I0208 19:21:39.687433 20693 net.cpp:157] Top shape: 1 512 32 32 (524288)
I0208 19:21:39.687438 20693 net.cpp:165] Memory required for data: 160432128
I0208 19:21:39.687445 20693 layer_factory.hpp:77] Creating layer bn3a_branch1
I0208 19:21:39.687453 20693 net.cpp:100] Creating Layer bn3a_branch1
I0208 19:21:39.687469 20693 net.cpp:434] bn3a_branch1 <- res3a_branch1
I0208 19:21:39.687475 20693 net.cpp:395] bn3a_branch1 -> res3a_branch1 (in-place)
I0208 19:21:39.688097 20693 net.cpp:150] Setting up bn3a_branch1
I0208 19:21:39.688112 20693 net.cpp:157] Top shape: 1 512 32 32 (524288)
I0208 19:21:39.688127 20693 net.cpp:165] Memory required for data: 162529280
I0208 19:21:39.688136 20693 layer_factory.hpp:77] Creating layer scale3a_branch1
I0208 19:21:39.688143 20693 net.cpp:100] Creating Layer scale3a_branch1
I0208 19:21:39.688159 20693 net.cpp:434] scale3a_branch1 <- res3a_branch1
I0208 19:21:39.688164 20693 net.cpp:395] scale3a_branch1 -> res3a_branch1 (in-place)
I0208 19:21:39.688205 20693 layer_factory.hpp:77] Creating layer scale3a_branch1
I0208 19:21:39.688307 20693 net.cpp:150] Setting up scale3a_branch1
I0208 19:21:39.688316 20693 net.cpp:157] Top shape: 1 512 32 32 (524288)
I0208 19:21:39.688320 20693 net.cpp:165] Memory required for data: 164626432
I0208 19:21:39.688328 20693 layer_factory.hpp:77] Creating layer res3a_branch2a
I0208 19:21:39.688336 20693 net.cpp:100] Creating Layer res3a_branch2a
I0208 19:21:39.688343 20693 net.cpp:434] res3a_branch2a <- res2c_res2c_relu_0_split_1
I0208 19:21:39.688349 20693 net.cpp:408] res3a_branch2a -> res3a_branch2a
I0208 19:21:39.689378 20693 net.cpp:150] Setting up res3a_branch2a
I0208 19:21:39.689394 20693 net.cpp:157] Top shape: 1 128 32 32 (131072)
I0208 19:21:39.689409 20693 net.cpp:165] Memory required for data: 165150720
I0208 19:21:39.689414 20693 layer_factory.hpp:77] Creating layer bn3a_branch2a
I0208 19:21:39.689421 20693 net.cpp:100] Creating Layer bn3a_branch2a
I0208 19:21:39.689436 20693 net.cpp:434] bn3a_branch2a <- res3a_branch2a
I0208 19:21:39.689443 20693 net.cpp:395] bn3a_branch2a -> res3a_branch2a (in-place)
I0208 19:21:39.689652 20693 net.cpp:150] Setting up bn3a_branch2a
I0208 19:21:39.689663 20693 net.cpp:157] Top shape: 1 128 32 32 (131072)
I0208 19:21:39.689667 20693 net.cpp:165] Memory required for data: 165675008
I0208 19:21:39.689676 20693 layer_factory.hpp:77] Creating layer scale3a_branch2a
I0208 19:21:39.689682 20693 net.cpp:100] Creating Layer scale3a_branch2a
I0208 19:21:39.689687 20693 net.cpp:434] scale3a_branch2a <- res3a_branch2a
I0208 19:21:39.689692 20693 net.cpp:395] scale3a_branch2a -> res3a_branch2a (in-place)
I0208 19:21:39.689731 20693 layer_factory.hpp:77] Creating layer scale3a_branch2a
I0208 19:21:39.689834 20693 net.cpp:150] Setting up scale3a_branch2a
I0208 19:21:39.689843 20693 net.cpp:157] Top shape: 1 128 32 32 (131072)
I0208 19:21:39.689847 20693 net.cpp:165] Memory required for data: 166199296
I0208 19:21:39.689854 20693 layer_factory.hpp:77] Creating layer res3a_branch2a_relu
I0208 19:21:39.689860 20693 net.cpp:100] Creating Layer res3a_branch2a_relu
I0208 19:21:39.689864 20693 net.cpp:434] res3a_branch2a_relu <- res3a_branch2a
I0208 19:21:39.689882 20693 net.cpp:395] res3a_branch2a_relu -> res3a_branch2a (in-place)
I0208 19:21:39.690058 20693 net.cpp:150] Setting up res3a_branch2a_relu
I0208 19:21:39.690069 20693 net.cpp:157] Top shape: 1 128 32 32 (131072)
I0208 19:21:39.690073 20693 net.cpp:165] Memory required for data: 166723584
I0208 19:21:39.690078 20693 layer_factory.hpp:77] Creating layer res3a_branch2b
I0208 19:21:39.690085 20693 net.cpp:100] Creating Layer res3a_branch2b
I0208 19:21:39.690089 20693 net.cpp:434] res3a_branch2b <- res3a_branch2a
I0208 19:21:39.690098 20693 net.cpp:408] res3a_branch2b -> res3a_branch2b
I0208 19:21:39.691596 20693 net.cpp:150] Setting up res3a_branch2b
I0208 19:21:39.691612 20693 net.cpp:157] Top shape: 1 128 32 32 (131072)
I0208 19:21:39.691627 20693 net.cpp:165] Memory required for data: 167247872
I0208 19:21:39.691634 20693 layer_factory.hpp:77] Creating layer bn3a_branch2b
I0208 19:21:39.691642 20693 net.cpp:100] Creating Layer bn3a_branch2b
I0208 19:21:39.691648 20693 net.cpp:434] bn3a_branch2b <- res3a_branch2b
I0208 19:21:39.691653 20693 net.cpp:395] bn3a_branch2b -> res3a_branch2b (in-place)
I0208 19:21:39.691838 20693 net.cpp:150] Setting up bn3a_branch2b
I0208 19:21:39.691848 20693 net.cpp:157] Top shape: 1 128 32 32 (131072)
I0208 19:21:39.691853 20693 net.cpp:165] Memory required for data: 167772160
I0208 19:21:39.691864 20693 layer_factory.hpp:77] Creating layer scale3a_branch2b
I0208 19:21:39.691870 20693 net.cpp:100] Creating Layer scale3a_branch2b
I0208 19:21:39.691874 20693 net.cpp:434] scale3a_branch2b <- res3a_branch2b
I0208 19:21:39.691879 20693 net.cpp:395] scale3a_branch2b -> res3a_branch2b (in-place)
I0208 19:21:39.691920 20693 layer_factory.hpp:77] Creating layer scale3a_branch2b
I0208 19:21:39.692018 20693 net.cpp:150] Setting up scale3a_branch2b
I0208 19:21:39.692028 20693 net.cpp:157] Top shape: 1 128 32 32 (131072)
I0208 19:21:39.692032 20693 net.cpp:165] Memory required for data: 168296448
I0208 19:21:39.692039 20693 layer_factory.hpp:77] Creating layer res3a_branch2b_relu
I0208 19:21:39.692044 20693 net.cpp:100] Creating Layer res3a_branch2b_relu
I0208 19:21:39.692049 20693 net.cpp:434] res3a_branch2b_relu <- res3a_branch2b
I0208 19:21:39.692054 20693 net.cpp:395] res3a_branch2b_relu -> res3a_branch2b (in-place)
I0208 19:21:39.692371 20693 net.cpp:150] Setting up res3a_branch2b_relu
I0208 19:21:39.692396 20693 net.cpp:157] Top shape: 1 128 32 32 (131072)
I0208 19:21:39.692400 20693 net.cpp:165] Memory required for data: 168820736
I0208 19:21:39.692405 20693 layer_factory.hpp:77] Creating layer res3a_branch2c
I0208 19:21:39.692422 20693 net.cpp:100] Creating Layer res3a_branch2c
I0208 19:21:39.692426 20693 net.cpp:434] res3a_branch2c <- res3a_branch2b
I0208 19:21:39.692433 20693 net.cpp:408] res3a_branch2c -> res3a_branch2c
I0208 19:21:39.693359 20693 net.cpp:150] Setting up res3a_branch2c
I0208 19:21:39.693387 20693 net.cpp:157] Top shape: 1 512 32 32 (524288)
I0208 19:21:39.693390 20693 net.cpp:165] Memory required for data: 170917888
I0208 19:21:39.693397 20693 layer_factory.hpp:77] Creating layer bn3a_branch2c
I0208 19:21:39.693405 20693 net.cpp:100] Creating Layer bn3a_branch2c
I0208 19:21:39.693421 20693 net.cpp:434] bn3a_branch2c <- res3a_branch2c
I0208 19:21:39.693428 20693 net.cpp:395] bn3a_branch2c -> res3a_branch2c (in-place)
I0208 19:21:39.693608 20693 net.cpp:150] Setting up bn3a_branch2c
I0208 19:21:39.693619 20693 net.cpp:157] Top shape: 1 512 32 32 (524288)
I0208 19:21:39.693624 20693 net.cpp:165] Memory required for data: 173015040
I0208 19:21:39.693630 20693 layer_factory.hpp:77] Creating layer scale3a_branch2c
I0208 19:21:39.693639 20693 net.cpp:100] Creating Layer scale3a_branch2c
I0208 19:21:39.693645 20693 net.cpp:434] scale3a_branch2c <- res3a_branch2c
I0208 19:21:39.693650 20693 net.cpp:395] scale3a_branch2c -> res3a_branch2c (in-place)
I0208 19:21:39.693686 20693 layer_factory.hpp:77] Creating layer scale3a_branch2c
I0208 19:21:39.693794 20693 net.cpp:150] Setting up scale3a_branch2c
I0208 19:21:39.693804 20693 net.cpp:157] Top shape: 1 512 32 32 (524288)
I0208 19:21:39.693809 20693 net.cpp:165] Memory required for data: 175112192
I0208 19:21:39.693815 20693 layer_factory.hpp:77] Creating layer res3a
I0208 19:21:39.693821 20693 net.cpp:100] Creating Layer res3a
I0208 19:21:39.693825 20693 net.cpp:434] res3a <- res3a_branch1
I0208 19:21:39.693830 20693 net.cpp:434] res3a <- res3a_branch2c
I0208 19:21:39.693835 20693 net.cpp:408] res3a -> res3a
I0208 19:21:39.693861 20693 net.cpp:150] Setting up res3a
I0208 19:21:39.693869 20693 net.cpp:157] Top shape: 1 512 32 32 (524288)
I0208 19:21:39.693873 20693 net.cpp:165] Memory required for data: 177209344
I0208 19:21:39.693877 20693 layer_factory.hpp:77] Creating layer res3a_relu
I0208 19:21:39.693882 20693 net.cpp:100] Creating Layer res3a_relu
I0208 19:21:39.693886 20693 net.cpp:434] res3a_relu <- res3a
I0208 19:21:39.693892 20693 net.cpp:395] res3a_relu -> res3a (in-place)
I0208 19:21:39.694211 20693 net.cpp:150] Setting up res3a_relu
I0208 19:21:39.694226 20693 net.cpp:157] Top shape: 1 512 32 32 (524288)
I0208 19:21:39.694231 20693 net.cpp:165] Memory required for data: 179306496
I0208 19:21:39.694234 20693 layer_factory.hpp:77] Creating layer res3a_res3a_relu_0_split
I0208 19:21:39.694242 20693 net.cpp:100] Creating Layer res3a_res3a_relu_0_split
I0208 19:21:39.694245 20693 net.cpp:434] res3a_res3a_relu_0_split <- res3a
I0208 19:21:39.694252 20693 net.cpp:408] res3a_res3a_relu_0_split -> res3a_res3a_relu_0_split_0
I0208 19:21:39.694258 20693 net.cpp:408] res3a_res3a_relu_0_split -> res3a_res3a_relu_0_split_1
I0208 19:21:39.694303 20693 net.cpp:150] Setting up res3a_res3a_relu_0_split
I0208 19:21:39.694313 20693 net.cpp:157] Top shape: 1 512 32 32 (524288)
I0208 19:21:39.694317 20693 net.cpp:157] Top shape: 1 512 32 32 (524288)
I0208 19:21:39.694320 20693 net.cpp:165] Memory required for data: 183500800
I0208 19:21:39.694324 20693 layer_factory.hpp:77] Creating layer res3b1_branch2a
I0208 19:21:39.694334 20693 net.cpp:100] Creating Layer res3b1_branch2a
I0208 19:21:39.694337 20693 net.cpp:434] res3b1_branch2a <- res3a_res3a_relu_0_split_0
I0208 19:21:39.694344 20693 net.cpp:408] res3b1_branch2a -> res3b1_branch2a
I0208 19:21:39.695902 20693 net.cpp:150] Setting up res3b1_branch2a
I0208 19:21:39.695929 20693 net.cpp:157] Top shape: 1 128 32 32 (131072)
I0208 19:21:39.695933 20693 net.cpp:165] Memory required for data: 184025088
I0208 19:21:39.695940 20693 layer_factory.hpp:77] Creating layer bn3b1_branch2a
I0208 19:21:39.695948 20693 net.cpp:100] Creating Layer bn3b1_branch2a
I0208 19:21:39.695953 20693 net.cpp:434] bn3b1_branch2a <- res3b1_branch2a
I0208 19:21:39.695960 20693 net.cpp:395] bn3b1_branch2a -> res3b1_branch2a (in-place)
I0208 19:21:39.696164 20693 net.cpp:150] Setting up bn3b1_branch2a
I0208 19:21:39.696174 20693 net.cpp:157] Top shape: 1 128 32 32 (131072)
I0208 19:21:39.696178 20693 net.cpp:165] Memory required for data: 184549376
I0208 19:21:39.696187 20693 layer_factory.hpp:77] Creating layer scale3b1_branch2a
I0208 19:21:39.696195 20693 net.cpp:100] Creating Layer scale3b1_branch2a
I0208 19:21:39.696200 20693 net.cpp:434] scale3b1_branch2a <- res3b1_branch2a
I0208 19:21:39.696207 20693 net.cpp:395] scale3b1_branch2a -> res3b1_branch2a (in-place)
I0208 19:21:39.696247 20693 layer_factory.hpp:77] Creating layer scale3b1_branch2a
I0208 19:21:39.696352 20693 net.cpp:150] Setting up scale3b1_branch2a
I0208 19:21:39.696360 20693 net.cpp:157] Top shape: 1 128 32 32 (131072)
I0208 19:21:39.696364 20693 net.cpp:165] Memory required for data: 185073664
I0208 19:21:39.696372 20693 layer_factory.hpp:77] Creating layer res3b1_branch2a_relu
I0208 19:21:39.696377 20693 net.cpp:100] Creating Layer res3b1_branch2a_relu
I0208 19:21:39.696382 20693 net.cpp:434] res3b1_branch2a_relu <- res3b1_branch2a
I0208 19:21:39.696385 20693 net.cpp:395] res3b1_branch2a_relu -> res3b1_branch2a (in-place)
I0208 19:21:39.696575 20693 net.cpp:150] Setting up res3b1_branch2a_relu
I0208 19:21:39.696588 20693 net.cpp:157] Top shape: 1 128 32 32 (131072)
I0208 19:21:39.696591 20693 net.cpp:165] Memory required for data: 185597952
I0208 19:21:39.696595 20693 layer_factory.hpp:77] Creating layer res3b1_branch2b
I0208 19:21:39.696604 20693 net.cpp:100] Creating Layer res3b1_branch2b
I0208 19:21:39.696609 20693 net.cpp:434] res3b1_branch2b <- res3b1_branch2a
I0208 19:21:39.696616 20693 net.cpp:408] res3b1_branch2b -> res3b1_branch2b
I0208 19:21:39.698279 20693 net.cpp:150] Setting up res3b1_branch2b
I0208 19:21:39.698307 20693 net.cpp:157] Top shape: 1 128 32 32 (131072)
I0208 19:21:39.698310 20693 net.cpp:165] Memory required for data: 186122240
I0208 19:21:39.698318 20693 layer_factory.hpp:77] Creating layer bn3b1_branch2b
I0208 19:21:39.698328 20693 net.cpp:100] Creating Layer bn3b1_branch2b
I0208 19:21:39.698343 20693 net.cpp:434] bn3b1_branch2b <- res3b1_branch2b
I0208 19:21:39.698360 20693 net.cpp:395] bn3b1_branch2b -> res3b1_branch2b (in-place)
I0208 19:21:39.698549 20693 net.cpp:150] Setting up bn3b1_branch2b
I0208 19:21:39.698559 20693 net.cpp:157] Top shape: 1 128 32 32 (131072)
I0208 19:21:39.698562 20693 net.cpp:165] Memory required for data: 186646528
I0208 19:21:39.698570 20693 layer_factory.hpp:77] Creating layer scale3b1_branch2b
I0208 19:21:39.698580 20693 net.cpp:100] Creating Layer scale3b1_branch2b
I0208 19:21:39.698585 20693 net.cpp:434] scale3b1_branch2b <- res3b1_branch2b
I0208 19:21:39.698590 20693 net.cpp:395] scale3b1_branch2b -> res3b1_branch2b (in-place)
I0208 19:21:39.698631 20693 layer_factory.hpp:77] Creating layer scale3b1_branch2b
I0208 19:21:39.698732 20693 net.cpp:150] Setting up scale3b1_branch2b
I0208 19:21:39.698743 20693 net.cpp:157] Top shape: 1 128 32 32 (131072)
I0208 19:21:39.698746 20693 net.cpp:165] Memory required for data: 187170816
I0208 19:21:39.698753 20693 layer_factory.hpp:77] Creating layer res3b1_branch2b_relu
I0208 19:21:39.698760 20693 net.cpp:100] Creating Layer res3b1_branch2b_relu
I0208 19:21:39.698763 20693 net.cpp:434] res3b1_branch2b_relu <- res3b1_branch2b
I0208 19:21:39.698768 20693 net.cpp:395] res3b1_branch2b_relu -> res3b1_branch2b (in-place)
I0208 19:21:39.699121 20693 net.cpp:150] Setting up res3b1_branch2b_relu
I0208 19:21:39.699146 20693 net.cpp:157] Top shape: 1 128 32 32 (131072)
I0208 19:21:39.699151 20693 net.cpp:165] Memory required for data: 187695104
I0208 19:21:39.699156 20693 layer_factory.hpp:77] Creating layer res3b1_branch2c
I0208 19:21:39.699165 20693 net.cpp:100] Creating Layer res3b1_branch2c
I0208 19:21:39.699180 20693 net.cpp:434] res3b1_branch2c <- res3b1_branch2b
I0208 19:21:39.699198 20693 net.cpp:408] res3b1_branch2c -> res3b1_branch2c
I0208 19:21:39.700141 20693 net.cpp:150] Setting up res3b1_branch2c
I0208 19:21:39.700156 20693 net.cpp:157] Top shape: 1 512 32 32 (524288)
I0208 19:21:39.700171 20693 net.cpp:165] Memory required for data: 189792256
I0208 19:21:39.700178 20693 layer_factory.hpp:77] Creating layer bn3b1_branch2c
I0208 19:21:39.700186 20693 net.cpp:100] Creating Layer bn3b1_branch2c
I0208 19:21:39.700202 20693 net.cpp:434] bn3b1_branch2c <- res3b1_branch2c
I0208 19:21:39.700207 20693 net.cpp:395] bn3b1_branch2c -> res3b1_branch2c (in-place)
I0208 19:21:39.700412 20693 net.cpp:150] Setting up bn3b1_branch2c
I0208 19:21:39.700423 20693 net.cpp:157] Top shape: 1 512 32 32 (524288)
I0208 19:21:39.700426 20693 net.cpp:165] Memory required for data: 191889408
I0208 19:21:39.700434 20693 layer_factory.hpp:77] Creating layer scale3b1_branch2c
I0208 19:21:39.700441 20693 net.cpp:100] Creating Layer scale3b1_branch2c
I0208 19:21:39.700445 20693 net.cpp:434] scale3b1_branch2c <- res3b1_branch2c
I0208 19:21:39.700450 20693 net.cpp:395] scale3b1_branch2c -> res3b1_branch2c (in-place)
I0208 19:21:39.700490 20693 layer_factory.hpp:77] Creating layer scale3b1_branch2c
I0208 19:21:39.700608 20693 net.cpp:150] Setting up scale3b1_branch2c
I0208 19:21:39.700618 20693 net.cpp:157] Top shape: 1 512 32 32 (524288)
I0208 19:21:39.700621 20693 net.cpp:165] Memory required for data: 193986560
I0208 19:21:39.700628 20693 layer_factory.hpp:77] Creating layer res3b1
I0208 19:21:39.700635 20693 net.cpp:100] Creating Layer res3b1
I0208 19:21:39.700640 20693 net.cpp:434] res3b1 <- res3a_res3a_relu_0_split_1
I0208 19:21:39.700645 20693 net.cpp:434] res3b1 <- res3b1_branch2c
I0208 19:21:39.700651 20693 net.cpp:408] res3b1 -> res3b1
I0208 19:21:39.700683 20693 net.cpp:150] Setting up res3b1
I0208 19:21:39.700690 20693 net.cpp:157] Top shape: 1 512 32 32 (524288)
I0208 19:21:39.700695 20693 net.cpp:165] Memory required for data: 196083712
I0208 19:21:39.700698 20693 layer_factory.hpp:77] Creating layer res3b1_relu
I0208 19:21:39.700706 20693 net.cpp:100] Creating Layer res3b1_relu
I0208 19:21:39.700709 20693 net.cpp:434] res3b1_relu <- res3b1
I0208 19:21:39.700714 20693 net.cpp:395] res3b1_relu -> res3b1 (in-place)
I0208 19:21:39.701042 20693 net.cpp:150] Setting up res3b1_relu
I0208 19:21:39.701057 20693 net.cpp:157] Top shape: 1 512 32 32 (524288)
I0208 19:21:39.701062 20693 net.cpp:165] Memory required for data: 198180864
I0208 19:21:39.701066 20693 layer_factory.hpp:77] Creating layer res3b1_res3b1_relu_0_split
I0208 19:21:39.701074 20693 net.cpp:100] Creating Layer res3b1_res3b1_relu_0_split
I0208 19:21:39.701079 20693 net.cpp:434] res3b1_res3b1_relu_0_split <- res3b1
I0208 19:21:39.701086 20693 net.cpp:408] res3b1_res3b1_relu_0_split -> res3b1_res3b1_relu_0_split_0
I0208 19:21:39.701097 20693 net.cpp:408] res3b1_res3b1_relu_0_split -> res3b1_res3b1_relu_0_split_1
I0208 19:21:39.701140 20693 net.cpp:150] Setting up res3b1_res3b1_relu_0_split
I0208 19:21:39.701150 20693 net.cpp:157] Top shape: 1 512 32 32 (524288)
I0208 19:21:39.701155 20693 net.cpp:157] Top shape: 1 512 32 32 (524288)
I0208 19:21:39.701159 20693 net.cpp:165] Memory required for data: 202375168
I0208 19:21:39.701162 20693 layer_factory.hpp:77] Creating layer res3b2_branch2a
I0208 19:21:39.701172 20693 net.cpp:100] Creating Layer res3b2_branch2a
I0208 19:21:39.701176 20693 net.cpp:434] res3b2_branch2a <- res3b1_res3b1_relu_0_split_0
I0208 19:21:39.701182 20693 net.cpp:408] res3b2_branch2a -> res3b2_branch2a
I0208 19:21:39.702240 20693 net.cpp:150] Setting up res3b2_branch2a
I0208 19:21:39.702266 20693 net.cpp:157] Top shape: 1 128 32 32 (131072)
I0208 19:21:39.702271 20693 net.cpp:165] Memory required for data: 202899456
I0208 19:21:39.702277 20693 layer_factory.hpp:77] Creating layer bn3b2_branch2a
I0208 19:21:39.702286 20693 net.cpp:100] Creating Layer bn3b2_branch2a
I0208 19:21:39.702301 20693 net.cpp:434] bn3b2_branch2a <- res3b2_branch2a
I0208 19:21:39.702307 20693 net.cpp:395] bn3b2_branch2a -> res3b2_branch2a (in-place)
I0208 19:21:39.702505 20693 net.cpp:150] Setting up bn3b2_branch2a
I0208 19:21:39.702517 20693 net.cpp:157] Top shape: 1 128 32 32 (131072)
I0208 19:21:39.702520 20693 net.cpp:165] Memory required for data: 203423744
I0208 19:21:39.702529 20693 layer_factory.hpp:77] Creating layer scale3b2_branch2a
I0208 19:21:39.702535 20693 net.cpp:100] Creating Layer scale3b2_branch2a
I0208 19:21:39.702539 20693 net.cpp:434] scale3b2_branch2a <- res3b2_branch2a
I0208 19:21:39.702548 20693 net.cpp:395] scale3b2_branch2a -> res3b2_branch2a (in-place)
I0208 19:21:39.702587 20693 layer_factory.hpp:77] Creating layer scale3b2_branch2a
I0208 19:21:39.702700 20693 net.cpp:150] Setting up scale3b2_branch2a
I0208 19:21:39.702710 20693 net.cpp:157] Top shape: 1 128 32 32 (131072)
I0208 19:21:39.702714 20693 net.cpp:165] Memory required for data: 203948032
I0208 19:21:39.702721 20693 layer_factory.hpp:77] Creating layer res3b2_branch2a_relu
I0208 19:21:39.702728 20693 net.cpp:100] Creating Layer res3b2_branch2a_relu
I0208 19:21:39.702731 20693 net.cpp:434] res3b2_branch2a_relu <- res3b2_branch2a
I0208 19:21:39.702739 20693 net.cpp:395] res3b2_branch2a_relu -> res3b2_branch2a (in-place)
I0208 19:21:39.702922 20693 net.cpp:150] Setting up res3b2_branch2a_relu
I0208 19:21:39.702934 20693 net.cpp:157] Top shape: 1 128 32 32 (131072)
I0208 19:21:39.702939 20693 net.cpp:165] Memory required for data: 204472320
I0208 19:21:39.702944 20693 layer_factory.hpp:77] Creating layer res3b2_branch2b
I0208 19:21:39.702952 20693 net.cpp:100] Creating Layer res3b2_branch2b
I0208 19:21:39.702957 20693 net.cpp:434] res3b2_branch2b <- res3b2_branch2a
I0208 19:21:39.702966 20693 net.cpp:408] res3b2_branch2b -> res3b2_branch2b
I0208 19:21:39.704512 20693 net.cpp:150] Setting up res3b2_branch2b
I0208 19:21:39.704540 20693 net.cpp:157] Top shape: 1 128 32 32 (131072)
I0208 19:21:39.704545 20693 net.cpp:165] Memory required for data: 204996608
I0208 19:21:39.704551 20693 layer_factory.hpp:77] Creating layer bn3b2_branch2b
I0208 19:21:39.704560 20693 net.cpp:100] Creating Layer bn3b2_branch2b
I0208 19:21:39.704565 20693 net.cpp:434] bn3b2_branch2b <- res3b2_branch2b
I0208 19:21:39.704571 20693 net.cpp:395] bn3b2_branch2b -> res3b2_branch2b (in-place)
I0208 19:21:39.704792 20693 net.cpp:150] Setting up bn3b2_branch2b
I0208 19:21:39.704804 20693 net.cpp:157] Top shape: 1 128 32 32 (131072)
I0208 19:21:39.704808 20693 net.cpp:165] Memory required for data: 205520896
I0208 19:21:39.704818 20693 layer_factory.hpp:77] Creating layer scale3b2_branch2b
I0208 19:21:39.704824 20693 net.cpp:100] Creating Layer scale3b2_branch2b
I0208 19:21:39.704828 20693 net.cpp:434] scale3b2_branch2b <- res3b2_branch2b
I0208 19:21:39.704834 20693 net.cpp:395] scale3b2_branch2b -> res3b2_branch2b (in-place)
I0208 19:21:39.704880 20693 layer_factory.hpp:77] Creating layer scale3b2_branch2b
I0208 19:21:39.704994 20693 net.cpp:150] Setting up scale3b2_branch2b
I0208 19:21:39.705004 20693 net.cpp:157] Top shape: 1 128 32 32 (131072)
I0208 19:21:39.705008 20693 net.cpp:165] Memory required for data: 206045184
I0208 19:21:39.705015 20693 layer_factory.hpp:77] Creating layer res3b2_branch2b_relu
I0208 19:21:39.705021 20693 net.cpp:100] Creating Layer res3b2_branch2b_relu
I0208 19:21:39.705025 20693 net.cpp:434] res3b2_branch2b_relu <- res3b2_branch2b
I0208 19:21:39.705032 20693 net.cpp:395] res3b2_branch2b_relu -> res3b2_branch2b (in-place)
I0208 19:21:39.705361 20693 net.cpp:150] Setting up res3b2_branch2b_relu
I0208 19:21:39.705389 20693 net.cpp:157] Top shape: 1 128 32 32 (131072)
I0208 19:21:39.705392 20693 net.cpp:165] Memory required for data: 206569472
I0208 19:21:39.705396 20693 layer_factory.hpp:77] Creating layer res3b2_branch2c
I0208 19:21:39.705407 20693 net.cpp:100] Creating Layer res3b2_branch2c
I0208 19:21:39.705411 20693 net.cpp:434] res3b2_branch2c <- res3b2_branch2b
I0208 19:21:39.705420 20693 net.cpp:408] res3b2_branch2c -> res3b2_branch2c
I0208 19:21:39.706380 20693 net.cpp:150] Setting up res3b2_branch2c
I0208 19:21:39.706408 20693 net.cpp:157] Top shape: 1 512 32 32 (524288)
I0208 19:21:39.706411 20693 net.cpp:165] Memory required for data: 208666624
I0208 19:21:39.706418 20693 layer_factory.hpp:77] Creating layer bn3b2_branch2c
I0208 19:21:39.706426 20693 net.cpp:100] Creating Layer bn3b2_branch2c
I0208 19:21:39.706431 20693 net.cpp:434] bn3b2_branch2c <- res3b2_branch2c
I0208 19:21:39.706437 20693 net.cpp:395] bn3b2_branch2c -> res3b2_branch2c (in-place)
I0208 19:21:39.706650 20693 net.cpp:150] Setting up bn3b2_branch2c
I0208 19:21:39.706660 20693 net.cpp:157] Top shape: 1 512 32 32 (524288)
I0208 19:21:39.706665 20693 net.cpp:165] Memory required for data: 210763776
I0208 19:21:39.706672 20693 layer_factory.hpp:77] Creating layer scale3b2_branch2c
I0208 19:21:39.706679 20693 net.cpp:100] Creating Layer scale3b2_branch2c
I0208 19:21:39.706684 20693 net.cpp:434] scale3b2_branch2c <- res3b2_branch2c
I0208 19:21:39.706691 20693 net.cpp:395] scale3b2_branch2c -> res3b2_branch2c (in-place)
I0208 19:21:39.706729 20693 layer_factory.hpp:77] Creating layer scale3b2_branch2c
I0208 19:21:39.706847 20693 net.cpp:150] Setting up scale3b2_branch2c
I0208 19:21:39.706857 20693 net.cpp:157] Top shape: 1 512 32 32 (524288)
I0208 19:21:39.706861 20693 net.cpp:165] Memory required for data: 212860928
I0208 19:21:39.706868 20693 layer_factory.hpp:77] Creating layer res3b2
I0208 19:21:39.706874 20693 net.cpp:100] Creating Layer res3b2
I0208 19:21:39.706878 20693 net.cpp:434] res3b2 <- res3b1_res3b1_relu_0_split_1
I0208 19:21:39.706883 20693 net.cpp:434] res3b2 <- res3b2_branch2c
I0208 19:21:39.706890 20693 net.cpp:408] res3b2 -> res3b2
I0208 19:21:39.706917 20693 net.cpp:150] Setting up res3b2
I0208 19:21:39.706923 20693 net.cpp:157] Top shape: 1 512 32 32 (524288)
I0208 19:21:39.706928 20693 net.cpp:165] Memory required for data: 214958080
I0208 19:21:39.706931 20693 layer_factory.hpp:77] Creating layer res3b2_relu
I0208 19:21:39.706938 20693 net.cpp:100] Creating Layer res3b2_relu
I0208 19:21:39.706943 20693 net.cpp:434] res3b2_relu <- res3b2
I0208 19:21:39.706948 20693 net.cpp:395] res3b2_relu -> res3b2 (in-place)
I0208 19:21:39.707283 20693 net.cpp:150] Setting up res3b2_relu
I0208 19:21:39.707298 20693 net.cpp:157] Top shape: 1 512 32 32 (524288)
I0208 19:21:39.707312 20693 net.cpp:165] Memory required for data: 217055232
I0208 19:21:39.707316 20693 layer_factory.hpp:77] Creating layer res3b2_res3b2_relu_0_split
I0208 19:21:39.707324 20693 net.cpp:100] Creating Layer res3b2_res3b2_relu_0_split
I0208 19:21:39.707329 20693 net.cpp:434] res3b2_res3b2_relu_0_split <- res3b2
I0208 19:21:39.707336 20693 net.cpp:408] res3b2_res3b2_relu_0_split -> res3b2_res3b2_relu_0_split_0
I0208 19:21:39.707345 20693 net.cpp:408] res3b2_res3b2_relu_0_split -> res3b2_res3b2_relu_0_split_1
I0208 19:21:39.707388 20693 net.cpp:150] Setting up res3b2_res3b2_relu_0_split
I0208 19:21:39.707398 20693 net.cpp:157] Top shape: 1 512 32 32 (524288)
I0208 19:21:39.707403 20693 net.cpp:157] Top shape: 1 512 32 32 (524288)
I0208 19:21:39.707406 20693 net.cpp:165] Memory required for data: 221249536
I0208 19:21:39.707411 20693 layer_factory.hpp:77] Creating layer res3b3_branch2a
I0208 19:21:39.707419 20693 net.cpp:100] Creating Layer res3b3_branch2a
I0208 19:21:39.707423 20693 net.cpp:434] res3b3_branch2a <- res3b2_res3b2_relu_0_split_0
I0208 19:21:39.707430 20693 net.cpp:408] res3b3_branch2a -> res3b3_branch2a
I0208 19:21:39.708912 20693 net.cpp:150] Setting up res3b3_branch2a
I0208 19:21:39.708940 20693 net.cpp:157] Top shape: 1 128 32 32 (131072)
I0208 19:21:39.708945 20693 net.cpp:165] Memory required for data: 221773824
I0208 19:21:39.708950 20693 layer_factory.hpp:77] Creating layer bn3b3_branch2a
I0208 19:21:39.708958 20693 net.cpp:100] Creating Layer bn3b3_branch2a
I0208 19:21:39.708974 20693 net.cpp:434] bn3b3_branch2a <- res3b3_branch2a
I0208 19:21:39.708981 20693 net.cpp:395] bn3b3_branch2a -> res3b3_branch2a (in-place)
I0208 19:21:39.709178 20693 net.cpp:150] Setting up bn3b3_branch2a
I0208 19:21:39.709188 20693 net.cpp:157] Top shape: 1 128 32 32 (131072)
I0208 19:21:39.709192 20693 net.cpp:165] Memory required for data: 222298112
I0208 19:21:39.709216 20693 layer_factory.hpp:77] Creating layer scale3b3_branch2a
I0208 19:21:39.709223 20693 net.cpp:100] Creating Layer scale3b3_branch2a
I0208 19:21:39.709228 20693 net.cpp:434] scale3b3_branch2a <- res3b3_branch2a
I0208 19:21:39.709233 20693 net.cpp:395] scale3b3_branch2a -> res3b3_branch2a (in-place)
I0208 19:21:39.709280 20693 layer_factory.hpp:77] Creating layer scale3b3_branch2a
I0208 19:21:39.709391 20693 net.cpp:150] Setting up scale3b3_branch2a
I0208 19:21:39.709401 20693 net.cpp:157] Top shape: 1 128 32 32 (131072)
I0208 19:21:39.709405 20693 net.cpp:165] Memory required for data: 222822400
I0208 19:21:39.709411 20693 layer_factory.hpp:77] Creating layer res3b3_branch2a_relu
I0208 19:21:39.709417 20693 net.cpp:100] Creating Layer res3b3_branch2a_relu
I0208 19:21:39.709421 20693 net.cpp:434] res3b3_branch2a_relu <- res3b3_branch2a
I0208 19:21:39.709426 20693 net.cpp:395] res3b3_branch2a_relu -> res3b3_branch2a (in-place)
I0208 19:21:39.709609 20693 net.cpp:150] Setting up res3b3_branch2a_relu
I0208 19:21:39.709621 20693 net.cpp:157] Top shape: 1 128 32 32 (131072)
I0208 19:21:39.709626 20693 net.cpp:165] Memory required for data: 223346688
I0208 19:21:39.709630 20693 layer_factory.hpp:77] Creating layer res3b3_branch2b
I0208 19:21:39.709640 20693 net.cpp:100] Creating Layer res3b3_branch2b
I0208 19:21:39.709643 20693 net.cpp:434] res3b3_branch2b <- res3b3_branch2a
I0208 19:21:39.709650 20693 net.cpp:408] res3b3_branch2b -> res3b3_branch2b
I0208 19:21:39.711202 20693 net.cpp:150] Setting up res3b3_branch2b
I0208 19:21:39.711218 20693 net.cpp:157] Top shape: 1 128 32 32 (131072)
I0208 19:21:39.711222 20693 net.cpp:165] Memory required for data: 223870976
I0208 19:21:39.711230 20693 layer_factory.hpp:77] Creating layer bn3b3_branch2b
I0208 19:21:39.711249 20693 net.cpp:100] Creating Layer bn3b3_branch2b
I0208 19:21:39.711254 20693 net.cpp:434] bn3b3_branch2b <- res3b3_branch2b
I0208 19:21:39.711259 20693 net.cpp:395] bn3b3_branch2b -> res3b3_branch2b (in-place)
I0208 19:21:39.711459 20693 net.cpp:150] Setting up bn3b3_branch2b
I0208 19:21:39.711470 20693 net.cpp:157] Top shape: 1 128 32 32 (131072)
I0208 19:21:39.711474 20693 net.cpp:165] Memory required for data: 224395264
I0208 19:21:39.711483 20693 layer_factory.hpp:77] Creating layer scale3b3_branch2b
I0208 19:21:39.711489 20693 net.cpp:100] Creating Layer scale3b3_branch2b
I0208 19:21:39.711493 20693 net.cpp:434] scale3b3_branch2b <- res3b3_branch2b
I0208 19:21:39.711498 20693 net.cpp:395] scale3b3_branch2b -> res3b3_branch2b (in-place)
I0208 19:21:39.711554 20693 layer_factory.hpp:77] Creating layer scale3b3_branch2b
I0208 19:21:39.711670 20693 net.cpp:150] Setting up scale3b3_branch2b
I0208 19:21:39.711680 20693 net.cpp:157] Top shape: 1 128 32 32 (131072)
I0208 19:21:39.711684 20693 net.cpp:165] Memory required for data: 224919552
I0208 19:21:39.711690 20693 layer_factory.hpp:77] Creating layer res3b3_branch2b_relu
I0208 19:21:39.711699 20693 net.cpp:100] Creating Layer res3b3_branch2b_relu
I0208 19:21:39.711702 20693 net.cpp:434] res3b3_branch2b_relu <- res3b3_branch2b
I0208 19:21:39.711709 20693 net.cpp:395] res3b3_branch2b_relu -> res3b3_branch2b (in-place)
I0208 19:21:39.712054 20693 net.cpp:150] Setting up res3b3_branch2b_relu
I0208 19:21:39.712080 20693 net.cpp:157] Top shape: 1 128 32 32 (131072)
I0208 19:21:39.712083 20693 net.cpp:165] Memory required for data: 225443840
I0208 19:21:39.712088 20693 layer_factory.hpp:77] Creating layer res3b3_branch2c
I0208 19:21:39.712097 20693 net.cpp:100] Creating Layer res3b3_branch2c
I0208 19:21:39.712102 20693 net.cpp:434] res3b3_branch2c <- res3b3_branch2b
I0208 19:21:39.712110 20693 net.cpp:408] res3b3_branch2c -> res3b3_branch2c
I0208 19:21:39.713037 20693 net.cpp:150] Setting up res3b3_branch2c
I0208 19:21:39.713065 20693 net.cpp:157] Top shape: 1 512 32 32 (524288)
I0208 19:21:39.713080 20693 net.cpp:165] Memory required for data: 227540992
I0208 19:21:39.713088 20693 layer_factory.hpp:77] Creating layer bn3b3_branch2c
I0208 19:21:39.713095 20693 net.cpp:100] Creating Layer bn3b3_branch2c
I0208 19:21:39.713112 20693 net.cpp:434] bn3b3_branch2c <- res3b3_branch2c
I0208 19:21:39.713119 20693 net.cpp:395] bn3b3_branch2c -> res3b3_branch2c (in-place)
I0208 19:21:39.713325 20693 net.cpp:150] Setting up bn3b3_branch2c
I0208 19:21:39.713335 20693 net.cpp:157] Top shape: 1 512 32 32 (524288)
I0208 19:21:39.713349 20693 net.cpp:165] Memory required for data: 229638144
I0208 19:21:39.713361 20693 layer_factory.hpp:77] Creating layer scale3b3_branch2c
I0208 19:21:39.713367 20693 net.cpp:100] Creating Layer scale3b3_branch2c
I0208 19:21:39.713371 20693 net.cpp:434] scale3b3_branch2c <- res3b3_branch2c
I0208 19:21:39.713376 20693 net.cpp:395] scale3b3_branch2c -> res3b3_branch2c (in-place)
I0208 19:21:39.713415 20693 layer_factory.hpp:77] Creating layer scale3b3_branch2c
I0208 19:21:39.713532 20693 net.cpp:150] Setting up scale3b3_branch2c
I0208 19:21:39.713541 20693 net.cpp:157] Top shape: 1 512 32 32 (524288)
I0208 19:21:39.713546 20693 net.cpp:165] Memory required for data: 231735296
I0208 19:21:39.713552 20693 layer_factory.hpp:77] Creating layer res3b3
I0208 19:21:39.713558 20693 net.cpp:100] Creating Layer res3b3
I0208 19:21:39.713562 20693 net.cpp:434] res3b3 <- res3b2_res3b2_relu_0_split_1
I0208 19:21:39.713567 20693 net.cpp:434] res3b3 <- res3b3_branch2c
I0208 19:21:39.713574 20693 net.cpp:408] res3b3 -> res3b3
I0208 19:21:39.713599 20693 net.cpp:150] Setting up res3b3
I0208 19:21:39.713608 20693 net.cpp:157] Top shape: 1 512 32 32 (524288)
I0208 19:21:39.713611 20693 net.cpp:165] Memory required for data: 233832448
I0208 19:21:39.713615 20693 layer_factory.hpp:77] Creating layer res3b3_relu
I0208 19:21:39.713621 20693 net.cpp:100] Creating Layer res3b3_relu
I0208 19:21:39.713624 20693 net.cpp:434] res3b3_relu <- res3b3
I0208 19:21:39.713629 20693 net.cpp:395] res3b3_relu -> res3b3 (in-place)
I0208 19:21:39.713964 20693 net.cpp:150] Setting up res3b3_relu
I0208 19:21:39.713979 20693 net.cpp:157] Top shape: 1 512 32 32 (524288)
I0208 19:21:39.713994 20693 net.cpp:165] Memory required for data: 235929600
I0208 19:21:39.713997 20693 layer_factory.hpp:77] Creating layer res3b3_res3b3_relu_0_split
I0208 19:21:39.714004 20693 net.cpp:100] Creating Layer res3b3_res3b3_relu_0_split
I0208 19:21:39.714009 20693 net.cpp:434] res3b3_res3b3_relu_0_split <- res3b3
I0208 19:21:39.714015 20693 net.cpp:408] res3b3_res3b3_relu_0_split -> res3b3_res3b3_relu_0_split_0
I0208 19:21:39.714025 20693 net.cpp:408] res3b3_res3b3_relu_0_split -> res3b3_res3b3_relu_0_split_1
I0208 19:21:39.714071 20693 net.cpp:150] Setting up res3b3_res3b3_relu_0_split
I0208 19:21:39.714081 20693 net.cpp:157] Top shape: 1 512 32 32 (524288)
I0208 19:21:39.714085 20693 net.cpp:157] Top shape: 1 512 32 32 (524288)
I0208 19:21:39.714089 20693 net.cpp:165] Memory required for data: 240123904
I0208 19:21:39.714093 20693 layer_factory.hpp:77] Creating layer res3b4_branch2a
I0208 19:21:39.714102 20693 net.cpp:100] Creating Layer res3b4_branch2a
I0208 19:21:39.714107 20693 net.cpp:434] res3b4_branch2a <- res3b3_res3b3_relu_0_split_0
I0208 19:21:39.714113 20693 net.cpp:408] res3b4_branch2a -> res3b4_branch2a
I0208 19:21:39.715354 20693 net.cpp:150] Setting up res3b4_branch2a
I0208 19:21:39.715382 20693 net.cpp:157] Top shape: 1 128 32 32 (131072)
I0208 19:21:39.715387 20693 net.cpp:165] Memory required for data: 240648192
I0208 19:21:39.715394 20693 layer_factory.hpp:77] Creating layer bn3b4_branch2a
I0208 19:21:39.715401 20693 net.cpp:100] Creating Layer bn3b4_branch2a
I0208 19:21:39.715405 20693 net.cpp:434] bn3b4_branch2a <- res3b4_branch2a
I0208 19:21:39.715414 20693 net.cpp:395] bn3b4_branch2a -> res3b4_branch2a (in-place)
I0208 19:21:39.715658 20693 net.cpp:150] Setting up bn3b4_branch2a
I0208 19:21:39.715669 20693 net.cpp:157] Top shape: 1 128 32 32 (131072)
I0208 19:21:39.715673 20693 net.cpp:165] Memory required for data: 241172480
I0208 19:21:39.715682 20693 layer_factory.hpp:77] Creating layer scale3b4_branch2a
I0208 19:21:39.715689 20693 net.cpp:100] Creating Layer scale3b4_branch2a
I0208 19:21:39.715693 20693 net.cpp:434] scale3b4_branch2a <- res3b4_branch2a
I0208 19:21:39.715698 20693 net.cpp:395] scale3b4_branch2a -> res3b4_branch2a (in-place)
I0208 19:21:39.715742 20693 layer_factory.hpp:77] Creating layer scale3b4_branch2a
I0208 19:21:39.715867 20693 net.cpp:150] Setting up scale3b4_branch2a
I0208 19:21:39.715876 20693 net.cpp:157] Top shape: 1 128 32 32 (131072)
I0208 19:21:39.715880 20693 net.cpp:165] Memory required for data: 241696768
I0208 19:21:39.715886 20693 layer_factory.hpp:77] Creating layer res3b4_branch2a_relu
I0208 19:21:39.715893 20693 net.cpp:100] Creating Layer res3b4_branch2a_relu
I0208 19:21:39.715896 20693 net.cpp:434] res3b4_branch2a_relu <- res3b4_branch2a
I0208 19:21:39.715903 20693 net.cpp:395] res3b4_branch2a_relu -> res3b4_branch2a (in-place)
I0208 19:21:39.716089 20693 net.cpp:150] Setting up res3b4_branch2a_relu
I0208 19:21:39.716100 20693 net.cpp:157] Top shape: 1 128 32 32 (131072)
I0208 19:21:39.716104 20693 net.cpp:165] Memory required for data: 242221056
I0208 19:21:39.716109 20693 layer_factory.hpp:77] Creating layer res3b4_branch2b
I0208 19:21:39.716116 20693 net.cpp:100] Creating Layer res3b4_branch2b
I0208 19:21:39.716120 20693 net.cpp:434] res3b4_branch2b <- res3b4_branch2a
I0208 19:21:39.716128 20693 net.cpp:408] res3b4_branch2b -> res3b4_branch2b
I0208 19:21:39.717667 20693 net.cpp:150] Setting up res3b4_branch2b
I0208 19:21:39.717694 20693 net.cpp:157] Top shape: 1 128 32 32 (131072)
I0208 19:21:39.717697 20693 net.cpp:165] Memory required for data: 242745344
I0208 19:21:39.717705 20693 layer_factory.hpp:77] Creating layer bn3b4_branch2b
I0208 19:21:39.717712 20693 net.cpp:100] Creating Layer bn3b4_branch2b
I0208 19:21:39.717717 20693 net.cpp:434] bn3b4_branch2b <- res3b4_branch2b
I0208 19:21:39.717722 20693 net.cpp:395] bn3b4_branch2b -> res3b4_branch2b (in-place)
I0208 19:21:39.717938 20693 net.cpp:150] Setting up bn3b4_branch2b
I0208 19:21:39.717948 20693 net.cpp:157] Top shape: 1 128 32 32 (131072)
I0208 19:21:39.717952 20693 net.cpp:165] Memory required for data: 243269632
I0208 19:21:39.717962 20693 layer_factory.hpp:77] Creating layer scale3b4_branch2b
I0208 19:21:39.717969 20693 net.cpp:100] Creating Layer scale3b4_branch2b
I0208 19:21:39.717973 20693 net.cpp:434] scale3b4_branch2b <- res3b4_branch2b
I0208 19:21:39.717978 20693 net.cpp:395] scale3b4_branch2b -> res3b4_branch2b (in-place)
I0208 19:21:39.718022 20693 layer_factory.hpp:77] Creating layer scale3b4_branch2b
I0208 19:21:39.718135 20693 net.cpp:150] Setting up scale3b4_branch2b
I0208 19:21:39.718145 20693 net.cpp:157] Top shape: 1 128 32 32 (131072)
I0208 19:21:39.718148 20693 net.cpp:165] Memory required for data: 243793920
I0208 19:21:39.718155 20693 layer_factory.hpp:77] Creating layer res3b4_branch2b_relu
I0208 19:21:39.718161 20693 net.cpp:100] Creating Layer res3b4_branch2b_relu
I0208 19:21:39.718165 20693 net.cpp:434] res3b4_branch2b_relu <- res3b4_branch2b
I0208 19:21:39.718171 20693 net.cpp:395] res3b4_branch2b_relu -> res3b4_branch2b (in-place)
I0208 19:21:39.718519 20693 net.cpp:150] Setting up res3b4_branch2b_relu
I0208 19:21:39.718533 20693 net.cpp:157] Top shape: 1 128 32 32 (131072)
I0208 19:21:39.718549 20693 net.cpp:165] Memory required for data: 244318208
I0208 19:21:39.718552 20693 layer_factory.hpp:77] Creating layer res3b4_branch2c
I0208 19:21:39.718564 20693 net.cpp:100] Creating Layer res3b4_branch2c
I0208 19:21:39.718569 20693 net.cpp:434] res3b4_branch2c <- res3b4_branch2b
I0208 19:21:39.718575 20693 net.cpp:408] res3b4_branch2c -> res3b4_branch2c
I0208 19:21:39.719571 20693 net.cpp:150] Setting up res3b4_branch2c
I0208 19:21:39.719586 20693 net.cpp:157] Top shape: 1 512 32 32 (524288)
I0208 19:21:39.719601 20693 net.cpp:165] Memory required for data: 246415360
I0208 19:21:39.719609 20693 layer_factory.hpp:77] Creating layer bn3b4_branch2c
I0208 19:21:39.719616 20693 net.cpp:100] Creating Layer bn3b4_branch2c
I0208 19:21:39.719633 20693 net.cpp:434] bn3b4_branch2c <- res3b4_branch2c
I0208 19:21:39.719640 20693 net.cpp:395] bn3b4_branch2c -> res3b4_branch2c (in-place)
I0208 19:21:39.719848 20693 net.cpp:150] Setting up bn3b4_branch2c
I0208 19:21:39.719858 20693 net.cpp:157] Top shape: 1 512 32 32 (524288)
I0208 19:21:39.719862 20693 net.cpp:165] Memory required for data: 248512512
I0208 19:21:39.719871 20693 layer_factory.hpp:77] Creating layer scale3b4_branch2c
I0208 19:21:39.719878 20693 net.cpp:100] Creating Layer scale3b4_branch2c
I0208 19:21:39.719882 20693 net.cpp:434] scale3b4_branch2c <- res3b4_branch2c
I0208 19:21:39.719887 20693 net.cpp:395] scale3b4_branch2c -> res3b4_branch2c (in-place)
I0208 19:21:39.719928 20693 layer_factory.hpp:77] Creating layer scale3b4_branch2c
I0208 19:21:39.720046 20693 net.cpp:150] Setting up scale3b4_branch2c
I0208 19:21:39.720057 20693 net.cpp:157] Top shape: 1 512 32 32 (524288)
I0208 19:21:39.720060 20693 net.cpp:165] Memory required for data: 250609664
I0208 19:21:39.720067 20693 layer_factory.hpp:77] Creating layer res3b4
I0208 19:21:39.720077 20693 net.cpp:100] Creating Layer res3b4
I0208 19:21:39.720082 20693 net.cpp:434] res3b4 <- res3b3_res3b3_relu_0_split_1
I0208 19:21:39.720088 20693 net.cpp:434] res3b4 <- res3b4_branch2c
I0208 19:21:39.720093 20693 net.cpp:408] res3b4 -> res3b4
I0208 19:21:39.720121 20693 net.cpp:150] Setting up res3b4
I0208 19:21:39.720129 20693 net.cpp:157] Top shape: 1 512 32 32 (524288)
I0208 19:21:39.720132 20693 net.cpp:165] Memory required for data: 252706816
I0208 19:21:39.720136 20693 layer_factory.hpp:77] Creating layer res3b4_relu
I0208 19:21:39.720144 20693 net.cpp:100] Creating Layer res3b4_relu
I0208 19:21:39.720147 20693 net.cpp:434] res3b4_relu <- res3b4
I0208 19:21:39.720152 20693 net.cpp:395] res3b4_relu -> res3b4 (in-place)
I0208 19:21:39.720484 20693 net.cpp:150] Setting up res3b4_relu
I0208 19:21:39.720510 20693 net.cpp:157] Top shape: 1 512 32 32 (524288)
I0208 19:21:39.720513 20693 net.cpp:165] Memory required for data: 254803968
I0208 19:21:39.720517 20693 layer_factory.hpp:77] Creating layer res3b4_res3b4_relu_0_split
I0208 19:21:39.720528 20693 net.cpp:100] Creating Layer res3b4_res3b4_relu_0_split
I0208 19:21:39.720533 20693 net.cpp:434] res3b4_res3b4_relu_0_split <- res3b4
I0208 19:21:39.720540 20693 net.cpp:408] res3b4_res3b4_relu_0_split -> res3b4_res3b4_relu_0_split_0
I0208 19:21:39.720547 20693 net.cpp:408] res3b4_res3b4_relu_0_split -> res3b4_res3b4_relu_0_split_1
I0208 19:21:39.720598 20693 net.cpp:150] Setting up res3b4_res3b4_relu_0_split
I0208 19:21:39.720608 20693 net.cpp:157] Top shape: 1 512 32 32 (524288)
I0208 19:21:39.720613 20693 net.cpp:157] Top shape: 1 512 32 32 (524288)
I0208 19:21:39.720618 20693 net.cpp:165] Memory required for data: 258998272
I0208 19:21:39.720621 20693 layer_factory.hpp:77] Creating layer res3b5_branch2a
I0208 19:21:39.720631 20693 net.cpp:100] Creating Layer res3b5_branch2a
I0208 19:21:39.720635 20693 net.cpp:434] res3b5_branch2a <- res3b4_res3b4_relu_0_split_0
I0208 19:21:39.720641 20693 net.cpp:408] res3b5_branch2a -> res3b5_branch2a
I0208 19:21:39.722242 20693 net.cpp:150] Setting up res3b5_branch2a
I0208 19:21:39.722270 20693 net.cpp:157] Top shape: 1 128 32 32 (131072)
I0208 19:21:39.722275 20693 net.cpp:165] Memory required for data: 259522560
I0208 19:21:39.722281 20693 layer_factory.hpp:77] Creating layer bn3b5_branch2a
I0208 19:21:39.722290 20693 net.cpp:100] Creating Layer bn3b5_branch2a
I0208 19:21:39.722306 20693 net.cpp:434] bn3b5_branch2a <- res3b5_branch2a
I0208 19:21:39.722314 20693 net.cpp:395] bn3b5_branch2a -> res3b5_branch2a (in-place)
I0208 19:21:39.722527 20693 net.cpp:150] Setting up bn3b5_branch2a
I0208 19:21:39.722537 20693 net.cpp:157] Top shape: 1 128 32 32 (131072)
I0208 19:21:39.722542 20693 net.cpp:165] Memory required for data: 260046848
I0208 19:21:39.722549 20693 layer_factory.hpp:77] Creating layer scale3b5_branch2a
I0208 19:21:39.722568 20693 net.cpp:100] Creating Layer scale3b5_branch2a
I0208 19:21:39.722573 20693 net.cpp:434] scale3b5_branch2a <- res3b5_branch2a
I0208 19:21:39.722579 20693 net.cpp:395] scale3b5_branch2a -> res3b5_branch2a (in-place)
I0208 19:21:39.722628 20693 layer_factory.hpp:77] Creating layer scale3b5_branch2a
I0208 19:21:39.722746 20693 net.cpp:150] Setting up scale3b5_branch2a
I0208 19:21:39.722756 20693 net.cpp:157] Top shape: 1 128 32 32 (131072)
I0208 19:21:39.722759 20693 net.cpp:165] Memory required for data: 260571136
I0208 19:21:39.722767 20693 layer_factory.hpp:77] Creating layer res3b5_branch2a_relu
I0208 19:21:39.722774 20693 net.cpp:100] Creating Layer res3b5_branch2a_relu
I0208 19:21:39.722777 20693 net.cpp:434] res3b5_branch2a_relu <- res3b5_branch2a
I0208 19:21:39.722784 20693 net.cpp:395] res3b5_branch2a_relu -> res3b5_branch2a (in-place)
I0208 19:21:39.722973 20693 net.cpp:150] Setting up res3b5_branch2a_relu
I0208 19:21:39.722986 20693 net.cpp:157] Top shape: 1 128 32 32 (131072)
I0208 19:21:39.722990 20693 net.cpp:165] Memory required for data: 261095424
I0208 19:21:39.722995 20693 layer_factory.hpp:77] Creating layer res3b5_branch2b
I0208 19:21:39.723004 20693 net.cpp:100] Creating Layer res3b5_branch2b
I0208 19:21:39.723008 20693 net.cpp:434] res3b5_branch2b <- res3b5_branch2a
I0208 19:21:39.723016 20693 net.cpp:408] res3b5_branch2b -> res3b5_branch2b
I0208 19:21:39.724581 20693 net.cpp:150] Setting up res3b5_branch2b
I0208 19:21:39.724608 20693 net.cpp:157] Top shape: 1 128 32 32 (131072)
I0208 19:21:39.724613 20693 net.cpp:165] Memory required for data: 261619712
I0208 19:21:39.724620 20693 layer_factory.hpp:77] Creating layer bn3b5_branch2b
I0208 19:21:39.724627 20693 net.cpp:100] Creating Layer bn3b5_branch2b
I0208 19:21:39.724632 20693 net.cpp:434] bn3b5_branch2b <- res3b5_branch2b
I0208 19:21:39.724639 20693 net.cpp:395] bn3b5_branch2b -> res3b5_branch2b (in-place)
I0208 19:21:39.724874 20693 net.cpp:150] Setting up bn3b5_branch2b
I0208 19:21:39.724886 20693 net.cpp:157] Top shape: 1 128 32 32 (131072)
I0208 19:21:39.724891 20693 net.cpp:165] Memory required for data: 262144000
I0208 19:21:39.724900 20693 layer_factory.hpp:77] Creating layer scale3b5_branch2b
I0208 19:21:39.724907 20693 net.cpp:100] Creating Layer scale3b5_branch2b
I0208 19:21:39.724911 20693 net.cpp:434] scale3b5_branch2b <- res3b5_branch2b
I0208 19:21:39.724917 20693 net.cpp:395] scale3b5_branch2b -> res3b5_branch2b (in-place)
I0208 19:21:39.724963 20693 layer_factory.hpp:77] Creating layer scale3b5_branch2b
I0208 19:21:39.725082 20693 net.cpp:150] Setting up scale3b5_branch2b
I0208 19:21:39.725092 20693 net.cpp:157] Top shape: 1 128 32 32 (131072)
I0208 19:21:39.725096 20693 net.cpp:165] Memory required for data: 262668288
I0208 19:21:39.725103 20693 layer_factory.hpp:77] Creating layer res3b5_branch2b_relu
I0208 19:21:39.725111 20693 net.cpp:100] Creating Layer res3b5_branch2b_relu
I0208 19:21:39.725116 20693 net.cpp:434] res3b5_branch2b_relu <- res3b5_branch2b
I0208 19:21:39.725121 20693 net.cpp:395] res3b5_branch2b_relu -> res3b5_branch2b (in-place)
I0208 19:21:39.725458 20693 net.cpp:150] Setting up res3b5_branch2b_relu
I0208 19:21:39.725484 20693 net.cpp:157] Top shape: 1 128 32 32 (131072)
I0208 19:21:39.725489 20693 net.cpp:165] Memory required for data: 263192576
I0208 19:21:39.725493 20693 layer_factory.hpp:77] Creating layer res3b5_branch2c
I0208 19:21:39.725505 20693 net.cpp:100] Creating Layer res3b5_branch2c
I0208 19:21:39.725510 20693 net.cpp:434] res3b5_branch2c <- res3b5_branch2b
I0208 19:21:39.725528 20693 net.cpp:408] res3b5_branch2c -> res3b5_branch2c
I0208 19:21:39.726533 20693 net.cpp:150] Setting up res3b5_branch2c
I0208 19:21:39.726560 20693 net.cpp:157] Top shape: 1 512 32 32 (524288)
I0208 19:21:39.726565 20693 net.cpp:165] Memory required for data: 265289728
I0208 19:21:39.726572 20693 layer_factory.hpp:77] Creating layer bn3b5_branch2c
I0208 19:21:39.726579 20693 net.cpp:100] Creating Layer bn3b5_branch2c
I0208 19:21:39.726584 20693 net.cpp:434] bn3b5_branch2c <- res3b5_branch2c
I0208 19:21:39.726590 20693 net.cpp:395] bn3b5_branch2c -> res3b5_branch2c (in-place)
I0208 19:21:39.726820 20693 net.cpp:150] Setting up bn3b5_branch2c
I0208 19:21:39.726831 20693 net.cpp:157] Top shape: 1 512 32 32 (524288)
I0208 19:21:39.726835 20693 net.cpp:165] Memory required for data: 267386880
I0208 19:21:39.726845 20693 layer_factory.hpp:77] Creating layer scale3b5_branch2c
I0208 19:21:39.726852 20693 net.cpp:100] Creating Layer scale3b5_branch2c
I0208 19:21:39.726857 20693 net.cpp:434] scale3b5_branch2c <- res3b5_branch2c
I0208 19:21:39.726862 20693 net.cpp:395] scale3b5_branch2c -> res3b5_branch2c (in-place)
I0208 19:21:39.726904 20693 layer_factory.hpp:77] Creating layer scale3b5_branch2c
I0208 19:21:39.727025 20693 net.cpp:150] Setting up scale3b5_branch2c
I0208 19:21:39.727035 20693 net.cpp:157] Top shape: 1 512 32 32 (524288)
I0208 19:21:39.727038 20693 net.cpp:165] Memory required for data: 269484032
I0208 19:21:39.727046 20693 layer_factory.hpp:77] Creating layer res3b5
I0208 19:21:39.727051 20693 net.cpp:100] Creating Layer res3b5
I0208 19:21:39.727056 20693 net.cpp:434] res3b5 <- res3b4_res3b4_relu_0_split_1
I0208 19:21:39.727061 20693 net.cpp:434] res3b5 <- res3b5_branch2c
I0208 19:21:39.727066 20693 net.cpp:408] res3b5 -> res3b5
I0208 19:21:39.727094 20693 net.cpp:150] Setting up res3b5
I0208 19:21:39.727102 20693 net.cpp:157] Top shape: 1 512 32 32 (524288)
I0208 19:21:39.727105 20693 net.cpp:165] Memory required for data: 271581184
I0208 19:21:39.727109 20693 layer_factory.hpp:77] Creating layer res3b5_relu
I0208 19:21:39.727118 20693 net.cpp:100] Creating Layer res3b5_relu
I0208 19:21:39.727121 20693 net.cpp:434] res3b5_relu <- res3b5
I0208 19:21:39.727126 20693 net.cpp:395] res3b5_relu -> res3b5 (in-place)
I0208 19:21:39.727458 20693 net.cpp:150] Setting up res3b5_relu
I0208 19:21:39.727484 20693 net.cpp:157] Top shape: 1 512 32 32 (524288)
I0208 19:21:39.727489 20693 net.cpp:165] Memory required for data: 273678336
I0208 19:21:39.727494 20693 layer_factory.hpp:77] Creating layer res3b5_res3b5_relu_0_split
I0208 19:21:39.727500 20693 net.cpp:100] Creating Layer res3b5_res3b5_relu_0_split
I0208 19:21:39.727505 20693 net.cpp:434] res3b5_res3b5_relu_0_split <- res3b5
I0208 19:21:39.727511 20693 net.cpp:408] res3b5_res3b5_relu_0_split -> res3b5_res3b5_relu_0_split_0
I0208 19:21:39.727525 20693 net.cpp:408] res3b5_res3b5_relu_0_split -> res3b5_res3b5_relu_0_split_1
I0208 19:21:39.727576 20693 net.cpp:150] Setting up res3b5_res3b5_relu_0_split
I0208 19:21:39.727587 20693 net.cpp:157] Top shape: 1 512 32 32 (524288)
I0208 19:21:39.727592 20693 net.cpp:157] Top shape: 1 512 32 32 (524288)
I0208 19:21:39.727596 20693 net.cpp:165] Memory required for data: 277872640
I0208 19:21:39.727599 20693 layer_factory.hpp:77] Creating layer res3b6_branch2a
I0208 19:21:39.727608 20693 net.cpp:100] Creating Layer res3b6_branch2a
I0208 19:21:39.727613 20693 net.cpp:434] res3b6_branch2a <- res3b5_res3b5_relu_0_split_0
I0208 19:21:39.727619 20693 net.cpp:408] res3b6_branch2a -> res3b6_branch2a
I0208 19:21:39.728706 20693 net.cpp:150] Setting up res3b6_branch2a
I0208 19:21:39.728735 20693 net.cpp:157] Top shape: 1 128 32 32 (131072)
I0208 19:21:39.728744 20693 net.cpp:165] Memory required for data: 278396928
I0208 19:21:39.728752 20693 layer_factory.hpp:77] Creating layer bn3b6_branch2a
I0208 19:21:39.728760 20693 net.cpp:100] Creating Layer bn3b6_branch2a
I0208 19:21:39.728765 20693 net.cpp:434] bn3b6_branch2a <- res3b6_branch2a
I0208 19:21:39.728771 20693 net.cpp:395] bn3b6_branch2a -> res3b6_branch2a (in-place)
I0208 19:21:39.728999 20693 net.cpp:150] Setting up bn3b6_branch2a
I0208 19:21:39.729009 20693 net.cpp:157] Top shape: 1 128 32 32 (131072)
I0208 19:21:39.729013 20693 net.cpp:165] Memory required for data: 278921216
I0208 19:21:39.729022 20693 layer_factory.hpp:77] Creating layer scale3b6_branch2a
I0208 19:21:39.729028 20693 net.cpp:100] Creating Layer scale3b6_branch2a
I0208 19:21:39.729033 20693 net.cpp:434] scale3b6_branch2a <- res3b6_branch2a
I0208 19:21:39.729038 20693 net.cpp:395] scale3b6_branch2a -> res3b6_branch2a (in-place)
I0208 19:21:39.729085 20693 layer_factory.hpp:77] Creating layer scale3b6_branch2a
I0208 19:21:39.729203 20693 net.cpp:150] Setting up scale3b6_branch2a
I0208 19:21:39.729213 20693 net.cpp:157] Top shape: 1 128 32 32 (131072)
I0208 19:21:39.729218 20693 net.cpp:165] Memory required for data: 279445504
I0208 19:21:39.729223 20693 layer_factory.hpp:77] Creating layer res3b6_branch2a_relu
I0208 19:21:39.729229 20693 net.cpp:100] Creating Layer res3b6_branch2a_relu
I0208 19:21:39.729233 20693 net.cpp:434] res3b6_branch2a_relu <- res3b6_branch2a
I0208 19:21:39.729240 20693 net.cpp:395] res3b6_branch2a_relu -> res3b6_branch2a (in-place)
I0208 19:21:39.729432 20693 net.cpp:150] Setting up res3b6_branch2a_relu
I0208 19:21:39.729444 20693 net.cpp:157] Top shape: 1 128 32 32 (131072)
I0208 19:21:39.729449 20693 net.cpp:165] Memory required for data: 279969792
I0208 19:21:39.729452 20693 layer_factory.hpp:77] Creating layer res3b6_branch2b
I0208 19:21:39.729462 20693 net.cpp:100] Creating Layer res3b6_branch2b
I0208 19:21:39.729466 20693 net.cpp:434] res3b6_branch2b <- res3b6_branch2a
I0208 19:21:39.729473 20693 net.cpp:408] res3b6_branch2b -> res3b6_branch2b
I0208 19:21:39.731068 20693 net.cpp:150] Setting up res3b6_branch2b
I0208 19:21:39.731096 20693 net.cpp:157] Top shape: 1 128 32 32 (131072)
I0208 19:21:39.731101 20693 net.cpp:165] Memory required for data: 280494080
I0208 19:21:39.731106 20693 layer_factory.hpp:77] Creating layer bn3b6_branch2b
I0208 19:21:39.731115 20693 net.cpp:100] Creating Layer bn3b6_branch2b
I0208 19:21:39.731130 20693 net.cpp:434] bn3b6_branch2b <- res3b6_branch2b
I0208 19:21:39.731137 20693 net.cpp:395] bn3b6_branch2b -> res3b6_branch2b (in-place)
I0208 19:21:39.731353 20693 net.cpp:150] Setting up bn3b6_branch2b
I0208 19:21:39.731364 20693 net.cpp:157] Top shape: 1 128 32 32 (131072)
I0208 19:21:39.731369 20693 net.cpp:165] Memory required for data: 281018368
I0208 19:21:39.731380 20693 layer_factory.hpp:77] Creating layer scale3b6_branch2b
I0208 19:21:39.731387 20693 net.cpp:100] Creating Layer scale3b6_branch2b
I0208 19:21:39.731392 20693 net.cpp:434] scale3b6_branch2b <- res3b6_branch2b
I0208 19:21:39.731397 20693 net.cpp:395] scale3b6_branch2b -> res3b6_branch2b (in-place)
I0208 19:21:39.731443 20693 layer_factory.hpp:77] Creating layer scale3b6_branch2b
I0208 19:21:39.731564 20693 net.cpp:150] Setting up scale3b6_branch2b
I0208 19:21:39.731573 20693 net.cpp:157] Top shape: 1 128 32 32 (131072)
I0208 19:21:39.731577 20693 net.cpp:165] Memory required for data: 281542656
I0208 19:21:39.731585 20693 layer_factory.hpp:77] Creating layer res3b6_branch2b_relu
I0208 19:21:39.731590 20693 net.cpp:100] Creating Layer res3b6_branch2b_relu
I0208 19:21:39.731595 20693 net.cpp:434] res3b6_branch2b_relu <- res3b6_branch2b
I0208 19:21:39.731601 20693 net.cpp:395] res3b6_branch2b_relu -> res3b6_branch2b (in-place)
I0208 19:21:39.731947 20693 net.cpp:150] Setting up res3b6_branch2b_relu
I0208 19:21:39.731972 20693 net.cpp:157] Top shape: 1 128 32 32 (131072)
I0208 19:21:39.731977 20693 net.cpp:165] Memory required for data: 282066944
I0208 19:21:39.731981 20693 layer_factory.hpp:77] Creating layer res3b6_branch2c
I0208 19:21:39.731992 20693 net.cpp:100] Creating Layer res3b6_branch2c
I0208 19:21:39.731997 20693 net.cpp:434] res3b6_branch2c <- res3b6_branch2b
I0208 19:21:39.732004 20693 net.cpp:408] res3b6_branch2c -> res3b6_branch2c
I0208 19:21:39.733155 20693 net.cpp:150] Setting up res3b6_branch2c
I0208 19:21:39.733181 20693 net.cpp:157] Top shape: 1 512 32 32 (524288)
I0208 19:21:39.733186 20693 net.cpp:165] Memory required for data: 284164096
I0208 19:21:39.733192 20693 layer_factory.hpp:77] Creating layer bn3b6_branch2c
I0208 19:21:39.733201 20693 net.cpp:100] Creating Layer bn3b6_branch2c
I0208 19:21:39.733217 20693 net.cpp:434] bn3b6_branch2c <- res3b6_branch2c
I0208 19:21:39.733222 20693 net.cpp:395] bn3b6_branch2c -> res3b6_branch2c (in-place)
I0208 19:21:39.733443 20693 net.cpp:150] Setting up bn3b6_branch2c
I0208 19:21:39.733453 20693 net.cpp:157] Top shape: 1 512 32 32 (524288)
I0208 19:21:39.733456 20693 net.cpp:165] Memory required for data: 286261248
I0208 19:21:39.733465 20693 layer_factory.hpp:77] Creating layer scale3b6_branch2c
I0208 19:21:39.733472 20693 net.cpp:100] Creating Layer scale3b6_branch2c
I0208 19:21:39.733477 20693 net.cpp:434] scale3b6_branch2c <- res3b6_branch2c
I0208 19:21:39.733485 20693 net.cpp:395] scale3b6_branch2c -> res3b6_branch2c (in-place)
I0208 19:21:39.733527 20693 layer_factory.hpp:77] Creating layer scale3b6_branch2c
I0208 19:21:39.733654 20693 net.cpp:150] Setting up scale3b6_branch2c
I0208 19:21:39.733664 20693 net.cpp:157] Top shape: 1 512 32 32 (524288)
I0208 19:21:39.733667 20693 net.cpp:165] Memory required for data: 288358400
I0208 19:21:39.733675 20693 layer_factory.hpp:77] Creating layer res3b6
I0208 19:21:39.733680 20693 net.cpp:100] Creating Layer res3b6
I0208 19:21:39.733685 20693 net.cpp:434] res3b6 <- res3b5_res3b5_relu_0_split_1
I0208 19:21:39.733690 20693 net.cpp:434] res3b6 <- res3b6_branch2c
I0208 19:21:39.733698 20693 net.cpp:408] res3b6 -> res3b6
I0208 19:21:39.733726 20693 net.cpp:150] Setting up res3b6
I0208 19:21:39.733733 20693 net.cpp:157] Top shape: 1 512 32 32 (524288)
I0208 19:21:39.733737 20693 net.cpp:165] Memory required for data: 290455552
I0208 19:21:39.733741 20693 layer_factory.hpp:77] Creating layer res3b6_relu
I0208 19:21:39.733748 20693 net.cpp:100] Creating Layer res3b6_relu
I0208 19:21:39.733752 20693 net.cpp:434] res3b6_relu <- res3b6
I0208 19:21:39.733757 20693 net.cpp:395] res3b6_relu -> res3b6 (in-place)
I0208 19:21:39.734092 20693 net.cpp:150] Setting up res3b6_relu
I0208 19:21:39.734117 20693 net.cpp:157] Top shape: 1 512 32 32 (524288)
I0208 19:21:39.734122 20693 net.cpp:165] Memory required for data: 292552704
I0208 19:21:39.734127 20693 layer_factory.hpp:77] Creating layer res3b6_res3b6_relu_0_split
I0208 19:21:39.734134 20693 net.cpp:100] Creating Layer res3b6_res3b6_relu_0_split
I0208 19:21:39.734139 20693 net.cpp:434] res3b6_res3b6_relu_0_split <- res3b6
I0208 19:21:39.734148 20693 net.cpp:408] res3b6_res3b6_relu_0_split -> res3b6_res3b6_relu_0_split_0
I0208 19:21:39.734155 20693 net.cpp:408] res3b6_res3b6_relu_0_split -> res3b6_res3b6_relu_0_split_1
I0208 19:21:39.734203 20693 net.cpp:150] Setting up res3b6_res3b6_relu_0_split
I0208 19:21:39.734213 20693 net.cpp:157] Top shape: 1 512 32 32 (524288)
I0208 19:21:39.734218 20693 net.cpp:157] Top shape: 1 512 32 32 (524288)
I0208 19:21:39.734221 20693 net.cpp:165] Memory required for data: 296747008
I0208 19:21:39.734225 20693 layer_factory.hpp:77] Creating layer res3b7_branch2a
I0208 19:21:39.734235 20693 net.cpp:100] Creating Layer res3b7_branch2a
I0208 19:21:39.734239 20693 net.cpp:434] res3b7_branch2a <- res3b6_res3b6_relu_0_split_0
I0208 19:21:39.734246 20693 net.cpp:408] res3b7_branch2a -> res3b7_branch2a
I0208 19:21:39.735802 20693 net.cpp:150] Setting up res3b7_branch2a
I0208 19:21:39.735818 20693 net.cpp:157] Top shape: 1 128 32 32 (131072)
I0208 19:21:39.735834 20693 net.cpp:165] Memory required for data: 297271296
I0208 19:21:39.735841 20693 layer_factory.hpp:77] Creating layer bn3b7_branch2a
I0208 19:21:39.735849 20693 net.cpp:100] Creating Layer bn3b7_branch2a
I0208 19:21:39.735854 20693 net.cpp:434] bn3b7_branch2a <- res3b7_branch2a
I0208 19:21:39.735860 20693 net.cpp:395] bn3b7_branch2a -> res3b7_branch2a (in-place)
I0208 19:21:39.736090 20693 net.cpp:150] Setting up bn3b7_branch2a
I0208 19:21:39.736101 20693 net.cpp:157] Top shape: 1 128 32 32 (131072)
I0208 19:21:39.736106 20693 net.cpp:165] Memory required for data: 297795584
I0208 19:21:39.736116 20693 layer_factory.hpp:77] Creating layer scale3b7_branch2a
I0208 19:21:39.736124 20693 net.cpp:100] Creating Layer scale3b7_branch2a
I0208 19:21:39.736127 20693 net.cpp:434] scale3b7_branch2a <- res3b7_branch2a
I0208 19:21:39.736132 20693 net.cpp:395] scale3b7_branch2a -> res3b7_branch2a (in-place)
I0208 19:21:39.736179 20693 layer_factory.hpp:77] Creating layer scale3b7_branch2a
I0208 19:21:39.736304 20693 net.cpp:150] Setting up scale3b7_branch2a
I0208 19:21:39.736315 20693 net.cpp:157] Top shape: 1 128 32 32 (131072)
I0208 19:21:39.736318 20693 net.cpp:165] Memory required for data: 298319872
I0208 19:21:39.736325 20693 layer_factory.hpp:77] Creating layer res3b7_branch2a_relu
I0208 19:21:39.736331 20693 net.cpp:100] Creating Layer res3b7_branch2a_relu
I0208 19:21:39.736335 20693 net.cpp:434] res3b7_branch2a_relu <- res3b7_branch2a
I0208 19:21:39.736342 20693 net.cpp:395] res3b7_branch2a_relu -> res3b7_branch2a (in-place)
I0208 19:21:39.736534 20693 net.cpp:150] Setting up res3b7_branch2a_relu
I0208 19:21:39.736548 20693 net.cpp:157] Top shape: 1 128 32 32 (131072)
I0208 19:21:39.736552 20693 net.cpp:165] Memory required for data: 298844160
I0208 19:21:39.736557 20693 layer_factory.hpp:77] Creating layer res3b7_branch2b
I0208 19:21:39.736564 20693 net.cpp:100] Creating Layer res3b7_branch2b
I0208 19:21:39.736569 20693 net.cpp:434] res3b7_branch2b <- res3b7_branch2a
I0208 19:21:39.736577 20693 net.cpp:408] res3b7_branch2b -> res3b7_branch2b
I0208 19:21:39.738129 20693 net.cpp:150] Setting up res3b7_branch2b
I0208 19:21:39.738145 20693 net.cpp:157] Top shape: 1 128 32 32 (131072)
I0208 19:21:39.738162 20693 net.cpp:165] Memory required for data: 299368448
I0208 19:21:39.738168 20693 layer_factory.hpp:77] Creating layer bn3b7_branch2b
I0208 19:21:39.738176 20693 net.cpp:100] Creating Layer bn3b7_branch2b
I0208 19:21:39.738180 20693 net.cpp:434] bn3b7_branch2b <- res3b7_branch2b
I0208 19:21:39.738188 20693 net.cpp:395] bn3b7_branch2b -> res3b7_branch2b (in-place)
I0208 19:21:39.738416 20693 net.cpp:150] Setting up bn3b7_branch2b
I0208 19:21:39.738427 20693 net.cpp:157] Top shape: 1 128 32 32 (131072)
I0208 19:21:39.738431 20693 net.cpp:165] Memory required for data: 299892736
I0208 19:21:39.738440 20693 layer_factory.hpp:77] Creating layer scale3b7_branch2b
I0208 19:21:39.738447 20693 net.cpp:100] Creating Layer scale3b7_branch2b
I0208 19:21:39.738452 20693 net.cpp:434] scale3b7_branch2b <- res3b7_branch2b
I0208 19:21:39.738457 20693 net.cpp:395] scale3b7_branch2b -> res3b7_branch2b (in-place)
I0208 19:21:39.738507 20693 layer_factory.hpp:77] Creating layer scale3b7_branch2b
I0208 19:21:39.738636 20693 net.cpp:150] Setting up scale3b7_branch2b
I0208 19:21:39.738646 20693 net.cpp:157] Top shape: 1 128 32 32 (131072)
I0208 19:21:39.738649 20693 net.cpp:165] Memory required for data: 300417024
I0208 19:21:39.738656 20693 layer_factory.hpp:77] Creating layer res3b7_branch2b_relu
I0208 19:21:39.738662 20693 net.cpp:100] Creating Layer res3b7_branch2b_relu
I0208 19:21:39.738667 20693 net.cpp:434] res3b7_branch2b_relu <- res3b7_branch2b
I0208 19:21:39.738672 20693 net.cpp:395] res3b7_branch2b_relu -> res3b7_branch2b (in-place)
I0208 19:21:39.739006 20693 net.cpp:150] Setting up res3b7_branch2b_relu
I0208 19:21:39.739020 20693 net.cpp:157] Top shape: 1 128 32 32 (131072)
I0208 19:21:39.739025 20693 net.cpp:165] Memory required for data: 300941312
I0208 19:21:39.739029 20693 layer_factory.hpp:77] Creating layer res3b7_branch2c
I0208 19:21:39.739039 20693 net.cpp:100] Creating Layer res3b7_branch2c
I0208 19:21:39.739044 20693 net.cpp:434] res3b7_branch2c <- res3b7_branch2b
I0208 19:21:39.739051 20693 net.cpp:408] res3b7_branch2c -> res3b7_branch2c
I0208 19:21:39.740041 20693 net.cpp:150] Setting up res3b7_branch2c
I0208 19:21:39.740068 20693 net.cpp:157] Top shape: 1 512 32 32 (524288)
I0208 19:21:39.740072 20693 net.cpp:165] Memory required for data: 303038464
I0208 19:21:39.740079 20693 layer_factory.hpp:77] Creating layer bn3b7_branch2c
I0208 19:21:39.740087 20693 net.cpp:100] Creating Layer bn3b7_branch2c
I0208 19:21:39.740100 20693 net.cpp:434] bn3b7_branch2c <- res3b7_branch2c
I0208 19:21:39.740108 20693 net.cpp:395] bn3b7_branch2c -> res3b7_branch2c (in-place)
I0208 19:21:39.740331 20693 net.cpp:150] Setting up bn3b7_branch2c
I0208 19:21:39.740342 20693 net.cpp:157] Top shape: 1 512 32 32 (524288)
I0208 19:21:39.740346 20693 net.cpp:165] Memory required for data: 305135616
I0208 19:21:39.740355 20693 layer_factory.hpp:77] Creating layer scale3b7_branch2c
I0208 19:21:39.740361 20693 net.cpp:100] Creating Layer scale3b7_branch2c
I0208 19:21:39.740365 20693 net.cpp:434] scale3b7_branch2c <- res3b7_branch2c
I0208 19:21:39.740371 20693 net.cpp:395] scale3b7_branch2c -> res3b7_branch2c (in-place)
I0208 19:21:39.740416 20693 layer_factory.hpp:77] Creating layer scale3b7_branch2c
I0208 19:21:39.740548 20693 net.cpp:150] Setting up scale3b7_branch2c
I0208 19:21:39.740558 20693 net.cpp:157] Top shape: 1 512 32 32 (524288)
I0208 19:21:39.740562 20693 net.cpp:165] Memory required for data: 307232768
I0208 19:21:39.740569 20693 layer_factory.hpp:77] Creating layer res3b7
I0208 19:21:39.740576 20693 net.cpp:100] Creating Layer res3b7
I0208 19:21:39.740581 20693 net.cpp:434] res3b7 <- res3b6_res3b6_relu_0_split_1
I0208 19:21:39.740586 20693 net.cpp:434] res3b7 <- res3b7_branch2c
I0208 19:21:39.740592 20693 net.cpp:408] res3b7 -> res3b7
I0208 19:21:39.740622 20693 net.cpp:150] Setting up res3b7
I0208 19:21:39.740629 20693 net.cpp:157] Top shape: 1 512 32 32 (524288)
I0208 19:21:39.740633 20693 net.cpp:165] Memory required for data: 309329920
I0208 19:21:39.740638 20693 layer_factory.hpp:77] Creating layer res3b7_relu
I0208 19:21:39.740643 20693 net.cpp:100] Creating Layer res3b7_relu
I0208 19:21:39.740648 20693 net.cpp:434] res3b7_relu <- res3b7
I0208 19:21:39.740653 20693 net.cpp:395] res3b7_relu -> res3b7 (in-place)
I0208 19:21:39.740995 20693 net.cpp:150] Setting up res3b7_relu
I0208 19:21:39.741011 20693 net.cpp:157] Top shape: 1 512 32 32 (524288)
I0208 19:21:39.741015 20693 net.cpp:165] Memory required for data: 311427072
I0208 19:21:39.741020 20693 layer_factory.hpp:77] Creating layer res3b7_res3b7_relu_0_split
I0208 19:21:39.741026 20693 net.cpp:100] Creating Layer res3b7_res3b7_relu_0_split
I0208 19:21:39.741031 20693 net.cpp:434] res3b7_res3b7_relu_0_split <- res3b7
I0208 19:21:39.741039 20693 net.cpp:408] res3b7_res3b7_relu_0_split -> res3b7_res3b7_relu_0_split_0
I0208 19:21:39.741047 20693 net.cpp:408] res3b7_res3b7_relu_0_split -> res3b7_res3b7_relu_0_split_1
I0208 19:21:39.741099 20693 net.cpp:150] Setting up res3b7_res3b7_relu_0_split
I0208 19:21:39.741111 20693 net.cpp:157] Top shape: 1 512 32 32 (524288)
I0208 19:21:39.741117 20693 net.cpp:157] Top shape: 1 512 32 32 (524288)
I0208 19:21:39.741120 20693 net.cpp:165] Memory required for data: 315621376
I0208 19:21:39.741124 20693 layer_factory.hpp:77] Creating layer res4a_branch1
I0208 19:21:39.741133 20693 net.cpp:100] Creating Layer res4a_branch1
I0208 19:21:39.741137 20693 net.cpp:434] res4a_branch1 <- res3b7_res3b7_relu_0_split_0
I0208 19:21:39.741143 20693 net.cpp:408] res4a_branch1 -> res4a_branch1
I0208 19:21:39.743345 20693 net.cpp:150] Setting up res4a_branch1
I0208 19:21:39.743361 20693 net.cpp:157] Top shape: 1 1024 16 16 (262144)
I0208 19:21:39.743376 20693 net.cpp:165] Memory required for data: 316669952
I0208 19:21:39.743382 20693 layer_factory.hpp:77] Creating layer bn4a_branch1
I0208 19:21:39.743391 20693 net.cpp:100] Creating Layer bn4a_branch1
I0208 19:21:39.743397 20693 net.cpp:434] bn4a_branch1 <- res4a_branch1
I0208 19:21:39.743404 20693 net.cpp:395] bn4a_branch1 -> res4a_branch1 (in-place)
I0208 19:21:39.743633 20693 net.cpp:150] Setting up bn4a_branch1
I0208 19:21:39.743643 20693 net.cpp:157] Top shape: 1 1024 16 16 (262144)
I0208 19:21:39.743647 20693 net.cpp:165] Memory required for data: 317718528
I0208 19:21:39.743656 20693 layer_factory.hpp:77] Creating layer scale4a_branch1
I0208 19:21:39.743665 20693 net.cpp:100] Creating Layer scale4a_branch1
I0208 19:21:39.743670 20693 net.cpp:434] scale4a_branch1 <- res4a_branch1
I0208 19:21:39.743675 20693 net.cpp:395] scale4a_branch1 -> res4a_branch1 (in-place)
I0208 19:21:39.743719 20693 layer_factory.hpp:77] Creating layer scale4a_branch1
I0208 19:21:39.743852 20693 net.cpp:150] Setting up scale4a_branch1
I0208 19:21:39.743862 20693 net.cpp:157] Top shape: 1 1024 16 16 (262144)
I0208 19:21:39.743866 20693 net.cpp:165] Memory required for data: 318767104
I0208 19:21:39.743873 20693 layer_factory.hpp:77] Creating layer res4a_branch2a
I0208 19:21:39.743881 20693 net.cpp:100] Creating Layer res4a_branch2a
I0208 19:21:39.743885 20693 net.cpp:434] res4a_branch2a <- res3b7_res3b7_relu_0_split_1
I0208 19:21:39.743893 20693 net.cpp:408] res4a_branch2a -> res4a_branch2a
I0208 19:21:39.745162 20693 net.cpp:150] Setting up res4a_branch2a
I0208 19:21:39.745177 20693 net.cpp:157] Top shape: 1 256 16 16 (65536)
I0208 19:21:39.745193 20693 net.cpp:165] Memory required for data: 319029248
I0208 19:21:39.745198 20693 layer_factory.hpp:77] Creating layer bn4a_branch2a
I0208 19:21:39.745208 20693 net.cpp:100] Creating Layer bn4a_branch2a
I0208 19:21:39.745213 20693 net.cpp:434] bn4a_branch2a <- res4a_branch2a
I0208 19:21:39.745218 20693 net.cpp:395] bn4a_branch2a -> res4a_branch2a (in-place)
I0208 19:21:39.745451 20693 net.cpp:150] Setting up bn4a_branch2a
I0208 19:21:39.745462 20693 net.cpp:157] Top shape: 1 256 16 16 (65536)
I0208 19:21:39.745466 20693 net.cpp:165] Memory required for data: 319291392
I0208 19:21:39.745474 20693 layer_factory.hpp:77] Creating layer scale4a_branch2a
I0208 19:21:39.745481 20693 net.cpp:100] Creating Layer scale4a_branch2a
I0208 19:21:39.745486 20693 net.cpp:434] scale4a_branch2a <- res4a_branch2a
I0208 19:21:39.745491 20693 net.cpp:395] scale4a_branch2a -> res4a_branch2a (in-place)
I0208 19:21:39.745538 20693 layer_factory.hpp:77] Creating layer scale4a_branch2a
I0208 19:21:39.745659 20693 net.cpp:150] Setting up scale4a_branch2a
I0208 19:21:39.745668 20693 net.cpp:157] Top shape: 1 256 16 16 (65536)
I0208 19:21:39.745672 20693 net.cpp:165] Memory required for data: 319553536
I0208 19:21:39.745679 20693 layer_factory.hpp:77] Creating layer res4a_branch2a_relu
I0208 19:21:39.745685 20693 net.cpp:100] Creating Layer res4a_branch2a_relu
I0208 19:21:39.745689 20693 net.cpp:434] res4a_branch2a_relu <- res4a_branch2a
I0208 19:21:39.745695 20693 net.cpp:395] res4a_branch2a_relu -> res4a_branch2a (in-place)
I0208 19:21:39.745903 20693 net.cpp:150] Setting up res4a_branch2a_relu
I0208 19:21:39.745914 20693 net.cpp:157] Top shape: 1 256 16 16 (65536)
I0208 19:21:39.745918 20693 net.cpp:165] Memory required for data: 319815680
I0208 19:21:39.745923 20693 layer_factory.hpp:77] Creating layer res4a_branch2b
I0208 19:21:39.745932 20693 net.cpp:100] Creating Layer res4a_branch2b
I0208 19:21:39.745936 20693 net.cpp:434] res4a_branch2b <- res4a_branch2a
I0208 19:21:39.745945 20693 net.cpp:408] res4a_branch2b -> res4a_branch2b
I0208 19:21:39.748184 20693 net.cpp:150] Setting up res4a_branch2b
I0208 19:21:39.748200 20693 net.cpp:157] Top shape: 1 256 16 16 (65536)
I0208 19:21:39.748216 20693 net.cpp:165] Memory required for data: 320077824
I0208 19:21:39.748222 20693 layer_factory.hpp:77] Creating layer bn4a_branch2b
I0208 19:21:39.748230 20693 net.cpp:100] Creating Layer bn4a_branch2b
I0208 19:21:39.748235 20693 net.cpp:434] bn4a_branch2b <- res4a_branch2b
I0208 19:21:39.748241 20693 net.cpp:395] bn4a_branch2b -> res4a_branch2b (in-place)
I0208 19:21:39.748468 20693 net.cpp:150] Setting up bn4a_branch2b
I0208 19:21:39.748479 20693 net.cpp:157] Top shape: 1 256 16 16 (65536)
I0208 19:21:39.748483 20693 net.cpp:165] Memory required for data: 320339968
I0208 19:21:39.748492 20693 layer_factory.hpp:77] Creating layer scale4a_branch2b
I0208 19:21:39.748499 20693 net.cpp:100] Creating Layer scale4a_branch2b
I0208 19:21:39.748503 20693 net.cpp:434] scale4a_branch2b <- res4a_branch2b
I0208 19:21:39.748508 20693 net.cpp:395] scale4a_branch2b -> res4a_branch2b (in-place)
I0208 19:21:39.748558 20693 layer_factory.hpp:77] Creating layer scale4a_branch2b
I0208 19:21:39.748679 20693 net.cpp:150] Setting up scale4a_branch2b
I0208 19:21:39.748688 20693 net.cpp:157] Top shape: 1 256 16 16 (65536)
I0208 19:21:39.748692 20693 net.cpp:165] Memory required for data: 320602112
I0208 19:21:39.748699 20693 layer_factory.hpp:77] Creating layer res4a_branch2b_relu
I0208 19:21:39.748704 20693 net.cpp:100] Creating Layer res4a_branch2b_relu
I0208 19:21:39.748708 20693 net.cpp:434] res4a_branch2b_relu <- res4a_branch2b
I0208 19:21:39.748715 20693 net.cpp:395] res4a_branch2b_relu -> res4a_branch2b (in-place)
I0208 19:21:39.748929 20693 net.cpp:150] Setting up res4a_branch2b_relu
I0208 19:21:39.748942 20693 net.cpp:157] Top shape: 1 256 16 16 (65536)
I0208 19:21:39.748946 20693 net.cpp:165] Memory required for data: 320864256
I0208 19:21:39.748951 20693 layer_factory.hpp:77] Creating layer res4a_branch2c
I0208 19:21:39.748960 20693 net.cpp:100] Creating Layer res4a_branch2c
I0208 19:21:39.748965 20693 net.cpp:434] res4a_branch2c <- res4a_branch2b
I0208 19:21:39.748971 20693 net.cpp:408] res4a_branch2c -> res4a_branch2c
I0208 19:21:39.750634 20693 net.cpp:150] Setting up res4a_branch2c
I0208 19:21:39.750660 20693 net.cpp:157] Top shape: 1 1024 16 16 (262144)
I0208 19:21:39.750664 20693 net.cpp:165] Memory required for data: 321912832
I0208 19:21:39.750671 20693 layer_factory.hpp:77] Creating layer bn4a_branch2c
I0208 19:21:39.750679 20693 net.cpp:100] Creating Layer bn4a_branch2c
I0208 19:21:39.750695 20693 net.cpp:434] bn4a_branch2c <- res4a_branch2c
I0208 19:21:39.750700 20693 net.cpp:395] bn4a_branch2c -> res4a_branch2c (in-place)
I0208 19:21:39.750923 20693 net.cpp:150] Setting up bn4a_branch2c
I0208 19:21:39.750934 20693 net.cpp:157] Top shape: 1 1024 16 16 (262144)
I0208 19:21:39.750937 20693 net.cpp:165] Memory required for data: 322961408
I0208 19:21:39.750946 20693 layer_factory.hpp:77] Creating layer scale4a_branch2c
I0208 19:21:39.750955 20693 net.cpp:100] Creating Layer scale4a_branch2c
I0208 19:21:39.750960 20693 net.cpp:434] scale4a_branch2c <- res4a_branch2c
I0208 19:21:39.750965 20693 net.cpp:395] scale4a_branch2c -> res4a_branch2c (in-place)
I0208 19:21:39.751011 20693 layer_factory.hpp:77] Creating layer scale4a_branch2c
I0208 19:21:39.751142 20693 net.cpp:150] Setting up scale4a_branch2c
I0208 19:21:39.751152 20693 net.cpp:157] Top shape: 1 1024 16 16 (262144)
I0208 19:21:39.751155 20693 net.cpp:165] Memory required for data: 324009984
I0208 19:21:39.751163 20693 layer_factory.hpp:77] Creating layer res4a
I0208 19:21:39.751168 20693 net.cpp:100] Creating Layer res4a
I0208 19:21:39.751173 20693 net.cpp:434] res4a <- res4a_branch1
I0208 19:21:39.751178 20693 net.cpp:434] res4a <- res4a_branch2c
I0208 19:21:39.751184 20693 net.cpp:408] res4a -> res4a
I0208 19:21:39.751220 20693 net.cpp:150] Setting up res4a
I0208 19:21:39.751227 20693 net.cpp:157] Top shape: 1 1024 16 16 (262144)
I0208 19:21:39.751232 20693 net.cpp:165] Memory required for data: 325058560
I0208 19:21:39.751236 20693 layer_factory.hpp:77] Creating layer res4a_relu
I0208 19:21:39.751243 20693 net.cpp:100] Creating Layer res4a_relu
I0208 19:21:39.751247 20693 net.cpp:434] res4a_relu <- res4a
I0208 19:21:39.751252 20693 net.cpp:395] res4a_relu -> res4a (in-place)
I0208 19:21:39.751597 20693 net.cpp:150] Setting up res4a_relu
I0208 19:21:39.751623 20693 net.cpp:157] Top shape: 1 1024 16 16 (262144)
I0208 19:21:39.751627 20693 net.cpp:165] Memory required for data: 326107136
I0208 19:21:39.751632 20693 layer_factory.hpp:77] Creating layer res4a_res4a_relu_0_split
I0208 19:21:39.751639 20693 net.cpp:100] Creating Layer res4a_res4a_relu_0_split
I0208 19:21:39.751643 20693 net.cpp:434] res4a_res4a_relu_0_split <- res4a
I0208 19:21:39.751649 20693 net.cpp:408] res4a_res4a_relu_0_split -> res4a_res4a_relu_0_split_0
I0208 19:21:39.751657 20693 net.cpp:408] res4a_res4a_relu_0_split -> res4a_res4a_relu_0_split_1
I0208 19:21:39.751711 20693 net.cpp:150] Setting up res4a_res4a_relu_0_split
I0208 19:21:39.751720 20693 net.cpp:157] Top shape: 1 1024 16 16 (262144)
I0208 19:21:39.751725 20693 net.cpp:157] Top shape: 1 1024 16 16 (262144)
I0208 19:21:39.751729 20693 net.cpp:165] Memory required for data: 328204288
I0208 19:21:39.751734 20693 layer_factory.hpp:77] Creating layer res4b1_branch2a
I0208 19:21:39.751751 20693 net.cpp:100] Creating Layer res4b1_branch2a
I0208 19:21:39.751756 20693 net.cpp:434] res4b1_branch2a <- res4a_res4a_relu_0_split_0
I0208 19:21:39.751763 20693 net.cpp:408] res4b1_branch2a -> res4b1_branch2a
I0208 19:21:39.753582 20693 net.cpp:150] Setting up res4b1_branch2a
I0208 19:21:39.753609 20693 net.cpp:157] Top shape: 1 256 16 16 (65536)
I0208 19:21:39.753613 20693 net.cpp:165] Memory required for data: 328466432
I0208 19:21:39.753620 20693 layer_factory.hpp:77] Creating layer bn4b1_branch2a
I0208 19:21:39.753629 20693 net.cpp:100] Creating Layer bn4b1_branch2a
I0208 19:21:39.753644 20693 net.cpp:434] bn4b1_branch2a <- res4b1_branch2a
I0208 19:21:39.753651 20693 net.cpp:395] bn4b1_branch2a -> res4b1_branch2a (in-place)
I0208 19:21:39.753913 20693 net.cpp:150] Setting up bn4b1_branch2a
I0208 19:21:39.753924 20693 net.cpp:157] Top shape: 1 256 16 16 (65536)
I0208 19:21:39.753928 20693 net.cpp:165] Memory required for data: 328728576
I0208 19:21:39.753937 20693 layer_factory.hpp:77] Creating layer scale4b1_branch2a
I0208 19:21:39.753943 20693 net.cpp:100] Creating Layer scale4b1_branch2a
I0208 19:21:39.753947 20693 net.cpp:434] scale4b1_branch2a <- res4b1_branch2a
I0208 19:21:39.753952 20693 net.cpp:395] scale4b1_branch2a -> res4b1_branch2a (in-place)
I0208 19:21:39.754004 20693 layer_factory.hpp:77] Creating layer scale4b1_branch2a
I0208 19:21:39.754130 20693 net.cpp:150] Setting up scale4b1_branch2a
I0208 19:21:39.754140 20693 net.cpp:157] Top shape: 1 256 16 16 (65536)
I0208 19:21:39.754144 20693 net.cpp:165] Memory required for data: 328990720
I0208 19:21:39.754151 20693 layer_factory.hpp:77] Creating layer res4b1_branch2a_relu
I0208 19:21:39.754158 20693 net.cpp:100] Creating Layer res4b1_branch2a_relu
I0208 19:21:39.754161 20693 net.cpp:434] res4b1_branch2a_relu <- res4b1_branch2a
I0208 19:21:39.754168 20693 net.cpp:395] res4b1_branch2a_relu -> res4b1_branch2a (in-place)
I0208 19:21:39.754381 20693 net.cpp:150] Setting up res4b1_branch2a_relu
I0208 19:21:39.754393 20693 net.cpp:157] Top shape: 1 256 16 16 (65536)
I0208 19:21:39.754397 20693 net.cpp:165] Memory required for data: 329252864
I0208 19:21:39.754402 20693 layer_factory.hpp:77] Creating layer res4b1_branch2b
I0208 19:21:39.754411 20693 net.cpp:100] Creating Layer res4b1_branch2b
I0208 19:21:39.754416 20693 net.cpp:434] res4b1_branch2b <- res4b1_branch2a
I0208 19:21:39.754425 20693 net.cpp:408] res4b1_branch2b -> res4b1_branch2b
I0208 19:21:39.756638 20693 net.cpp:150] Setting up res4b1_branch2b
I0208 19:21:39.756664 20693 net.cpp:157] Top shape: 1 256 16 16 (65536)
I0208 19:21:39.756669 20693 net.cpp:165] Memory required for data: 329515008
I0208 19:21:39.756675 20693 layer_factory.hpp:77] Creating layer bn4b1_branch2b
I0208 19:21:39.756681 20693 net.cpp:100] Creating Layer bn4b1_branch2b
I0208 19:21:39.756686 20693 net.cpp:434] bn4b1_branch2b <- res4b1_branch2b
I0208 19:21:39.756693 20693 net.cpp:395] bn4b1_branch2b -> res4b1_branch2b (in-place)
I0208 19:21:39.756960 20693 net.cpp:150] Setting up bn4b1_branch2b
I0208 19:21:39.756973 20693 net.cpp:157] Top shape: 1 256 16 16 (65536)
I0208 19:21:39.756978 20693 net.cpp:165] Memory required for data: 329777152
I0208 19:21:39.756986 20693 layer_factory.hpp:77] Creating layer scale4b1_branch2b
I0208 19:21:39.756992 20693 net.cpp:100] Creating Layer scale4b1_branch2b
I0208 19:21:39.756997 20693 net.cpp:434] scale4b1_branch2b <- res4b1_branch2b
I0208 19:21:39.757002 20693 net.cpp:395] scale4b1_branch2b -> res4b1_branch2b (in-place)
I0208 19:21:39.757062 20693 layer_factory.hpp:77] Creating layer scale4b1_branch2b
I0208 19:21:39.757190 20693 net.cpp:150] Setting up scale4b1_branch2b
I0208 19:21:39.757200 20693 net.cpp:157] Top shape: 1 256 16 16 (65536)
I0208 19:21:39.757203 20693 net.cpp:165] Memory required for data: 330039296
I0208 19:21:39.757210 20693 layer_factory.hpp:77] Creating layer res4b1_branch2b_relu
I0208 19:21:39.757217 20693 net.cpp:100] Creating Layer res4b1_branch2b_relu
I0208 19:21:39.757221 20693 net.cpp:434] res4b1_branch2b_relu <- res4b1_branch2b
I0208 19:21:39.757226 20693 net.cpp:395] res4b1_branch2b_relu -> res4b1_branch2b (in-place)
I0208 19:21:39.757436 20693 net.cpp:150] Setting up res4b1_branch2b_relu
I0208 19:21:39.757447 20693 net.cpp:157] Top shape: 1 256 16 16 (65536)
I0208 19:21:39.757452 20693 net.cpp:165] Memory required for data: 330301440
I0208 19:21:39.757457 20693 layer_factory.hpp:77] Creating layer res4b1_branch2c
I0208 19:21:39.757465 20693 net.cpp:100] Creating Layer res4b1_branch2c
I0208 19:21:39.757470 20693 net.cpp:434] res4b1_branch2c <- res4b1_branch2b
I0208 19:21:39.757477 20693 net.cpp:408] res4b1_branch2c -> res4b1_branch2c
I0208 19:21:39.759124 20693 net.cpp:150] Setting up res4b1_branch2c
I0208 19:21:39.759151 20693 net.cpp:157] Top shape: 1 1024 16 16 (262144)
I0208 19:21:39.759156 20693 net.cpp:165] Memory required for data: 331350016
I0208 19:21:39.759162 20693 layer_factory.hpp:77] Creating layer bn4b1_branch2c
I0208 19:21:39.759169 20693 net.cpp:100] Creating Layer bn4b1_branch2c
I0208 19:21:39.759174 20693 net.cpp:434] bn4b1_branch2c <- res4b1_branch2c
I0208 19:21:39.759181 20693 net.cpp:395] bn4b1_branch2c -> res4b1_branch2c (in-place)
I0208 19:21:39.759434 20693 net.cpp:150] Setting up bn4b1_branch2c
I0208 19:21:39.759445 20693 net.cpp:157] Top shape: 1 1024 16 16 (262144)
I0208 19:21:39.759450 20693 net.cpp:165] Memory required for data: 332398592
I0208 19:21:39.759459 20693 layer_factory.hpp:77] Creating layer scale4b1_branch2c
I0208 19:21:39.759465 20693 net.cpp:100] Creating Layer scale4b1_branch2c
I0208 19:21:39.759470 20693 net.cpp:434] scale4b1_branch2c <- res4b1_branch2c
I0208 19:21:39.759476 20693 net.cpp:395] scale4b1_branch2c -> res4b1_branch2c (in-place)
I0208 19:21:39.759524 20693 layer_factory.hpp:77] Creating layer scale4b1_branch2c
I0208 19:21:39.759663 20693 net.cpp:150] Setting up scale4b1_branch2c
I0208 19:21:39.759673 20693 net.cpp:157] Top shape: 1 1024 16 16 (262144)
I0208 19:21:39.759676 20693 net.cpp:165] Memory required for data: 333447168
I0208 19:21:39.759711 20693 layer_factory.hpp:77] Creating layer res4b1
I0208 19:21:39.759721 20693 net.cpp:100] Creating Layer res4b1
I0208 19:21:39.759726 20693 net.cpp:434] res4b1 <- res4a_res4a_relu_0_split_1
I0208 19:21:39.759730 20693 net.cpp:434] res4b1 <- res4b1_branch2c
I0208 19:21:39.759737 20693 net.cpp:408] res4b1 -> res4b1
I0208 19:21:39.759768 20693 net.cpp:150] Setting up res4b1
I0208 19:21:39.759778 20693 net.cpp:157] Top shape: 1 1024 16 16 (262144)
I0208 19:21:39.759781 20693 net.cpp:165] Memory required for data: 334495744
I0208 19:21:39.759785 20693 layer_factory.hpp:77] Creating layer res4b1_relu
I0208 19:21:39.759791 20693 net.cpp:100] Creating Layer res4b1_relu
I0208 19:21:39.759795 20693 net.cpp:434] res4b1_relu <- res4b1
I0208 19:21:39.759802 20693 net.cpp:395] res4b1_relu -> res4b1 (in-place)
I0208 19:21:39.760160 20693 net.cpp:150] Setting up res4b1_relu
I0208 19:21:39.760175 20693 net.cpp:157] Top shape: 1 1024 16 16 (262144)
I0208 19:21:39.760190 20693 net.cpp:165] Memory required for data: 335544320
I0208 19:21:39.760195 20693 layer_factory.hpp:77] Creating layer res4b1_res4b1_relu_0_split
I0208 19:21:39.760200 20693 net.cpp:100] Creating Layer res4b1_res4b1_relu_0_split
I0208 19:21:39.760205 20693 net.cpp:434] res4b1_res4b1_relu_0_split <- res4b1
I0208 19:21:39.760213 20693 net.cpp:408] res4b1_res4b1_relu_0_split -> res4b1_res4b1_relu_0_split_0
I0208 19:21:39.760222 20693 net.cpp:408] res4b1_res4b1_relu_0_split -> res4b1_res4b1_relu_0_split_1
I0208 19:21:39.760274 20693 net.cpp:150] Setting up res4b1_res4b1_relu_0_split
I0208 19:21:39.760285 20693 net.cpp:157] Top shape: 1 1024 16 16 (262144)
I0208 19:21:39.760290 20693 net.cpp:157] Top shape: 1 1024 16 16 (262144)
I0208 19:21:39.760294 20693 net.cpp:165] Memory required for data: 337641472
I0208 19:21:39.760298 20693 layer_factory.hpp:77] Creating layer res4b2_branch2a
I0208 19:21:39.760305 20693 net.cpp:100] Creating Layer res4b2_branch2a
I0208 19:21:39.760310 20693 net.cpp:434] res4b2_branch2a <- res4b1_res4b1_relu_0_split_0
I0208 19:21:39.760318 20693 net.cpp:408] res4b2_branch2a -> res4b2_branch2a
I0208 19:21:39.762059 20693 net.cpp:150] Setting up res4b2_branch2a
I0208 19:21:39.762086 20693 net.cpp:157] Top shape: 1 256 16 16 (65536)
I0208 19:21:39.762091 20693 net.cpp:165] Memory required for data: 337903616
I0208 19:21:39.762097 20693 layer_factory.hpp:77] Creating layer bn4b2_branch2a
I0208 19:21:39.762106 20693 net.cpp:100] Creating Layer bn4b2_branch2a
I0208 19:21:39.762122 20693 net.cpp:434] bn4b2_branch2a <- res4b2_branch2a
I0208 19:21:39.762128 20693 net.cpp:395] bn4b2_branch2a -> res4b2_branch2a (in-place)
I0208 19:21:39.762395 20693 net.cpp:150] Setting up bn4b2_branch2a
I0208 19:21:39.762406 20693 net.cpp:157] Top shape: 1 256 16 16 (65536)
I0208 19:21:39.762410 20693 net.cpp:165] Memory required for data: 338165760
I0208 19:21:39.762419 20693 layer_factory.hpp:77] Creating layer scale4b2_branch2a
I0208 19:21:39.762428 20693 net.cpp:100] Creating Layer scale4b2_branch2a
I0208 19:21:39.762432 20693 net.cpp:434] scale4b2_branch2a <- res4b2_branch2a
I0208 19:21:39.762437 20693 net.cpp:395] scale4b2_branch2a -> res4b2_branch2a (in-place)
I0208 19:21:39.762490 20693 layer_factory.hpp:77] Creating layer scale4b2_branch2a
I0208 19:21:39.762622 20693 net.cpp:150] Setting up scale4b2_branch2a
I0208 19:21:39.762632 20693 net.cpp:157] Top shape: 1 256 16 16 (65536)
I0208 19:21:39.762646 20693 net.cpp:165] Memory required for data: 338427904
I0208 19:21:39.762653 20693 layer_factory.hpp:77] Creating layer res4b2_branch2a_relu
I0208 19:21:39.762660 20693 net.cpp:100] Creating Layer res4b2_branch2a_relu
I0208 19:21:39.762663 20693 net.cpp:434] res4b2_branch2a_relu <- res4b2_branch2a
I0208 19:21:39.762668 20693 net.cpp:395] res4b2_branch2a_relu -> res4b2_branch2a (in-place)
I0208 19:21:39.762872 20693 net.cpp:150] Setting up res4b2_branch2a_relu
I0208 19:21:39.762884 20693 net.cpp:157] Top shape: 1 256 16 16 (65536)
I0208 19:21:39.762888 20693 net.cpp:165] Memory required for data: 338690048
I0208 19:21:39.762892 20693 layer_factory.hpp:77] Creating layer res4b2_branch2b
I0208 19:21:39.762902 20693 net.cpp:100] Creating Layer res4b2_branch2b
I0208 19:21:39.762907 20693 net.cpp:434] res4b2_branch2b <- res4b2_branch2a
I0208 19:21:39.762914 20693 net.cpp:408] res4b2_branch2b -> res4b2_branch2b
I0208 19:21:39.765172 20693 net.cpp:150] Setting up res4b2_branch2b
I0208 19:21:39.765188 20693 net.cpp:157] Top shape: 1 256 16 16 (65536)
I0208 19:21:39.765203 20693 net.cpp:165] Memory required for data: 338952192
I0208 19:21:39.765209 20693 layer_factory.hpp:77] Creating layer bn4b2_branch2b
I0208 19:21:39.765218 20693 net.cpp:100] Creating Layer bn4b2_branch2b
I0208 19:21:39.765223 20693 net.cpp:434] bn4b2_branch2b <- res4b2_branch2b
I0208 19:21:39.765239 20693 net.cpp:395] bn4b2_branch2b -> res4b2_branch2b (in-place)
I0208 19:21:39.765497 20693 net.cpp:150] Setting up bn4b2_branch2b
I0208 19:21:39.765508 20693 net.cpp:157] Top shape: 1 256 16 16 (65536)
I0208 19:21:39.765513 20693 net.cpp:165] Memory required for data: 339214336
I0208 19:21:39.765522 20693 layer_factory.hpp:77] Creating layer scale4b2_branch2b
I0208 19:21:39.765535 20693 net.cpp:100] Creating Layer scale4b2_branch2b
I0208 19:21:39.765539 20693 net.cpp:434] scale4b2_branch2b <- res4b2_branch2b
I0208 19:21:39.765547 20693 net.cpp:395] scale4b2_branch2b -> res4b2_branch2b (in-place)
I0208 19:21:39.765595 20693 layer_factory.hpp:77] Creating layer scale4b2_branch2b
I0208 19:21:39.765727 20693 net.cpp:150] Setting up scale4b2_branch2b
I0208 19:21:39.765738 20693 net.cpp:157] Top shape: 1 256 16 16 (65536)
I0208 19:21:39.765743 20693 net.cpp:165] Memory required for data: 339476480
I0208 19:21:39.765749 20693 layer_factory.hpp:77] Creating layer res4b2_branch2b_relu
I0208 19:21:39.765756 20693 net.cpp:100] Creating Layer res4b2_branch2b_relu
I0208 19:21:39.765760 20693 net.cpp:434] res4b2_branch2b_relu <- res4b2_branch2b
I0208 19:21:39.765765 20693 net.cpp:395] res4b2_branch2b_relu -> res4b2_branch2b (in-place)
I0208 19:21:39.765966 20693 net.cpp:150] Setting up res4b2_branch2b_relu
I0208 19:21:39.765980 20693 net.cpp:157] Top shape: 1 256 16 16 (65536)
I0208 19:21:39.765983 20693 net.cpp:165] Memory required for data: 339738624
I0208 19:21:39.765987 20693 layer_factory.hpp:77] Creating layer res4b2_branch2c
I0208 19:21:39.765997 20693 net.cpp:100] Creating Layer res4b2_branch2c
I0208 19:21:39.766001 20693 net.cpp:434] res4b2_branch2c <- res4b2_branch2b
I0208 19:21:39.766008 20693 net.cpp:408] res4b2_branch2c -> res4b2_branch2c
I0208 19:21:39.767673 20693 net.cpp:150] Setting up res4b2_branch2c
I0208 19:21:39.767699 20693 net.cpp:157] Top shape: 1 1024 16 16 (262144)
I0208 19:21:39.767704 20693 net.cpp:165] Memory required for data: 340787200
I0208 19:21:39.767721 20693 layer_factory.hpp:77] Creating layer bn4b2_branch2c
I0208 19:21:39.767730 20693 net.cpp:100] Creating Layer bn4b2_branch2c
I0208 19:21:39.767735 20693 net.cpp:434] bn4b2_branch2c <- res4b2_branch2c
I0208 19:21:39.767741 20693 net.cpp:395] bn4b2_branch2c -> res4b2_branch2c (in-place)
I0208 19:21:39.767987 20693 net.cpp:150] Setting up bn4b2_branch2c
I0208 19:21:39.767997 20693 net.cpp:157] Top shape: 1 1024 16 16 (262144)
I0208 19:21:39.768002 20693 net.cpp:165] Memory required for data: 341835776
I0208 19:21:39.768010 20693 layer_factory.hpp:77] Creating layer scale4b2_branch2c
I0208 19:21:39.768018 20693 net.cpp:100] Creating Layer scale4b2_branch2c
I0208 19:21:39.768033 20693 net.cpp:434] scale4b2_branch2c <- res4b2_branch2c
I0208 19:21:39.768040 20693 net.cpp:395] scale4b2_branch2c -> res4b2_branch2c (in-place)
I0208 19:21:39.768086 20693 layer_factory.hpp:77] Creating layer scale4b2_branch2c
I0208 19:21:39.768223 20693 net.cpp:150] Setting up scale4b2_branch2c
I0208 19:21:39.768232 20693 net.cpp:157] Top shape: 1 1024 16 16 (262144)
I0208 19:21:39.768236 20693 net.cpp:165] Memory required for data: 342884352
I0208 19:21:39.768242 20693 layer_factory.hpp:77] Creating layer res4b2
I0208 19:21:39.768250 20693 net.cpp:100] Creating Layer res4b2
I0208 19:21:39.768255 20693 net.cpp:434] res4b2 <- res4b1_res4b1_relu_0_split_1
I0208 19:21:39.768260 20693 net.cpp:434] res4b2 <- res4b2_branch2c
I0208 19:21:39.768265 20693 net.cpp:408] res4b2 -> res4b2
I0208 19:21:39.768290 20693 net.cpp:150] Setting up res4b2
I0208 19:21:39.768296 20693 net.cpp:157] Top shape: 1 1024 16 16 (262144)
I0208 19:21:39.768299 20693 net.cpp:165] Memory required for data: 343932928
I0208 19:21:39.768303 20693 layer_factory.hpp:77] Creating layer res4b2_relu
I0208 19:21:39.768322 20693 net.cpp:100] Creating Layer res4b2_relu
I0208 19:21:39.768326 20693 net.cpp:434] res4b2_relu <- res4b2
I0208 19:21:39.768332 20693 net.cpp:395] res4b2_relu -> res4b2 (in-place)
I0208 19:21:39.768681 20693 net.cpp:150] Setting up res4b2_relu
I0208 19:21:39.768707 20693 net.cpp:157] Top shape: 1 1024 16 16 (262144)
I0208 19:21:39.768710 20693 net.cpp:165] Memory required for data: 344981504
I0208 19:21:39.768715 20693 layer_factory.hpp:77] Creating layer res4b2_res4b2_relu_0_split
…
I0208 19:21:40.664991 20693 net.cpp:100] Creating Layer scale4b33_branch2b
I0208 19:21:40.664996 20693 net.cpp:434] scale4b33_branch2b <- res4b33_branch2b
I0208 19:21:40.665001 20693 net.cpp:395] scale4b33_branch2b -> res4b33_branch2b (in-place)
I0208 19:21:40.665055 20693 layer_factory.hpp:77] Creating layer scale4b33_branch2b
I0208 19:21:40.665197 20693 net.cpp:150] Setting up scale4b33_branch2b
I0208 19:21:40.665206 20693 net.cpp:157] Top shape: 1 256 16 16 (65536)
I0208 19:21:40.665210 20693 net.cpp:165] Memory required for data: 623116288
I0208 19:21:40.665217 20693 layer_factory.hpp:77] Creating layer res4b33_branch2b_relu
I0208 19:21:40.665225 20693 net.cpp:100] Creating Layer res4b33_branch2b_relu
I0208 19:21:40.665228 20693 net.cpp:434] res4b33_branch2b_relu <- res4b33_branch2b
I0208 19:21:40.665233 20693 net.cpp:395] res4b33_branch2b_relu -> res4b33_branch2b (in-place)
I0208 19:21:40.665881 20693 net.cpp:150] Setting up res4b33_branch2b_relu
I0208 19:21:40.665896 20693 net.cpp:157] Top shape: 1 256 16 16 (65536)
I0208 19:21:40.665911 20693 net.cpp:165] Memory required for data: 623378432
I0208 19:21:40.665916 20693 layer_factory.hpp:77] Creating layer res4b33_branch2c
I0208 19:21:40.665925 20693 net.cpp:100] Creating Layer res4b33_branch2c
I0208 19:21:40.665928 20693 net.cpp:434] res4b33_branch2c <- res4b33_branch2b
I0208 19:21:40.665948 20693 net.cpp:408] res4b33_branch2c -> res4b33_branch2c
I0208 19:21:40.667820 20693 net.cpp:150] Setting up res4b33_branch2c
I0208 19:21:40.667847 20693 net.cpp:157] Top shape: 1 1024 16 16 (262144)
I0208 19:21:40.667852 20693 net.cpp:165] Memory required for data: 624427008
I0208 19:21:40.667858 20693 layer_factory.hpp:77] Creating layer bn4b33_branch2c
I0208 19:21:40.667867 20693 net.cpp:100] Creating Layer bn4b33_branch2c
I0208 19:21:40.667884 20693 net.cpp:434] bn4b33_branch2c <- res4b33_branch2c
I0208 19:21:40.667891 20693 net.cpp:395] bn4b33_branch2c -> res4b33_branch2c (in-place)
I0208 19:21:40.668200 20693 net.cpp:150] Setting up bn4b33_branch2c
I0208 19:21:40.668221 20693 net.cpp:157] Top shape: 1 1024 16 16 (262144)
I0208 19:21:40.668237 20693 net.cpp:165] Memory required for data: 625475584
I0208 19:21:40.668246 20693 layer_factory.hpp:77] Creating layer scale4b33_branch2c
I0208 19:21:40.668252 20693 net.cpp:100] Creating Layer scale4b33_branch2c
I0208 19:21:40.668257 20693 net.cpp:434] scale4b33_branch2c <- res4b33_branch2c
I0208 19:21:40.668264 20693 net.cpp:395] scale4b33_branch2c -> res4b33_branch2c (in-place)
I0208 19:21:40.668356 20693 layer_factory.hpp:77] Creating layer scale4b33_branch2c
I0208 19:21:40.668548 20693 net.cpp:150] Setting up scale4b33_branch2c
I0208 19:21:40.668560 20693 net.cpp:157] Top shape: 1 1024 16 16 (262144)
I0208 19:21:40.668563 20693 net.cpp:165] Memory required for data: 626524160
I0208 19:21:40.668570 20693 layer_factory.hpp:77] Creating layer res4b33
I0208 19:21:40.668581 20693 net.cpp:100] Creating Layer res4b33
I0208 19:21:40.668586 20693 net.cpp:434] res4b33 <- res4b32_res4b32_relu_0_split_1
I0208 19:21:40.668591 20693 net.cpp:434] res4b33 <- res4b33_branch2c
I0208 19:21:40.668596 20693 net.cpp:408] res4b33 -> res4b33
I0208 19:21:40.668627 20693 net.cpp:150] Setting up res4b33
I0208 19:21:40.668634 20693 net.cpp:157] Top shape: 1 1024 16 16 (262144)
I0208 19:21:40.668638 20693 net.cpp:165] Memory required for data: 627572736
I0208 19:21:40.668642 20693 layer_factory.hpp:77] Creating layer res4b33_relu
I0208 19:21:40.668650 20693 net.cpp:100] Creating Layer res4b33_relu
I0208 19:21:40.668655 20693 net.cpp:434] res4b33_relu <- res4b33
I0208 19:21:40.668660 20693 net.cpp:395] res4b33_relu -> res4b33 (in-place)
I0208 19:21:40.669165 20693 net.cpp:150] Setting up res4b33_relu
I0208 19:21:40.669193 20693 net.cpp:157] Top shape: 1 1024 16 16 (262144)
I0208 19:21:40.669198 20693 net.cpp:165] Memory required for data: 628621312
I0208 19:21:40.669203 20693 layer_factory.hpp:77] Creating layer res4b33_res4b33_relu_0_split
I0208 19:21:40.669209 20693 net.cpp:100] Creating Layer res4b33_res4b33_relu_0_split
I0208 19:21:40.669224 20693 net.cpp:434] res4b33_res4b33_relu_0_split <- res4b33
I0208 19:21:40.669234 20693 net.cpp:408] res4b33_res4b33_relu_0_split -> res4b33_res4b33_relu_0_split_0
I0208 19:21:40.669242 20693 net.cpp:408] res4b33_res4b33_relu_0_split -> res4b33_res4b33_relu_0_split_1
I0208 19:21:40.669303 20693 net.cpp:150] Setting up res4b33_res4b33_relu_0_split
I0208 19:21:40.669313 20693 net.cpp:157] Top shape: 1 1024 16 16 (262144)
I0208 19:21:40.669320 20693 net.cpp:157] Top shape: 1 1024 16 16 (262144)
I0208 19:21:40.669324 20693 net.cpp:165] Memory required for data: 630718464
I0208 19:21:40.669328 20693 layer_factory.hpp:77] Creating layer res4b34_branch2a
I0208 19:21:40.669337 20693 net.cpp:100] Creating Layer res4b34_branch2a
I0208 19:21:40.669342 20693 net.cpp:434] res4b34_branch2a <- res4b33_res4b33_relu_0_split_0
I0208 19:21:40.669349 20693 net.cpp:408] res4b34_branch2a -> res4b34_branch2a
I0208 19:21:40.671490 20693 net.cpp:150] Setting up res4b34_branch2a
I0208 19:21:40.671530 20693 net.cpp:157] Top shape: 1 256 16 16 (65536)
I0208 19:21:40.671535 20693 net.cpp:165] Memory required for data: 630980608
I0208 19:21:40.671541 20693 layer_factory.hpp:77] Creating layer bn4b34_branch2a
I0208 19:21:40.671550 20693 net.cpp:100] Creating Layer bn4b34_branch2a
I0208 19:21:40.671566 20693 net.cpp:434] bn4b34_branch2a <- res4b34_branch2a
I0208 19:21:40.671573 20693 net.cpp:395] bn4b34_branch2a -> res4b34_branch2a (in-place)
I0208 19:21:40.671831 20693 net.cpp:150] Setting up bn4b34_branch2a
I0208 19:21:40.671843 20693 net.cpp:157] Top shape: 1 256 16 16 (65536)
I0208 19:21:40.671846 20693 net.cpp:165] Memory required for data: 631242752
I0208 19:21:40.671854 20693 layer_factory.hpp:77] Creating layer scale4b34_branch2a
I0208 19:21:40.671861 20693 net.cpp:100] Creating Layer scale4b34_branch2a
I0208 19:21:40.671865 20693 net.cpp:434] scale4b34_branch2a <- res4b34_branch2a
I0208 19:21:40.671874 20693 net.cpp:395] scale4b34_branch2a -> res4b34_branch2a (in-place)
I0208 19:21:40.671941 20693 layer_factory.hpp:77] Creating layer scale4b34_branch2a
I0208 19:21:40.672098 20693 net.cpp:150] Setting up scale4b34_branch2a
I0208 19:21:40.672109 20693 net.cpp:157] Top shape: 1 256 16 16 (65536)
I0208 19:21:40.672113 20693 net.cpp:165] Memory required for data: 631504896
I0208 19:21:40.672122 20693 layer_factory.hpp:77] Creating layer res4b34_branch2a_relu
I0208 19:21:40.672127 20693 net.cpp:100] Creating Layer res4b34_branch2a_relu
I0208 19:21:40.672132 20693 net.cpp:434] res4b34_branch2a_relu <- res4b34_branch2a
I0208 19:21:40.672137 20693 net.cpp:395] res4b34_branch2a_relu -> res4b34_branch2a (in-place)
I0208 19:21:40.672389 20693 net.cpp:150] Setting up res4b34_branch2a_relu
I0208 19:21:40.672400 20693 net.cpp:157] Top shape: 1 256 16 16 (65536)
I0208 19:21:40.672405 20693 net.cpp:165] Memory required for data: 631767040
I0208 19:21:40.672408 20693 layer_factory.hpp:77] Creating layer res4b34_branch2b
I0208 19:21:40.672417 20693 net.cpp:100] Creating Layer res4b34_branch2b
I0208 19:21:40.672422 20693 net.cpp:434] res4b34_branch2b <- res4b34_branch2a
I0208 19:21:40.672428 20693 net.cpp:408] res4b34_branch2b -> res4b34_branch2b
I0208 19:21:40.674919 20693 net.cpp:150] Setting up res4b34_branch2b
I0208 19:21:40.674944 20693 net.cpp:157] Top shape: 1 256 16 16 (65536)
I0208 19:21:40.674948 20693 net.cpp:165] Memory required for data: 632029184
I0208 19:21:40.674955 20693 layer_factory.hpp:77] Creating layer bn4b34_branch2b
I0208 19:21:40.674963 20693 net.cpp:100] Creating Layer bn4b34_branch2b
I0208 19:21:40.674980 20693 net.cpp:434] bn4b34_branch2b <- res4b34_branch2b
I0208 19:21:40.674985 20693 net.cpp:395] bn4b34_branch2b -> res4b34_branch2b (in-place)
I0208 19:21:40.675261 20693 net.cpp:150] Setting up bn4b34_branch2b
I0208 19:21:40.675271 20693 net.cpp:157] Top shape: 1 256 16 16 (65536)
I0208 19:21:40.675276 20693 net.cpp:165] Memory required for data: 632291328
I0208 19:21:40.675283 20693 layer_factory.hpp:77] Creating layer scale4b34_branch2b
I0208 19:21:40.675292 20693 net.cpp:100] Creating Layer scale4b34_branch2b
I0208 19:21:40.675295 20693 net.cpp:434] scale4b34_branch2b <- res4b34_branch2b
I0208 19:21:40.675302 20693 net.cpp:395] scale4b34_branch2b -> res4b34_branch2b (in-place)
I0208 19:21:40.675362 20693 layer_factory.hpp:77] Creating layer scale4b34_branch2b
I0208 19:21:40.675508 20693 net.cpp:150] Setting up scale4b34_branch2b
I0208 19:21:40.675518 20693 net.cpp:157] Top shape: 1 256 16 16 (65536)
I0208 19:21:40.675523 20693 net.cpp:165] Memory required for data: 632553472
I0208 19:21:40.675529 20693 layer_factory.hpp:77] Creating layer res4b34_branch2b_relu
I0208 19:21:40.675535 20693 net.cpp:100] Creating Layer res4b34_branch2b_relu
I0208 19:21:40.675540 20693 net.cpp:434] res4b34_branch2b_relu <- res4b34_branch2b
I0208 19:21:40.675545 20693 net.cpp:395] res4b34_branch2b_relu -> res4b34_branch2b (in-place)
I0208 19:21:40.676010 20693 net.cpp:150] Setting up res4b34_branch2b_relu
I0208 19:21:40.676038 20693 net.cpp:157] Top shape: 1 256 16 16 (65536)
I0208 19:21:40.676041 20693 net.cpp:165] Memory required for data: 632815616
I0208 19:21:40.676046 20693 layer_factory.hpp:77] Creating layer res4b34_branch2c
I0208 19:21:40.676054 20693 net.cpp:100] Creating Layer res4b34_branch2c
I0208 19:21:40.676059 20693 net.cpp:434] res4b34_branch2c <- res4b34_branch2b
I0208 19:21:40.676065 20693 net.cpp:408] res4b34_branch2c -> res4b34_branch2c
I0208 19:21:40.677932 20693 net.cpp:150] Setting up res4b34_branch2c
I0208 19:21:40.677960 20693 net.cpp:157] Top shape: 1 1024 16 16 (262144)
I0208 19:21:40.677965 20693 net.cpp:165] Memory required for data: 633864192
I0208 19:21:40.677971 20693 layer_factory.hpp:77] Creating layer bn4b34_branch2c
I0208 19:21:40.677980 20693 net.cpp:100] Creating Layer bn4b34_branch2c
I0208 19:21:40.677985 20693 net.cpp:434] bn4b34_branch2c <- res4b34_branch2c
I0208 19:21:40.677990 20693 net.cpp:395] bn4b34_branch2c -> res4b34_branch2c (in-place)
I0208 19:21:40.678308 20693 net.cpp:150] Setting up bn4b34_branch2c
I0208 19:21:40.678318 20693 net.cpp:157] Top shape: 1 1024 16 16 (262144)
I0208 19:21:40.678323 20693 net.cpp:165] Memory required for data: 634912768
I0208 19:21:40.678330 20693 layer_factory.hpp:77] Creating layer scale4b34_branch2c
I0208 19:21:40.678338 20693 net.cpp:100] Creating Layer scale4b34_branch2c
I0208 19:21:40.678341 20693 net.cpp:434] scale4b34_branch2c <- res4b34_branch2c
I0208 19:21:40.678347 20693 net.cpp:395] scale4b34_branch2c -> res4b34_branch2c (in-place)
I0208 19:21:40.678419 20693 layer_factory.hpp:77] Creating layer scale4b34_branch2c
I0208 19:21:40.678603 20693 net.cpp:150] Setting up scale4b34_branch2c
I0208 19:21:40.678614 20693 net.cpp:157] Top shape: 1 1024 16 16 (262144)
I0208 19:21:40.678618 20693 net.cpp:165] Memory required for data: 635961344
I0208 19:21:40.678625 20693 layer_factory.hpp:77] Creating layer res4b34
I0208 19:21:40.678632 20693 net.cpp:100] Creating Layer res4b34
I0208 19:21:40.678637 20693 net.cpp:434] res4b34 <- res4b33_res4b33_relu_0_split_1
I0208 19:21:40.678642 20693 net.cpp:434] res4b34 <- res4b34_branch2c
I0208 19:21:40.678648 20693 net.cpp:408] res4b34 -> res4b34
I0208 19:21:40.678678 20693 net.cpp:150] Setting up res4b34
I0208 19:21:40.678683 20693 net.cpp:157] Top shape: 1 1024 16 16 (262144)
I0208 19:21:40.678688 20693 net.cpp:165] Memory required for data: 637009920
I0208 19:21:40.678691 20693 layer_factory.hpp:77] Creating layer res4b34_relu
I0208 19:21:40.678699 20693 net.cpp:100] Creating Layer res4b34_relu
I0208 19:21:40.678704 20693 net.cpp:434] res4b34_relu <- res4b34
I0208 19:21:40.678709 20693 net.cpp:395] res4b34_relu -> res4b34 (in-place)
I0208 19:21:40.679177 20693 net.cpp:150] Setting up res4b34_relu
I0208 19:21:40.679190 20693 net.cpp:157] Top shape: 1 1024 16 16 (262144)
I0208 19:21:40.679206 20693 net.cpp:165] Memory required for data: 638058496
I0208 19:21:40.679210 20693 layer_factory.hpp:77] Creating layer res4b34_res4b34_relu_0_split
I0208 19:21:40.679229 20693 net.cpp:100] Creating Layer res4b34_res4b34_relu_0_split
I0208 19:21:40.679234 20693 net.cpp:434] res4b34_res4b34_relu_0_split <- res4b34
I0208 19:21:40.679239 20693 net.cpp:408] res4b34_res4b34_relu_0_split -> res4b34_res4b34_relu_0_split_0
I0208 19:21:40.679260 20693 net.cpp:408] res4b34_res4b34_relu_0_split -> res4b34_res4b34_relu_0_split_1
I0208 19:21:40.679330 20693 net.cpp:150] Setting up res4b34_res4b34_relu_0_split
I0208 19:21:40.679352 20693 net.cpp:157] Top shape: 1 1024 16 16 (262144)
I0208 19:21:40.679357 20693 net.cpp:157] Top shape: 1 1024 16 16 (262144)
I0208 19:21:40.679360 20693 net.cpp:165] Memory required for data: 640155648
I0208 19:21:40.679364 20693 layer_factory.hpp:77] Creating layer res4b35_branch2a
I0208 19:21:40.679373 20693 net.cpp:100] Creating Layer res4b35_branch2a
I0208 19:21:40.679378 20693 net.cpp:434] res4b35_branch2a <- res4b34_res4b34_relu_0_split_0
I0208 19:21:40.679384 20693 net.cpp:408] res4b35_branch2a -> res4b35_branch2a
I0208 19:21:40.681885 20693 net.cpp:150] Setting up res4b35_branch2a
I0208 19:21:40.681913 20693 net.cpp:157] Top shape: 1 256 16 16 (65536)
I0208 19:21:40.681918 20693 net.cpp:165] Memory required for data: 640417792
I0208 19:21:40.681924 20693 layer_factory.hpp:77] Creating layer bn4b35_branch2a
I0208 19:21:40.681932 20693 net.cpp:100] Creating Layer bn4b35_branch2a
I0208 19:21:40.681949 20693 net.cpp:434] bn4b35_branch2a <- res4b35_branch2a
I0208 19:21:40.681955 20693 net.cpp:395] bn4b35_branch2a -> res4b35_branch2a (in-place)
I0208 19:21:40.682168 20693 net.cpp:150] Setting up bn4b35_branch2a
I0208 19:21:40.682178 20693 net.cpp:157] Top shape: 1 256 16 16 (65536)
I0208 19:21:40.682183 20693 net.cpp:165] Memory required for data: 640679936
I0208 19:21:40.682191 20693 layer_factory.hpp:77] Creating layer scale4b35_branch2a
I0208 19:21:40.682200 20693 net.cpp:100] Creating Layer scale4b35_branch2a
I0208 19:21:40.682205 20693 net.cpp:434] scale4b35_branch2a <- res4b35_branch2a
I0208 19:21:40.682210 20693 net.cpp:395] scale4b35_branch2a -> res4b35_branch2a (in-place)
I0208 19:21:40.682253 20693 layer_factory.hpp:77] Creating layer scale4b35_branch2a
I0208 19:21:40.682364 20693 net.cpp:150] Setting up scale4b35_branch2a
I0208 19:21:40.682386 20693 net.cpp:157] Top shape: 1 256 16 16 (65536)
I0208 19:21:40.682390 20693 net.cpp:165] Memory required for data: 640942080
I0208 19:21:40.682397 20693 layer_factory.hpp:77] Creating layer res4b35_branch2a_relu
I0208 19:21:40.682402 20693 net.cpp:100] Creating Layer res4b35_branch2a_relu
I0208 19:21:40.682406 20693 net.cpp:434] res4b35_branch2a_relu <- res4b35_branch2a
I0208 19:21:40.682413 20693 net.cpp:395] res4b35_branch2a_relu -> res4b35_branch2a (in-place)
I0208 19:21:40.682654 20693 net.cpp:150] Setting up res4b35_branch2a_relu
I0208 19:21:40.682667 20693 net.cpp:157] Top shape: 1 256 16 16 (65536)
I0208 19:21:40.682670 20693 net.cpp:165] Memory required for data: 641204224
I0208 19:21:40.682675 20693 layer_factory.hpp:77] Creating layer res4b35_branch2b
I0208 19:21:40.682684 20693 net.cpp:100] Creating Layer res4b35_branch2b
I0208 19:21:40.682689 20693 net.cpp:434] res4b35_branch2b <- res4b35_branch2a
I0208 19:21:40.682696 20693 net.cpp:408] res4b35_branch2b -> res4b35_branch2b
I0208 19:21:40.685122 20693 net.cpp:150] Setting up res4b35_branch2b
I0208 19:21:40.685148 20693 net.cpp:157] Top shape: 1 256 16 16 (65536)
I0208 19:21:40.685153 20693 net.cpp:165] Memory required for data: 641466368
I0208 19:21:40.685158 20693 layer_factory.hpp:77] Creating layer bn4b35_branch2b
I0208 19:21:40.685166 20693 net.cpp:100] Creating Layer bn4b35_branch2b
I0208 19:21:40.685171 20693 net.cpp:434] bn4b35_branch2b <- res4b35_branch2b
I0208 19:21:40.685178 20693 net.cpp:395] bn4b35_branch2b -> res4b35_branch2b (in-place)
I0208 19:21:40.685394 20693 net.cpp:150] Setting up bn4b35_branch2b
I0208 19:21:40.685405 20693 net.cpp:157] Top shape: 1 256 16 16 (65536)
I0208 19:21:40.685408 20693 net.cpp:165] Memory required for data: 641728512
I0208 19:21:40.685416 20693 layer_factory.hpp:77] Creating layer scale4b35_branch2b
I0208 19:21:40.685425 20693 net.cpp:100] Creating Layer scale4b35_branch2b
I0208 19:21:40.685428 20693 net.cpp:434] scale4b35_branch2b <- res4b35_branch2b
I0208 19:21:40.685434 20693 net.cpp:395] scale4b35_branch2b -> res4b35_branch2b (in-place)
I0208 19:21:40.685475 20693 layer_factory.hpp:77] Creating layer scale4b35_branch2b
I0208 19:21:40.685583 20693 net.cpp:150] Setting up scale4b35_branch2b
I0208 19:21:40.685593 20693 net.cpp:157] Top shape: 1 256 16 16 (65536)
I0208 19:21:40.685597 20693 net.cpp:165] Memory required for data: 641990656
I0208 19:21:40.685605 20693 layer_factory.hpp:77] Creating layer res4b35_branch2b_relu
I0208 19:21:40.685611 20693 net.cpp:100] Creating Layer res4b35_branch2b_relu
I0208 19:21:40.685614 20693 net.cpp:434] res4b35_branch2b_relu <- res4b35_branch2b
I0208 19:21:40.685619 20693 net.cpp:395] res4b35_branch2b_relu -> res4b35_branch2b (in-place)
I0208 19:21:40.686089 20693 net.cpp:150] Setting up res4b35_branch2b_relu
I0208 19:21:40.686105 20693 net.cpp:157] Top shape: 1 256 16 16 (65536)
I0208 19:21:40.686120 20693 net.cpp:165] Memory required for data: 642252800
I0208 19:21:40.686125 20693 layer_factory.hpp:77] Creating layer res4b35_branch2c
I0208 19:21:40.686133 20693 net.cpp:100] Creating Layer res4b35_branch2c
I0208 19:21:40.686138 20693 net.cpp:434] res4b35_branch2c <- res4b35_branch2b
I0208 19:21:40.686144 20693 net.cpp:408] res4b35_branch2c -> res4b35_branch2c
I0208 19:21:40.687937 20693 net.cpp:150] Setting up res4b35_branch2c
I0208 19:21:40.687963 20693 net.cpp:157] Top shape: 1 1024 16 16 (262144)
I0208 19:21:40.687968 20693 net.cpp:165] Memory required for data: 643301376
I0208 19:21:40.687974 20693 layer_factory.hpp:77] Creating layer bn4b35_branch2c
I0208 19:21:40.687983 20693 net.cpp:100] Creating Layer bn4b35_branch2c
I0208 19:21:40.687988 20693 net.cpp:434] bn4b35_branch2c <- res4b35_branch2c
I0208 19:21:40.687996 20693 net.cpp:395] bn4b35_branch2c -> res4b35_branch2c (in-place)
I0208 19:21:40.688259 20693 net.cpp:150] Setting up bn4b35_branch2c
I0208 19:21:40.688271 20693 net.cpp:157] Top shape: 1 1024 16 16 (262144)
I0208 19:21:40.688274 20693 net.cpp:165] Memory required for data: 644349952
I0208 19:21:40.688282 20693 layer_factory.hpp:77] Creating layer scale4b35_branch2c
I0208 19:21:40.688288 20693 net.cpp:100] Creating Layer scale4b35_branch2c
I0208 19:21:40.688293 20693 net.cpp:434] scale4b35_branch2c <- res4b35_branch2c
I0208 19:21:40.688300 20693 net.cpp:395] scale4b35_branch2c -> res4b35_branch2c (in-place)
I0208 19:21:40.688370 20693 layer_factory.hpp:77] Creating layer scale4b35_branch2c
I0208 19:21:40.688524 20693 net.cpp:150] Setting up scale4b35_branch2c
I0208 19:21:40.688536 20693 net.cpp:157] Top shape: 1 1024 16 16 (262144)
I0208 19:21:40.688540 20693 net.cpp:165] Memory required for data: 645398528
I0208 19:21:40.688547 20693 layer_factory.hpp:77] Creating layer res4b35
I0208 19:21:40.688554 20693 net.cpp:100] Creating Layer res4b35
I0208 19:21:40.688558 20693 net.cpp:434] res4b35 <- res4b34_res4b34_relu_0_split_1
I0208 19:21:40.688563 20693 net.cpp:434] res4b35 <- res4b35_branch2c
I0208 19:21:40.688568 20693 net.cpp:408] res4b35 -> res4b35
I0208 19:21:40.688588 20693 net.cpp:150] Setting up res4b35
I0208 19:21:40.688596 20693 net.cpp:157] Top shape: 1 1024 16 16 (262144)
I0208 19:21:40.688601 20693 net.cpp:165] Memory required for data: 646447104
I0208 19:21:40.688604 20693 layer_factory.hpp:77] Creating layer res4b35_relu
I0208 19:21:40.688609 20693 net.cpp:100] Creating Layer res4b35_relu
I0208 19:21:40.688613 20693 net.cpp:434] res4b35_relu <- res4b35
I0208 19:21:40.688619 20693 net.cpp:395] res4b35_relu -> res4b35 (in-place)
I0208 19:21:40.689081 20693 net.cpp:150] Setting up res4b35_relu
I0208 19:21:40.689108 20693 net.cpp:157] Top shape: 1 1024 16 16 (262144)
I0208 19:21:40.689113 20693 net.cpp:165] Memory required for data: 647495680
I0208 19:21:40.689128 20693 layer_factory.hpp:77] Creating layer res4b35_res4b35_relu_0_split
I0208 19:21:40.689136 20693 net.cpp:100] Creating Layer res4b35_res4b35_relu_0_split
I0208 19:21:40.689152 20693 net.cpp:434] res4b35_res4b35_relu_0_split <- res4b35
I0208 19:21:40.689170 20693 net.cpp:408] res4b35_res4b35_relu_0_split -> res4b35_res4b35_relu_0_split_0
I0208 19:21:40.689178 20693 net.cpp:408] res4b35_res4b35_relu_0_split -> res4b35_res4b35_relu_0_split_1
I0208 19:21:40.689234 20693 net.cpp:150] Setting up res4b35_res4b35_relu_0_split
I0208 19:21:40.689245 20693 net.cpp:157] Top shape: 1 1024 16 16 (262144)
I0208 19:21:40.689250 20693 net.cpp:157] Top shape: 1 1024 16 16 (262144)
I0208 19:21:40.689254 20693 net.cpp:165] Memory required for data: 649592832
I0208 19:21:40.689257 20693 layer_factory.hpp:77] Creating layer res5a_branch1
I0208 19:21:40.689265 20693 net.cpp:100] Creating Layer res5a_branch1
I0208 19:21:40.689270 20693 net.cpp:434] res5a_branch1 <- res4b35_res4b35_relu_0_split_0
I0208 19:21:40.689277 20693 net.cpp:408] res5a_branch1 -> res5a_branch1
I0208 19:21:40.694399 20693 net.cpp:150] Setting up res5a_branch1
I0208 19:21:40.694428 20693 net.cpp:157] Top shape: 1 2048 8 8 (131072)
I0208 19:21:40.694432 20693 net.cpp:165] Memory required for data: 650117120
I0208 19:21:40.694439 20693 layer_factory.hpp:77] Creating layer bn5a_branch1
I0208 19:21:40.694448 20693 net.cpp:100] Creating Layer bn5a_branch1
I0208 19:21:40.694453 20693 net.cpp:434] bn5a_branch1 <- res5a_branch1
I0208 19:21:40.694458 20693 net.cpp:395] bn5a_branch1 -> res5a_branch1 (in-place)
I0208 19:21:40.694771 20693 net.cpp:150] Setting up bn5a_branch1
I0208 19:21:40.694782 20693 net.cpp:157] Top shape: 1 2048 8 8 (131072)
I0208 19:21:40.694787 20693 net.cpp:165] Memory required for data: 650641408
I0208 19:21:40.694795 20693 layer_factory.hpp:77] Creating layer scale5a_branch1
I0208 19:21:40.694803 20693 net.cpp:100] Creating Layer scale5a_branch1
I0208 19:21:40.694808 20693 net.cpp:434] scale5a_branch1 <- res5a_branch1
I0208 19:21:40.694813 20693 net.cpp:395] scale5a_branch1 -> res5a_branch1 (in-place)
I0208 19:21:40.694891 20693 layer_factory.hpp:77] Creating layer scale5a_branch1
I0208 19:21:40.695067 20693 net.cpp:150] Setting up scale5a_branch1
I0208 19:21:40.695080 20693 net.cpp:157] Top shape: 1 2048 8 8 (131072)
I0208 19:21:40.695083 20693 net.cpp:165] Memory required for data: 651165696
I0208 19:21:40.695089 20693 layer_factory.hpp:77] Creating layer res5a_branch2a
I0208 19:21:40.695099 20693 net.cpp:100] Creating Layer res5a_branch2a
I0208 19:21:40.695104 20693 net.cpp:434] res5a_branch2a <- res4b35_res4b35_relu_0_split_1
I0208 19:21:40.695111 20693 net.cpp:408] res5a_branch2a -> res5a_branch2a
I0208 19:21:40.697582 20693 net.cpp:150] Setting up res5a_branch2a
I0208 19:21:40.697598 20693 net.cpp:157] Top shape: 1 512 8 8 (32768)
I0208 19:21:40.697614 20693 net.cpp:165] Memory required for data: 651296768
I0208 19:21:40.697621 20693 layer_factory.hpp:77] Creating layer bn5a_branch2a
I0208 19:21:40.697629 20693 net.cpp:100] Creating Layer bn5a_branch2a
I0208 19:21:40.697634 20693 net.cpp:434] bn5a_branch2a <- res5a_branch2a
I0208 19:21:40.697644 20693 net.cpp:395] bn5a_branch2a -> res5a_branch2a (in-place)
I0208 19:21:40.697942 20693 net.cpp:150] Setting up bn5a_branch2a
I0208 19:21:40.697953 20693 net.cpp:157] Top shape: 1 512 8 8 (32768)
I0208 19:21:40.697957 20693 net.cpp:165] Memory required for data: 651427840
I0208 19:21:40.697966 20693 layer_factory.hpp:77] Creating layer scale5a_branch2a
I0208 19:21:40.697975 20693 net.cpp:100] Creating Layer scale5a_branch2a
I0208 19:21:40.697980 20693 net.cpp:434] scale5a_branch2a <- res5a_branch2a
I0208 19:21:40.697986 20693 net.cpp:395] scale5a_branch2a -> res5a_branch2a (in-place)
I0208 19:21:40.698055 20693 layer_factory.hpp:77] Creating layer scale5a_branch2a
I0208 19:21:40.698225 20693 net.cpp:150] Setting up scale5a_branch2a
I0208 19:21:40.698235 20693 net.cpp:157] Top shape: 1 512 8 8 (32768)
I0208 19:21:40.698240 20693 net.cpp:165] Memory required for data: 651558912
I0208 19:21:40.698246 20693 layer_factory.hpp:77] Creating layer res5a_branch2a_relu
I0208 19:21:40.698252 20693 net.cpp:100] Creating Layer res5a_branch2a_relu
I0208 19:21:40.698257 20693 net.cpp:434] res5a_branch2a_relu <- res5a_branch2a
I0208 19:21:40.698263 20693 net.cpp:395] res5a_branch2a_relu -> res5a_branch2a (in-place)
I0208 19:21:40.698518 20693 net.cpp:150] Setting up res5a_branch2a_relu
I0208 19:21:40.698532 20693 net.cpp:157] Top shape: 1 512 8 8 (32768)
I0208 19:21:40.698536 20693 net.cpp:165] Memory required for data: 651689984
I0208 19:21:40.698541 20693 layer_factory.hpp:77] Creating layer res5a_branch2b
I0208 19:21:40.698549 20693 net.cpp:100] Creating Layer res5a_branch2b
I0208 19:21:40.698554 20693 net.cpp:434] res5a_branch2b <- res5a_branch2a
I0208 19:21:40.698562 20693 net.cpp:408] res5a_branch2b -> res5a_branch2b
I0208 19:21:40.703974 20693 net.cpp:150] Setting up res5a_branch2b
I0208 19:21:40.704005 20693 net.cpp:157] Top shape: 1 512 8 8 (32768)
I0208 19:21:40.704010 20693 net.cpp:165] Memory required for data: 651821056
I0208 19:21:40.704016 20693 layer_factory.hpp:77] Creating layer bn5a_branch2b
I0208 19:21:40.704025 20693 net.cpp:100] Creating Layer bn5a_branch2b
I0208 19:21:40.704031 20693 net.cpp:434] bn5a_branch2b <- res5a_branch2b
I0208 19:21:40.704038 20693 net.cpp:395] bn5a_branch2b -> res5a_branch2b (in-place)
I0208 19:21:40.704336 20693 net.cpp:150] Setting up bn5a_branch2b
I0208 19:21:40.704349 20693 net.cpp:157] Top shape: 1 512 8 8 (32768)
I0208 19:21:40.704354 20693 net.cpp:165] Memory required for data: 651952128
I0208 19:21:40.704362 20693 layer_factory.hpp:77] Creating layer scale5a_branch2b
I0208 19:21:40.704370 20693 net.cpp:100] Creating Layer scale5a_branch2b
I0208 19:21:40.704375 20693 net.cpp:434] scale5a_branch2b <- res5a_branch2b
I0208 19:21:40.704381 20693 net.cpp:395] scale5a_branch2b -> res5a_branch2b (in-place)
I0208 19:21:40.704452 20693 layer_factory.hpp:77] Creating layer scale5a_branch2b
I0208 19:21:40.704622 20693 net.cpp:150] Setting up scale5a_branch2b
I0208 19:21:40.704632 20693 net.cpp:157] Top shape: 1 512 8 8 (32768)
I0208 19:21:40.704637 20693 net.cpp:165] Memory required for data: 652083200
I0208 19:21:40.704644 20693 layer_factory.hpp:77] Creating layer res5a_branch2b_relu
I0208 19:21:40.704650 20693 net.cpp:100] Creating Layer res5a_branch2b_relu
I0208 19:21:40.704654 20693 net.cpp:434] res5a_branch2b_relu <- res5a_branch2b
I0208 19:21:40.704661 20693 net.cpp:395] res5a_branch2b_relu -> res5a_branch2b (in-place)
I0208 19:21:40.704936 20693 net.cpp:150] Setting up res5a_branch2b_relu
I0208 19:21:40.704952 20693 net.cpp:157] Top shape: 1 512 8 8 (32768)
I0208 19:21:40.704957 20693 net.cpp:165] Memory required for data: 652214272
I0208 19:21:40.704960 20693 layer_factory.hpp:77] Creating layer res5a_branch2c
I0208 19:21:40.704969 20693 net.cpp:100] Creating Layer res5a_branch2c
I0208 19:21:40.704974 20693 net.cpp:434] res5a_branch2c <- res5a_branch2b
I0208 19:21:40.704982 20693 net.cpp:408] res5a_branch2c -> res5a_branch2c
I0208 19:21:40.708353 20693 net.cpp:150] Setting up res5a_branch2c
I0208 19:21:40.708380 20693 net.cpp:157] Top shape: 1 2048 8 8 (131072)
I0208 19:21:40.708384 20693 net.cpp:165] Memory required for data: 652738560
I0208 19:21:40.708391 20693 layer_factory.hpp:77] Creating layer bn5a_branch2c
I0208 19:21:40.708400 20693 net.cpp:100] Creating Layer bn5a_branch2c
I0208 19:21:40.708405 20693 net.cpp:434] bn5a_branch2c <- res5a_branch2c
I0208 19:21:40.708410 20693 net.cpp:395] bn5a_branch2c -> res5a_branch2c (in-place)
I0208 19:21:40.708716 20693 net.cpp:150] Setting up bn5a_branch2c
I0208 19:21:40.708729 20693 net.cpp:157] Top shape: 1 2048 8 8 (131072)
I0208 19:21:40.708732 20693 net.cpp:165] Memory required for data: 653262848
I0208 19:21:40.708753 20693 layer_factory.hpp:77] Creating layer scale5a_branch2c
I0208 19:21:40.708761 20693 net.cpp:100] Creating Layer scale5a_branch2c
I0208 19:21:40.708766 20693 net.cpp:434] scale5a_branch2c <- res5a_branch2c
I0208 19:21:40.708772 20693 net.cpp:395] scale5a_branch2c -> res5a_branch2c (in-place)
I0208 19:21:40.708848 20693 layer_factory.hpp:77] Creating layer scale5a_branch2c
I0208 19:21:40.709019 20693 net.cpp:150] Setting up scale5a_branch2c
I0208 19:21:40.709031 20693 net.cpp:157] Top shape: 1 2048 8 8 (131072)
I0208 19:21:40.709035 20693 net.cpp:165] Memory required for data: 653787136
I0208 19:21:40.709043 20693 layer_factory.hpp:77] Creating layer res5a
I0208 19:21:40.709050 20693 net.cpp:100] Creating Layer res5a
I0208 19:21:40.709055 20693 net.cpp:434] res5a <- res5a_branch1
I0208 19:21:40.709061 20693 net.cpp:434] res5a <- res5a_branch2c
I0208 19:21:40.709067 20693 net.cpp:408] res5a -> res5a
I0208 19:21:40.709096 20693 net.cpp:150] Setting up res5a
I0208 19:21:40.709103 20693 net.cpp:157] Top shape: 1 2048 8 8 (131072)
I0208 19:21:40.709107 20693 net.cpp:165] Memory required for data: 654311424
I0208 19:21:40.709111 20693 layer_factory.hpp:77] Creating layer res5a_relu
I0208 19:21:40.709120 20693 net.cpp:100] Creating Layer res5a_relu
I0208 19:21:40.709123 20693 net.cpp:434] res5a_relu <- res5a
I0208 19:21:40.709128 20693 net.cpp:395] res5a_relu -> res5a (in-place)
I0208 19:21:40.709612 20693 net.cpp:150] Setting up res5a_relu
I0208 19:21:40.709640 20693 net.cpp:157] Top shape: 1 2048 8 8 (131072)
I0208 19:21:40.709656 20693 net.cpp:165] Memory required for data: 654835712
I0208 19:21:40.709661 20693 layer_factory.hpp:77] Creating layer res5a_res5a_relu_0_split
I0208 19:21:40.709668 20693 net.cpp:100] Creating Layer res5a_res5a_relu_0_split
I0208 19:21:40.709672 20693 net.cpp:434] res5a_res5a_relu_0_split <- res5a
I0208 19:21:40.709691 20693 net.cpp:408] res5a_res5a_relu_0_split -> res5a_res5a_relu_0_split_0
I0208 19:21:40.709698 20693 net.cpp:408] res5a_res5a_relu_0_split -> res5a_res5a_relu_0_split_1
I0208 19:21:40.709748 20693 net.cpp:150] Setting up res5a_res5a_relu_0_split
I0208 19:21:40.709769 20693 net.cpp:157] Top shape: 1 2048 8 8 (131072)
I0208 19:21:40.709774 20693 net.cpp:157] Top shape: 1 2048 8 8 (131072)
I0208 19:21:40.709777 20693 net.cpp:165] Memory required for data: 655884288
I0208 19:21:40.709781 20693 layer_factory.hpp:77] Creating layer res5b_branch2a
I0208 19:21:40.709790 20693 net.cpp:100] Creating Layer res5b_branch2a
I0208 19:21:40.709795 20693 net.cpp:434] res5b_branch2a <- res5a_res5a_relu_0_split_0
I0208 19:21:40.709801 20693 net.cpp:408] res5b_branch2a -> res5b_branch2a
I0208 19:21:40.713181 20693 net.cpp:150] Setting up res5b_branch2a
I0208 19:21:40.713210 20693 net.cpp:157] Top shape: 1 512 8 8 (32768)
I0208 19:21:40.713215 20693 net.cpp:165] Memory required for data: 656015360
I0208 19:21:40.713222 20693 layer_factory.hpp:77] Creating layer bn5b_branch2a
I0208 19:21:40.713230 20693 net.cpp:100] Creating Layer bn5b_branch2a
I0208 19:21:40.713246 20693 net.cpp:434] bn5b_branch2a <- res5b_branch2a
I0208 19:21:40.713253 20693 net.cpp:395] bn5b_branch2a -> res5b_branch2a (in-place)
I0208 19:21:40.713546 20693 net.cpp:150] Setting up bn5b_branch2a
I0208 19:21:40.713557 20693 net.cpp:157] Top shape: 1 512 8 8 (32768)
I0208 19:21:40.713562 20693 net.cpp:165] Memory required for data: 656146432
I0208 19:21:40.713570 20693 layer_factory.hpp:77] Creating layer scale5b_branch2a
I0208 19:21:40.713579 20693 net.cpp:100] Creating Layer scale5b_branch2a
I0208 19:21:40.713584 20693 net.cpp:434] scale5b_branch2a <- res5b_branch2a
I0208 19:21:40.713589 20693 net.cpp:395] scale5b_branch2a -> res5b_branch2a (in-place)
I0208 19:21:40.713665 20693 layer_factory.hpp:77] Creating layer scale5b_branch2a
I0208 19:21:40.713843 20693 net.cpp:150] Setting up scale5b_branch2a
I0208 19:21:40.713855 20693 net.cpp:157] Top shape: 1 512 8 8 (32768)
I0208 19:21:40.713860 20693 net.cpp:165] Memory required for data: 656277504
I0208 19:21:40.713866 20693 layer_factory.hpp:77] Creating layer res5b_branch2a_relu
I0208 19:21:40.713872 20693 net.cpp:100] Creating Layer res5b_branch2a_relu
I0208 19:21:40.713877 20693 net.cpp:434] res5b_branch2a_relu <- res5b_branch2a
I0208 19:21:40.713884 20693 net.cpp:395] res5b_branch2a_relu -> res5b_branch2a (in-place)
I0208 19:21:40.714141 20693 net.cpp:150] Setting up res5b_branch2a_relu
I0208 19:21:40.714154 20693 net.cpp:157] Top shape: 1 512 8 8 (32768)
I0208 19:21:40.714159 20693 net.cpp:165] Memory required for data: 656408576
I0208 19:21:40.714162 20693 layer_factory.hpp:77] Creating layer res5b_branch2b
I0208 19:21:40.714172 20693 net.cpp:100] Creating Layer res5b_branch2b
I0208 19:21:40.714177 20693 net.cpp:434] res5b_branch2b <- res5b_branch2a
I0208 19:21:40.714184 20693 net.cpp:408] res5b_branch2b -> res5b_branch2b
I0208 19:21:40.720345 20693 net.cpp:150] Setting up res5b_branch2b
I0208 19:21:40.720368 20693 net.cpp:157] Top shape: 1 512 8 8 (32768)
I0208 19:21:40.720384 20693 net.cpp:165] Memory required for data: 656539648
I0208 19:21:40.720392 20693 layer_factory.hpp:77] Creating layer bn5b_branch2b
I0208 19:21:40.720403 20693 net.cpp:100] Creating Layer bn5b_branch2b
I0208 19:21:40.720409 20693 net.cpp:434] bn5b_branch2b <- res5b_branch2b
I0208 19:21:40.720414 20693 net.cpp:395] bn5b_branch2b -> res5b_branch2b (in-place)
I0208 19:21:40.720727 20693 net.cpp:150] Setting up bn5b_branch2b
I0208 19:21:40.720751 20693 net.cpp:157] Top shape: 1 512 8 8 (32768)
I0208 19:21:40.720757 20693 net.cpp:165] Memory required for data: 656670720
I0208 19:21:40.720768 20693 layer_factory.hpp:77] Creating layer scale5b_branch2b
I0208 19:21:40.720778 20693 net.cpp:100] Creating Layer scale5b_branch2b
I0208 19:21:40.720783 20693 net.cpp:434] scale5b_branch2b <- res5b_branch2b
I0208 19:21:40.720789 20693 net.cpp:395] scale5b_branch2b -> res5b_branch2b (in-place)
I0208 19:21:40.720865 20693 layer_factory.hpp:77] Creating layer scale5b_branch2b
I0208 19:21:40.721038 20693 net.cpp:150] Setting up scale5b_branch2b
I0208 19:21:40.721050 20693 net.cpp:157] Top shape: 1 512 8 8 (32768)
I0208 19:21:40.721055 20693 net.cpp:165] Memory required for data: 656801792
I0208 19:21:40.721061 20693 layer_factory.hpp:77] Creating layer res5b_branch2b_relu
I0208 19:21:40.721070 20693 net.cpp:100] Creating Layer res5b_branch2b_relu
I0208 19:21:40.721074 20693 net.cpp:434] res5b_branch2b_relu <- res5b_branch2b
I0208 19:21:40.721079 20693 net.cpp:395] res5b_branch2b_relu -> res5b_branch2b (in-place)
I0208 19:21:40.721339 20693 net.cpp:150] Setting up res5b_branch2b_relu
I0208 19:21:40.721351 20693 net.cpp:157] Top shape: 1 512 8 8 (32768)
I0208 19:21:40.721356 20693 net.cpp:165] Memory required for data: 656932864
I0208 19:21:40.721360 20693 layer_factory.hpp:77] Creating layer res5b_branch2c
I0208 19:21:40.721371 20693 net.cpp:100] Creating Layer res5b_branch2c
I0208 19:21:40.721376 20693 net.cpp:434] res5b_branch2c <- res5b_branch2b
I0208 19:21:40.721382 20693 net.cpp:408] res5b_branch2c -> res5b_branch2c
I0208 19:21:40.724865 20693 net.cpp:150] Setting up res5b_branch2c
I0208 19:21:40.724894 20693 net.cpp:157] Top shape: 1 2048 8 8 (131072)
I0208 19:21:40.724898 20693 net.cpp:165] Memory required for data: 657457152
I0208 19:21:40.724905 20693 layer_factory.hpp:77] Creating layer bn5b_branch2c
I0208 19:21:40.724911 20693 net.cpp:100] Creating Layer bn5b_branch2c
I0208 19:21:40.724916 20693 net.cpp:434] bn5b_branch2c <- res5b_branch2c
I0208 19:21:40.724923 20693 net.cpp:395] bn5b_branch2c -> res5b_branch2c (in-place)
I0208 19:21:40.725245 20693 net.cpp:150] Setting up bn5b_branch2c
I0208 19:21:40.725257 20693 net.cpp:157] Top shape: 1 2048 8 8 (131072)
I0208 19:21:40.725262 20693 net.cpp:165] Memory required for data: 657981440
I0208 19:21:40.725271 20693 layer_factory.hpp:77] Creating layer scale5b_branch2c
I0208 19:21:40.725278 20693 net.cpp:100] Creating Layer scale5b_branch2c
I0208 19:21:40.725283 20693 net.cpp:434] scale5b_branch2c <- res5b_branch2c
I0208 19:21:40.725288 20693 net.cpp:395] scale5b_branch2c -> res5b_branch2c (in-place)
I0208 19:21:40.725363 20693 layer_factory.hpp:77] Creating layer scale5b_branch2c
I0208 19:21:40.725538 20693 net.cpp:150] Setting up scale5b_branch2c
I0208 19:21:40.725549 20693 net.cpp:157] Top shape: 1 2048 8 8 (131072)
I0208 19:21:40.725553 20693 net.cpp:165] Memory required for data: 658505728
I0208 19:21:40.725559 20693 layer_factory.hpp:77] Creating layer res5b
I0208 19:21:40.725566 20693 net.cpp:100] Creating Layer res5b
I0208 19:21:40.725571 20693 net.cpp:434] res5b <- res5a_res5a_relu_0_split_1
I0208 19:21:40.725577 20693 net.cpp:434] res5b <- res5b_branch2c
I0208 19:21:40.725584 20693 net.cpp:408] res5b -> res5b
I0208 19:21:40.725611 20693 net.cpp:150] Setting up res5b
I0208 19:21:40.725618 20693 net.cpp:157] Top shape: 1 2048 8 8 (131072)
I0208 19:21:40.725622 20693 net.cpp:165] Memory required for data: 659030016
I0208 19:21:40.725626 20693 layer_factory.hpp:77] Creating layer res5b_relu
I0208 19:21:40.725633 20693 net.cpp:100] Creating Layer res5b_relu
I0208 19:21:40.725638 20693 net.cpp:434] res5b_relu <- res5b
I0208 19:21:40.725643 20693 net.cpp:395] res5b_relu -> res5b (in-place)
I0208 19:21:40.726133 20693 net.cpp:150] Setting up res5b_relu
I0208 19:21:40.726160 20693 net.cpp:157] Top shape: 1 2048 8 8 (131072)
I0208 19:21:40.726163 20693 net.cpp:165] Memory required for data: 659554304
I0208 19:21:40.726181 20693 layer_factory.hpp:77] Creating layer res5b_res5b_relu_0_split
I0208 19:21:40.726187 20693 net.cpp:100] Creating Layer res5b_res5b_relu_0_split
I0208 19:21:40.726192 20693 net.cpp:434] res5b_res5b_relu_0_split <- res5b
I0208 19:21:40.726199 20693 net.cpp:408] res5b_res5b_relu_0_split -> res5b_res5b_relu_0_split_0
I0208 19:21:40.726207 20693 net.cpp:408] res5b_res5b_relu_0_split -> res5b_res5b_relu_0_split_1
I0208 19:21:40.726266 20693 net.cpp:150] Setting up res5b_res5b_relu_0_split
I0208 19:21:40.726275 20693 net.cpp:157] Top shape: 1 2048 8 8 (131072)
I0208 19:21:40.726280 20693 net.cpp:157] Top shape: 1 2048 8 8 (131072)
I0208 19:21:40.726284 20693 net.cpp:165] Memory required for data: 660602880
I0208 19:21:40.726287 20693 layer_factory.hpp:77] Creating layer res5c_branch2a
I0208 19:21:40.726295 20693 net.cpp:100] Creating Layer res5c_branch2a
I0208 19:21:40.726300 20693 net.cpp:434] res5c_branch2a <- res5b_res5b_relu_0_split_0
I0208 19:21:40.726306 20693 net.cpp:408] res5c_branch2a -> res5c_branch2a
I0208 19:21:40.729773 20693 net.cpp:150] Setting up res5c_branch2a
I0208 19:21:40.729800 20693 net.cpp:157] Top shape: 1 512 8 8 (32768)
I0208 19:21:40.729805 20693 net.cpp:165] Memory required for data: 660733952
I0208 19:21:40.729811 20693 layer_factory.hpp:77] Creating layer bn5c_branch2a
I0208 19:21:40.729820 20693 net.cpp:100] Creating Layer bn5c_branch2a
I0208 19:21:40.729825 20693 net.cpp:434] bn5c_branch2a <- res5c_branch2a
I0208 19:21:40.729830 20693 net.cpp:395] bn5c_branch2a -> res5c_branch2a (in-place)
I0208 19:21:40.730129 20693 net.cpp:150] Setting up bn5c_branch2a
I0208 19:21:40.730141 20693 net.cpp:157] Top shape: 1 512 8 8 (32768)
I0208 19:21:40.730146 20693 net.cpp:165] Memory required for data: 660865024
I0208 19:21:40.730154 20693 layer_factory.hpp:77] Creating layer scale5c_branch2a
I0208 19:21:40.730161 20693 net.cpp:100] Creating Layer scale5c_branch2a
I0208 19:21:40.730165 20693 net.cpp:434] scale5c_branch2a <- res5c_branch2a
I0208 19:21:40.730176 20693 net.cpp:395] scale5c_branch2a -> res5c_branch2a (in-place)
I0208 19:21:40.730248 20693 layer_factory.hpp:77] Creating layer scale5c_branch2a
I0208 19:21:40.730419 20693 net.cpp:150] Setting up scale5c_branch2a
I0208 19:21:40.730433 20693 net.cpp:157] Top shape: 1 512 8 8 (32768)
I0208 19:21:40.730437 20693 net.cpp:165] Memory required for data: 660996096
I0208 19:21:40.730444 20693 layer_factory.hpp:77] Creating layer res5c_branch2a_relu
I0208 19:21:40.730450 20693 net.cpp:100] Creating Layer res5c_branch2a_relu
I0208 19:21:40.730454 20693 net.cpp:434] res5c_branch2a_relu <- res5c_branch2a
I0208 19:21:40.730459 20693 net.cpp:395] res5c_branch2a_relu -> res5c_branch2a (in-place)
I0208 19:21:40.730726 20693 net.cpp:150] Setting up res5c_branch2a_relu
I0208 19:21:40.730738 20693 net.cpp:157] Top shape: 1 512 8 8 (32768)
I0208 19:21:40.730742 20693 net.cpp:165] Memory required for data: 661127168
I0208 19:21:40.730746 20693 layer_factory.hpp:77] Creating layer res5c_branch2b
I0208 19:21:40.730756 20693 net.cpp:100] Creating Layer res5c_branch2b
I0208 19:21:40.730762 20693 net.cpp:434] res5c_branch2b <- res5c_branch2a
I0208 19:21:40.730767 20693 net.cpp:408] res5c_branch2b -> res5c_branch2b
I0208 19:21:40.736246 20693 net.cpp:150] Setting up res5c_branch2b
I0208 19:21:40.736275 20693 net.cpp:157] Top shape: 1 512 8 8 (32768)
I0208 19:21:40.736280 20693 net.cpp:165] Memory required for data: 661258240
I0208 19:21:40.736286 20693 layer_factory.hpp:77] Creating layer bn5c_branch2b
I0208 19:21:40.736295 20693 net.cpp:100] Creating Layer bn5c_branch2b
I0208 19:21:40.736300 20693 net.cpp:434] bn5c_branch2b <- res5c_branch2b
I0208 19:21:40.736306 20693 net.cpp:395] bn5c_branch2b -> res5c_branch2b (in-place)
I0208 19:21:40.736611 20693 net.cpp:150] Setting up bn5c_branch2b
I0208 19:21:40.736623 20693 net.cpp:157] Top shape: 1 512 8 8 (32768)
I0208 19:21:40.736627 20693 net.cpp:165] Memory required for data: 661389312
I0208 19:21:40.736635 20693 layer_factory.hpp:77] Creating layer scale5c_branch2b
I0208 19:21:40.736642 20693 net.cpp:100] Creating Layer scale5c_branch2b
I0208 19:21:40.736646 20693 net.cpp:434] scale5c_branch2b <- res5c_branch2b
I0208 19:21:40.736654 20693 net.cpp:395] scale5c_branch2b -> res5c_branch2b (in-place)
I0208 19:21:40.736724 20693 layer_factory.hpp:77] Creating layer scale5c_branch2b
I0208 19:21:40.736935 20693 net.cpp:150] Setting up scale5c_branch2b
I0208 19:21:40.736948 20693 net.cpp:157] Top shape: 1 512 8 8 (32768)
I0208 19:21:40.736953 20693 net.cpp:165] Memory required for data: 661520384
I0208 19:21:40.736960 20693 layer_factory.hpp:77] Creating layer res5c_branch2b_relu
I0208 19:21:40.736966 20693 net.cpp:100] Creating Layer res5c_branch2b_relu
I0208 19:21:40.736971 20693 net.cpp:434] res5c_branch2b_relu <- res5c_branch2b
I0208 19:21:40.736976 20693 net.cpp:395] res5c_branch2b_relu -> res5c_branch2b (in-place)
I0208 19:21:40.737247 20693 net.cpp:150] Setting up res5c_branch2b_relu
I0208 19:21:40.737259 20693 net.cpp:157] Top shape: 1 512 8 8 (32768)
I0208 19:21:40.737263 20693 net.cpp:165] Memory required for data: 661651456
I0208 19:21:40.737268 20693 layer_factory.hpp:77] Creating layer res5c_branch2c
I0208 19:21:40.737277 20693 net.cpp:100] Creating Layer res5c_branch2c
I0208 19:21:40.737282 20693 net.cpp:434] res5c_branch2c <- res5c_branch2b
I0208 19:21:40.737288 20693 net.cpp:408] res5c_branch2c -> res5c_branch2c
I0208 19:21:40.740600 20693 net.cpp:150] Setting up res5c_branch2c
I0208 19:21:40.740627 20693 net.cpp:157] Top shape: 1 2048 8 8 (131072)
I0208 19:21:40.740631 20693 net.cpp:165] Memory required for data: 662175744
I0208 19:21:40.740638 20693 layer_factory.hpp:77] Creating layer bn5c_branch2c
I0208 19:21:40.740645 20693 net.cpp:100] Creating Layer bn5c_branch2c
I0208 19:21:40.740650 20693 net.cpp:434] bn5c_branch2c <- res5c_branch2c
I0208 19:21:40.740658 20693 net.cpp:395] bn5c_branch2c -> res5c_branch2c (in-place)
I0208 19:21:40.740983 20693 net.cpp:150] Setting up bn5c_branch2c
I0208 19:21:40.740996 20693 net.cpp:157] Top shape: 1 2048 8 8 (131072)
I0208 19:21:40.741000 20693 net.cpp:165] Memory required for data: 662700032
I0208 19:21:40.741009 20693 layer_factory.hpp:77] Creating layer scale5c_branch2c
I0208 19:21:40.741019 20693 net.cpp:100] Creating Layer scale5c_branch2c
I0208 19:21:40.741022 20693 net.cpp:434] scale5c_branch2c <- res5c_branch2c
I0208 19:21:40.741029 20693 net.cpp:395] scale5c_branch2c -> res5c_branch2c (in-place)
I0208 19:21:40.741101 20693 layer_factory.hpp:77] Creating layer scale5c_branch2c
I0208 19:21:40.741274 20693 net.cpp:150] Setting up scale5c_branch2c
I0208 19:21:40.741286 20693 net.cpp:157] Top shape: 1 2048 8 8 (131072)
I0208 19:21:40.741289 20693 net.cpp:165] Memory required for data: 663224320
I0208 19:21:40.741297 20693 layer_factory.hpp:77] Creating layer res5c
I0208 19:21:40.741302 20693 net.cpp:100] Creating Layer res5c
I0208 19:21:40.741307 20693 net.cpp:434] res5c <- res5b_res5b_relu_0_split_1
I0208 19:21:40.741313 20693 net.cpp:434] res5c <- res5c_branch2c
I0208 19:21:40.741319 20693 net.cpp:408] res5c -> res5c
I0208 19:21:40.741361 20693 net.cpp:150] Setting up res5c
I0208 19:21:40.741370 20693 net.cpp:157] Top shape: 1 2048 8 8 (131072)
I0208 19:21:40.741374 20693 net.cpp:165] Memory required for data: 663748608
I0208 19:21:40.741379 20693 layer_factory.hpp:77] Creating layer res5c_relu
I0208 19:21:40.741384 20693 net.cpp:100] Creating Layer res5c_relu
I0208 19:21:40.741389 20693 net.cpp:434] res5c_relu <- res5c
I0208 19:21:40.741394 20693 net.cpp:395] res5c_relu -> res5c (in-place)
I0208 19:21:40.741892 20693 net.cpp:150] Setting up res5c_relu
I0208 19:21:40.741919 20693 net.cpp:157] Top shape: 1 2048 8 8 (131072)
I0208 19:21:40.741922 20693 net.cpp:165] Memory required for data: 664272896
I0208 19:21:40.741926 20693 layer_factory.hpp:77] Creating layer res5c_res5c_relu_0_split
I0208 19:21:40.741933 20693 net.cpp:100] Creating Layer res5c_res5c_relu_0_split
I0208 19:21:40.741937 20693 net.cpp:434] res5c_res5c_relu_0_split <- res5c
I0208 19:21:40.741945 20693 net.cpp:408] res5c_res5c_relu_0_split -> res5c_res5c_relu_0_split_0
I0208 19:21:40.741953 20693 net.cpp:408] res5c_res5c_relu_0_split -> res5c_res5c_relu_0_split_1
I0208 19:21:40.742013 20693 net.cpp:150] Setting up res5c_res5c_relu_0_split
I0208 19:21:40.742022 20693 net.cpp:157] Top shape: 1 2048 8 8 (131072)
I0208 19:21:40.742025 20693 net.cpp:157] Top shape: 1 2048 8 8 (131072)
I0208 19:21:40.742029 20693 net.cpp:165] Memory required for data: 665321472
I0208 19:21:40.742033 20693 layer_factory.hpp:77] Creating layer score_fr_sem
I0208 19:21:40.742045 20693 net.cpp:100] Creating Layer score_fr_sem
I0208 19:21:40.742050 20693 net.cpp:434] score_fr_sem <- res5c_res5c_relu_0_split_0
I0208 19:21:40.742056 20693 net.cpp:408] score_fr_sem -> score_fr_sem
I0208 19:21:40.745458 20693 net.cpp:150] Setting up score_fr_sem
I0208 19:21:40.745486 20693 net.cpp:157] Top shape: 1 33 8 8 (2112)
I0208 19:21:40.745491 20693 net.cpp:165] Memory required for data: 665329920
I0208 19:21:40.745497 20693 layer_factory.hpp:77] Creating layer upscore_sem
I0208 19:21:40.745507 20693 net.cpp:100] Creating Layer upscore_sem
I0208 19:21:40.745512 20693 net.cpp:434] upscore_sem <- score_fr_sem
I0208 19:21:40.745517 20693 net.cpp:408] upscore_sem -> upscore_sem
I0208 19:21:40.753782 20693 net.cpp:150] Setting up upscore_sem
I0208 19:21:40.753820 20693 net.cpp:157] Top shape: 1 33 288 288 (2737152)
I0208 19:21:40.753824 20693 net.cpp:165] Memory required for data: 676278528
I0208 19:21:40.753832 20693 layer_factory.hpp:77] Creating layer score_sem
I0208 19:21:40.753844 20693 net.cpp:100] Creating Layer score_sem
I0208 19:21:40.753850 20693 net.cpp:434] score_sem <- upscore_sem
I0208 19:21:40.753857 20693 net.cpp:434] score_sem <- data_data_0_split_1
I0208 19:21:40.753864 20693 net.cpp:408] score_sem -> score_sem
I0208 19:21:40.753908 20693 net.cpp:150] Setting up score_sem
I0208 19:21:40.753916 20693 net.cpp:157] Top shape: 1 33 256 256 (2162688)
I0208 19:21:40.753918 20693 net.cpp:165] Memory required for data: 684929280
I0208 19:21:40.753922 20693 layer_factory.hpp:77] Creating layer loss
I0208 19:21:40.753933 20693 net.cpp:100] Creating Layer loss
I0208 19:21:40.753937 20693 net.cpp:434] loss <- score_sem
I0208 19:21:40.753944 20693 net.cpp:434] loss <- sem
I0208 19:21:40.753950 20693 net.cpp:408] loss -> loss
I0208 19:21:40.753962 20693 layer_factory.hpp:77] Creating layer loss
I0208 19:21:40.772047 20693 net.cpp:150] Setting up loss
I0208 19:21:40.772078 20693 net.cpp:157] Top shape: (1)
I0208 19:21:40.772081 20693 net.cpp:160]     with loss weight 1
I0208 19:21:40.772092 20693 net.cpp:165] Memory required for data: 684929284
I0208 19:21:40.772097 20693 layer_factory.hpp:77] Creating layer score_fr_geo
I0208 19:21:40.772112 20693 net.cpp:100] Creating Layer score_fr_geo
I0208 19:21:40.772119 20693 net.cpp:434] score_fr_geo <- res5c_res5c_relu_0_split_1
I0208 19:21:40.772138 20693 net.cpp:408] score_fr_geo -> score_fr_geo
I0208 19:21:40.774014 20693 net.cpp:150] Setting up score_fr_geo
I0208 19:21:40.774041 20693 net.cpp:157] Top shape: 1 3 8 8 (192)
I0208 19:21:40.774046 20693 net.cpp:165] Memory required for data: 684930052
I0208 19:21:40.774055 20693 layer_factory.hpp:77] Creating layer upscore_geo
I0208 19:21:40.774063 20693 net.cpp:100] Creating Layer upscore_geo
I0208 19:21:40.774068 20693 net.cpp:434] upscore_geo <- score_fr_geo
I0208 19:21:40.774075 20693 net.cpp:408] upscore_geo -> upscore_geo
I0208 19:21:40.774852 20693 net.cpp:150] Setting up upscore_geo
I0208 19:21:40.774866 20693 net.cpp:157] Top shape: 1 3 288 288 (248832)
I0208 19:21:40.774883 20693 net.cpp:165] Memory required for data: 685925380
I0208 19:21:40.774888 20693 layer_factory.hpp:77] Creating layer score_geo
I0208 19:21:40.774896 20693 net.cpp:100] Creating Layer score_geo
I0208 19:21:40.774901 20693 net.cpp:434] score_geo <- upscore_geo
I0208 19:21:40.774907 20693 net.cpp:434] score_geo <- data_data_0_split_2
I0208 19:21:40.774912 20693 net.cpp:408] score_geo -> score_geo
I0208 19:21:40.774953 20693 net.cpp:150] Setting up score_geo
I0208 19:21:40.774960 20693 net.cpp:157] Top shape: 1 3 256 256 (196608)
I0208 19:21:40.774963 20693 net.cpp:165] Memory required for data: 686711812
I0208 19:21:40.774967 20693 layer_factory.hpp:77] Creating layer loss_geo
I0208 19:21:40.774976 20693 net.cpp:100] Creating Layer loss_geo
I0208 19:21:40.774979 20693 net.cpp:434] loss_geo <- score_geo
I0208 19:21:40.774984 20693 net.cpp:434] loss_geo <- geo
I0208 19:21:40.774989 20693 net.cpp:408] loss_geo -> loss_geo
…
