…
snapshot_prefix: "log2-ImageNet"
test_initialization: false
average_loss: 20
iter_size: 1
I0202 21:27:06.251231 18286 solver.cpp:81] Creating training net from train_net file: trainval.prototxt
I0202 21:27:06.256022 18286 net.cpp:58] Initializing net from parameters: 
name: "FCNResNet-50Train"
state {
  phase: TRAIN
}
layer {
  name: "data"
  type: "Python"
  top: "data"
  top: "sem"
  top: "geo"
  python_param {
    module: "siftflow_layers"
    layer: "SIFTFlowSegDataLayer"
    param_str: "{\'siftflow_dir\': \'../data/sift-flow\', \'seed\': 1337, \'split\': \'trainval\'}"
  }
}
layer {
  name: "conv1"
  type: "Convolution"
  bottom: "data"
  top: "conv1"
  convolution_param {
    num_output: 64
    pad: 3
    kernel_size: 7
    stride: 2
  }
}
layer {
  name: "bn_conv1"
  type: "BatchNorm"
  bottom: "conv1"
  top: "conv1"
  batch_norm_param {
    use_global_stats: true
  }
}
layer {
  name: "scale_conv1"
  type: "Scale"
  bottom: "conv1"
  top: "conv1"
  scale_param {
    bias_term: true
  }
}
layer {
  name: "conv1_relu"
  type: "ReLU"
  bottom: "conv1"
  top: "conv1"
}
layer {
  name: "pool1"
  type: "Pooling"
  bottom: "conv1"
  top: "pool1"
  pooling_param {
    pool: MAX
    kernel_size: 3
    stride: 2
  }
}
layer {
  name: "res2a_branch1"
  type: "Convolution"
  bottom: "pool1"
  top: "res2a_branch1"
  convolution_param {
    num_output: 256
    bias_term: false
    pad: 0
    kernel_size: 1
    stride: 1
  }
}
layer {
  name: "bn2a_branch1"
  type: "BatchNorm"
  bottom: "res2a_branch1"
  top: "res2a_branch1"
  batch_norm_param {
    use_global_stats: true
  }
}
layer {
  name: "scale2a_branch1"
  type: "Scale"
  bottom: "res2a_branch1"
  top: "res2a_branch1"
  scale_param {
    bias_term: true
  }
}
layer {
  name: "res2a_branch2a"
  type: "Convolution"
  bottom: "pool1"
  top: "res2a_branch2a"
  convolution_param {
    num_output: 64
    bias_term: false
    pad: 0
    kernel_size: 1
    stride: 1
  }
}
layer {
  name: "bn2a_branch2a"
  type: "BatchNorm"
  bottom: "res2a_branch2a"
  top: "res2a_branch2a"
  batch_norm_param {
    use_global_stats: true
  }
}
layer {
  name: "scale2a_branch2a"
  type: "Scale"
  bottom: "res2a_branch2a"
  top: "res2a_branch2a"
  scale_param {
    bias_term: true
  }
}
layer {
  name: "res2a_branch2a_relu"
  type: "ReLU"
  bottom: "res2a_branch2a"
  top: "res2a_branch2a"
}
layer {
  name: "res2a_branch2b"
  type: "Convolution"
  bottom: "res2a_branch2a"
  top: "res2a_branch2b"
  convolution_param {
    num_output: 64
    bias_term: false
    pad: 1
    kernel_size: 3
    stride: 1
  }
}
layer {
  name: "bn2a_branch2b"
  type: "BatchNorm"
  bottom: "res2a_branch2b"
  top: "res2a_branch2b"
  batch_norm_param {
    use_global_stats: true
  }
}
layer {
  name: "scale2a_branch2b"
  type: "Scale"
  bottom: "res2a_branch2b"
  top: "res2a_branch2b"
  scale_param {
    bias_term: true
  }
}
layer {
  name: "res2a_branch2b_relu"
  type: "ReLU"
  bottom: "res2a_branch2b"
  top: "res2a_branch2b"
}
layer {
  name: "res2a_branch2c"
  type: "Convolution"
  bottom: "res2a_branch2b"
  top: "res2a_branch2c"
  convolution_param {
    num_output: 256
    bias_term: false
    pad: 0
    kernel_size: 1
    stride: 1
  }
}
layer {
  name: "bn2a_branch2c"
  type: "BatchNorm"
  bottom: "res2a_branch2c"
  top: "res2a_branch2c"
  batch_norm_param {
    use_global_stats: true
  }
}
layer {
  name: "scale2a_branch2c"
  type: "Scale"
  bottom: "res2a_branch2c"
  top: "res2a_branch2c"
  scale_param {
    bias_term: true
  }
}
layer {
  name: "res2a"
  type: "Eltwise"
  bottom: "res2a_branch1"
  bottom: "res2a_branch2c"
  top: "res2a"
}
layer {
  name: "res2a_relu"
  type: "ReLU"
  bottom: "res2a"
  top: "res2a"
}
layer {
  name: "res2b_branch2a"
  type: "Convolution"
  bottom: "res2a"
  top: "res2b_branch2a"
  convolution_param {
    num_output: 64
    bias_term: false
    pad: 0
    kernel_size: 1
    stride: 1
  }
}
layer {
  name: "bn2b_branch2a"
  type: "BatchNorm"
  bottom: "res2b_branch2a"
  top: "res2b_branch2a"
  batch_norm_param {
    use_global_stats: true
  }
}
layer {
  name: "scale2b_branch2a"
  type: "Scale"
  bottom: "res2b_branch2a"
  top: "res2b_branch2a"
  scale_param {
    bias_term: true
  }
}
layer {
  name: "res2b_branch2a_relu"
  type: "ReLU"
  bottom: "res2b_branch2a"
  top: "res2b_branch2a"
}
layer {
  name: "res2b_branch2b"
  type: "Convolution"
  bottom: "res2b_branch2a"
  top: "res2b_branch2b"
  convolution_param {
    num_output: 64
    bias_term: false
    pad: 1
    kernel_size: 3
    stride: 1
  }
}
layer {
  name: "bn2b_branch2b"
  type: "BatchNorm"
  bottom: "res2b_branch2b"
  top: "res2b_branch2b"
  batch_norm_param {
    use_global_stats: true
  }
}
layer {
  name: "scale2b_branch2b"
  type: "Scale"
  bottom: "res2b_branch2b"
  top: "res2b_branch2b"
  scale_param {
    bias_term: true
  }
}
layer {
  name: "res2b_branch2b_relu"
  type: "ReLU"
  bottom: "res2b_branch2b"
  top: "res2b_branch2b"
}
layer {
  name: "res2b_branch2c"
  type: "Convolution"
  bottom: "res2b_branch2b"
  top: "res2b_branch2c"
  convolution_param {
    num_output: 256
    bias_term: false
    pad: 0
    kernel_size: 1
    stride: 1
  }
}
layer {
  name: "bn2b_branch2c"
  type: "BatchNorm"
  bottom: "res2b_branch2c"
  top: "res2b_branch2c"
  batch_norm_param {
    use_global_stats: true
  }
}
layer {
  name: "scale2b_branch2c"
  type: "Scale"
  bottom: "res2b_branch2c"
  top: "res2b_branch2c"
  scale_param {
    bias_term: true
  }
}
layer {
  name: "res2b"
  type: "Eltwise"
  bottom: "res2a"
  bottom: "res2b_branch2c"
  top: "res2b"
}
layer {
  name: "res2b_relu"
  type: "ReLU"
  bottom: "res2b"
  top: "res2b"
}
layer {
  name: "res2c_branch2a"
  type: "Convolution"
  bottom: "res2b"
  top: "res2c_branch2a"
  convolution_param {
    num_output: 64
    bias_term: false
    pad: 0
    kernel_size: 1
    stride: 1
  }
}
layer {
  name: "bn2c_branch2a"
  type: "BatchNorm"
  bottom: "res2c_branch2a"
  top: "res2c_branch2a"
  batch_norm_param {
    use_global_stats: true
  }
}
layer {
  name: "scale2c_branch2a"
  type: "Scale"
  bottom: "res2c_branch2a"
  top: "res2c_branch2a"
  scale_param {
    bias_term: true
  }
}
layer {
  name: "res2c_branch2a_relu"
  type: "ReLU"
  bottom: "res2c_branch2a"
  top: "res2c_branch2a"
}
layer {
  name: "res2c_branch2b"
  type: "Convolution"
  bottom: "res2c_branch2a"
  top: "res2c_branch2b"
  convolution_param {
    num_output: 64
    bias_term: false
    pad: 1
    kernel_size: 3
    stride: 1
  }
}
layer {
  name: "bn2c_branch2b"
  type: "BatchNorm"
  bottom: "res2c_branch2b"
  top: "res2c_branch2b"
  batch_norm_param {
    use_global_stats: true
  }
}
layer {
  name: "scale2c_branch2b"
  type: "Scale"
  bottom: "res2c_branch2b"
  top: "res2c_branch2b"
  scale_param {
    bias_term: true
  }
}
layer {
  name: "res2c_branch2b_relu"
  type: "ReLU"
  bottom: "res2c_branch2b"
  top: "res2c_branch2b"
}
layer {
  name: "res2c_branch2c"
  type: "Convolution"
  bottom: "res2c_branch2b"
  top: "res2c_branch2c"
  convolution_param {
    num_output: 256
    bias_term: false
    pad: 0
    kernel_size: 1
    stride: 1
  }
}
layer {
  name: "bn2c_branch2c"
  type: "BatchNorm"
  bottom: "res2c_branch2c"
  top: "res2c_branch2c"
  batch_norm_param {
    use_global_stats: true
  }
}
layer {
  name: "scale2c_branch2c"
  type: "Scale"
  bottom: "res2c_branch2c"
  top: "res2c_branch2c"
  scale_param {
    bias_term: true
  }
}
layer {
  name: "res2c"
  type: "Eltwise"
  bottom: "res2b"
  bottom: "res2c_branch2c"
  top: "res2c"
}
layer {
  name: "res2c_relu"
  type: "ReLU"
  bottom: "res2c"
  top: "res2c"
}
layer {
  name: "res3a_branch1"
  type: "Convolution"
  bottom: "res2c"
  top: "res3a_branch1"
  convolution_param {
    num_output: 512
    bias_term: false
    pad: 0
    kernel_size: 1
    stride: 2
  }
}
layer {
  name: "bn3a_branch1"
  type: "BatchNorm"
  bottom: "res3a_branch1"
  top: "res3a_branch1"
  batch_norm_param {
    use_global_stats: true
  }
}
layer {
  name: "scale3a_branch1"
  type: "Scale"
  bottom: "res3a_branch1"
  top: "res3a_branch1"
  scale_param {
    bias_term: true
  }
}
layer {
  name: "res3a_branch2a"
  type: "Convolution"
  bottom: "res2c"
  top: "res3a_branch2a"
  convolution_param {
    num_output: 128
    bias_term: false
    pad: 0
    kernel_size: 1
    stride: 2
  }
}
layer {
  name: "bn3a_branch2a"
  type: "BatchNorm"
  bottom: "res3a_branch2a"
  top: "res3a_branch2a"
  batch_norm_param {
    use_global_stats: true
  }
}
layer {
  name: "scale3a_branch2a"
  type: "Scale"
  bottom: "res3a_branch2a"
  top: "res3a_branch2a"
  scale_param {
    bias_term: true
  }
}
layer {
  name: "res3a_branch2a_relu"
  type: "ReLU"
  bottom: "res3a_branch2a"
  top: "res3a_branch2a"
}
layer {
  name: "res3a_branch2b"
  type: "Convolution"
  bottom: "res3a_branch2a"
  top: "res3a_branch2b"
  convolution_param {
    num_output: 128
    bias_term: false
    pad: 1
    kernel_size: 3
    stride: 1
  }
}
layer {
  name: "bn3a_branch2b"
  type: "BatchNorm"
  bottom: "res3a_branch2b"
  top: "res3a_branch2b"
  batch_norm_param {
    use_global_stats: true
  }
}
layer {
  name: "scale3a_branch2b"
  type: "Scale"
  bottom: "res3a_branch2b"
  top: "res3a_branch2b"
  scale_param {
    bias_term: true
  }
}
layer {
  name: "res3a_branch2b_relu"
  type: "ReLU"
  bottom: "res3a_branch2b"
  top: "res3a_branch2b"
}
layer {
  name: "res3a_branch2c"
  type: "Convolution"
  bottom: "res3a_branch2b"
  top: "res3a_branch2c"
  convolution_param {
    num_output: 512
    bias_term: false
    pad: 0
    kernel_size: 1
    stride: 1
  }
}
layer {
  name: "bn3a_branch2c"
  type: "BatchNorm"
  bottom: "res3a_branch2c"
  top: "res3a_branch2c"
  batch_norm_param {
    use_global_stats: true
  }
}
layer {
  name: "scale3a_branch2c"
  type: "Scale"
  bottom: "res3a_branch2c"
  top: "res3a_branch2c"
  scale_param {
    bias_term: true
  }
}
layer {
  name: "res3a"
  type: "Eltwise"
  bottom: "res3a_branch1"
  bottom: "res3a_branch2c"
  top: "res3a"
}
layer {
  name: "res3a_relu"
  type: "ReLU"
  bottom: "res3a"
  top: "res3a"
}
layer {
  name: "res3b_branch2a"
  type: "Convolution"
  bottom: "res3a"
  top: "res3b_branch2a"
  convolution_param {
    num_output: 128
    bias_term: false
    pad: 0
    kernel_size: 1
    stride: 1
  }
}
layer {
  name: "bn3b_branch2a"
  type: "BatchNorm"
  bottom: "res3b_branch2a"
  top: "res3b_branch2a"
  batch_norm_param {
    use_global_stats: true
  }
}
layer {
  name: "scale3b_branch2a"
  type: "Scale"
  bottom: "res3b_branch2a"
  top: "res3b_branch2a"
  scale_param {
    bias_term: true
  }
}
layer {
  name: "res3b_branch2a_relu"
  type: "ReLU"
  bottom: "res3b_branch2a"
  top: "res3b_branch2a"
}
layer {
  name: "res3b_branch2b"
  type: "Convolution"
  bottom: "res3b_branch2a"
  top: "res3b_branch2b"
  convolution_param {
    num_output: 128
    bias_term: false
    pad: 1
    kernel_size: 3
    stride: 1
  }
}
layer {
  name: "bn3b_branch2b"
  type: "BatchNorm"
  bottom: "res3b_branch2b"
  top: "res3b_branch2b"
  batch_norm_param {
    use_global_stats: true
  }
}
layer {
  name: "scale3b_branch2b"
  type: "Scale"
  bottom: "res3b_branch2b"
  top: "res3b_branch2b"
  scale_param {
    bias_term: true
  }
}
layer {
  name: "res3b_branch2b_relu"
  type: "ReLU"
  bottom: "res3b_branch2b"
  top: "res3b_branch2b"
}
layer {
  name: "res3b_branch2c"
  type: "Convolution"
  bottom: "res3b_branch2b"
  top: "res3b_branch2c"
  convolution_param {
    num_output: 512
    bias_term: false
    pad: 0
    kernel_size: 1
    stride: 1
  }
}
layer {
  name: "bn3b_branch2c"
  type: "BatchNorm"
  bottom: "res3b_branch2c"
  top: "res3b_branch2c"
  batch_norm_param {
    use_global_stats: true
  }
}
layer {
  name: "scale3b_branch2c"
  type: "Scale"
  bottom: "res3b_branch2c"
  top: "res3b_branch2c"
  scale_param {
    bias_term: true
  }
}
layer {
  name: "res3b"
  type: "Eltwise"
  bottom: "res3a"
  bottom: "res3b_branch2c"
  top: "res3b"
}
layer {
  name: "res3b_relu"
  type: "ReLU"
  bottom: "res3b"
  top: "res3b"
}
layer {
  name: "res3c_branch2a"
  type: "Convolution"
  bottom: "res3b"
  top: "res3c_branch2a"
  convolution_param {
    num_output: 128
    bias_term: false
    pad: 0
    kernel_size: 1
    stride: 1
  }
}
layer {
  name: "bn3c_branch2a"
  type: "BatchNorm"
  bottom: "res3c_branch2a"
  top: "res3c_branch2a"
  batch_norm_param {
    use_global_stats: true
  }
}
layer {
  name: "scale3c_branch2a"
  type: "Scale"
  bottom: "res3c_branch2a"
  top: "res3c_branch2a"
  scale_param {
    bias_term: true
  }
}
layer {
  name: "res3c_branch2a_relu"
  type: "ReLU"
  bottom: "res3c_branch2a"
  top: "res3c_branch2a"
}
layer {
  name: "res3c_branch2b"
  type: "Convolution"
  bottom: "res3c_branch2a"
  top: "res3c_branch2b"
  convolution_param {
    num_output: 128
    bias_term: false
    pad: 1
    kernel_size: 3
    stride: 1
  }
}
layer {
  name: "bn3c_branch2b"
  type: "BatchNorm"
  bottom: "res3c_branch2b"
  top: "res3c_branch2b"
  batch_norm_param {
    use_global_stats: true
  }
}
layer {
  name: "scale3c_branch2b"
  type: "Scale"
  bottom: "res3c_branch2b"
  top: "res3c_branch2b"
  scale_param {
    bias_term: true
  }
}
layer {
  name: "res3c_branch2b_relu"
  type: "ReLU"
  bottom: "res3c_branch2b"
  top: "res3c_branch2b"
}
layer {
  name: "res3c_branch2c"
  type: "Convolution"
  bottom: "res3c_branch2b"
  top: "res3c_branch2c"
  convolution_param {
    num_output: 512
    bias_term: false
    pad: 0
    kernel_size: 1
    stride: 1
  }
}
layer {
  name: "bn3c_branch2c"
  type: "BatchNorm"
  bottom: "res3c_branch2c"
  top: "res3c_branch2c"
  batch_norm_param {
    use_global_stats: true
  }
}
layer {
  name: "scale3c_branch2c"
  type: "Scale"
  bottom: "res3c_branch2c"
  top: "res3c_branch2c"
  scale_param {
    bias_term: true
  }
}
layer {
  name: "res3c"
  type: "Eltwise"
  bottom: "res3b"
  bottom: "res3c_branch2c"
  top: "res3c"
}
layer {
  name: "res3c_relu"
  type: "ReLU"
  bottom: "res3c"
  top: "res3c"
}
layer {
  name: "res3d_branch2a"
  type: "Convolution"
  bottom: "res3c"
  top: "res3d_branch2a"
  convolution_param {
    num_output: 128
    bias_term: false
    pad: 0
    kernel_size: 1
    stride: 1
  }
}
layer {
  name: "bn3d_branch2a"
  type: "BatchNorm"
  bottom: "res3d_branch2a"
  top: "res3d_branch2a"
  batch_norm_param {
    use_global_stats: true
  }
}
layer {
  name: "scale3d_branch2a"
  type: "Scale"
  bottom: "res3d_branch2a"
  top: "res3d_branch2a"
  scale_param {
    bias_term: true
  }
}
layer {
  name: "res3d_branch2a_relu"
  type: "ReLU"
  bottom: "res3d_branch2a"
  top: "res3d_branch2a"
}
layer {
  name: "res3d_branch2b"
  type: "Convolution"
  bottom: "res3d_branch2a"
  top: "res3d_branch2b"
  convolution_param {
    num_output: 128
    bias_term: false
    pad: 1
    kernel_size: 3
    stride: 1
  }
}
layer {
  name: "bn3d_branch2b"
  type: "BatchNorm"
  bottom: "res3d_branch2b"
  top: "res3d_branch2b"
  batch_norm_param {
    use_global_stats: true
  }
}
layer {
  name: "scale3d_branch2b"
  type: "Scale"
  bottom: "res3d_branch2b"
  top: "res3d_branch2b"
  scale_param {
    bias_term: true
  }
}
layer {
  name: "res3d_branch2b_relu"
  type: "ReLU"
  bottom: "res3d_branch2b"
  top: "res3d_branch2b"
}
layer {
  name: "res3d_branch2c"
  type: "Convolution"
  bottom: "res3d_branch2b"
  top: "res3d_branch2c"
  convolution_param {
    num_output: 512
    bias_term: false
    pad: 0
    kernel_size: 1
    stride: 1
  }
}
layer {
  name: "bn3d_branch2c"
  type: "BatchNorm"
  bottom: "res3d_branch2c"
  top: "res3d_branch2c"
  batch_norm_param {
    use_global_stats: true
  }
}
layer {
  name: "scale3d_branch2c"
  type: "Scale"
  bottom: "res3d_branch2c"
  top: "res3d_branch2c"
  scale_param {
    bias_term: true
  }
}
layer {
  name: "res3d"
  type: "Eltwise"
  bottom: "res3c"
  bottom: "res3d_branch2c"
  top: "res3d"
}
layer {
  name: "res3d_relu"
  type: "ReLU"
  bottom: "res3d"
  top: "res3d"
}
layer {
  name: "res4a_branch1"
  type: "Convolution"
  bottom: "res3d"
  top: "res4a_branch1"
  convolution_param {
    num_output: 1024
    bias_term: false
    pad: 0
    kernel_size: 1
    stride: 2
  }
}
layer {
  name: "bn4a_branch1"
  type: "BatchNorm"
  bottom: "res4a_branch1"
  top: "res4a_branch1"
  batch_norm_param {
    use_global_stats: true
  }
}
layer {
  name: "scale4a_branch1"
  type: "Scale"
  bottom: "res4a_branch1"
  top: "res4a_branch1"
  scale_param {
    bias_term: true
  }
}
layer {
  name: "res4a_branch2a"
  type: "Convolution"
  bottom: "res3d"
  top: "res4a_branch2a"
  convolution_param {
    num_output: 256
    bias_term: false
    pad: 0
    kernel_size: 1
    stride: 2
  }
}
layer {
  name: "bn4a_branch2a"
  type: "BatchNorm"
  bottom: "res4a_branch2a"
  top: "res4a_branch2a"
  batch_norm_param {
    use_global_stats: true
  }
}
layer {
  name: "scale4a_branch2a"
  type: "Scale"
  bottom: "res4a_branch2a"
  top: "res4a_branch2a"
  scale_param {
    bias_term: true
  }
}
layer {
  name: "res4a_branch2a_relu"
  type: "ReLU"
  bottom: "res4a_branch2a"
  top: "res4a_branch2a"
}
layer {
  name: "res4a_branch2b"
  type: "Convolution"
  bottom: "res4a_branch2a"
  top: "res4a_branch2b"
  convolution_param {
    num_output: 256
    bias_term: false
    pad: 1
    kernel_size: 3
    stride: 1
  }
}
layer {
  name: "bn4a_branch2b"
  type: "BatchNorm"
  bottom: "res4a_branch2b"
  top: "res4a_branch2b"
  batch_norm_param {
    use_global_stats: true
  }
}
layer {
  name: "scale4a_branch2b"
  type: "Scale"
  bottom: "res4a_branch2b"
  top: "res4a_branch2b"
  scale_param {
    bias_term: true
  }
}
layer {
  name: "res4a_branch2b_relu"
  type: "ReLU"
  bottom: "res4a_branch2b"
  top: "res4a_branch2b"
}
layer {
  name: "res4a_branch2c"
  type: "Convolution"
  bottom: "res4a_branch2b"
  top: "res4a_branch2c"
  convolution_param {
    num_output: 1024
    bias_term: false
    pad: 0
    kernel_size: 1
    stride: 1
  }
}
layer {
  name: "bn4a_branch2c"
  type: "BatchNorm"
  bottom: "res4a_branch2c"
  top: "res4a_branch2c"
  batch_norm_param {
    use_global_stats: true
  }
}
layer {
  name: "scale4a_branch2c"
  type: "Scale"
  bottom: "res4a_branch2c"
  top: "res4a_branch2c"
  scale_param {
    bias_term: true
  }
}
layer {
  name: "res4a"
  type: "Eltwise"
  bottom: "res4a_branch1"
  bottom: "res4a_branch2c"
  top: "res4a"
}
layer {
  name: "res4a_relu"
  type: "ReLU"
  bottom: "res4a"
  top: "res4a"
}
layer {
  name: "res4b_branch2a"
  type: "Convolution"
  bottom: "res4a"
  top: "res4b_branch2a"
  convolution_param {
    num_output: 256
    bias_term: false
    pad: 0
    kernel_size: 1
    stride: 1
  }
}
layer {
  name: "bn4b_branch2a"
  type: "BatchNorm"
  bottom: "res4b_branch2a"
  top: "res4b_branch2a"
  batch_norm_param {
    use_global_stats: true
  }
}
layer {
  name: "scale4b_branch2a"
  type: "Scale"
  bottom: "res4b_branch2a"
  top: "res4b_branch2a"
  scale_param {
    bias_term: true
  }
}
layer {
  name: "res4b_branch2a_relu"
  type: "ReLU"
  bottom: "res4b_branch2a"
  top: "res4b_branch2a"
}
layer {
  name: "res4b_branch2b"
  type: "Convolution"
  bottom: "res4b_branch2a"
  top: "res4b_branch2b"
  convolution_param {
    num_output: 256
    bias_term: false
    pad: 1
    kernel_size: 3
    stride: 1
  }
}
layer {
  name: "bn4b_branch2b"
  type: "BatchNorm"
  bottom: "res4b_branch2b"
  top: "res4b_branch2b"
  batch_norm_param {
    use_global_stats: true
  }
}
layer {
  name: "scale4b_branch2b"
  type: "Scale"
  bottom: "res4b_branch2b"
  top: "res4b_branch2b"
  scale_param {
    bias_term: true
  }
}
layer {
  name: "res4b_branch2b_relu"
  type: "ReLU"
  bottom: "res4b_branch2b"
  top: "res4b_branch2b"
}
layer {
  name: "res4b_branch2c"
  type: "Convolution"
  bottom: "res4b_branch2b"
  top: "res4b_branch2c"
  convolution_param {
    num_output: 1024
    bias_term: false
    pad: 0
    kernel_size: 1
    stride: 1
  }
}
layer {
  name: "bn4b_branch2c"
  type: "BatchNorm"
  bottom: "res4b_branch2c"
  top: "res4b_branch2c"
  batch_norm_param {
    use_global_stats: true
  }
}
layer {
  name: "scale4b_branch2c"
  type: "Scale"
  bottom: "res4b_branch2c"
  top: "res4b_branch2c"
  scale_param {
    bias_term: true
  }
}
layer {
  name: "res4b"
  type: "Eltwise"
  bottom: "res4a"
  bottom: "res4b_branch2c"
  top: "res4b"
}
layer {
  name: "res4b_relu"
  type: "ReLU"
  bottom: "res4b"
  top: "res4b"
}
layer {
  name: "res4c_branch2a"
  type: "Convolution"
  bottom: "res4b"
  top: "res4c_branch2a"
  convolution_param {
    num_output: 256
    bias_term: false
    pad: 0
    kernel_size: 1
    stride: 1
  }
}
layer {
  name: "bn4c_branch2a"
  type: "BatchNorm"
  bottom: "res4c_branch2a"
  top: "res4c_branch2a"
  batch_norm_param {
    use_global_stats: true
  }
}
layer {
  name: "scale4c_branch2a"
  type: "Scale"
  bottom: "res4c_branch2a"
  top: "res4c_branch2a"
  scale_param {
    bias_term: true
  }
}
layer {
  name: "res4c_branch2a_relu"
  type: "ReLU"
  bottom: "res4c_branch2a"
  top: "res4c_branch2a"
}
layer {
  name: "res4c_branch2b"
  type: "Convolution"
  bottom: "res4c_branch2a"
  top: "res4c_branch2b"
  convolution_param {
    num_output: 256
    bias_term: false
    pad: 1
    kernel_size: 3
    stride: 1
  }
}
layer {
  name: "bn4c_branch2b"
  type: "BatchNorm"
  bottom: "res4c_branch2b"
  top: "res4c_branch2b"
  batch_norm_param {
    use_global_stats: true
  }
}
layer {
  name: "scale4c_branch2b"
  type: "Scale"
  bottom: "res4c_branch2b"
  top: "res4c_branch2b"
  scale_param {
    bias_term: true
  }
}
layer {
  name: "res4c_branch2b_relu"
  type: "ReLU"
  bottom: "res4c_branch2b"
  top: "res4c_branch2b"
}
layer {
  name: "res4c_branch2c"
  type: "Convolution"
  bottom: "res4c_branch2b"
  top: "res4c_branch2c"
  convolution_param {
    num_output: 1024
    bias_term: false
    pad: 0
    kernel_size: 1
    stride: 1
  }
}
layer {
  name: "bn4c_branch2c"
  type: "BatchNorm"
  bottom: "res4c_branch2c"
  top: "res4c_branch2c"
  batch_norm_param {
    use_global_stats: true
  }
}
layer {
  name: "scale4c_branch2c"
  type: "Scale"
  bottom: "res4c_branch2c"
  top: "res4c_branch2c"
  scale_param {
    bias_term: true
  }
}
layer {
  name: "res4c"
  type: "Eltwise"
  bottom: "res4b"
  bottom: "res4c_branch2c"
  top: "res4c"
}
layer {
  name: "res4c_relu"
  type: "ReLU"
  bottom: "res4c"
  top: "res4c"
}
layer {
  name: "res4d_branch2a"
  type: "Convolution"
  bottom: "res4c"
  top: "res4d_branch2a"
  convolution_param {
    num_output: 256
    bias_term: false
    pad: 0
    kernel_size: 1
    stride: 1
  }
}
layer {
  name: "bn4d_branch2a"
  type: "BatchNorm"
  bottom: "res4d_branch2a"
  top: "res4d_branch2a"
  batch_norm_param {
    use_global_stats: true
  }
}
layer {
  name: "scale4d_branch2a"
  type: "Scale"
  bottom: "res4d_branch2a"
  top: "res4d_branch2a"
  scale_param {
    bias_term: true
  }
}
layer {
  name: "res4d_branch2a_relu"
  type: "ReLU"
  bottom: "res4d_branch2a"
  top: "res4d_branch2a"
}
layer {
  name: "res4d_branch2b"
  type: "Convolution"
  bottom: "res4d_branch2a"
  top: "res4d_branch2b"
  convolution_param {
    num_output: 256
    bias_term: false
    pad: 1
    kernel_size: 3
    stride: 1
  }
}
layer {
  name: "bn4d_branch2b"
  type: "BatchNorm"
  bottom: "res4d_branch2b"
  top: "res4d_branch2b"
  batch_norm_param {
    use_global_stats: true
  }
}
layer {
  name: "scale4d_branch2b"
  type: "Scale"
  bottom: "res4d_branch2b"
  top: "res4d_branch2b"
  scale_param {
    bias_term: true
  }
}
layer {
  name: "res4d_branch2b_relu"
  type: "ReLU"
  bottom: "res4d_branch2b"
  top: "res4d_branch2b"
}
layer {
  name: "res4d_branch2c"
  type: "Convolution"
  bottom: "res4d_branch2b"
  top: "res4d_branch2c"
  convolution_param {
    num_output: 1024
    bias_term: false
    pad: 0
    kernel_size: 1
    stride: 1
  }
}
layer {
  name: "bn4d_branch2c"
  type: "BatchNorm"
  bottom: "res4d_branch2c"
  top: "res4d_branch2c"
  batch_norm_param {
    use_global_stats: true
  }
}
layer {
  name: "scale4d_branch2c"
  type: "Scale"
  bottom: "res4d_branch2c"
  top: "res4d_branch2c"
  scale_param {
    bias_term: true
  }
}
layer {
  name: "res4d"
  type: "Eltwise"
  bottom: "res4c"
  bottom: "res4d_branch2c"
  top: "res4d"
}
layer {
  name: "res4d_relu"
  type: "ReLU"
  bottom: "res4d"
  top: "res4d"
}
layer {
  name: "res4e_branch2a"
  type: "Convolution"
  bottom: "res4d"
  top: "res4e_branch2a"
  convolution_param {
    num_output: 256
    bias_term: false
    pad: 0
    kernel_size: 1
    stride: 1
  }
}
layer {
  name: "bn4e_branch2a"
  type: "BatchNorm"
  bottom: "res4e_branch2a"
  top: "res4e_branch2a"
  batch_norm_param {
    use_global_stats: true
  }
}
layer {
  name: "scale4e_branch2a"
  type: "Scale"
  bottom: "res4e_branch2a"
  top: "res4e_branch2a"
  scale_param {
    bias_term: true
  }
}
layer {
  name: "res4e_branch2a_relu"
  type: "ReLU"
  bottom: "res4e_branch2a"
  top: "res4e_branch2a"
}
layer {
  name: "res4e_branch2b"
  type: "Convolution"
  bottom: "res4e_branch2a"
  top: "res4e_branch2b"
  convolution_param {
    num_output: 256
    bias_term: false
    pad: 1
    kernel_size: 3
    stride: 1
  }
}
layer {
  name: "bn4e_branch2b"
  type: "BatchNorm"
  bottom: "res4e_branch2b"
  top: "res4e_branch2b"
  batch_norm_param {
    use_global_stats: true
  }
}
layer {
  name: "scale4e_branch2b"
  type: "Scale"
  bottom: "res4e_branch2b"
  top: "res4e_branch2b"
  scale_param {
    bias_term: true
  }
}
layer {
  name: "res4e_branch2b_relu"
  type: "ReLU"
  bottom: "res4e_branch2b"
  top: "res4e_branch2b"
}
layer {
  name: "res4e_branch2c"
  type: "Convolution"
  bottom: "res4e_branch2b"
  top: "res4e_branch2c"
  convolution_param {
    num_output: 1024
    bias_term: false
    pad: 0
    kernel_size: 1
    stride: 1
  }
}
layer {
  name: "bn4e_branch2c"
  type: "BatchNorm"
  bottom: "res4e_branch2c"
  top: "res4e_branch2c"
  batch_norm_param {
    use_global_stats: true
  }
}
layer {
  name: "scale4e_branch2c"
  type: "Scale"
  bottom: "res4e_branch2c"
  top: "res4e_branch2c"
  scale_param {
    bias_term: true
  }
}
layer {
  name: "res4e"
  type: "Eltwise"
  bottom: "res4d"
  bottom: "res4e_branch2c"
  top: "res4e"
}
layer {
  name: "res4e_relu"
  type: "ReLU"
  bottom: "res4e"
  top: "res4e"
}
layer {
  name: "res4f_branch2a"
  type: "Convolution"
  bottom: "res4e"
  top: "res4f_branch2a"
  convolution_param {
    num_output: 256
    bias_term: false
    pad: 0
    kernel_size: 1
    stride: 1
  }
}
layer {
  name: "bn4f_branch2a"
  type: "BatchNorm"
  bottom: "res4f_branch2a"
  top: "res4f_branch2a"
  batch_norm_param {
    use_global_stats: true
  }
}
layer {
  name: "scale4f_branch2a"
  type: "Scale"
  bottom: "res4f_branch2a"
  top: "res4f_branch2a"
  scale_param {
    bias_term: true
  }
}
layer {
  name: "res4f_branch2a_relu"
  type: "ReLU"
  bottom: "res4f_branch2a"
  top: "res4f_branch2a"
}
layer {
  name: "res4f_branch2b"
  type: "Convolution"
  bottom: "res4f_branch2a"
  top: "res4f_branch2b"
  convolution_param {
    num_output: 256
    bias_term: false
    pad: 1
    kernel_size: 3
    stride: 1
  }
}
layer {
  name: "bn4f_branch2b"
  type: "BatchNorm"
  bottom: "res4f_branch2b"
  top: "res4f_branch2b"
  batch_norm_param {
    use_global_stats: true
  }
}
layer {
  name: "scale4f_branch2b"
  type: "Scale"
  bottom: "res4f_branch2b"
  top: "res4f_branch2b"
  scale_param {
    bias_term: true
  }
}
layer {
  name: "res4f_branch2b_relu"
  type: "ReLU"
  bottom: "res4f_branch2b"
  top: "res4f_branch2b"
}
layer {
  name: "res4f_branch2c"
  type: "Convolution"
  bottom: "res4f_branch2b"
  top: "res4f_branch2c"
  convolution_param {
    num_output: 1024
    bias_term: false
    pad: 0
    kernel_size: 1
    stride: 1
  }
}
layer {
  name: "bn4f_branch2c"
  type: "BatchNorm"
  bottom: "res4f_branch2c"
  top: "res4f_branch2c"
  batch_norm_param {
    use_global_stats: true
  }
}
layer {
  name: "scale4f_branch2c"
  type: "Scale"
  bottom: "res4f_branch2c"
  top: "res4f_branch2c"
  scale_param {
    bias_term: true
  }
}
layer {
  name: "res4f"
  type: "Eltwise"
  bottom: "res4e"
  bottom: "res4f_branch2c"
  top: "res4f"
}
layer {
  name: "res4f_relu"
  type: "ReLU"
  bottom: "res4f"
  top: "res4f"
}
layer {
  name: "res5a_branch1"
  type: "Convolution"
  bottom: "res4f"
  top: "res5a_branch1"
  convolution_param {
    num_output: 2048
    bias_term: false
    pad: 0
    kernel_size: 1
    stride: 2
  }
}
layer {
  name: "bn5a_branch1"
  type: "BatchNorm"
  bottom: "res5a_branch1"
  top: "res5a_branch1"
  batch_norm_param {
    use_global_stats: true
  }
}
layer {
  name: "scale5a_branch1"
  type: "Scale"
  bottom: "res5a_branch1"
  top: "res5a_branch1"
  scale_param {
    bias_term: true
  }
}
layer {
  name: "res5a_branch2a"
  type: "Convolution"
  bottom: "res4f"
  top: "res5a_branch2a"
  convolution_param {
    num_output: 512
    bias_term: false
    pad: 0
    kernel_size: 1
    stride: 2
  }
}
layer {
  name: "bn5a_branch2a"
  type: "BatchNorm"
  bottom: "res5a_branch2a"
  top: "res5a_branch2a"
  batch_norm_param {
    use_global_stats: true
  }
}
layer {
  name: "scale5a_branch2a"
  type: "Scale"
  bottom: "res5a_branch2a"
  top: "res5a_branch2a"
  scale_param {
    bias_term: true
  }
}
layer {
  name: "res5a_branch2a_relu"
  type: "ReLU"
  bottom: "res5a_branch2a"
  top: "res5a_branch2a"
}
layer {
  name: "res5a_branch2b"
  type: "Convolution"
  bottom: "res5a_branch2a"
  top: "res5a_branch2b"
  convolution_param {
    num_output: 512
    bias_term: false
    pad: 1
    kernel_size: 3
    stride: 1
  }
}
layer {
  name: "bn5a_branch2b"
  type: "BatchNorm"
  bottom: "res5a_branch2b"
  top: "res5a_branch2b"
  batch_norm_param {
    use_global_stats: true
  }
}
layer {
  name: "scale5a_branch2b"
  type: "Scale"
  bottom: "res5a_branch2b"
  top: "res5a_branch2b"
  scale_param {
    bias_term: true
  }
}
layer {
  name: "res5a_branch2b_relu"
  type: "ReLU"
  bottom: "res5a_branch2b"
  top: "res5a_branch2b"
}
layer {
  name: "res5a_branch2c"
  type: "Convolution"
  bottom: "res5a_branch2b"
  top: "res5a_branch2c"
  convolution_param {
    num_output: 2048
    bias_term: false
    pad: 0
    kernel_size: 1
    stride: 1
  }
}
layer {
  name: "bn5a_branch2c"
  type: "BatchNorm"
  bottom: "res5a_branch2c"
  top: "res5a_branch2c"
  batch_norm_param {
    use_global_stats: true
  }
}
I0202 21:27:06.256908 18286 layer_factory.hpp:77] Creating layer data
I0202 21:27:06.274987 18286 net.cpp:100] Creating Layer data
I0202 21:27:06.275022 18286 net.cpp:408] data -> data
I0202 21:27:06.275043 18286 net.cpp:408] data -> sem
I0202 21:27:06.275051 18286 net.cpp:408] data -> geo
I0202 21:27:06.294128 18286 net.cpp:150] Setting up data
I0202 21:27:06.294165 18286 net.cpp:157] Top shape: 1 3 256 256 (196608)
I0202 21:27:06.294173 18286 net.cpp:157] Top shape: 1 1 256 256 (65536)
I0202 21:27:06.294178 18286 net.cpp:157] Top shape: 1 1 256 256 (65536)
I0202 21:27:06.294181 18286 net.cpp:165] Memory required for data: 1310720
I0202 21:27:06.294190 18286 layer_factory.hpp:77] Creating layer data_data_0_split
I0202 21:27:06.294206 18286 net.cpp:100] Creating Layer data_data_0_split
I0202 21:27:06.294212 18286 net.cpp:434] data_data_0_split <- data
I0202 21:27:06.294222 18286 net.cpp:408] data_data_0_split -> data_data_0_split_0
I0202 21:27:06.294234 18286 net.cpp:408] data_data_0_split -> data_data_0_split_1
I0202 21:27:06.294247 18286 net.cpp:408] data_data_0_split -> data_data_0_split_2
I0202 21:27:06.294291 18286 net.cpp:150] Setting up data_data_0_split
I0202 21:27:06.294303 18286 net.cpp:157] Top shape: 1 3 256 256 (196608)
I0202 21:27:06.294313 18286 net.cpp:157] Top shape: 1 3 256 256 (196608)
I0202 21:27:06.294322 18286 net.cpp:157] Top shape: 1 3 256 256 (196608)
I0202 21:27:06.294329 18286 net.cpp:165] Memory required for data: 3670016
I0202 21:27:06.294337 18286 layer_factory.hpp:77] Creating layer conv1
I0202 21:27:06.294356 18286 net.cpp:100] Creating Layer conv1
I0202 21:27:06.294365 18286 net.cpp:434] conv1 <- data_data_0_split_0
I0202 21:27:06.294376 18286 net.cpp:408] conv1 -> conv1
I0202 21:27:06.457466 18286 net.cpp:150] Setting up conv1
I0202 21:27:06.457506 18286 net.cpp:157] Top shape: 1 64 128 128 (1048576)
I0202 21:27:06.457515 18286 net.cpp:165] Memory required for data: 7864320
I0202 21:27:06.457556 18286 layer_factory.hpp:77] Creating layer bn_conv1
I0202 21:27:06.457579 18286 net.cpp:100] Creating Layer bn_conv1
I0202 21:27:06.457595 18286 net.cpp:434] bn_conv1 <- conv1
I0202 21:27:06.457609 18286 net.cpp:395] bn_conv1 -> conv1 (in-place)
I0202 21:27:06.457806 18286 net.cpp:150] Setting up bn_conv1
I0202 21:27:06.457823 18286 net.cpp:157] Top shape: 1 64 128 128 (1048576)
I0202 21:27:06.457830 18286 net.cpp:165] Memory required for data: 12058624
I0202 21:27:06.457852 18286 layer_factory.hpp:77] Creating layer scale_conv1
I0202 21:27:06.457880 18286 net.cpp:100] Creating Layer scale_conv1
I0202 21:27:06.457891 18286 net.cpp:434] scale_conv1 <- conv1
I0202 21:27:06.457903 18286 net.cpp:395] scale_conv1 -> conv1 (in-place)
I0202 21:27:06.457957 18286 layer_factory.hpp:77] Creating layer scale_conv1
I0202 21:27:06.458101 18286 net.cpp:150] Setting up scale_conv1
I0202 21:27:06.458114 18286 net.cpp:157] Top shape: 1 64 128 128 (1048576)
I0202 21:27:06.458122 18286 net.cpp:165] Memory required for data: 16252928
I0202 21:27:06.458137 18286 layer_factory.hpp:77] Creating layer conv1_relu
I0202 21:27:06.458154 18286 net.cpp:100] Creating Layer conv1_relu
I0202 21:27:06.458164 18286 net.cpp:434] conv1_relu <- conv1
I0202 21:27:06.458175 18286 net.cpp:395] conv1_relu -> conv1 (in-place)
I0202 21:27:06.458353 18286 net.cpp:150] Setting up conv1_relu
I0202 21:27:06.458370 18286 net.cpp:157] Top shape: 1 64 128 128 (1048576)
I0202 21:27:06.458377 18286 net.cpp:165] Memory required for data: 20447232
I0202 21:27:06.458386 18286 layer_factory.hpp:77] Creating layer pool1
I0202 21:27:06.458400 18286 net.cpp:100] Creating Layer pool1
I0202 21:27:06.458407 18286 net.cpp:434] pool1 <- conv1
I0202 21:27:06.458420 18286 net.cpp:408] pool1 -> pool1
I0202 21:27:06.458472 18286 net.cpp:150] Setting up pool1
I0202 21:27:06.458485 18286 net.cpp:157] Top shape: 1 64 64 64 (262144)
I0202 21:27:06.458493 18286 net.cpp:165] Memory required for data: 21495808
I0202 21:27:06.458501 18286 layer_factory.hpp:77] Creating layer pool1_pool1_0_split
I0202 21:27:06.458513 18286 net.cpp:100] Creating Layer pool1_pool1_0_split
I0202 21:27:06.458520 18286 net.cpp:434] pool1_pool1_0_split <- pool1
I0202 21:27:06.458531 18286 net.cpp:408] pool1_pool1_0_split -> pool1_pool1_0_split_0
I0202 21:27:06.458547 18286 net.cpp:408] pool1_pool1_0_split -> pool1_pool1_0_split_1
I0202 21:27:06.458592 18286 net.cpp:150] Setting up pool1_pool1_0_split
I0202 21:27:06.458606 18286 net.cpp:157] Top shape: 1 64 64 64 (262144)
I0202 21:27:06.458616 18286 net.cpp:157] Top shape: 1 64 64 64 (262144)
I0202 21:27:06.458623 18286 net.cpp:165] Memory required for data: 23592960
I0202 21:27:06.458631 18286 layer_factory.hpp:77] Creating layer res2a_branch1
I0202 21:27:06.458648 18286 net.cpp:100] Creating Layer res2a_branch1
I0202 21:27:06.458658 18286 net.cpp:434] res2a_branch1 <- pool1_pool1_0_split_0
I0202 21:27:06.458670 18286 net.cpp:408] res2a_branch1 -> res2a_branch1
I0202 21:27:06.459678 18286 net.cpp:150] Setting up res2a_branch1
I0202 21:27:06.459707 18286 net.cpp:157] Top shape: 1 256 64 64 (1048576)
I0202 21:27:06.459714 18286 net.cpp:165] Memory required for data: 27787264
I0202 21:27:06.459738 18286 layer_factory.hpp:77] Creating layer bn2a_branch1
I0202 21:27:06.459751 18286 net.cpp:100] Creating Layer bn2a_branch1
I0202 21:27:06.459760 18286 net.cpp:434] bn2a_branch1 <- res2a_branch1
I0202 21:27:06.459772 18286 net.cpp:395] bn2a_branch1 -> res2a_branch1 (in-place)
I0202 21:27:06.460491 18286 net.cpp:150] Setting up bn2a_branch1
I0202 21:27:06.460511 18286 net.cpp:157] Top shape: 1 256 64 64 (1048576)
I0202 21:27:06.460520 18286 net.cpp:165] Memory required for data: 31981568
I0202 21:27:06.460556 18286 layer_factory.hpp:77] Creating layer scale2a_branch1
I0202 21:27:06.460575 18286 net.cpp:100] Creating Layer scale2a_branch1
I0202 21:27:06.460587 18286 net.cpp:434] scale2a_branch1 <- res2a_branch1
I0202 21:27:06.460598 18286 net.cpp:395] scale2a_branch1 -> res2a_branch1 (in-place)
I0202 21:27:06.460654 18286 layer_factory.hpp:77] Creating layer scale2a_branch1
I0202 21:27:06.460770 18286 net.cpp:150] Setting up scale2a_branch1
I0202 21:27:06.460784 18286 net.cpp:157] Top shape: 1 256 64 64 (1048576)
I0202 21:27:06.460793 18286 net.cpp:165] Memory required for data: 36175872
I0202 21:27:06.460806 18286 layer_factory.hpp:77] Creating layer res2a_branch2a
I0202 21:27:06.460822 18286 net.cpp:100] Creating Layer res2a_branch2a
I0202 21:27:06.460831 18286 net.cpp:434] res2a_branch2a <- pool1_pool1_0_split_1
I0202 21:27:06.460844 18286 net.cpp:408] res2a_branch2a -> res2a_branch2a
I0202 21:27:06.461828 18286 net.cpp:150] Setting up res2a_branch2a
I0202 21:27:06.461849 18286 net.cpp:157] Top shape: 1 64 64 64 (262144)
I0202 21:27:06.461858 18286 net.cpp:165] Memory required for data: 37224448
I0202 21:27:06.461880 18286 layer_factory.hpp:77] Creating layer bn2a_branch2a
I0202 21:27:06.461894 18286 net.cpp:100] Creating Layer bn2a_branch2a
I0202 21:27:06.461902 18286 net.cpp:434] bn2a_branch2a <- res2a_branch2a
I0202 21:27:06.461915 18286 net.cpp:395] bn2a_branch2a -> res2a_branch2a (in-place)
I0202 21:27:06.462101 18286 net.cpp:150] Setting up bn2a_branch2a
I0202 21:27:06.462117 18286 net.cpp:157] Top shape: 1 64 64 64 (262144)
I0202 21:27:06.462126 18286 net.cpp:165] Memory required for data: 38273024
I0202 21:27:06.462147 18286 layer_factory.hpp:77] Creating layer scale2a_branch2a
I0202 21:27:06.462162 18286 net.cpp:100] Creating Layer scale2a_branch2a
I0202 21:27:06.462172 18286 net.cpp:434] scale2a_branch2a <- res2a_branch2a
I0202 21:27:06.462193 18286 net.cpp:395] scale2a_branch2a -> res2a_branch2a (in-place)
I0202 21:27:06.462245 18286 layer_factory.hpp:77] Creating layer scale2a_branch2a
I0202 21:27:06.462375 18286 net.cpp:150] Setting up scale2a_branch2a
I0202 21:27:06.462389 18286 net.cpp:157] Top shape: 1 64 64 64 (262144)
I0202 21:27:06.462396 18286 net.cpp:165] Memory required for data: 39321600
I0202 21:27:06.462409 18286 layer_factory.hpp:77] Creating layer res2a_branch2a_relu
I0202 21:27:06.462421 18286 net.cpp:100] Creating Layer res2a_branch2a_relu
I0202 21:27:06.462430 18286 net.cpp:434] res2a_branch2a_relu <- res2a_branch2a
I0202 21:27:06.462440 18286 net.cpp:395] res2a_branch2a_relu -> res2a_branch2a (in-place)
I0202 21:27:06.462769 18286 net.cpp:150] Setting up res2a_branch2a_relu
I0202 21:27:06.462787 18286 net.cpp:157] Top shape: 1 64 64 64 (262144)
I0202 21:27:06.462795 18286 net.cpp:165] Memory required for data: 40370176
I0202 21:27:06.462803 18286 layer_factory.hpp:77] Creating layer res2a_branch2b
I0202 21:27:06.462821 18286 net.cpp:100] Creating Layer res2a_branch2b
I0202 21:27:06.462833 18286 net.cpp:434] res2a_branch2b <- res2a_branch2a
I0202 21:27:06.462846 18286 net.cpp:408] res2a_branch2b -> res2a_branch2b
I0202 21:27:06.464282 18286 net.cpp:150] Setting up res2a_branch2b
I0202 21:27:06.464303 18286 net.cpp:157] Top shape: 1 64 64 64 (262144)
I0202 21:27:06.464311 18286 net.cpp:165] Memory required for data: 41418752
I0202 21:27:06.464334 18286 layer_factory.hpp:77] Creating layer bn2a_branch2b
I0202 21:27:06.464354 18286 net.cpp:100] Creating Layer bn2a_branch2b
I0202 21:27:06.464366 18286 net.cpp:434] bn2a_branch2b <- res2a_branch2b
I0202 21:27:06.464380 18286 net.cpp:395] bn2a_branch2b -> res2a_branch2b (in-place)
I0202 21:27:06.464581 18286 net.cpp:150] Setting up bn2a_branch2b
I0202 21:27:06.464593 18286 net.cpp:157] Top shape: 1 64 64 64 (262144)
I0202 21:27:06.464601 18286 net.cpp:165] Memory required for data: 42467328
I0202 21:27:06.464617 18286 layer_factory.hpp:77] Creating layer scale2a_branch2b
I0202 21:27:06.464635 18286 net.cpp:100] Creating Layer scale2a_branch2b
I0202 21:27:06.464645 18286 net.cpp:434] scale2a_branch2b <- res2a_branch2b
I0202 21:27:06.464656 18286 net.cpp:395] scale2a_branch2b -> res2a_branch2b (in-place)
I0202 21:27:06.464709 18286 layer_factory.hpp:77] Creating layer scale2a_branch2b
I0202 21:27:06.464838 18286 net.cpp:150] Setting up scale2a_branch2b
I0202 21:27:06.464854 18286 net.cpp:157] Top shape: 1 64 64 64 (262144)
I0202 21:27:06.464860 18286 net.cpp:165] Memory required for data: 43515904
I0202 21:27:06.464874 18286 layer_factory.hpp:77] Creating layer res2a_branch2b_relu
I0202 21:27:06.464889 18286 net.cpp:100] Creating Layer res2a_branch2b_relu
I0202 21:27:06.464900 18286 net.cpp:434] res2a_branch2b_relu <- res2a_branch2b
I0202 21:27:06.464910 18286 net.cpp:395] res2a_branch2b_relu -> res2a_branch2b (in-place)
I0202 21:27:06.465241 18286 net.cpp:150] Setting up res2a_branch2b_relu
I0202 21:27:06.465260 18286 net.cpp:157] Top shape: 1 64 64 64 (262144)
I0202 21:27:06.465267 18286 net.cpp:165] Memory required for data: 44564480
I0202 21:27:06.465276 18286 layer_factory.hpp:77] Creating layer res2a_branch2c
I0202 21:27:06.465296 18286 net.cpp:100] Creating Layer res2a_branch2c
I0202 21:27:06.465307 18286 net.cpp:434] res2a_branch2c <- res2a_branch2b
I0202 21:27:06.465322 18286 net.cpp:408] res2a_branch2c -> res2a_branch2c
I0202 21:27:06.466311 18286 net.cpp:150] Setting up res2a_branch2c
I0202 21:27:06.466333 18286 net.cpp:157] Top shape: 1 256 64 64 (1048576)
I0202 21:27:06.466342 18286 net.cpp:165] Memory required for data: 48758784
I0202 21:27:06.466354 18286 layer_factory.hpp:77] Creating layer bn2a_branch2c
I0202 21:27:06.466367 18286 net.cpp:100] Creating Layer bn2a_branch2c
I0202 21:27:06.466378 18286 net.cpp:434] bn2a_branch2c <- res2a_branch2c
I0202 21:27:06.466390 18286 net.cpp:395] bn2a_branch2c -> res2a_branch2c (in-place)
I0202 21:27:06.466578 18286 net.cpp:150] Setting up bn2a_branch2c
I0202 21:27:06.466591 18286 net.cpp:157] Top shape: 1 256 64 64 (1048576)
I0202 21:27:06.466598 18286 net.cpp:165] Memory required for data: 52953088
I0202 21:27:06.466614 18286 layer_factory.hpp:77] Creating layer scale2a_branch2c
I0202 21:27:06.466630 18286 net.cpp:100] Creating Layer scale2a_branch2c
I0202 21:27:06.466640 18286 net.cpp:434] scale2a_branch2c <- res2a_branch2c
I0202 21:27:06.466652 18286 net.cpp:395] scale2a_branch2c -> res2a_branch2c (in-place)
I0202 21:27:06.466704 18286 layer_factory.hpp:77] Creating layer scale2a_branch2c
I0202 21:27:06.466821 18286 net.cpp:150] Setting up scale2a_branch2c
I0202 21:27:06.466835 18286 net.cpp:157] Top shape: 1 256 64 64 (1048576)
I0202 21:27:06.466842 18286 net.cpp:165] Memory required for data: 57147392
I0202 21:27:06.466855 18286 layer_factory.hpp:77] Creating layer res2a
I0202 21:27:06.466867 18286 net.cpp:100] Creating Layer res2a
I0202 21:27:06.466877 18286 net.cpp:434] res2a <- res2a_branch1
I0202 21:27:06.466888 18286 net.cpp:434] res2a <- res2a_branch2c
I0202 21:27:06.466902 18286 net.cpp:408] res2a -> res2a
I0202 21:27:06.466944 18286 net.cpp:150] Setting up res2a
I0202 21:27:06.466956 18286 net.cpp:157] Top shape: 1 256 64 64 (1048576)
I0202 21:27:06.466964 18286 net.cpp:165] Memory required for data: 61341696
I0202 21:27:06.466972 18286 layer_factory.hpp:77] Creating layer res2a_relu
I0202 21:27:06.466984 18286 net.cpp:100] Creating Layer res2a_relu
I0202 21:27:06.466990 18286 net.cpp:434] res2a_relu <- res2a
I0202 21:27:06.467000 18286 net.cpp:395] res2a_relu -> res2a (in-place)
I0202 21:27:06.467188 18286 net.cpp:150] Setting up res2a_relu
I0202 21:27:06.467207 18286 net.cpp:157] Top shape: 1 256 64 64 (1048576)
I0202 21:27:06.467216 18286 net.cpp:165] Memory required for data: 65536000
I0202 21:27:06.467223 18286 layer_factory.hpp:77] Creating layer res2a_res2a_relu_0_split
I0202 21:27:06.467234 18286 net.cpp:100] Creating Layer res2a_res2a_relu_0_split
I0202 21:27:06.467242 18286 net.cpp:434] res2a_res2a_relu_0_split <- res2a
I0202 21:27:06.467253 18286 net.cpp:408] res2a_res2a_relu_0_split -> res2a_res2a_relu_0_split_0
I0202 21:27:06.467267 18286 net.cpp:408] res2a_res2a_relu_0_split -> res2a_res2a_relu_0_split_1
I0202 21:27:06.467321 18286 net.cpp:150] Setting up res2a_res2a_relu_0_split
I0202 21:27:06.467334 18286 net.cpp:157] Top shape: 1 256 64 64 (1048576)
I0202 21:27:06.467344 18286 net.cpp:157] Top shape: 1 256 64 64 (1048576)
I0202 21:27:06.467352 18286 net.cpp:165] Memory required for data: 73924608
I0202 21:27:06.467360 18286 layer_factory.hpp:77] Creating layer res2b_branch2a
I0202 21:27:06.467376 18286 net.cpp:100] Creating Layer res2b_branch2a
I0202 21:27:06.467386 18286 net.cpp:434] res2b_branch2a <- res2a_res2a_relu_0_split_0
I0202 21:27:06.467401 18286 net.cpp:408] res2b_branch2a -> res2b_branch2a
I0202 21:27:06.468389 18286 net.cpp:150] Setting up res2b_branch2a
I0202 21:27:06.468408 18286 net.cpp:157] Top shape: 1 64 64 64 (262144)
I0202 21:27:06.468416 18286 net.cpp:165] Memory required for data: 74973184
I0202 21:27:06.468427 18286 layer_factory.hpp:77] Creating layer bn2b_branch2a
I0202 21:27:06.468446 18286 net.cpp:100] Creating Layer bn2b_branch2a
I0202 21:27:06.468456 18286 net.cpp:434] bn2b_branch2a <- res2b_branch2a
I0202 21:27:06.468467 18286 net.cpp:395] bn2b_branch2a -> res2b_branch2a (in-place)
I0202 21:27:06.468663 18286 net.cpp:150] Setting up bn2b_branch2a
I0202 21:27:06.468677 18286 net.cpp:157] Top shape: 1 64 64 64 (262144)
I0202 21:27:06.468684 18286 net.cpp:165] Memory required for data: 76021760
I0202 21:27:06.468708 18286 layer_factory.hpp:77] Creating layer scale2b_branch2a
I0202 21:27:06.468722 18286 net.cpp:100] Creating Layer scale2b_branch2a
I0202 21:27:06.468730 18286 net.cpp:434] scale2b_branch2a <- res2b_branch2a
I0202 21:27:06.468762 18286 net.cpp:395] scale2b_branch2a -> res2b_branch2a (in-place)
I0202 21:27:06.468823 18286 layer_factory.hpp:77] Creating layer scale2b_branch2a
I0202 21:27:06.468950 18286 net.cpp:150] Setting up scale2b_branch2a
I0202 21:27:06.468964 18286 net.cpp:157] Top shape: 1 64 64 64 (262144)
I0202 21:27:06.468972 18286 net.cpp:165] Memory required for data: 77070336
I0202 21:27:06.468986 18286 layer_factory.hpp:77] Creating layer res2b_branch2a_relu
I0202 21:27:06.468997 18286 net.cpp:100] Creating Layer res2b_branch2a_relu
I0202 21:27:06.469007 18286 net.cpp:434] res2b_branch2a_relu <- res2b_branch2a
I0202 21:27:06.469018 18286 net.cpp:395] res2b_branch2a_relu -> res2b_branch2a (in-place)
I0202 21:27:06.469349 18286 net.cpp:150] Setting up res2b_branch2a_relu
I0202 21:27:06.469367 18286 net.cpp:157] Top shape: 1 64 64 64 (262144)
I0202 21:27:06.469375 18286 net.cpp:165] Memory required for data: 78118912
I0202 21:27:06.469383 18286 layer_factory.hpp:77] Creating layer res2b_branch2b
I0202 21:27:06.469400 18286 net.cpp:100] Creating Layer res2b_branch2b
I0202 21:27:06.469409 18286 net.cpp:434] res2b_branch2b <- res2b_branch2a
I0202 21:27:06.469421 18286 net.cpp:408] res2b_branch2b -> res2b_branch2b
I0202 21:27:06.470320 18286 net.cpp:150] Setting up res2b_branch2b
I0202 21:27:06.470340 18286 net.cpp:157] Top shape: 1 64 64 64 (262144)
I0202 21:27:06.470347 18286 net.cpp:165] Memory required for data: 79167488
I0202 21:27:06.470369 18286 layer_factory.hpp:77] Creating layer bn2b_branch2b
I0202 21:27:06.470384 18286 net.cpp:100] Creating Layer bn2b_branch2b
I0202 21:27:06.470393 18286 net.cpp:434] bn2b_branch2b <- res2b_branch2b
I0202 21:27:06.470405 18286 net.cpp:395] bn2b_branch2b -> res2b_branch2b (in-place)
I0202 21:27:06.470607 18286 net.cpp:150] Setting up bn2b_branch2b
I0202 21:27:06.470620 18286 net.cpp:157] Top shape: 1 64 64 64 (262144)
I0202 21:27:06.470628 18286 net.cpp:165] Memory required for data: 80216064
I0202 21:27:06.470644 18286 layer_factory.hpp:77] Creating layer scale2b_branch2b
I0202 21:27:06.470659 18286 net.cpp:100] Creating Layer scale2b_branch2b
I0202 21:27:06.470669 18286 net.cpp:434] scale2b_branch2b <- res2b_branch2b
I0202 21:27:06.470680 18286 net.cpp:395] scale2b_branch2b -> res2b_branch2b (in-place)
I0202 21:27:06.470732 18286 layer_factory.hpp:77] Creating layer scale2b_branch2b
I0202 21:27:06.470856 18286 net.cpp:150] Setting up scale2b_branch2b
I0202 21:27:06.470870 18286 net.cpp:157] Top shape: 1 64 64 64 (262144)
I0202 21:27:06.470877 18286 net.cpp:165] Memory required for data: 81264640
I0202 21:27:06.470890 18286 layer_factory.hpp:77] Creating layer res2b_branch2b_relu
I0202 21:27:06.470908 18286 net.cpp:100] Creating Layer res2b_branch2b_relu
I0202 21:27:06.470918 18286 net.cpp:434] res2b_branch2b_relu <- res2b_branch2b
I0202 21:27:06.470929 18286 net.cpp:395] res2b_branch2b_relu -> res2b_branch2b (in-place)
I0202 21:27:06.471261 18286 net.cpp:150] Setting up res2b_branch2b_relu
I0202 21:27:06.471282 18286 net.cpp:157] Top shape: 1 64 64 64 (262144)
I0202 21:27:06.471290 18286 net.cpp:165] Memory required for data: 82313216
I0202 21:27:06.471298 18286 layer_factory.hpp:77] Creating layer res2b_branch2c
I0202 21:27:06.471312 18286 net.cpp:100] Creating Layer res2b_branch2c
I0202 21:27:06.471321 18286 net.cpp:434] res2b_branch2c <- res2b_branch2b
I0202 21:27:06.471338 18286 net.cpp:408] res2b_branch2c -> res2b_branch2c
I0202 21:27:06.472347 18286 net.cpp:150] Setting up res2b_branch2c
I0202 21:27:06.472364 18286 net.cpp:157] Top shape: 1 256 64 64 (1048576)
I0202 21:27:06.472373 18286 net.cpp:165] Memory required for data: 86507520
I0202 21:27:06.472395 18286 layer_factory.hpp:77] Creating layer bn2b_branch2c
I0202 21:27:06.472410 18286 net.cpp:100] Creating Layer bn2b_branch2c
I0202 21:27:06.472419 18286 net.cpp:434] bn2b_branch2c <- res2b_branch2c
I0202 21:27:06.472434 18286 net.cpp:395] bn2b_branch2c -> res2b_branch2c (in-place)
I0202 21:27:06.472623 18286 net.cpp:150] Setting up bn2b_branch2c
I0202 21:27:06.472637 18286 net.cpp:157] Top shape: 1 256 64 64 (1048576)
I0202 21:27:06.472645 18286 net.cpp:165] Memory required for data: 90701824
I0202 21:27:06.472661 18286 layer_factory.hpp:77] Creating layer scale2b_branch2c
I0202 21:27:06.472674 18286 net.cpp:100] Creating Layer scale2b_branch2c
I0202 21:27:06.472685 18286 net.cpp:434] scale2b_branch2c <- res2b_branch2c
I0202 21:27:06.472700 18286 net.cpp:395] scale2b_branch2c -> res2b_branch2c (in-place)
I0202 21:27:06.472761 18286 layer_factory.hpp:77] Creating layer scale2b_branch2c
I0202 21:27:06.472880 18286 net.cpp:150] Setting up scale2b_branch2c
I0202 21:27:06.472893 18286 net.cpp:157] Top shape: 1 256 64 64 (1048576)
I0202 21:27:06.472901 18286 net.cpp:165] Memory required for data: 94896128
I0202 21:27:06.472913 18286 layer_factory.hpp:77] Creating layer res2b
I0202 21:27:06.472928 18286 net.cpp:100] Creating Layer res2b
I0202 21:27:06.472939 18286 net.cpp:434] res2b <- res2a_res2a_relu_0_split_1
I0202 21:27:06.472949 18286 net.cpp:434] res2b <- res2b_branch2c
I0202 21:27:06.472959 18286 net.cpp:408] res2b -> res2b
I0202 21:27:06.472996 18286 net.cpp:150] Setting up res2b
I0202 21:27:06.473009 18286 net.cpp:157] Top shape: 1 256 64 64 (1048576)
I0202 21:27:06.473017 18286 net.cpp:165] Memory required for data: 99090432
I0202 21:27:06.473024 18286 layer_factory.hpp:77] Creating layer res2b_relu
I0202 21:27:06.473036 18286 net.cpp:100] Creating Layer res2b_relu
I0202 21:27:06.473043 18286 net.cpp:434] res2b_relu <- res2b
I0202 21:27:06.473055 18286 net.cpp:395] res2b_relu -> res2b (in-place)
I0202 21:27:06.473240 18286 net.cpp:150] Setting up res2b_relu
I0202 21:27:06.473256 18286 net.cpp:157] Top shape: 1 256 64 64 (1048576)
I0202 21:27:06.473263 18286 net.cpp:165] Memory required for data: 103284736
I0202 21:27:06.473271 18286 layer_factory.hpp:77] Creating layer res2b_res2b_relu_0_split
I0202 21:27:06.473285 18286 net.cpp:100] Creating Layer res2b_res2b_relu_0_split
I0202 21:27:06.473294 18286 net.cpp:434] res2b_res2b_relu_0_split <- res2b
I0202 21:27:06.473305 18286 net.cpp:408] res2b_res2b_relu_0_split -> res2b_res2b_relu_0_split_0
I0202 21:27:06.473321 18286 net.cpp:408] res2b_res2b_relu_0_split -> res2b_res2b_relu_0_split_1
I0202 21:27:06.473374 18286 net.cpp:150] Setting up res2b_res2b_relu_0_split
I0202 21:27:06.473387 18286 net.cpp:157] Top shape: 1 256 64 64 (1048576)
I0202 21:27:06.473397 18286 net.cpp:157] Top shape: 1 256 64 64 (1048576)
I0202 21:27:06.473404 18286 net.cpp:165] Memory required for data: 111673344
I0202 21:27:06.473412 18286 layer_factory.hpp:77] Creating layer res2c_branch2a
I0202 21:27:06.473428 18286 net.cpp:100] Creating Layer res2c_branch2a
I0202 21:27:06.473438 18286 net.cpp:434] res2c_branch2a <- res2b_res2b_relu_0_split_0
I0202 21:27:06.473450 18286 net.cpp:408] res2c_branch2a -> res2c_branch2a
I0202 21:27:06.474617 18286 net.cpp:150] Setting up res2c_branch2a
I0202 21:27:06.474635 18286 net.cpp:157] Top shape: 1 64 64 64 (262144)
I0202 21:27:06.474644 18286 net.cpp:165] Memory required for data: 112721920
I0202 21:27:06.474655 18286 layer_factory.hpp:77] Creating layer bn2c_branch2a
I0202 21:27:06.474670 18286 net.cpp:100] Creating Layer bn2c_branch2a
I0202 21:27:06.474680 18286 net.cpp:434] bn2c_branch2a <- res2c_branch2a
I0202 21:27:06.474691 18286 net.cpp:395] bn2c_branch2a -> res2c_branch2a (in-place)
I0202 21:27:06.474895 18286 net.cpp:150] Setting up bn2c_branch2a
I0202 21:27:06.474908 18286 net.cpp:157] Top shape: 1 64 64 64 (262144)
I0202 21:27:06.474916 18286 net.cpp:165] Memory required for data: 113770496
I0202 21:27:06.474931 18286 layer_factory.hpp:77] Creating layer scale2c_branch2a
I0202 21:27:06.474944 18286 net.cpp:100] Creating Layer scale2c_branch2a
I0202 21:27:06.474954 18286 net.cpp:434] scale2c_branch2a <- res2c_branch2a
I0202 21:27:06.474972 18286 net.cpp:395] scale2c_branch2a -> res2c_branch2a (in-place)
I0202 21:27:06.475024 18286 layer_factory.hpp:77] Creating layer scale2c_branch2a
I0202 21:27:06.475155 18286 net.cpp:150] Setting up scale2c_branch2a
I0202 21:27:06.475169 18286 net.cpp:157] Top shape: 1 64 64 64 (262144)
I0202 21:27:06.475177 18286 net.cpp:165] Memory required for data: 114819072
I0202 21:27:06.475189 18286 layer_factory.hpp:77] Creating layer res2c_branch2a_relu
I0202 21:27:06.475200 18286 net.cpp:100] Creating Layer res2c_branch2a_relu
I0202 21:27:06.475208 18286 net.cpp:434] res2c_branch2a_relu <- res2c_branch2a
I0202 21:27:06.475219 18286 net.cpp:395] res2c_branch2a_relu -> res2c_branch2a (in-place)
I0202 21:27:06.475540 18286 net.cpp:150] Setting up res2c_branch2a_relu
I0202 21:27:06.475558 18286 net.cpp:157] Top shape: 1 64 64 64 (262144)
I0202 21:27:06.475566 18286 net.cpp:165] Memory required for data: 115867648
I0202 21:27:06.475574 18286 layer_factory.hpp:77] Creating layer res2c_branch2b
I0202 21:27:06.475591 18286 net.cpp:100] Creating Layer res2c_branch2b
I0202 21:27:06.475600 18286 net.cpp:434] res2c_branch2b <- res2c_branch2a
I0202 21:27:06.475613 18286 net.cpp:408] res2c_branch2b -> res2c_branch2b
I0202 21:27:06.476505 18286 net.cpp:150] Setting up res2c_branch2b
I0202 21:27:06.476523 18286 net.cpp:157] Top shape: 1 64 64 64 (262144)
I0202 21:27:06.476531 18286 net.cpp:165] Memory required for data: 116916224
I0202 21:27:06.476554 18286 layer_factory.hpp:77] Creating layer bn2c_branch2b
I0202 21:27:06.476567 18286 net.cpp:100] Creating Layer bn2c_branch2b
I0202 21:27:06.476575 18286 net.cpp:434] bn2c_branch2b <- res2c_branch2b
I0202 21:27:06.476589 18286 net.cpp:395] bn2c_branch2b -> res2c_branch2b (in-place)
I0202 21:27:06.476802 18286 net.cpp:150] Setting up bn2c_branch2b
I0202 21:27:06.476817 18286 net.cpp:157] Top shape: 1 64 64 64 (262144)
I0202 21:27:06.476824 18286 net.cpp:165] Memory required for data: 117964800
I0202 21:27:06.476840 18286 layer_factory.hpp:77] Creating layer scale2c_branch2b
I0202 21:27:06.476856 18286 net.cpp:100] Creating Layer scale2c_branch2b
I0202 21:27:06.476866 18286 net.cpp:434] scale2c_branch2b <- res2c_branch2b
I0202 21:27:06.476881 18286 net.cpp:395] scale2c_branch2b -> res2c_branch2b (in-place)
I0202 21:27:06.476934 18286 layer_factory.hpp:77] Creating layer scale2c_branch2b
I0202 21:27:06.477061 18286 net.cpp:150] Setting up scale2c_branch2b
I0202 21:27:06.477073 18286 net.cpp:157] Top shape: 1 64 64 64 (262144)
I0202 21:27:06.477082 18286 net.cpp:165] Memory required for data: 119013376
I0202 21:27:06.477094 18286 layer_factory.hpp:77] Creating layer res2c_branch2b_relu
I0202 21:27:06.477105 18286 net.cpp:100] Creating Layer res2c_branch2b_relu
I0202 21:27:06.477113 18286 net.cpp:434] res2c_branch2b_relu <- res2c_branch2b
I0202 21:27:06.477123 18286 net.cpp:395] res2c_branch2b_relu -> res2c_branch2b (in-place)
I0202 21:27:06.477455 18286 net.cpp:150] Setting up res2c_branch2b_relu
I0202 21:27:06.477473 18286 net.cpp:157] Top shape: 1 64 64 64 (262144)
I0202 21:27:06.477481 18286 net.cpp:165] Memory required for data: 120061952
I0202 21:27:06.477489 18286 layer_factory.hpp:77] Creating layer res2c_branch2c
I0202 21:27:06.477506 18286 net.cpp:100] Creating Layer res2c_branch2c
I0202 21:27:06.477515 18286 net.cpp:434] res2c_branch2c <- res2c_branch2b
I0202 21:27:06.477529 18286 net.cpp:408] res2c_branch2c -> res2c_branch2c
I0202 21:27:06.478538 18286 net.cpp:150] Setting up res2c_branch2c
I0202 21:27:06.478556 18286 net.cpp:157] Top shape: 1 256 64 64 (1048576)
I0202 21:27:06.478564 18286 net.cpp:165] Memory required for data: 124256256
I0202 21:27:06.478587 18286 layer_factory.hpp:77] Creating layer bn2c_branch2c
I0202 21:27:06.478601 18286 net.cpp:100] Creating Layer bn2c_branch2c
I0202 21:27:06.478611 18286 net.cpp:434] bn2c_branch2c <- res2c_branch2c
I0202 21:27:06.478623 18286 net.cpp:395] bn2c_branch2c -> res2c_branch2c (in-place)
I0202 21:27:06.478816 18286 net.cpp:150] Setting up bn2c_branch2c
I0202 21:27:06.478829 18286 net.cpp:157] Top shape: 1 256 64 64 (1048576)
I0202 21:27:06.478837 18286 net.cpp:165] Memory required for data: 128450560
I0202 21:27:06.478868 18286 layer_factory.hpp:77] Creating layer scale2c_branch2c
I0202 21:27:06.478883 18286 net.cpp:100] Creating Layer scale2c_branch2c
I0202 21:27:06.478893 18286 net.cpp:434] scale2c_branch2c <- res2c_branch2c
I0202 21:27:06.478904 18286 net.cpp:395] scale2c_branch2c -> res2c_branch2c (in-place)
I0202 21:27:06.478955 18286 layer_factory.hpp:77] Creating layer scale2c_branch2c
I0202 21:27:06.479075 18286 net.cpp:150] Setting up scale2c_branch2c
I0202 21:27:06.479089 18286 net.cpp:157] Top shape: 1 256 64 64 (1048576)
I0202 21:27:06.479095 18286 net.cpp:165] Memory required for data: 132644864
I0202 21:27:06.479109 18286 layer_factory.hpp:77] Creating layer res2c
I0202 21:27:06.479122 18286 net.cpp:100] Creating Layer res2c
I0202 21:27:06.479133 18286 net.cpp:434] res2c <- res2b_res2b_relu_0_split_1
I0202 21:27:06.479145 18286 net.cpp:434] res2c <- res2c_branch2c
I0202 21:27:06.479156 18286 net.cpp:408] res2c -> res2c
I0202 21:27:06.479194 18286 net.cpp:150] Setting up res2c
I0202 21:27:06.479207 18286 net.cpp:157] Top shape: 1 256 64 64 (1048576)
I0202 21:27:06.479214 18286 net.cpp:165] Memory required for data: 136839168
I0202 21:27:06.479221 18286 layer_factory.hpp:77] Creating layer res2c_relu
I0202 21:27:06.479233 18286 net.cpp:100] Creating Layer res2c_relu
I0202 21:27:06.479240 18286 net.cpp:434] res2c_relu <- res2c
I0202 21:27:06.479251 18286 net.cpp:395] res2c_relu -> res2c (in-place)
I0202 21:27:06.479440 18286 net.cpp:150] Setting up res2c_relu
I0202 21:27:06.479456 18286 net.cpp:157] Top shape: 1 256 64 64 (1048576)
I0202 21:27:06.479463 18286 net.cpp:165] Memory required for data: 141033472
I0202 21:27:06.479471 18286 layer_factory.hpp:77] Creating layer res2c_res2c_relu_0_split
I0202 21:27:06.479485 18286 net.cpp:100] Creating Layer res2c_res2c_relu_0_split
I0202 21:27:06.479493 18286 net.cpp:434] res2c_res2c_relu_0_split <- res2c
I0202 21:27:06.479504 18286 net.cpp:408] res2c_res2c_relu_0_split -> res2c_res2c_relu_0_split_0
I0202 21:27:06.479521 18286 net.cpp:408] res2c_res2c_relu_0_split -> res2c_res2c_relu_0_split_1
I0202 21:27:06.479573 18286 net.cpp:150] Setting up res2c_res2c_relu_0_split
I0202 21:27:06.479585 18286 net.cpp:157] Top shape: 1 256 64 64 (1048576)
I0202 21:27:06.479595 18286 net.cpp:157] Top shape: 1 256 64 64 (1048576)
I0202 21:27:06.479602 18286 net.cpp:165] Memory required for data: 149422080
I0202 21:27:06.479610 18286 layer_factory.hpp:77] Creating layer res3a_branch1
I0202 21:27:06.479625 18286 net.cpp:100] Creating Layer res3a_branch1
I0202 21:27:06.479635 18286 net.cpp:434] res3a_branch1 <- res2c_res2c_relu_0_split_0
I0202 21:27:06.479647 18286 net.cpp:408] res3a_branch1 -> res3a_branch1
I0202 21:27:06.481374 18286 net.cpp:150] Setting up res3a_branch1
I0202 21:27:06.481397 18286 net.cpp:157] Top shape: 1 512 32 32 (524288)
I0202 21:27:06.481406 18286 net.cpp:165] Memory required for data: 151519232
I0202 21:27:06.481418 18286 layer_factory.hpp:77] Creating layer bn3a_branch1
I0202 21:27:06.481431 18286 net.cpp:100] Creating Layer bn3a_branch1
I0202 21:27:06.481439 18286 net.cpp:434] bn3a_branch1 <- res3a_branch1
I0202 21:27:06.481454 18286 net.cpp:395] bn3a_branch1 -> res3a_branch1 (in-place)
I0202 21:27:06.482123 18286 net.cpp:150] Setting up bn3a_branch1
I0202 21:27:06.482141 18286 net.cpp:157] Top shape: 1 512 32 32 (524288)
I0202 21:27:06.482149 18286 net.cpp:165] Memory required for data: 153616384
I0202 21:27:06.482166 18286 layer_factory.hpp:77] Creating layer scale3a_branch1
I0202 21:27:06.482179 18286 net.cpp:100] Creating Layer scale3a_branch1
I0202 21:27:06.482187 18286 net.cpp:434] scale3a_branch1 <- res3a_branch1
I0202 21:27:06.482201 18286 net.cpp:395] scale3a_branch1 -> res3a_branch1 (in-place)
I0202 21:27:06.482250 18286 layer_factory.hpp:77] Creating layer scale3a_branch1
I0202 21:27:06.482372 18286 net.cpp:150] Setting up scale3a_branch1
I0202 21:27:06.482386 18286 net.cpp:157] Top shape: 1 512 32 32 (524288)
I0202 21:27:06.482393 18286 net.cpp:165] Memory required for data: 155713536
I0202 21:27:06.482406 18286 layer_factory.hpp:77] Creating layer res3a_branch2a
I0202 21:27:06.482424 18286 net.cpp:100] Creating Layer res3a_branch2a
I0202 21:27:06.482435 18286 net.cpp:434] res3a_branch2a <- res2c_res2c_relu_0_split_1
I0202 21:27:06.482450 18286 net.cpp:408] res3a_branch2a -> res3a_branch2a
I0202 21:27:06.483527 18286 net.cpp:150] Setting up res3a_branch2a
I0202 21:27:06.483546 18286 net.cpp:157] Top shape: 1 128 32 32 (131072)
I0202 21:27:06.483554 18286 net.cpp:165] Memory required for data: 156237824
I0202 21:27:06.483577 18286 layer_factory.hpp:77] Creating layer bn3a_branch2a
I0202 21:27:06.483593 18286 net.cpp:100] Creating Layer bn3a_branch2a
I0202 21:27:06.483603 18286 net.cpp:434] bn3a_branch2a <- res3a_branch2a
I0202 21:27:06.483614 18286 net.cpp:395] bn3a_branch2a -> res3a_branch2a (in-place)
I0202 21:27:06.483809 18286 net.cpp:150] Setting up bn3a_branch2a
I0202 21:27:06.483824 18286 net.cpp:157] Top shape: 1 128 32 32 (131072)
I0202 21:27:06.483831 18286 net.cpp:165] Memory required for data: 156762112
I0202 21:27:06.483847 18286 layer_factory.hpp:77] Creating layer scale3a_branch2a
I0202 21:27:06.483861 18286 net.cpp:100] Creating Layer scale3a_branch2a
I0202 21:27:06.483873 18286 net.cpp:434] scale3a_branch2a <- res3a_branch2a
I0202 21:27:06.483887 18286 net.cpp:395] scale3a_branch2a -> res3a_branch2a (in-place)
I0202 21:27:06.483940 18286 layer_factory.hpp:77] Creating layer scale3a_branch2a
I0202 21:27:06.484056 18286 net.cpp:150] Setting up scale3a_branch2a
I0202 21:27:06.484069 18286 net.cpp:157] Top shape: 1 128 32 32 (131072)
I0202 21:27:06.484077 18286 net.cpp:165] Memory required for data: 157286400
I0202 21:27:06.484091 18286 layer_factory.hpp:77] Creating layer res3a_branch2a_relu
I0202 21:27:06.484102 18286 net.cpp:100] Creating Layer res3a_branch2a_relu
I0202 21:27:06.484109 18286 net.cpp:434] res3a_branch2a_relu <- res3a_branch2a
I0202 21:27:06.484122 18286 net.cpp:395] res3a_branch2a_relu -> res3a_branch2a (in-place)
I0202 21:27:06.484313 18286 net.cpp:150] Setting up res3a_branch2a_relu
I0202 21:27:06.484329 18286 net.cpp:157] Top shape: 1 128 32 32 (131072)
I0202 21:27:06.484336 18286 net.cpp:165] Memory required for data: 157810688
I0202 21:27:06.484344 18286 layer_factory.hpp:77] Creating layer res3a_branch2b
I0202 21:27:06.484360 18286 net.cpp:100] Creating Layer res3a_branch2b
I0202 21:27:06.484369 18286 net.cpp:434] res3a_branch2b <- res3a_branch2a
I0202 21:27:06.484385 18286 net.cpp:408] res3a_branch2b -> res3a_branch2b
I0202 21:27:06.485962 18286 net.cpp:150] Setting up res3a_branch2b
I0202 21:27:06.485982 18286 net.cpp:157] Top shape: 1 128 32 32 (131072)
I0202 21:27:06.485991 18286 net.cpp:165] Memory required for data: 158334976
I0202 21:27:06.486012 18286 layer_factory.hpp:77] Creating layer bn3a_branch2b
I0202 21:27:06.486024 18286 net.cpp:100] Creating Layer bn3a_branch2b
I0202 21:27:06.486033 18286 net.cpp:434] bn3a_branch2b <- res3a_branch2b
I0202 21:27:06.486047 18286 net.cpp:395] bn3a_branch2b -> res3a_branch2b (in-place)
I0202 21:27:06.486243 18286 net.cpp:150] Setting up bn3a_branch2b
I0202 21:27:06.486256 18286 net.cpp:157] Top shape: 1 128 32 32 (131072)
I0202 21:27:06.486264 18286 net.cpp:165] Memory required for data: 158859264
I0202 21:27:06.486279 18286 layer_factory.hpp:77] Creating layer scale3a_branch2b
I0202 21:27:06.486294 18286 net.cpp:100] Creating Layer scale3a_branch2b
I0202 21:27:06.486306 18286 net.cpp:434] scale3a_branch2b <- res3a_branch2b
I0202 21:27:06.486317 18286 net.cpp:395] scale3a_branch2b -> res3a_branch2b (in-place)
I0202 21:27:06.486376 18286 layer_factory.hpp:77] Creating layer scale3a_branch2b
I0202 21:27:06.486496 18286 net.cpp:150] Setting up scale3a_branch2b
I0202 21:27:06.486510 18286 net.cpp:157] Top shape: 1 128 32 32 (131072)
I0202 21:27:06.486518 18286 net.cpp:165] Memory required for data: 159383552
I0202 21:27:06.486531 18286 layer_factory.hpp:77] Creating layer res3a_branch2b_relu
I0202 21:27:06.486544 18286 net.cpp:100] Creating Layer res3a_branch2b_relu
I0202 21:27:06.486555 18286 net.cpp:434] res3a_branch2b_relu <- res3a_branch2b
I0202 21:27:06.486567 18286 net.cpp:395] res3a_branch2b_relu -> res3a_branch2b (in-place)
I0202 21:27:06.486904 18286 net.cpp:150] Setting up res3a_branch2b_relu
I0202 21:27:06.486922 18286 net.cpp:157] Top shape: 1 128 32 32 (131072)
I0202 21:27:06.486929 18286 net.cpp:165] Memory required for data: 159907840
I0202 21:27:06.486938 18286 layer_factory.hpp:77] Creating layer res3a_branch2c
I0202 21:27:06.486965 18286 net.cpp:100] Creating Layer res3a_branch2c
I0202 21:27:06.486976 18286 net.cpp:434] res3a_branch2c <- res3a_branch2b
I0202 21:27:06.486994 18286 net.cpp:408] res3a_branch2c -> res3a_branch2c
I0202 21:27:06.487946 18286 net.cpp:150] Setting up res3a_branch2c
I0202 21:27:06.487964 18286 net.cpp:157] Top shape: 1 512 32 32 (524288)
I0202 21:27:06.487972 18286 net.cpp:165] Memory required for data: 162004992
I0202 21:27:06.487994 18286 layer_factory.hpp:77] Creating layer bn3a_branch2c
I0202 21:27:06.488006 18286 net.cpp:100] Creating Layer bn3a_branch2c
I0202 21:27:06.488015 18286 net.cpp:434] bn3a_branch2c <- res3a_branch2c
I0202 21:27:06.488031 18286 net.cpp:395] bn3a_branch2c -> res3a_branch2c (in-place)
I0202 21:27:06.488230 18286 net.cpp:150] Setting up bn3a_branch2c
I0202 21:27:06.488245 18286 net.cpp:157] Top shape: 1 512 32 32 (524288)
I0202 21:27:06.488252 18286 net.cpp:165] Memory required for data: 164102144
I0202 21:27:06.488268 18286 layer_factory.hpp:77] Creating layer scale3a_branch2c
I0202 21:27:06.488282 18286 net.cpp:100] Creating Layer scale3a_branch2c
I0202 21:27:06.488294 18286 net.cpp:434] scale3a_branch2c <- res3a_branch2c
I0202 21:27:06.488306 18286 net.cpp:395] scale3a_branch2c -> res3a_branch2c (in-place)
I0202 21:27:06.488358 18286 layer_factory.hpp:77] Creating layer scale3a_branch2c
I0202 21:27:06.488476 18286 net.cpp:150] Setting up scale3a_branch2c
I0202 21:27:06.488489 18286 net.cpp:157] Top shape: 1 512 32 32 (524288)
I0202 21:27:06.488497 18286 net.cpp:165] Memory required for data: 166199296
I0202 21:27:06.488508 18286 layer_factory.hpp:77] Creating layer res3a
I0202 21:27:06.488524 18286 net.cpp:100] Creating Layer res3a
I0202 21:27:06.488534 18286 net.cpp:434] res3a <- res3a_branch1
I0202 21:27:06.488544 18286 net.cpp:434] res3a <- res3a_branch2c
I0202 21:27:06.488555 18286 net.cpp:408] res3a -> res3a
I0202 21:27:06.488591 18286 net.cpp:150] Setting up res3a
I0202 21:27:06.488605 18286 net.cpp:157] Top shape: 1 512 32 32 (524288)
I0202 21:27:06.488611 18286 net.cpp:165] Memory required for data: 168296448
I0202 21:27:06.488620 18286 layer_factory.hpp:77] Creating layer res3a_relu
I0202 21:27:06.488629 18286 net.cpp:100] Creating Layer res3a_relu
I0202 21:27:06.488637 18286 net.cpp:434] res3a_relu <- res3a
I0202 21:27:06.488649 18286 net.cpp:395] res3a_relu -> res3a (in-place)
I0202 21:27:06.489006 18286 net.cpp:150] Setting up res3a_relu
I0202 21:27:06.489023 18286 net.cpp:157] Top shape: 1 512 32 32 (524288)
I0202 21:27:06.489032 18286 net.cpp:165] Memory required for data: 170393600
I0202 21:27:06.489039 18286 layer_factory.hpp:77] Creating layer res3a_res3a_relu_0_split
I0202 21:27:06.489051 18286 net.cpp:100] Creating Layer res3a_res3a_relu_0_split
I0202 21:27:06.489059 18286 net.cpp:434] res3a_res3a_relu_0_split <- res3a
I0202 21:27:06.489073 18286 net.cpp:408] res3a_res3a_relu_0_split -> res3a_res3a_relu_0_split_0
I0202 21:27:06.489090 18286 net.cpp:408] res3a_res3a_relu_0_split -> res3a_res3a_relu_0_split_1
I0202 21:27:06.489150 18286 net.cpp:150] Setting up res3a_res3a_relu_0_split
I0202 21:27:06.489162 18286 net.cpp:157] Top shape: 1 512 32 32 (524288)
I0202 21:27:06.489172 18286 net.cpp:157] Top shape: 1 512 32 32 (524288)
I0202 21:27:06.489179 18286 net.cpp:165] Memory required for data: 174587904
I0202 21:27:06.489187 18286 layer_factory.hpp:77] Creating layer res3b_branch2a
I0202 21:27:06.489203 18286 net.cpp:100] Creating Layer res3b_branch2a
I0202 21:27:06.489212 18286 net.cpp:434] res3b_branch2a <- res3a_res3a_relu_0_split_0
I0202 21:27:06.489224 18286 net.cpp:408] res3b_branch2a -> res3b_branch2a
I0202 21:27:06.490906 18286 net.cpp:150] Setting up res3b_branch2a
I0202 21:27:06.490926 18286 net.cpp:157] Top shape: 1 128 32 32 (131072)
I0202 21:27:06.490933 18286 net.cpp:165] Memory required for data: 175112192
I0202 21:27:06.490945 18286 layer_factory.hpp:77] Creating layer bn3b_branch2a
I0202 21:27:06.490958 18286 net.cpp:100] Creating Layer bn3b_branch2a
I0202 21:27:06.490967 18286 net.cpp:434] bn3b_branch2a <- res3b_branch2a
I0202 21:27:06.490981 18286 net.cpp:395] bn3b_branch2a -> res3b_branch2a (in-place)
I0202 21:27:06.491183 18286 net.cpp:150] Setting up bn3b_branch2a
I0202 21:27:06.491197 18286 net.cpp:157] Top shape: 1 128 32 32 (131072)
I0202 21:27:06.491205 18286 net.cpp:165] Memory required for data: 175636480
I0202 21:27:06.491220 18286 layer_factory.hpp:77] Creating layer scale3b_branch2a
I0202 21:27:06.491235 18286 net.cpp:100] Creating Layer scale3b_branch2a
I0202 21:27:06.491245 18286 net.cpp:434] scale3b_branch2a <- res3b_branch2a
I0202 21:27:06.491256 18286 net.cpp:395] scale3b_branch2a -> res3b_branch2a (in-place)
I0202 21:27:06.491312 18286 layer_factory.hpp:77] Creating layer scale3b_branch2a
I0202 21:27:06.491431 18286 net.cpp:150] Setting up scale3b_branch2a
I0202 21:27:06.491444 18286 net.cpp:157] Top shape: 1 128 32 32 (131072)
I0202 21:27:06.491452 18286 net.cpp:165] Memory required for data: 176160768
I0202 21:27:06.491466 18286 layer_factory.hpp:77] Creating layer res3b_branch2a_relu
I0202 21:27:06.491479 18286 net.cpp:100] Creating Layer res3b_branch2a_relu
I0202 21:27:06.491490 18286 net.cpp:434] res3b_branch2a_relu <- res3b_branch2a
I0202 21:27:06.491502 18286 net.cpp:395] res3b_branch2a_relu -> res3b_branch2a (in-place)
I0202 21:27:06.491703 18286 net.cpp:150] Setting up res3b_branch2a_relu
I0202 21:27:06.491717 18286 net.cpp:157] Top shape: 1 128 32 32 (131072)
I0202 21:27:06.491725 18286 net.cpp:165] Memory required for data: 176685056
I0202 21:27:06.491734 18286 layer_factory.hpp:77] Creating layer res3b_branch2b
I0202 21:27:06.491750 18286 net.cpp:100] Creating Layer res3b_branch2b
I0202 21:27:06.491758 18286 net.cpp:434] res3b_branch2b <- res3b_branch2a
I0202 21:27:06.491771 18286 net.cpp:408] res3b_branch2b -> res3b_branch2b
I0202 21:27:06.493580 18286 net.cpp:150] Setting up res3b_branch2b
I0202 21:27:06.493616 18286 net.cpp:157] Top shape: 1 128 32 32 (131072)
I0202 21:27:06.493625 18286 net.cpp:165] Memory required for data: 177209344
I0202 21:27:06.493638 18286 layer_factory.hpp:77] Creating layer bn3b_branch2b
I0202 21:27:06.493650 18286 net.cpp:100] Creating Layer bn3b_branch2b
I0202 21:27:06.493660 18286 net.cpp:434] bn3b_branch2b <- res3b_branch2b
I0202 21:27:06.493675 18286 net.cpp:395] bn3b_branch2b -> res3b_branch2b (in-place)
I0202 21:27:06.493882 18286 net.cpp:150] Setting up bn3b_branch2b
I0202 21:27:06.493897 18286 net.cpp:157] Top shape: 1 128 32 32 (131072)
I0202 21:27:06.493904 18286 net.cpp:165] Memory required for data: 177733632
I0202 21:27:06.493921 18286 layer_factory.hpp:77] Creating layer scale3b_branch2b
I0202 21:27:06.493935 18286 net.cpp:100] Creating Layer scale3b_branch2b
I0202 21:27:06.493945 18286 net.cpp:434] scale3b_branch2b <- res3b_branch2b
I0202 21:27:06.493957 18286 net.cpp:395] scale3b_branch2b -> res3b_branch2b (in-place)
I0202 21:27:06.494014 18286 layer_factory.hpp:77] Creating layer scale3b_branch2b
I0202 21:27:06.494134 18286 net.cpp:150] Setting up scale3b_branch2b
I0202 21:27:06.494148 18286 net.cpp:157] Top shape: 1 128 32 32 (131072)
I0202 21:27:06.494156 18286 net.cpp:165] Memory required for data: 178257920
I0202 21:27:06.494169 18286 layer_factory.hpp:77] Creating layer res3b_branch2b_relu
I0202 21:27:06.494181 18286 net.cpp:100] Creating Layer res3b_branch2b_relu
I0202 21:27:06.494189 18286 net.cpp:434] res3b_branch2b_relu <- res3b_branch2b
I0202 21:27:06.494201 18286 net.cpp:395] res3b_branch2b_relu -> res3b_branch2b (in-place)
I0202 21:27:06.494542 18286 net.cpp:150] Setting up res3b_branch2b_relu
I0202 21:27:06.494560 18286 net.cpp:157] Top shape: 1 128 32 32 (131072)
I0202 21:27:06.494568 18286 net.cpp:165] Memory required for data: 178782208
I0202 21:27:06.494576 18286 layer_factory.hpp:77] Creating layer res3b_branch2c
I0202 21:27:06.494596 18286 net.cpp:100] Creating Layer res3b_branch2c
I0202 21:27:06.494607 18286 net.cpp:434] res3b_branch2c <- res3b_branch2b
I0202 21:27:06.494623 18286 net.cpp:408] res3b_branch2c -> res3b_branch2c
I0202 21:27:06.495604 18286 net.cpp:150] Setting up res3b_branch2c
I0202 21:27:06.495622 18286 net.cpp:157] Top shape: 1 512 32 32 (524288)
I0202 21:27:06.495630 18286 net.cpp:165] Memory required for data: 180879360
I0202 21:27:06.495642 18286 layer_factory.hpp:77] Creating layer bn3b_branch2c
I0202 21:27:06.495656 18286 net.cpp:100] Creating Layer bn3b_branch2c
I0202 21:27:06.495666 18286 net.cpp:434] bn3b_branch2c <- res3b_branch2c
I0202 21:27:06.495678 18286 net.cpp:395] bn3b_branch2c -> res3b_branch2c (in-place)
I0202 21:27:06.495882 18286 net.cpp:150] Setting up bn3b_branch2c
I0202 21:27:06.495896 18286 net.cpp:157] Top shape: 1 512 32 32 (524288)
I0202 21:27:06.495903 18286 net.cpp:165] Memory required for data: 182976512
I0202 21:27:06.495919 18286 layer_factory.hpp:77] Creating layer scale3b_branch2c
I0202 21:27:06.495939 18286 net.cpp:100] Creating Layer scale3b_branch2c
I0202 21:27:06.495949 18286 net.cpp:434] scale3b_branch2c <- res3b_branch2c
I0202 21:27:06.495960 18286 net.cpp:395] scale3b_branch2c -> res3b_branch2c (in-place)
I0202 21:27:06.496009 18286 layer_factory.hpp:77] Creating layer scale3b_branch2c
I0202 21:27:06.496134 18286 net.cpp:150] Setting up scale3b_branch2c
I0202 21:27:06.496150 18286 net.cpp:157] Top shape: 1 512 32 32 (524288)
I0202 21:27:06.496157 18286 net.cpp:165] Memory required for data: 185073664
I0202 21:27:06.496170 18286 layer_factory.hpp:77] Creating layer res3b
I0202 21:27:06.496181 18286 net.cpp:100] Creating Layer res3b
I0202 21:27:06.496191 18286 net.cpp:434] res3b <- res3a_res3a_relu_0_split_1
I0202 21:27:06.496201 18286 net.cpp:434] res3b <- res3b_branch2c
I0202 21:27:06.496211 18286 net.cpp:408] res3b -> res3b
I0202 21:27:06.496251 18286 net.cpp:150] Setting up res3b
I0202 21:27:06.496264 18286 net.cpp:157] Top shape: 1 512 32 32 (524288)
I0202 21:27:06.496273 18286 net.cpp:165] Memory required for data: 187170816
I0202 21:27:06.496280 18286 layer_factory.hpp:77] Creating layer res3b_relu
I0202 21:27:06.496291 18286 net.cpp:100] Creating Layer res3b_relu
I0202 21:27:06.496299 18286 net.cpp:434] res3b_relu <- res3b
I0202 21:27:06.496311 18286 net.cpp:395] res3b_relu -> res3b (in-place)
I0202 21:27:06.496635 18286 net.cpp:150] Setting up res3b_relu
I0202 21:27:06.496652 18286 net.cpp:157] Top shape: 1 512 32 32 (524288)
I0202 21:27:06.496660 18286 net.cpp:165] Memory required for data: 189267968
I0202 21:27:06.496670 18286 layer_factory.hpp:77] Creating layer res3b_res3b_relu_0_split
I0202 21:27:06.496683 18286 net.cpp:100] Creating Layer res3b_res3b_relu_0_split
I0202 21:27:06.496691 18286 net.cpp:434] res3b_res3b_relu_0_split <- res3b
I0202 21:27:06.496703 18286 net.cpp:408] res3b_res3b_relu_0_split -> res3b_res3b_relu_0_split_0
I0202 21:27:06.496717 18286 net.cpp:408] res3b_res3b_relu_0_split -> res3b_res3b_relu_0_split_1
I0202 21:27:06.496788 18286 net.cpp:150] Setting up res3b_res3b_relu_0_split
I0202 21:27:06.496801 18286 net.cpp:157] Top shape: 1 512 32 32 (524288)
I0202 21:27:06.496811 18286 net.cpp:157] Top shape: 1 512 32 32 (524288)
I0202 21:27:06.496819 18286 net.cpp:165] Memory required for data: 193462272
I0202 21:27:06.496826 18286 layer_factory.hpp:77] Creating layer res3c_branch2a
I0202 21:27:06.496843 18286 net.cpp:100] Creating Layer res3c_branch2a
I0202 21:27:06.496855 18286 net.cpp:434] res3c_branch2a <- res3b_res3b_relu_0_split_0
I0202 21:27:06.496866 18286 net.cpp:408] res3c_branch2a -> res3c_branch2a
I0202 21:27:06.497959 18286 net.cpp:150] Setting up res3c_branch2a
I0202 21:27:06.497978 18286 net.cpp:157] Top shape: 1 128 32 32 (131072)
I0202 21:27:06.497987 18286 net.cpp:165] Memory required for data: 193986560
I0202 21:27:06.497998 18286 layer_factory.hpp:77] Creating layer bn3c_branch2a
I0202 21:27:06.498013 18286 net.cpp:100] Creating Layer bn3c_branch2a
I0202 21:27:06.498023 18286 net.cpp:434] bn3c_branch2a <- res3c_branch2a
I0202 21:27:06.498034 18286 net.cpp:395] bn3c_branch2a -> res3c_branch2a (in-place)
I0202 21:27:06.498242 18286 net.cpp:150] Setting up bn3c_branch2a
I0202 21:27:06.498256 18286 net.cpp:157] Top shape: 1 128 32 32 (131072)
I0202 21:27:06.498265 18286 net.cpp:165] Memory required for data: 194510848
I0202 21:27:06.498281 18286 layer_factory.hpp:77] Creating layer scale3c_branch2a
I0202 21:27:06.498297 18286 net.cpp:100] Creating Layer scale3c_branch2a
I0202 21:27:06.498308 18286 net.cpp:434] scale3c_branch2a <- res3c_branch2a
I0202 21:27:06.498319 18286 net.cpp:395] scale3c_branch2a -> res3c_branch2a (in-place)
I0202 21:27:06.498374 18286 layer_factory.hpp:77] Creating layer scale3c_branch2a
I0202 21:27:06.498492 18286 net.cpp:150] Setting up scale3c_branch2a
I0202 21:27:06.498507 18286 net.cpp:157] Top shape: 1 128 32 32 (131072)
I0202 21:27:06.498515 18286 net.cpp:165] Memory required for data: 195035136
I0202 21:27:06.498528 18286 layer_factory.hpp:77] Creating layer res3c_branch2a_relu
I0202 21:27:06.498539 18286 net.cpp:100] Creating Layer res3c_branch2a_relu
I0202 21:27:06.498548 18286 net.cpp:434] res3c_branch2a_relu <- res3c_branch2a
I0202 21:27:06.498558 18286 net.cpp:395] res3c_branch2a_relu -> res3c_branch2a (in-place)
I0202 21:27:06.498746 18286 net.cpp:150] Setting up res3c_branch2a_relu
I0202 21:27:06.498762 18286 net.cpp:157] Top shape: 1 128 32 32 (131072)
I0202 21:27:06.498770 18286 net.cpp:165] Memory required for data: 195559424
I0202 21:27:06.498777 18286 layer_factory.hpp:77] Creating layer res3c_branch2b
I0202 21:27:06.498795 18286 net.cpp:100] Creating Layer res3c_branch2b
I0202 21:27:06.498806 18286 net.cpp:434] res3c_branch2b <- res3c_branch2a
I0202 21:27:06.498819 18286 net.cpp:408] res3c_branch2b -> res3c_branch2b
I0202 21:27:06.500437 18286 net.cpp:150] Setting up res3c_branch2b
I0202 21:27:06.500457 18286 net.cpp:157] Top shape: 1 128 32 32 (131072)
I0202 21:27:06.500464 18286 net.cpp:165] Memory required for data: 196083712
I0202 21:27:06.500488 18286 layer_factory.hpp:77] Creating layer bn3c_branch2b
I0202 21:27:06.500502 18286 net.cpp:100] Creating Layer bn3c_branch2b
I0202 21:27:06.500515 18286 net.cpp:434] bn3c_branch2b <- res3c_branch2b
I0202 21:27:06.500527 18286 net.cpp:395] bn3c_branch2b -> res3c_branch2b (in-place)
I0202 21:27:06.500747 18286 net.cpp:150] Setting up bn3c_branch2b
I0202 21:27:06.500762 18286 net.cpp:157] Top shape: 1 128 32 32 (131072)
I0202 21:27:06.500771 18286 net.cpp:165] Memory required for data: 196608000
I0202 21:27:06.500787 18286 layer_factory.hpp:77] Creating layer scale3c_branch2b
I0202 21:27:06.500800 18286 net.cpp:100] Creating Layer scale3c_branch2b
I0202 21:27:06.500811 18286 net.cpp:434] scale3c_branch2b <- res3c_branch2b
I0202 21:27:06.500823 18286 net.cpp:395] scale3c_branch2b -> res3c_branch2b (in-place)
I0202 21:27:06.500882 18286 layer_factory.hpp:77] Creating layer scale3c_branch2b
I0202 21:27:06.501009 18286 net.cpp:150] Setting up scale3c_branch2b
I0202 21:27:06.501024 18286 net.cpp:157] Top shape: 1 128 32 32 (131072)
I0202 21:27:06.501030 18286 net.cpp:165] Memory required for data: 197132288
I0202 21:27:06.501044 18286 layer_factory.hpp:77] Creating layer res3c_branch2b_relu
I0202 21:27:06.501055 18286 net.cpp:100] Creating Layer res3c_branch2b_relu
I0202 21:27:06.501062 18286 net.cpp:434] res3c_branch2b_relu <- res3c_branch2b
I0202 21:27:06.501075 18286 net.cpp:395] res3c_branch2b_relu -> res3c_branch2b (in-place)
I0202 21:27:06.501418 18286 net.cpp:150] Setting up res3c_branch2b_relu
I0202 21:27:06.501436 18286 net.cpp:157] Top shape: 1 128 32 32 (131072)
I0202 21:27:06.501444 18286 net.cpp:165] Memory required for data: 197656576
I0202 21:27:06.501453 18286 layer_factory.hpp:77] Creating layer res3c_branch2c
I0202 21:27:06.501471 18286 net.cpp:100] Creating Layer res3c_branch2c
I0202 21:27:06.501480 18286 net.cpp:434] res3c_branch2c <- res3c_branch2b
I0202 21:27:06.501493 18286 net.cpp:408] res3c_branch2c -> res3c_branch2c
I0202 21:27:06.502463 18286 net.cpp:150] Setting up res3c_branch2c
I0202 21:27:06.502482 18286 net.cpp:157] Top shape: 1 512 32 32 (524288)
I0202 21:27:06.502490 18286 net.cpp:165] Memory required for data: 199753728
I0202 21:27:06.502513 18286 layer_factory.hpp:77] Creating layer bn3c_branch2c
I0202 21:27:06.502527 18286 net.cpp:100] Creating Layer bn3c_branch2c
I0202 21:27:06.502537 18286 net.cpp:434] bn3c_branch2c <- res3c_branch2c
I0202 21:27:06.502548 18286 net.cpp:395] bn3c_branch2c -> res3c_branch2c (in-place)
I0202 21:27:06.502763 18286 net.cpp:150] Setting up bn3c_branch2c
I0202 21:27:06.502777 18286 net.cpp:157] Top shape: 1 512 32 32 (524288)
I0202 21:27:06.502784 18286 net.cpp:165] Memory required for data: 201850880
I0202 21:27:06.502800 18286 layer_factory.hpp:77] Creating layer scale3c_branch2c
I0202 21:27:06.502820 18286 net.cpp:100] Creating Layer scale3c_branch2c
I0202 21:27:06.502830 18286 net.cpp:434] scale3c_branch2c <- res3c_branch2c
I0202 21:27:06.502840 18286 net.cpp:395] scale3c_branch2c -> res3c_branch2c (in-place)
I0202 21:27:06.502893 18286 layer_factory.hpp:77] Creating layer scale3c_branch2c
I0202 21:27:06.503022 18286 net.cpp:150] Setting up scale3c_branch2c
I0202 21:27:06.503036 18286 net.cpp:157] Top shape: 1 512 32 32 (524288)
I0202 21:27:06.503044 18286 net.cpp:165] Memory required for data: 203948032
I0202 21:27:06.503057 18286 layer_factory.hpp:77] Creating layer res3c
I0202 21:27:06.503069 18286 net.cpp:100] Creating Layer res3c
I0202 21:27:06.503077 18286 net.cpp:434] res3c <- res3b_res3b_relu_0_split_1
I0202 21:27:06.503087 18286 net.cpp:434] res3c <- res3c_branch2c
I0202 21:27:06.503100 18286 net.cpp:408] res3c -> res3c
I0202 21:27:06.503140 18286 net.cpp:150] Setting up res3c
I0202 21:27:06.503152 18286 net.cpp:157] Top shape: 1 512 32 32 (524288)
I0202 21:27:06.503160 18286 net.cpp:165] Memory required for data: 206045184
I0202 21:27:06.503168 18286 layer_factory.hpp:77] Creating layer res3c_relu
I0202 21:27:06.503180 18286 net.cpp:100] Creating Layer res3c_relu
I0202 21:27:06.503190 18286 net.cpp:434] res3c_relu <- res3c
I0202 21:27:06.503199 18286 net.cpp:395] res3c_relu -> res3c (in-place)
I0202 21:27:06.503535 18286 net.cpp:150] Setting up res3c_relu
I0202 21:27:06.503552 18286 net.cpp:157] Top shape: 1 512 32 32 (524288)
I0202 21:27:06.503562 18286 net.cpp:165] Memory required for data: 208142336
I0202 21:27:06.503571 18286 layer_factory.hpp:77] Creating layer res3c_res3c_relu_0_split
I0202 21:27:06.503583 18286 net.cpp:100] Creating Layer res3c_res3c_relu_0_split
I0202 21:27:06.503592 18286 net.cpp:434] res3c_res3c_relu_0_split <- res3c
I0202 21:27:06.503603 18286 net.cpp:408] res3c_res3c_relu_0_split -> res3c_res3c_relu_0_split_0
I0202 21:27:06.503618 18286 net.cpp:408] res3c_res3c_relu_0_split -> res3c_res3c_relu_0_split_1
I0202 21:27:06.503682 18286 net.cpp:150] Setting up res3c_res3c_relu_0_split
I0202 21:27:06.503695 18286 net.cpp:157] Top shape: 1 512 32 32 (524288)
I0202 21:27:06.503705 18286 net.cpp:157] Top shape: 1 512 32 32 (524288)
I0202 21:27:06.503712 18286 net.cpp:165] Memory required for data: 212336640
I0202 21:27:06.503720 18286 layer_factory.hpp:77] Creating layer res3d_branch2a
I0202 21:27:06.503736 18286 net.cpp:100] Creating Layer res3d_branch2a
I0202 21:27:06.503746 18286 net.cpp:434] res3d_branch2a <- res3c_res3c_relu_0_split_0
I0202 21:27:06.503759 18286 net.cpp:408] res3d_branch2a -> res3d_branch2a
I0202 21:27:06.505347 18286 net.cpp:150] Setting up res3d_branch2a
I0202 21:27:06.505367 18286 net.cpp:157] Top shape: 1 128 32 32 (131072)
I0202 21:27:06.505375 18286 net.cpp:165] Memory required for data: 212860928
I0202 21:27:06.505388 18286 layer_factory.hpp:77] Creating layer bn3d_branch2a
I0202 21:27:06.505403 18286 net.cpp:100] Creating Layer bn3d_branch2a
I0202 21:27:06.505412 18286 net.cpp:434] bn3d_branch2a <- res3d_branch2a
I0202 21:27:06.505425 18286 net.cpp:395] bn3d_branch2a -> res3d_branch2a (in-place)
I0202 21:27:06.505635 18286 net.cpp:150] Setting up bn3d_branch2a
I0202 21:27:06.505650 18286 net.cpp:157] Top shape: 1 128 32 32 (131072)
I0202 21:27:06.505657 18286 net.cpp:165] Memory required for data: 213385216
I0202 21:27:06.505697 18286 layer_factory.hpp:77] Creating layer scale3d_branch2a
I0202 21:27:06.505712 18286 net.cpp:100] Creating Layer scale3d_branch2a
I0202 21:27:06.505720 18286 net.cpp:434] scale3d_branch2a <- res3d_branch2a
I0202 21:27:06.505733 18286 net.cpp:395] scale3d_branch2a -> res3d_branch2a (in-place)
I0202 21:27:06.505795 18286 layer_factory.hpp:77] Creating layer scale3d_branch2a
I0202 21:27:06.505920 18286 net.cpp:150] Setting up scale3d_branch2a
I0202 21:27:06.505934 18286 net.cpp:157] Top shape: 1 128 32 32 (131072)
I0202 21:27:06.505941 18286 net.cpp:165] Memory required for data: 213909504
I0202 21:27:06.505954 18286 layer_factory.hpp:77] Creating layer res3d_branch2a_relu
I0202 21:27:06.505965 18286 net.cpp:100] Creating Layer res3d_branch2a_relu
I0202 21:27:06.505973 18286 net.cpp:434] res3d_branch2a_relu <- res3d_branch2a
I0202 21:27:06.505986 18286 net.cpp:395] res3d_branch2a_relu -> res3d_branch2a (in-place)
I0202 21:27:06.506183 18286 net.cpp:150] Setting up res3d_branch2a_relu
I0202 21:27:06.506199 18286 net.cpp:157] Top shape: 1 128 32 32 (131072)
I0202 21:27:06.506207 18286 net.cpp:165] Memory required for data: 214433792
I0202 21:27:06.506216 18286 layer_factory.hpp:77] Creating layer res3d_branch2b
I0202 21:27:06.506229 18286 net.cpp:100] Creating Layer res3d_branch2b
I0202 21:27:06.506237 18286 net.cpp:434] res3d_branch2b <- res3d_branch2a
I0202 21:27:06.506253 18286 net.cpp:408] res3d_branch2b -> res3d_branch2b
I0202 21:27:06.507845 18286 net.cpp:150] Setting up res3d_branch2b
I0202 21:27:06.507874 18286 net.cpp:157] Top shape: 1 128 32 32 (131072)
I0202 21:27:06.507882 18286 net.cpp:165] Memory required for data: 214958080
I0202 21:27:06.507894 18286 layer_factory.hpp:77] Creating layer bn3d_branch2b
I0202 21:27:06.507920 18286 net.cpp:100] Creating Layer bn3d_branch2b
I0202 21:27:06.507930 18286 net.cpp:434] bn3d_branch2b <- res3d_branch2b
I0202 21:27:06.507941 18286 net.cpp:395] bn3d_branch2b -> res3d_branch2b (in-place)
I0202 21:27:06.508163 18286 net.cpp:150] Setting up bn3d_branch2b
I0202 21:27:06.508182 18286 net.cpp:157] Top shape: 1 128 32 32 (131072)
I0202 21:27:06.508186 18286 net.cpp:165] Memory required for data: 215482368
I0202 21:27:06.508196 18286 layer_factory.hpp:77] Creating layer scale3d_branch2b
I0202 21:27:06.508208 18286 net.cpp:100] Creating Layer scale3d_branch2b
I0202 21:27:06.508213 18286 net.cpp:434] scale3d_branch2b <- res3d_branch2b
I0202 21:27:06.508219 18286 net.cpp:395] scale3d_branch2b -> res3d_branch2b (in-place)
I0202 21:27:06.508271 18286 layer_factory.hpp:77] Creating layer scale3d_branch2b
I0202 21:27:06.508383 18286 net.cpp:150] Setting up scale3d_branch2b
I0202 21:27:06.508394 18286 net.cpp:157] Top shape: 1 128 32 32 (131072)
I0202 21:27:06.508399 18286 net.cpp:165] Memory required for data: 216006656
I0202 21:27:06.508406 18286 layer_factory.hpp:77] Creating layer res3d_branch2b_relu
I0202 21:27:06.508414 18286 net.cpp:100] Creating Layer res3d_branch2b_relu
I0202 21:27:06.508419 18286 net.cpp:434] res3d_branch2b_relu <- res3d_branch2b
I0202 21:27:06.508424 18286 net.cpp:395] res3d_branch2b_relu -> res3d_branch2b (in-place)
I0202 21:27:06.508780 18286 net.cpp:150] Setting up res3d_branch2b_relu
I0202 21:27:06.508797 18286 net.cpp:157] Top shape: 1 128 32 32 (131072)
I0202 21:27:06.508802 18286 net.cpp:165] Memory required for data: 216530944
I0202 21:27:06.508807 18286 layer_factory.hpp:77] Creating layer res3d_branch2c
I0202 21:27:06.508817 18286 net.cpp:100] Creating Layer res3d_branch2c
I0202 21:27:06.508821 18286 net.cpp:434] res3d_branch2c <- res3d_branch2b
I0202 21:27:06.508831 18286 net.cpp:408] res3d_branch2c -> res3d_branch2c
I0202 21:27:06.509826 18286 net.cpp:150] Setting up res3d_branch2c
I0202 21:27:06.509843 18286 net.cpp:157] Top shape: 1 512 32 32 (524288)
I0202 21:27:06.509847 18286 net.cpp:165] Memory required for data: 218628096
I0202 21:27:06.509855 18286 layer_factory.hpp:77] Creating layer bn3d_branch2c
I0202 21:27:06.509863 18286 net.cpp:100] Creating Layer bn3d_branch2c
I0202 21:27:06.509869 18286 net.cpp:434] bn3d_branch2c <- res3d_branch2c
I0202 21:27:06.509876 18286 net.cpp:395] bn3d_branch2c -> res3d_branch2c (in-place)
I0202 21:27:06.510079 18286 net.cpp:150] Setting up bn3d_branch2c
I0202 21:27:06.510089 18286 net.cpp:157] Top shape: 1 512 32 32 (524288)
I0202 21:27:06.510093 18286 net.cpp:165] Memory required for data: 220725248
I0202 21:27:06.510102 18286 layer_factory.hpp:77] Creating layer scale3d_branch2c
I0202 21:27:06.510109 18286 net.cpp:100] Creating Layer scale3d_branch2c
I0202 21:27:06.510113 18286 net.cpp:434] scale3d_branch2c <- res3d_branch2c
I0202 21:27:06.510119 18286 net.cpp:395] scale3d_branch2c -> res3d_branch2c (in-place)
I0202 21:27:06.510160 18286 layer_factory.hpp:77] Creating layer scale3d_branch2c
I0202 21:27:06.510274 18286 net.cpp:150] Setting up scale3d_branch2c
I0202 21:27:06.510284 18286 net.cpp:157] Top shape: 1 512 32 32 (524288)
I0202 21:27:06.510288 18286 net.cpp:165] Memory required for data: 222822400
I0202 21:27:06.510295 18286 layer_factory.hpp:77] Creating layer res3d
I0202 21:27:06.510304 18286 net.cpp:100] Creating Layer res3d
I0202 21:27:06.510308 18286 net.cpp:434] res3d <- res3c_res3c_relu_0_split_1
I0202 21:27:06.510314 18286 net.cpp:434] res3d <- res3d_branch2c
I0202 21:27:06.510320 18286 net.cpp:408] res3d -> res3d
I0202 21:27:06.510349 18286 net.cpp:150] Setting up res3d
I0202 21:27:06.510355 18286 net.cpp:157] Top shape: 1 512 32 32 (524288)
I0202 21:27:06.510360 18286 net.cpp:165] Memory required for data: 224919552
I0202 21:27:06.510363 18286 layer_factory.hpp:77] Creating layer res3d_relu
I0202 21:27:06.510370 18286 net.cpp:100] Creating Layer res3d_relu
I0202 21:27:06.510375 18286 net.cpp:434] res3d_relu <- res3d
I0202 21:27:06.510381 18286 net.cpp:395] res3d_relu -> res3d (in-place)
I0202 21:27:06.510704 18286 net.cpp:150] Setting up res3d_relu
I0202 21:27:06.510718 18286 net.cpp:157] Top shape: 1 512 32 32 (524288)
I0202 21:27:06.510723 18286 net.cpp:165] Memory required for data: 227016704
I0202 21:27:06.510728 18286 layer_factory.hpp:77] Creating layer res3d_res3d_relu_0_split
I0202 21:27:06.510737 18286 net.cpp:100] Creating Layer res3d_res3d_relu_0_split
I0202 21:27:06.510742 18286 net.cpp:434] res3d_res3d_relu_0_split <- res3d
I0202 21:27:06.510748 18286 net.cpp:408] res3d_res3d_relu_0_split -> res3d_res3d_relu_0_split_0
I0202 21:27:06.510756 18286 net.cpp:408] res3d_res3d_relu_0_split -> res3d_res3d_relu_0_split_1
I0202 21:27:06.510807 18286 net.cpp:150] Setting up res3d_res3d_relu_0_split
I0202 21:27:06.510817 18286 net.cpp:157] Top shape: 1 512 32 32 (524288)
I0202 21:27:06.510823 18286 net.cpp:157] Top shape: 1 512 32 32 (524288)
I0202 21:27:06.510826 18286 net.cpp:165] Memory required for data: 231211008
I0202 21:27:06.510830 18286 layer_factory.hpp:77] Creating layer res4a_branch1
I0202 21:27:06.510840 18286 net.cpp:100] Creating Layer res4a_branch1
I0202 21:27:06.510845 18286 net.cpp:434] res4a_branch1 <- res3d_res3d_relu_0_split_0
I0202 21:27:06.510851 18286 net.cpp:408] res4a_branch1 -> res4a_branch1
I0202 21:27:06.513207 18286 net.cpp:150] Setting up res4a_branch1
I0202 21:27:06.513227 18286 net.cpp:157] Top shape: 1 1024 16 16 (262144)
I0202 21:27:06.513242 18286 net.cpp:165] Memory required for data: 232259584
I0202 21:27:06.513250 18286 layer_factory.hpp:77] Creating layer bn4a_branch1
I0202 21:27:06.513259 18286 net.cpp:100] Creating Layer bn4a_branch1
I0202 21:27:06.513265 18286 net.cpp:434] bn4a_branch1 <- res4a_branch1
I0202 21:27:06.513272 18286 net.cpp:395] bn4a_branch1 -> res4a_branch1 (in-place)
I0202 21:27:06.513478 18286 net.cpp:150] Setting up bn4a_branch1
I0202 21:27:06.513489 18286 net.cpp:157] Top shape: 1 1024 16 16 (262144)
I0202 21:27:06.513494 18286 net.cpp:165] Memory required for data: 233308160
I0202 21:27:06.513502 18286 layer_factory.hpp:77] Creating layer scale4a_branch1
I0202 21:27:06.513510 18286 net.cpp:100] Creating Layer scale4a_branch1
I0202 21:27:06.513515 18286 net.cpp:434] scale4a_branch1 <- res4a_branch1
I0202 21:27:06.513521 18286 net.cpp:395] scale4a_branch1 -> res4a_branch1 (in-place)
I0202 21:27:06.513563 18286 layer_factory.hpp:77] Creating layer scale4a_branch1
I0202 21:27:06.513681 18286 net.cpp:150] Setting up scale4a_branch1
I0202 21:27:06.513691 18286 net.cpp:157] Top shape: 1 1024 16 16 (262144)
I0202 21:27:06.513696 18286 net.cpp:165] Memory required for data: 234356736
I0202 21:27:06.513703 18286 layer_factory.hpp:77] Creating layer res4a_branch2a
I0202 21:27:06.513712 18286 net.cpp:100] Creating Layer res4a_branch2a
I0202 21:27:06.513718 18286 net.cpp:434] res4a_branch2a <- res3d_res3d_relu_0_split_1
I0202 21:27:06.513725 18286 net.cpp:408] res4a_branch2a -> res4a_branch2a
I0202 21:27:06.514878 18286 net.cpp:150] Setting up res4a_branch2a
I0202 21:27:06.514894 18286 net.cpp:157] Top shape: 1 256 16 16 (65536)
I0202 21:27:06.514910 18286 net.cpp:165] Memory required for data: 234618880
I0202 21:27:06.514917 18286 layer_factory.hpp:77] Creating layer bn4a_branch2a
I0202 21:27:06.514928 18286 net.cpp:100] Creating Layer bn4a_branch2a
I0202 21:27:06.514933 18286 net.cpp:434] bn4a_branch2a <- res4a_branch2a
I0202 21:27:06.514941 18286 net.cpp:395] bn4a_branch2a -> res4a_branch2a (in-place)
I0202 21:27:06.515146 18286 net.cpp:150] Setting up bn4a_branch2a
I0202 21:27:06.515157 18286 net.cpp:157] Top shape: 1 256 16 16 (65536)
I0202 21:27:06.515161 18286 net.cpp:165] Memory required for data: 234881024
I0202 21:27:06.515171 18286 layer_factory.hpp:77] Creating layer scale4a_branch2a
I0202 21:27:06.515177 18286 net.cpp:100] Creating Layer scale4a_branch2a
I0202 21:27:06.515182 18286 net.cpp:434] scale4a_branch2a <- res4a_branch2a
I0202 21:27:06.515189 18286 net.cpp:395] scale4a_branch2a -> res4a_branch2a (in-place)
I0202 21:27:06.515233 18286 layer_factory.hpp:77] Creating layer scale4a_branch2a
I0202 21:27:06.515347 18286 net.cpp:150] Setting up scale4a_branch2a
I0202 21:27:06.515357 18286 net.cpp:157] Top shape: 1 256 16 16 (65536)
I0202 21:27:06.515362 18286 net.cpp:165] Memory required for data: 235143168
I0202 21:27:06.515368 18286 layer_factory.hpp:77] Creating layer res4a_branch2a_relu
I0202 21:27:06.515377 18286 net.cpp:100] Creating Layer res4a_branch2a_relu
I0202 21:27:06.515382 18286 net.cpp:434] res4a_branch2a_relu <- res4a_branch2a
I0202 21:27:06.515386 18286 net.cpp:395] res4a_branch2a_relu -> res4a_branch2a (in-place)
I0202 21:27:06.515576 18286 net.cpp:150] Setting up res4a_branch2a_relu
I0202 21:27:06.515589 18286 net.cpp:157] Top shape: 1 256 16 16 (65536)
I0202 21:27:06.515594 18286 net.cpp:165] Memory required for data: 235405312
I0202 21:27:06.515599 18286 layer_factory.hpp:77] Creating layer res4a_branch2b
I0202 21:27:06.515609 18286 net.cpp:100] Creating Layer res4a_branch2b
I0202 21:27:06.515614 18286 net.cpp:434] res4a_branch2b <- res4a_branch2a
I0202 21:27:06.515619 18286 net.cpp:408] res4a_branch2b -> res4a_branch2b
I0202 21:27:06.518033 18286 net.cpp:150] Setting up res4a_branch2b
I0202 21:27:06.518074 18286 net.cpp:157] Top shape: 1 256 16 16 (65536)
I0202 21:27:06.518080 18286 net.cpp:165] Memory required for data: 235667456
I0202 21:27:06.518090 18286 layer_factory.hpp:77] Creating layer bn4a_branch2b
I0202 21:27:06.518101 18286 net.cpp:100] Creating Layer bn4a_branch2b
I0202 21:27:06.518107 18286 net.cpp:434] bn4a_branch2b <- res4a_branch2b
I0202 21:27:06.518115 18286 net.cpp:395] bn4a_branch2b -> res4a_branch2b (in-place)
I0202 21:27:06.518321 18286 net.cpp:150] Setting up bn4a_branch2b
I0202 21:27:06.518332 18286 net.cpp:157] Top shape: 1 256 16 16 (65536)
I0202 21:27:06.518337 18286 net.cpp:165] Memory required for data: 235929600
I0202 21:27:06.518345 18286 layer_factory.hpp:77] Creating layer scale4a_branch2b
I0202 21:27:06.518353 18286 net.cpp:100] Creating Layer scale4a_branch2b
I0202 21:27:06.518358 18286 net.cpp:434] scale4a_branch2b <- res4a_branch2b
I0202 21:27:06.518365 18286 net.cpp:395] scale4a_branch2b -> res4a_branch2b (in-place)
I0202 21:27:06.518410 18286 layer_factory.hpp:77] Creating layer scale4a_branch2b
I0202 21:27:06.518528 18286 net.cpp:150] Setting up scale4a_branch2b
I0202 21:27:06.518537 18286 net.cpp:157] Top shape: 1 256 16 16 (65536)
I0202 21:27:06.518543 18286 net.cpp:165] Memory required for data: 236191744
I0202 21:27:06.518549 18286 layer_factory.hpp:77] Creating layer res4a_branch2b_relu
I0202 21:27:06.518556 18286 net.cpp:100] Creating Layer res4a_branch2b_relu
I0202 21:27:06.518563 18286 net.cpp:434] res4a_branch2b_relu <- res4a_branch2b
I0202 21:27:06.518568 18286 net.cpp:395] res4a_branch2b_relu -> res4a_branch2b (in-place)
I0202 21:27:06.518754 18286 net.cpp:150] Setting up res4a_branch2b_relu
I0202 21:27:06.518766 18286 net.cpp:157] Top shape: 1 256 16 16 (65536)
I0202 21:27:06.518770 18286 net.cpp:165] Memory required for data: 236453888
I0202 21:27:06.518774 18286 layer_factory.hpp:77] Creating layer res4a_branch2c
I0202 21:27:06.518786 18286 net.cpp:100] Creating Layer res4a_branch2c
I0202 21:27:06.518791 18286 net.cpp:434] res4a_branch2c <- res4a_branch2b
I0202 21:27:06.518798 18286 net.cpp:408] res4a_branch2c -> res4a_branch2c
I0202 21:27:06.520519 18286 net.cpp:150] Setting up res4a_branch2c
I0202 21:27:06.520547 18286 net.cpp:157] Top shape: 1 1024 16 16 (262144)
I0202 21:27:06.520552 18286 net.cpp:165] Memory required for data: 237502464
I0202 21:27:06.520560 18286 layer_factory.hpp:77] Creating layer bn4a_branch2c
I0202 21:27:06.520567 18286 net.cpp:100] Creating Layer bn4a_branch2c
I0202 21:27:06.520572 18286 net.cpp:434] bn4a_branch2c <- res4a_branch2c
I0202 21:27:06.520579 18286 net.cpp:395] bn4a_branch2c -> res4a_branch2c (in-place)
I0202 21:27:06.520807 18286 net.cpp:150] Setting up bn4a_branch2c
I0202 21:27:06.520819 18286 net.cpp:157] Top shape: 1 1024 16 16 (262144)
I0202 21:27:06.520824 18286 net.cpp:165] Memory required for data: 238551040
I0202 21:27:06.520833 18286 layer_factory.hpp:77] Creating layer scale4a_branch2c
I0202 21:27:06.520840 18286 net.cpp:100] Creating Layer scale4a_branch2c
I0202 21:27:06.520845 18286 net.cpp:434] scale4a_branch2c <- res4a_branch2c
I0202 21:27:06.520851 18286 net.cpp:395] scale4a_branch2c -> res4a_branch2c (in-place)
I0202 21:27:06.520897 18286 layer_factory.hpp:77] Creating layer scale4a_branch2c
I0202 21:27:06.521028 18286 net.cpp:150] Setting up scale4a_branch2c
I0202 21:27:06.521039 18286 net.cpp:157] Top shape: 1 1024 16 16 (262144)
I0202 21:27:06.521044 18286 net.cpp:165] Memory required for data: 239599616
I0202 21:27:06.521051 18286 layer_factory.hpp:77] Creating layer res4a
I0202 21:27:06.521059 18286 net.cpp:100] Creating Layer res4a
I0202 21:27:06.521065 18286 net.cpp:434] res4a <- res4a_branch1
I0202 21:27:06.521070 18286 net.cpp:434] res4a <- res4a_branch2c
I0202 21:27:06.521076 18286 net.cpp:408] res4a -> res4a
I0202 21:27:06.521102 18286 net.cpp:150] Setting up res4a
I0202 21:27:06.521111 18286 net.cpp:157] Top shape: 1 1024 16 16 (262144)
I0202 21:27:06.521114 18286 net.cpp:165] Memory required for data: 240648192
I0202 21:27:06.521118 18286 layer_factory.hpp:77] Creating layer res4a_relu
I0202 21:27:06.521124 18286 net.cpp:100] Creating Layer res4a_relu
I0202 21:27:06.521128 18286 net.cpp:434] res4a_relu <- res4a
I0202 21:27:06.521133 18286 net.cpp:395] res4a_relu -> res4a (in-place)
I0202 21:27:06.521462 18286 net.cpp:150] Setting up res4a_relu
I0202 21:27:06.521481 18286 net.cpp:157] Top shape: 1 1024 16 16 (262144)
I0202 21:27:06.521486 18286 net.cpp:165] Memory required for data: 241696768
I0202 21:27:06.521491 18286 layer_factory.hpp:77] Creating layer res4a_res4a_relu_0_split
I0202 21:27:06.521515 18286 net.cpp:100] Creating Layer res4a_res4a_relu_0_split
I0202 21:27:06.521522 18286 net.cpp:434] res4a_res4a_relu_0_split <- res4a
I0202 21:27:06.521528 18286 net.cpp:408] res4a_res4a_relu_0_split -> res4a_res4a_relu_0_split_0
I0202 21:27:06.521538 18286 net.cpp:408] res4a_res4a_relu_0_split -> res4a_res4a_relu_0_split_1
I0202 21:27:06.521587 18286 net.cpp:150] Setting up res4a_res4a_relu_0_split
I0202 21:27:06.521597 18286 net.cpp:157] Top shape: 1 1024 16 16 (262144)
I0202 21:27:06.521603 18286 net.cpp:157] Top shape: 1 1024 16 16 (262144)
I0202 21:27:06.521607 18286 net.cpp:165] Memory required for data: 243793920
I0202 21:27:06.521612 18286 layer_factory.hpp:77] Creating layer res4b_branch2a
I0202 21:27:06.521621 18286 net.cpp:100] Creating Layer res4b_branch2a
I0202 21:27:06.521626 18286 net.cpp:434] res4b_branch2a <- res4a_res4a_relu_0_split_0
I0202 21:27:06.521634 18286 net.cpp:408] res4b_branch2a -> res4b_branch2a
I0202 21:27:06.523314 18286 net.cpp:150] Setting up res4b_branch2a
I0202 21:27:06.523331 18286 net.cpp:157] Top shape: 1 256 16 16 (65536)
I0202 21:27:06.523346 18286 net.cpp:165] Memory required for data: 244056064
I0202 21:27:06.523353 18286 layer_factory.hpp:77] Creating layer bn4b_branch2a
I0202 21:27:06.523361 18286 net.cpp:100] Creating Layer bn4b_branch2a
I0202 21:27:06.523366 18286 net.cpp:434] bn4b_branch2a <- res4b_branch2a
I0202 21:27:06.523375 18286 net.cpp:395] bn4b_branch2a -> res4b_branch2a (in-place)
I0202 21:27:06.523586 18286 net.cpp:150] Setting up bn4b_branch2a
I0202 21:27:06.523597 18286 net.cpp:157] Top shape: 1 256 16 16 (65536)
I0202 21:27:06.523602 18286 net.cpp:165] Memory required for data: 244318208
I0202 21:27:06.523610 18286 layer_factory.hpp:77] Creating layer scale4b_branch2a
I0202 21:27:06.523618 18286 net.cpp:100] Creating Layer scale4b_branch2a
I0202 21:27:06.523622 18286 net.cpp:434] scale4b_branch2a <- res4b_branch2a
I0202 21:27:06.523628 18286 net.cpp:395] scale4b_branch2a -> res4b_branch2a (in-place)
I0202 21:27:06.523674 18286 layer_factory.hpp:77] Creating layer scale4b_branch2a
I0202 21:27:06.523795 18286 net.cpp:150] Setting up scale4b_branch2a
I0202 21:27:06.523805 18286 net.cpp:157] Top shape: 1 256 16 16 (65536)
I0202 21:27:06.523809 18286 net.cpp:165] Memory required for data: 244580352
I0202 21:27:06.523816 18286 layer_factory.hpp:77] Creating layer res4b_branch2a_relu
I0202 21:27:06.523824 18286 net.cpp:100] Creating Layer res4b_branch2a_relu
I0202 21:27:06.523828 18286 net.cpp:434] res4b_branch2a_relu <- res4b_branch2a
I0202 21:27:06.523834 18286 net.cpp:395] res4b_branch2a_relu -> res4b_branch2a (in-place)
I0202 21:27:06.524029 18286 net.cpp:150] Setting up res4b_branch2a_relu
I0202 21:27:06.524042 18286 net.cpp:157] Top shape: 1 256 16 16 (65536)
I0202 21:27:06.524046 18286 net.cpp:165] Memory required for data: 244842496
I0202 21:27:06.524051 18286 layer_factory.hpp:77] Creating layer res4b_branch2b
I0202 21:27:06.524061 18286 net.cpp:100] Creating Layer res4b_branch2b
I0202 21:27:06.524065 18286 net.cpp:434] res4b_branch2b <- res4b_branch2a
I0202 21:27:06.524073 18286 net.cpp:408] res4b_branch2b -> res4b_branch2b
I0202 21:27:06.526423 18286 net.cpp:150] Setting up res4b_branch2b
I0202 21:27:06.526449 18286 net.cpp:157] Top shape: 1 256 16 16 (65536)
I0202 21:27:06.526455 18286 net.cpp:165] Memory required for data: 245104640
I0202 21:27:06.526463 18286 layer_factory.hpp:77] Creating layer bn4b_branch2b
I0202 21:27:06.526473 18286 net.cpp:100] Creating Layer bn4b_branch2b
I0202 21:27:06.526479 18286 net.cpp:434] bn4b_branch2b <- res4b_branch2b
I0202 21:27:06.526485 18286 net.cpp:395] bn4b_branch2b -> res4b_branch2b (in-place)
I0202 21:27:06.526702 18286 net.cpp:150] Setting up bn4b_branch2b
I0202 21:27:06.526712 18286 net.cpp:157] Top shape: 1 256 16 16 (65536)
I0202 21:27:06.526717 18286 net.cpp:165] Memory required for data: 245366784
I0202 21:27:06.526726 18286 layer_factory.hpp:77] Creating layer scale4b_branch2b
I0202 21:27:06.526734 18286 net.cpp:100] Creating Layer scale4b_branch2b
I0202 21:27:06.526739 18286 net.cpp:434] scale4b_branch2b <- res4b_branch2b
I0202 21:27:06.526744 18286 net.cpp:395] scale4b_branch2b -> res4b_branch2b (in-place)
I0202 21:27:06.526793 18286 layer_factory.hpp:77] Creating layer scale4b_branch2b
I0202 21:27:06.526912 18286 net.cpp:150] Setting up scale4b_branch2b
I0202 21:27:06.526922 18286 net.cpp:157] Top shape: 1 256 16 16 (65536)
I0202 21:27:06.526926 18286 net.cpp:165] Memory required for data: 245628928
I0202 21:27:06.526933 18286 layer_factory.hpp:77] Creating layer res4b_branch2b_relu
I0202 21:27:06.526942 18286 net.cpp:100] Creating Layer res4b_branch2b_relu
I0202 21:27:06.526947 18286 net.cpp:434] res4b_branch2b_relu <- res4b_branch2b
I0202 21:27:06.526952 18286 net.cpp:395] res4b_branch2b_relu -> res4b_branch2b (in-place)
I0202 21:27:06.527173 18286 net.cpp:150] Setting up res4b_branch2b_relu
I0202 21:27:06.527186 18286 net.cpp:157] Top shape: 1 256 16 16 (65536)
I0202 21:27:06.527191 18286 net.cpp:165] Memory required for data: 245891072
I0202 21:27:06.527196 18286 layer_factory.hpp:77] Creating layer res4b_branch2c
I0202 21:27:06.527206 18286 net.cpp:100] Creating Layer res4b_branch2c
I0202 21:27:06.527210 18286 net.cpp:434] res4b_branch2c <- res4b_branch2b
I0202 21:27:06.527217 18286 net.cpp:408] res4b_branch2c -> res4b_branch2c
I0202 21:27:06.528990 18286 net.cpp:150] Setting up res4b_branch2c
I0202 21:27:06.529011 18286 net.cpp:157] Top shape: 1 1024 16 16 (262144)
I0202 21:27:06.529016 18286 net.cpp:165] Memory required for data: 246939648
I0202 21:27:06.529024 18286 layer_factory.hpp:77] Creating layer bn4b_branch2c
I0202 21:27:06.529033 18286 net.cpp:100] Creating Layer bn4b_branch2c
I0202 21:27:06.529039 18286 net.cpp:434] bn4b_branch2c <- res4b_branch2c
I0202 21:27:06.529045 18286 net.cpp:395] bn4b_branch2c -> res4b_branch2c (in-place)
I0202 21:27:06.529276 18286 net.cpp:150] Setting up bn4b_branch2c
I0202 21:27:06.529294 18286 net.cpp:157] Top shape: 1 1024 16 16 (262144)
I0202 21:27:06.529300 18286 net.cpp:165] Memory required for data: 247988224
I0202 21:27:06.529310 18286 layer_factory.hpp:77] Creating layer scale4b_branch2c
I0202 21:27:06.529320 18286 net.cpp:100] Creating Layer scale4b_branch2c
I0202 21:27:06.529325 18286 net.cpp:434] scale4b_branch2c <- res4b_branch2c
I0202 21:27:06.529331 18286 net.cpp:395] scale4b_branch2c -> res4b_branch2c (in-place)
I0202 21:27:06.529378 18286 layer_factory.hpp:77] Creating layer scale4b_branch2c
I0202 21:27:06.529510 18286 net.cpp:150] Setting up scale4b_branch2c
I0202 21:27:06.529520 18286 net.cpp:157] Top shape: 1 1024 16 16 (262144)
I0202 21:27:06.529525 18286 net.cpp:165] Memory required for data: 249036800
I0202 21:27:06.529531 18286 layer_factory.hpp:77] Creating layer res4b
I0202 21:27:06.529538 18286 net.cpp:100] Creating Layer res4b
I0202 21:27:06.529543 18286 net.cpp:434] res4b <- res4a_res4a_relu_0_split_1
I0202 21:27:06.529548 18286 net.cpp:434] res4b <- res4b_branch2c
I0202 21:27:06.529554 18286 net.cpp:408] res4b -> res4b
I0202 21:27:06.529590 18286 net.cpp:150] Setting up res4b
I0202 21:27:06.529599 18286 net.cpp:157] Top shape: 1 1024 16 16 (262144)
I0202 21:27:06.529603 18286 net.cpp:165] Memory required for data: 250085376
I0202 21:27:06.529608 18286 layer_factory.hpp:77] Creating layer res4b_relu
I0202 21:27:06.529614 18286 net.cpp:100] Creating Layer res4b_relu
I0202 21:27:06.529618 18286 net.cpp:434] res4b_relu <- res4b
I0202 21:27:06.529625 18286 net.cpp:395] res4b_relu -> res4b (in-place)
I0202 21:27:06.529963 18286 net.cpp:150] Setting up res4b_relu
I0202 21:27:06.529979 18286 net.cpp:157] Top shape: 1 1024 16 16 (262144)
I0202 21:27:06.529983 18286 net.cpp:165] Memory required for data: 251133952
I0202 21:27:06.529989 18286 layer_factory.hpp:77] Creating layer res4b_res4b_relu_0_split
I0202 21:27:06.529995 18286 net.cpp:100] Creating Layer res4b_res4b_relu_0_split
I0202 21:27:06.530000 18286 net.cpp:434] res4b_res4b_relu_0_split <- res4b
I0202 21:27:06.530009 18286 net.cpp:408] res4b_res4b_relu_0_split -> res4b_res4b_relu_0_split_0
I0202 21:27:06.530017 18286 net.cpp:408] res4b_res4b_relu_0_split -> res4b_res4b_relu_0_split_1
I0202 21:27:06.530081 18286 net.cpp:150] Setting up res4b_res4b_relu_0_split
I0202 21:27:06.530094 18286 net.cpp:157] Top shape: 1 1024 16 16 (262144)
I0202 21:27:06.530100 18286 net.cpp:157] Top shape: 1 1024 16 16 (262144)
I0202 21:27:06.530104 18286 net.cpp:165] Memory required for data: 253231104
I0202 21:27:06.530108 18286 layer_factory.hpp:77] Creating layer res4c_branch2a
I0202 21:27:06.530118 18286 net.cpp:100] Creating Layer res4c_branch2a
I0202 21:27:06.530123 18286 net.cpp:434] res4c_branch2a <- res4b_res4b_relu_0_split_0
I0202 21:27:06.530129 18286 net.cpp:408] res4c_branch2a -> res4c_branch2a
I0202 21:27:06.531921 18286 net.cpp:150] Setting up res4c_branch2a
I0202 21:27:06.531940 18286 net.cpp:157] Top shape: 1 256 16 16 (65536)
I0202 21:27:06.531956 18286 net.cpp:165] Memory required for data: 253493248
I0202 21:27:06.531965 18286 layer_factory.hpp:77] Creating layer bn4c_branch2a
I0202 21:27:06.531975 18286 net.cpp:100] Creating Layer bn4c_branch2a
I0202 21:27:06.531980 18286 net.cpp:434] bn4c_branch2a <- res4c_branch2a
I0202 21:27:06.531987 18286 net.cpp:395] bn4c_branch2a -> res4c_branch2a (in-place)
I0202 21:27:06.532204 18286 net.cpp:150] Setting up bn4c_branch2a
I0202 21:27:06.532214 18286 net.cpp:157] Top shape: 1 256 16 16 (65536)
I0202 21:27:06.532219 18286 net.cpp:165] Memory required for data: 253755392
I0202 21:27:06.532227 18286 layer_factory.hpp:77] Creating layer scale4c_branch2a
I0202 21:27:06.532235 18286 net.cpp:100] Creating Layer scale4c_branch2a
I0202 21:27:06.532239 18286 net.cpp:434] scale4c_branch2a <- res4c_branch2a
I0202 21:27:06.532248 18286 net.cpp:395] scale4c_branch2a -> res4c_branch2a (in-place)
I0202 21:27:06.532294 18286 layer_factory.hpp:77] Creating layer scale4c_branch2a
I0202 21:27:06.532416 18286 net.cpp:150] Setting up scale4c_branch2a
I0202 21:27:06.532426 18286 net.cpp:157] Top shape: 1 256 16 16 (65536)
I0202 21:27:06.532430 18286 net.cpp:165] Memory required for data: 254017536
I0202 21:27:06.532438 18286 layer_factory.hpp:77] Creating layer res4c_branch2a_relu
I0202 21:27:06.532445 18286 net.cpp:100] Creating Layer res4c_branch2a_relu
I0202 21:27:06.532450 18286 net.cpp:434] res4c_branch2a_relu <- res4c_branch2a
I0202 21:27:06.532455 18286 net.cpp:395] res4c_branch2a_relu -> res4c_branch2a (in-place)
I0202 21:27:06.532654 18286 net.cpp:150] Setting up res4c_branch2a_relu
I0202 21:27:06.532670 18286 net.cpp:157] Top shape: 1 256 16 16 (65536)
I0202 21:27:06.532676 18286 net.cpp:165] Memory required for data: 254279680
I0202 21:27:06.532683 18286 layer_factory.hpp:77] Creating layer res4c_branch2b
I0202 21:27:06.532697 18286 net.cpp:100] Creating Layer res4c_branch2b
I0202 21:27:06.532703 18286 net.cpp:434] res4c_branch2b <- res4c_branch2a
I0202 21:27:06.532711 18286 net.cpp:408] res4c_branch2b -> res4c_branch2b
I0202 21:27:06.535392 18286 net.cpp:150] Setting up res4c_branch2b
I0202 21:27:06.535436 18286 net.cpp:157] Top shape: 1 256 16 16 (65536)
I0202 21:27:06.535442 18286 net.cpp:165] Memory required for data: 254541824
I0202 21:27:06.535451 18286 layer_factory.hpp:77] Creating layer bn4c_branch2b
I0202 21:27:06.535465 18286 net.cpp:100] Creating Layer bn4c_branch2b
I0202 21:27:06.535472 18286 net.cpp:434] bn4c_branch2b <- res4c_branch2b
I0202 21:27:06.535480 18286 net.cpp:395] bn4c_branch2b -> res4c_branch2b (in-place)
I0202 21:27:06.535699 18286 net.cpp:150] Setting up bn4c_branch2b
I0202 21:27:06.535711 18286 net.cpp:157] Top shape: 1 256 16 16 (65536)
I0202 21:27:06.535715 18286 net.cpp:165] Memory required for data: 254803968
I0202 21:27:06.535724 18286 layer_factory.hpp:77] Creating layer scale4c_branch2b
I0202 21:27:06.535733 18286 net.cpp:100] Creating Layer scale4c_branch2b
I0202 21:27:06.535737 18286 net.cpp:434] scale4c_branch2b <- res4c_branch2b
I0202 21:27:06.535745 18286 net.cpp:395] scale4c_branch2b -> res4c_branch2b (in-place)
I0202 21:27:06.535794 18286 layer_factory.hpp:77] Creating layer scale4c_branch2b
I0202 21:27:06.535919 18286 net.cpp:150] Setting up scale4c_branch2b
I0202 21:27:06.535929 18286 net.cpp:157] Top shape: 1 256 16 16 (65536)
I0202 21:27:06.535933 18286 net.cpp:165] Memory required for data: 255066112
I0202 21:27:06.535940 18286 layer_factory.hpp:77] Creating layer res4c_branch2b_relu
I0202 21:27:06.535949 18286 net.cpp:100] Creating Layer res4c_branch2b_relu
I0202 21:27:06.535954 18286 net.cpp:434] res4c_branch2b_relu <- res4c_branch2b
I0202 21:27:06.535959 18286 net.cpp:395] res4c_branch2b_relu -> res4c_branch2b (in-place)
I0202 21:27:06.536164 18286 net.cpp:150] Setting up res4c_branch2b_relu
I0202 21:27:06.536176 18286 net.cpp:157] Top shape: 1 256 16 16 (65536)
I0202 21:27:06.536181 18286 net.cpp:165] Memory required for data: 255328256
I0202 21:27:06.536185 18286 layer_factory.hpp:77] Creating layer res4c_branch2c
I0202 21:27:06.536198 18286 net.cpp:100] Creating Layer res4c_branch2c
I0202 21:27:06.536202 18286 net.cpp:434] res4c_branch2c <- res4c_branch2b
I0202 21:27:06.536209 18286 net.cpp:408] res4c_branch2c -> res4c_branch2c
I0202 21:27:06.537961 18286 net.cpp:150] Setting up res4c_branch2c
I0202 21:27:06.537997 18286 net.cpp:157] Top shape: 1 1024 16 16 (262144)
I0202 21:27:06.538002 18286 net.cpp:165] Memory required for data: 256376832
I0202 21:27:06.538009 18286 layer_factory.hpp:77] Creating layer bn4c_branch2c
I0202 21:27:06.538020 18286 net.cpp:100] Creating Layer bn4c_branch2c
I0202 21:27:06.538025 18286 net.cpp:434] bn4c_branch2c <- res4c_branch2c
I0202 21:27:06.538033 18286 net.cpp:395] bn4c_branch2c -> res4c_branch2c (in-place)
I0202 21:27:06.538261 18286 net.cpp:150] Setting up bn4c_branch2c
I0202 21:27:06.538271 18286 net.cpp:157] Top shape: 1 1024 16 16 (262144)
I0202 21:27:06.538276 18286 net.cpp:165] Memory required for data: 257425408
I0202 21:27:06.538285 18286 layer_factory.hpp:77] Creating layer scale4c_branch2c
I0202 21:27:06.538293 18286 net.cpp:100] Creating Layer scale4c_branch2c
I0202 21:27:06.538297 18286 net.cpp:434] scale4c_branch2c <- res4c_branch2c
I0202 21:27:06.538303 18286 net.cpp:395] scale4c_branch2c -> res4c_branch2c (in-place)
I0202 21:27:06.538349 18286 layer_factory.hpp:77] Creating layer scale4c_branch2c
I0202 21:27:06.538487 18286 net.cpp:150] Setting up scale4c_branch2c
I0202 21:27:06.538497 18286 net.cpp:157] Top shape: 1 1024 16 16 (262144)
I0202 21:27:06.538502 18286 net.cpp:165] Memory required for data: 258473984
I0202 21:27:06.538509 18286 layer_factory.hpp:77] Creating layer res4c
I0202 21:27:06.538516 18286 net.cpp:100] Creating Layer res4c
I0202 21:27:06.538522 18286 net.cpp:434] res4c <- res4b_res4b_relu_0_split_1
I0202 21:27:06.538527 18286 net.cpp:434] res4c <- res4c_branch2c
I0202 21:27:06.538534 18286 net.cpp:408] res4c -> res4c
I0202 21:27:06.538560 18286 net.cpp:150] Setting up res4c
I0202 21:27:06.538566 18286 net.cpp:157] Top shape: 1 1024 16 16 (262144)
I0202 21:27:06.538571 18286 net.cpp:165] Memory required for data: 259522560
I0202 21:27:06.538575 18286 layer_factory.hpp:77] Creating layer res4c_relu
I0202 21:27:06.538584 18286 net.cpp:100] Creating Layer res4c_relu
I0202 21:27:06.538589 18286 net.cpp:434] res4c_relu <- res4c
I0202 21:27:06.538594 18286 net.cpp:395] res4c_relu -> res4c (in-place)
I0202 21:27:06.538940 18286 net.cpp:150] Setting up res4c_relu
I0202 21:27:06.538956 18286 net.cpp:157] Top shape: 1 1024 16 16 (262144)
I0202 21:27:06.538961 18286 net.cpp:165] Memory required for data: 260571136
I0202 21:27:06.538966 18286 layer_factory.hpp:77] Creating layer res4c_res4c_relu_0_split
I0202 21:27:06.538975 18286 net.cpp:100] Creating Layer res4c_res4c_relu_0_split
I0202 21:27:06.538980 18286 net.cpp:434] res4c_res4c_relu_0_split <- res4c
I0202 21:27:06.538987 18286 net.cpp:408] res4c_res4c_relu_0_split -> res4c_res4c_relu_0_split_0
I0202 21:27:06.538995 18286 net.cpp:408] res4c_res4c_relu_0_split -> res4c_res4c_relu_0_split_1
I0202 21:27:06.539048 18286 net.cpp:150] Setting up res4c_res4c_relu_0_split
I0202 21:27:06.539057 18286 net.cpp:157] Top shape: 1 1024 16 16 (262144)
I0202 21:27:06.539063 18286 net.cpp:157] Top shape: 1 1024 16 16 (262144)
I0202 21:27:06.539067 18286 net.cpp:165] Memory required for data: 262668288
I0202 21:27:06.539072 18286 layer_factory.hpp:77] Creating layer res4d_branch2a
I0202 21:27:06.539083 18286 net.cpp:100] Creating Layer res4d_branch2a
I0202 21:27:06.539088 18286 net.cpp:434] res4d_branch2a <- res4c_res4c_relu_0_split_0
I0202 21:27:06.539093 18286 net.cpp:408] res4d_branch2a -> res4d_branch2a
I0202 21:27:06.540869 18286 net.cpp:150] Setting up res4d_branch2a
I0202 21:27:06.540889 18286 net.cpp:157] Top shape: 1 256 16 16 (65536)
I0202 21:27:06.540905 18286 net.cpp:165] Memory required for data: 262930432
I0202 21:27:06.540915 18286 layer_factory.hpp:77] Creating layer bn4d_branch2a
I0202 21:27:06.540925 18286 net.cpp:100] Creating Layer bn4d_branch2a
I0202 21:27:06.540930 18286 net.cpp:434] bn4d_branch2a <- res4d_branch2a
I0202 21:27:06.540935 18286 net.cpp:395] bn4d_branch2a -> res4d_branch2a (in-place)
I0202 21:27:06.541158 18286 net.cpp:150] Setting up bn4d_branch2a
I0202 21:27:06.541168 18286 net.cpp:157] Top shape: 1 256 16 16 (65536)
I0202 21:27:06.541173 18286 net.cpp:165] Memory required for data: 263192576
I0202 21:27:06.541182 18286 layer_factory.hpp:77] Creating layer scale4d_branch2a
I0202 21:27:06.541193 18286 net.cpp:100] Creating Layer scale4d_branch2a
I0202 21:27:06.541196 18286 net.cpp:434] scale4d_branch2a <- res4d_branch2a
I0202 21:27:06.541203 18286 net.cpp:395] scale4d_branch2a -> res4d_branch2a (in-place)
I0202 21:27:06.541254 18286 layer_factory.hpp:77] Creating layer scale4d_branch2a
I0202 21:27:06.541379 18286 net.cpp:150] Setting up scale4d_branch2a
I0202 21:27:06.541389 18286 net.cpp:157] Top shape: 1 256 16 16 (65536)
I0202 21:27:06.541393 18286 net.cpp:165] Memory required for data: 263454720
I0202 21:27:06.541400 18286 layer_factory.hpp:77] Creating layer res4d_branch2a_relu
I0202 21:27:06.541407 18286 net.cpp:100] Creating Layer res4d_branch2a_relu
I0202 21:27:06.541411 18286 net.cpp:434] res4d_branch2a_relu <- res4d_branch2a
I0202 21:27:06.541417 18286 net.cpp:395] res4d_branch2a_relu -> res4d_branch2a (in-place)
I0202 21:27:06.541617 18286 net.cpp:150] Setting up res4d_branch2a_relu
I0202 21:27:06.541630 18286 net.cpp:157] Top shape: 1 256 16 16 (65536)
I0202 21:27:06.541635 18286 net.cpp:165] Memory required for data: 263716864
I0202 21:27:06.541638 18286 layer_factory.hpp:77] Creating layer res4d_branch2b
I0202 21:27:06.541649 18286 net.cpp:100] Creating Layer res4d_branch2b
I0202 21:27:06.541654 18286 net.cpp:434] res4d_branch2b <- res4d_branch2a
I0202 21:27:06.541662 18286 net.cpp:408] res4d_branch2b -> res4d_branch2b
I0202 21:27:06.544183 18286 net.cpp:150] Setting up res4d_branch2b
I0202 21:27:06.544226 18286 net.cpp:157] Top shape: 1 256 16 16 (65536)
I0202 21:27:06.544231 18286 net.cpp:165] Memory required for data: 263979008
I0202 21:27:06.544241 18286 layer_factory.hpp:77] Creating layer bn4d_branch2b
I0202 21:27:06.544255 18286 net.cpp:100] Creating Layer bn4d_branch2b
I0202 21:27:06.544261 18286 net.cpp:434] bn4d_branch2b <- res4d_branch2b
I0202 21:27:06.544270 18286 net.cpp:395] bn4d_branch2b -> res4d_branch2b (in-place)
I0202 21:27:06.544495 18286 net.cpp:150] Setting up bn4d_branch2b
I0202 21:27:06.544505 18286 net.cpp:157] Top shape: 1 256 16 16 (65536)
I0202 21:27:06.544510 18286 net.cpp:165] Memory required for data: 264241152
I0202 21:27:06.544519 18286 layer_factory.hpp:77] Creating layer scale4d_branch2b
I0202 21:27:06.544528 18286 net.cpp:100] Creating Layer scale4d_branch2b
I0202 21:27:06.544533 18286 net.cpp:434] scale4d_branch2b <- res4d_branch2b
I0202 21:27:06.544539 18286 net.cpp:395] scale4d_branch2b -> res4d_branch2b (in-place)
I0202 21:27:06.544590 18286 layer_factory.hpp:77] Creating layer scale4d_branch2b
I0202 21:27:06.544716 18286 net.cpp:150] Setting up scale4d_branch2b
I0202 21:27:06.544726 18286 net.cpp:157] Top shape: 1 256 16 16 (65536)
I0202 21:27:06.544730 18286 net.cpp:165] Memory required for data: 264503296
I0202 21:27:06.544737 18286 layer_factory.hpp:77] Creating layer res4d_branch2b_relu
I0202 21:27:06.544752 18286 net.cpp:100] Creating Layer res4d_branch2b_relu
I0202 21:27:06.544757 18286 net.cpp:434] res4d_branch2b_relu <- res4d_branch2b
I0202 21:27:06.544764 18286 net.cpp:395] res4d_branch2b_relu -> res4d_branch2b (in-place)
I0202 21:27:06.544961 18286 net.cpp:150] Setting up res4d_branch2b_relu
I0202 21:27:06.544975 18286 net.cpp:157] Top shape: 1 256 16 16 (65536)
I0202 21:27:06.544980 18286 net.cpp:165] Memory required for data: 264765440
I0202 21:27:06.544984 18286 layer_factory.hpp:77] Creating layer res4d_branch2c
I0202 21:27:06.544996 18286 net.cpp:100] Creating Layer res4d_branch2c
I0202 21:27:06.545001 18286 net.cpp:434] res4d_branch2c <- res4d_branch2b
I0202 21:27:06.545008 18286 net.cpp:408] res4d_branch2c -> res4d_branch2c
I0202 21:27:06.546833 18286 net.cpp:150] Setting up res4d_branch2c
I0202 21:27:06.546859 18286 net.cpp:157] Top shape: 1 1024 16 16 (262144)
I0202 21:27:06.546864 18286 net.cpp:165] Memory required for data: 265814016
I0202 21:27:06.546871 18286 layer_factory.hpp:77] Creating layer bn4d_branch2c
I0202 21:27:06.546881 18286 net.cpp:100] Creating Layer bn4d_branch2c
I0202 21:27:06.546887 18286 net.cpp:434] bn4d_branch2c <- res4d_branch2c
I0202 21:27:06.546895 18286 net.cpp:395] bn4d_branch2c -> res4d_branch2c (in-place)
I0202 21:27:06.547127 18286 net.cpp:150] Setting up bn4d_branch2c
I0202 21:27:06.547137 18286 net.cpp:157] Top shape: 1 1024 16 16 (262144)
I0202 21:27:06.547142 18286 net.cpp:165] Memory required for data: 266862592
I0202 21:27:06.547152 18286 layer_factory.hpp:77] Creating layer scale4d_branch2c
I0202 21:27:06.547159 18286 net.cpp:100] Creating Layer scale4d_branch2c
I0202 21:27:06.547164 18286 net.cpp:434] scale4d_branch2c <- res4d_branch2c
I0202 21:27:06.547170 18286 net.cpp:395] scale4d_branch2c -> res4d_branch2c (in-place)
I0202 21:27:06.547216 18286 layer_factory.hpp:77] Creating layer scale4d_branch2c
I0202 21:27:06.547355 18286 net.cpp:150] Setting up scale4d_branch2c
I0202 21:27:06.547365 18286 net.cpp:157] Top shape: 1 1024 16 16 (262144)
I0202 21:27:06.547369 18286 net.cpp:165] Memory required for data: 267911168
I0202 21:27:06.547377 18286 layer_factory.hpp:77] Creating layer res4d
I0202 21:27:06.547384 18286 net.cpp:100] Creating Layer res4d
I0202 21:27:06.547389 18286 net.cpp:434] res4d <- res4c_res4c_relu_0_split_1
I0202 21:27:06.547395 18286 net.cpp:434] res4d <- res4d_branch2c
I0202 21:27:06.547404 18286 net.cpp:408] res4d -> res4d
I0202 21:27:06.547430 18286 net.cpp:150] Setting up res4d
I0202 21:27:06.547436 18286 net.cpp:157] Top shape: 1 1024 16 16 (262144)
I0202 21:27:06.547441 18286 net.cpp:165] Memory required for data: 268959744
I0202 21:27:06.547444 18286 layer_factory.hpp:77] Creating layer res4d_relu
I0202 21:27:06.547451 18286 net.cpp:100] Creating Layer res4d_relu
I0202 21:27:06.547456 18286 net.cpp:434] res4d_relu <- res4d
I0202 21:27:06.547462 18286 net.cpp:395] res4d_relu -> res4d (in-place)
I0202 21:27:06.547808 18286 net.cpp:150] Setting up res4d_relu
I0202 21:27:06.547823 18286 net.cpp:157] Top shape: 1 1024 16 16 (262144)
I0202 21:27:06.547828 18286 net.cpp:165] Memory required for data: 270008320
I0202 21:27:06.547833 18286 layer_factory.hpp:77] Creating layer res4d_res4d_relu_0_split
I0202 21:27:06.547842 18286 net.cpp:100] Creating Layer res4d_res4d_relu_0_split
I0202 21:27:06.547848 18286 net.cpp:434] res4d_res4d_relu_0_split <- res4d
I0202 21:27:06.547854 18286 net.cpp:408] res4d_res4d_relu_0_split -> res4d_res4d_relu_0_split_0
I0202 21:27:06.547863 18286 net.cpp:408] res4d_res4d_relu_0_split -> res4d_res4d_relu_0_split_1
I0202 21:27:06.547915 18286 net.cpp:150] Setting up res4d_res4d_relu_0_split
I0202 21:27:06.547925 18286 net.cpp:157] Top shape: 1 1024 16 16 (262144)
I0202 21:27:06.547931 18286 net.cpp:157] Top shape: 1 1024 16 16 (262144)
I0202 21:27:06.547935 18286 net.cpp:165] Memory required for data: 272105472
I0202 21:27:06.547940 18286 layer_factory.hpp:77] Creating layer res4e_branch2a
I0202 21:27:06.547950 18286 net.cpp:100] Creating Layer res4e_branch2a
I0202 21:27:06.547955 18286 net.cpp:434] res4e_branch2a <- res4d_res4d_relu_0_split_0
I0202 21:27:06.547962 18286 net.cpp:408] res4e_branch2a -> res4e_branch2a
I0202 21:27:06.549702 18286 net.cpp:150] Setting up res4e_branch2a
I0202 21:27:06.549737 18286 net.cpp:157] Top shape: 1 256 16 16 (65536)
I0202 21:27:06.549743 18286 net.cpp:165] Memory required for data: 272367616
I0202 21:27:06.549751 18286 layer_factory.hpp:77] Creating layer bn4e_branch2a
I0202 21:27:06.549762 18286 net.cpp:100] Creating Layer bn4e_branch2a
I0202 21:27:06.549767 18286 net.cpp:434] bn4e_branch2a <- res4e_branch2a
I0202 21:27:06.549775 18286 net.cpp:395] bn4e_branch2a -> res4e_branch2a (in-place)
I0202 21:27:06.549999 18286 net.cpp:150] Setting up bn4e_branch2a
I0202 21:27:06.550010 18286 net.cpp:157] Top shape: 1 256 16 16 (65536)
I0202 21:27:06.550014 18286 net.cpp:165] Memory required for data: 272629760
I0202 21:27:06.550024 18286 layer_factory.hpp:77] Creating layer scale4e_branch2a
I0202 21:27:06.550032 18286 net.cpp:100] Creating Layer scale4e_branch2a
I0202 21:27:06.550036 18286 net.cpp:434] scale4e_branch2a <- res4e_branch2a
I0202 21:27:06.550045 18286 net.cpp:395] scale4e_branch2a -> res4e_branch2a (in-place)
I0202 21:27:06.550096 18286 layer_factory.hpp:77] Creating layer scale4e_branch2a
I0202 21:27:06.550227 18286 net.cpp:150] Setting up scale4e_branch2a
I0202 21:27:06.550240 18286 net.cpp:157] Top shape: 1 256 16 16 (65536)
I0202 21:27:06.550243 18286 net.cpp:165] Memory required for data: 272891904
I0202 21:27:06.550251 18286 layer_factory.hpp:77] Creating layer res4e_branch2a_relu
I0202 21:27:06.550257 18286 net.cpp:100] Creating Layer res4e_branch2a_relu
I0202 21:27:06.550261 18286 net.cpp:434] res4e_branch2a_relu <- res4e_branch2a
I0202 21:27:06.550268 18286 net.cpp:395] res4e_branch2a_relu -> res4e_branch2a (in-place)
I0202 21:27:06.550465 18286 net.cpp:150] Setting up res4e_branch2a_relu
I0202 21:27:06.550478 18286 net.cpp:157] Top shape: 1 256 16 16 (65536)
I0202 21:27:06.550482 18286 net.cpp:165] Memory required for data: 273154048
I0202 21:27:06.550487 18286 layer_factory.hpp:77] Creating layer res4e_branch2b
I0202 21:27:06.550498 18286 net.cpp:100] Creating Layer res4e_branch2b
I0202 21:27:06.550503 18286 net.cpp:434] res4e_branch2b <- res4e_branch2a
I0202 21:27:06.550510 18286 net.cpp:408] res4e_branch2b -> res4e_branch2b
I0202 21:27:06.553076 18286 net.cpp:150] Setting up res4e_branch2b
I0202 21:27:06.553123 18286 net.cpp:157] Top shape: 1 256 16 16 (65536)
I0202 21:27:06.553128 18286 net.cpp:165] Memory required for data: 273416192
I0202 21:27:06.553138 18286 layer_factory.hpp:77] Creating layer bn4e_branch2b
I0202 21:27:06.553149 18286 net.cpp:100] Creating Layer bn4e_branch2b
I0202 21:27:06.553156 18286 net.cpp:434] bn4e_branch2b <- res4e_branch2b
I0202 21:27:06.553165 18286 net.cpp:395] bn4e_branch2b -> res4e_branch2b (in-place)
I0202 21:27:06.553395 18286 net.cpp:150] Setting up bn4e_branch2b
I0202 21:27:06.553406 18286 net.cpp:157] Top shape: 1 256 16 16 (65536)
I0202 21:27:06.553409 18286 net.cpp:165] Memory required for data: 273678336
I0202 21:27:06.553418 18286 layer_factory.hpp:77] Creating layer scale4e_branch2b
I0202 21:27:06.553427 18286 net.cpp:100] Creating Layer scale4e_branch2b
I0202 21:27:06.553431 18286 net.cpp:434] scale4e_branch2b <- res4e_branch2b
I0202 21:27:06.553437 18286 net.cpp:395] scale4e_branch2b -> res4e_branch2b (in-place)
I0202 21:27:06.553489 18286 layer_factory.hpp:77] Creating layer scale4e_branch2b
I0202 21:27:06.553618 18286 net.cpp:150] Setting up scale4e_branch2b
I0202 21:27:06.553628 18286 net.cpp:157] Top shape: 1 256 16 16 (65536)
I0202 21:27:06.553632 18286 net.cpp:165] Memory required for data: 273940480
I0202 21:27:06.553639 18286 layer_factory.hpp:77] Creating layer res4e_branch2b_relu
I0202 21:27:06.553647 18286 net.cpp:100] Creating Layer res4e_branch2b_relu
I0202 21:27:06.553652 18286 net.cpp:434] res4e_branch2b_relu <- res4e_branch2b
I0202 21:27:06.553658 18286 net.cpp:395] res4e_branch2b_relu -> res4e_branch2b (in-place)
I0202 21:27:06.553859 18286 net.cpp:150] Setting up res4e_branch2b_relu
I0202 21:27:06.553872 18286 net.cpp:157] Top shape: 1 256 16 16 (65536)
I0202 21:27:06.553876 18286 net.cpp:165] Memory required for data: 274202624
I0202 21:27:06.553881 18286 layer_factory.hpp:77] Creating layer res4e_branch2c
I0202 21:27:06.553892 18286 net.cpp:100] Creating Layer res4e_branch2c
I0202 21:27:06.553897 18286 net.cpp:434] res4e_branch2c <- res4e_branch2b
I0202 21:27:06.553906 18286 net.cpp:408] res4e_branch2c -> res4e_branch2c
I0202 21:27:06.555661 18286 net.cpp:150] Setting up res4e_branch2c
I0202 21:27:06.555678 18286 net.cpp:157] Top shape: 1 1024 16 16 (262144)
I0202 21:27:06.555693 18286 net.cpp:165] Memory required for data: 275251200
I0202 21:27:06.555701 18286 layer_factory.hpp:77] Creating layer bn4e_branch2c
I0202 21:27:06.555709 18286 net.cpp:100] Creating Layer bn4e_branch2c
I0202 21:27:06.555714 18286 net.cpp:434] bn4e_branch2c <- res4e_branch2c
I0202 21:27:06.555722 18286 net.cpp:395] bn4e_branch2c -> res4e_branch2c (in-place)
I0202 21:27:06.555958 18286 net.cpp:150] Setting up bn4e_branch2c
I0202 21:27:06.555969 18286 net.cpp:157] Top shape: 1 1024 16 16 (262144)
I0202 21:27:06.555974 18286 net.cpp:165] Memory required for data: 276299776
I0202 21:27:06.555982 18286 layer_factory.hpp:77] Creating layer scale4e_branch2c
I0202 21:27:06.555989 18286 net.cpp:100] Creating Layer scale4e_branch2c
I0202 21:27:06.555994 18286 net.cpp:434] scale4e_branch2c <- res4e_branch2c
I0202 21:27:06.556000 18286 net.cpp:395] scale4e_branch2c -> res4e_branch2c (in-place)
I0202 21:27:06.556047 18286 layer_factory.hpp:77] Creating layer scale4e_branch2c
I0202 21:27:06.556185 18286 net.cpp:150] Setting up scale4e_branch2c
I0202 21:27:06.556195 18286 net.cpp:157] Top shape: 1 1024 16 16 (262144)
I0202 21:27:06.556200 18286 net.cpp:165] Memory required for data: 277348352
I0202 21:27:06.556206 18286 layer_factory.hpp:77] Creating layer res4e
I0202 21:27:06.556216 18286 net.cpp:100] Creating Layer res4e
I0202 21:27:06.556221 18286 net.cpp:434] res4e <- res4d_res4d_relu_0_split_1
I0202 21:27:06.556226 18286 net.cpp:434] res4e <- res4e_branch2c
I0202 21:27:06.556231 18286 net.cpp:408] res4e -> res4e
I0202 21:27:06.556259 18286 net.cpp:150] Setting up res4e
I0202 21:27:06.556267 18286 net.cpp:157] Top shape: 1 1024 16 16 (262144)
I0202 21:27:06.556272 18286 net.cpp:165] Memory required for data: 278396928
I0202 21:27:06.556275 18286 layer_factory.hpp:77] Creating layer res4e_relu
I0202 21:27:06.556282 18286 net.cpp:100] Creating Layer res4e_relu
I0202 21:27:06.556285 18286 net.cpp:434] res4e_relu <- res4e
I0202 21:27:06.556293 18286 net.cpp:395] res4e_relu -> res4e (in-place)
I0202 21:27:06.556632 18286 net.cpp:150] Setting up res4e_relu
I0202 21:27:06.556648 18286 net.cpp:157] Top shape: 1 1024 16 16 (262144)
I0202 21:27:06.556653 18286 net.cpp:165] Memory required for data: 279445504
I0202 21:27:06.556658 18286 layer_factory.hpp:77] Creating layer res4e_res4e_relu_0_split
I0202 21:27:06.556664 18286 net.cpp:100] Creating Layer res4e_res4e_relu_0_split
I0202 21:27:06.556669 18286 net.cpp:434] res4e_res4e_relu_0_split <- res4e
I0202 21:27:06.556677 18286 net.cpp:408] res4e_res4e_relu_0_split -> res4e_res4e_relu_0_split_0
I0202 21:27:06.556686 18286 net.cpp:408] res4e_res4e_relu_0_split -> res4e_res4e_relu_0_split_1
I0202 21:27:06.556746 18286 net.cpp:150] Setting up res4e_res4e_relu_0_split
I0202 21:27:06.556757 18286 net.cpp:157] Top shape: 1 1024 16 16 (262144)
I0202 21:27:06.556763 18286 net.cpp:157] Top shape: 1 1024 16 16 (262144)
I0202 21:27:06.556767 18286 net.cpp:165] Memory required for data: 281542656
I0202 21:27:06.556772 18286 layer_factory.hpp:77] Creating layer res4f_branch2a
I0202 21:27:06.556783 18286 net.cpp:100] Creating Layer res4f_branch2a
I0202 21:27:06.556788 18286 net.cpp:434] res4f_branch2a <- res4e_res4e_relu_0_split_0
I0202 21:27:06.556794 18286 net.cpp:408] res4f_branch2a -> res4f_branch2a
I0202 21:27:06.558722 18286 net.cpp:150] Setting up res4f_branch2a
I0202 21:27:06.558753 18286 net.cpp:157] Top shape: 1 256 16 16 (65536)
I0202 21:27:06.558758 18286 net.cpp:165] Memory required for data: 281804800
I0202 21:27:06.558768 18286 layer_factory.hpp:77] Creating layer bn4f_branch2a
I0202 21:27:06.558779 18286 net.cpp:100] Creating Layer bn4f_branch2a
I0202 21:27:06.558786 18286 net.cpp:434] bn4f_branch2a <- res4f_branch2a
I0202 21:27:06.558795 18286 net.cpp:395] bn4f_branch2a -> res4f_branch2a (in-place)
I0202 21:27:06.559026 18286 net.cpp:150] Setting up bn4f_branch2a
I0202 21:27:06.559036 18286 net.cpp:157] Top shape: 1 256 16 16 (65536)
I0202 21:27:06.559041 18286 net.cpp:165] Memory required for data: 282066944
I0202 21:27:06.559049 18286 layer_factory.hpp:77] Creating layer scale4f_branch2a
I0202 21:27:06.559058 18286 net.cpp:100] Creating Layer scale4f_branch2a
I0202 21:27:06.559062 18286 net.cpp:434] scale4f_branch2a <- res4f_branch2a
I0202 21:27:06.559070 18286 net.cpp:395] scale4f_branch2a -> res4f_branch2a (in-place)
I0202 21:27:06.559120 18286 layer_factory.hpp:77] Creating layer scale4f_branch2a
I0202 21:27:06.559252 18286 net.cpp:150] Setting up scale4f_branch2a
I0202 21:27:06.559263 18286 net.cpp:157] Top shape: 1 256 16 16 (65536)
I0202 21:27:06.559268 18286 net.cpp:165] Memory required for data: 282329088
I0202 21:27:06.559275 18286 layer_factory.hpp:77] Creating layer res4f_branch2a_relu
I0202 21:27:06.559283 18286 net.cpp:100] Creating Layer res4f_branch2a_relu
I0202 21:27:06.559288 18286 net.cpp:434] res4f_branch2a_relu <- res4f_branch2a
I0202 21:27:06.559293 18286 net.cpp:395] res4f_branch2a_relu -> res4f_branch2a (in-place)
I0202 21:27:06.559504 18286 net.cpp:150] Setting up res4f_branch2a_relu
I0202 21:27:06.559517 18286 net.cpp:157] Top shape: 1 256 16 16 (65536)
I0202 21:27:06.559522 18286 net.cpp:165] Memory required for data: 282591232
I0202 21:27:06.559526 18286 layer_factory.hpp:77] Creating layer res4f_branch2b
I0202 21:27:06.559537 18286 net.cpp:100] Creating Layer res4f_branch2b
I0202 21:27:06.559542 18286 net.cpp:434] res4f_branch2b <- res4f_branch2a
I0202 21:27:06.559548 18286 net.cpp:408] res4f_branch2b -> res4f_branch2b
I0202 21:27:06.562137 18286 net.cpp:150] Setting up res4f_branch2b
I0202 21:27:06.562175 18286 net.cpp:157] Top shape: 1 256 16 16 (65536)
I0202 21:27:06.562180 18286 net.cpp:165] Memory required for data: 282853376
I0202 21:27:06.562188 18286 layer_factory.hpp:77] Creating layer bn4f_branch2b
I0202 21:27:06.562201 18286 net.cpp:100] Creating Layer bn4f_branch2b
I0202 21:27:06.562207 18286 net.cpp:434] bn4f_branch2b <- res4f_branch2b
I0202 21:27:06.562214 18286 net.cpp:395] bn4f_branch2b -> res4f_branch2b (in-place)
I0202 21:27:06.562454 18286 net.cpp:150] Setting up bn4f_branch2b
I0202 21:27:06.562465 18286 net.cpp:157] Top shape: 1 256 16 16 (65536)
I0202 21:27:06.562469 18286 net.cpp:165] Memory required for data: 283115520
I0202 21:27:06.562479 18286 layer_factory.hpp:77] Creating layer scale4f_branch2b
I0202 21:27:06.562486 18286 net.cpp:100] Creating Layer scale4f_branch2b
I0202 21:27:06.562491 18286 net.cpp:434] scale4f_branch2b <- res4f_branch2b
I0202 21:27:06.562499 18286 net.cpp:395] scale4f_branch2b -> res4f_branch2b (in-place)
I0202 21:27:06.562551 18286 layer_factory.hpp:77] Creating layer scale4f_branch2b
I0202 21:27:06.562690 18286 net.cpp:150] Setting up scale4f_branch2b
I0202 21:27:06.562700 18286 net.cpp:157] Top shape: 1 256 16 16 (65536)
I0202 21:27:06.562705 18286 net.cpp:165] Memory required for data: 283377664
I0202 21:27:06.562711 18286 layer_factory.hpp:77] Creating layer res4f_branch2b_relu
I0202 21:27:06.562719 18286 net.cpp:100] Creating Layer res4f_branch2b_relu
I0202 21:27:06.562724 18286 net.cpp:434] res4f_branch2b_relu <- res4f_branch2b
I0202 21:27:06.562729 18286 net.cpp:395] res4f_branch2b_relu -> res4f_branch2b (in-place)
I0202 21:27:06.562927 18286 net.cpp:150] Setting up res4f_branch2b_relu
I0202 21:27:06.562940 18286 net.cpp:157] Top shape: 1 256 16 16 (65536)
I0202 21:27:06.562944 18286 net.cpp:165] Memory required for data: 283639808
I0202 21:27:06.562949 18286 layer_factory.hpp:77] Creating layer res4f_branch2c
I0202 21:27:06.562960 18286 net.cpp:100] Creating Layer res4f_branch2c
I0202 21:27:06.562966 18286 net.cpp:434] res4f_branch2c <- res4f_branch2b
I0202 21:27:06.562973 18286 net.cpp:408] res4f_branch2c -> res4f_branch2c
I0202 21:27:06.564834 18286 net.cpp:150] Setting up res4f_branch2c
I0202 21:27:06.564870 18286 net.cpp:157] Top shape: 1 1024 16 16 (262144)
I0202 21:27:06.564875 18286 net.cpp:165] Memory required for data: 284688384
I0202 21:27:06.564883 18286 layer_factory.hpp:77] Creating layer bn4f_branch2c
I0202 21:27:06.564894 18286 net.cpp:100] Creating Layer bn4f_branch2c
I0202 21:27:06.564900 18286 net.cpp:434] bn4f_branch2c <- res4f_branch2c
I0202 21:27:06.564908 18286 net.cpp:395] bn4f_branch2c -> res4f_branch2c (in-place)
I0202 21:27:06.565148 18286 net.cpp:150] Setting up bn4f_branch2c
I0202 21:27:06.565160 18286 net.cpp:157] Top shape: 1 1024 16 16 (262144)
I0202 21:27:06.565163 18286 net.cpp:165] Memory required for data: 285736960
I0202 21:27:06.565210 18286 layer_factory.hpp:77] Creating layer scale4f_branch2c
I0202 21:27:06.565222 18286 net.cpp:100] Creating Layer scale4f_branch2c
I0202 21:27:06.565228 18286 net.cpp:434] scale4f_branch2c <- res4f_branch2c
I0202 21:27:06.565234 18286 net.cpp:395] scale4f_branch2c -> res4f_branch2c (in-place)
I0202 21:27:06.565289 18286 layer_factory.hpp:77] Creating layer scale4f_branch2c
I0202 21:27:06.565429 18286 net.cpp:150] Setting up scale4f_branch2c
I0202 21:27:06.565440 18286 net.cpp:157] Top shape: 1 1024 16 16 (262144)
I0202 21:27:06.565444 18286 net.cpp:165] Memory required for data: 286785536
I0202 21:27:06.565451 18286 layer_factory.hpp:77] Creating layer res4f
I0202 21:27:06.565459 18286 net.cpp:100] Creating Layer res4f
I0202 21:27:06.565464 18286 net.cpp:434] res4f <- res4e_res4e_relu_0_split_1
I0202 21:27:06.565469 18286 net.cpp:434] res4f <- res4f_branch2c
I0202 21:27:06.565476 18286 net.cpp:408] res4f -> res4f
I0202 21:27:06.565502 18286 net.cpp:150] Setting up res4f
I0202 21:27:06.565510 18286 net.cpp:157] Top shape: 1 1024 16 16 (262144)
I0202 21:27:06.565515 18286 net.cpp:165] Memory required for data: 287834112
I0202 21:27:06.565518 18286 layer_factory.hpp:77] Creating layer res4f_relu
I0202 21:27:06.565526 18286 net.cpp:100] Creating Layer res4f_relu
I0202 21:27:06.565531 18286 net.cpp:434] res4f_relu <- res4f
I0202 21:27:06.565536 18286 net.cpp:395] res4f_relu -> res4f (in-place)
I0202 21:27:06.565886 18286 net.cpp:150] Setting up res4f_relu
I0202 21:27:06.565903 18286 net.cpp:157] Top shape: 1 1024 16 16 (262144)
I0202 21:27:06.565907 18286 net.cpp:165] Memory required for data: 288882688
I0202 21:27:06.565912 18286 layer_factory.hpp:77] Creating layer res4f_res4f_relu_0_split
I0202 21:27:06.565920 18286 net.cpp:100] Creating Layer res4f_res4f_relu_0_split
I0202 21:27:06.565925 18286 net.cpp:434] res4f_res4f_relu_0_split <- res4f
I0202 21:27:06.565932 18286 net.cpp:408] res4f_res4f_relu_0_split -> res4f_res4f_relu_0_split_0
I0202 21:27:06.565940 18286 net.cpp:408] res4f_res4f_relu_0_split -> res4f_res4f_relu_0_split_1
I0202 21:27:06.565996 18286 net.cpp:150] Setting up res4f_res4f_relu_0_split
I0202 21:27:06.566006 18286 net.cpp:157] Top shape: 1 1024 16 16 (262144)
I0202 21:27:06.566011 18286 net.cpp:157] Top shape: 1 1024 16 16 (262144)
I0202 21:27:06.566015 18286 net.cpp:165] Memory required for data: 290979840
I0202 21:27:06.566020 18286 layer_factory.hpp:77] Creating layer res5a_branch1
I0202 21:27:06.566030 18286 net.cpp:100] Creating Layer res5a_branch1
I0202 21:27:06.566035 18286 net.cpp:434] res5a_branch1 <- res4f_res4f_relu_0_split_0
I0202 21:27:06.566043 18286 net.cpp:408] res5a_branch1 -> res5a_branch1
I0202 21:27:06.571681 18286 net.cpp:150] Setting up res5a_branch1
I0202 21:27:06.571727 18286 net.cpp:157] Top shape: 1 2048 8 8 (131072)
I0202 21:27:06.571732 18286 net.cpp:165] Memory required for data: 291504128
I0202 21:27:06.571741 18286 layer_factory.hpp:77] Creating layer bn5a_branch1
I0202 21:27:06.571755 18286 net.cpp:100] Creating Layer bn5a_branch1
I0202 21:27:06.571763 18286 net.cpp:434] bn5a_branch1 <- res5a_branch1
I0202 21:27:06.571770 18286 net.cpp:395] bn5a_branch1 -> res5a_branch1 (in-place)
I0202 21:27:06.572034 18286 net.cpp:150] Setting up bn5a_branch1
I0202 21:27:06.572048 18286 net.cpp:157] Top shape: 1 2048 8 8 (131072)
I0202 21:27:06.572057 18286 net.cpp:165] Memory required for data: 292028416
I0202 21:27:06.572070 18286 layer_factory.hpp:77] Creating layer scale5a_branch1
I0202 21:27:06.572084 18286 net.cpp:100] Creating Layer scale5a_branch1
I0202 21:27:06.572093 18286 net.cpp:434] scale5a_branch1 <- res5a_branch1
I0202 21:27:06.572103 18286 net.cpp:395] scale5a_branch1 -> res5a_branch1 (in-place)
I0202 21:27:06.572181 18286 layer_factory.hpp:77] Creating layer scale5a_branch1
I0202 21:27:06.572352 18286 net.cpp:150] Setting up scale5a_branch1
I0202 21:27:06.572366 18286 net.cpp:157] Top shape: 1 2048 8 8 (131072)
I0202 21:27:06.572374 18286 net.cpp:165] Memory required for data: 292552704
I0202 21:27:06.572387 18286 layer_factory.hpp:77] Creating layer res5a_branch2a
I0202 21:27:06.572405 18286 net.cpp:100] Creating Layer res5a_branch2a
I0202 21:27:06.572417 18286 net.cpp:434] res5a_branch2a <- res4f_res4f_relu_0_split_1
I0202 21:27:06.572429 18286 net.cpp:408] res5a_branch2a -> res5a_branch2a
I0202 21:27:06.574537 18286 net.cpp:150] Setting up res5a_branch2a
I0202 21:27:06.574558 18286 net.cpp:157] Top shape: 1 512 8 8 (32768)
I0202 21:27:06.574566 18286 net.cpp:165] Memory required for data: 292683776
I0202 21:27:06.574590 18286 layer_factory.hpp:77] Creating layer bn5a_branch2a
I0202 21:27:06.574604 18286 net.cpp:100] Creating Layer bn5a_branch2a
I0202 21:27:06.574614 18286 net.cpp:434] bn5a_branch2a <- res5a_branch2a
I0202 21:27:06.574627 18286 net.cpp:395] bn5a_branch2a -> res5a_branch2a (in-place)
I0202 21:27:06.574897 18286 net.cpp:150] Setting up bn5a_branch2a
I0202 21:27:06.574911 18286 net.cpp:157] Top shape: 1 512 8 8 (32768)
I0202 21:27:06.574919 18286 net.cpp:165] Memory required for data: 292814848
I0202 21:27:06.574934 18286 layer_factory.hpp:77] Creating layer scale5a_branch2a
I0202 21:27:06.574947 18286 net.cpp:100] Creating Layer scale5a_branch2a
I0202 21:27:06.574960 18286 net.cpp:434] scale5a_branch2a <- res5a_branch2a
I0202 21:27:06.574971 18286 net.cpp:395] scale5a_branch2a -> res5a_branch2a (in-place)
I0202 21:27:06.575040 18286 layer_factory.hpp:77] Creating layer scale5a_branch2a
I0202 21:27:06.575202 18286 net.cpp:150] Setting up scale5a_branch2a
I0202 21:27:06.575217 18286 net.cpp:157] Top shape: 1 512 8 8 (32768)
I0202 21:27:06.575223 18286 net.cpp:165] Memory required for data: 292945920
I0202 21:27:06.575237 18286 layer_factory.hpp:77] Creating layer res5a_branch2a_relu
I0202 21:27:06.575251 18286 net.cpp:100] Creating Layer res5a_branch2a_relu
I0202 21:27:06.575261 18286 net.cpp:434] res5a_branch2a_relu <- res5a_branch2a
I0202 21:27:06.575273 18286 net.cpp:395] res5a_branch2a_relu -> res5a_branch2a (in-place)
I0202 21:27:06.575646 18286 net.cpp:150] Setting up res5a_branch2a_relu
I0202 21:27:06.575665 18286 net.cpp:157] Top shape: 1 512 8 8 (32768)
I0202 21:27:06.575675 18286 net.cpp:165] Memory required for data: 293076992
I0202 21:27:06.575682 18286 layer_factory.hpp:77] Creating layer res5a_branch2b
I0202 21:27:06.575697 18286 net.cpp:100] Creating Layer res5a_branch2b
I0202 21:27:06.575711 18286 net.cpp:434] res5a_branch2b <- res5a_branch2a
I0202 21:27:06.575726 18286 net.cpp:408] res5a_branch2b -> res5a_branch2b
I0202 21:27:06.581966 18286 net.cpp:150] Setting up res5a_branch2b
I0202 21:27:06.582005 18286 net.cpp:157] Top shape: 1 512 8 8 (32768)
I0202 21:27:06.582012 18286 net.cpp:165] Memory required for data: 293208064
I0202 21:27:06.582026 18286 layer_factory.hpp:77] Creating layer bn5a_branch2b
I0202 21:27:06.582046 18286 net.cpp:100] Creating Layer bn5a_branch2b
I0202 21:27:06.582057 18286 net.cpp:434] bn5a_branch2b <- res5a_branch2b
I0202 21:27:06.582070 18286 net.cpp:395] bn5a_branch2b -> res5a_branch2b (in-place)
I0202 21:27:06.582348 18286 net.cpp:150] Setting up bn5a_branch2b
I0202 21:27:06.582363 18286 net.cpp:157] Top shape: 1 512 8 8 (32768)
I0202 21:27:06.582371 18286 net.cpp:165] Memory required for data: 293339136
I0202 21:27:06.582391 18286 layer_factory.hpp:77] Creating layer scale5a_branch2b
I0202 21:27:06.582407 18286 net.cpp:100] Creating Layer scale5a_branch2b
I0202 21:27:06.582419 18286 net.cpp:434] scale5a_branch2b <- res5a_branch2b
I0202 21:27:06.582432 18286 net.cpp:395] scale5a_branch2b -> res5a_branch2b (in-place)
I0202 21:27:06.582499 18286 layer_factory.hpp:77] Creating layer scale5a_branch2b
I0202 21:27:06.582662 18286 net.cpp:150] Setting up scale5a_branch2b
I0202 21:27:06.582676 18286 net.cpp:157] Top shape: 1 512 8 8 (32768)
I0202 21:27:06.582684 18286 net.cpp:165] Memory required for data: 293470208
I0202 21:27:06.582697 18286 layer_factory.hpp:77] Creating layer res5a_branch2b_relu
I0202 21:27:06.582716 18286 net.cpp:100] Creating Layer res5a_branch2b_relu
I0202 21:27:06.582726 18286 net.cpp:434] res5a_branch2b_relu <- res5a_branch2b
I0202 21:27:06.582736 18286 net.cpp:395] res5a_branch2b_relu -> res5a_branch2b (in-place)
I0202 21:27:06.582952 18286 net.cpp:150] Setting up res5a_branch2b_relu
I0202 21:27:06.582967 18286 net.cpp:157] Top shape: 1 512 8 8 (32768)
I0202 21:27:06.582975 18286 net.cpp:165] Memory required for data: 293601280
I0202 21:27:06.582983 18286 layer_factory.hpp:77] Creating layer res5a_branch2c
I0202 21:27:06.583001 18286 net.cpp:100] Creating Layer res5a_branch2c
I0202 21:27:06.583012 18286 net.cpp:434] res5a_branch2c <- res5a_branch2b
I0202 21:27:06.583025 18286 net.cpp:408] res5a_branch2c -> res5a_branch2c
I0202 21:27:06.586374 18286 net.cpp:150] Setting up res5a_branch2c
I0202 21:27:06.586398 18286 net.cpp:157] Top shape: 1 2048 8 8 (131072)
I0202 21:27:06.586407 18286 net.cpp:165] Memory required for data: 294125568
I0202 21:27:06.586419 18286 layer_factory.hpp:77] Creating layer bn5a_branch2c
I0202 21:27:06.586436 18286 net.cpp:100] Creating Layer bn5a_branch2c
I0202 21:27:06.586446 18286 net.cpp:434] bn5a_branch2c <- res5a_branch2c
I0202 21:27:06.586458 18286 net.cpp:395] bn5a_branch2c -> res5a_branch2c (in-place)
I0202 21:27:06.586735 18286 net.cpp:150] Setting up bn5a_branch2c
I0202 21:27:06.586750 18286 net.cpp:157] Top shape: 1 2048 8 8 (131072)
I0202 21:27:06.586758 18286 net.cpp:165] Memory required for data: 294649856
I0202 21:27:06.586774 18286 layer_factory.hpp:77] Creating layer scale5a_branch2c
I0202 21:27:06.586793 18286 net.cpp:100] Creating Layer scale5a_branch2c
I0202 21:27:06.586808 18286 net.cpp:434] scale5a_branch2c <- res5a_branch2c
I0202 21:27:06.586822 18286 net.cpp:395] scale5a_branch2c -> res5a_branch2c (in-place)
I0202 21:27:06.586891 18286 layer_factory.hpp:77] Creating layer scale5a_branch2c
I0202 21:27:06.587059 18286 net.cpp:150] Setting up scale5a_branch2c
I0202 21:27:06.587074 18286 net.cpp:157] Top shape: 1 2048 8 8 (131072)
I0202 21:27:06.587081 18286 net.cpp:165] Memory required for data: 295174144
I0202 21:27:06.587095 18286 layer_factory.hpp:77] Creating layer res5a
I0202 21:27:06.587111 18286 net.cpp:100] Creating Layer res5a
I0202 21:27:06.587121 18286 net.cpp:434] res5a <- res5a_branch1
I0202 21:27:06.587132 18286 net.cpp:434] res5a <- res5a_branch2c
I0202 21:27:06.587146 18286 net.cpp:408] res5a -> res5a
I0202 21:27:06.587190 18286 net.cpp:150] Setting up res5a
I0202 21:27:06.587203 18286 net.cpp:157] Top shape: 1 2048 8 8 (131072)
I0202 21:27:06.587211 18286 net.cpp:165] Memory required for data: 295698432
I0202 21:27:06.587219 18286 layer_factory.hpp:77] Creating layer res5a_relu
I0202 21:27:06.587234 18286 net.cpp:100] Creating Layer res5a_relu
I0202 21:27:06.587245 18286 net.cpp:434] res5a_relu <- res5a
I0202 21:27:06.587256 18286 net.cpp:395] res5a_relu -> res5a (in-place)
I0202 21:27:06.587615 18286 net.cpp:150] Setting up res5a_relu
I0202 21:27:06.587633 18286 net.cpp:157] Top shape: 1 2048 8 8 (131072)
I0202 21:27:06.587641 18286 net.cpp:165] Memory required for data: 296222720
I0202 21:27:06.587649 18286 layer_factory.hpp:77] Creating layer res5a_res5a_relu_0_split
I0202 21:27:06.587663 18286 net.cpp:100] Creating Layer res5a_res5a_relu_0_split
I0202 21:27:06.587673 18286 net.cpp:434] res5a_res5a_relu_0_split <- res5a
I0202 21:27:06.587685 18286 net.cpp:408] res5a_res5a_relu_0_split -> res5a_res5a_relu_0_split_0
I0202 21:27:06.587699 18286 net.cpp:408] res5a_res5a_relu_0_split -> res5a_res5a_relu_0_split_1
I0202 21:27:06.587771 18286 net.cpp:150] Setting up res5a_res5a_relu_0_split
I0202 21:27:06.587785 18286 net.cpp:157] Top shape: 1 2048 8 8 (131072)
I0202 21:27:06.587795 18286 net.cpp:157] Top shape: 1 2048 8 8 (131072)
I0202 21:27:06.587802 18286 net.cpp:165] Memory required for data: 297271296
I0202 21:27:06.587810 18286 layer_factory.hpp:77] Creating layer res5b_branch2a
I0202 21:27:06.587827 18286 net.cpp:100] Creating Layer res5b_branch2a
I0202 21:27:06.587836 18286 net.cpp:434] res5b_branch2a <- res5a_res5a_relu_0_split_0
I0202 21:27:06.587848 18286 net.cpp:408] res5b_branch2a -> res5b_branch2a
I0202 21:27:06.591089 18286 net.cpp:150] Setting up res5b_branch2a
I0202 21:27:06.591114 18286 net.cpp:157] Top shape: 1 512 8 8 (32768)
I0202 21:27:06.591122 18286 net.cpp:165] Memory required for data: 297402368
I0202 21:27:06.591145 18286 layer_factory.hpp:77] Creating layer bn5b_branch2a
I0202 21:27:06.591161 18286 net.cpp:100] Creating Layer bn5b_branch2a
I0202 21:27:06.591171 18286 net.cpp:434] bn5b_branch2a <- res5b_branch2a
I0202 21:27:06.591182 18286 net.cpp:395] bn5b_branch2a -> res5b_branch2a (in-place)
I0202 21:27:06.591459 18286 net.cpp:150] Setting up bn5b_branch2a
I0202 21:27:06.591475 18286 net.cpp:157] Top shape: 1 512 8 8 (32768)
I0202 21:27:06.591482 18286 net.cpp:165] Memory required for data: 297533440
I0202 21:27:06.591501 18286 layer_factory.hpp:77] Creating layer scale5b_branch2a
I0202 21:27:06.591517 18286 net.cpp:100] Creating Layer scale5b_branch2a
I0202 21:27:06.591526 18286 net.cpp:434] scale5b_branch2a <- res5b_branch2a
I0202 21:27:06.591537 18286 net.cpp:395] scale5b_branch2a -> res5b_branch2a (in-place)
I0202 21:27:06.591609 18286 layer_factory.hpp:77] Creating layer scale5b_branch2a
I0202 21:27:06.591778 18286 net.cpp:150] Setting up scale5b_branch2a
I0202 21:27:06.591792 18286 net.cpp:157] Top shape: 1 512 8 8 (32768)
I0202 21:27:06.591800 18286 net.cpp:165] Memory required for data: 297664512
I0202 21:27:06.591814 18286 layer_factory.hpp:77] Creating layer res5b_branch2a_relu
I0202 21:27:06.591827 18286 net.cpp:100] Creating Layer res5b_branch2a_relu
I0202 21:27:06.591838 18286 net.cpp:434] res5b_branch2a_relu <- res5b_branch2a
I0202 21:27:06.591850 18286 net.cpp:395] res5b_branch2a_relu -> res5b_branch2a (in-place)
I0202 21:27:06.592222 18286 net.cpp:150] Setting up res5b_branch2a_relu
I0202 21:27:06.592241 18286 net.cpp:157] Top shape: 1 512 8 8 (32768)
I0202 21:27:06.592248 18286 net.cpp:165] Memory required for data: 297795584
I0202 21:27:06.592257 18286 layer_factory.hpp:77] Creating layer res5b_branch2b
I0202 21:27:06.592275 18286 net.cpp:100] Creating Layer res5b_branch2b
I0202 21:27:06.592288 18286 net.cpp:434] res5b_branch2b <- res5b_branch2a
I0202 21:27:06.592301 18286 net.cpp:408] res5b_branch2b -> res5b_branch2b
I0202 21:27:06.598918 18286 net.cpp:150] Setting up res5b_branch2b
I0202 21:27:06.598965 18286 net.cpp:157] Top shape: 1 512 8 8 (32768)
I0202 21:27:06.598973 18286 net.cpp:165] Memory required for data: 297926656
I0202 21:27:06.598985 18286 layer_factory.hpp:77] Creating layer bn5b_branch2b
I0202 21:27:06.599014 18286 net.cpp:100] Creating Layer bn5b_branch2b
I0202 21:27:06.599025 18286 net.cpp:434] bn5b_branch2b <- res5b_branch2b
I0202 21:27:06.599041 18286 net.cpp:395] bn5b_branch2b -> res5b_branch2b (in-place)
I0202 21:27:06.599329 18286 net.cpp:150] Setting up bn5b_branch2b
I0202 21:27:06.599345 18286 net.cpp:157] Top shape: 1 512 8 8 (32768)
I0202 21:27:06.599352 18286 net.cpp:165] Memory required for data: 298057728
I0202 21:27:06.599370 18286 layer_factory.hpp:77] Creating layer scale5b_branch2b
I0202 21:27:06.599390 18286 net.cpp:100] Creating Layer scale5b_branch2b
I0202 21:27:06.599401 18286 net.cpp:434] scale5b_branch2b <- res5b_branch2b
I0202 21:27:06.599412 18286 net.cpp:395] scale5b_branch2b -> res5b_branch2b (in-place)
I0202 21:27:06.599483 18286 layer_factory.hpp:77] Creating layer scale5b_branch2b
I0202 21:27:06.599653 18286 net.cpp:150] Setting up scale5b_branch2b
I0202 21:27:06.599666 18286 net.cpp:157] Top shape: 1 512 8 8 (32768)
I0202 21:27:06.599674 18286 net.cpp:165] Memory required for data: 298188800
I0202 21:27:06.599687 18286 layer_factory.hpp:77] Creating layer res5b_branch2b_relu
I0202 21:27:06.599702 18286 net.cpp:100] Creating Layer res5b_branch2b_relu
I0202 21:27:06.599714 18286 net.cpp:434] res5b_branch2b_relu <- res5b_branch2b
I0202 21:27:06.599723 18286 net.cpp:395] res5b_branch2b_relu -> res5b_branch2b (in-place)
I0202 21:27:06.599949 18286 net.cpp:150] Setting up res5b_branch2b_relu
I0202 21:27:06.599967 18286 net.cpp:157] Top shape: 1 512 8 8 (32768)
I0202 21:27:06.599977 18286 net.cpp:165] Memory required for data: 298319872
I0202 21:27:06.599985 18286 layer_factory.hpp:77] Creating layer res5b_branch2c
I0202 21:27:06.600003 18286 net.cpp:100] Creating Layer res5b_branch2c
I0202 21:27:06.600014 18286 net.cpp:434] res5b_branch2c <- res5b_branch2b
I0202 21:27:06.600026 18286 net.cpp:408] res5b_branch2c -> res5b_branch2c
I0202 21:27:06.603404 18286 net.cpp:150] Setting up res5b_branch2c
I0202 21:27:06.603435 18286 net.cpp:157] Top shape: 1 2048 8 8 (131072)
I0202 21:27:06.603443 18286 net.cpp:165] Memory required for data: 298844160
I0202 21:27:06.603467 18286 layer_factory.hpp:77] Creating layer bn5b_branch2c
I0202 21:27:06.603485 18286 net.cpp:100] Creating Layer bn5b_branch2c
I0202 21:27:06.603495 18286 net.cpp:434] bn5b_branch2c <- res5b_branch2c
I0202 21:27:06.603510 18286 net.cpp:395] bn5b_branch2c -> res5b_branch2c (in-place)
I0202 21:27:06.603796 18286 net.cpp:150] Setting up bn5b_branch2c
I0202 21:27:06.603811 18286 net.cpp:157] Top shape: 1 2048 8 8 (131072)
I0202 21:27:06.603818 18286 net.cpp:165] Memory required for data: 299368448
I0202 21:27:06.603834 18286 layer_factory.hpp:77] Creating layer scale5b_branch2c
I0202 21:27:06.603850 18286 net.cpp:100] Creating Layer scale5b_branch2c
I0202 21:27:06.603863 18286 net.cpp:434] scale5b_branch2c <- res5b_branch2c
I0202 21:27:06.603874 18286 net.cpp:395] scale5b_branch2c -> res5b_branch2c (in-place)
I0202 21:27:06.603948 18286 layer_factory.hpp:77] Creating layer scale5b_branch2c
I0202 21:27:06.604127 18286 net.cpp:150] Setting up scale5b_branch2c
I0202 21:27:06.604141 18286 net.cpp:157] Top shape: 1 2048 8 8 (131072)
I0202 21:27:06.604149 18286 net.cpp:165] Memory required for data: 299892736
I0202 21:27:06.604162 18286 layer_factory.hpp:77] Creating layer res5b
I0202 21:27:06.604174 18286 net.cpp:100] Creating Layer res5b
I0202 21:27:06.604185 18286 net.cpp:434] res5b <- res5a_res5a_relu_0_split_1
I0202 21:27:06.604195 18286 net.cpp:434] res5b <- res5b_branch2c
I0202 21:27:06.604209 18286 net.cpp:408] res5b -> res5b
I0202 21:27:06.604256 18286 net.cpp:150] Setting up res5b
I0202 21:27:06.604272 18286 net.cpp:157] Top shape: 1 2048 8 8 (131072)
I0202 21:27:06.604280 18286 net.cpp:165] Memory required for data: 300417024
I0202 21:27:06.604288 18286 layer_factory.hpp:77] Creating layer res5b_relu
I0202 21:27:06.604300 18286 net.cpp:100] Creating Layer res5b_relu
I0202 21:27:06.604311 18286 net.cpp:434] res5b_relu <- res5b
I0202 21:27:06.604321 18286 net.cpp:395] res5b_relu -> res5b (in-place)
I0202 21:27:06.604681 18286 net.cpp:150] Setting up res5b_relu
I0202 21:27:06.604701 18286 net.cpp:157] Top shape: 1 2048 8 8 (131072)
I0202 21:27:06.604708 18286 net.cpp:165] Memory required for data: 300941312
I0202 21:27:06.604717 18286 layer_factory.hpp:77] Creating layer res5b_res5b_relu_0_split
I0202 21:27:06.604728 18286 net.cpp:100] Creating Layer res5b_res5b_relu_0_split
I0202 21:27:06.604737 18286 net.cpp:434] res5b_res5b_relu_0_split <- res5b
I0202 21:27:06.604756 18286 net.cpp:408] res5b_res5b_relu_0_split -> res5b_res5b_relu_0_split_0
I0202 21:27:06.604774 18286 net.cpp:408] res5b_res5b_relu_0_split -> res5b_res5b_relu_0_split_1
I0202 21:27:06.604848 18286 net.cpp:150] Setting up res5b_res5b_relu_0_split
I0202 21:27:06.604862 18286 net.cpp:157] Top shape: 1 2048 8 8 (131072)
I0202 21:27:06.604871 18286 net.cpp:157] Top shape: 1 2048 8 8 (131072)
I0202 21:27:06.604879 18286 net.cpp:165] Memory required for data: 301989888
I0202 21:27:06.604887 18286 layer_factory.hpp:77] Creating layer res5c_branch2a
I0202 21:27:06.604907 18286 net.cpp:100] Creating Layer res5c_branch2a
I0202 21:27:06.604918 18286 net.cpp:434] res5c_branch2a <- res5b_res5b_relu_0_split_0
I0202 21:27:06.604933 18286 net.cpp:408] res5c_branch2a -> res5c_branch2a
I0202 21:27:06.608286 18286 net.cpp:150] Setting up res5c_branch2a
I0202 21:27:06.608320 18286 net.cpp:157] Top shape: 1 512 8 8 (32768)
I0202 21:27:06.608328 18286 net.cpp:165] Memory required for data: 302120960
I0202 21:27:06.608341 18286 layer_factory.hpp:77] Creating layer bn5c_branch2a
I0202 21:27:06.608368 18286 net.cpp:100] Creating Layer bn5c_branch2a
I0202 21:27:06.608378 18286 net.cpp:434] bn5c_branch2a <- res5c_branch2a
I0202 21:27:06.608392 18286 net.cpp:395] bn5c_branch2a -> res5c_branch2a (in-place)
I0202 21:27:06.608685 18286 net.cpp:150] Setting up bn5c_branch2a
I0202 21:27:06.608700 18286 net.cpp:157] Top shape: 1 512 8 8 (32768)
I0202 21:27:06.608707 18286 net.cpp:165] Memory required for data: 302252032
I0202 21:27:06.608723 18286 layer_factory.hpp:77] Creating layer scale5c_branch2a
I0202 21:27:06.608749 18286 net.cpp:100] Creating Layer scale5c_branch2a
I0202 21:27:06.608762 18286 net.cpp:434] scale5c_branch2a <- res5c_branch2a
I0202 21:27:06.608773 18286 net.cpp:395] scale5c_branch2a -> res5c_branch2a (in-place)
I0202 21:27:06.608847 18286 layer_factory.hpp:77] Creating layer scale5c_branch2a
I0202 21:27:06.609026 18286 net.cpp:150] Setting up scale5c_branch2a
I0202 21:27:06.609040 18286 net.cpp:157] Top shape: 1 512 8 8 (32768)
I0202 21:27:06.609048 18286 net.cpp:165] Memory required for data: 302383104
I0202 21:27:06.609061 18286 layer_factory.hpp:77] Creating layer res5c_branch2a_relu
I0202 21:27:06.609074 18286 net.cpp:100] Creating Layer res5c_branch2a_relu
I0202 21:27:06.609086 18286 net.cpp:434] res5c_branch2a_relu <- res5c_branch2a
I0202 21:27:06.609098 18286 net.cpp:395] res5c_branch2a_relu -> res5c_branch2a (in-place)
I0202 21:27:06.609467 18286 net.cpp:150] Setting up res5c_branch2a_relu
I0202 21:27:06.609484 18286 net.cpp:157] Top shape: 1 512 8 8 (32768)
I0202 21:27:06.609493 18286 net.cpp:165] Memory required for data: 302514176
I0202 21:27:06.609501 18286 layer_factory.hpp:77] Creating layer res5c_branch2b
I0202 21:27:06.609519 18286 net.cpp:100] Creating Layer res5c_branch2b
I0202 21:27:06.609531 18286 net.cpp:434] res5c_branch2b <- res5c_branch2a
I0202 21:27:06.609544 18286 net.cpp:408] res5c_branch2b -> res5c_branch2b
I0202 21:27:06.615983 18286 net.cpp:150] Setting up res5c_branch2b
I0202 21:27:06.616020 18286 net.cpp:157] Top shape: 1 512 8 8 (32768)
I0202 21:27:06.616029 18286 net.cpp:165] Memory required for data: 302645248
I0202 21:27:06.616052 18286 layer_factory.hpp:77] Creating layer bn5c_branch2b
I0202 21:27:06.616072 18286 net.cpp:100] Creating Layer bn5c_branch2b
I0202 21:27:06.616084 18286 net.cpp:434] bn5c_branch2b <- res5c_branch2b
I0202 21:27:06.616097 18286 net.cpp:395] bn5c_branch2b -> res5c_branch2b (in-place)
I0202 21:27:06.616389 18286 net.cpp:150] Setting up bn5c_branch2b
I0202 21:27:06.616405 18286 net.cpp:157] Top shape: 1 512 8 8 (32768)
I0202 21:27:06.616412 18286 net.cpp:165] Memory required for data: 302776320
I0202 21:27:06.616430 18286 layer_factory.hpp:77] Creating layer scale5c_branch2b
I0202 21:27:06.616443 18286 net.cpp:100] Creating Layer scale5c_branch2b
I0202 21:27:06.616454 18286 net.cpp:434] scale5c_branch2b <- res5c_branch2b
I0202 21:27:06.616468 18286 net.cpp:395] scale5c_branch2b -> res5c_branch2b (in-place)
I0202 21:27:06.616539 18286 layer_factory.hpp:77] Creating layer scale5c_branch2b
I0202 21:27:06.616719 18286 net.cpp:150] Setting up scale5c_branch2b
I0202 21:27:06.616734 18286 net.cpp:157] Top shape: 1 512 8 8 (32768)
I0202 21:27:06.616747 18286 net.cpp:165] Memory required for data: 302907392
I0202 21:27:06.616762 18286 layer_factory.hpp:77] Creating layer res5c_branch2b_relu
I0202 21:27:06.616775 18286 net.cpp:100] Creating Layer res5c_branch2b_relu
I0202 21:27:06.616783 18286 net.cpp:434] res5c_branch2b_relu <- res5c_branch2b
I0202 21:27:06.616793 18286 net.cpp:395] res5c_branch2b_relu -> res5c_branch2b (in-place)
I0202 21:27:06.617010 18286 net.cpp:150] Setting up res5c_branch2b_relu
I0202 21:27:06.617027 18286 net.cpp:157] Top shape: 1 512 8 8 (32768)
I0202 21:27:06.617034 18286 net.cpp:165] Memory required for data: 303038464
I0202 21:27:06.617043 18286 layer_factory.hpp:77] Creating layer res5c_branch2c
I0202 21:27:06.617059 18286 net.cpp:100] Creating Layer res5c_branch2c
I0202 21:27:06.617069 18286 net.cpp:434] res5c_branch2c <- res5c_branch2b
I0202 21:27:06.617080 18286 net.cpp:408] res5c_branch2c -> res5c_branch2c
I0202 21:27:06.620362 18286 net.cpp:150] Setting up res5c_branch2c
I0202 21:27:06.620388 18286 net.cpp:157] Top shape: 1 2048 8 8 (131072)
I0202 21:27:06.620396 18286 net.cpp:165] Memory required for data: 303562752
I0202 21:27:06.620409 18286 layer_factory.hpp:77] Creating layer bn5c_branch2c
I0202 21:27:06.620425 18286 net.cpp:100] Creating Layer bn5c_branch2c
I0202 21:27:06.620437 18286 net.cpp:434] bn5c_branch2c <- res5c_branch2c
I0202 21:27:06.620450 18286 net.cpp:395] bn5c_branch2c -> res5c_branch2c (in-place)
I0202 21:27:06.620754 18286 net.cpp:150] Setting up bn5c_branch2c
I0202 21:27:06.620770 18286 net.cpp:157] Top shape: 1 2048 8 8 (131072)
I0202 21:27:06.620779 18286 net.cpp:165] Memory required for data: 304087040
I0202 21:27:06.620795 18286 layer_factory.hpp:77] Creating layer scale5c_branch2c
I0202 21:27:06.620810 18286 net.cpp:100] Creating Layer scale5c_branch2c
I0202 21:27:06.620822 18286 net.cpp:434] scale5c_branch2c <- res5c_branch2c
I0202 21:27:06.620834 18286 net.cpp:395] scale5c_branch2c -> res5c_branch2c (in-place)
I0202 21:27:06.620911 18286 layer_factory.hpp:77] Creating layer scale5c_branch2c
I0202 21:27:06.621089 18286 net.cpp:150] Setting up scale5c_branch2c
I0202 21:27:06.621104 18286 net.cpp:157] Top shape: 1 2048 8 8 (131072)
I0202 21:27:06.621111 18286 net.cpp:165] Memory required for data: 304611328
I0202 21:27:06.621124 18286 layer_factory.hpp:77] Creating layer res5c
I0202 21:27:06.621136 18286 net.cpp:100] Creating Layer res5c
I0202 21:27:06.621146 18286 net.cpp:434] res5c <- res5b_res5b_relu_0_split_1
I0202 21:27:06.621162 18286 net.cpp:434] res5c <- res5c_branch2c
I0202 21:27:06.621176 18286 net.cpp:408] res5c -> res5c
I0202 21:27:06.621223 18286 net.cpp:150] Setting up res5c
I0202 21:27:06.621237 18286 net.cpp:157] Top shape: 1 2048 8 8 (131072)
I0202 21:27:06.621244 18286 net.cpp:165] Memory required for data: 305135616
I0202 21:27:06.621251 18286 layer_factory.hpp:77] Creating layer res5c_relu
I0202 21:27:06.621263 18286 net.cpp:100] Creating Layer res5c_relu
I0202 21:27:06.621270 18286 net.cpp:434] res5c_relu <- res5c
I0202 21:27:06.621284 18286 net.cpp:395] res5c_relu -> res5c (in-place)
I0202 21:27:06.621649 18286 net.cpp:150] Setting up res5c_relu
I0202 21:27:06.621667 18286 net.cpp:157] Top shape: 1 2048 8 8 (131072)
I0202 21:27:06.621676 18286 net.cpp:165] Memory required for data: 305659904
I0202 21:27:06.621685 18286 layer_factory.hpp:77] Creating layer res5c_res5c_relu_0_split
I0202 21:27:06.621696 18286 net.cpp:100] Creating Layer res5c_res5c_relu_0_split
I0202 21:27:06.621704 18286 net.cpp:434] res5c_res5c_relu_0_split <- res5c
I0202 21:27:06.621719 18286 net.cpp:408] res5c_res5c_relu_0_split -> res5c_res5c_relu_0_split_0
I0202 21:27:06.621738 18286 net.cpp:408] res5c_res5c_relu_0_split -> res5c_res5c_relu_0_split_1
I0202 21:27:06.621814 18286 net.cpp:150] Setting up res5c_res5c_relu_0_split
I0202 21:27:06.621827 18286 net.cpp:157] Top shape: 1 2048 8 8 (131072)
I0202 21:27:06.621836 18286 net.cpp:157] Top shape: 1 2048 8 8 (131072)
I0202 21:27:06.621845 18286 net.cpp:165] Memory required for data: 306708480
I0202 21:27:06.621852 18286 layer_factory.hpp:77] Creating layer score_fr_sem
I0202 21:27:06.621875 18286 net.cpp:100] Creating Layer score_fr_sem
I0202 21:27:06.621884 18286 net.cpp:434] score_fr_sem <- res5c_res5c_relu_0_split_0
I0202 21:27:06.621898 18286 net.cpp:408] score_fr_sem -> score_fr_sem
I0202 21:27:06.626250 18286 net.cpp:150] Setting up score_fr_sem
I0202 21:27:06.626286 18286 net.cpp:157] Top shape: 1 33 8 8 (2112)
I0202 21:27:06.626294 18286 net.cpp:165] Memory required for data: 306716928
I0202 21:27:06.626322 18286 layer_factory.hpp:77] Creating layer upscore_sem
I0202 21:27:06.626348 18286 net.cpp:100] Creating Layer upscore_sem
I0202 21:27:06.626360 18286 net.cpp:434] upscore_sem <- score_fr_sem
I0202 21:27:06.626387 18286 net.cpp:408] upscore_sem -> upscore_sem
I0202 21:27:06.636634 18286 net.cpp:150] Setting up upscore_sem
I0202 21:27:06.636677 18286 net.cpp:157] Top shape: 1 33 288 288 (2737152)
I0202 21:27:06.636684 18286 net.cpp:165] Memory required for data: 317665536
I0202 21:27:06.636698 18286 layer_factory.hpp:77] Creating layer score_sem
I0202 21:27:06.636716 18286 net.cpp:100] Creating Layer score_sem
I0202 21:27:06.636729 18286 net.cpp:434] score_sem <- upscore_sem
I0202 21:27:06.636759 18286 net.cpp:434] score_sem <- data_data_0_split_1
I0202 21:27:06.636781 18286 net.cpp:408] score_sem -> score_sem
I0202 21:27:06.636829 18286 net.cpp:150] Setting up score_sem
I0202 21:27:06.636843 18286 net.cpp:157] Top shape: 1 33 256 256 (2162688)
I0202 21:27:06.636850 18286 net.cpp:165] Memory required for data: 326316288
I0202 21:27:06.636858 18286 layer_factory.hpp:77] Creating layer loss
I0202 21:27:06.636873 18286 net.cpp:100] Creating Layer loss
I0202 21:27:06.636888 18286 net.cpp:434] loss <- score_sem
I0202 21:27:06.636898 18286 net.cpp:434] loss <- sem
I0202 21:27:06.636914 18286 net.cpp:408] loss -> loss
I0202 21:27:06.636939 18286 layer_factory.hpp:77] Creating layer loss
I0202 21:27:06.642503 18286 net.cpp:150] Setting up loss
I0202 21:27:06.642544 18286 net.cpp:157] Top shape: (1)
I0202 21:27:06.642551 18286 net.cpp:160]     with loss weight 1
I0202 21:27:06.642577 18286 net.cpp:165] Memory required for data: 326316292
I0202 21:27:06.642587 18286 layer_factory.hpp:77] Creating layer score_fr_geo
I0202 21:27:06.642619 18286 net.cpp:100] Creating Layer score_fr_geo
I0202 21:27:06.642635 18286 net.cpp:434] score_fr_geo <- res5c_res5c_relu_0_split_1
I0202 21:27:06.642652 18286 net.cpp:408] score_fr_geo -> score_fr_geo
I0202 21:27:06.644287 18286 net.cpp:150] Setting up score_fr_geo
I0202 21:27:06.644310 18286 net.cpp:157] Top shape: 1 3 8 8 (192)
I0202 21:27:06.644320 18286 net.cpp:165] Memory required for data: 326317060
I0202 21:27:06.644345 18286 layer_factory.hpp:77] Creating layer upscore_geo
I0202 21:27:06.644364 18286 net.cpp:100] Creating Layer upscore_geo
I0202 21:27:06.644381 18286 net.cpp:434] upscore_geo <- score_fr_geo
I0202 21:27:06.644394 18286 net.cpp:408] upscore_geo -> upscore_geo
I0202 21:27:06.644645 18286 net.cpp:150] Setting up upscore_geo
I0202 21:27:06.644661 18286 net.cpp:157] Top shape: 1 3 288 288 (248832)
I0202 21:27:06.644670 18286 net.cpp:165] Memory required for data: 327312388
I0202 21:27:06.644680 18286 layer_factory.hpp:77] Creating layer score_geo
I0202 21:27:06.644692 18286 net.cpp:100] Creating Layer score_geo
I0202 21:27:06.644701 18286 net.cpp:434] score_geo <- upscore_geo
I0202 21:27:06.644711 18286 net.cpp:434] score_geo <- data_data_0_split_2
I0202 21:27:06.644723 18286 net.cpp:408] score_geo -> score_geo
I0202 21:27:06.644773 18286 net.cpp:150] Setting up score_geo
I0202 21:27:06.644788 18286 net.cpp:157] Top shape: 1 3 256 256 (196608)
I0202 21:27:06.644794 18286 net.cpp:165] Memory required for data: 328098820
I0202 21:27:06.644803 18286 layer_factory.hpp:77] Creating layer loss_geo
I0202 21:27:06.644819 18286 net.cpp:100] Creating Layer loss_geo
I0202 21:27:06.644829 18286 net.cpp:434] loss_geo <- score_geo
I0202 21:27:06.644840 18286 net.cpp:434] loss_geo <- geo
I0202 21:27:06.644851 18286 net.cpp:408] loss_geo -> loss_geo
…
