…
test_initialization: false
average_loss: 20
iter_size: 1
I0227 19:07:06.860083 26657 solver.cpp:77] Creating training net from train_net file: trainval.prototxt
I0227 19:07:06.899708 26657 net.cpp:53] Initializing net from parameters: 
name: "FCNResNet50-skip"
state {
  phase: TRAIN
}
layer {
  name: "data"
  type: "Python"
  top: "data"
  top: "sem"
  top: "geo"
  python_param {
    module: "siftflow_layers_distillation_2"
    layer: "SIFTFlowSegDataLayer"
    param_str: "{\'siftflow_dir\': \'../data/sift-flow\', \'seed\': 1337, \'split\': \'trainval\'}"
  }
}
layer {
  name: "conv1"
  type: "Convolution"
  bottom: "data"
  top: "conv1"
  convolution_param {
    num_output: 64
    pad: 3
    kernel_size: 7
    stride: 2
  }
}
layer {
  name: "bn_conv1"
  type: "BatchNorm"
  bottom: "conv1"
  top: "conv1"
  batch_norm_param {
    use_global_stats: true
  }
}
layer {
  name: "scale_conv1"
  type: "Scale"
  bottom: "conv1"
  top: "conv1"
  scale_param {
    bias_term: true
  }
}
layer {
  name: "conv1_relu"
  type: "ReLU"
  bottom: "conv1"
  top: "conv1"
}
layer {
  name: "pool1"
  type: "Pooling"
  bottom: "conv1"
  top: "pool1"
  pooling_param {
    pool: MAX
    kernel_size: 3
    stride: 2
  }
}
layer {
  name: "res2a_branch1"
  type: "Convolution"
  bottom: "pool1"
  top: "res2a_branch1"
  convolution_param {
    num_output: 256
    bias_term: false
    pad: 0
    kernel_size: 1
    stride: 1
  }
}
layer {
  name: "bn2a_branch1"
  type: "BatchNorm"
  bottom: "res2a_branch1"
  top: "res2a_branch1"
  batch_norm_param {
    use_global_stats: true
  }
}
layer {
  name: "scale2a_branch1"
  type: "Scale"
  bottom: "res2a_branch1"
  top: "res2a_branch1"
  scale_param {
    bias_term: true
  }
}
layer {
  name: "res2a_branch2a"
  type: "Convolution"
  bottom: "pool1"
  top: "res2a_branch2a"
  convolution_param {
    num_output: 64
    bias_term: false
    pad: 0
    kernel_size: 1
    stride: 1
  }
}
layer {
  name: "bn2a_branch2a"
  type: "BatchNorm"
  bottom: "res2a_branch2a"
  top: "res2a_branch2a"
  batch_norm_param {
    use_global_stats: true
  }
}
layer {
  name: "scale2a_branch2a"
  type: "Scale"
  bottom: "res2a_branch2a"
  top: "res2a_branch2a"
  scale_param {
    bias_term: true
  }
}
layer {
  name: "res2a_branch2a_relu"
  type: "ReLU"
  bottom: "res2a_branch2a"
  top: "res2a_branch2a"
}
layer {
  name: "res2a_branch2b"
  type: "Convolution"
  bottom: "res2a_branch2a"
  top: "res2a_branch2b"
  convolution_param {
    num_output: 64
    bias_term: false
    pad: 1
    kernel_size: 3
    stride: 1
  }
}
layer {
  name: "bn2a_branch2b"
  type: "BatchNorm"
  bottom: "res2a_branch2b"
  top: "res2a_branch2b"
  batch_norm_param {
    use_global_stats: true
  }
}
layer {
  name: "scale2a_branch2b"
  type: "Scale"
  bottom: "res2a_branch2b"
  top: "res2a_branch2b"
  scale_param {
    bias_term: true
  }
}
layer {
  name: "res2a_branch2b_relu"
  type: "ReLU"
  bottom: "res2a_branch2b"
  top: "res2a_branch2b"
}
layer {
  name: "res2a_branch2c"
  type: "Convolution"
  bottom: "res2a_branch2b"
  top: "res2a_branch2c"
  convolution_param {
    num_output: 256
    bias_term: false
    pad: 0
    kernel_size: 1
    stride: 1
  }
}
layer {
  name: "bn2a_branch2c"
  type: "BatchNorm"
  bottom: "res2a_branch2c"
  top: "res2a_branch2c"
  batch_norm_param {
    use_global_stats: true
  }
}
layer {
  name: "scale2a_branch2c"
  type: "Scale"
  bottom: "res2a_branch2c"
  top: "res2a_branch2c"
  scale_param {
    bias_term: true
  }
}
layer {
  name: "res2a"
  type: "Eltwise"
  bottom: "res2a_branch1"
  bottom: "res2a_branch2c"
  top: "res2a"
}
layer {
  name: "res2a_relu"
  type: "ReLU"
  bottom: "res2a"
  top: "res2a"
}
layer {
  name: "res2b_branch2a"
  type: "Convolution"
  bottom: "res2a"
  top: "res2b_branch2a"
  convolution_param {
    num_output: 64
    bias_term: false
    pad: 0
    kernel_size: 1
    stride: 1
  }
}
layer {
  name: "bn2b_branch2a"
  type: "BatchNorm"
  bottom: "res2b_branch2a"
  top: "res2b_branch2a"
  batch_norm_param {
    use_global_stats: true
  }
}
layer {
  name: "scale2b_branch2a"
  type: "Scale"
  bottom: "res2b_branch2a"
  top: "res2b_branch2a"
  scale_param {
    bias_term: true
  }
}
layer {
  name: "res2b_branch2a_relu"
  type: "ReLU"
  bottom: "res2b_branch2a"
  top: "res2b_branch2a"
}
layer {
  name: "res2b_branch2b"
  type: "Convolution"
  bottom: "res2b_branch2a"
  top: "res2b_branch2b"
  convolution_param {
    num_output: 64
    bias_term: false
    pad: 1
    kernel_size: 3
    stride: 1
  }
}
layer {
  name: "bn2b_branch2b"
  type: "BatchNorm"
  bottom: "res2b_branch2b"
  top: "res2b_branch2b"
  batch_norm_param {
    use_global_stats: true
  }
}
layer {
  name: "scale2b_branch2b"
  type: "Scale"
  bottom: "res2b_branch2b"
  top: "res2b_branch2b"
  scale_param {
    bias_term: true
  }
}
layer {
  name: "res2b_branch2b_relu"
  type: "ReLU"
  bottom: "res2b_branch2b"
  top: "res2b_branch2b"
}
layer {
  name: "res2b_branch2c"
  type: "Convolution"
  bottom: "res2b_branch2b"
  top: "res2b_branch2c"
  convolution_param {
    num_output: 256
    bias_term: false
    pad: 0
    kernel_size: 1
    stride: 1
  }
}
layer {
  name: "bn2b_branch2c"
  type: "BatchNorm"
  bottom: "res2b_branch2c"
  top: "res2b_branch2c"
  batch_norm_param {
    use_global_stats: true
  }
}
layer {
  name: "scale2b_branch2c"
  type: "Scale"
  bottom: "res2b_branch2c"
  top: "res2b_branch2c"
  scale_param {
    bias_term: true
  }
}
layer {
  name: "res2b"
  type: "Eltwise"
  bottom: "res2a"
  bottom: "res2b_branch2c"
  top: "res2b"
}
layer {
  name: "res2b_relu"
  type: "ReLU"
  bottom: "res2b"
  top: "res2b"
}
layer {
  name: "res2c_branch2a"
  type: "Convolution"
  bottom: "res2b"
  top: "res2c_branch2a"
  convolution_param {
    num_output: 64
    bias_term: false
    pad: 0
    kernel_size: 1
    stride: 1
  }
}
layer {
  name: "bn2c_branch2a"
  type: "BatchNorm"
  bottom: "res2c_branch2a"
  top: "res2c_branch2a"
  batch_norm_param {
    use_global_stats: true
  }
}
layer {
  name: "scale2c_branch2a"
  type: "Scale"
  bottom: "res2c_branch2a"
  top: "res2c_branch2a"
  scale_param {
    bias_term: true
  }
}
layer {
  name: "res2c_branch2a_relu"
  type: "ReLU"
  bottom: "res2c_branch2a"
  top: "res2c_branch2a"
}
layer {
  name: "res2c_branch2b"
  type: "Convolution"
  bottom: "res2c_branch2a"
  top: "res2c_branch2b"
  convolution_param {
    num_output: 64
    bias_term: false
    pad: 1
    kernel_size: 3
    stride: 1
  }
}
layer {
  name: "bn2c_branch2b"
  type: "BatchNorm"
  bottom: "res2c_branch2b"
  top: "res2c_branch2b"
  batch_norm_param {
    use_global_stats: true
  }
}
layer {
  name: "scale2c_branch2b"
  type: "Scale"
  bottom: "res2c_branch2b"
  top: "res2c_branch2b"
  scale_param {
    bias_term: true
  }
}
layer {
  name: "res2c_branch2b_relu"
  type: "ReLU"
  bottom: "res2c_branch2b"
  top: "res2c_branch2b"
}
layer {
  name: "res2c_branch2c"
  type: "Convolution"
  bottom: "res2c_branch2b"
  top: "res2c_branch2c"
  convolution_param {
    num_output: 256
    bias_term: false
    pad: 0
    kernel_size: 1
    stride: 1
  }
}
layer {
  name: "bn2c_branch2c"
  type: "BatchNorm"
  bottom: "res2c_branch2c"
  top: "res2c_branch2c"
  batch_norm_param {
    use_global_stats: true
  }
}
layer {
  name: "scale2c_branch2c"
  type: "Scale"
  bottom: "res2c_branch2c"
  top: "res2c_branch2c"
  scale_param {
    bias_term: true
  }
}
layer {
  name: "res2c"
  type: "Eltwise"
  bottom: "res2b"
  bottom: "res2c_branch2c"
  top: "res2c"
}
layer {
  name: "res2c_relu"
  type: "ReLU"
  bottom: "res2c"
  top: "res2c"
}
layer {
  name: "res3a_branch1"
  type: "Convolution"
  bottom: "res2c"
  top: "res3a_branch1"
  convolution_param {
    num_output: 512
    bias_term: false
    pad: 0
    kernel_size: 1
    stride: 2
  }
}
layer {
  name: "bn3a_branch1"
  type: "BatchNorm"
  bottom: "res3a_branch1"
  top: "res3a_branch1"
  batch_norm_param {
    use_global_stats: true
  }
}
layer {
  name: "scale3a_branch1"
  type: "Scale"
  bottom: "res3a_branch1"
  top: "res3a_branch1"
  scale_param {
    bias_term: true
  }
}
layer {
  name: "res3a_branch2a"
  type: "Convolution"
  bottom: "res2c"
  top: "res3a_branch2a"
  convolution_param {
    num_output: 128
    bias_term: false
    pad: 0
    kernel_size: 1
    stride: 2
  }
}
layer {
  name: "bn3a_branch2a"
  type: "BatchNorm"
  bottom: "res3a_branch2a"
  top: "res3a_branch2a"
  batch_norm_param {
    use_global_stats: true
  }
}
layer {
  name: "scale3a_branch2a"
  type: "Scale"
  bottom: "res3a_branch2a"
  top: "res3a_branch2a"
  scale_param {
    bias_term: true
  }
}
layer {
  name: "res3a_branch2a_relu"
  type: "ReLU"
  bottom: "res3a_branch2a"
  top: "res3a_branch2a"
}
layer {
  name: "res3a_branch2b"
  type: "Convolution"
  bottom: "res3a_branch2a"
  top: "res3a_branch2b"
  convolution_param {
    num_output: 128
    bias_term: false
    pad: 1
    kernel_size: 3
    stride: 1
  }
}
layer {
  name: "bn3a_branch2b"
  type: "BatchNorm"
  bottom: "res3a_branch2b"
  top: "res3a_branch2b"
  batch_norm_param {
    use_global_stats: true
  }
}
layer {
  name: "scale3a_branch2b"
  type: "Scale"
  bottom: "res3a_branch2b"
  top: "res3a_branch2b"
  scale_param {
    bias_term: true
  }
}
layer {
  name: "res3a_branch2b_relu"
  type: "ReLU"
  bottom: "res3a_branch2b"
  top: "res3a_branch2b"
}
layer {
  name: "res3a_branch2c"
  type: "Convolution"
  bottom: "res3a_branch2b"
  top: "res3a_branch2c"
  convolution_param {
    num_output: 512
    bias_term: false
    pad: 0
    kernel_size: 1
    stride: 1
  }
}
layer {
  name: "bn3a_branch2c"
  type: "BatchNorm"
  bottom: "res3a_branch2c"
  top: "res3a_branch2c"
  batch_norm_param {
    use_global_stats: true
  }
}
layer {
  name: "scale3a_branch2c"
  type: "Scale"
  bottom: "res3a_branch2c"
  top: "res3a_branch2c"
  scale_param {
    bias_term: true
  }
}
layer {
  name: "res3a"
  type: "Eltwise"
  bottom: "res3a_branch1"
  bottom: "res3a_branch2c"
  top: "res3a"
}
layer {
  name: "res3a_relu"
  type: "ReLU"
  bottom: "res3a"
  top: "res3a"
}
layer {
  name: "res3b_branch2a"
  type: "Convolution"
  bottom: "res3a"
  top: "res3b_branch2a"
  convolution_param {
    num_output: 128
    bias_term: false
    pad: 0
    kernel_size: 1
    stride: 1
  }
}
layer {
  name: "bn3b_branch2a"
  type: "BatchNorm"
  bottom: "res3b_branch2a"
  top: "res3b_branch2a"
  batch_norm_param {
    use_global_stats: true
  }
}
layer {
  name: "scale3b_branch2a"
  type: "Scale"
  bottom: "res3b_branch2a"
  top: "res3b_branch2a"
  scale_param {
    bias_term: true
  }
}
layer {
  name: "res3b_branch2a_relu"
  type: "ReLU"
  bottom: "res3b_branch2a"
  top: "res3b_branch2a"
}
layer {
  name: "res3b_branch2b"
  type: "Convolution"
  bottom: "res3b_branch2a"
  top: "res3b_branch2b"
  convolution_param {
    num_output: 128
    bias_term: false
    pad: 1
    kernel_size: 3
    stride: 1
  }
}
layer {
  name: "bn3b_branch2b"
  type: "BatchNorm"
  bottom: "res3b_branch2b"
  top: "res3b_branch2b"
  batch_norm_param {
    use_global_stats: true
  }
}
layer {
  name: "scale3b_branch2b"
  type: "Scale"
  bottom: "res3b_branch2b"
  top: "res3b_branch2b"
  scale_param {
    bias_term: true
  }
}
layer {
  name: "res3b_branch2b_relu"
  type: "ReLU"
  bottom: "res3b_branch2b"
  top: "res3b_branch2b"
}
layer {
  name: "res3b_branch2c"
  type: "Convolution"
  bottom: "res3b_branch2b"
  top: "res3b_branch2c"
  convolution_param {
    num_output: 512
    bias_term: false
    pad: 0
    kernel_size: 1
    stride: 1
  }
}
layer {
  name: "bn3b_branch2c"
  type: "BatchNorm"
  bottom: "res3b_branch2c"
  top: "res3b_branch2c"
  batch_norm_param {
    use_global_stats: true
  }
}
layer {
  name: "scale3b_branch2c"
  type: "Scale"
  bottom: "res3b_branch2c"
  top: "res3b_branch2c"
  scale_param {
    bias_term: true
  }
}
layer {
  name: "res3b"
  type: "Eltwise"
  bottom: "res3a"
  bottom: "res3b_branch2c"
  top: "res3b"
}
layer {
  name: "res3b_relu"
  type: "ReLU"
  bottom: "res3b"
  top: "res3b"
}
layer {
  name: "res3c_branch2a"
  type: "Convolution"
  bottom: "res3b"
  top: "res3c_branch2a"
  convolution_param {
    num_output: 128
    bias_term: false
    pad: 0
    kernel_size: 1
    stride: 1
  }
}
layer {
  name: "bn3c_branch2a"
  type: "BatchNorm"
  bottom: "res3c_branch2a"
  top: "res3c_branch2a"
  batch_norm_param {
    use_global_stats: true
  }
}
layer {
  name: "scale3c_branch2a"
  type: "Scale"
  bottom: "res3c_branch2a"
  top: "res3c_branch2a"
  scale_param {
    bias_term: true
  }
}
layer {
  name: "res3c_branch2a_relu"
  type: "ReLU"
  bottom: "res3c_branch2a"
  top: "res3c_branch2a"
}
layer {
  name: "res3c_branch2b"
  type: "Convolution"
  bottom: "res3c_branch2a"
  top: "res3c_branch2b"
  convolution_param {
    num_output: 128
    bias_term: false
    pad: 1
    kernel_size: 3
    stride: 1
  }
}
layer {
  name: "bn3c_branch2b"
  type: "BatchNorm"
  bottom: "res3c_branch2b"
  top: "res3c_branch2b"
  batch_norm_param {
    use_global_stats: true
  }
}
layer {
  name: "scale3c_branch2b"
  type: "Scale"
  bottom: "res3c_branch2b"
  top: "res3c_branch2b"
  scale_param {
    bias_term: true
  }
}
layer {
  name: "res3c_branch2b_relu"
  type: "ReLU"
  bottom: "res3c_branch2b"
  top: "res3c_branch2b"
}
layer {
  name: "res3c_branch2c"
  type: "Convolution"
  bottom: "res3c_branch2b"
  top: "res3c_branch2c"
  convolution_param {
    num_output: 512
    bias_term: false
    pad: 0
    kernel_size: 1
    stride: 1
  }
}
layer {
  name: "bn3c_branch2c"
  type: "BatchNorm"
  bottom: "res3c_branch2c"
  top: "res3c_branch2c"
  batch_norm_param {
    use_global_stats: true
  }
}
layer {
  name: "scale3c_branch2c"
  type: "Scale"
  bottom: "res3c_branch2c"
  top: "res3c_branch2c"
  scale_param {
    bias_term: true
  }
}
layer {
  name: "res3c"
  type: "Eltwise"
  bottom: "res3b"
  bottom: "res3c_branch2c"
  top: "res3c"
}
layer {
  name: "res3c_relu"
  type: "ReLU"
  bottom: "res3c"
  top: "res3c"
}
layer {
  name: "res3d_branch2a"
  type: "Convolution"
  bottom: "res3c"
  top: "res3d_branch2a"
  convolution_param {
    num_output: 128
    bias_term: false
    pad: 0
    kernel_size: 1
    stride: 1
  }
}
layer {
  name: "bn3d_branch2a"
  type: "BatchNorm"
  bottom: "res3d_branch2a"
  top: "res3d_branch2a"
  batch_norm_param {
    use_global_stats: true
  }
}
layer {
  name: "scale3d_branch2a"
  type: "Scale"
  bottom: "res3d_branch2a"
  top: "res3d_branch2a"
  scale_param {
    bias_term: true
  }
}
layer {
  name: "res3d_branch2a_relu"
  type: "ReLU"
  bottom: "res3d_branch2a"
  top: "res3d_branch2a"
}
layer {
  name: "res3d_branch2b"
  type: "Convolution"
  bottom: "res3d_branch2a"
  top: "res3d_branch2b"
  convolution_param {
    num_output: 128
    bias_term: false
    pad: 1
    kernel_size: 3
    stride: 1
  }
}
layer {
  name: "bn3d_branch2b"
  type: "BatchNorm"
  bottom: "res3d_branch2b"
  top: "res3d_branch2b"
  batch_norm_param {
    use_global_stats: true
  }
}
layer {
  name: "scale3d_branch2b"
  type: "Scale"
  bottom: "res3d_branch2b"
  top: "res3d_branch2b"
  scale_param {
    bias_term: true
  }
}
layer {
  name: "res3d_branch2b_relu"
  type: "ReLU"
  bottom: "res3d_branch2b"
  top: "res3d_branch2b"
}
layer {
  name: "res3d_branch2c"
  type: "Convolution"
  bottom: "res3d_branch2b"
  top: "res3d_branch2c"
  convolution_param {
    num_output: 512
    bias_term: false
    pad: 0
    kernel_size: 1
    stride: 1
  }
}
layer {
  name: "bn3d_branch2c"
  type: "BatchNorm"
  bottom: "res3d_branch2c"
  top: "res3d_branch2c"
  batch_norm_param {
    use_global_stats: true
  }
}
layer {
  name: "scale3d_branch2c"
  type: "Scale"
  bottom: "res3d_branch2c"
  top: "res3d_branch2c"
  scale_param {
    bias_term: true
  }
}
layer {
  name: "res3d"
  type: "Eltwise"
  bottom: "res3c"
  bottom: "res3d_branch2c"
  top: "res3d"
}
layer {
  name: "res3d_relu"
  type: "ReLU"
  bottom: "res3d"
  top: "res3d"
}
layer {
  name: "res4a_branch1"
  type: "Convolution"
  bottom: "res3d"
  top: "res4a_branch1"
  convolution_param {
    num_output: 1024
    bias_term: false
    pad: 0
    kernel_size: 1
    stride: 2
  }
}
layer {
  name: "bn4a_branch1"
  type: "BatchNorm"
  bottom: "res4a_branch1"
  top: "res4a_branch1"
  batch_norm_param {
    use_global_stats: true
  }
}
layer {
  name: "scale4a_branch1"
  type: "Scale"
  bottom: "res4a_branch1"
  top: "res4a_branch1"
  scale_param {
    bias_term: true
  }
}
layer {
  name: "res4a_branch2a"
  type: "Convolution"
  bottom: "res3d"
  top: "res4a_branch2a"
  convolution_param {
    num_output: 256
    bias_term: false
    pad: 0
    kernel_size: 1
    stride: 2
  }
}
layer {
  name: "bn4a_branch2a"
  type: "BatchNorm"
  bottom: "res4a_branch2a"
  top: "res4a_branch2a"
  batch_norm_param {
    use_global_stats: true
  }
}
layer {
  name: "scale4a_branch2a"
  type: "Scale"
  bottom: "res4a_branch2a"
  top: "res4a_branch2a"
  scale_param {
    bias_term: true
  }
}
layer {
  name: "res4a_branch2a_relu"
  type: "ReLU"
  bottom: "res4a_branch2a"
  top: "res4a_branch2a"
}
layer {
  name: "res4a_branch2b"
  type: "Convolution"
  bottom: "res4a_branch2a"
  top: "res4a_branch2b"
  convolution_param {
    num_output: 256
    bias_term: false
    pad: 1
    kernel_size: 3
    stride: 1
  }
}
layer {
  name: "bn4a_branch2b"
  type: "BatchNorm"
  bottom: "res4a_branch2b"
  top: "res4a_branch2b"
  batch_norm_param {
    use_global_stats: true
  }
}
layer {
  name: "scale4a_branch2b"
  type: "Scale"
  bottom: "res4a_branch2b"
  top: "res4a_branch2b"
  scale_param {
    bias_term: true
  }
}
layer {
  name: "res4a_branch2b_relu"
  type: "ReLU"
  bottom: "res4a_branch2b"
  top: "res4a_branch2b"
}
layer {
  name: "res4a_branch2c"
  type: "Convolution"
  bottom: "res4a_branch2b"
  top: "res4a_branch2c"
  convolution_param {
    num_output: 1024
    bias_term: false
    pad: 0
    kernel_size: 1
    stride: 1
  }
}
layer {
  name: "bn4a_branch2c"
  type: "BatchNorm"
  bottom: "res4a_branch2c"
  top: "res4a_branch2c"
  batch_norm_param {
    use_global_stats: true
  }
}
layer {
  name: "scale4a_branch2c"
  type: "Scale"
  bottom: "res4a_branch2c"
  top: "res4a_branch2c"
  scale_param {
    bias_term: true
  }
}
layer {
  name: "res4a"
  type: "Eltwise"
  bottom: "res4a_branch1"
  bottom: "res4a_branch2c"
  top: "res4a"
}
layer {
  name: "res4a_relu"
  type: "ReLU"
  bottom: "res4a"
  top: "res4a"
}
layer {
  name: "res4b_branch2a"
  type: "Convolution"
  bottom: "res4a"
  top: "res4b_branch2a"
  convolution_param {
    num_output: 256
    bias_term: false
    pad: 0
    kernel_size: 1
    stride: 1
  }
}
layer {
  name: "bn4b_branch2a"
  type: "BatchNorm"
  bottom: "res4b_branch2a"
  top: "res4b_branch2a"
  batch_norm_param {
    use_global_stats: true
  }
}
layer {
  name: "scale4b_branch2a"
  type: "Scale"
  bottom: "res4b_branch2a"
  top: "res4b_branch2a"
  scale_param {
    bias_term: true
  }
}
layer {
  name: "res4b_branch2a_relu"
  type: "ReLU"
  bottom: "res4b_branch2a"
  top: "res4b_branch2a"
}
layer {
  name: "res4b_branch2b"
  type: "Convolution"
  bottom: "res4b_branch2a"
  top: "res4b_branch2b"
  convolution_param {
    num_output: 256
    bias_term: false
    pad: 1
    kernel_size: 3
    stride: 1
  }
}
layer {
  name: "bn4b_branch2b"
  type: "BatchNorm"
  bottom: "res4b_branch2b"
  top: "res4b_branch2b"
  batch_norm_param {
    use_global_stats: true
  }
}
layer {
  name: "scale4b_branch2b"
  type: "Scale"
  bottom: "res4b_branch2b"
  top: "res4b_branch2b"
  scale_param {
    bias_term: true
  }
}
layer {
  name: "res4b_branch2b_relu"
  type: "ReLU"
  bottom: "res4b_branch2b"
  top: "res4b_branch2b"
}
layer {
  name: "res4b_branch2c"
  type: "Convolution"
  bottom: "res4b_branch2b"
  top: "res4b_branch2c"
  convolution_param {
    num_output: 1024
    bias_term: false
    pad: 0
    kernel_size: 1
    stride: 1
  }
}
layer {
  name: "bn4b_branch2c"
  type: "BatchNorm"
  bottom: "res4b_branch2c"
  top: "res4b_branch2c"
  batch_norm_param {
    use_global_stats: true
  }
}
layer {
  name: "scale4b_branch2c"
  type: "Scale"
  bottom: "res4b_branch2c"
  top: "res4b_branch2c"
  scale_param {
    bias_term: true
  }
}
layer {
  name: "res4b"
  type: "Eltwise"
  bottom: "res4a"
  bottom: "res4b_branch2c"
  top: "res4b"
}
layer {
  name: "res4b_relu"
  type: "ReLU"
  bottom: "res4b"
  top: "res4b"
}
layer {
  name: "res4c_branch2a"
  type: "Convolution"
  bottom: "res4b"
  top: "res4c_branch2a"
  convolution_param {
    num_output: 256
    bias_term: false
    pad: 0
    kernel_size: 1
    stride: 1
  }
}
layer {
  name: "bn4c_branch2a"
  type: "BatchNorm"
  bottom: "res4c_branch2a"
  top: "res4c_branch2a"
  batch_norm_param {
    use_global_stats: true
  }
}
layer {
  name: "scale4c_branch2a"
  type: "Scale"
  bottom: "res4c_branch2a"
  top: "res4c_branch2a"
  scale_param {
    bias_term: true
  }
}
layer {
  name: "res4c_branch2a_relu"
  type: "ReLU"
  bottom: "res4c_branch2a"
  top: "res4c_branch2a"
}
layer {
  name: "res4c_branch2b"
  type: "Convolution"
  bottom: "res4c_branch2a"
  top: "res4c_branch2b"
  convolution_param {
    num_output: 256
    bias_term: false
    pad: 1
    kernel_size: 3
    stride: 1
  }
}
layer {
  name: "bn4c_branch2b"
  type: "BatchNorm"
  bottom: "res4c_branch2b"
  top: "res4c_branch2b"
  batch_norm_param {
    use_global_stats: true
  }
}
layer {
  name: "scale4c_branch2b"
  type: "Scale"
  bottom: "res4c_branch2b"
  top: "res4c_branch2b"
  scale_param {
    bias_term: true
  }
}
layer {
  name: "res4c_branch2b_relu"
  type: "ReLU"
  bottom: "res4c_branch2b"
  top: "res4c_branch2b"
}
layer {
  name: "res4c_branch2c"
  type: "Convolution"
  bottom: "res4c_branch2b"
  top: "res4c_branch2c"
  convolution_param {
    num_output: 1024
    bias_term: false
    pad: 0
    kernel_size: 1
    stride: 1
  }
}
layer {
  name: "bn4c_branch2c"
  type: "BatchNorm"
  bottom: "res4c_branch2c"
  top: "res4c_branch2c"
  batch_norm_param {
    use_global_stats: true
  }
}
layer {
  name: "scale4c_branch2c"
  type: "Scale"
  bottom: "res4c_branch2c"
  top: "res4c_branch2c"
  scale_param {
    bias_term: true
  }
}
layer {
  name: "res4c"
  type: "Eltwise"
  bottom: "res4b"
  bottom: "res4c_branch2c"
  top: "res4c"
}
layer {
  name: "res4c_relu"
  type: "ReLU"
  bottom: "res4c"
  top: "res4c"
}
layer {
  name: "res4d_branch2a"
  type: "Convolution"
  bottom: "res4c"
  top: "res4d_branch2a"
  convolution_param {
    num_output: 256
    bias_term: false
    pad: 0
    kernel_size: 1
    stride: 1
  }
}
layer {
  name: "bn4d_branch2a"
  type: "BatchNorm"
  bottom: "res4d_branch2a"
  top: "res4d_branch2a"
  batch_norm_param {
    use_global_stats: true
  }
}
layer {
  name: "scale4d_branch2a"
  type: "Scale"
  bottom: "res4d_branch2a"
  top: "res4d_branch2a"
  scale_param {
    bias_term: true
  }
}
layer {
  name: "res4d_branch2a_relu"
  type: "ReLU"
  bottom: "res4d_branch2a"
  top: "res4d_branch2a"
}
layer {
  name: "res4d_branch2b"
  type: "Convolution"
  bottom: "res4d_branch2a"
  top: "res4d_branch2b"
  convolution_param {
    num_output: 256
    bias_term: false
    pad: 1
    kernel_size: 3
    stride: 1
  }
}
layer {
  name: "bn4d_branch2b"
  type: "BatchNorm"
  bottom: "res4d_branch2b"
  top: "res4d_branch2b"
  batch_norm_param {
    use_global_stats: true
  }
}
layer {
  name: "scale4d_branch2b"
  type: "Scale"
  bottom: "res4d_branch2b"
  top: "res4d_branch2b"
  scale_param {
    bias_term: true
  }
}
layer {
  name: "res4d_branch2b_relu"
  type: "ReLU"
  bottom: "res4d_branch2b"
  top: "res4d_branch2b"
}
layer {
  name: "res4d_branch2c"
  type: "Convolution"
  bottom: "res4d_branch2b"
  top: "res4d_branch2c"
  convolution_param {
    num_output: 1024
    bias_term: false
    pad: 0
    kernel_size: 1
    stride: 1
  }
}
layer {
  name: "bn4d_branch2c"
  type: "BatchNorm"
  bottom: "res4d_branch2c"
  top: "res4d_branch2c"
  batch_norm_param {
    use_global_stats: true
  }
}
layer {
  name: "scale4d_branch2c"
  type: "Scale"
  bottom: "res4d_branch2c"
  top: "res4d_branch2c"
  scale_param {
    bias_term: true
  }
}
layer {
  name: "res4d"
  type: "Eltwise"
  bottom: "res4c"
  bottom: "res4d_branch2c"
  top: "res4d"
}
layer {
  name: "res4d_relu"
  type: "ReLU"
  bottom: "res4d"
  top: "res4d"
}
layer {
  name: "res4e_branch2a"
  type: "Convolution"
  bottom: "res4d"
  top: "res4e_branch2a"
  convolution_param {
    num_output: 256
    bias_term: false
    pad: 0
    kernel_size: 1
    stride: 1
  }
}
layer {
  name: "bn4e_branch2a"
  type: "BatchNorm"
  bottom: "res4e_branch2a"
  top: "res4e_branch2a"
  batch_norm_param {
    use_global_stats: true
  }
}
layer {
  name: "scale4e_branch2a"
  type: "Scale"
  bottom: "res4e_branch2a"
  top: "res4e_branch2a"
  scale_param {
    bias_term: true
  }
}
layer {
  name: "res4e_branch2a_relu"
  type: "ReLU"
  bottom: "res4e_branch2a"
  top: "res4e_branch2a"
}
layer {
  name: "res4e_branch2b"
  type: "Convolution"
  bottom: "res4e_branch2a"
  top: "res4e_branch2b"
  convolution_param {
    num_output: 256
    bias_term: false
    pad: 1
    kernel_size: 3
    stride: 1
  }
}
layer {
  name: "bn4e_branch2b"
  type: "BatchNorm"
  bottom: "res4e_branch2b"
  top: "res4e_branch2b"
  batch_norm_param {
    use_global_stats: true
  }
}
layer {
  name: "scale4e_branch2b"
  type: "Scale"
  bottom: "res4e_branch2b"
  top: "res4e_branch2b"
  scale_param {
    bias_term: true
  }
}
layer {
  name: "res4e_branch2b_relu"
  type: "ReLU"
  bottom: "res4e_branch2b"
  top: "res4e_branch2b"
}
layer {
  name: "res4e_branch2c"
  type: "Convolution"
  bottom: "res4e_branch2b"
  top: "res4e_branch2c"
  convolution_param {
    num_output: 1024
    bias_term: false
    pad: 0
    kernel_size: 1
    stride: 1
  }
}
layer {
  name: "bn4e_branch2c"
  type: "BatchNorm"
  bottom: "res4e_branch2c"
  top: "res4e_branch2c"
  batch_norm_param {
    use_global_stats: true
  }
}
layer {
  name: "scale4e_branch2c"
  type: "Scale"
  bottom: "res4e_branch2c"
  top: "res4e_branch2c"
  scale_param {
    bias_term: true
  }
}
layer {
  name: "res4e"
  type: "Eltwise"
  bottom: "res4d"
  bottom: "res4e_branch2c"
  top: "res4e"
}
layer {
  name: "res4e_relu"
  type: "ReLU"
  bottom: "res4e"
  top: "res4e"
}
layer {
  name: "res4f_branch2a"
  type: "Convolution"
  bottom: "res4e"
  top: "res4f_branch2a"
  convolution_param {
    num_output: 256
    bias_term: false
    pad: 0
    kernel_size: 1
    stride: 1
  }
}
layer {
  name: "bn4f_branch2a"
  type: "BatchNorm"
  bottom: "res4f_branch2a"
  top: "res4f_branch2a"
  batch_norm_param {
    use_global_stats: true
  }
}
layer {
  name: "scale4f_branch2a"
  type: "Scale"
  bottom: "res4f_branch2a"
  top: "res4f_branch2a"
  scale_param {
    bias_term: true
  }
}
layer {
  name: "res4f_branch2a_relu"
  type: "ReLU"
  bottom: "res4f_branch2a"
  top: "res4f_branch2a"
}
layer {
  name: "res4f_branch2b"
  type: "Convolution"
  bottom: "res4f_branch2a"
  top: "res4f_branch2b"
  convolution_param {
    num_output: 256
    bias_term: false
    pad: 1
    kernel_size: 3
    stride: 1
  }
}
layer {
  name: "bn4f_branch2b"
  type: "BatchNorm"
  bottom: "res4f_branch2b"
  top: "res4f_branch2b"
  batch_norm_param {
    use_global_stats: true
  }
}
layer {
  name: "scale4f_branch2b"
  type: "Scale"
  bottom: "res4f_branch2b"
  top: "res4f_branch2b"
  scale_param {
    bias_term: true
  }
}
layer {
  name: "res4f_branch2b_relu"
  type: "ReLU"
  bottom: "res4f_branch2b"
  top: "res4f_branch2b"
}
layer {
  name: "res4f_branch2c"
  type: "Convolution"
  bottom: "res4f_branch2b"
  top: "res4f_branch2c"
  convolution_param {
    num_output: 1024
    bias_term: false
    pad: 0
    kernel_size: 1
    stride: 1
  }
}
layer {
  name: "bn4f_branch2c"
  type: "BatchNorm"
  bottom: "res4f_branch2c"
  top: "res4f_branch2c"
  batch_norm_param {
    use_global_stats: true
  }
}
layer {
  name: "scale4f_branch2c"
  type: "Scale"
  bottom: "res4f_branch2c"
  top: "res4f_branch2c"
  scale_param {
    bias_term: true
  }
}
layer {
  name: "res4f"
  type: "Eltwise"
  bottom: "res4e"
  bottom: "res4f_branch2c"
  top: "res4f"
}
layer {
  name: "res4f_relu"
  type: "ReLU"
  bottom: "res4f"
  top: "res4f"
}
layer {
  name: "res5a_branch1"
  type: "Convolution"
  bottom: "res4f"
  top: "res5a_branch1"
  convolution_param {
    num_output: 2048
    bias_term: false
    pad: 0
    kernel_size: 1
    stride: 2
  }
}
layer {
  name: "bn5a_branch1"
  type: "BatchNorm"
  bottom: "res5a_branch1"
  top: "res5a_branch1"
  batch_norm_param {
    use_global_stats: true
  }
}
layer {
  name: "scale5a_branch1"
  type: "Scale"
  bottom: "res5a_branch1"
  top: "res5a_branch1"
  scale_param {
    bias_term: true
  }
}
layer {
  name: "res5a_branch2a"
  type: "Convolution"
  bottom: "res4f"
  top: "res5a_branch2a"
  convolution_param {
    num_output: 512
    bias_term: false
    pad: 0
    kernel_size: 1
    stride: 2
  }
}
layer {
  name: "bn5a_branch2a"
  type: "BatchNorm"
  bottom: "res5a_branch2a"
  top: "res5a_branch2a"
  batch_norm_param {
    use_global_stats: true
  }
}
layer {
  name: "scale5a_branch2a"
  type: "Scale"
  bottom: "res5a_branch2a"
  top: "res5a_branch2a"
  scale_param {
    bias_term: true
  }
}
layer {
  name: "res5a_branch2a_relu"
  type: "ReLU"
  bottom: "res5a_branch2a"
  top: "res5a_branch2a"
}
layer {
  name: "res5a_branch2b"
  type: "Convolution"
  bottom: "res5a_branch2a"
  top: "res5a_branch2b"
  convolution_param {
    num_output: 512
    bias_term: false
    pad: 1
    kernel_size: 3
    stride: 1
  }
}
layer {
  name: "bn5a_branch2b"
  type: "BatchNorm"
  bottom: "res5a_branch2b"
  top: "res5a_branch2b"
  batch_norm_param {
    use_global_stats: true
  }
}
layer {
  name: "scale5a_branch2b"
  type: "Scale"
  bottom: "res5a_branch2b"
  top: "res5a_branch2b"
  scale_param {
    bias_term: true
  }
}
layer {
  name: "res5a_branch2b_relu"
  type: "ReLU"
  bottom: "res5a_branch2b"
  top: "res5a_branch2b"
}
layer {
  name: "res5a_branch2c"
  type: "Convolution"
  bottom: "res5a_branch2b"
  top: "res5a_branch2c"
  convolution_param {
    num_output: 2048
    bias_term: false
    pad: 0
    kernel_size: 1
    stride: 1
  }
}
layer {
  name: "bn5a_branch2c"
  type: "BatchNorm"
  bottom: "res5a_branch2c"
  top: "res5a_branch2c"
  batch_norm_param {
    use_global_stat
I0227 19:07:06.900656 26657 layer_factory.hpp:77] Creating layer data
I0227 19:07:07.005165 26657 net.cpp:86] Creating Layer data
I0227 19:07:07.005187 26657 net.cpp:382] data -> data
I0227 19:07:07.005266 26657 net.cpp:382] data -> sem
I0227 19:07:07.005281 26657 net.cpp:382] data -> geo
I0227 19:07:07.478507 26657 net.cpp:124] Setting up data
I0227 19:07:07.478546 26657 net.cpp:131] Top shape: 1 3 256 256 (196608)
I0227 19:07:07.478574 26657 net.cpp:131] Top shape: 1 33 256 256 (2162688)
I0227 19:07:07.478577 26657 net.cpp:131] Top shape: 1 3 256 256 (196608)
I0227 19:07:07.478580 26657 net.cpp:139] Memory required for data: 10223616
I0227 19:07:07.478588 26657 layer_factory.hpp:77] Creating layer data_data_0_split
I0227 19:07:07.478623 26657 net.cpp:86] Creating Layer data_data_0_split
I0227 19:07:07.478629 26657 net.cpp:408] data_data_0_split <- data
I0227 19:07:07.478638 26657 net.cpp:382] data_data_0_split -> data_data_0_split_0
I0227 19:07:07.478651 26657 net.cpp:382] data_data_0_split -> data_data_0_split_1
I0227 19:07:07.478658 26657 net.cpp:382] data_data_0_split -> data_data_0_split_2
I0227 19:07:07.478706 26657 net.cpp:124] Setting up data_data_0_split
I0227 19:07:07.478719 26657 net.cpp:131] Top shape: 1 3 256 256 (196608)
I0227 19:07:07.478724 26657 net.cpp:131] Top shape: 1 3 256 256 (196608)
I0227 19:07:07.478729 26657 net.cpp:131] Top shape: 1 3 256 256 (196608)
I0227 19:07:07.478734 26657 net.cpp:139] Memory required for data: 12582912
I0227 19:07:07.478736 26657 layer_factory.hpp:77] Creating layer conv1
I0227 19:07:07.478766 26657 net.cpp:86] Creating Layer conv1
I0227 19:07:07.478773 26657 net.cpp:408] conv1 <- data_data_0_split_0
I0227 19:07:07.478780 26657 net.cpp:382] conv1 -> conv1
I0227 19:07:08.264745 26657 net.cpp:124] Setting up conv1
I0227 19:07:08.264782 26657 net.cpp:131] Top shape: 1 64 128 128 (1048576)
I0227 19:07:08.264787 26657 net.cpp:139] Memory required for data: 16777216
I0227 19:07:08.264804 26657 layer_factory.hpp:77] Creating layer bn_conv1
I0227 19:07:08.264830 26657 net.cpp:86] Creating Layer bn_conv1
I0227 19:07:08.264837 26657 net.cpp:408] bn_conv1 <- conv1
I0227 19:07:08.264843 26657 net.cpp:369] bn_conv1 -> conv1 (in-place)
I0227 19:07:08.265048 26657 net.cpp:124] Setting up bn_conv1
I0227 19:07:08.265060 26657 net.cpp:131] Top shape: 1 64 128 128 (1048576)
I0227 19:07:08.265064 26657 net.cpp:139] Memory required for data: 20971520
I0227 19:07:08.265076 26657 layer_factory.hpp:77] Creating layer scale_conv1
I0227 19:07:08.265094 26657 net.cpp:86] Creating Layer scale_conv1
I0227 19:07:08.265100 26657 net.cpp:408] scale_conv1 <- conv1
I0227 19:07:08.265106 26657 net.cpp:369] scale_conv1 -> conv1 (in-place)
I0227 19:07:08.265151 26657 layer_factory.hpp:77] Creating layer scale_conv1
I0227 19:07:08.265301 26657 net.cpp:124] Setting up scale_conv1
I0227 19:07:08.265313 26657 net.cpp:131] Top shape: 1 64 128 128 (1048576)
I0227 19:07:08.265317 26657 net.cpp:139] Memory required for data: 25165824
I0227 19:07:08.265324 26657 layer_factory.hpp:77] Creating layer conv1_relu
I0227 19:07:08.265331 26657 net.cpp:86] Creating Layer conv1_relu
I0227 19:07:08.265336 26657 net.cpp:408] conv1_relu <- conv1
I0227 19:07:08.265341 26657 net.cpp:369] conv1_relu -> conv1 (in-place)
I0227 19:07:08.265499 26657 net.cpp:124] Setting up conv1_relu
I0227 19:07:08.265513 26657 net.cpp:131] Top shape: 1 64 128 128 (1048576)
I0227 19:07:08.265517 26657 net.cpp:139] Memory required for data: 29360128
I0227 19:07:08.265522 26657 layer_factory.hpp:77] Creating layer pool1
I0227 19:07:08.265530 26657 net.cpp:86] Creating Layer pool1
I0227 19:07:08.265534 26657 net.cpp:408] pool1 <- conv1
I0227 19:07:08.265540 26657 net.cpp:382] pool1 -> pool1
I0227 19:07:08.278645 26657 net.cpp:124] Setting up pool1
I0227 19:07:08.278661 26657 net.cpp:131] Top shape: 1 64 64 64 (262144)
I0227 19:07:08.278666 26657 net.cpp:139] Memory required for data: 30408704
I0227 19:07:08.278669 26657 layer_factory.hpp:77] Creating layer pool1_pool1_0_split
I0227 19:07:08.278676 26657 net.cpp:86] Creating Layer pool1_pool1_0_split
I0227 19:07:08.278681 26657 net.cpp:408] pool1_pool1_0_split <- pool1
I0227 19:07:08.278687 26657 net.cpp:382] pool1_pool1_0_split -> pool1_pool1_0_split_0
I0227 19:07:08.278694 26657 net.cpp:382] pool1_pool1_0_split -> pool1_pool1_0_split_1
I0227 19:07:08.278744 26657 net.cpp:124] Setting up pool1_pool1_0_split
I0227 19:07:08.278753 26657 net.cpp:131] Top shape: 1 64 64 64 (262144)
I0227 19:07:08.278759 26657 net.cpp:131] Top shape: 1 64 64 64 (262144)
I0227 19:07:08.278761 26657 net.cpp:139] Memory required for data: 32505856
I0227 19:07:08.278765 26657 layer_factory.hpp:77] Creating layer res2a_branch1
I0227 19:07:08.278775 26657 net.cpp:86] Creating Layer res2a_branch1
I0227 19:07:08.278784 26657 net.cpp:408] res2a_branch1 <- pool1_pool1_0_split_0
I0227 19:07:08.278789 26657 net.cpp:382] res2a_branch1 -> res2a_branch1
I0227 19:07:08.279825 26657 net.cpp:124] Setting up res2a_branch1
I0227 19:07:08.279845 26657 net.cpp:131] Top shape: 1 256 64 64 (1048576)
I0227 19:07:08.279850 26657 net.cpp:139] Memory required for data: 36700160
I0227 19:07:08.279857 26657 layer_factory.hpp:77] Creating layer bn2a_branch1
I0227 19:07:08.279865 26657 net.cpp:86] Creating Layer bn2a_branch1
I0227 19:07:08.279871 26657 net.cpp:408] bn2a_branch1 <- res2a_branch1
I0227 19:07:08.279877 26657 net.cpp:369] bn2a_branch1 -> res2a_branch1 (in-place)
I0227 19:07:08.280652 26657 net.cpp:124] Setting up bn2a_branch1
I0227 19:07:08.280668 26657 net.cpp:131] Top shape: 1 256 64 64 (1048576)
I0227 19:07:08.280673 26657 net.cpp:139] Memory required for data: 40894464
I0227 19:07:08.280685 26657 layer_factory.hpp:77] Creating layer scale2a_branch1
I0227 19:07:08.280694 26657 net.cpp:86] Creating Layer scale2a_branch1
I0227 19:07:08.280699 26657 net.cpp:408] scale2a_branch1 <- res2a_branch1
I0227 19:07:08.280704 26657 net.cpp:369] scale2a_branch1 -> res2a_branch1 (in-place)
I0227 19:07:08.280743 26657 layer_factory.hpp:77] Creating layer scale2a_branch1
I0227 19:07:08.280835 26657 net.cpp:124] Setting up scale2a_branch1
I0227 19:07:08.280848 26657 net.cpp:131] Top shape: 1 256 64 64 (1048576)
I0227 19:07:08.280850 26657 net.cpp:139] Memory required for data: 45088768
I0227 19:07:08.280858 26657 layer_factory.hpp:77] Creating layer res2a_branch2a
I0227 19:07:08.280865 26657 net.cpp:86] Creating Layer res2a_branch2a
I0227 19:07:08.280869 26657 net.cpp:408] res2a_branch2a <- pool1_pool1_0_split_1
I0227 19:07:08.280876 26657 net.cpp:382] res2a_branch2a -> res2a_branch2a
I0227 19:07:08.281927 26657 net.cpp:124] Setting up res2a_branch2a
I0227 19:07:08.281944 26657 net.cpp:131] Top shape: 1 64 64 64 (262144)
I0227 19:07:08.281949 26657 net.cpp:139] Memory required for data: 46137344
I0227 19:07:08.281955 26657 layer_factory.hpp:77] Creating layer bn2a_branch2a
I0227 19:07:08.281961 26657 net.cpp:86] Creating Layer bn2a_branch2a
I0227 19:07:08.281965 26657 net.cpp:408] bn2a_branch2a <- res2a_branch2a
I0227 19:07:08.281970 26657 net.cpp:369] bn2a_branch2a -> res2a_branch2a (in-place)
I0227 19:07:08.282156 26657 net.cpp:124] Setting up bn2a_branch2a
I0227 19:07:08.282167 26657 net.cpp:131] Top shape: 1 64 64 64 (262144)
I0227 19:07:08.282171 26657 net.cpp:139] Memory required for data: 47185920
I0227 19:07:08.282183 26657 layer_factory.hpp:77] Creating layer scale2a_branch2a
I0227 19:07:08.282192 26657 net.cpp:86] Creating Layer scale2a_branch2a
I0227 19:07:08.282196 26657 net.cpp:408] scale2a_branch2a <- res2a_branch2a
I0227 19:07:08.282202 26657 net.cpp:369] scale2a_branch2a -> res2a_branch2a (in-place)
I0227 19:07:08.282238 26657 layer_factory.hpp:77] Creating layer scale2a_branch2a
I0227 19:07:08.282336 26657 net.cpp:124] Setting up scale2a_branch2a
I0227 19:07:08.282346 26657 net.cpp:131] Top shape: 1 64 64 64 (262144)
I0227 19:07:08.282351 26657 net.cpp:139] Memory required for data: 48234496
I0227 19:07:08.282357 26657 layer_factory.hpp:77] Creating layer res2a_branch2a_relu
I0227 19:07:08.282363 26657 net.cpp:86] Creating Layer res2a_branch2a_relu
I0227 19:07:08.282367 26657 net.cpp:408] res2a_branch2a_relu <- res2a_branch2a
I0227 19:07:08.282372 26657 net.cpp:369] res2a_branch2a_relu -> res2a_branch2a (in-place)
I0227 19:07:08.282532 26657 net.cpp:124] Setting up res2a_branch2a_relu
I0227 19:07:08.282544 26657 net.cpp:131] Top shape: 1 64 64 64 (262144)
I0227 19:07:08.282548 26657 net.cpp:139] Memory required for data: 49283072
I0227 19:07:08.282552 26657 layer_factory.hpp:77] Creating layer res2a_branch2b
I0227 19:07:08.282559 26657 net.cpp:86] Creating Layer res2a_branch2b
I0227 19:07:08.282565 26657 net.cpp:408] res2a_branch2b <- res2a_branch2a
I0227 19:07:08.282572 26657 net.cpp:382] res2a_branch2b -> res2a_branch2b
I0227 19:07:08.284054 26657 net.cpp:124] Setting up res2a_branch2b
I0227 19:07:08.284072 26657 net.cpp:131] Top shape: 1 64 64 64 (262144)
I0227 19:07:08.284076 26657 net.cpp:139] Memory required for data: 50331648
I0227 19:07:08.284082 26657 layer_factory.hpp:77] Creating layer bn2a_branch2b
I0227 19:07:08.284090 26657 net.cpp:86] Creating Layer bn2a_branch2b
I0227 19:07:08.284095 26657 net.cpp:408] bn2a_branch2b <- res2a_branch2b
I0227 19:07:08.284099 26657 net.cpp:369] bn2a_branch2b -> res2a_branch2b (in-place)
I0227 19:07:08.284292 26657 net.cpp:124] Setting up bn2a_branch2b
I0227 19:07:08.284304 26657 net.cpp:131] Top shape: 1 64 64 64 (262144)
I0227 19:07:08.284308 26657 net.cpp:139] Memory required for data: 51380224
I0227 19:07:08.284317 26657 layer_factory.hpp:77] Creating layer scale2a_branch2b
I0227 19:07:08.284323 26657 net.cpp:86] Creating Layer scale2a_branch2b
I0227 19:07:08.284329 26657 net.cpp:408] scale2a_branch2b <- res2a_branch2b
I0227 19:07:08.284334 26657 net.cpp:369] scale2a_branch2b -> res2a_branch2b (in-place)
I0227 19:07:08.284373 26657 layer_factory.hpp:77] Creating layer scale2a_branch2b
I0227 19:07:08.284500 26657 net.cpp:124] Setting up scale2a_branch2b
I0227 19:07:08.284512 26657 net.cpp:131] Top shape: 1 64 64 64 (262144)
I0227 19:07:08.284517 26657 net.cpp:139] Memory required for data: 52428800
I0227 19:07:08.284523 26657 layer_factory.hpp:77] Creating layer res2a_branch2b_relu
I0227 19:07:08.284529 26657 net.cpp:86] Creating Layer res2a_branch2b_relu
I0227 19:07:08.284533 26657 net.cpp:408] res2a_branch2b_relu <- res2a_branch2b
I0227 19:07:08.284540 26657 net.cpp:369] res2a_branch2b_relu -> res2a_branch2b (in-place)
I0227 19:07:08.284858 26657 net.cpp:124] Setting up res2a_branch2b_relu
I0227 19:07:08.284884 26657 net.cpp:131] Top shape: 1 64 64 64 (262144)
I0227 19:07:08.284888 26657 net.cpp:139] Memory required for data: 53477376
I0227 19:07:08.284904 26657 layer_factory.hpp:77] Creating layer res2a_branch2c
I0227 19:07:08.284924 26657 net.cpp:86] Creating Layer res2a_branch2c
I0227 19:07:08.284929 26657 net.cpp:408] res2a_branch2c <- res2a_branch2b
I0227 19:07:08.284947 26657 net.cpp:382] res2a_branch2c -> res2a_branch2c
I0227 19:07:08.285914 26657 net.cpp:124] Setting up res2a_branch2c
I0227 19:07:08.285933 26657 net.cpp:131] Top shape: 1 256 64 64 (1048576)
I0227 19:07:08.285953 26657 net.cpp:139] Memory required for data: 57671680
I0227 19:07:08.285959 26657 layer_factory.hpp:77] Creating layer bn2a_branch2c
I0227 19:07:08.285966 26657 net.cpp:86] Creating Layer bn2a_branch2c
I0227 19:07:08.285984 26657 net.cpp:408] bn2a_branch2c <- res2a_branch2c
I0227 19:07:08.285989 26657 net.cpp:369] bn2a_branch2c -> res2a_branch2c (in-place)
I0227 19:07:08.286185 26657 net.cpp:124] Setting up bn2a_branch2c
I0227 19:07:08.286196 26657 net.cpp:131] Top shape: 1 256 64 64 (1048576)
I0227 19:07:08.286201 26657 net.cpp:139] Memory required for data: 61865984
I0227 19:07:08.286208 26657 layer_factory.hpp:77] Creating layer scale2a_branch2c
I0227 19:07:08.286216 26657 net.cpp:86] Creating Layer scale2a_branch2c
I0227 19:07:08.286221 26657 net.cpp:408] scale2a_branch2c <- res2a_branch2c
I0227 19:07:08.286227 26657 net.cpp:369] scale2a_branch2c -> res2a_branch2c (in-place)
I0227 19:07:08.286279 26657 layer_factory.hpp:77] Creating layer scale2a_branch2c
I0227 19:07:08.286382 26657 net.cpp:124] Setting up scale2a_branch2c
I0227 19:07:08.286393 26657 net.cpp:131] Top shape: 1 256 64 64 (1048576)
I0227 19:07:08.286396 26657 net.cpp:139] Memory required for data: 66060288
I0227 19:07:08.286403 26657 layer_factory.hpp:77] Creating layer res2a
I0227 19:07:08.286409 26657 net.cpp:86] Creating Layer res2a
I0227 19:07:08.286413 26657 net.cpp:408] res2a <- res2a_branch1
I0227 19:07:08.286417 26657 net.cpp:408] res2a <- res2a_branch2c
I0227 19:07:08.286423 26657 net.cpp:382] res2a -> res2a
I0227 19:07:08.286448 26657 net.cpp:124] Setting up res2a
I0227 19:07:08.286459 26657 net.cpp:131] Top shape: 1 256 64 64 (1048576)
I0227 19:07:08.286464 26657 net.cpp:139] Memory required for data: 70254592
I0227 19:07:08.286468 26657 layer_factory.hpp:77] Creating layer res2a_relu
I0227 19:07:08.286474 26657 net.cpp:86] Creating Layer res2a_relu
I0227 19:07:08.286478 26657 net.cpp:408] res2a_relu <- res2a
I0227 19:07:08.286483 26657 net.cpp:369] res2a_relu -> res2a (in-place)
I0227 19:07:08.286669 26657 net.cpp:124] Setting up res2a_relu
I0227 19:07:08.286682 26657 net.cpp:131] Top shape: 1 256 64 64 (1048576)
I0227 19:07:08.286686 26657 net.cpp:139] Memory required for data: 74448896
I0227 19:07:08.286690 26657 layer_factory.hpp:77] Creating layer res2a_res2a_relu_0_split
I0227 19:07:08.286696 26657 net.cpp:86] Creating Layer res2a_res2a_relu_0_split
I0227 19:07:08.286700 26657 net.cpp:408] res2a_res2a_relu_0_split <- res2a
I0227 19:07:08.286708 26657 net.cpp:382] res2a_res2a_relu_0_split -> res2a_res2a_relu_0_split_0
I0227 19:07:08.286715 26657 net.cpp:382] res2a_res2a_relu_0_split -> res2a_res2a_relu_0_split_1
I0227 19:07:08.286788 26657 net.cpp:124] Setting up res2a_res2a_relu_0_split
I0227 19:07:08.286799 26657 net.cpp:131] Top shape: 1 256 64 64 (1048576)
I0227 19:07:08.286804 26657 net.cpp:131] Top shape: 1 256 64 64 (1048576)
I0227 19:07:08.286808 26657 net.cpp:139] Memory required for data: 82837504
I0227 19:07:08.286813 26657 layer_factory.hpp:77] Creating layer res2b_branch2a
I0227 19:07:08.286821 26657 net.cpp:86] Creating Layer res2b_branch2a
I0227 19:07:08.286828 26657 net.cpp:408] res2b_branch2a <- res2a_res2a_relu_0_split_0
I0227 19:07:08.286834 26657 net.cpp:382] res2b_branch2a -> res2b_branch2a
I0227 19:07:08.287847 26657 net.cpp:124] Setting up res2b_branch2a
I0227 19:07:08.287875 26657 net.cpp:131] Top shape: 1 64 64 64 (262144)
I0227 19:07:08.287880 26657 net.cpp:139] Memory required for data: 83886080
I0227 19:07:08.287886 26657 layer_factory.hpp:77] Creating layer bn2b_branch2a
I0227 19:07:08.287895 26657 net.cpp:86] Creating Layer bn2b_branch2a
I0227 19:07:08.287900 26657 net.cpp:408] bn2b_branch2a <- res2b_branch2a
I0227 19:07:08.287905 26657 net.cpp:369] bn2b_branch2a -> res2b_branch2a (in-place)
I0227 19:07:08.288087 26657 net.cpp:124] Setting up bn2b_branch2a
I0227 19:07:08.288100 26657 net.cpp:131] Top shape: 1 64 64 64 (262144)
I0227 19:07:08.288102 26657 net.cpp:139] Memory required for data: 84934656
I0227 19:07:08.288115 26657 layer_factory.hpp:77] Creating layer scale2b_branch2a
I0227 19:07:08.288123 26657 net.cpp:86] Creating Layer scale2b_branch2a
I0227 19:07:08.288127 26657 net.cpp:408] scale2b_branch2a <- res2b_branch2a
I0227 19:07:08.288135 26657 net.cpp:369] scale2b_branch2a -> res2b_branch2a (in-place)
I0227 19:07:08.288175 26657 layer_factory.hpp:77] Creating layer scale2b_branch2a
I0227 19:07:08.288283 26657 net.cpp:124] Setting up scale2b_branch2a
I0227 19:07:08.288295 26657 net.cpp:131] Top shape: 1 64 64 64 (262144)
I0227 19:07:08.288300 26657 net.cpp:139] Memory required for data: 85983232
I0227 19:07:08.288305 26657 layer_factory.hpp:77] Creating layer res2b_branch2a_relu
I0227 19:07:08.288311 26657 net.cpp:86] Creating Layer res2b_branch2a_relu
I0227 19:07:08.288316 26657 net.cpp:408] res2b_branch2a_relu <- res2b_branch2a
I0227 19:07:08.288321 26657 net.cpp:369] res2b_branch2a_relu -> res2b_branch2a (in-place)
I0227 19:07:08.288492 26657 net.cpp:124] Setting up res2b_branch2a_relu
I0227 19:07:08.288504 26657 net.cpp:131] Top shape: 1 64 64 64 (262144)
I0227 19:07:08.288508 26657 net.cpp:139] Memory required for data: 87031808
I0227 19:07:08.288512 26657 layer_factory.hpp:77] Creating layer res2b_branch2b
I0227 19:07:08.288522 26657 net.cpp:86] Creating Layer res2b_branch2b
I0227 19:07:08.288527 26657 net.cpp:408] res2b_branch2b <- res2b_branch2a
I0227 19:07:08.288532 26657 net.cpp:382] res2b_branch2b -> res2b_branch2b
I0227 19:07:08.289499 26657 net.cpp:124] Setting up res2b_branch2b
I0227 19:07:08.289515 26657 net.cpp:131] Top shape: 1 64 64 64 (262144)
I0227 19:07:08.289520 26657 net.cpp:139] Memory required for data: 88080384
I0227 19:07:08.289525 26657 layer_factory.hpp:77] Creating layer bn2b_branch2b
I0227 19:07:08.289531 26657 net.cpp:86] Creating Layer bn2b_branch2b
I0227 19:07:08.289535 26657 net.cpp:408] bn2b_branch2b <- res2b_branch2b
I0227 19:07:08.289541 26657 net.cpp:369] bn2b_branch2b -> res2b_branch2b (in-place)
I0227 19:07:08.289762 26657 net.cpp:124] Setting up bn2b_branch2b
I0227 19:07:08.289773 26657 net.cpp:131] Top shape: 1 64 64 64 (262144)
I0227 19:07:08.289777 26657 net.cpp:139] Memory required for data: 89128960
I0227 19:07:08.289785 26657 layer_factory.hpp:77] Creating layer scale2b_branch2b
I0227 19:07:08.289793 26657 net.cpp:86] Creating Layer scale2b_branch2b
I0227 19:07:08.289798 26657 net.cpp:408] scale2b_branch2b <- res2b_branch2b
I0227 19:07:08.289806 26657 net.cpp:369] scale2b_branch2b -> res2b_branch2b (in-place)
I0227 19:07:08.289849 26657 layer_factory.hpp:77] Creating layer scale2b_branch2b
I0227 19:07:08.289984 26657 net.cpp:124] Setting up scale2b_branch2b
I0227 19:07:08.289997 26657 net.cpp:131] Top shape: 1 64 64 64 (262144)
I0227 19:07:08.290001 26657 net.cpp:139] Memory required for data: 90177536
I0227 19:07:08.290007 26657 layer_factory.hpp:77] Creating layer res2b_branch2b_relu
I0227 19:07:08.290019 26657 net.cpp:86] Creating Layer res2b_branch2b_relu
I0227 19:07:08.290037 26657 net.cpp:408] res2b_branch2b_relu <- res2b_branch2b
I0227 19:07:08.290042 26657 net.cpp:369] res2b_branch2b_relu -> res2b_branch2b (in-place)
I0227 19:07:08.290361 26657 net.cpp:124] Setting up res2b_branch2b_relu
I0227 19:07:08.290387 26657 net.cpp:131] Top shape: 1 64 64 64 (262144)
I0227 19:07:08.290403 26657 net.cpp:139] Memory required for data: 91226112
I0227 19:07:08.290407 26657 layer_factory.hpp:77] Creating layer res2b_branch2c
I0227 19:07:08.290428 26657 net.cpp:86] Creating Layer res2b_branch2c
I0227 19:07:08.290432 26657 net.cpp:408] res2b_branch2c <- res2b_branch2b
I0227 19:07:08.290451 26657 net.cpp:382] res2b_branch2c -> res2b_branch2c
I0227 19:07:08.291491 26657 net.cpp:124] Setting up res2b_branch2c
I0227 19:07:08.291508 26657 net.cpp:131] Top shape: 1 256 64 64 (1048576)
I0227 19:07:08.291512 26657 net.cpp:139] Memory required for data: 95420416
I0227 19:07:08.291518 26657 layer_factory.hpp:77] Creating layer bn2b_branch2c
I0227 19:07:08.291527 26657 net.cpp:86] Creating Layer bn2b_branch2c
I0227 19:07:08.291530 26657 net.cpp:408] bn2b_branch2c <- res2b_branch2c
I0227 19:07:08.291537 26657 net.cpp:369] bn2b_branch2c -> res2b_branch2c (in-place)
I0227 19:07:08.291731 26657 net.cpp:124] Setting up bn2b_branch2c
I0227 19:07:08.291743 26657 net.cpp:131] Top shape: 1 256 64 64 (1048576)
I0227 19:07:08.291746 26657 net.cpp:139] Memory required for data: 99614720
I0227 19:07:08.291754 26657 layer_factory.hpp:77] Creating layer scale2b_branch2c
I0227 19:07:08.291764 26657 net.cpp:86] Creating Layer scale2b_branch2c
I0227 19:07:08.291769 26657 net.cpp:408] scale2b_branch2c <- res2b_branch2c
I0227 19:07:08.291774 26657 net.cpp:369] scale2b_branch2c -> res2b_branch2c (in-place)
I0227 19:07:08.291815 26657 layer_factory.hpp:77] Creating layer scale2b_branch2c
I0227 19:07:08.291920 26657 net.cpp:124] Setting up scale2b_branch2c
I0227 19:07:08.291932 26657 net.cpp:131] Top shape: 1 256 64 64 (1048576)
I0227 19:07:08.291936 26657 net.cpp:139] Memory required for data: 103809024
I0227 19:07:08.291944 26657 layer_factory.hpp:77] Creating layer res2b
I0227 19:07:08.291949 26657 net.cpp:86] Creating Layer res2b
I0227 19:07:08.291954 26657 net.cpp:408] res2b <- res2a_res2a_relu_0_split_1
I0227 19:07:08.291960 26657 net.cpp:408] res2b <- res2b_branch2c
I0227 19:07:08.291965 26657 net.cpp:382] res2b -> res2b
I0227 19:07:08.291991 26657 net.cpp:124] Setting up res2b
I0227 19:07:08.292001 26657 net.cpp:131] Top shape: 1 256 64 64 (1048576)
I0227 19:07:08.292004 26657 net.cpp:139] Memory required for data: 108003328
I0227 19:07:08.292008 26657 layer_factory.hpp:77] Creating layer res2b_relu
I0227 19:07:08.292013 26657 net.cpp:86] Creating Layer res2b_relu
I0227 19:07:08.292016 26657 net.cpp:408] res2b_relu <- res2b
I0227 19:07:08.292022 26657 net.cpp:369] res2b_relu -> res2b (in-place)
I0227 19:07:08.292207 26657 net.cpp:124] Setting up res2b_relu
I0227 19:07:08.292220 26657 net.cpp:131] Top shape: 1 256 64 64 (1048576)
I0227 19:07:08.292224 26657 net.cpp:139] Memory required for data: 112197632
I0227 19:07:08.292228 26657 layer_factory.hpp:77] Creating layer res2b_res2b_relu_0_split
I0227 19:07:08.292234 26657 net.cpp:86] Creating Layer res2b_res2b_relu_0_split
I0227 19:07:08.292237 26657 net.cpp:408] res2b_res2b_relu_0_split <- res2b
I0227 19:07:08.292245 26657 net.cpp:382] res2b_res2b_relu_0_split -> res2b_res2b_relu_0_split_0
I0227 19:07:08.292255 26657 net.cpp:382] res2b_res2b_relu_0_split -> res2b_res2b_relu_0_split_1
I0227 19:07:08.292299 26657 net.cpp:124] Setting up res2b_res2b_relu_0_split
I0227 19:07:08.292309 26657 net.cpp:131] Top shape: 1 256 64 64 (1048576)
I0227 19:07:08.292313 26657 net.cpp:131] Top shape: 1 256 64 64 (1048576)
I0227 19:07:08.292316 26657 net.cpp:139] Memory required for data: 120586240
I0227 19:07:08.292320 26657 layer_factory.hpp:77] Creating layer res2c_branch2a
I0227 19:07:08.292330 26657 net.cpp:86] Creating Layer res2c_branch2a
I0227 19:07:08.292335 26657 net.cpp:408] res2c_branch2a <- res2b_res2b_relu_0_split_0
I0227 19:07:08.292341 26657 net.cpp:382] res2c_branch2a -> res2c_branch2a
I0227 19:07:08.293521 26657 net.cpp:124] Setting up res2c_branch2a
I0227 19:07:08.293539 26657 net.cpp:131] Top shape: 1 64 64 64 (262144)
I0227 19:07:08.293542 26657 net.cpp:139] Memory required for data: 121634816
I0227 19:07:08.293550 26657 layer_factory.hpp:77] Creating layer bn2c_branch2a
I0227 19:07:08.293557 26657 net.cpp:86] Creating Layer bn2c_branch2a
I0227 19:07:08.293565 26657 net.cpp:408] bn2c_branch2a <- res2c_branch2a
I0227 19:07:08.293572 26657 net.cpp:369] bn2c_branch2a -> res2c_branch2a (in-place)
I0227 19:07:08.293754 26657 net.cpp:124] Setting up bn2c_branch2a
I0227 19:07:08.293766 26657 net.cpp:131] Top shape: 1 64 64 64 (262144)
I0227 19:07:08.293769 26657 net.cpp:139] Memory required for data: 122683392
I0227 19:07:08.293777 26657 layer_factory.hpp:77] Creating layer scale2c_branch2a
I0227 19:07:08.293787 26657 net.cpp:86] Creating Layer scale2c_branch2a
I0227 19:07:08.293792 26657 net.cpp:408] scale2c_branch2a <- res2c_branch2a
I0227 19:07:08.293798 26657 net.cpp:369] scale2c_branch2a -> res2c_branch2a (in-place)
I0227 19:07:08.293839 26657 layer_factory.hpp:77] Creating layer scale2c_branch2a
I0227 19:07:08.293948 26657 net.cpp:124] Setting up scale2c_branch2a
I0227 19:07:08.293959 26657 net.cpp:131] Top shape: 1 64 64 64 (262144)
I0227 19:07:08.293962 26657 net.cpp:139] Memory required for data: 123731968
I0227 19:07:08.293969 26657 layer_factory.hpp:77] Creating layer res2c_branch2a_relu
I0227 19:07:08.293975 26657 net.cpp:86] Creating Layer res2c_branch2a_relu
I0227 19:07:08.293978 26657 net.cpp:408] res2c_branch2a_relu <- res2c_branch2a
I0227 19:07:08.293985 26657 net.cpp:369] res2c_branch2a_relu -> res2c_branch2a (in-place)
I0227 19:07:08.294153 26657 net.cpp:124] Setting up res2c_branch2a_relu
I0227 19:07:08.294167 26657 net.cpp:131] Top shape: 1 64 64 64 (262144)
I0227 19:07:08.294172 26657 net.cpp:139] Memory required for data: 124780544
I0227 19:07:08.294175 26657 layer_factory.hpp:77] Creating layer res2c_branch2b
I0227 19:07:08.294183 26657 net.cpp:86] Creating Layer res2c_branch2b
I0227 19:07:08.294188 26657 net.cpp:408] res2c_branch2b <- res2c_branch2a
I0227 19:07:08.294194 26657 net.cpp:382] res2c_branch2b -> res2c_branch2b
I0227 19:07:08.295181 26657 net.cpp:124] Setting up res2c_branch2b
I0227 19:07:08.295208 26657 net.cpp:131] Top shape: 1 64 64 64 (262144)
I0227 19:07:08.295213 26657 net.cpp:139] Memory required for data: 125829120
I0227 19:07:08.295219 26657 layer_factory.hpp:77] Creating layer bn2c_branch2b
I0227 19:07:08.295228 26657 net.cpp:86] Creating Layer bn2c_branch2b
I0227 19:07:08.295233 26657 net.cpp:408] bn2c_branch2b <- res2c_branch2b
I0227 19:07:08.295240 26657 net.cpp:369] bn2c_branch2b -> res2c_branch2b (in-place)
I0227 19:07:08.295445 26657 net.cpp:124] Setting up bn2c_branch2b
I0227 19:07:08.295456 26657 net.cpp:131] Top shape: 1 64 64 64 (262144)
I0227 19:07:08.295460 26657 net.cpp:139] Memory required for data: 126877696
I0227 19:07:08.295469 26657 layer_factory.hpp:77] Creating layer scale2c_branch2b
I0227 19:07:08.295477 26657 net.cpp:86] Creating Layer scale2c_branch2b
I0227 19:07:08.295483 26657 net.cpp:408] scale2c_branch2b <- res2c_branch2b
I0227 19:07:08.295488 26657 net.cpp:369] scale2c_branch2b -> res2c_branch2b (in-place)
I0227 19:07:08.295531 26657 layer_factory.hpp:77] Creating layer scale2c_branch2b
I0227 19:07:08.295642 26657 net.cpp:124] Setting up scale2c_branch2b
I0227 19:07:08.295653 26657 net.cpp:131] Top shape: 1 64 64 64 (262144)
I0227 19:07:08.295656 26657 net.cpp:139] Memory required for data: 127926272
I0227 19:07:08.295663 26657 layer_factory.hpp:77] Creating layer res2c_branch2b_relu
I0227 19:07:08.295671 26657 net.cpp:86] Creating Layer res2c_branch2b_relu
I0227 19:07:08.295676 26657 net.cpp:408] res2c_branch2b_relu <- res2c_branch2b
I0227 19:07:08.295681 26657 net.cpp:369] res2c_branch2b_relu -> res2c_branch2b (in-place)
I0227 19:07:08.295996 26657 net.cpp:124] Setting up res2c_branch2b_relu
I0227 19:07:08.296025 26657 net.cpp:131] Top shape: 1 64 64 64 (262144)
I0227 19:07:08.296041 26657 net.cpp:139] Memory required for data: 128974848
I0227 19:07:08.296046 26657 layer_factory.hpp:77] Creating layer res2c_branch2c
I0227 19:07:08.296054 26657 net.cpp:86] Creating Layer res2c_branch2c
I0227 19:07:08.296058 26657 net.cpp:408] res2c_branch2c <- res2c_branch2b
I0227 19:07:08.296066 26657 net.cpp:382] res2c_branch2c -> res2c_branch2c
I0227 19:07:08.297077 26657 net.cpp:124] Setting up res2c_branch2c
I0227 19:07:08.297106 26657 net.cpp:131] Top shape: 1 256 64 64 (1048576)
I0227 19:07:08.297109 26657 net.cpp:139] Memory required for data: 133169152
I0227 19:07:08.297116 26657 layer_factory.hpp:77] Creating layer bn2c_branch2c
I0227 19:07:08.297134 26657 net.cpp:86] Creating Layer bn2c_branch2c
I0227 19:07:08.297138 26657 net.cpp:408] bn2c_branch2c <- res2c_branch2c
I0227 19:07:08.297145 26657 net.cpp:369] bn2c_branch2c -> res2c_branch2c (in-place)
I0227 19:07:08.297324 26657 net.cpp:124] Setting up bn2c_branch2c
I0227 19:07:08.297335 26657 net.cpp:131] Top shape: 1 256 64 64 (1048576)
I0227 19:07:08.297338 26657 net.cpp:139] Memory required for data: 137363456
I0227 19:07:08.297355 26657 layer_factory.hpp:77] Creating layer scale2c_branch2c
I0227 19:07:08.297364 26657 net.cpp:86] Creating Layer scale2c_branch2c
I0227 19:07:08.297369 26657 net.cpp:408] scale2c_branch2c <- res2c_branch2c
I0227 19:07:08.297374 26657 net.cpp:369] scale2c_branch2c -> res2c_branch2c (in-place)
I0227 19:07:08.297415 26657 layer_factory.hpp:77] Creating layer scale2c_branch2c
I0227 19:07:08.297524 26657 net.cpp:124] Setting up scale2c_branch2c
I0227 19:07:08.297535 26657 net.cpp:131] Top shape: 1 256 64 64 (1048576)
I0227 19:07:08.297539 26657 net.cpp:139] Memory required for data: 141557760
I0227 19:07:08.297546 26657 layer_factory.hpp:77] Creating layer res2c
I0227 19:07:08.297552 26657 net.cpp:86] Creating Layer res2c
I0227 19:07:08.297556 26657 net.cpp:408] res2c <- res2b_res2b_relu_0_split_1
I0227 19:07:08.297560 26657 net.cpp:408] res2c <- res2c_branch2c
I0227 19:07:08.297585 26657 net.cpp:382] res2c -> res2c
I0227 19:07:08.297615 26657 net.cpp:124] Setting up res2c
I0227 19:07:08.297623 26657 net.cpp:131] Top shape: 1 256 64 64 (1048576)
I0227 19:07:08.297627 26657 net.cpp:139] Memory required for data: 145752064
I0227 19:07:08.297631 26657 layer_factory.hpp:77] Creating layer res2c_relu
I0227 19:07:08.297636 26657 net.cpp:86] Creating Layer res2c_relu
I0227 19:07:08.297639 26657 net.cpp:408] res2c_relu <- res2c
I0227 19:07:08.297644 26657 net.cpp:369] res2c_relu -> res2c (in-place)
I0227 19:07:08.297812 26657 net.cpp:124] Setting up res2c_relu
I0227 19:07:08.297824 26657 net.cpp:131] Top shape: 1 256 64 64 (1048576)
I0227 19:07:08.297828 26657 net.cpp:139] Memory required for data: 149946368
I0227 19:07:08.297832 26657 layer_factory.hpp:77] Creating layer res2c_res2c_relu_0_split
I0227 19:07:08.297837 26657 net.cpp:86] Creating Layer res2c_res2c_relu_0_split
I0227 19:07:08.297842 26657 net.cpp:408] res2c_res2c_relu_0_split <- res2c
I0227 19:07:08.297848 26657 net.cpp:382] res2c_res2c_relu_0_split -> res2c_res2c_relu_0_split_0
I0227 19:07:08.297855 26657 net.cpp:382] res2c_res2c_relu_0_split -> res2c_res2c_relu_0_split_1
I0227 19:07:08.297899 26657 net.cpp:124] Setting up res2c_res2c_relu_0_split
I0227 19:07:08.297909 26657 net.cpp:131] Top shape: 1 256 64 64 (1048576)
I0227 19:07:08.297914 26657 net.cpp:131] Top shape: 1 256 64 64 (1048576)
I0227 19:07:08.297916 26657 net.cpp:139] Memory required for data: 158334976
I0227 19:07:08.297920 26657 layer_factory.hpp:77] Creating layer res3a_branch1
I0227 19:07:08.297927 26657 net.cpp:86] Creating Layer res3a_branch1
I0227 19:07:08.297931 26657 net.cpp:408] res3a_branch1 <- res2c_res2c_relu_0_split_0
I0227 19:07:08.297938 26657 net.cpp:382] res3a_branch1 -> res3a_branch1
I0227 19:07:08.299577 26657 net.cpp:124] Setting up res3a_branch1
I0227 19:07:08.299595 26657 net.cpp:131] Top shape: 1 512 32 32 (524288)
I0227 19:07:08.299599 26657 net.cpp:139] Memory required for data: 160432128
I0227 19:07:08.299607 26657 layer_factory.hpp:77] Creating layer bn3a_branch1
I0227 19:07:08.299618 26657 net.cpp:86] Creating Layer bn3a_branch1
I0227 19:07:08.299623 26657 net.cpp:408] bn3a_branch1 <- res3a_branch1
I0227 19:07:08.299629 26657 net.cpp:369] bn3a_branch1 -> res3a_branch1 (in-place)
I0227 19:07:08.300395 26657 net.cpp:124] Setting up bn3a_branch1
I0227 19:07:08.300410 26657 net.cpp:131] Top shape: 1 512 32 32 (524288)
I0227 19:07:08.300426 26657 net.cpp:139] Memory required for data: 162529280
I0227 19:07:08.300434 26657 layer_factory.hpp:77] Creating layer scale3a_branch1
I0227 19:07:08.300441 26657 net.cpp:86] Creating Layer scale3a_branch1
I0227 19:07:08.300446 26657 net.cpp:408] scale3a_branch1 <- res3a_branch1
I0227 19:07:08.300451 26657 net.cpp:369] scale3a_branch1 -> res3a_branch1 (in-place)
I0227 19:07:08.300504 26657 layer_factory.hpp:77] Creating layer scale3a_branch1
I0227 19:07:08.300609 26657 net.cpp:124] Setting up scale3a_branch1
I0227 19:07:08.300619 26657 net.cpp:131] Top shape: 1 512 32 32 (524288)
I0227 19:07:08.300623 26657 net.cpp:139] Memory required for data: 164626432
I0227 19:07:08.300629 26657 layer_factory.hpp:77] Creating layer res3a_branch2a
I0227 19:07:08.300639 26657 net.cpp:86] Creating Layer res3a_branch2a
I0227 19:07:08.300647 26657 net.cpp:408] res3a_branch2a <- res2c_res2c_relu_0_split_1
I0227 19:07:08.300652 26657 net.cpp:382] res3a_branch2a -> res3a_branch2a
I0227 19:07:08.301626 26657 net.cpp:124] Setting up res3a_branch2a
I0227 19:07:08.301642 26657 net.cpp:131] Top shape: 1 128 32 32 (131072)
I0227 19:07:08.301646 26657 net.cpp:139] Memory required for data: 165150720
I0227 19:07:08.301651 26657 layer_factory.hpp:77] Creating layer bn3a_branch2a
I0227 19:07:08.301658 26657 net.cpp:86] Creating Layer bn3a_branch2a
I0227 19:07:08.301662 26657 net.cpp:408] bn3a_branch2a <- res3a_branch2a
I0227 19:07:08.301681 26657 net.cpp:369] bn3a_branch2a -> res3a_branch2a (in-place)
I0227 19:07:08.301870 26657 net.cpp:124] Setting up bn3a_branch2a
I0227 19:07:08.301882 26657 net.cpp:131] Top shape: 1 128 32 32 (131072)
I0227 19:07:08.301885 26657 net.cpp:139] Memory required for data: 165675008
I0227 19:07:08.301893 26657 layer_factory.hpp:77] Creating layer scale3a_branch2a
I0227 19:07:08.301900 26657 net.cpp:86] Creating Layer scale3a_branch2a
I0227 19:07:08.301906 26657 net.cpp:408] scale3a_branch2a <- res3a_branch2a
I0227 19:07:08.301911 26657 net.cpp:369] scale3a_branch2a -> res3a_branch2a (in-place)
I0227 19:07:08.301954 26657 layer_factory.hpp:77] Creating layer scale3a_branch2a
I0227 19:07:08.302074 26657 net.cpp:124] Setting up scale3a_branch2a
I0227 19:07:08.302085 26657 net.cpp:131] Top shape: 1 128 32 32 (131072)
I0227 19:07:08.302089 26657 net.cpp:139] Memory required for data: 166199296
I0227 19:07:08.302095 26657 layer_factory.hpp:77] Creating layer res3a_branch2a_relu
I0227 19:07:08.302103 26657 net.cpp:86] Creating Layer res3a_branch2a_relu
I0227 19:07:08.302109 26657 net.cpp:408] res3a_branch2a_relu <- res3a_branch2a
I0227 19:07:08.302114 26657 net.cpp:369] res3a_branch2a_relu -> res3a_branch2a (in-place)
I0227 19:07:08.302285 26657 net.cpp:124] Setting up res3a_branch2a_relu
I0227 19:07:08.302297 26657 net.cpp:131] Top shape: 1 128 32 32 (131072)
I0227 19:07:08.302301 26657 net.cpp:139] Memory required for data: 166723584
I0227 19:07:08.302304 26657 layer_factory.hpp:77] Creating layer res3a_branch2b
I0227 19:07:08.302314 26657 net.cpp:86] Creating Layer res3a_branch2b
I0227 19:07:08.302320 26657 net.cpp:408] res3a_branch2b <- res3a_branch2a
I0227 19:07:08.302326 26657 net.cpp:382] res3a_branch2b -> res3a_branch2b
I0227 19:07:08.303900 26657 net.cpp:124] Setting up res3a_branch2b
I0227 19:07:08.303916 26657 net.cpp:131] Top shape: 1 128 32 32 (131072)
I0227 19:07:08.303920 26657 net.cpp:139] Memory required for data: 167247872
I0227 19:07:08.303925 26657 layer_factory.hpp:77] Creating layer bn3a_branch2b
I0227 19:07:08.303932 26657 net.cpp:86] Creating Layer bn3a_branch2b
I0227 19:07:08.303936 26657 net.cpp:408] bn3a_branch2b <- res3a_branch2b
I0227 19:07:08.303956 26657 net.cpp:369] bn3a_branch2b -> res3a_branch2b (in-place)
I0227 19:07:08.304167 26657 net.cpp:124] Setting up bn3a_branch2b
I0227 19:07:08.304179 26657 net.cpp:131] Top shape: 1 128 32 32 (131072)
I0227 19:07:08.304183 26657 net.cpp:139] Memory required for data: 167772160
I0227 19:07:08.304191 26657 layer_factory.hpp:77] Creating layer scale3a_branch2b
I0227 19:07:08.304199 26657 net.cpp:86] Creating Layer scale3a_branch2b
I0227 19:07:08.304204 26657 net.cpp:408] scale3a_branch2b <- res3a_branch2b
I0227 19:07:08.304209 26657 net.cpp:369] scale3a_branch2b -> res3a_branch2b (in-place)
I0227 19:07:08.304250 26657 layer_factory.hpp:77] Creating layer scale3a_branch2b
I0227 19:07:08.304350 26657 net.cpp:124] Setting up scale3a_branch2b
I0227 19:07:08.304360 26657 net.cpp:131] Top shape: 1 128 32 32 (131072)
I0227 19:07:08.304364 26657 net.cpp:139] Memory required for data: 168296448
I0227 19:07:08.304370 26657 layer_factory.hpp:77] Creating layer res3a_branch2b_relu
I0227 19:07:08.304376 26657 net.cpp:86] Creating Layer res3a_branch2b_relu
I0227 19:07:08.304380 26657 net.cpp:408] res3a_branch2b_relu <- res3a_branch2b
I0227 19:07:08.304386 26657 net.cpp:369] res3a_branch2b_relu -> res3a_branch2b (in-place)
I0227 19:07:08.304708 26657 net.cpp:124] Setting up res3a_branch2b_relu
I0227 19:07:08.304736 26657 net.cpp:131] Top shape: 1 128 32 32 (131072)
I0227 19:07:08.304751 26657 net.cpp:139] Memory required for data: 168820736
I0227 19:07:08.304755 26657 layer_factory.hpp:77] Creating layer res3a_branch2c
I0227 19:07:08.304793 26657 net.cpp:86] Creating Layer res3a_branch2c
I0227 19:07:08.304797 26657 net.cpp:408] res3a_branch2c <- res3a_branch2b
I0227 19:07:08.304805 26657 net.cpp:382] res3a_branch2c -> res3a_branch2c
I0227 19:07:08.305711 26657 net.cpp:124] Setting up res3a_branch2c
I0227 19:07:08.305738 26657 net.cpp:131] Top shape: 1 512 32 32 (524288)
I0227 19:07:08.305742 26657 net.cpp:139] Memory required for data: 170917888
I0227 19:07:08.305749 26657 layer_factory.hpp:77] Creating layer bn3a_branch2c
I0227 19:07:08.305768 26657 net.cpp:86] Creating Layer bn3a_branch2c
I0227 19:07:08.305771 26657 net.cpp:408] bn3a_branch2c <- res3a_branch2c
I0227 19:07:08.305778 26657 net.cpp:369] bn3a_branch2c -> res3a_branch2c (in-place)
I0227 19:07:08.305958 26657 net.cpp:124] Setting up bn3a_branch2c
I0227 19:07:08.305968 26657 net.cpp:131] Top shape: 1 512 32 32 (524288)
I0227 19:07:08.305972 26657 net.cpp:139] Memory required for data: 173015040
I0227 19:07:08.305980 26657 layer_factory.hpp:77] Creating layer scale3a_branch2c
I0227 19:07:08.305986 26657 net.cpp:86] Creating Layer scale3a_branch2c
I0227 19:07:08.305992 26657 net.cpp:408] scale3a_branch2c <- res3a_branch2c
I0227 19:07:08.305997 26657 net.cpp:369] scale3a_branch2c -> res3a_branch2c (in-place)
I0227 19:07:08.306036 26657 layer_factory.hpp:77] Creating layer scale3a_branch2c
I0227 19:07:08.306152 26657 net.cpp:124] Setting up scale3a_branch2c
I0227 19:07:08.306164 26657 net.cpp:131] Top shape: 1 512 32 32 (524288)
I0227 19:07:08.306167 26657 net.cpp:139] Memory required for data: 175112192
I0227 19:07:08.306174 26657 layer_factory.hpp:77] Creating layer res3a
I0227 19:07:08.306181 26657 net.cpp:86] Creating Layer res3a
I0227 19:07:08.306187 26657 net.cpp:408] res3a <- res3a_branch1
I0227 19:07:08.306192 26657 net.cpp:408] res3a <- res3a_branch2c
I0227 19:07:08.306197 26657 net.cpp:382] res3a -> res3a
I0227 19:07:08.306246 26657 net.cpp:124] Setting up res3a
I0227 19:07:08.306257 26657 net.cpp:131] Top shape: 1 512 32 32 (524288)
I0227 19:07:08.306260 26657 net.cpp:139] Memory required for data: 177209344
I0227 19:07:08.306263 26657 layer_factory.hpp:77] Creating layer res3a_relu
I0227 19:07:08.306269 26657 net.cpp:86] Creating Layer res3a_relu
I0227 19:07:08.306273 26657 net.cpp:408] res3a_relu <- res3a
I0227 19:07:08.306278 26657 net.cpp:369] res3a_relu -> res3a (in-place)
I0227 19:07:08.306635 26657 net.cpp:124] Setting up res3a_relu
I0227 19:07:08.306649 26657 net.cpp:131] Top shape: 1 512 32 32 (524288)
I0227 19:07:08.306665 26657 net.cpp:139] Memory required for data: 179306496
I0227 19:07:08.306668 26657 layer_factory.hpp:77] Creating layer res3a_res3a_relu_0_split
I0227 19:07:08.306675 26657 net.cpp:86] Creating Layer res3a_res3a_relu_0_split
I0227 19:07:08.306679 26657 net.cpp:408] res3a_res3a_relu_0_split <- res3a
I0227 19:07:08.306699 26657 net.cpp:382] res3a_res3a_relu_0_split -> res3a_res3a_relu_0_split_0
I0227 19:07:08.306706 26657 net.cpp:382] res3a_res3a_relu_0_split -> res3a_res3a_relu_0_split_1
I0227 19:07:08.306749 26657 net.cpp:124] Setting up res3a_res3a_relu_0_split
I0227 19:07:08.306758 26657 net.cpp:131] Top shape: 1 512 32 32 (524288)
I0227 19:07:08.306763 26657 net.cpp:131] Top shape: 1 512 32 32 (524288)
I0227 19:07:08.306766 26657 net.cpp:139] Memory required for data: 183500800
I0227 19:07:08.306771 26657 layer_factory.hpp:77] Creating layer res3b_branch2a
I0227 19:07:08.306782 26657 net.cpp:86] Creating Layer res3b_branch2a
I0227 19:07:08.306785 26657 net.cpp:408] res3b_branch2a <- res3a_res3a_relu_0_split_0
I0227 19:07:08.306792 26657 net.cpp:382] res3b_branch2a -> res3b_branch2a
I0227 19:07:08.308502 26657 net.cpp:124] Setting up res3b_branch2a
I0227 19:07:08.308518 26657 net.cpp:131] Top shape: 1 128 32 32 (131072)
I0227 19:07:08.308534 26657 net.cpp:139] Memory required for data: 184025088
I0227 19:07:08.308542 26657 layer_factory.hpp:77] Creating layer bn3b_branch2a
I0227 19:07:08.308549 26657 net.cpp:86] Creating Layer bn3b_branch2a
I0227 19:07:08.308554 26657 net.cpp:408] bn3b_branch2a <- res3b_branch2a
I0227 19:07:08.308559 26657 net.cpp:369] bn3b_branch2a -> res3b_branch2a (in-place)
I0227 19:07:08.308782 26657 net.cpp:124] Setting up bn3b_branch2a
I0227 19:07:08.308794 26657 net.cpp:131] Top shape: 1 128 32 32 (131072)
I0227 19:07:08.308799 26657 net.cpp:139] Memory required for data: 184549376
I0227 19:07:08.308809 26657 layer_factory.hpp:77] Creating layer scale3b_branch2a
I0227 19:07:08.308816 26657 net.cpp:86] Creating Layer scale3b_branch2a
I0227 19:07:08.308820 26657 net.cpp:408] scale3b_branch2a <- res3b_branch2a
I0227 19:07:08.308826 26657 net.cpp:369] scale3b_branch2a -> res3b_branch2a (in-place)
I0227 19:07:08.308868 26657 layer_factory.hpp:77] Creating layer scale3b_branch2a
I0227 19:07:08.308971 26657 net.cpp:124] Setting up scale3b_branch2a
I0227 19:07:08.308981 26657 net.cpp:131] Top shape: 1 128 32 32 (131072)
I0227 19:07:08.308985 26657 net.cpp:139] Memory required for data: 185073664
I0227 19:07:08.308991 26657 layer_factory.hpp:77] Creating layer res3b_branch2a_relu
I0227 19:07:08.308997 26657 net.cpp:86] Creating Layer res3b_branch2a_relu
I0227 19:07:08.309001 26657 net.cpp:408] res3b_branch2a_relu <- res3b_branch2a
I0227 19:07:08.309006 26657 net.cpp:369] res3b_branch2a_relu -> res3b_branch2a (in-place)
I0227 19:07:08.309190 26657 net.cpp:124] Setting up res3b_branch2a_relu
I0227 19:07:08.309203 26657 net.cpp:131] Top shape: 1 128 32 32 (131072)
I0227 19:07:08.309207 26657 net.cpp:139] Memory required for data: 185597952
I0227 19:07:08.309211 26657 layer_factory.hpp:77] Creating layer res3b_branch2b
I0227 19:07:08.309219 26657 net.cpp:86] Creating Layer res3b_branch2b
I0227 19:07:08.309223 26657 net.cpp:408] res3b_branch2b <- res3b_branch2a
I0227 19:07:08.309231 26657 net.cpp:382] res3b_branch2b -> res3b_branch2b
I0227 19:07:08.310864 26657 net.cpp:124] Setting up res3b_branch2b
I0227 19:07:08.310881 26657 net.cpp:131] Top shape: 1 128 32 32 (131072)
I0227 19:07:08.310899 26657 net.cpp:139] Memory required for data: 186122240
I0227 19:07:08.310904 26657 layer_factory.hpp:77] Creating layer bn3b_branch2b
I0227 19:07:08.310912 26657 net.cpp:86] Creating Layer bn3b_branch2b
I0227 19:07:08.310917 26657 net.cpp:408] bn3b_branch2b <- res3b_branch2b
I0227 19:07:08.310923 26657 net.cpp:369] bn3b_branch2b -> res3b_branch2b (in-place)
I0227 19:07:08.311107 26657 net.cpp:124] Setting up bn3b_branch2b
I0227 19:07:08.311117 26657 net.cpp:131] Top shape: 1 128 32 32 (131072)
I0227 19:07:08.311121 26657 net.cpp:139] Memory required for data: 186646528
I0227 19:07:08.311130 26657 layer_factory.hpp:77] Creating layer scale3b_branch2b
I0227 19:07:08.311143 26657 net.cpp:86] Creating Layer scale3b_branch2b
I0227 19:07:08.311151 26657 net.cpp:408] scale3b_branch2b <- res3b_branch2b
I0227 19:07:08.311157 26657 net.cpp:369] scale3b_branch2b -> res3b_branch2b (in-place)
I0227 19:07:08.311203 26657 layer_factory.hpp:77] Creating layer scale3b_branch2b
I0227 19:07:08.311306 26657 net.cpp:124] Setting up scale3b_branch2b
I0227 19:07:08.311318 26657 net.cpp:131] Top shape: 1 128 32 32 (131072)
I0227 19:07:08.311321 26657 net.cpp:139] Memory required for data: 187170816
I0227 19:07:08.311328 26657 layer_factory.hpp:77] Creating layer res3b_branch2b_relu
I0227 19:07:08.311333 26657 net.cpp:86] Creating Layer res3b_branch2b_relu
I0227 19:07:08.311337 26657 net.cpp:408] res3b_branch2b_relu <- res3b_branch2b
I0227 19:07:08.311342 26657 net.cpp:369] res3b_branch2b_relu -> res3b_branch2b (in-place)
I0227 19:07:08.311664 26657 net.cpp:124] Setting up res3b_branch2b_relu
I0227 19:07:08.311702 26657 net.cpp:131] Top shape: 1 128 32 32 (131072)
I0227 19:07:08.311707 26657 net.cpp:139] Memory required for data: 187695104
I0227 19:07:08.311709 26657 layer_factory.hpp:77] Creating layer res3b_branch2c
I0227 19:07:08.311719 26657 net.cpp:86] Creating Layer res3b_branch2c
I0227 19:07:08.311724 26657 net.cpp:408] res3b_branch2c <- res3b_branch2b
I0227 19:07:08.311730 26657 net.cpp:382] res3b_branch2c -> res3b_branch2c
I0227 19:07:08.312655 26657 net.cpp:124] Setting up res3b_branch2c
I0227 19:07:08.312670 26657 net.cpp:131] Top shape: 1 512 32 32 (524288)
I0227 19:07:08.312686 26657 net.cpp:139] Memory required for data: 189792256
I0227 19:07:08.312692 26657 layer_factory.hpp:77] Creating layer bn3b_branch2c
I0227 19:07:08.312701 26657 net.cpp:86] Creating Layer bn3b_branch2c
I0227 19:07:08.312706 26657 net.cpp:408] bn3b_branch2c <- res3b_branch2c
I0227 19:07:08.312711 26657 net.cpp:369] bn3b_branch2c -> res3b_branch2c (in-place)
I0227 19:07:08.312930 26657 net.cpp:124] Setting up bn3b_branch2c
I0227 19:07:08.312942 26657 net.cpp:131] Top shape: 1 512 32 32 (524288)
I0227 19:07:08.312947 26657 net.cpp:139] Memory required for data: 191889408
I0227 19:07:08.312955 26657 layer_factory.hpp:77] Creating layer scale3b_branch2c
I0227 19:07:08.312963 26657 net.cpp:86] Creating Layer scale3b_branch2c
I0227 19:07:08.312969 26657 net.cpp:408] scale3b_branch2c <- res3b_branch2c
I0227 19:07:08.312975 26657 net.cpp:369] scale3b_branch2c -> res3b_branch2c (in-place)
I0227 19:07:08.313017 26657 layer_factory.hpp:77] Creating layer scale3b_branch2c
I0227 19:07:08.313127 26657 net.cpp:124] Setting up scale3b_branch2c
I0227 19:07:08.313136 26657 net.cpp:131] Top shape: 1 512 32 32 (524288)
I0227 19:07:08.313139 26657 net.cpp:139] Memory required for data: 193986560
I0227 19:07:08.313146 26657 layer_factory.hpp:77] Creating layer res3b
I0227 19:07:08.313153 26657 net.cpp:86] Creating Layer res3b
I0227 19:07:08.313159 26657 net.cpp:408] res3b <- res3a_res3a_relu_0_split_1
I0227 19:07:08.313164 26657 net.cpp:408] res3b <- res3b_branch2c
I0227 19:07:08.313169 26657 net.cpp:382] res3b -> res3b
I0227 19:07:08.313196 26657 net.cpp:124] Setting up res3b
I0227 19:07:08.313205 26657 net.cpp:131] Top shape: 1 512 32 32 (524288)
I0227 19:07:08.313210 26657 net.cpp:139] Memory required for data: 196083712
I0227 19:07:08.313212 26657 layer_factory.hpp:77] Creating layer res3b_relu
I0227 19:07:08.313218 26657 net.cpp:86] Creating Layer res3b_relu
I0227 19:07:08.313221 26657 net.cpp:408] res3b_relu <- res3b
I0227 19:07:08.313228 26657 net.cpp:369] res3b_relu -> res3b (in-place)
I0227 19:07:08.313550 26657 net.cpp:124] Setting up res3b_relu
I0227 19:07:08.313566 26657 net.cpp:131] Top shape: 1 512 32 32 (524288)
I0227 19:07:08.313570 26657 net.cpp:139] Memory required for data: 198180864
I0227 19:07:08.313575 26657 layer_factory.hpp:77] Creating layer res3b_res3b_relu_0_split
I0227 19:07:08.313583 26657 net.cpp:86] Creating Layer res3b_res3b_relu_0_split
I0227 19:07:08.313590 26657 net.cpp:408] res3b_res3b_relu_0_split <- res3b
I0227 19:07:08.313596 26657 net.cpp:382] res3b_res3b_relu_0_split -> res3b_res3b_relu_0_split_0
I0227 19:07:08.313603 26657 net.cpp:382] res3b_res3b_relu_0_split -> res3b_res3b_relu_0_split_1
I0227 19:07:08.313650 26657 net.cpp:124] Setting up res3b_res3b_relu_0_split
I0227 19:07:08.313659 26657 net.cpp:131] Top shape: 1 512 32 32 (524288)
I0227 19:07:08.313664 26657 net.cpp:131] Top shape: 1 512 32 32 (524288)
I0227 19:07:08.313668 26657 net.cpp:139] Memory required for data: 202375168
I0227 19:07:08.313671 26657 layer_factory.hpp:77] Creating layer res3c_branch2a
I0227 19:07:08.313680 26657 net.cpp:86] Creating Layer res3c_branch2a
I0227 19:07:08.313685 26657 net.cpp:408] res3c_branch2a <- res3b_res3b_relu_0_split_0
I0227 19:07:08.313691 26657 net.cpp:382] res3c_branch2a -> res3c_branch2a
I0227 19:07:08.314718 26657 net.cpp:124] Setting up res3c_branch2a
I0227 19:07:08.314734 26657 net.cpp:131] Top shape: 1 128 32 32 (131072)
I0227 19:07:08.314738 26657 net.cpp:139] Memory required for data: 202899456
I0227 19:07:08.314744 26657 layer_factory.hpp:77] Creating layer bn3c_branch2a
I0227 19:07:08.314751 26657 net.cpp:86] Creating Layer bn3c_branch2a
I0227 19:07:08.314757 26657 net.cpp:408] bn3c_branch2a <- res3c_branch2a
I0227 19:07:08.314765 26657 net.cpp:369] bn3c_branch2a -> res3c_branch2a (in-place)
I0227 19:07:08.314954 26657 net.cpp:124] Setting up bn3c_branch2a
I0227 19:07:08.314963 26657 net.cpp:131] Top shape: 1 128 32 32 (131072)
I0227 19:07:08.314967 26657 net.cpp:139] Memory required for data: 203423744
I0227 19:07:08.314975 26657 layer_factory.hpp:77] Creating layer scale3c_branch2a
I0227 19:07:08.314982 26657 net.cpp:86] Creating Layer scale3c_branch2a
I0227 19:07:08.314987 26657 net.cpp:408] scale3c_branch2a <- res3c_branch2a
I0227 19:07:08.314993 26657 net.cpp:369] scale3c_branch2a -> res3c_branch2a (in-place)
I0227 19:07:08.315034 26657 layer_factory.hpp:77] Creating layer scale3c_branch2a
I0227 19:07:08.315151 26657 net.cpp:124] Setting up scale3c_branch2a
I0227 19:07:08.315176 26657 net.cpp:131] Top shape: 1 128 32 32 (131072)
I0227 19:07:08.315179 26657 net.cpp:139] Memory required for data: 203948032
I0227 19:07:08.315186 26657 layer_factory.hpp:77] Creating layer res3c_branch2a_relu
I0227 19:07:08.315194 26657 net.cpp:86] Creating Layer res3c_branch2a_relu
I0227 19:07:08.315201 26657 net.cpp:408] res3c_branch2a_relu <- res3c_branch2a
I0227 19:07:08.315206 26657 net.cpp:369] res3c_branch2a_relu -> res3c_branch2a (in-place)
I0227 19:07:08.315409 26657 net.cpp:124] Setting up res3c_branch2a_relu
I0227 19:07:08.315423 26657 net.cpp:131] Top shape: 1 128 32 32 (131072)
I0227 19:07:08.315426 26657 net.cpp:139] Memory required for data: 204472320
I0227 19:07:08.315430 26657 layer_factory.hpp:77] Creating layer res3c_branch2b
I0227 19:07:08.315440 26657 net.cpp:86] Creating Layer res3c_branch2b
I0227 19:07:08.315459 26657 net.cpp:408] res3c_branch2b <- res3c_branch2a
I0227 19:07:08.315465 26657 net.cpp:382] res3c_branch2b -> res3c_branch2b
I0227 19:07:08.317067 26657 net.cpp:124] Setting up res3c_branch2b
I0227 19:07:08.317096 26657 net.cpp:131] Top shape: 1 128 32 32 (131072)
I0227 19:07:08.317101 26657 net.cpp:139] Memory required for data: 204996608
I0227 19:07:08.317106 26657 layer_factory.hpp:77] Creating layer bn3c_branch2b
I0227 19:07:08.317113 26657 net.cpp:86] Creating Layer bn3c_branch2b
I0227 19:07:08.317117 26657 net.cpp:408] bn3c_branch2b <- res3c_branch2b
I0227 19:07:08.317134 26657 net.cpp:369] bn3c_branch2b -> res3c_branch2b (in-place)
I0227 19:07:08.317327 26657 net.cpp:124] Setting up bn3c_branch2b
I0227 19:07:08.317337 26657 net.cpp:131] Top shape: 1 128 32 32 (131072)
I0227 19:07:08.317340 26657 net.cpp:139] Memory required for data: 205520896
I0227 19:07:08.317349 26657 layer_factory.hpp:77] Creating layer scale3c_branch2b
I0227 19:07:08.317355 26657 net.cpp:86] Creating Layer scale3c_branch2b
I0227 19:07:08.317359 26657 net.cpp:408] scale3c_branch2b <- res3c_branch2b
I0227 19:07:08.317364 26657 net.cpp:369] scale3c_branch2b -> res3c_branch2b (in-place)
I0227 19:07:08.317406 26657 layer_factory.hpp:77] Creating layer scale3c_branch2b
I0227 19:07:08.317535 26657 net.cpp:124] Setting up scale3c_branch2b
I0227 19:07:08.317546 26657 net.cpp:131] Top shape: 1 128 32 32 (131072)
I0227 19:07:08.317549 26657 net.cpp:139] Memory required for data: 206045184
I0227 19:07:08.317556 26657 layer_factory.hpp:77] Creating layer res3c_branch2b_relu
I0227 19:07:08.317562 26657 net.cpp:86] Creating Layer res3c_branch2b_relu
I0227 19:07:08.317566 26657 net.cpp:408] res3c_branch2b_relu <- res3c_branch2b
I0227 19:07:08.317572 26657 net.cpp:369] res3c_branch2b_relu -> res3c_branch2b (in-place)
I0227 19:07:08.317931 26657 net.cpp:124] Setting up res3c_branch2b_relu
I0227 19:07:08.317945 26657 net.cpp:131] Top shape: 1 128 32 32 (131072)
I0227 19:07:08.317950 26657 net.cpp:139] Memory required for data: 206569472
I0227 19:07:08.317952 26657 layer_factory.hpp:77] Creating layer res3c_branch2c
I0227 19:07:08.317965 26657 net.cpp:86] Creating Layer res3c_branch2c
I0227 19:07:08.317970 26657 net.cpp:408] res3c_branch2c <- res3c_branch2b
I0227 19:07:08.317976 26657 net.cpp:382] res3c_branch2c -> res3c_branch2c
I0227 19:07:08.318895 26657 net.cpp:124] Setting up res3c_branch2c
I0227 19:07:08.318922 26657 net.cpp:131] Top shape: 1 512 32 32 (524288)
I0227 19:07:08.318927 26657 net.cpp:139] Memory required for data: 208666624
I0227 19:07:08.318933 26657 layer_factory.hpp:77] Creating layer bn3c_branch2c
I0227 19:07:08.318940 26657 net.cpp:86] Creating Layer bn3c_branch2c
I0227 19:07:08.318945 26657 net.cpp:408] bn3c_branch2c <- res3c_branch2c
I0227 19:07:08.318963 26657 net.cpp:369] bn3c_branch2c -> res3c_branch2c (in-place)
I0227 19:07:08.319160 26657 net.cpp:124] Setting up bn3c_branch2c
I0227 19:07:08.319172 26657 net.cpp:131] Top shape: 1 512 32 32 (524288)
I0227 19:07:08.319176 26657 net.cpp:139] Memory required for data: 210763776
I0227 19:07:08.319185 26657 layer_factory.hpp:77] Creating layer scale3c_branch2c
I0227 19:07:08.319192 26657 net.cpp:86] Creating Layer scale3c_branch2c
I0227 19:07:08.319196 26657 net.cpp:408] scale3c_branch2c <- res3c_branch2c
I0227 19:07:08.319203 26657 net.cpp:369] scale3c_branch2c -> res3c_branch2c (in-place)
I0227 19:07:08.319244 26657 layer_factory.hpp:77] Creating layer scale3c_branch2c
I0227 19:07:08.319355 26657 net.cpp:124] Setting up scale3c_branch2c
I0227 19:07:08.319365 26657 net.cpp:131] Top shape: 1 512 32 32 (524288)
I0227 19:07:08.319368 26657 net.cpp:139] Memory required for data: 212860928
I0227 19:07:08.319375 26657 layer_factory.hpp:77] Creating layer res3c
I0227 19:07:08.319380 26657 net.cpp:86] Creating Layer res3c
I0227 19:07:08.319385 26657 net.cpp:408] res3c <- res3b_res3b_relu_0_split_1
I0227 19:07:08.319388 26657 net.cpp:408] res3c <- res3c_branch2c
I0227 19:07:08.319396 26657 net.cpp:382] res3c -> res3c
I0227 19:07:08.319420 26657 net.cpp:124] Setting up res3c
I0227 19:07:08.319429 26657 net.cpp:131] Top shape: 1 512 32 32 (524288)
I0227 19:07:08.319433 26657 net.cpp:139] Memory required for data: 214958080
I0227 19:07:08.319437 26657 layer_factory.hpp:77] Creating layer res3c_relu
I0227 19:07:08.319443 26657 net.cpp:86] Creating Layer res3c_relu
I0227 19:07:08.319447 26657 net.cpp:408] res3c_relu <- res3c
I0227 19:07:08.319453 26657 net.cpp:369] res3c_relu -> res3c (in-place)
I0227 19:07:08.319774 26657 net.cpp:124] Setting up res3c_relu
I0227 19:07:08.319789 26657 net.cpp:131] Top shape: 1 512 32 32 (524288)
I0227 19:07:08.319805 26657 net.cpp:139] Memory required for data: 217055232
I0227 19:07:08.319809 26657 layer_factory.hpp:77] Creating layer res3c_res3c_relu_0_split
I0227 19:07:08.319818 26657 net.cpp:86] Creating Layer res3c_res3c_relu_0_split
I0227 19:07:08.319821 26657 net.cpp:408] res3c_res3c_relu_0_split <- res3c
I0227 19:07:08.319828 26657 net.cpp:382] res3c_res3c_relu_0_split -> res3c_res3c_relu_0_split_0
I0227 19:07:08.319834 26657 net.cpp:382] res3c_res3c_relu_0_split -> res3c_res3c_relu_0_split_1
I0227 19:07:08.319905 26657 net.cpp:124] Setting up res3c_res3c_relu_0_split
I0227 19:07:08.319916 26657 net.cpp:131] Top shape: 1 512 32 32 (524288)
I0227 19:07:08.319921 26657 net.cpp:131] Top shape: 1 512 32 32 (524288)
I0227 19:07:08.319924 26657 net.cpp:139] Memory required for data: 221249536
I0227 19:07:08.319928 26657 layer_factory.hpp:77] Creating layer res3d_branch2a
I0227 19:07:08.319937 26657 net.cpp:86] Creating Layer res3d_branch2a
I0227 19:07:08.319943 26657 net.cpp:408] res3d_branch2a <- res3c_res3c_relu_0_split_0
I0227 19:07:08.319949 26657 net.cpp:382] res3d_branch2a -> res3d_branch2a
I0227 19:07:08.321579 26657 net.cpp:124] Setting up res3d_branch2a
I0227 19:07:08.321596 26657 net.cpp:131] Top shape: 1 128 32 32 (131072)
I0227 19:07:08.321614 26657 net.cpp:139] Memory required for data: 221773824
I0227 19:07:08.321619 26657 layer_factory.hpp:77] Creating layer bn3d_branch2a
I0227 19:07:08.321629 26657 net.cpp:86] Creating Layer bn3d_branch2a
I0227 19:07:08.321633 26657 net.cpp:408] bn3d_branch2a <- res3d_branch2a
I0227 19:07:08.321638 26657 net.cpp:369] bn3d_branch2a -> res3d_branch2a (in-place)
I0227 19:07:08.321830 26657 net.cpp:124] Setting up bn3d_branch2a
I0227 19:07:08.321841 26657 net.cpp:131] Top shape: 1 128 32 32 (131072)
I0227 19:07:08.321844 26657 net.cpp:139] Memory required for data: 222298112
I0227 19:07:08.321871 26657 layer_factory.hpp:77] Creating layer scale3d_branch2a
I0227 19:07:08.321880 26657 net.cpp:86] Creating Layer scale3d_branch2a
I0227 19:07:08.321884 26657 net.cpp:408] scale3d_branch2a <- res3d_branch2a
I0227 19:07:08.321892 26657 net.cpp:369] scale3d_branch2a -> res3d_branch2a (in-place)
I0227 19:07:08.321936 26657 layer_factory.hpp:77] Creating layer scale3d_branch2a
I0227 19:07:08.322063 26657 net.cpp:124] Setting up scale3d_branch2a
I0227 19:07:08.322074 26657 net.cpp:131] Top shape: 1 128 32 32 (131072)
I0227 19:07:08.322078 26657 net.cpp:139] Memory required for data: 222822400
I0227 19:07:08.322084 26657 layer_factory.hpp:77] Creating layer res3d_branch2a_relu
I0227 19:07:08.322090 26657 net.cpp:86] Creating Layer res3d_branch2a_relu
I0227 19:07:08.322094 26657 net.cpp:408] res3d_branch2a_relu <- res3d_branch2a
I0227 19:07:08.322099 26657 net.cpp:369] res3d_branch2a_relu -> res3d_branch2a (in-place)
I0227 19:07:08.322283 26657 net.cpp:124] Setting up res3d_branch2a_relu
I0227 19:07:08.322294 26657 net.cpp:131] Top shape: 1 128 32 32 (131072)
I0227 19:07:08.322299 26657 net.cpp:139] Memory required for data: 223346688
I0227 19:07:08.322302 26657 layer_factory.hpp:77] Creating layer res3d_branch2b
I0227 19:07:08.322312 26657 net.cpp:86] Creating Layer res3d_branch2b
I0227 19:07:08.322319 26657 net.cpp:408] res3d_branch2b <- res3d_branch2a
I0227 19:07:08.322324 26657 net.cpp:382] res3d_branch2b -> res3d_branch2b
I0227 19:07:08.324089 26657 net.cpp:124] Setting up res3d_branch2b
I0227 19:07:08.324115 26657 net.cpp:131] Top shape: 1 128 32 32 (131072)
I0227 19:07:08.324120 26657 net.cpp:139] Memory required for data: 223870976
I0227 19:07:08.324126 26657 layer_factory.hpp:77] Creating layer bn3d_branch2b
I0227 19:07:08.324136 26657 net.cpp:86] Creating Layer bn3d_branch2b
I0227 19:07:08.324141 26657 net.cpp:408] bn3d_branch2b <- res3d_branch2b
I0227 19:07:08.324146 26657 net.cpp:369] bn3d_branch2b -> res3d_branch2b (in-place)
I0227 19:07:08.324373 26657 net.cpp:124] Setting up bn3d_branch2b
I0227 19:07:08.324383 26657 net.cpp:131] Top shape: 1 128 32 32 (131072)
I0227 19:07:08.324388 26657 net.cpp:139] Memory required for data: 224395264
I0227 19:07:08.324395 26657 layer_factory.hpp:77] Creating layer scale3d_branch2b
I0227 19:07:08.324406 26657 net.cpp:86] Creating Layer scale3d_branch2b
I0227 19:07:08.324412 26657 net.cpp:408] scale3d_branch2b <- res3d_branch2b
I0227 19:07:08.324417 26657 net.cpp:369] scale3d_branch2b -> res3d_branch2b (in-place)
I0227 19:07:08.324461 26657 layer_factory.hpp:77] Creating layer scale3d_branch2b
I0227 19:07:08.324573 26657 net.cpp:124] Setting up scale3d_branch2b
I0227 19:07:08.324584 26657 net.cpp:131] Top shape: 1 128 32 32 (131072)
I0227 19:07:08.324589 26657 net.cpp:139] Memory required for data: 224919552
I0227 19:07:08.324594 26657 layer_factory.hpp:77] Creating layer res3d_branch2b_relu
I0227 19:07:08.324600 26657 net.cpp:86] Creating Layer res3d_branch2b_relu
I0227 19:07:08.324604 26657 net.cpp:408] res3d_branch2b_relu <- res3d_branch2b
I0227 19:07:08.324609 26657 net.cpp:369] res3d_branch2b_relu -> res3d_branch2b (in-place)
I0227 19:07:08.324954 26657 net.cpp:124] Setting up res3d_branch2b_relu
I0227 19:07:08.324968 26657 net.cpp:131] Top shape: 1 128 32 32 (131072)
I0227 19:07:08.324983 26657 net.cpp:139] Memory required for data: 225443840
I0227 19:07:08.324987 26657 layer_factory.hpp:77] Creating layer res3d_branch2c
I0227 19:07:08.324997 26657 net.cpp:86] Creating Layer res3d_branch2c
I0227 19:07:08.325001 26657 net.cpp:408] res3d_branch2c <- res3d_branch2b
I0227 19:07:08.325007 26657 net.cpp:382] res3d_branch2c -> res3d_branch2c
I0227 19:07:08.325932 26657 net.cpp:124] Setting up res3d_branch2c
I0227 19:07:08.325947 26657 net.cpp:131] Top shape: 1 512 32 32 (524288)
I0227 19:07:08.325963 26657 net.cpp:139] Memory required for data: 227540992
I0227 19:07:08.325969 26657 layer_factory.hpp:77] Creating layer bn3d_branch2c
I0227 19:07:08.325978 26657 net.cpp:86] Creating Layer bn3d_branch2c
I0227 19:07:08.325983 26657 net.cpp:408] bn3d_branch2c <- res3d_branch2c
I0227 19:07:08.325989 26657 net.cpp:369] bn3d_branch2c -> res3d_branch2c (in-place)
I0227 19:07:08.326195 26657 net.cpp:124] Setting up bn3d_branch2c
I0227 19:07:08.326205 26657 net.cpp:131] Top shape: 1 512 32 32 (524288)
I0227 19:07:08.326208 26657 net.cpp:139] Memory required for data: 229638144
I0227 19:07:08.326216 26657 layer_factory.hpp:77] Creating layer scale3d_branch2c
I0227 19:07:08.326223 26657 net.cpp:86] Creating Layer scale3d_branch2c
I0227 19:07:08.326230 26657 net.cpp:408] scale3d_branch2c <- res3d_branch2c
I0227 19:07:08.326234 26657 net.cpp:369] scale3d_branch2c -> res3d_branch2c (in-place)
I0227 19:07:08.326287 26657 layer_factory.hpp:77] Creating layer scale3d_branch2c
I0227 19:07:08.326401 26657 net.cpp:124] Setting up scale3d_branch2c
I0227 19:07:08.326412 26657 net.cpp:131] Top shape: 1 512 32 32 (524288)
I0227 19:07:08.326416 26657 net.cpp:139] Memory required for data: 231735296
I0227 19:07:08.326422 26657 layer_factory.hpp:77] Creating layer res3d
I0227 19:07:08.326429 26657 net.cpp:86] Creating Layer res3d
I0227 19:07:08.326434 26657 net.cpp:408] res3d <- res3c_res3c_relu_0_split_1
I0227 19:07:08.326438 26657 net.cpp:408] res3d <- res3d_branch2c
I0227 19:07:08.326443 26657 net.cpp:382] res3d -> res3d
I0227 19:07:08.326474 26657 net.cpp:124] Setting up res3d
I0227 19:07:08.326483 26657 net.cpp:131] Top shape: 1 512 32 32 (524288)
I0227 19:07:08.326486 26657 net.cpp:139] Memory required for data: 233832448
I0227 19:07:08.326490 26657 layer_factory.hpp:77] Creating layer res3d_relu
I0227 19:07:08.326495 26657 net.cpp:86] Creating Layer res3d_relu
I0227 19:07:08.326499 26657 net.cpp:408] res3d_relu <- res3d
I0227 19:07:08.326506 26657 net.cpp:369] res3d_relu -> res3d (in-place)
I0227 19:07:08.326858 26657 net.cpp:124] Setting up res3d_relu
I0227 19:07:08.326884 26657 net.cpp:131] Top shape: 1 512 32 32 (524288)
I0227 19:07:08.326900 26657 net.cpp:139] Memory required for data: 235929600
I0227 19:07:08.326903 26657 layer_factory.hpp:77] Creating layer res3d_res3d_relu_0_split
I0227 19:07:08.326910 26657 net.cpp:86] Creating Layer res3d_res3d_relu_0_split
I0227 19:07:08.326915 26657 net.cpp:408] res3d_res3d_relu_0_split <- res3d
I0227 19:07:08.326920 26657 net.cpp:382] res3d_res3d_relu_0_split -> res3d_res3d_relu_0_split_0
I0227 19:07:08.326926 26657 net.cpp:382] res3d_res3d_relu_0_split -> res3d_res3d_relu_0_split_1
I0227 19:07:08.326985 26657 net.cpp:124] Setting up res3d_res3d_relu_0_split
I0227 19:07:08.326995 26657 net.cpp:131] Top shape: 1 512 32 32 (524288)
I0227 19:07:08.327000 26657 net.cpp:131] Top shape: 1 512 32 32 (524288)
I0227 19:07:08.327003 26657 net.cpp:139] Memory required for data: 240123904
I0227 19:07:08.327006 26657 layer_factory.hpp:77] Creating layer res4a_branch1
I0227 19:07:08.327015 26657 net.cpp:86] Creating Layer res4a_branch1
I0227 19:07:08.327019 26657 net.cpp:408] res4a_branch1 <- res3d_res3d_relu_0_split_0
I0227 19:07:08.327024 26657 net.cpp:382] res4a_branch1 -> res4a_branch1
I0227 19:07:08.329254 26657 net.cpp:124] Setting up res4a_branch1
I0227 19:07:08.329270 26657 net.cpp:131] Top shape: 1 1024 16 16 (262144)
I0227 19:07:08.329286 26657 net.cpp:139] Memory required for data: 241172480
I0227 19:07:08.329293 26657 layer_factory.hpp:77] Creating layer bn4a_branch1
I0227 19:07:08.329313 26657 net.cpp:86] Creating Layer bn4a_branch1
I0227 19:07:08.329318 26657 net.cpp:408] bn4a_branch1 <- res4a_branch1
I0227 19:07:08.329324 26657 net.cpp:369] bn4a_branch1 -> res4a_branch1 (in-place)
I0227 19:07:08.329520 26657 net.cpp:124] Setting up bn4a_branch1
I0227 19:07:08.329531 26657 net.cpp:131] Top shape: 1 1024 16 16 (262144)
I0227 19:07:08.329535 26657 net.cpp:139] Memory required for data: 242221056
I0227 19:07:08.329542 26657 layer_factory.hpp:77] Creating layer scale4a_branch1
I0227 19:07:08.329550 26657 net.cpp:86] Creating Layer scale4a_branch1
I0227 19:07:08.329553 26657 net.cpp:408] scale4a_branch1 <- res4a_branch1
I0227 19:07:08.329563 26657 net.cpp:369] scale4a_branch1 -> res4a_branch1 (in-place)
I0227 19:07:08.329607 26657 layer_factory.hpp:77] Creating layer scale4a_branch1
I0227 19:07:08.329726 26657 net.cpp:124] Setting up scale4a_branch1
I0227 19:07:08.329737 26657 net.cpp:131] Top shape: 1 1024 16 16 (262144)
I0227 19:07:08.329741 26657 net.cpp:139] Memory required for data: 243269632
I0227 19:07:08.329747 26657 layer_factory.hpp:77] Creating layer res4a_branch2a
I0227 19:07:08.329756 26657 net.cpp:86] Creating Layer res4a_branch2a
I0227 19:07:08.329761 26657 net.cpp:408] res4a_branch2a <- res3d_res3d_relu_0_split_1
I0227 19:07:08.329767 26657 net.cpp:382] res4a_branch2a -> res4a_branch2a
I0227 19:07:08.330750 26657 net.cpp:124] Setting up res4a_branch2a
I0227 19:07:08.330765 26657 net.cpp:131] Top shape: 1 256 16 16 (65536)
I0227 19:07:08.330781 26657 net.cpp:139] Memory required for data: 243531776
I0227 19:07:08.330787 26657 layer_factory.hpp:77] Creating layer bn4a_branch2a
I0227 19:07:08.330796 26657 net.cpp:86] Creating Layer bn4a_branch2a
I0227 19:07:08.330799 26657 net.cpp:408] bn4a_branch2a <- res4a_branch2a
I0227 19:07:08.330806 26657 net.cpp:369] bn4a_branch2a -> res4a_branch2a (in-place)
I0227 19:07:08.331017 26657 net.cpp:124] Setting up bn4a_branch2a
I0227 19:07:08.331027 26657 net.cpp:131] Top shape: 1 256 16 16 (65536)
I0227 19:07:08.331030 26657 net.cpp:139] Memory required for data: 243793920
I0227 19:07:08.331038 26657 layer_factory.hpp:77] Creating layer scale4a_branch2a
I0227 19:07:08.331048 26657 net.cpp:86] Creating Layer scale4a_branch2a
I0227 19:07:08.331053 26657 net.cpp:408] scale4a_branch2a <- res4a_branch2a
I0227 19:07:08.331058 26657 net.cpp:369] scale4a_branch2a -> res4a_branch2a (in-place)
I0227 19:07:08.331104 26657 layer_factory.hpp:77] Creating layer scale4a_branch2a
I0227 19:07:08.331250 26657 net.cpp:124] Setting up scale4a_branch2a
I0227 19:07:08.331262 26657 net.cpp:131] Top shape: 1 256 16 16 (65536)
I0227 19:07:08.331266 26657 net.cpp:139] Memory required for data: 244056064
I0227 19:07:08.331274 26657 layer_factory.hpp:77] Creating layer res4a_branch2a_relu
I0227 19:07:08.331280 26657 net.cpp:86] Creating Layer res4a_branch2a_relu
I0227 19:07:08.331284 26657 net.cpp:408] res4a_branch2a_relu <- res4a_branch2a
I0227 19:07:08.331290 26657 net.cpp:369] res4a_branch2a_relu -> res4a_branch2a (in-place)
I0227 19:07:08.331672 26657 net.cpp:124] Setting up res4a_branch2a_relu
I0227 19:07:08.331687 26657 net.cpp:131] Top shape: 1 256 16 16 (65536)
I0227 19:07:08.331702 26657 net.cpp:139] Memory required for data: 244318208
I0227 19:07:08.331707 26657 layer_factory.hpp:77] Creating layer res4a_branch2b
I0227 19:07:08.331717 26657 net.cpp:86] Creating Layer res4a_branch2b
I0227 19:07:08.331720 26657 net.cpp:408] res4a_branch2b <- res4a_branch2a
I0227 19:07:08.331728 26657 net.cpp:382] res4a_branch2b -> res4a_branch2b
I0227 19:07:08.334075 26657 net.cpp:124] Setting up res4a_branch2b
I0227 19:07:08.334091 26657 net.cpp:131] Top shape: 1 256 16 16 (65536)
I0227 19:07:08.334110 26657 net.cpp:139] Memory required for data: 244580352
I0227 19:07:08.334115 26657 layer_factory.hpp:77] Creating layer bn4a_branch2b
I0227 19:07:08.334121 26657 net.cpp:86] Creating Layer bn4a_branch2b
I0227 19:07:08.334125 26657 net.cpp:408] bn4a_branch2b <- res4a_branch2b
I0227 19:07:08.334131 26657 net.cpp:369] bn4a_branch2b -> res4a_branch2b (in-place)
I0227 19:07:08.334342 26657 net.cpp:124] Setting up bn4a_branch2b
I0227 19:07:08.334352 26657 net.cpp:131] Top shape: 1 256 16 16 (65536)
I0227 19:07:08.334357 26657 net.cpp:139] Memory required for data: 244842496
I0227 19:07:08.334365 26657 layer_factory.hpp:77] Creating layer scale4a_branch2b
I0227 19:07:08.334373 26657 net.cpp:86] Creating Layer scale4a_branch2b
I0227 19:07:08.334378 26657 net.cpp:408] scale4a_branch2b <- res4a_branch2b
I0227 19:07:08.334383 26657 net.cpp:369] scale4a_branch2b -> res4a_branch2b (in-place)
I0227 19:07:08.334426 26657 layer_factory.hpp:77] Creating layer scale4a_branch2b
I0227 19:07:08.334543 26657 net.cpp:124] Setting up scale4a_branch2b
I0227 19:07:08.334554 26657 net.cpp:131] Top shape: 1 256 16 16 (65536)
I0227 19:07:08.334558 26657 net.cpp:139] Memory required for data: 245104640
I0227 19:07:08.334564 26657 layer_factory.hpp:77] Creating layer res4a_branch2b_relu
I0227 19:07:08.334570 26657 net.cpp:86] Creating Layer res4a_branch2b_relu
I0227 19:07:08.334574 26657 net.cpp:408] res4a_branch2b_relu <- res4a_branch2b
I0227 19:07:08.334580 26657 net.cpp:369] res4a_branch2b_relu -> res4a_branch2b (in-place)
I0227 19:07:08.334758 26657 net.cpp:124] Setting up res4a_branch2b_relu
I0227 19:07:08.334770 26657 net.cpp:131] Top shape: 1 256 16 16 (65536)
I0227 19:07:08.334774 26657 net.cpp:139] Memory required for data: 245366784
I0227 19:07:08.334779 26657 layer_factory.hpp:77] Creating layer res4a_branch2c
I0227 19:07:08.334787 26657 net.cpp:86] Creating Layer res4a_branch2c
I0227 19:07:08.334794 26657 net.cpp:408] res4a_branch2c <- res4a_branch2b
I0227 19:07:08.334800 26657 net.cpp:382] res4a_branch2c -> res4a_branch2c
I0227 19:07:08.336516 26657 net.cpp:124] Setting up res4a_branch2c
I0227 19:07:08.336532 26657 net.cpp:131] Top shape: 1 1024 16 16 (262144)
I0227 19:07:08.336549 26657 net.cpp:139] Memory required for data: 246415360
I0227 19:07:08.336555 26657 layer_factory.hpp:77] Creating layer bn4a_branch2c
I0227 19:07:08.336563 26657 net.cpp:86] Creating Layer bn4a_branch2c
I0227 19:07:08.336568 26657 net.cpp:408] bn4a_branch2c <- res4a_branch2c
I0227 19:07:08.336575 26657 net.cpp:369] bn4a_branch2c -> res4a_branch2c (in-place)
I0227 19:07:08.336817 26657 net.cpp:124] Setting up bn4a_branch2c
I0227 19:07:08.336828 26657 net.cpp:131] Top shape: 1 1024 16 16 (262144)
I0227 19:07:08.336833 26657 net.cpp:139] Memory required for data: 247463936
I0227 19:07:08.336840 26657 layer_factory.hpp:77] Creating layer scale4a_branch2c
I0227 19:07:08.336848 26657 net.cpp:86] Creating Layer scale4a_branch2c
I0227 19:07:08.336854 26657 net.cpp:408] scale4a_branch2c <- res4a_branch2c
I0227 19:07:08.336860 26657 net.cpp:369] scale4a_branch2c -> res4a_branch2c (in-place)
I0227 19:07:08.336904 26657 layer_factory.hpp:77] Creating layer scale4a_branch2c
I0227 19:07:08.337040 26657 net.cpp:124] Setting up scale4a_branch2c
I0227 19:07:08.337052 26657 net.cpp:131] Top shape: 1 1024 16 16 (262144)
I0227 19:07:08.337057 26657 net.cpp:139] Memory required for data: 248512512
I0227 19:07:08.337064 26657 layer_factory.hpp:77] Creating layer res4a
I0227 19:07:08.337069 26657 net.cpp:86] Creating Layer res4a
I0227 19:07:08.337074 26657 net.cpp:408] res4a <- res4a_branch1
I0227 19:07:08.337079 26657 net.cpp:408] res4a <- res4a_branch2c
I0227 19:07:08.337083 26657 net.cpp:382] res4a -> res4a
I0227 19:07:08.337105 26657 net.cpp:124] Setting up res4a
I0227 19:07:08.337116 26657 net.cpp:131] Top shape: 1 1024 16 16 (262144)
I0227 19:07:08.337121 26657 net.cpp:139] Memory required for data: 249561088
I0227 19:07:08.337124 26657 layer_factory.hpp:77] Creating layer res4a_relu
I0227 19:07:08.337129 26657 net.cpp:86] Creating Layer res4a_relu
I0227 19:07:08.337133 26657 net.cpp:408] res4a_relu <- res4a
I0227 19:07:08.337139 26657 net.cpp:369] res4a_relu -> res4a (in-place)
I0227 19:07:08.337492 26657 net.cpp:124] Setting up res4a_relu
I0227 19:07:08.337507 26657 net.cpp:131] Top shape: 1 1024 16 16 (262144)
I0227 19:07:08.337522 26657 net.cpp:139] Memory required for data: 250609664
I0227 19:07:08.337527 26657 layer_factory.hpp:77] Creating layer res4a_res4a_relu_0_split
I0227 19:07:08.337548 26657 net.cpp:86] Creating Layer res4a_res4a_relu_0_split
I0227 19:07:08.337554 26657 net.cpp:408] res4a_res4a_relu_0_split <- res4a
I0227 19:07:08.337561 26657 net.cpp:382] res4a_res4a_relu_0_split -> res4a_res4a_relu_0_split_0
I0227 19:07:08.337568 26657 net.cpp:382] res4a_res4a_relu_0_split -> res4a_res4a_relu_0_split_1
I0227 19:07:08.337622 26657 net.cpp:124] Setting up res4a_res4a_relu_0_split
I0227 19:07:08.337631 26657 net.cpp:131] Top shape: 1 1024 16 16 (262144)
I0227 19:07:08.337636 26657 net.cpp:131] Top shape: 1 1024 16 16 (262144)
I0227 19:07:08.337640 26657 net.cpp:139] Memory required for data: 252706816
I0227 19:07:08.337643 26657 layer_factory.hpp:77] Creating layer res4b_branch2a
I0227 19:07:08.337652 26657 net.cpp:86] Creating Layer res4b_branch2a
I0227 19:07:08.337657 26657 net.cpp:408] res4b_branch2a <- res4a_res4a_relu_0_split_0
I0227 19:07:08.337663 26657 net.cpp:382] res4b_branch2a -> res4b_branch2a
I0227 19:07:08.339295 26657 net.cpp:124] Setting up res4b_branch2a
I0227 19:07:08.339313 26657 net.cpp:131] Top shape: 1 256 16 16 (65536)
I0227 19:07:08.339318 26657 net.cpp:139] Memory required for data: 252968960
I0227 19:07:08.339335 26657 layer_factory.hpp:77] Creating layer bn4b_branch2a
I0227 19:07:08.339355 26657 net.cpp:86] Creating Layer bn4b_branch2a
I0227 19:07:08.339362 26657 net.cpp:408] bn4b_branch2a <- res4b_branch2a
I0227 19:07:08.339370 26657 net.cpp:369] bn4b_branch2a -> res4b_branch2a (in-place)
I0227 19:07:08.339587 26657 net.cpp:124] Setting up bn4b_branch2a
I0227 19:07:08.339597 26657 net.cpp:131] Top shape: 1 256 16 16 (65536)
I0227 19:07:08.339601 26657 net.cpp:139] Memory required for data: 253231104
I0227 19:07:08.339609 26657 layer_factory.hpp:77] Creating layer scale4b_branch2a
I0227 19:07:08.339615 26657 net.cpp:86] Creating Layer scale4b_branch2a
I0227 19:07:08.339622 26657 net.cpp:408] scale4b_branch2a <- res4b_branch2a
I0227 19:07:08.339627 26657 net.cpp:369] scale4b_branch2a -> res4b_branch2a (in-place)
I0227 19:07:08.339673 26657 layer_factory.hpp:77] Creating layer scale4b_branch2a
I0227 19:07:08.339812 26657 net.cpp:124] Setting up scale4b_branch2a
I0227 19:07:08.339823 26657 net.cpp:131] Top shape: 1 256 16 16 (65536)
I0227 19:07:08.339828 26657 net.cpp:139] Memory required for data: 253493248
I0227 19:07:08.339833 26657 layer_factory.hpp:77] Creating layer res4b_branch2a_relu
I0227 19:07:08.339839 26657 net.cpp:86] Creating Layer res4b_branch2a_relu
I0227 19:07:08.339843 26657 net.cpp:408] res4b_branch2a_relu <- res4b_branch2a
I0227 19:07:08.339849 26657 net.cpp:369] res4b_branch2a_relu -> res4b_branch2a (in-place)
I0227 19:07:08.340193 26657 net.cpp:124] Setting up res4b_branch2a_relu
I0227 19:07:08.340206 26657 net.cpp:131] Top shape: 1 256 16 16 (65536)
I0227 19:07:08.340222 26657 net.cpp:139] Memory required for data: 253755392
I0227 19:07:08.340226 26657 layer_factory.hpp:77] Creating layer res4b_branch2b
I0227 19:07:08.340236 26657 net.cpp:86] Creating Layer res4b_branch2b
I0227 19:07:08.340240 26657 net.cpp:408] res4b_branch2b <- res4b_branch2a
I0227 19:07:08.340246 26657 net.cpp:382] res4b_branch2b -> res4b_branch2b
I0227 19:07:08.342679 26657 net.cpp:124] Setting up res4b_branch2b
I0227 19:07:08.342694 26657 net.cpp:131] Top shape: 1 256 16 16 (65536)
I0227 19:07:08.342699 26657 net.cpp:139] Memory required for data: 254017536
I0227 19:07:08.342703 26657 layer_factory.hpp:77] Creating layer bn4b_branch2b
I0227 19:07:08.342711 26657 net.cpp:86] Creating Layer bn4b_branch2b
I0227 19:07:08.342716 26657 net.cpp:408] bn4b_branch2b <- res4b_branch2b
I0227 19:07:08.342733 26657 net.cpp:369] bn4b_branch2b -> res4b_branch2b (in-place)
I0227 19:07:08.342952 26657 net.cpp:124] Setting up bn4b_branch2b
I0227 19:07:08.342962 26657 net.cpp:131] Top shape: 1 256 16 16 (65536)
I0227 19:07:08.342967 26657 net.cpp:139] Memory required for data: 254279680
I0227 19:07:08.342974 26657 layer_factory.hpp:77] Creating layer scale4b_branch2b
I0227 19:07:08.342983 26657 net.cpp:86] Creating Layer scale4b_branch2b
I0227 19:07:08.342988 26657 net.cpp:408] scale4b_branch2b <- res4b_branch2b
I0227 19:07:08.342993 26657 net.cpp:369] scale4b_branch2b -> res4b_branch2b (in-place)
I0227 19:07:08.343039 26657 layer_factory.hpp:77] Creating layer scale4b_branch2b
I0227 19:07:08.343178 26657 net.cpp:124] Setting up scale4b_branch2b
I0227 19:07:08.343190 26657 net.cpp:131] Top shape: 1 256 16 16 (65536)
I0227 19:07:08.343194 26657 net.cpp:139] Memory required for data: 254541824
I0227 19:07:08.343201 26657 layer_factory.hpp:77] Creating layer res4b_branch2b_relu
I0227 19:07:08.343207 26657 net.cpp:86] Creating Layer res4b_branch2b_relu
I0227 19:07:08.343211 26657 net.cpp:408] res4b_branch2b_relu <- res4b_branch2b
I0227 19:07:08.343219 26657 net.cpp:369] res4b_branch2b_relu -> res4b_branch2b (in-place)
I0227 19:07:08.343473 26657 net.cpp:124] Setting up res4b_branch2b_relu
I0227 19:07:08.343498 26657 net.cpp:131] Top shape: 1 256 16 16 (65536)
I0227 19:07:08.343502 26657 net.cpp:139] Memory required for data: 254803968
I0227 19:07:08.343518 26657 layer_factory.hpp:77] Creating layer res4b_branch2c
I0227 19:07:08.343526 26657 net.cpp:86] Creating Layer res4b_branch2c
I0227 19:07:08.343530 26657 net.cpp:408] res4b_branch2c <- res4b_branch2b
I0227 19:07:08.343536 26657 net.cpp:382] res4b_branch2c -> res4b_branch2c
I0227 19:07:08.345237 26657 net.cpp:124] Setting up res4b_branch2c
I0227 19:07:08.345253 26657 net.cpp:131] Top shape: 1 1024 16 16 (262144)
I0227 19:07:08.345257 26657 net.cpp:139] Memory required for data: 255852544
I0227 19:07:08.345263 26657 layer_factory.hpp:77] Creating layer bn4b_branch2c
I0227 19:07:08.345270 26657 net.cpp:86] Creating Layer bn4b_branch2c
I0227 19:07:08.345274 26657 net.cpp:408] bn4b_branch2c <- res4b_branch2c
I0227 19:07:08.345293 26657 net.cpp:369] bn4b_branch2c -> res4b_branch2c (in-place)
I0227 19:07:08.345515 26657 net.cpp:124] Setting up bn4b_branch2c
I0227 19:07:08.345526 26657 net.cpp:131] Top shape: 1 1024 16 16 (262144)
I0227 19:07:08.345530 26657 net.cpp:139] Memory required for data: 256901120
I0227 19:07:08.345538 26657 layer_factory.hpp:77] Creating layer scale4b_branch2c
I0227 19:07:08.345544 26657 net.cpp:86] Creating Layer scale4b_branch2c
I0227 19:07:08.345551 26657 net.cpp:408] scale4b_branch2c <- res4b_branch2c
I0227 19:07:08.345578 26657 net.cpp:369] scale4b_branch2c -> res4b_branch2c (in-place)
I0227 19:07:08.345626 26657 layer_factory.hpp:77] Creating layer scale4b_branch2c
I0227 19:07:08.345752 26657 net.cpp:124] Setting up scale4b_branch2c
I0227 19:07:08.345762 26657 net.cpp:131] Top shape: 1 1024 16 16 (262144)
I0227 19:07:08.345765 26657 net.cpp:139] Memory required for data: 257949696
I0227 19:07:08.345772 26657 layer_factory.hpp:77] Creating layer res4b
I0227 19:07:08.345778 26657 net.cpp:86] Creating Layer res4b
I0227 19:07:08.345784 26657 net.cpp:408] res4b <- res4a_res4a_relu_0_split_1
I0227 19:07:08.345789 26657 net.cpp:408] res4b <- res4b_branch2c
I0227 19:07:08.345794 26657 net.cpp:382] res4b -> res4b
I0227 19:07:08.345825 26657 net.cpp:124] Setting up res4b
I0227 19:07:08.345836 26657 net.cpp:131] Top shape: 1 1024 16 16 (262144)
I0227 19:07:08.345841 26657 net.cpp:139] Memory required for data: 258998272
I0227 19:07:08.345845 26657 layer_factory.hpp:77] Creating layer res4b_relu
I0227 19:07:08.345851 26657 net.cpp:86] Creating Layer res4b_relu
I0227 19:07:08.345854 26657 net.cpp:408] res4b_relu <- res4b
I0227 19:07:08.345860 26657 net.cpp:369] res4b_relu -> res4b (in-place)
I0227 19:07:08.346206 26657 net.cpp:124] Setting up res4b_relu
I0227 19:07:08.346221 26657 net.cpp:131] Top shape: 1 1024 16 16 (262144)
I0227 19:07:08.346237 26657 net.cpp:139] Memory required for data: 260046848
I0227 19:07:08.346241 26657 layer_factory.hpp:77] Creating layer res4b_res4b_relu_0_split
I0227 19:07:08.346247 26657 net.cpp:86] Creating Layer res4b_res4b_relu_0_split
I0227 19:07:08.346251 26657 net.cpp:408] res4b_res4b_relu_0_split <- res4b
I0227 19:07:08.346257 26657 net.cpp:382] res4b_res4b_relu_0_split -> res4b_res4b_relu_0_split_0
I0227 19:07:08.346264 26657 net.cpp:382] res4b_res4b_relu_0_split -> res4b_res4b_relu_0_split_1
I0227 19:07:08.346318 26657 net.cpp:124] Setting up res4b_res4b_relu_0_split
I0227 19:07:08.346328 26657 net.cpp:131] Top shape: 1 1024 16 16 (262144)
I0227 19:07:08.346333 26657 net.cpp:131] Top shape: 1 1024 16 16 (262144)
I0227 19:07:08.346336 26657 net.cpp:139] Memory required for data: 262144000
I0227 19:07:08.346339 26657 layer_factory.hpp:77] Creating layer res4c_branch2a
I0227 19:07:08.346349 26657 net.cpp:86] Creating Layer res4c_branch2a
I0227 19:07:08.346354 26657 net.cpp:408] res4c_branch2a <- res4b_res4b_relu_0_split_0
I0227 19:07:08.346360 26657 net.cpp:382] res4c_branch2a -> res4c_branch2a
I0227 19:07:08.348019 26657 net.cpp:124] Setting up res4c_branch2a
I0227 19:07:08.348037 26657 net.cpp:131] Top shape: 1 256 16 16 (65536)
I0227 19:07:08.348075 26657 net.cpp:139] Memory required for data: 262406144
I0227 19:07:08.348083 26657 layer_factory.hpp:77] Creating layer bn4c_branch2a
I0227 19:07:08.348089 26657 net.cpp:86] Creating Layer bn4c_branch2a
I0227 19:07:08.348093 26657 net.cpp:408] bn4c_branch2a <- res4c_branch2a
I0227 19:07:08.348099 26657 net.cpp:369] bn4c_branch2a -> res4c_branch2a (in-place)
I0227 19:07:08.348309 26657 net.cpp:124] Setting up bn4c_branch2a
I0227 19:07:08.348320 26657 net.cpp:131] Top shape: 1 256 16 16 (65536)
I0227 19:07:08.348323 26657 net.cpp:139] Memory required for data: 262668288
I0227 19:07:08.348332 26657 layer_factory.hpp:77] Creating layer scale4c_branch2a
I0227 19:07:08.348341 26657 net.cpp:86] Creating Layer scale4c_branch2a
I0227 19:07:08.348345 26657 net.cpp:408] scale4c_branch2a <- res4c_branch2a
I0227 19:07:08.348351 26657 net.cpp:369] scale4c_branch2a -> res4c_branch2a (in-place)
I0227 19:07:08.348397 26657 layer_factory.hpp:77] Creating layer scale4c_branch2a
I0227 19:07:08.348516 26657 net.cpp:124] Setting up scale4c_branch2a
I0227 19:07:08.348526 26657 net.cpp:131] Top shape: 1 256 16 16 (65536)
I0227 19:07:08.348529 26657 net.cpp:139] Memory required for data: 262930432
I0227 19:07:08.348536 26657 layer_factory.hpp:77] Creating layer res4c_branch2a_relu
I0227 19:07:08.348541 26657 net.cpp:86] Creating Layer res4c_branch2a_relu
I0227 19:07:08.348546 26657 net.cpp:408] res4c_branch2a_relu <- res4c_branch2a
I0227 19:07:08.348552 26657 net.cpp:369] res4c_branch2a_relu -> res4c_branch2a (in-place)
I0227 19:07:08.348870 26657 net.cpp:124] Setting up res4c_branch2a_relu
I0227 19:07:08.348896 26657 net.cpp:131] Top shape: 1 256 16 16 (65536)
I0227 19:07:08.348911 26657 net.cpp:139] Memory required for data: 263192576
I0227 19:07:08.348914 26657 layer_factory.hpp:77] Creating layer res4c_branch2b
I0227 19:07:08.348923 26657 net.cpp:86] Creating Layer res4c_branch2b
I0227 19:07:08.348927 26657 net.cpp:408] res4c_branch2b <- res4c_branch2a
I0227 19:07:08.348935 26657 net.cpp:382] res4c_branch2b -> res4c_branch2b
I0227 19:07:08.351320 26657 net.cpp:124] Setting up res4c_branch2b
I0227 19:07:08.351336 26657 net.cpp:131] Top shape: 1 256 16 16 (65536)
I0227 19:07:08.351353 26657 net.cpp:139] Memory required for data: 263454720
I0227 19:07:08.351359 26657 layer_factory.hpp:77] Creating layer bn4c_branch2b
I0227 19:07:08.351380 26657 net.cpp:86] Creating Layer bn4c_branch2b
I0227 19:07:08.351385 26657 net.cpp:408] bn4c_branch2b <- res4c_branch2b
I0227 19:07:08.351392 26657 net.cpp:369] bn4c_branch2b -> res4c_branch2b (in-place)
I0227 19:07:08.351676 26657 net.cpp:124] Setting up bn4c_branch2b
I0227 19:07:08.351686 26657 net.cpp:131] Top shape: 1 256 16 16 (65536)
I0227 19:07:08.351701 26657 net.cpp:139] Memory required for data: 263716864
I0227 19:07:08.351709 26657 layer_factory.hpp:77] Creating layer scale4c_branch2b
I0227 19:07:08.351718 26657 net.cpp:86] Creating Layer scale4c_branch2b
I0227 19:07:08.351722 26657 net.cpp:408] scale4c_branch2b <- res4c_branch2b
I0227 19:07:08.351727 26657 net.cpp:369] scale4c_branch2b -> res4c_branch2b (in-place)
I0227 19:07:08.351773 26657 layer_factory.hpp:77] Creating layer scale4c_branch2b
I0227 19:07:08.351914 26657 net.cpp:124] Setting up scale4c_branch2b
I0227 19:07:08.351925 26657 net.cpp:131] Top shape: 1 256 16 16 (65536)
I0227 19:07:08.351929 26657 net.cpp:139] Memory required for data: 263979008
I0227 19:07:08.351935 26657 layer_factory.hpp:77] Creating layer res4c_branch2b_relu
I0227 19:07:08.351941 26657 net.cpp:86] Creating Layer res4c_branch2b_relu
I0227 19:07:08.351945 26657 net.cpp:408] res4c_branch2b_relu <- res4c_branch2b
I0227 19:07:08.351951 26657 net.cpp:369] res4c_branch2b_relu -> res4c_branch2b (in-place)
I0227 19:07:08.352130 26657 net.cpp:124] Setting up res4c_branch2b_relu
I0227 19:07:08.352144 26657 net.cpp:131] Top shape: 1 256 16 16 (65536)
I0227 19:07:08.352147 26657 net.cpp:139] Memory required for data: 264241152
I0227 19:07:08.352151 26657 layer_factory.hpp:77] Creating layer res4c_branch2c
I0227 19:07:08.352159 26657 net.cpp:86] Creating Layer res4c_branch2c
I0227 19:07:08.352162 26657 net.cpp:408] res4c_branch2c <- res4c_branch2b
I0227 19:07:08.352169 26657 net.cpp:382] res4c_branch2c -> res4c_branch2c
I0227 19:07:08.353827 26657 net.cpp:124] Setting up res4c_branch2c
I0227 19:07:08.353854 26657 net.cpp:131] Top shape: 1 1024 16 16 (262144)
I0227 19:07:08.353858 26657 net.cpp:139] Memory required for data: 265289728
I0227 19:07:08.353864 26657 layer_factory.hpp:77] Creating layer bn4c_branch2c
I0227 19:07:08.353873 26657 net.cpp:86] Creating Layer bn4c_branch2c
I0227 19:07:08.353876 26657 net.cpp:408] bn4c_branch2c <- res4c_branch2c
I0227 19:07:08.353883 26657 net.cpp:369] bn4c_branch2c -> res4c_branch2c (in-place)
I0227 19:07:08.354125 26657 net.cpp:124] Setting up bn4c_branch2c
I0227 19:07:08.354136 26657 net.cpp:131] Top shape: 1 1024 16 16 (262144)
I0227 19:07:08.354140 26657 net.cpp:139] Memory required for data: 266338304
I0227 19:07:08.354148 26657 layer_factory.hpp:77] Creating layer scale4c_branch2c
I0227 19:07:08.354156 26657 net.cpp:86] Creating Layer scale4c_branch2c
I0227 19:07:08.354162 26657 net.cpp:408] scale4c_branch2c <- res4c_branch2c
I0227 19:07:08.354168 26657 net.cpp:369] scale4c_branch2c -> res4c_branch2c (in-place)
I0227 19:07:08.354214 26657 layer_factory.hpp:77] Creating layer scale4c_branch2c
I0227 19:07:08.354343 26657 net.cpp:124] Setting up scale4c_branch2c
I0227 19:07:08.354353 26657 net.cpp:131] Top shape: 1 1024 16 16 (262144)
I0227 19:07:08.354357 26657 net.cpp:139] Memory required for data: 267386880
I0227 19:07:08.354363 26657 layer_factory.hpp:77] Creating layer res4c
I0227 19:07:08.354369 26657 net.cpp:86] Creating Layer res4c
I0227 19:07:08.354373 26657 net.cpp:408] res4c <- res4b_res4b_relu_0_split_1
I0227 19:07:08.354377 26657 net.cpp:408] res4c <- res4c_branch2c
I0227 19:07:08.354382 26657 net.cpp:382] res4c -> res4c
I0227 19:07:08.354408 26657 net.cpp:124] Setting up res4c
I0227 19:07:08.354418 26657 net.cpp:131] Top shape: 1 1024 16 16 (262144)
I0227 19:07:08.354421 26657 net.cpp:139] Memory required for data: 268435456
I0227 19:07:08.354424 26657 layer_factory.hpp:77] Creating layer res4c_relu
I0227 19:07:08.354430 26657 net.cpp:86] Creating Layer res4c_relu
I0227 19:07:08.354435 26657 net.cpp:408] res4c_relu <- res4c
I0227 19:07:08.354440 26657 net.cpp:369] res4c_relu -> res4c (in-place)
I0227 19:07:08.354763 26657 net.cpp:124] Setting up res4c_relu
I0227 19:07:08.354776 26657 net.cpp:131] Top shape: 1 1024 16 16 (262144)
I0227 19:07:08.354792 26657 net.cpp:139] Memory required for data: 269484032
I0227 19:07:08.354796 26657 layer_factory.hpp:77] Creating layer res4c_res4c_relu_0_split
I0227 19:07:08.354817 26657 net.cpp:86] Creating Layer res4c_res4c_relu_0_split
I0227 19:07:08.354821 26657 net.cpp:408] res4c_res4c_relu_0_split <- res4c
I0227 19:07:08.354827 26657 net.cpp:382] res4c_res4c_relu_0_split -> res4c_res4c_relu_0_split_0
I0227 19:07:08.354833 26657 net.cpp:382] res4c_res4c_relu_0_split -> res4c_res4c_relu_0_split_1
I0227 19:07:08.354897 26657 net.cpp:124] Setting up res4c_res4c_relu_0_split
I0227 19:07:08.354905 26657 net.cpp:131] Top shape: 1 1024 16 16 (262144)
I0227 19:07:08.354910 26657 net.cpp:131] Top shape: 1 1024 16 16 (262144)
I0227 19:07:08.354913 26657 net.cpp:139] Memory required for data: 271581184
I0227 19:07:08.354917 26657 layer_factory.hpp:77] Creating layer res4d_branch2a
I0227 19:07:08.354925 26657 net.cpp:86] Creating Layer res4d_branch2a
I0227 19:07:08.354929 26657 net.cpp:408] res4d_branch2a <- res4c_res4c_relu_0_split_0
I0227 19:07:08.354934 26657 net.cpp:382] res4d_branch2a -> res4d_branch2a
I0227 19:07:08.356489 26657 net.cpp:124] Setting up res4d_branch2a
I0227 19:07:08.356505 26657 net.cpp:131] Top shape: 1 256 16 16 (65536)
I0227 19:07:08.356521 26657 net.cpp:139] Memory required for data: 271843328
I0227 19:07:08.356539 26657 layer_factory.hpp:77] Creating layer bn4d_branch2a
I0227 19:07:08.356559 26657 net.cpp:86] Creating Layer bn4d_branch2a
I0227 19:07:08.356564 26657 net.cpp:408] bn4d_branch2a <- res4d_branch2a
I0227 19:07:08.356570 26657 net.cpp:369] bn4d_branch2a -> res4d_branch2a (in-place)
I0227 19:07:08.356812 26657 net.cpp:124] Setting up bn4d_branch2a
I0227 19:07:08.356822 26657 net.cpp:131] Top shape: 1 256 16 16 (65536)
I0227 19:07:08.356839 26657 net.cpp:139] Memory required for data: 272105472
I0227 19:07:08.356848 26657 layer_factory.hpp:77] Creating layer scale4d_branch2a
I0227 19:07:08.356856 26657 net.cpp:86] Creating Layer scale4d_branch2a
I0227 19:07:08.356863 26657 net.cpp:408] scale4d_branch2a <- res4d_branch2a
I0227 19:07:08.356868 26657 net.cpp:369] scale4d_branch2a -> res4d_branch2a (in-place)
I0227 19:07:08.356914 26657 layer_factory.hpp:77] Creating layer scale4d_branch2a
I0227 19:07:08.357033 26657 net.cpp:124] Setting up scale4d_branch2a
I0227 19:07:08.357043 26657 net.cpp:131] Top shape: 1 256 16 16 (65536)
I0227 19:07:08.357046 26657 net.cpp:139] Memory required for data: 272367616
I0227 19:07:08.357053 26657 layer_factory.hpp:77] Creating layer res4d_branch2a_relu
I0227 19:07:08.357059 26657 net.cpp:86] Creating Layer res4d_branch2a_relu
I0227 19:07:08.357062 26657 net.cpp:408] res4d_branch2a_relu <- res4d_branch2a
I0227 19:07:08.357066 26657 net.cpp:369] res4d_branch2a_relu -> res4d_branch2a (in-place)
I0227 19:07:08.357389 26657 net.cpp:124] Setting up res4d_branch2a_relu
I0227 19:07:08.357414 26657 net.cpp:131] Top shape: 1 256 16 16 (65536)
I0227 19:07:08.357430 26657 net.cpp:139] Memory required for data: 272629760
I0227 19:07:08.357434 26657 layer_factory.hpp:77] Creating layer res4d_branch2b
I0227 19:07:08.357442 26657 net.cpp:86] Creating Layer res4d_branch2b
I0227 19:07:08.357447 26657 net.cpp:408] res4d_branch2b <- res4d_branch2a
I0227 19:07:08.357452 26657 net.cpp:382] res4d_branch2b -> res4d_branch2b
I0227 19:07:08.359804 26657 net.cpp:124] Setting up res4d_branch2b
I0227 19:07:08.359819 26657 net.cpp:131] Top shape: 1 256 16 16 (65536)
I0227 19:07:08.359823 26657 net.cpp:139] Memory required for data: 272891904
I0227 19:07:08.359828 26657 layer_factory.hpp:77] Creating layer bn4d_branch2b
I0227 19:07:08.359836 26657 net.cpp:86] Creating Layer bn4d_branch2b
I0227 19:07:08.359840 26657 net.cpp:408] bn4d_branch2b <- res4d_branch2b
I0227 19:07:08.359858 26657 net.cpp:369] bn4d_branch2b -> res4d_branch2b (in-place)
I0227 19:07:08.360082 26657 net.cpp:124] Setting up bn4d_branch2b
I0227 19:07:08.360093 26657 net.cpp:131] Top shape: 1 256 16 16 (65536)
I0227 19:07:08.360096 26657 net.cpp:139] Memory required for data: 273154048
I0227 19:07:08.360105 26657 layer_factory.hpp:77] Creating layer scale4d_branch2b
I0227 19:07:08.360112 26657 net.cpp:86] Creating Layer scale4d_branch2b
I0227 19:07:08.360118 26657 net.cpp:408] scale4d_branch2b <- res4d_branch2b
I0227 19:07:08.360124 26657 net.cpp:369] scale4d_branch2b -> res4d_branch2b (in-place)
I0227 19:07:08.360170 26657 layer_factory.hpp:77] Creating layer scale4d_branch2b
I0227 19:07:08.360326 26657 net.cpp:124] Setting up scale4d_branch2b
I0227 19:07:08.360338 26657 net.cpp:131] Top shape: 1 256 16 16 (65536)
I0227 19:07:08.360342 26657 net.cpp:139] Memory required for data: 273416192
I0227 19:07:08.360348 26657 layer_factory.hpp:77] Creating layer res4d_branch2b_relu
I0227 19:07:08.360354 26657 net.cpp:86] Creating Layer res4d_branch2b_relu
I0227 19:07:08.360358 26657 net.cpp:408] res4d_branch2b_relu <- res4d_branch2b
I0227 19:07:08.360363 26657 net.cpp:369] res4d_branch2b_relu -> res4d_branch2b (in-place)
I0227 19:07:08.360549 26657 net.cpp:124] Setting up res4d_branch2b_relu
I0227 19:07:08.360561 26657 net.cpp:131] Top shape: 1 256 16 16 (65536)
I0227 19:07:08.360565 26657 net.cpp:139] Memory required for data: 273678336
I0227 19:07:08.360569 26657 layer_factory.hpp:77] Creating layer res4d_branch2c
I0227 19:07:08.360577 26657 net.cpp:86] Creating Layer res4d_branch2c
I0227 19:07:08.360582 26657 net.cpp:408] res4d_branch2c <- res4d_branch2b
I0227 19:07:08.360589 26657 net.cpp:382] res4d_branch2c -> res4d_branch2c
I0227 19:07:08.362329 26657 net.cpp:124] Setting up res4d_branch2c
I0227 19:07:08.362344 26657 net.cpp:131] Top shape: 1 1024 16 16 (262144)
I0227 19:07:08.362360 26657 net.cpp:139] Memory required for data: 274726912
I0227 19:07:08.362366 26657 layer_factory.hpp:77] Creating layer bn4d_branch2c
I0227 19:07:08.362375 26657 net.cpp:86] Creating Layer bn4d_branch2c
I0227 19:07:08.362380 26657 net.cpp:408] bn4d_branch2c <- res4d_branch2c
I0227 19:07:08.362398 26657 net.cpp:369] bn4d_branch2c -> res4d_branch2c (in-place)
I0227 19:07:08.362635 26657 net.cpp:124] Setting up bn4d_branch2c
I0227 19:07:08.362646 26657 net.cpp:131] Top shape: 1 1024 16 16 (262144)
I0227 19:07:08.362650 26657 net.cpp:139] Memory required for data: 275775488
I0227 19:07:08.362658 26657 layer_factory.hpp:77] Creating layer scale4d_branch2c
I0227 19:07:08.362664 26657 net.cpp:86] Creating Layer scale4d_branch2c
I0227 19:07:08.362668 26657 net.cpp:408] scale4d_branch2c <- res4d_branch2c
I0227 19:07:08.362674 26657 net.cpp:369] scale4d_branch2c -> res4d_branch2c (in-place)
I0227 19:07:08.362720 26657 layer_factory.hpp:77] Creating layer scale4d_branch2c
I0227 19:07:08.362848 26657 net.cpp:124] Setting up scale4d_branch2c
I0227 19:07:08.362859 26657 net.cpp:131] Top shape: 1 1024 16 16 (262144)
I0227 19:07:08.362862 26657 net.cpp:139] Memory required for data: 276824064
I0227 19:07:08.362869 26657 layer_factory.hpp:77] Creating layer res4d
I0227 19:07:08.362875 26657 net.cpp:86] Creating Layer res4d
I0227 19:07:08.362879 26657 net.cpp:408] res4d <- res4c_res4c_relu_0_split_1
I0227 19:07:08.362884 26657 net.cpp:408] res4d <- res4d_branch2c
I0227 19:07:08.362890 26657 net.cpp:382] res4d -> res4d
I0227 19:07:08.362913 26657 net.cpp:124] Setting up res4d
I0227 19:07:08.362922 26657 net.cpp:131] Top shape: 1 1024 16 16 (262144)
I0227 19:07:08.362926 26657 net.cpp:139] Memory required for data: 277872640
I0227 19:07:08.362928 26657 layer_factory.hpp:77] Creating layer res4d_relu
I0227 19:07:08.362936 26657 net.cpp:86] Creating Layer res4d_relu
I0227 19:07:08.362939 26657 net.cpp:408] res4d_relu <- res4d
I0227 19:07:08.362944 26657 net.cpp:369] res4d_relu -> res4d (in-place)
I0227 19:07:08.363282 26657 net.cpp:124] Setting up res4d_relu
I0227 19:07:08.363312 26657 net.cpp:131] Top shape: 1 1024 16 16 (262144)
I0227 19:07:08.363317 26657 net.cpp:139] Memory required for data: 278921216
I0227 19:07:08.363320 26657 layer_factory.hpp:77] Creating layer res4d_res4d_relu_0_split
I0227 19:07:08.363327 26657 net.cpp:86] Creating Layer res4d_res4d_relu_0_split
I0227 19:07:08.363330 26657 net.cpp:408] res4d_res4d_relu_0_split <- res4d
I0227 19:07:08.363353 26657 net.cpp:382] res4d_res4d_relu_0_split -> res4d_res4d_relu_0_split_0
I0227 19:07:08.363360 26657 net.cpp:382] res4d_res4d_relu_0_split -> res4d_res4d_relu_0_split_1
I0227 19:07:08.363409 26657 net.cpp:124] Setting up res4d_res4d_relu_0_split
I0227 19:07:08.363418 26657 net.cpp:131] Top shape: 1 1024 16 16 (262144)
I0227 19:07:08.363423 26657 net.cpp:131] Top shape: 1 1024 16 16 (262144)
I0227 19:07:08.363426 26657 net.cpp:139] Memory required for data: 281018368
I0227 19:07:08.363430 26657 layer_factory.hpp:77] Creating layer res4e_branch2a
I0227 19:07:08.363438 26657 net.cpp:86] Creating Layer res4e_branch2a
I0227 19:07:08.363442 26657 net.cpp:408] res4e_branch2a <- res4d_res4d_relu_0_split_0
I0227 19:07:08.363450 26657 net.cpp:382] res4e_branch2a -> res4e_branch2a
I0227 19:07:08.365108 26657 net.cpp:124] Setting up res4e_branch2a
I0227 19:07:08.365121 26657 net.cpp:131] Top shape: 1 256 16 16 (65536)
I0227 19:07:08.365139 26657 net.cpp:139] Memory required for data: 281280512
I0227 19:07:08.365145 26657 layer_factory.hpp:77] Creating layer bn4e_branch2a
I0227 19:07:08.365151 26657 net.cpp:86] Creating Layer bn4e_branch2a
I0227 19:07:08.365155 26657 net.cpp:408] bn4e_branch2a <- res4e_branch2a
I0227 19:07:08.365160 26657 net.cpp:369] bn4e_branch2a -> res4e_branch2a (in-place)
I0227 19:07:08.365386 26657 net.cpp:124] Setting up bn4e_branch2a
I0227 19:07:08.365396 26657 net.cpp:131] Top shape: 1 256 16 16 (65536)
I0227 19:07:08.365399 26657 net.cpp:139] Memory required for data: 281542656
I0227 19:07:08.365408 26657 layer_factory.hpp:77] Creating layer scale4e_branch2a
I0227 19:07:08.365416 26657 net.cpp:86] Creating Layer scale4e_branch2a
I0227 19:07:08.365422 26657 net.cpp:408] scale4e_branch2a <- res4e_branch2a
I0227 19:07:08.365427 26657 net.cpp:369] scale4e_branch2a -> res4e_branch2a (in-place)
I0227 19:07:08.365473 26657 layer_factory.hpp:77] Creating layer scale4e_branch2a
I0227 19:07:08.365595 26657 net.cpp:124] Setting up scale4e_branch2a
I0227 19:07:08.365605 26657 net.cpp:131] Top shape: 1 256 16 16 (65536)
I0227 19:07:08.365609 26657 net.cpp:139] Memory required for data: 281804800
I0227 19:07:08.365615 26657 layer_factory.hpp:77] Creating layer res4e_branch2a_relu
I0227 19:07:08.365622 26657 net.cpp:86] Creating Layer res4e_branch2a_relu
I0227 19:07:08.365624 26657 net.cpp:408] res4e_branch2a_relu <- res4e_branch2a
I0227 19:07:08.365630 26657 net.cpp:369] res4e_branch2a_relu -> res4e_branch2a (in-place)
I0227 19:07:08.365952 26657 net.cpp:124] Setting up res4e_branch2a_relu
I0227 19:07:08.365977 26657 net.cpp:131] Top shape: 1 256 16 16 (65536)
I0227 19:07:08.365979 26657 net.cpp:139] Memory required for data: 282066944
I0227 19:07:08.365994 26657 layer_factory.hpp:77] Creating layer res4e_branch2b
I0227 19:07:08.366004 26657 net.cpp:86] Creating Layer res4e_branch2b
I0227 19:07:08.366008 26657 net.cpp:408] res4e_branch2b <- res4e_branch2a
I0227 19:07:08.366015 26657 net.cpp:382] res4e_branch2b -> res4e_branch2b
I0227 19:07:08.368402 26657 net.cpp:124] Setting up res4e_branch2b
I0227 19:07:08.368417 26657 net.cpp:131] Top shape: 1 256 16 16 (65536)
I0227 19:07:08.368422 26657 net.cpp:139] Memory required for data: 282329088
I0227 19:07:08.368427 26657 layer_factory.hpp:77] Creating layer bn4e_branch2b
I0227 19:07:08.368434 26657 net.cpp:86] Creating Layer bn4e_branch2b
I0227 19:07:08.368439 26657 net.cpp:408] bn4e_branch2b <- res4e_branch2b
I0227 19:07:08.368455 26657 net.cpp:369] bn4e_branch2b -> res4e_branch2b (in-place)
I0227 19:07:08.368683 26657 net.cpp:124] Setting up bn4e_branch2b
I0227 19:07:08.368693 26657 net.cpp:131] Top shape: 1 256 16 16 (65536)
I0227 19:07:08.368697 26657 net.cpp:139] Memory required for data: 282591232
I0227 19:07:08.368705 26657 layer_factory.hpp:77] Creating layer scale4e_branch2b
I0227 19:07:08.368712 26657 net.cpp:86] Creating Layer scale4e_branch2b
I0227 19:07:08.368718 26657 net.cpp:408] scale4e_branch2b <- res4e_branch2b
I0227 19:07:08.368724 26657 net.cpp:369] scale4e_branch2b -> res4e_branch2b (in-place)
I0227 19:07:08.368772 26657 layer_factory.hpp:77] Creating layer scale4e_branch2b
I0227 19:07:08.368918 26657 net.cpp:124] Setting up scale4e_branch2b
I0227 19:07:08.368929 26657 net.cpp:131] Top shape: 1 256 16 16 (65536)
I0227 19:07:08.368933 26657 net.cpp:139] Memory required for data: 282853376
I0227 19:07:08.368939 26657 layer_factory.hpp:77] Creating layer res4e_branch2b_relu
I0227 19:07:08.368945 26657 net.cpp:86] Creating Layer res4e_branch2b_relu
I0227 19:07:08.368948 26657 net.cpp:408] res4e_branch2b_relu <- res4e_branch2b
I0227 19:07:08.368954 26657 net.cpp:369] res4e_branch2b_relu -> res4e_branch2b (in-place)
I0227 19:07:08.369138 26657 net.cpp:124] Setting up res4e_branch2b_relu
I0227 19:07:08.369150 26657 net.cpp:131] Top shape: 1 256 16 16 (65536)
I0227 19:07:08.369154 26657 net.cpp:139] Memory required for data: 283115520
I0227 19:07:08.369158 26657 layer_factory.hpp:77] Creating layer res4e_branch2c
I0227 19:07:08.369165 26657 net.cpp:86] Creating Layer res4e_branch2c
I0227 19:07:08.369169 26657 net.cpp:408] res4e_branch2c <- res4e_branch2b
I0227 19:07:08.369176 26657 net.cpp:382] res4e_branch2c -> res4e_branch2c
I0227 19:07:08.370906 26657 net.cpp:124] Setting up res4e_branch2c
I0227 19:07:08.370921 26657 net.cpp:131] Top shape: 1 1024 16 16 (262144)
I0227 19:07:08.370925 26657 net.cpp:139] Memory required for data: 284164096
I0227 19:07:08.370930 26657 layer_factory.hpp:77] Creating layer bn4e_branch2c
I0227 19:07:08.370939 26657 net.cpp:86] Creating Layer bn4e_branch2c
I0227 19:07:08.370942 26657 net.cpp:408] bn4e_branch2c <- res4e_branch2c
I0227 19:07:08.370959 26657 net.cpp:369] bn4e_branch2c -> res4e_branch2c (in-place)
I0227 19:07:08.371224 26657 net.cpp:124] Setting up bn4e_branch2c
I0227 19:07:08.371248 26657 net.cpp:131] Top shape: 1 1024 16 16 (262144)
I0227 19:07:08.371263 26657 net.cpp:139] Memory required for data: 285212672
I0227 19:07:08.371271 26657 layer_factory.hpp:77] Creating layer scale4e_branch2c
I0227 19:07:08.371279 26657 net.cpp:86] Creating Layer scale4e_branch2c
I0227 19:07:08.371284 26657 net.cpp:408] scale4e_branch2c <- res4e_branch2c
I0227 19:07:08.371289 26657 net.cpp:369] scale4e_branch2c -> res4e_branch2c (in-place)
I0227 19:07:08.371335 26657 layer_factory.hpp:77] Creating layer scale4e_branch2c
I0227 19:07:08.371471 26657 net.cpp:124] Setting up scale4e_branch2c
I0227 19:07:08.371481 26657 net.cpp:131] Top shape: 1 1024 16 16 (262144)
I0227 19:07:08.371485 26657 net.cpp:139] Memory required for data: 286261248
I0227 19:07:08.371491 26657 layer_factory.hpp:77] Creating layer res4e
I0227 19:07:08.371497 26657 net.cpp:86] Creating Layer res4e
I0227 19:07:08.371501 26657 net.cpp:408] res4e <- res4d_res4d_relu_0_split_1
I0227 19:07:08.371505 26657 net.cpp:408] res4e <- res4e_branch2c
I0227 19:07:08.371510 26657 net.cpp:382] res4e -> res4e
I0227 19:07:08.371537 26657 net.cpp:124] Setting up res4e
I0227 19:07:08.371546 26657 net.cpp:131] Top shape: 1 1024 16 16 (262144)
I0227 19:07:08.371551 26657 net.cpp:139] Memory required for data: 287309824
I0227 19:07:08.371553 26657 layer_factory.hpp:77] Creating layer res4e_relu
I0227 19:07:08.371558 26657 net.cpp:86] Creating Layer res4e_relu
I0227 19:07:08.371563 26657 net.cpp:408] res4e_relu <- res4e
I0227 19:07:08.371568 26657 net.cpp:369] res4e_relu -> res4e (in-place)
I0227 19:07:08.371894 26657 net.cpp:124] Setting up res4e_relu
I0227 19:07:08.371909 26657 net.cpp:131] Top shape: 1 1024 16 16 (262144)
I0227 19:07:08.371924 26657 net.cpp:139] Memory required for data: 288358400
I0227 19:07:08.371928 26657 layer_factory.hpp:77] Creating layer res4e_res4e_relu_0_split
I0227 19:07:08.371935 26657 net.cpp:86] Creating Layer res4e_res4e_relu_0_split
I0227 19:07:08.371939 26657 net.cpp:408] res4e_res4e_relu_0_split <- res4e
I0227 19:07:08.371945 26657 net.cpp:382] res4e_res4e_relu_0_split -> res4e_res4e_relu_0_split_0
I0227 19:07:08.371953 26657 net.cpp:382] res4e_res4e_relu_0_split -> res4e_res4e_relu_0_split_1
I0227 19:07:08.372002 26657 net.cpp:124] Setting up res4e_res4e_relu_0_split
I0227 19:07:08.372011 26657 net.cpp:131] Top shape: 1 1024 16 16 (262144)
I0227 19:07:08.372016 26657 net.cpp:131] Top shape: 1 1024 16 16 (262144)
I0227 19:07:08.372020 26657 net.cpp:139] Memory required for data: 290455552
I0227 19:07:08.372022 26657 layer_factory.hpp:77] Creating layer res4f_branch2a
I0227 19:07:08.372030 26657 net.cpp:86] Creating Layer res4f_branch2a
I0227 19:07:08.372036 26657 net.cpp:408] res4f_branch2a <- res4e_res4e_relu_0_split_0
I0227 19:07:08.372041 26657 net.cpp:382] res4f_branch2a -> res4f_branch2a
I0227 19:07:08.373690 26657 net.cpp:124] Setting up res4f_branch2a
I0227 19:07:08.373706 26657 net.cpp:131] Top shape: 1 256 16 16 (65536)
I0227 19:07:08.373721 26657 net.cpp:139] Memory required for data: 290717696
I0227 19:07:08.373728 26657 layer_factory.hpp:77] Creating layer bn4f_branch2a
I0227 19:07:08.373746 26657 net.cpp:86] Creating Layer bn4f_branch2a
I0227 19:07:08.373751 26657 net.cpp:408] bn4f_branch2a <- res4f_branch2a
I0227 19:07:08.373759 26657 net.cpp:369] bn4f_branch2a -> res4f_branch2a (in-place)
I0227 19:07:08.373989 26657 net.cpp:124] Setting up bn4f_branch2a
I0227 19:07:08.373999 26657 net.cpp:131] Top shape: 1 256 16 16 (65536)
I0227 19:07:08.374003 26657 net.cpp:139] Memory required for data: 290979840
I0227 19:07:08.374011 26657 layer_factory.hpp:77] Creating layer scale4f_branch2a
I0227 19:07:08.374018 26657 net.cpp:86] Creating Layer scale4f_branch2a
I0227 19:07:08.374022 26657 net.cpp:408] scale4f_branch2a <- res4f_branch2a
I0227 19:07:08.374028 26657 net.cpp:369] scale4f_branch2a -> res4f_branch2a (in-place)
I0227 19:07:08.374075 26657 layer_factory.hpp:77] Creating layer scale4f_branch2a
I0227 19:07:08.374215 26657 net.cpp:124] Setting up scale4f_branch2a
I0227 19:07:08.374225 26657 net.cpp:131] Top shape: 1 256 16 16 (65536)
I0227 19:07:08.374228 26657 net.cpp:139] Memory required for data: 291241984
I0227 19:07:08.374234 26657 layer_factory.hpp:77] Creating layer res4f_branch2a_relu
I0227 19:07:08.374241 26657 net.cpp:86] Creating Layer res4f_branch2a_relu
I0227 19:07:08.374245 26657 net.cpp:408] res4f_branch2a_relu <- res4f_branch2a
I0227 19:07:08.374250 26657 net.cpp:369] res4f_branch2a_relu -> res4f_branch2a (in-place)
I0227 19:07:08.374575 26657 net.cpp:124] Setting up res4f_branch2a_relu
I0227 19:07:08.374601 26657 net.cpp:131] Top shape: 1 256 16 16 (65536)
I0227 19:07:08.374616 26657 net.cpp:139] Memory required for data: 291504128
I0227 19:07:08.374620 26657 layer_factory.hpp:77] Creating layer res4f_branch2b
I0227 19:07:08.374640 26657 net.cpp:86] Creating Layer res4f_branch2b
I0227 19:07:08.374655 26657 net.cpp:408] res4f_branch2b <- res4f_branch2a
I0227 19:07:08.374663 26657 net.cpp:382] res4f_branch2b -> res4f_branch2b
I0227 19:07:08.376968 26657 net.cpp:124] Setting up res4f_branch2b
I0227 19:07:08.376996 26657 net.cpp:131] Top shape: 1 256 16 16 (65536)
I0227 19:07:08.376999 26657 net.cpp:139] Memory required for data: 291766272
I0227 19:07:08.377015 26657 layer_factory.hpp:77] Creating layer bn4f_branch2b
I0227 19:07:08.377034 26657 net.cpp:86] Creating Layer bn4f_branch2b
I0227 19:07:08.377039 26657 net.cpp:408] bn4f_branch2b <- res4f_branch2b
I0227 19:07:08.377046 26657 net.cpp:369] bn4f_branch2b -> res4f_branch2b (in-place)
I0227 19:07:08.377281 26657 net.cpp:124] Setting up bn4f_branch2b
I0227 19:07:08.377303 26657 net.cpp:131] Top shape: 1 256 16 16 (65536)
I0227 19:07:08.377307 26657 net.cpp:139] Memory required for data: 292028416
I0227 19:07:08.377315 26657 layer_factory.hpp:77] Creating layer scale4f_branch2b
I0227 19:07:08.377323 26657 net.cpp:86] Creating Layer scale4f_branch2b
I0227 19:07:08.377331 26657 net.cpp:408] scale4f_branch2b <- res4f_branch2b
I0227 19:07:08.377336 26657 net.cpp:369] scale4f_branch2b -> res4f_branch2b (in-place)
I0227 19:07:08.377405 26657 layer_factory.hpp:77] Creating layer scale4f_branch2b
I0227 19:07:08.377542 26657 net.cpp:124] Setting up scale4f_branch2b
I0227 19:07:08.377553 26657 net.cpp:131] Top shape: 1 256 16 16 (65536)
I0227 19:07:08.377557 26657 net.cpp:139] Memory required for data: 292290560
I0227 19:07:08.377563 26657 layer_factory.hpp:77] Creating layer res4f_branch2b_relu
I0227 19:07:08.377569 26657 net.cpp:86] Creating Layer res4f_branch2b_relu
I0227 19:07:08.377573 26657 net.cpp:408] res4f_branch2b_relu <- res4f_branch2b
I0227 19:07:08.377578 26657 net.cpp:369] res4f_branch2b_relu -> res4f_branch2b (in-place)
I0227 19:07:08.377773 26657 net.cpp:124] Setting up res4f_branch2b_relu
I0227 19:07:08.377784 26657 net.cpp:131] Top shape: 1 256 16 16 (65536)
I0227 19:07:08.377787 26657 net.cpp:139] Memory required for data: 292552704
I0227 19:07:08.377791 26657 layer_factory.hpp:77] Creating layer res4f_branch2c
I0227 19:07:08.377799 26657 net.cpp:86] Creating Layer res4f_branch2c
I0227 19:07:08.377804 26657 net.cpp:408] res4f_branch2c <- res4f_branch2b
I0227 19:07:08.377810 26657 net.cpp:382] res4f_branch2c -> res4f_branch2c
I0227 19:07:08.379528 26657 net.cpp:124] Setting up res4f_branch2c
I0227 19:07:08.379555 26657 net.cpp:131] Top shape: 1 1024 16 16 (262144)
I0227 19:07:08.379559 26657 net.cpp:139] Memory required for data: 293601280
I0227 19:07:08.379565 26657 layer_factory.hpp:77] Creating layer bn4f_branch2c
I0227 19:07:08.379573 26657 net.cpp:86] Creating Layer bn4f_branch2c
I0227 19:07:08.379578 26657 net.cpp:408] bn4f_branch2c <- res4f_branch2c
I0227 19:07:08.379585 26657 net.cpp:369] bn4f_branch2c -> res4f_branch2c (in-place)
I0227 19:07:08.379843 26657 net.cpp:124] Setting up bn4f_branch2c
I0227 19:07:08.379854 26657 net.cpp:131] Top shape: 1 1024 16 16 (262144)
I0227 19:07:08.379858 26657 net.cpp:139] Memory required for data: 294649856
I0227 19:07:08.379895 26657 layer_factory.hpp:77] Creating layer scale4f_branch2c
I0227 19:07:08.379904 26657 net.cpp:86] Creating Layer scale4f_branch2c
I0227 19:07:08.379909 26657 net.cpp:408] scale4f_branch2c <- res4f_branch2c
I0227 19:07:08.379914 26657 net.cpp:369] scale4f_branch2c -> res4f_branch2c (in-place)
I0227 19:07:08.379964 26657 layer_factory.hpp:77] Creating layer scale4f_branch2c
I0227 19:07:08.380097 26657 net.cpp:124] Setting up scale4f_branch2c
I0227 19:07:08.380107 26657 net.cpp:131] Top shape: 1 1024 16 16 (262144)
I0227 19:07:08.380111 26657 net.cpp:139] Memory required for data: 295698432
I0227 19:07:08.380117 26657 layer_factory.hpp:77] Creating layer res4f
I0227 19:07:08.380125 26657 net.cpp:86] Creating Layer res4f
I0227 19:07:08.380131 26657 net.cpp:408] res4f <- res4e_res4e_relu_0_split_1
I0227 19:07:08.380136 26657 net.cpp:408] res4f <- res4f_branch2c
I0227 19:07:08.380141 26657 net.cpp:382] res4f -> res4f
I0227 19:07:08.380167 26657 net.cpp:124] Setting up res4f
I0227 19:07:08.380177 26657 net.cpp:131] Top shape: 1 1024 16 16 (262144)
I0227 19:07:08.380180 26657 net.cpp:139] Memory required for data: 296747008
I0227 19:07:08.380183 26657 layer_factory.hpp:77] Creating layer res4f_relu
I0227 19:07:08.380188 26657 net.cpp:86] Creating Layer res4f_relu
I0227 19:07:08.380192 26657 net.cpp:408] res4f_relu <- res4f
I0227 19:07:08.380198 26657 net.cpp:369] res4f_relu -> res4f (in-place)
I0227 19:07:08.380560 26657 net.cpp:124] Setting up res4f_relu
I0227 19:07:08.380587 26657 net.cpp:131] Top shape: 1 1024 16 16 (262144)
I0227 19:07:08.380604 26657 net.cpp:139] Memory required for data: 297795584
I0227 19:07:08.380607 26657 layer_factory.hpp:77] Creating layer res4f_res4f_relu_0_split
I0227 19:07:08.380614 26657 net.cpp:86] Creating Layer res4f_res4f_relu_0_split
I0227 19:07:08.380619 26657 net.cpp:408] res4f_res4f_relu_0_split <- res4f
I0227 19:07:08.380625 26657 net.cpp:382] res4f_res4f_relu_0_split -> res4f_res4f_relu_0_split_0
I0227 19:07:08.380633 26657 net.cpp:382] res4f_res4f_relu_0_split -> res4f_res4f_relu_0_split_1
I0227 19:07:08.380640 26657 net.cpp:382] res4f_res4f_relu_0_split -> res4f_res4f_relu_0_split_2
I0227 19:07:08.380645 26657 net.cpp:382] res4f_res4f_relu_0_split -> res4f_res4f_relu_0_split_3
I0227 19:07:08.380745 26657 net.cpp:124] Setting up res4f_res4f_relu_0_split
I0227 19:07:08.380755 26657 net.cpp:131] Top shape: 1 1024 16 16 (262144)
I0227 19:07:08.380760 26657 net.cpp:131] Top shape: 1 1024 16 16 (262144)
I0227 19:07:08.380775 26657 net.cpp:131] Top shape: 1 1024 16 16 (262144)
I0227 19:07:08.380779 26657 net.cpp:131] Top shape: 1 1024 16 16 (262144)
I0227 19:07:08.380784 26657 net.cpp:139] Memory required for data: 301989888
I0227 19:07:08.380800 26657 layer_factory.hpp:77] Creating layer res5a_branch1
I0227 19:07:08.380808 26657 net.cpp:86] Creating Layer res5a_branch1
I0227 19:07:08.380812 26657 net.cpp:408] res5a_branch1 <- res4f_res4f_relu_0_split_0
I0227 19:07:08.380820 26657 net.cpp:382] res5a_branch1 -> res5a_branch1
I0227 19:07:08.386225 26657 net.cpp:124] Setting up res5a_branch1
I0227 19:07:08.386255 26657 net.cpp:131] Top shape: 1 2048 8 8 (131072)
I0227 19:07:08.386260 26657 net.cpp:139] Memory required for data: 302514176
I0227 19:07:08.386265 26657 layer_factory.hpp:77] Creating layer bn5a_branch1
I0227 19:07:08.386286 26657 net.cpp:86] Creating Layer bn5a_branch1
I0227 19:07:08.386291 26657 net.cpp:408] bn5a_branch1 <- res5a_branch1
I0227 19:07:08.386296 26657 net.cpp:369] bn5a_branch1 -> res5a_branch1 (in-place)
I0227 19:07:08.386591 26657 net.cpp:124] Setting up bn5a_branch1
I0227 19:07:08.386618 26657 net.cpp:131] Top shape: 1 2048 8 8 (131072)
I0227 19:07:08.386623 26657 net.cpp:139] Memory required for data: 303038464
I0227 19:07:08.386631 26657 layer_factory.hpp:77] Creating layer scale5a_branch1
I0227 19:07:08.386638 26657 net.cpp:86] Creating Layer scale5a_branch1
I0227 19:07:08.386642 26657 net.cpp:408] scale5a_branch1 <- res5a_branch1
I0227 19:07:08.386647 26657 net.cpp:369] scale5a_branch1 -> res5a_branch1 (in-place)
I0227 19:07:08.386698 26657 layer_factory.hpp:77] Creating layer scale5a_branch1
I0227 19:07:08.386873 26657 net.cpp:124] Setting up scale5a_branch1
I0227 19:07:08.386883 26657 net.cpp:131] Top shape: 1 2048 8 8 (131072)
I0227 19:07:08.386888 26657 net.cpp:139] Memory required for data: 303562752
I0227 19:07:08.386894 26657 layer_factory.hpp:77] Creating layer res5a_branch2a
I0227 19:07:08.386904 26657 net.cpp:86] Creating Layer res5a_branch2a
I0227 19:07:08.386912 26657 net.cpp:408] res5a_branch2a <- res4f_res4f_relu_0_split_1
I0227 19:07:08.386919 26657 net.cpp:382] res5a_branch2a -> res5a_branch2a
I0227 19:07:08.390578 26657 net.cpp:124] Setting up res5a_branch2a
I0227 19:07:08.390596 26657 net.cpp:131] Top shape: 1 512 8 8 (32768)
I0227 19:07:08.390614 26657 net.cpp:139] Memory required for data: 303693824
I0227 19:07:08.390620 26657 layer_factory.hpp:77] Creating layer bn5a_branch2a
I0227 19:07:08.390632 26657 net.cpp:86] Creating Layer bn5a_branch2a
I0227 19:07:08.390650 26657 net.cpp:408] bn5a_branch2a <- res5a_branch2a
I0227 19:07:08.390656 26657 net.cpp:369] bn5a_branch2a -> res5a_branch2a (in-place)
I0227 19:07:08.390931 26657 net.cpp:124] Setting up bn5a_branch2a
I0227 19:07:08.390954 26657 net.cpp:131] Top shape: 1 512 8 8 (32768)
I0227 19:07:08.390957 26657 net.cpp:139] Memory required for data: 303824896
I0227 19:07:08.390979 26657 layer_factory.hpp:77] Creating layer scale5a_branch2a
I0227 19:07:08.390985 26657 net.cpp:86] Creating Layer scale5a_branch2a
I0227 19:07:08.390990 26657 net.cpp:408] scale5a_branch2a <- res5a_branch2a
I0227 19:07:08.390996 26657 net.cpp:369] scale5a_branch2a -> res5a_branch2a (in-place)
I0227 19:07:08.391067 26657 layer_factory.hpp:77] Creating layer scale5a_branch2a
I0227 19:07:08.391224 26657 net.cpp:124] Setting up scale5a_branch2a
I0227 19:07:08.391237 26657 net.cpp:131] Top shape: 1 512 8 8 (32768)
I0227 19:07:08.391240 26657 net.cpp:139] Memory required for data: 303955968
I0227 19:07:08.391247 26657 layer_factory.hpp:77] Creating layer res5a_branch2a_relu
I0227 19:07:08.391253 26657 net.cpp:86] Creating Layer res5a_branch2a_relu
I0227 19:07:08.391258 26657 net.cpp:408] res5a_branch2a_relu <- res5a_branch2a
I0227 19:07:08.391263 26657 net.cpp:369] res5a_branch2a_relu -> res5a_branch2a (in-place)
I0227 19:07:08.391968 26657 net.cpp:124] Setting up res5a_branch2a_relu
I0227 19:07:08.391983 26657 net.cpp:131] Top shape: 1 512 8 8 (32768)
I0227 19:07:08.391999 26657 net.cpp:139] Memory required for data: 304087040
I0227 19:07:08.392001 26657 layer_factory.hpp:77] Creating layer res5a_branch2b
I0227 19:07:08.392012 26657 net.cpp:86] Creating Layer res5a_branch2b
I0227 19:07:08.392017 26657 net.cpp:408] res5a_branch2b <- res5a_branch2a
I0227 19:07:08.392035 26657 net.cpp:382] res5a_branch2b -> res5a_branch2b
I0227 19:07:08.399181 26657 net.cpp:124] Setting up res5a_branch2b
I0227 19:07:08.399202 26657 net.cpp:131] Top shape: 1 512 8 8 (32768)
I0227 19:07:08.399206 26657 net.cpp:139] Memory required for data: 304218112
I0227 19:07:08.399214 26657 layer_factory.hpp:77] Creating layer bn5a_branch2b
I0227 19:07:08.399235 26657 net.cpp:86] Creating Layer bn5a_branch2b
I0227 19:07:08.399240 26657 net.cpp:408] bn5a_branch2b <- res5a_branch2b
I0227 19:07:08.399247 26657 net.cpp:369] bn5a_branch2b -> res5a_branch2b (in-place)
I0227 19:07:08.399559 26657 net.cpp:124] Setting up bn5a_branch2b
I0227 19:07:08.399570 26657 net.cpp:131] Top shape: 1 512 8 8 (32768)
I0227 19:07:08.399586 26657 net.cpp:139] Memory required for data: 304349184
I0227 19:07:08.399595 26657 layer_factory.hpp:77] Creating layer scale5a_branch2b
I0227 19:07:08.399605 26657 net.cpp:86] Creating Layer scale5a_branch2b
I0227 19:07:08.399610 26657 net.cpp:408] scale5a_branch2b <- res5a_branch2b
I0227 19:07:08.399616 26657 net.cpp:369] scale5a_branch2b -> res5a_branch2b (in-place)
I0227 19:07:08.399664 26657 layer_factory.hpp:77] Creating layer scale5a_branch2b
I0227 19:07:08.399819 26657 net.cpp:124] Setting up scale5a_branch2b
I0227 19:07:08.399830 26657 net.cpp:131] Top shape: 1 512 8 8 (32768)
I0227 19:07:08.399834 26657 net.cpp:139] Memory required for data: 304480256
I0227 19:07:08.399842 26657 layer_factory.hpp:77] Creating layer res5a_branch2b_relu
I0227 19:07:08.399848 26657 net.cpp:86] Creating Layer res5a_branch2b_relu
I0227 19:07:08.399853 26657 net.cpp:408] res5a_branch2b_relu <- res5a_branch2b
I0227 19:07:08.399858 26657 net.cpp:369] res5a_branch2b_relu -> res5a_branch2b (in-place)
I0227 19:07:08.400056 26657 net.cpp:124] Setting up res5a_branch2b_relu
I0227 19:07:08.400069 26657 net.cpp:131] Top shape: 1 512 8 8 (32768)
I0227 19:07:08.400074 26657 net.cpp:139] Memory required for data: 304611328
I0227 19:07:08.400077 26657 layer_factory.hpp:77] Creating layer res5a_branch2c
I0227 19:07:08.400087 26657 net.cpp:86] Creating Layer res5a_branch2c
I0227 19:07:08.400096 26657 net.cpp:408] res5a_branch2c <- res5a_branch2b
I0227 19:07:08.400104 26657 net.cpp:382] res5a_branch2c -> res5a_branch2c
I0227 19:07:08.404023 26657 net.cpp:124] Setting up res5a_branch2c
I0227 19:07:08.404052 26657 net.cpp:131] Top shape: 1 2048 8 8 (131072)
I0227 19:07:08.404057 26657 net.cpp:139] Memory required for data: 305135616
I0227 19:07:08.404063 26657 layer_factory.hpp:77] Creating layer bn5a_branch2c
I0227 19:07:08.404072 26657 net.cpp:86] Creating Layer bn5a_branch2c
I0227 19:07:08.404078 26657 net.cpp:408] bn5a_branch2c <- res5a_branch2c
I0227 19:07:08.404084 26657 net.cpp:369] bn5a_branch2c -> res5a_branch2c (in-place)
I0227 19:07:08.404358 26657 net.cpp:124] Setting up bn5a_branch2c
I0227 19:07:08.404369 26657 net.cpp:131] Top shape: 1 2048 8 8 (131072)
I0227 19:07:08.404374 26657 net.cpp:139] Memory required for data: 305659904
I0227 19:07:08.404382 26657 layer_factory.hpp:77] Creating layer scale5a_branch2c
I0227 19:07:08.404392 26657 net.cpp:86] Creating Layer scale5a_branch2c
I0227 19:07:08.404397 26657 net.cpp:408] scale5a_branch2c <- res5a_branch2c
I0227 19:07:08.404402 26657 net.cpp:369] scale5a_branch2c -> res5a_branch2c (in-place)
I0227 19:07:08.404453 26657 layer_factory.hpp:77] Creating layer scale5a_branch2c
I0227 19:07:08.404636 26657 net.cpp:124] Setting up scale5a_branch2c
I0227 19:07:08.404649 26657 net.cpp:131] Top shape: 1 2048 8 8 (131072)
I0227 19:07:08.404652 26657 net.cpp:139] Memory required for data: 306184192
I0227 19:07:08.404659 26657 layer_factory.hpp:77] Creating layer res5a
I0227 19:07:08.404666 26657 net.cpp:86] Creating Layer res5a
I0227 19:07:08.404671 26657 net.cpp:408] res5a <- res5a_branch1
I0227 19:07:08.404676 26657 net.cpp:408] res5a <- res5a_branch2c
I0227 19:07:08.404683 26657 net.cpp:382] res5a -> res5a
I0227 19:07:08.404722 26657 net.cpp:124] Setting up res5a
…
I0227 19:07:08.600956 26657 layer_factory.hpp:77] Creating layer scale4e_branch2a
I0227 19:07:08.601078 26657 net.cpp:124] Setting up scale4e_branch2a
I0227 19:07:08.601089 26657 net.cpp:131] Top shape: 1 256 16 16 (65536)
I0227 19:07:08.601092 26657 net.cpp:139] Memory required for data: 272891904
I0227 19:07:08.601099 26657 layer_factory.hpp:77] Creating layer res4e_branch2a_relu
I0227 19:07:08.601104 26657 net.cpp:86] Creating Layer res4e_branch2a_relu
I0227 19:07:08.601107 26657 net.cpp:408] res4e_branch2a_relu <- res4e_branch2a
I0227 19:07:08.601114 26657 net.cpp:369] res4e_branch2a_relu -> res4e_branch2a (in-place)
I0227 19:07:08.601536 26657 net.cpp:124] Setting up res4e_branch2a_relu
I0227 19:07:08.601552 26657 net.cpp:131] Top shape: 1 256 16 16 (65536)
I0227 19:07:08.601568 26657 net.cpp:139] Memory required for data: 273154048
I0227 19:07:08.601572 26657 layer_factory.hpp:77] Creating layer res4e_branch2b
I0227 19:07:08.601582 26657 net.cpp:86] Creating Layer res4e_branch2b
I0227 19:07:08.601586 26657 net.cpp:408] res4e_branch2b <- res4e_branch2a
I0227 19:07:08.601593 26657 net.cpp:382] res4e_branch2b -> res4e_branch2b
I0227 19:07:08.606055 26657 net.cpp:124] Setting up res4e_branch2b
I0227 19:07:08.606072 26657 net.cpp:131] Top shape: 1 256 16 16 (65536)
I0227 19:07:08.606091 26657 net.cpp:139] Memory required for data: 273416192
I0227 19:07:08.606097 26657 layer_factory.hpp:77] Creating layer bn4e_branch2b
I0227 19:07:08.606104 26657 net.cpp:86] Creating Layer bn4e_branch2b
I0227 19:07:08.606120 26657 net.cpp:408] bn4e_branch2b <- res4e_branch2b
I0227 19:07:08.606127 26657 net.cpp:369] bn4e_branch2b -> res4e_branch2b (in-place)
I0227 19:07:08.606369 26657 net.cpp:124] Setting up bn4e_branch2b
I0227 19:07:08.606380 26657 net.cpp:131] Top shape: 1 256 16 16 (65536)
I0227 19:07:08.606384 26657 net.cpp:139] Memory required for data: 273678336
I0227 19:07:08.606395 26657 layer_factory.hpp:77] Creating layer scale4e_branch2b
I0227 19:07:08.606405 26657 net.cpp:86] Creating Layer scale4e_branch2b
I0227 19:07:08.606410 26657 net.cpp:408] scale4e_branch2b <- res4e_branch2b
I0227 19:07:08.606415 26657 net.cpp:369] scale4e_branch2b -> res4e_branch2b (in-place)
I0227 19:07:08.606465 26657 layer_factory.hpp:77] Creating layer scale4e_branch2b
I0227 19:07:08.606598 26657 net.cpp:124] Setting up scale4e_branch2b
I0227 19:07:08.606609 26657 net.cpp:131] Top shape: 1 256 16 16 (65536)
I0227 19:07:08.606612 26657 net.cpp:139] Memory required for data: 273940480
I0227 19:07:08.606619 26657 layer_factory.hpp:77] Creating layer res4e_branch2b_relu
I0227 19:07:08.606626 26657 net.cpp:86] Creating Layer res4e_branch2b_relu
I0227 19:07:08.606631 26657 net.cpp:408] res4e_branch2b_relu <- res4e_branch2b
I0227 19:07:08.606637 26657 net.cpp:369] res4e_branch2b_relu -> res4e_branch2b (in-place)
I0227 19:07:08.606865 26657 net.cpp:124] Setting up res4e_branch2b_relu
I0227 19:07:08.606878 26657 net.cpp:131] Top shape: 1 256 16 16 (65536)
I0227 19:07:08.606881 26657 net.cpp:139] Memory required for data: 274202624
I0227 19:07:08.606885 26657 layer_factory.hpp:77] Creating layer res4e_branch2c
I0227 19:07:08.606894 26657 net.cpp:86] Creating Layer res4e_branch2c
I0227 19:07:08.606900 26657 net.cpp:408] res4e_branch2c <- res4e_branch2b
I0227 19:07:08.606907 26657 net.cpp:382] res4e_branch2c -> res4e_branch2c
I0227 19:07:08.608860 26657 net.cpp:124] Setting up res4e_branch2c
I0227 19:07:08.608877 26657 net.cpp:131] Top shape: 1 1024 16 16 (262144)
I0227 19:07:08.608894 26657 net.cpp:139] Memory required for data: 275251200
I0227 19:07:08.608901 26657 layer_factory.hpp:77] Creating layer bn4e_branch2c
I0227 19:07:08.608908 26657 net.cpp:86] Creating Layer bn4e_branch2c
I0227 19:07:08.608913 26657 net.cpp:408] bn4e_branch2c <- res4e_branch2c
I0227 19:07:08.608918 26657 net.cpp:369] bn4e_branch2c -> res4e_branch2c (in-place)
I0227 19:07:08.609163 26657 net.cpp:124] Setting up bn4e_branch2c
I0227 19:07:08.609174 26657 net.cpp:131] Top shape: 1 1024 16 16 (262144)
I0227 19:07:08.609177 26657 net.cpp:139] Memory required for data: 276299776
I0227 19:07:08.609185 26657 layer_factory.hpp:77] Creating layer scale4e_branch2c
I0227 19:07:08.609194 26657 net.cpp:86] Creating Layer scale4e_branch2c
I0227 19:07:08.609200 26657 net.cpp:408] scale4e_branch2c <- res4e_branch2c
I0227 19:07:08.609206 26657 net.cpp:369] scale4e_branch2c -> res4e_branch2c (in-place)
I0227 19:07:08.609259 26657 layer_factory.hpp:77] Creating layer scale4e_branch2c
I0227 19:07:08.609405 26657 net.cpp:124] Setting up scale4e_branch2c
I0227 19:07:08.609416 26657 net.cpp:131] Top shape: 1 1024 16 16 (262144)
I0227 19:07:08.609419 26657 net.cpp:139] Memory required for data: 277348352
I0227 19:07:08.609426 26657 layer_factory.hpp:77] Creating layer res4e
I0227 19:07:08.609431 26657 net.cpp:86] Creating Layer res4e
I0227 19:07:08.609436 26657 net.cpp:408] res4e <- res4d_res4d_relu_0_split_1
I0227 19:07:08.609441 26657 net.cpp:408] res4e <- res4e_branch2c
I0227 19:07:08.609446 26657 net.cpp:382] res4e -> res4e
I0227 19:07:08.609472 26657 net.cpp:124] Setting up res4e
I0227 19:07:08.609480 26657 net.cpp:131] Top shape: 1 1024 16 16 (262144)
I0227 19:07:08.609484 26657 net.cpp:139] Memory required for data: 278396928
I0227 19:07:08.609488 26657 layer_factory.hpp:77] Creating layer res4e_relu
I0227 19:07:08.609493 26657 net.cpp:86] Creating Layer res4e_relu
I0227 19:07:08.609498 26657 net.cpp:408] res4e_relu <- res4e
I0227 19:07:08.609504 26657 net.cpp:369] res4e_relu -> res4e (in-place)
I0227 19:07:08.609712 26657 net.cpp:124] Setting up res4e_relu
I0227 19:07:08.609724 26657 net.cpp:131] Top shape: 1 1024 16 16 (262144)
I0227 19:07:08.609729 26657 net.cpp:139] Memory required for data: 279445504
I0227 19:07:08.609731 26657 layer_factory.hpp:77] Creating layer res4e_res4e_relu_0_split
I0227 19:07:08.609742 26657 net.cpp:86] Creating Layer res4e_res4e_relu_0_split
I0227 19:07:08.609750 26657 net.cpp:408] res4e_res4e_relu_0_split <- res4e
I0227 19:07:08.609755 26657 net.cpp:382] res4e_res4e_relu_0_split -> res4e_res4e_relu_0_split_0
I0227 19:07:08.609762 26657 net.cpp:382] res4e_res4e_relu_0_split -> res4e_res4e_relu_0_split_1
I0227 19:07:08.609817 26657 net.cpp:124] Setting up res4e_res4e_relu_0_split
I0227 19:07:08.609827 26657 net.cpp:131] Top shape: 1 1024 16 16 (262144)
I0227 19:07:08.609830 26657 net.cpp:131] Top shape: 1 1024 16 16 (262144)
I0227 19:07:08.609834 26657 net.cpp:139] Memory required for data: 281542656
I0227 19:07:08.609838 26657 layer_factory.hpp:77] Creating layer res4f_branch2a
I0227 19:07:08.609846 26657 net.cpp:86] Creating Layer res4f_branch2a
I0227 19:07:08.609850 26657 net.cpp:408] res4f_branch2a <- res4e_res4e_relu_0_split_0
I0227 19:07:08.609855 26657 net.cpp:382] res4f_branch2a -> res4f_branch2a
I0227 19:07:08.611744 26657 net.cpp:124] Setting up res4f_branch2a
I0227 19:07:08.611773 26657 net.cpp:131] Top shape: 1 256 16 16 (65536)
I0227 19:07:08.611778 26657 net.cpp:139] Memory required for data: 281804800
I0227 19:07:08.611784 26657 layer_factory.hpp:77] Creating layer bn4f_branch2a
I0227 19:07:08.611791 26657 net.cpp:86] Creating Layer bn4f_branch2a
I0227 19:07:08.611798 26657 net.cpp:408] bn4f_branch2a <- res4f_branch2a
I0227 19:07:08.611804 26657 net.cpp:369] bn4f_branch2a -> res4f_branch2a (in-place)
I0227 19:07:08.612027 26657 net.cpp:124] Setting up bn4f_branch2a
I0227 19:07:08.612037 26657 net.cpp:131] Top shape: 1 256 16 16 (65536)
I0227 19:07:08.612041 26657 net.cpp:139] Memory required for data: 282066944
I0227 19:07:08.612049 26657 layer_factory.hpp:77] Creating layer scale4f_branch2a
I0227 19:07:08.612057 26657 net.cpp:86] Creating Layer scale4f_branch2a
I0227 19:07:08.612063 26657 net.cpp:408] scale4f_branch2a <- res4f_branch2a
I0227 19:07:08.612069 26657 net.cpp:369] scale4f_branch2a -> res4f_branch2a (in-place)
I0227 19:07:08.612118 26657 layer_factory.hpp:77] Creating layer scale4f_branch2a
I0227 19:07:08.612262 26657 net.cpp:124] Setting up scale4f_branch2a
I0227 19:07:08.612273 26657 net.cpp:131] Top shape: 1 256 16 16 (65536)
I0227 19:07:08.612277 26657 net.cpp:139] Memory required for data: 282329088
I0227 19:07:08.612283 26657 layer_factory.hpp:77] Creating layer res4f_branch2a_relu
I0227 19:07:08.612289 26657 net.cpp:86] Creating Layer res4f_branch2a_relu
I0227 19:07:08.612293 26657 net.cpp:408] res4f_branch2a_relu <- res4f_branch2a
I0227 19:07:08.612298 26657 net.cpp:369] res4f_branch2a_relu -> res4f_branch2a (in-place)
I0227 19:07:08.612716 26657 net.cpp:124] Setting up res4f_branch2a_relu
I0227 19:07:08.612732 26657 net.cpp:131] Top shape: 1 256 16 16 (65536)
I0227 19:07:08.612747 26657 net.cpp:139] Memory required for data: 282591232
I0227 19:07:08.612751 26657 layer_factory.hpp:77] Creating layer res4f_branch2b
I0227 19:07:08.612759 26657 net.cpp:86] Creating Layer res4f_branch2b
I0227 19:07:08.612764 26657 net.cpp:408] res4f_branch2b <- res4f_branch2a
I0227 19:07:08.612783 26657 net.cpp:382] res4f_branch2b -> res4f_branch2b
I0227 19:07:08.615429 26657 net.cpp:124] Setting up res4f_branch2b
I0227 19:07:08.615447 26657 net.cpp:131] Top shape: 1 256 16 16 (65536)
I0227 19:07:08.615463 26657 net.cpp:139] Memory required for data: 282853376
I0227 19:07:08.615468 26657 layer_factory.hpp:77] Creating layer bn4f_branch2b
I0227 19:07:08.615475 26657 net.cpp:86] Creating Layer bn4f_branch2b
I0227 19:07:08.615480 26657 net.cpp:408] bn4f_branch2b <- res4f_branch2b
I0227 19:07:08.615487 26657 net.cpp:369] bn4f_branch2b -> res4f_branch2b (in-place)
I0227 19:07:08.615716 26657 net.cpp:124] Setting up bn4f_branch2b
I0227 19:07:08.615726 26657 net.cpp:131] Top shape: 1 256 16 16 (65536)
I0227 19:07:08.615731 26657 net.cpp:139] Memory required for data: 283115520
I0227 19:07:08.615738 26657 layer_factory.hpp:77] Creating layer scale4f_branch2b
I0227 19:07:08.615746 26657 net.cpp:86] Creating Layer scale4f_branch2b
I0227 19:07:08.615749 26657 net.cpp:408] scale4f_branch2b <- res4f_branch2b
I0227 19:07:08.615754 26657 net.cpp:369] scale4f_branch2b -> res4f_branch2b (in-place)
I0227 19:07:08.615803 26657 layer_factory.hpp:77] Creating layer scale4f_branch2b
I0227 19:07:08.615934 26657 net.cpp:124] Setting up scale4f_branch2b
I0227 19:07:08.615944 26657 net.cpp:131] Top shape: 1 256 16 16 (65536)
I0227 19:07:08.615948 26657 net.cpp:139] Memory required for data: 283377664
I0227 19:07:08.615955 26657 layer_factory.hpp:77] Creating layer res4f_branch2b_relu
I0227 19:07:08.615962 26657 net.cpp:86] Creating Layer res4f_branch2b_relu
I0227 19:07:08.615968 26657 net.cpp:408] res4f_branch2b_relu <- res4f_branch2b
I0227 19:07:08.615973 26657 net.cpp:369] res4f_branch2b_relu -> res4f_branch2b (in-place)
I0227 19:07:08.616200 26657 net.cpp:124] Setting up res4f_branch2b_relu
I0227 19:07:08.616212 26657 net.cpp:131] Top shape: 1 256 16 16 (65536)
I0227 19:07:08.616216 26657 net.cpp:139] Memory required for data: 283639808
I0227 19:07:08.616219 26657 layer_factory.hpp:77] Creating layer res4f_branch2c
I0227 19:07:08.616230 26657 net.cpp:86] Creating Layer res4f_branch2c
I0227 19:07:08.616233 26657 net.cpp:408] res4f_branch2c <- res4f_branch2b
I0227 19:07:08.616241 26657 net.cpp:382] res4f_branch2c -> res4f_branch2c
I0227 19:07:08.618142 26657 net.cpp:124] Setting up res4f_branch2c
I0227 19:07:08.618160 26657 net.cpp:131] Top shape: 1 1024 16 16 (262144)
I0227 19:07:08.618175 26657 net.cpp:139] Memory required for data: 284688384
I0227 19:07:08.618181 26657 layer_factory.hpp:77] Creating layer bn4f_branch2c
I0227 19:07:08.618190 26657 net.cpp:86] Creating Layer bn4f_branch2c
I0227 19:07:08.618194 26657 net.cpp:408] bn4f_branch2c <- res4f_branch2c
I0227 19:07:08.618201 26657 net.cpp:369] bn4f_branch2c -> res4f_branch2c (in-place)
I0227 19:07:08.618453 26657 net.cpp:124] Setting up bn4f_branch2c
I0227 19:07:08.618463 26657 net.cpp:131] Top shape: 1 1024 16 16 (262144)
I0227 19:07:08.618468 26657 net.cpp:139] Memory required for data: 285736960
I0227 19:07:08.618505 26657 layer_factory.hpp:77] Creating layer scale4f_branch2c
I0227 19:07:08.618513 26657 net.cpp:86] Creating Layer scale4f_branch2c
I0227 19:07:08.618520 26657 net.cpp:408] scale4f_branch2c <- res4f_branch2c
I0227 19:07:08.618525 26657 net.cpp:369] scale4f_branch2c -> res4f_branch2c (in-place)
I0227 19:07:08.618583 26657 layer_factory.hpp:77] Creating layer scale4f_branch2c
I0227 19:07:08.618731 26657 net.cpp:124] Setting up scale4f_branch2c
I0227 19:07:08.618741 26657 net.cpp:131] Top shape: 1 1024 16 16 (262144)
I0227 19:07:08.618746 26657 net.cpp:139] Memory required for data: 286785536
I0227 19:07:08.618752 26657 layer_factory.hpp:77] Creating layer res4f
I0227 19:07:08.618759 26657 net.cpp:86] Creating Layer res4f
I0227 19:07:08.618763 26657 net.cpp:408] res4f <- res4e_res4e_relu_0_split_1
I0227 19:07:08.618768 26657 net.cpp:408] res4f <- res4f_branch2c
I0227 19:07:08.618773 26657 net.cpp:382] res4f -> res4f
I0227 19:07:08.618798 26657 net.cpp:124] Setting up res4f
I0227 19:07:08.618806 26657 net.cpp:131] Top shape: 1 1024 16 16 (262144)
I0227 19:07:08.618810 26657 net.cpp:139] Memory required for data: 287834112
I0227 19:07:08.618813 26657 layer_factory.hpp:77] Creating layer res4f_relu
I0227 19:07:08.618821 26657 net.cpp:86] Creating Layer res4f_relu
I0227 19:07:08.618825 26657 net.cpp:408] res4f_relu <- res4f
I0227 19:07:08.618830 26657 net.cpp:369] res4f_relu -> res4f (in-place)
I0227 19:07:08.619069 26657 net.cpp:124] Setting up res4f_relu
I0227 19:07:08.619081 26657 net.cpp:131] Top shape: 1 1024 16 16 (262144)
I0227 19:07:08.619086 26657 net.cpp:139] Memory required for data: 288882688
I0227 19:07:08.619089 26657 layer_factory.hpp:77] Creating layer res4f_res4f_relu_0_split
I0227 19:07:08.619096 26657 net.cpp:86] Creating Layer res4f_res4f_relu_0_split
I0227 19:07:08.619099 26657 net.cpp:408] res4f_res4f_relu_0_split <- res4f
I0227 19:07:08.619107 26657 net.cpp:382] res4f_res4f_relu_0_split -> res4f_res4f_relu_0_split_0
I0227 19:07:08.619114 26657 net.cpp:382] res4f_res4f_relu_0_split -> res4f_res4f_relu_0_split_1
I0227 19:07:08.619123 26657 net.cpp:382] res4f_res4f_relu_0_split -> res4f_res4f_relu_0_split_2
I0227 19:07:08.619129 26657 net.cpp:382] res4f_res4f_relu_0_split -> res4f_res4f_relu_0_split_3
I0227 19:07:08.619221 26657 net.cpp:124] Setting up res4f_res4f_relu_0_split
I0227 19:07:08.619232 26657 net.cpp:131] Top shape: 1 1024 16 16 (262144)
I0227 19:07:08.619237 26657 net.cpp:131] Top shape: 1 1024 16 16 (262144)
I0227 19:07:08.619241 26657 net.cpp:131] Top shape: 1 1024 16 16 (262144)
I0227 19:07:08.619246 26657 net.cpp:131] Top shape: 1 1024 16 16 (262144)
I0227 19:07:08.619249 26657 net.cpp:139] Memory required for data: 293076992
I0227 19:07:08.619252 26657 layer_factory.hpp:77] Creating layer res5a_branch1
I0227 19:07:08.619261 26657 net.cpp:86] Creating Layer res5a_branch1
I0227 19:07:08.619267 26657 net.cpp:408] res5a_branch1 <- res4f_res4f_relu_0_split_0
I0227 19:07:08.619273 26657 net.cpp:382] res5a_branch1 -> res5a_branch1
I0227 19:07:08.625018 26657 net.cpp:124] Setting up res5a_branch1
I0227 19:07:08.625036 26657 net.cpp:131] Top shape: 1 2048 8 8 (131072)
I0227 19:07:08.625039 26657 net.cpp:139] Memory required for data: 293601280
I0227 19:07:08.625057 26657 layer_factory.hpp:77] Creating layer bn5a_branch1
I0227 19:07:08.625066 26657 net.cpp:86] Creating Layer bn5a_branch1
I0227 19:07:08.625074 26657 net.cpp:408] bn5a_branch1 <- res5a_branch1
I0227 19:07:08.625080 26657 net.cpp:369] bn5a_branch1 -> res5a_branch1 (in-place)
I0227 19:07:08.625334 26657 net.cpp:124] Setting up bn5a_branch1
I0227 19:07:08.625345 26657 net.cpp:131] Top shape: 1 2048 8 8 (131072)
I0227 19:07:08.625349 26657 net.cpp:139] Memory required for data: 294125568
I0227 19:07:08.625357 26657 layer_factory.hpp:77] Creating layer scale5a_branch1
I0227 19:07:08.625363 26657 net.cpp:86] Creating Layer scale5a_branch1
I0227 19:07:08.625368 26657 net.cpp:408] scale5a_branch1 <- res5a_branch1
I0227 19:07:08.625375 26657 net.cpp:369] scale5a_branch1 -> res5a_branch1 (in-place)
I0227 19:07:08.625422 26657 layer_factory.hpp:77] Creating layer scale5a_branch1
I0227 19:07:08.625564 26657 net.cpp:124] Setting up scale5a_branch1
I0227 19:07:08.625576 26657 net.cpp:131] Top shape: 1 2048 8 8 (131072)
I0227 19:07:08.625578 26657 net.cpp:139] Memory required for data: 294649856
I0227 19:07:08.625586 26657 layer_factory.hpp:77] Creating layer res5a_branch2a
I0227 19:07:08.625592 26657 net.cpp:86] Creating Layer res5a_branch2a
I0227 19:07:08.625600 26657 net.cpp:408] res5a_branch2a <- res4f_res4f_relu_0_split_1
I0227 19:07:08.625607 26657 net.cpp:382] res5a_branch2a -> res5a_branch2a
I0227 19:07:08.627982 26657 net.cpp:124] Setting up res5a_branch2a
I0227 19:07:08.628010 26657 net.cpp:131] Top shape: 1 512 8 8 (32768)
I0227 19:07:08.628015 26657 net.cpp:139] Memory required for data: 294780928
I0227 19:07:08.628033 26657 layer_factory.hpp:77] Creating layer bn5a_branch2a
I0227 19:07:08.628041 26657 net.cpp:86] Creating Layer bn5a_branch2a
I0227 19:07:08.628044 26657 net.cpp:408] bn5a_branch2a <- res5a_branch2a
I0227 19:07:08.628051 26657 net.cpp:369] bn5a_branch2a -> res5a_branch2a (in-place)
I0227 19:07:08.628347 26657 net.cpp:124] Setting up bn5a_branch2a
I0227 19:07:08.628360 26657 net.cpp:131] Top shape: 1 512 8 8 (32768)
I0227 19:07:08.628374 26657 net.cpp:139] Memory required for data: 294912000
I0227 19:07:08.628382 26657 layer_factory.hpp:77] Creating layer scale5a_branch2a
I0227 19:07:08.628402 26657 net.cpp:86] Creating Layer scale5a_branch2a
I0227 19:07:08.628407 26657 net.cpp:408] scale5a_branch2a <- res5a_branch2a
I0227 19:07:08.628422 26657 net.cpp:369] scale5a_branch2a -> res5a_branch2a (in-place)
I0227 19:07:08.628484 26657 layer_factory.hpp:77] Creating layer scale5a_branch2a
I0227 19:07:08.628641 26657 net.cpp:124] Setting up scale5a_branch2a
I0227 19:07:08.628651 26657 net.cpp:131] Top shape: 1 512 8 8 (32768)
I0227 19:07:08.628655 26657 net.cpp:139] Memory required for data: 295043072
I0227 19:07:08.628661 26657 layer_factory.hpp:77] Creating layer res5a_branch2a_relu
I0227 19:07:08.628669 26657 net.cpp:86] Creating Layer res5a_branch2a_relu
I0227 19:07:08.628672 26657 net.cpp:408] res5a_branch2a_relu <- res5a_branch2a
I0227 19:07:08.628679 26657 net.cpp:369] res5a_branch2a_relu -> res5a_branch2a (in-place)
I0227 19:07:08.629066 26657 net.cpp:124] Setting up res5a_branch2a_relu
I0227 19:07:08.629081 26657 net.cpp:131] Top shape: 1 512 8 8 (32768)
I0227 19:07:08.629096 26657 net.cpp:139] Memory required for data: 295174144
I0227 19:07:08.629099 26657 layer_factory.hpp:77] Creating layer res5a_branch2b
I0227 19:07:08.629109 26657 net.cpp:86] Creating Layer res5a_branch2b
I0227 19:07:08.629113 26657 net.cpp:408] res5a_branch2b <- res5a_branch2a
I0227 19:07:08.629132 26657 net.cpp:382] res5a_branch2b -> res5a_branch2b
I0227 19:07:08.635251 26657 net.cpp:124] Setting up res5a_branch2b
I0227 19:07:08.635268 26657 net.cpp:131] Top shape: 1 512 8 8 (32768)
I0227 19:07:08.635284 26657 net.cpp:139] Memory required for data: 295305216
I0227 19:07:08.635290 26657 layer_factory.hpp:77] Creating layer bn5a_branch2b
I0227 19:07:08.635298 26657 net.cpp:86] Creating Layer bn5a_branch2b
I0227 19:07:08.635303 26657 net.cpp:408] bn5a_branch2b <- res5a_branch2b
I0227 19:07:08.635321 26657 net.cpp:369] bn5a_branch2b -> res5a_branch2b (in-place)
I0227 19:07:08.635581 26657 net.cpp:124] Setting up bn5a_branch2b
I0227 19:07:08.635593 26657 net.cpp:131] Top shape: 1 512 8 8 (32768)
I0227 19:07:08.635597 26657 net.cpp:139] Memory required for data: 295436288
I0227 19:07:08.635606 26657 layer_factory.hpp:77] Creating layer scale5a_branch2b
I0227 19:07:08.635612 26657 net.cpp:86] Creating Layer scale5a_branch2b
I0227 19:07:08.635617 26657 net.cpp:408] scale5a_branch2b <- res5a_branch2b
I0227 19:07:08.635622 26657 net.cpp:369] scale5a_branch2b -> res5a_branch2b (in-place)
I0227 19:07:08.635679 26657 layer_factory.hpp:77] Creating layer scale5a_branch2b
I0227 19:07:08.635834 26657 net.cpp:124] Setting up scale5a_branch2b
I0227 19:07:08.635844 26657 net.cpp:131] Top shape: 1 512 8 8 (32768)
I0227 19:07:08.635848 26657 net.cpp:139] Memory required for data: 295567360
I0227 19:07:08.635854 26657 layer_factory.hpp:77] Creating layer res5a_branch2b_relu
I0227 19:07:08.635860 26657 net.cpp:86] Creating Layer res5a_branch2b_relu
I0227 19:07:08.635864 26657 net.cpp:408] res5a_branch2b_relu <- res5a_branch2b
I0227 19:07:08.635871 26657 net.cpp:369] res5a_branch2b_relu -> res5a_branch2b (in-place)
I0227 19:07:08.636260 26657 net.cpp:124] Setting up res5a_branch2b_relu
I0227 19:07:08.636276 26657 net.cpp:131] Top shape: 1 512 8 8 (32768)
I0227 19:07:08.636291 26657 net.cpp:139] Memory required for data: 295698432
I0227 19:07:08.636294 26657 layer_factory.hpp:77] Creating layer res5a_branch2c
I0227 19:07:08.636303 26657 net.cpp:86] Creating Layer res5a_branch2c
I0227 19:07:08.636307 26657 net.cpp:408] res5a_branch2c <- res5a_branch2b
I0227 19:07:08.636325 26657 net.cpp:382] res5a_branch2c -> res5a_branch2c
I0227 19:07:08.640419 26657 net.cpp:124] Setting up res5a_branch2c
I0227 19:07:08.640436 26657 net.cpp:131] Top shape: 1 2048 8 8 (131072)
I0227 19:07:08.640453 26657 net.cpp:139] Memory required for data: 296222720
I0227 19:07:08.640460 26657 layer_factory.hpp:77] Creating layer bn5a_branch2c
I0227 19:07:08.640467 26657 net.cpp:86] Creating Layer bn5a_branch2c
I0227 19:07:08.640473 26657 net.cpp:408] bn5a_branch2c <- res5a_branch2c
I0227 19:07:08.640491 26657 net.cpp:369] bn5a_branch2c -> res5a_branch2c (in-place)
I0227 19:07:08.640770 26657 net.cpp:124] Setting up bn5a_branch2c
I0227 19:07:08.640792 26657 net.cpp:131] Top shape: 1 2048 8 8 (131072)
I0227 19:07:08.640807 26657 net.cpp:139] Memory required for data: 296747008
I0227 19:07:08.640816 26657 layer_factory.hpp:77] Creating layer scale5a_branch2c
I0227 19:07:08.640825 26657 net.cpp:86] Creating Layer scale5a_branch2c
I0227 19:07:08.640830 26657 net.cpp:408] scale5a_branch2c <- res5a_branch2c
I0227 19:07:08.640836 26657 net.cpp:369] scale5a_branch2c -> res5a_branch2c (in-place)
I0227 19:07:08.640887 26657 layer_factory.hpp:77] Creating layer scale5a_branch2c
I0227 19:07:08.641049 26657 net.cpp:124] Setting up scale5a_branch2c
I0227 19:07:08.641060 26657 net.cpp:131] Top shape: 1 2048 8 8 (131072)
I0227 19:07:08.641064 26657 net.cpp:139] Memory required for data: 297271296
I0227 19:07:08.641072 26657 layer_factory.hpp:77] Creating layer res5a
I0227 19:07:08.641078 26657 net.cpp:86] Creating Layer res5a
I0227 19:07:08.641083 26657 net.cpp:408] res5a <- res5a_branch1
I0227 19:07:08.641088 26657 net.cpp:408] res5a <- res5a_branch2c
I0227 19:07:08.641094 26657 net.cpp:382] res5a -> res5a
I0227 19:07:08.641130 26657 net.cpp:124] Setting up res5a
I0227 19:07:08.641139 26657 net.cpp:131] Top shape: 1 2048 8 8 (131072)
I0227 19:07:08.641144 26657 net.cpp:139] Memory required for data: 297795584
I0227 19:07:08.641147 26657 layer_factory.hpp:77] Creating layer res5a_relu
I0227 19:07:08.641154 26657 net.cpp:86] Creating Layer res5a_relu
I0227 19:07:08.641157 26657 net.cpp:408] res5a_relu <- res5a
I0227 19:07:08.641162 26657 net.cpp:369] res5a_relu -> res5a (in-place)
I0227 19:07:08.641392 26657 net.cpp:124] Setting up res5a_relu
I0227 19:07:08.641405 26657 net.cpp:131] Top shape: 1 2048 8 8 (131072)
I0227 19:07:08.641409 26657 net.cpp:139] Memory required for data: 298319872
I0227 19:07:08.641414 26657 layer_factory.hpp:77] Creating layer res5a_res5a_relu_0_split
I0227 19:07:08.641422 26657 net.cpp:86] Creating Layer res5a_res5a_relu_0_split
I0227 19:07:08.641427 26657 net.cpp:408] res5a_res5a_relu_0_split <- res5a
I0227 19:07:08.641433 26657 net.cpp:382] res5a_res5a_relu_0_split -> res5a_res5a_relu_0_split_0
I0227 19:07:08.641440 26657 net.cpp:382] res5a_res5a_relu_0_split -> res5a_res5a_relu_0_split_1
I0227 19:07:08.641499 26657 net.cpp:124] Setting up res5a_res5a_relu_0_split
I0227 19:07:08.641508 26657 net.cpp:131] Top shape: 1 2048 8 8 (131072)
I0227 19:07:08.641513 26657 net.cpp:131] Top shape: 1 2048 8 8 (131072)
I0227 19:07:08.641516 26657 net.cpp:139] Memory required for data: 299368448
I0227 19:07:08.641520 26657 layer_factory.hpp:77] Creating layer res5b_branch2a
I0227 19:07:08.641530 26657 net.cpp:86] Creating Layer res5b_branch2a
I0227 19:07:08.641535 26657 net.cpp:408] res5b_branch2a <- res5a_res5a_relu_0_split_0
I0227 19:07:08.641541 26657 net.cpp:382] res5b_branch2a -> res5b_branch2a
I0227 19:07:08.645186 26657 net.cpp:124] Setting up res5b_branch2a
I0227 19:07:08.645203 26657 net.cpp:131] Top shape: 1 512 8 8 (32768)
I0227 19:07:08.645220 26657 net.cpp:139] Memory required for data: 299499520
I0227 19:07:08.645226 26657 layer_factory.hpp:77] Creating layer bn5b_branch2a
I0227 19:07:08.645236 26657 net.cpp:86] Creating Layer bn5b_branch2a
I0227 19:07:08.645239 26657 net.cpp:408] bn5b_branch2a <- res5b_branch2a
I0227 19:07:08.645246 26657 net.cpp:369] bn5b_branch2a -> res5b_branch2a (in-place)
I0227 19:07:08.645555 26657 net.cpp:124] Setting up bn5b_branch2a
I0227 19:07:08.645567 26657 net.cpp:131] Top shape: 1 512 8 8 (32768)
I0227 19:07:08.645582 26657 net.cpp:139] Memory required for data: 299630592
I0227 19:07:08.645592 26657 layer_factory.hpp:77] Creating layer scale5b_branch2a
I0227 19:07:08.645599 26657 net.cpp:86] Creating Layer scale5b_branch2a
I0227 19:07:08.645604 26657 net.cpp:408] scale5b_branch2a <- res5b_branch2a
I0227 19:07:08.645609 26657 net.cpp:369] scale5b_branch2a -> res5b_branch2a (in-place)
I0227 19:07:08.645669 26657 layer_factory.hpp:77] Creating layer scale5b_branch2a
I0227 19:07:08.645833 26657 net.cpp:124] Setting up scale5b_branch2a
I0227 19:07:08.645844 26657 net.cpp:131] Top shape: 1 512 8 8 (32768)
I0227 19:07:08.645848 26657 net.cpp:139] Memory required for data: 299761664
I0227 19:07:08.645854 26657 layer_factory.hpp:77] Creating layer res5b_branch2a_relu
I0227 19:07:08.645862 26657 net.cpp:86] Creating Layer res5b_branch2a_relu
I0227 19:07:08.645866 26657 net.cpp:408] res5b_branch2a_relu <- res5b_branch2a
I0227 19:07:08.645871 26657 net.cpp:369] res5b_branch2a_relu -> res5b_branch2a (in-place)
I0227 19:07:08.646282 26657 net.cpp:124] Setting up res5b_branch2a_relu
I0227 19:07:08.646296 26657 net.cpp:131] Top shape: 1 512 8 8 (32768)
I0227 19:07:08.646312 26657 net.cpp:139] Memory required for data: 299892736
I0227 19:07:08.646317 26657 layer_factory.hpp:77] Creating layer res5b_branch2b
I0227 19:07:08.646325 26657 net.cpp:86] Creating Layer res5b_branch2b
I0227 19:07:08.646330 26657 net.cpp:408] res5b_branch2b <- res5b_branch2a
I0227 19:07:08.646349 26657 net.cpp:382] res5b_branch2b -> res5b_branch2b
I0227 19:07:08.652436 26657 net.cpp:124] Setting up res5b_branch2b
I0227 19:07:08.652464 26657 net.cpp:131] Top shape: 1 512 8 8 (32768)
I0227 19:07:08.652468 26657 net.cpp:139] Memory required for data: 300023808
I0227 19:07:08.652474 26657 layer_factory.hpp:77] Creating layer bn5b_branch2b
I0227 19:07:08.652482 26657 net.cpp:86] Creating Layer bn5b_branch2b
I0227 19:07:08.652487 26657 net.cpp:408] bn5b_branch2b <- res5b_branch2b
I0227 19:07:08.652505 26657 net.cpp:369] bn5b_branch2b -> res5b_branch2b (in-place)
I0227 19:07:08.652818 26657 net.cpp:124] Setting up bn5b_branch2b
I0227 19:07:08.652830 26657 net.cpp:131] Top shape: 1 512 8 8 (32768)
I0227 19:07:08.652834 26657 net.cpp:139] Memory required for data: 300154880
I0227 19:07:08.652843 26657 layer_factory.hpp:77] Creating layer scale5b_branch2b
I0227 19:07:08.652849 26657 net.cpp:86] Creating Layer scale5b_branch2b
I0227 19:07:08.652853 26657 net.cpp:408] scale5b_branch2b <- res5b_branch2b
I0227 19:07:08.652859 26657 net.cpp:369] scale5b_branch2b -> res5b_branch2b (in-place)
I0227 19:07:08.652920 26657 layer_factory.hpp:77] Creating layer scale5b_branch2b
I0227 19:07:08.653082 26657 net.cpp:124] Setting up scale5b_branch2b
I0227 19:07:08.653093 26657 net.cpp:131] Top shape: 1 512 8 8 (32768)
I0227 19:07:08.653097 26657 net.cpp:139] Memory required for data: 300285952
I0227 19:07:08.653105 26657 layer_factory.hpp:77] Creating layer res5b_branch2b_relu
I0227 19:07:08.653110 26657 net.cpp:86] Creating Layer res5b_branch2b_relu
I0227 19:07:08.653115 26657 net.cpp:408] res5b_branch2b_relu <- res5b_branch2b
I0227 19:07:08.653121 26657 net.cpp:369] res5b_branch2b_relu -> res5b_branch2b (in-place)
I0227 19:07:08.653534 26657 net.cpp:124] Setting up res5b_branch2b_relu
I0227 19:07:08.653548 26657 net.cpp:131] Top shape: 1 512 8 8 (32768)
I0227 19:07:08.653563 26657 net.cpp:139] Memory required for data: 300417024
I0227 19:07:08.653568 26657 layer_factory.hpp:77] Creating layer res5b_branch2c
I0227 19:07:08.653576 26657 net.cpp:86] Creating Layer res5b_branch2c
I0227 19:07:08.653580 26657 net.cpp:408] res5b_branch2c <- res5b_branch2b
I0227 19:07:08.653599 26657 net.cpp:382] res5b_branch2c -> res5b_branch2c
I0227 19:07:08.657109 26657 net.cpp:124] Setting up res5b_branch2c
I0227 19:07:08.657125 26657 net.cpp:131] Top shape: 1 2048 8 8 (131072)
I0227 19:07:08.657141 26657 net.cpp:139] Memory required for data: 300941312
I0227 19:07:08.657147 26657 layer_factory.hpp:77] Creating layer bn5b_branch2c
I0227 19:07:08.657156 26657 net.cpp:86] Creating Layer bn5b_branch2c
I0227 19:07:08.657161 26657 net.cpp:408] bn5b_branch2c <- res5b_branch2c
I0227 19:07:08.657166 26657 net.cpp:369] bn5b_branch2c -> res5b_branch2c (in-place)
I0227 19:07:08.657979 26657 net.cpp:124] Setting up bn5b_branch2c
I0227 19:07:08.657992 26657 net.cpp:131] Top shape: 1 2048 8 8 (131072)
I0227 19:07:08.658007 26657 net.cpp:139] Memory required for data: 301465600
I0227 19:07:08.658016 26657 layer_factory.hpp:77] Creating layer scale5b_branch2c
I0227 19:07:08.658023 26657 net.cpp:86] Creating Layer scale5b_branch2c
I0227 19:07:08.658027 26657 net.cpp:408] scale5b_branch2c <- res5b_branch2c
I0227 19:07:08.658044 26657 net.cpp:369] scale5b_branch2c -> res5b_branch2c (in-place)
I0227 19:07:08.658094 26657 layer_factory.hpp:77] Creating layer scale5b_branch2c
I0227 19:07:08.658260 26657 net.cpp:124] Setting up scale5b_branch2c
I0227 19:07:08.658272 26657 net.cpp:131] Top shape: 1 2048 8 8 (131072)
I0227 19:07:08.658277 26657 net.cpp:139] Memory required for data: 301989888
I0227 19:07:08.658283 26657 layer_factory.hpp:77] Creating layer res5b
I0227 19:07:08.658291 26657 net.cpp:86] Creating Layer res5b
I0227 19:07:08.658299 26657 net.cpp:408] res5b <- res5a_res5a_relu_0_split_1
I0227 19:07:08.658305 26657 net.cpp:408] res5b <- res5b_branch2c
I0227 19:07:08.658310 26657 net.cpp:382] res5b -> res5b
I0227 19:07:08.658336 26657 net.cpp:124] Setting up res5b
I0227 19:07:08.658345 26657 net.cpp:131] Top shape: 1 2048 8 8 (131072)
I0227 19:07:08.658349 26657 net.cpp:139] Memory required for data: 302514176
I0227 19:07:08.658352 26657 layer_factory.hpp:77] Creating layer res5b_relu
I0227 19:07:08.658359 26657 net.cpp:86] Creating Layer res5b_relu
I0227 19:07:08.658362 26657 net.cpp:408] res5b_relu <- res5b
I0227 19:07:08.658370 26657 net.cpp:369] res5b_relu -> res5b (in-place)
I0227 19:07:08.658749 26657 net.cpp:124] Setting up res5b_relu
I0227 19:07:08.658776 26657 net.cpp:131] Top shape: 1 2048 8 8 (131072)
I0227 19:07:08.658790 26657 net.cpp:139] Memory required for data: 303038464
I0227 19:07:08.658794 26657 layer_factory.hpp:77] Creating layer res5b_res5b_relu_0_split
I0227 19:07:08.658802 26657 net.cpp:86] Creating Layer res5b_res5b_relu_0_split
I0227 19:07:08.658807 26657 net.cpp:408] res5b_res5b_relu_0_split <- res5b
I0227 19:07:08.658823 26657 net.cpp:382] res5b_res5b_relu_0_split -> res5b_res5b_relu_0_split_0
I0227 19:07:08.658831 26657 net.cpp:382] res5b_res5b_relu_0_split -> res5b_res5b_relu_0_split_1
I0227 19:07:08.658874 26657 net.cpp:124] Setting up res5b_res5b_relu_0_split
I0227 19:07:08.658882 26657 net.cpp:131] Top shape: 1 2048 8 8 (131072)
I0227 19:07:08.658886 26657 net.cpp:131] Top shape: 1 2048 8 8 (131072)
I0227 19:07:08.658890 26657 net.cpp:139] Memory required for data: 304087040
I0227 19:07:08.658893 26657 layer_factory.hpp:77] Creating layer res5c_branch2a
I0227 19:07:08.658913 26657 net.cpp:86] Creating Layer res5c_branch2a
I0227 19:07:08.658917 26657 net.cpp:408] res5c_branch2a <- res5b_res5b_relu_0_split_0
I0227 19:07:08.658923 26657 net.cpp:382] res5c_branch2a -> res5c_branch2a
I0227 19:07:08.662323 26657 net.cpp:124] Setting up res5c_branch2a
I0227 19:07:08.662339 26657 net.cpp:131] Top shape: 1 512 8 8 (32768)
I0227 19:07:08.662355 26657 net.cpp:139] Memory required for data: 304218112
I0227 19:07:08.662361 26657 layer_factory.hpp:77] Creating layer bn5c_branch2a
I0227 19:07:08.662369 26657 net.cpp:86] Creating Layer bn5c_branch2a
I0227 19:07:08.662374 26657 net.cpp:408] bn5c_branch2a <- res5c_branch2a
I0227 19:07:08.662394 26657 net.cpp:369] bn5c_branch2a -> res5c_branch2a (in-place)
I0227 19:07:08.662641 26657 net.cpp:124] Setting up bn5c_branch2a
I0227 19:07:08.662652 26657 net.cpp:131] Top shape: 1 512 8 8 (32768)
I0227 19:07:08.662657 26657 net.cpp:139] Memory required for data: 304349184
I0227 19:07:08.662665 26657 layer_factory.hpp:77] Creating layer scale5c_branch2a
I0227 19:07:08.662673 26657 net.cpp:86] Creating Layer scale5c_branch2a
I0227 19:07:08.662678 26657 net.cpp:408] scale5c_branch2a <- res5c_branch2a
I0227 19:07:08.662684 26657 net.cpp:369] scale5c_branch2a -> res5c_branch2a (in-place)
I0227 19:07:08.662742 26657 layer_factory.hpp:77] Creating layer scale5c_branch2a
I0227 19:07:08.662885 26657 net.cpp:124] Setting up scale5c_branch2a
I0227 19:07:08.662907 26657 net.cpp:131] Top shape: 1 512 8 8 (32768)
I0227 19:07:08.662910 26657 net.cpp:139] Memory required for data: 304480256
I0227 19:07:08.662917 26657 layer_factory.hpp:77] Creating layer res5c_branch2a_relu
I0227 19:07:08.662924 26657 net.cpp:86] Creating Layer res5c_branch2a_relu
I0227 19:07:08.662927 26657 net.cpp:408] res5c_branch2a_relu <- res5c_branch2a
I0227 19:07:08.662935 26657 net.cpp:369] res5c_branch2a_relu -> res5c_branch2a (in-place)
I0227 19:07:08.663362 26657 net.cpp:124] Setting up res5c_branch2a_relu
I0227 19:07:08.663378 26657 net.cpp:131] Top shape: 1 512 8 8 (32768)
I0227 19:07:08.663393 26657 net.cpp:139] Memory required for data: 304611328
I0227 19:07:08.663398 26657 layer_factory.hpp:77] Creating layer res5c_branch2b
I0227 19:07:08.663406 26657 net.cpp:86] Creating Layer res5c_branch2b
I0227 19:07:08.663411 26657 net.cpp:408] res5c_branch2b <- res5c_branch2a
I0227 19:07:08.663431 26657 net.cpp:382] res5c_branch2b -> res5c_branch2b
I0227 19:07:08.669450 26657 net.cpp:124] Setting up res5c_branch2b
I0227 19:07:08.669467 26657 net.cpp:131] Top shape: 1 512 8 8 (32768)
I0227 19:07:08.669483 26657 net.cpp:139] Memory required for data: 304742400
I0227 19:07:08.669489 26657 layer_factory.hpp:77] Creating layer bn5c_branch2b
I0227 19:07:08.669498 26657 net.cpp:86] Creating Layer bn5c_branch2b
I0227 19:07:08.669503 26657 net.cpp:408] bn5c_branch2b <- res5c_branch2b
I0227 19:07:08.669520 26657 net.cpp:369] bn5c_branch2b -> res5c_branch2b (in-place)
I0227 19:07:08.669788 26657 net.cpp:124] Setting up bn5c_branch2b
I0227 19:07:08.669801 26657 net.cpp:131] Top shape: 1 512 8 8 (32768)
I0227 19:07:08.669816 26657 net.cpp:139] Memory required for data: 304873472
I0227 19:07:08.669836 26657 layer_factory.hpp:77] Creating layer scale5c_branch2b
I0227 19:07:08.669842 26657 net.cpp:86] Creating Layer scale5c_branch2b
I0227 19:07:08.669847 26657 net.cpp:408] scale5c_branch2b <- res5c_branch2b
I0227 19:07:08.669852 26657 net.cpp:369] scale5c_branch2b -> res5c_branch2b (in-place)
I0227 19:07:08.669910 26657 layer_factory.hpp:77] Creating layer scale5c_branch2b
I0227 19:07:08.670065 26657 net.cpp:124] Setting up scale5c_branch2b
I0227 19:07:08.670076 26657 net.cpp:131] Top shape: 1 512 8 8 (32768)
I0227 19:07:08.670080 26657 net.cpp:139] Memory required for data: 305004544
I0227 19:07:08.670087 26657 layer_factory.hpp:77] Creating layer res5c_branch2b_relu
I0227 19:07:08.670095 26657 net.cpp:86] Creating Layer res5c_branch2b_relu
I0227 19:07:08.670099 26657 net.cpp:408] res5c_branch2b_relu <- res5c_branch2b
I0227 19:07:08.670104 26657 net.cpp:369] res5c_branch2b_relu -> res5c_branch2b (in-place)
I0227 19:07:08.670536 26657 net.cpp:124] Setting up res5c_branch2b_relu
I0227 19:07:08.670550 26657 net.cpp:131] Top shape: 1 512 8 8 (32768)
I0227 19:07:08.670567 26657 net.cpp:139] Memory required for data: 305135616
I0227 19:07:08.670570 26657 layer_factory.hpp:77] Creating layer res5c_branch2c
I0227 19:07:08.670580 26657 net.cpp:86] Creating Layer res5c_branch2c
I0227 19:07:08.670585 26657 net.cpp:408] res5c_branch2c <- res5c_branch2b
I0227 19:07:08.670603 26657 net.cpp:382] res5c_branch2c -> res5c_branch2c
I0227 19:07:08.674160 26657 net.cpp:124] Setting up res5c_branch2c
I0227 19:07:08.674176 26657 net.cpp:131] Top shape: 1 2048 8 8 (131072)
I0227 19:07:08.674192 26657 net.cpp:139] Memory required for data: 305659904
I0227 19:07:08.674198 26657 layer_factory.hpp:77] Creating layer bn5c_branch2c
I0227 19:07:08.674206 26657 net.cpp:86] Creating Layer bn5c_branch2c
I0227 19:07:08.674211 26657 net.cpp:408] bn5c_branch2c <- res5c_branch2c
I0227 19:07:08.674229 26657 net.cpp:369] bn5c_branch2c -> res5c_branch2c (in-place)
I0227 19:07:08.674453 26657 net.cpp:124] Setting up bn5c_branch2c
I0227 19:07:08.674464 26657 net.cpp:131] Top shape: 1 2048 8 8 (131072)
I0227 19:07:08.674468 26657 net.cpp:139] Memory required for data: 306184192
I0227 19:07:08.674476 26657 layer_factory.hpp:77] Creating layer scale5c_branch2c
I0227 19:07:08.674485 26657 net.cpp:86] Creating Layer scale5c_branch2c
I0227 19:07:08.674494 26657 net.cpp:408] scale5c_branch2c <- res5c_branch2c
I0227 19:07:08.674499 26657 net.cpp:369] scale5c_branch2c -> res5c_branch2c (in-place)
I0227 19:07:08.674545 26657 layer_factory.hpp:77] Creating layer scale5c_branch2c
I0227 19:07:08.674703 26657 net.cpp:124] Setting up scale5c_branch2c
I0227 19:07:08.674715 26657 net.cpp:131] Top shape: 1 2048 8 8 (131072)
I0227 19:07:08.674718 26657 net.cpp:139] Memory required for data: 306708480
I0227 19:07:08.674726 26657 layer_factory.hpp:77] Creating layer res5c
I0227 19:07:08.674732 26657 net.cpp:86] Creating Layer res5c
I0227 19:07:08.674736 26657 net.cpp:408] res5c <- res5b_res5b_relu_0_split_1
I0227 19:07:08.674741 26657 net.cpp:408] res5c <- res5c_branch2c
I0227 19:07:08.674746 26657 net.cpp:382] res5c -> res5c
I0227 19:07:08.674773 26657 net.cpp:124] Setting up res5c
I0227 19:07:08.674782 26657 net.cpp:131] Top shape: 1 2048 8 8 (131072)
I0227 19:07:08.674787 26657 net.cpp:139] Memory required for data: 307232768
I0227 19:07:08.674790 26657 layer_factory.hpp:77] Creating layer res5c_relu
I0227 19:07:08.674796 26657 net.cpp:86] Creating Layer res5c_relu
I0227 19:07:08.674800 26657 net.cpp:408] res5c_relu <- res5c
I0227 19:07:08.674805 26657 net.cpp:369] res5c_relu -> res5c (in-place)
I0227 19:07:08.675027 26657 net.cpp:124] Setting up res5c_relu
I0227 19:07:08.675040 26657 net.cpp:131] Top shape: 1 2048 8 8 (131072)
I0227 19:07:08.675043 26657 net.cpp:139] Memory required for data: 307757056
I0227 19:07:08.675047 26657 layer_factory.hpp:77] Creating layer res5c_res5c_relu_0_split
I0227 19:07:08.675055 26657 net.cpp:86] Creating Layer res5c_res5c_relu_0_split
I0227 19:07:08.675058 26657 net.cpp:408] res5c_res5c_relu_0_split <- res5c
I0227 19:07:08.675065 26657 net.cpp:382] res5c_res5c_relu_0_split -> res5c_res5c_relu_0_split_0
I0227 19:07:08.675072 26657 net.cpp:382] res5c_res5c_relu_0_split -> res5c_res5c_relu_0_split_1
I0227 19:07:08.675115 26657 net.cpp:124] Setting up res5c_res5c_relu_0_split
I0227 19:07:08.675124 26657 net.cpp:131] Top shape: 1 2048 8 8 (131072)
I0227 19:07:08.675130 26657 net.cpp:131] Top shape: 1 2048 8 8 (131072)
I0227 19:07:08.675134 26657 net.cpp:139] Memory required for data: 308805632
I0227 19:07:08.675143 26657 layer_factory.hpp:77] Creating layer score_fr_sem
I0227 19:07:08.675168 26657 net.cpp:86] Creating Layer score_fr_sem
I0227 19:07:08.675173 26657 net.cpp:408] score_fr_sem <- res5c_res5c_relu_0_split_0
I0227 19:07:08.675182 26657 net.cpp:382] score_fr_sem -> score_fr_sem
I0227 19:07:08.678563 26657 net.cpp:124] Setting up score_fr_sem
I0227 19:07:08.678580 26657 net.cpp:131] Top shape: 1 33 8 8 (2112)
I0227 19:07:08.678596 26657 net.cpp:139] Memory required for data: 308814080
I0227 19:07:08.678604 26657 layer_factory.hpp:77] Creating layer upscore2_sem
I0227 19:07:08.678614 26657 net.cpp:86] Creating Layer upscore2_sem
I0227 19:07:08.678619 26657 net.cpp:408] upscore2_sem <- score_fr_sem
I0227 19:07:08.678625 26657 net.cpp:382] upscore2_sem -> upscore2_sem
I0227 19:07:08.678854 26657 net.cpp:124] Setting up upscore2_sem
I0227 19:07:08.678866 26657 net.cpp:131] Top shape: 1 33 18 18 (10692)
I0227 19:07:08.678870 26657 net.cpp:139] Memory required for data: 308856848
I0227 19:07:08.678876 26657 layer_factory.hpp:77] Creating layer score_pool4_sem
I0227 19:07:08.678885 26657 net.cpp:86] Creating Layer score_pool4_sem
I0227 19:07:08.678894 26657 net.cpp:408] score_pool4_sem <- res4f_res4f_relu_0_split_2
I0227 19:07:08.678901 26657 net.cpp:382] score_pool4_sem -> score_pool4_sem
I0227 19:07:08.681756 26657 net.cpp:124] Setting up score_pool4_sem
I0227 19:07:08.681772 26657 net.cpp:131] Top shape: 1 33 16 16 (8448)
I0227 19:07:08.681788 26657 net.cpp:139] Memory required for data: 308890640
I0227 19:07:08.681795 26657 layer_factory.hpp:77] Creating layer score_pool4_sem_score_pool4_sem_0_split
I0227 19:07:08.681804 26657 net.cpp:86] Creating Layer score_pool4_sem_score_pool4_sem_0_split
I0227 19:07:08.681809 26657 net.cpp:408] score_pool4_sem_score_pool4_sem_0_split <- score_pool4_sem
I0227 19:07:08.681828 26657 net.cpp:382] score_pool4_sem_score_pool4_sem_0_split -> score_pool4_sem_score_pool4_sem_0_split_0
I0227 19:07:08.681836 26657 net.cpp:382] score_pool4_sem_score_pool4_sem_0_split -> score_pool4_sem_score_pool4_sem_0_split_1
I0227 19:07:08.681874 26657 net.cpp:124] Setting up score_pool4_sem_score_pool4_sem_0_split
I0227 19:07:08.681884 26657 net.cpp:131] Top shape: 1 33 16 16 (8448)
I0227 19:07:08.681888 26657 net.cpp:131] Top shape: 1 33 16 16 (8448)
I0227 19:07:08.681891 26657 net.cpp:139] Memory required for data: 308958224
I0227 19:07:08.681895 26657 layer_factory.hpp:77] Creating layer score_pool4c_sem
I0227 19:07:08.681903 26657 net.cpp:86] Creating Layer score_pool4c_sem
I0227 19:07:08.681908 26657 net.cpp:408] score_pool4c_sem <- upscore2_sem
I0227 19:07:08.681913 26657 net.cpp:408] score_pool4c_sem <- score_pool4_sem_score_pool4_sem_0_split_0
I0227 19:07:08.681921 26657 net.cpp:382] score_pool4c_sem -> upscore2c_sem
I0227 19:07:08.681951 26657 net.cpp:124] Setting up score_pool4c_sem
I0227 19:07:08.681958 26657 net.cpp:131] Top shape: 1 33 16 16 (8448)
I0227 19:07:08.681962 26657 net.cpp:139] Memory required for data: 308992016
I0227 19:07:08.681965 26657 layer_factory.hpp:77] Creating layer fuse_pool4_sem
I0227 19:07:08.681973 26657 net.cpp:86] Creating Layer fuse_pool4_sem
I0227 19:07:08.681982 26657 net.cpp:408] fuse_pool4_sem <- score_pool4_sem_score_pool4_sem_0_split_1
I0227 19:07:08.681985 26657 net.cpp:408] fuse_pool4_sem <- upscore2c_sem
I0227 19:07:08.681993 26657 net.cpp:382] fuse_pool4_sem -> fuse_pool4_sem
I0227 19:07:08.682018 26657 net.cpp:124] Setting up fuse_pool4_sem
I0227 19:07:08.682025 26657 net.cpp:131] Top shape: 1 33 16 16 (8448)
I0227 19:07:08.682029 26657 net.cpp:139] Memory required for data: 309025808
I0227 19:07:08.682032 26657 layer_factory.hpp:77] Creating layer upscore_skip16_sem
I0227 19:07:08.682040 26657 net.cpp:86] Creating Layer upscore_skip16_sem
I0227 19:07:08.682046 26657 net.cpp:408] upscore_skip16_sem <- fuse_pool4_sem
I0227 19:07:08.682054 26657 net.cpp:382] upscore_skip16_sem -> upscore_sem
I0227 19:07:08.684823 26657 net.cpp:124] Setting up upscore_skip16_sem
I0227 19:07:08.684839 26657 net.cpp:131] Top shape: 1 33 272 272 (2441472)
I0227 19:07:08.684854 26657 net.cpp:139] Memory required for data: 318791696
I0227 19:07:08.684860 26657 layer_factory.hpp:77] Creating layer score_sem
I0227 19:07:08.684867 26657 net.cpp:86] Creating Layer score_sem
I0227 19:07:08.684871 26657 net.cpp:408] score_sem <- upscore_sem
I0227 19:07:08.684876 26657 net.cpp:408] score_sem <- data_data_0_split_1
I0227 19:07:08.684882 26657 net.cpp:382] score_sem -> score_sem
I0227 19:07:08.684909 26657 net.cpp:124] Setting up score_sem
I0227 19:07:08.684918 26657 net.cpp:131] Top shape: 1 33 256 256 (2162688)
I0227 19:07:08.684933 26657 net.cpp:139] Memory required for data: 327442448
I0227 19:07:08.684937 26657 layer_factory.hpp:77] Creating layer loss
I0227 19:07:08.684944 26657 net.cpp:86] Creating Layer loss
I0227 19:07:08.684948 26657 net.cpp:408] loss <- score_sem
I0227 19:07:08.684953 26657 net.cpp:408] loss <- sem
I0227 19:07:08.684958 26657 net.cpp:382] loss -> loss
I0227 19:07:08.684967 26657 layer_factory.hpp:77] Creating layer loss
I0227 19:07:08.689852 26657 net.cpp:124] Setting up loss
I0227 19:07:08.689868 26657 net.cpp:131] Top shape: (1)
I0227 19:07:08.689883 26657 net.cpp:134]     with loss weight 1
I0227 19:07:08.689894 26657 net.cpp:139] Memory required for data: 327442452
I0227 19:07:08.689898 26657 layer_factory.hpp:77] Creating layer score_fr_geo
I0227 19:07:08.689921 26657 net.cpp:86] Creating Layer score_fr_geo
I0227 19:07:08.689927 26657 net.cpp:408] score_fr_geo <- res5c_res5c_relu_0_split_1
I0227 19:07:08.689935 26657 net.cpp:382] score_fr_geo -> score_fr_geo
I0227 19:07:08.691467 26657 net.cpp:124] Setting up score_fr_geo
I0227 19:07:08.691483 26657 net.cpp:131] Top shape: 1 3 8 8 (192)
I0227 19:07:08.691498 26657 net.cpp:139] Memory required for data: 327443220
I0227 19:07:08.691505 26657 layer_factory.hpp:77] Creating layer upscore2_geo
I0227 19:07:08.691515 26657 net.cpp:86] Creating Layer upscore2_geo
I0227 19:07:08.691531 26657 net.cpp:408] upscore2_geo <- score_fr_geo
I0227 19:07:08.691539 26657 net.cpp:382] upscore2_geo -> upscore2_geo
I0227 19:07:08.691751 26657 net.cpp:124] Setting up upscore2_geo
I0227 19:07:08.691762 26657 net.cpp:131] Top shape: 1 3 18 18 (972)
I0227 19:07:08.691766 26657 net.cpp:139] Memory required for data: 327447108
I0227 19:07:08.691771 26657 layer_factory.hpp:77] Creating layer score_pool4_geo
I0227 19:07:08.691781 26657 net.cpp:86] Creating Layer score_pool4_geo
I0227 19:07:08.691786 26657 net.cpp:408] score_pool4_geo <- res4f_res4f_relu_0_split_3
I0227 19:07:08.691794 26657 net.cpp:382] score_pool4_geo -> score_pool4_geo
I0227 19:07:08.693234 26657 net.cpp:124] Setting up score_pool4_geo
I0227 19:07:08.693250 26657 net.cpp:131] Top shape: 1 3 16 16 (768)
I0227 19:07:08.693266 26657 net.cpp:139] Memory required for data: 327450180
I0227 19:07:08.693274 26657 layer_factory.hpp:77] Creating layer score_pool4_geo_score_pool4_geo_0_split
I0227 19:07:08.693318 26657 net.cpp:86] Creating Layer score_pool4_geo_score_pool4_geo_0_split
I0227 19:07:08.693325 26657 net.cpp:408] score_pool4_geo_score_pool4_geo_0_split <- score_pool4_geo
I0227 19:07:08.693332 26657 net.cpp:382] score_pool4_geo_score_pool4_geo_0_split -> score_pool4_geo_score_pool4_geo_0_split_0
I0227 19:07:08.693341 26657 net.cpp:382] score_pool4_geo_score_pool4_geo_0_split -> score_pool4_geo_score_pool4_geo_0_split_1
I0227 19:07:08.693405 26657 net.cpp:124] Setting up score_pool4_geo_score_pool4_geo_0_split
I0227 19:07:08.693416 26657 net.cpp:131] Top shape: 1 3 16 16 (768)
I0227 19:07:08.693434 26657 net.cpp:131] Top shape: 1 3 16 16 (768)
I0227 19:07:08.693436 26657 net.cpp:139] Memory required for data: 327456324
I0227 19:07:08.693440 26657 layer_factory.hpp:77] Creating layer score_pool4c_geo
I0227 19:07:08.693449 26657 net.cpp:86] Creating Layer score_pool4c_geo
I0227 19:07:08.693454 26657 net.cpp:408] score_pool4c_geo <- upscore2_geo
I0227 19:07:08.693459 26657 net.cpp:408] score_pool4c_geo <- score_pool4_geo_score_pool4_geo_0_split_0
I0227 19:07:08.693464 26657 net.cpp:382] score_pool4c_geo -> upscore2c_geo
I0227 19:07:08.693491 26657 net.cpp:124] Setting up score_pool4c_geo
I0227 19:07:08.693498 26657 net.cpp:131] Top shape: 1 3 16 16 (768)
I0227 19:07:08.693502 26657 net.cpp:139] Memory required for data: 327459396
I0227 19:07:08.693506 26657 layer_factory.hpp:77] Creating layer fuse_pool4_geo
I0227 19:07:08.693512 26657 net.cpp:86] Creating Layer fuse_pool4_geo
I0227 19:07:08.693516 26657 net.cpp:408] fuse_pool4_geo <- score_pool4_geo_score_pool4_geo_0_split_1
I0227 19:07:08.693521 26657 net.cpp:408] fuse_pool4_geo <- upscore2c_geo
I0227 19:07:08.693528 26657 net.cpp:382] fuse_pool4_geo -> fuse_pool4_geo
I0227 19:07:08.693569 26657 net.cpp:124] Setting up fuse_pool4_geo
I0227 19:07:08.693579 26657 net.cpp:131] Top shape: 1 3 16 16 (768)
I0227 19:07:08.693583 26657 net.cpp:139] Memory required for data: 327462468
I0227 19:07:08.693588 26657 layer_factory.hpp:77] Creating layer upscore_skip16_geo
I0227 19:07:08.693598 26657 net.cpp:86] Creating Layer upscore_skip16_geo
I0227 19:07:08.693606 26657 net.cpp:408] upscore_skip16_geo <- fuse_pool4_geo
I0227 19:07:08.693614 26657 net.cpp:382] upscore_skip16_geo -> upscore_geo
I0227 19:07:08.693836 26657 net.cpp:124] Setting up upscore_skip16_geo
I0227 19:07:08.693847 26657 net.cpp:131] Top shape: 1 3 272 272 (221952)
I0227 19:07:08.693851 26657 net.cpp:139] Memory required for data: 328350276
I0227 19:07:08.693856 26657 layer_factory.hpp:77] Creating layer score_geo
I0227 19:07:08.693862 26657 net.cpp:86] Creating Layer score_geo
I0227 19:07:08.693867 26657 net.cpp:408] score_geo <- upscore_geo
I0227 19:07:08.693872 26657 net.cpp:408] score_geo <- data_data_0_split_2
I0227 19:07:08.693877 26657 net.cpp:382] score_geo -> score_geo
I0227 19:07:08.693928 26657 net.cpp:124] Setting up score_geo
I0227 19:07:08.693938 26657 net.cpp:131] Top shape: 1 3 256 256 (196608)
I0227 19:07:08.693940 26657 net.cpp:139] Memory required for data: 329136708
I0227 19:07:08.693944 26657 layer_factory.hpp:77] Creating layer loss_geo
I0227 19:07:08.693950 26657 net.cpp:86] Creating Layer loss_geo
I0227 19:07:08.693955 26657 net.cpp:408] loss_geo <- score_geo
I0227 19:07:08.693959 26657 net.cpp:408] loss_geo <- geo
I0227 19:07:08.693964 26657 net.cpp:382] loss_geo -> loss_geo
…
