…
test_initialization: false
average_loss: 20
iter_size: 1
I0227 19:12:15.221832 26678 solver.cpp:77] Creating training net from train_net file: trainval.prototxt
I0227 19:12:15.241364 26678 net.cpp:53] Initializing net from parameters: 
name: "FCNResNet152-skip"
state {
  phase: TRAIN
}
layer {
  name: "data"
  type: "Python"
  top: "data"
  top: "sem"
  top: "geo"
  python_param {
    module: "siftflow_layers_distillation_2"
    layer: "SIFTFlowSegDataLayer"
    param_str: "{\'siftflow_dir\': \'../data/sift-flow\', \'seed\': 1337, \'split\': \'trainval\'}"
  }
}
layer {
  name: "conv1"
  type: "Convolution"
  bottom: "data"
  top: "conv1"
  convolution_param {
    num_output: 64
    bias_term: false
    pad: 3
    kernel_size: 7
    stride: 2
  }
}
layer {
  name: "bn_conv1"
  type: "BatchNorm"
  bottom: "conv1"
  top: "conv1"
  batch_norm_param {
    use_global_stats: true
  }
}
layer {
  name: "scale_conv1"
  type: "Scale"
  bottom: "conv1"
  top: "conv1"
  scale_param {
    bias_term: true
  }
}
layer {
  name: "conv1_relu"
  type: "ReLU"
  bottom: "conv1"
  top: "conv1"
}
layer {
  name: "pool1"
  type: "Pooling"
  bottom: "conv1"
  top: "pool1"
  pooling_param {
    pool: MAX
    kernel_size: 3
    stride: 2
  }
}
layer {
  name: "res2a_branch1"
  type: "Convolution"
  bottom: "pool1"
  top: "res2a_branch1"
  convolution_param {
    num_output: 256
    bias_term: false
    pad: 0
    kernel_size: 1
    stride: 1
  }
}
layer {
  name: "bn2a_branch1"
  type: "BatchNorm"
  bottom: "res2a_branch1"
  top: "res2a_branch1"
  batch_norm_param {
    use_global_stats: true
  }
}
layer {
  name: "scale2a_branch1"
  type: "Scale"
  bottom: "res2a_branch1"
  top: "res2a_branch1"
  scale_param {
    bias_term: true
  }
}
layer {
  name: "res2a_branch2a"
  type: "Convolution"
  bottom: "pool1"
  top: "res2a_branch2a"
  convolution_param {
    num_output: 64
    bias_term: false
    pad: 0
    kernel_size: 1
    stride: 1
  }
}
layer {
  name: "bn2a_branch2a"
  type: "BatchNorm"
  bottom: "res2a_branch2a"
  top: "res2a_branch2a"
  batch_norm_param {
    use_global_stats: true
  }
}
layer {
  name: "scale2a_branch2a"
  type: "Scale"
  bottom: "res2a_branch2a"
  top: "res2a_branch2a"
  scale_param {
    bias_term: true
  }
}
layer {
  name: "res2a_branch2a_relu"
  type: "ReLU"
  bottom: "res2a_branch2a"
  top: "res2a_branch2a"
}
layer {
  name: "res2a_branch2b"
  type: "Convolution"
  bottom: "res2a_branch2a"
  top: "res2a_branch2b"
  convolution_param {
    num_output: 64
    bias_term: false
    pad: 1
    kernel_size: 3
    stride: 1
  }
}
layer {
  name: "bn2a_branch2b"
  type: "BatchNorm"
  bottom: "res2a_branch2b"
  top: "res2a_branch2b"
  batch_norm_param {
    use_global_stats: true
  }
}
layer {
  name: "scale2a_branch2b"
  type: "Scale"
  bottom: "res2a_branch2b"
  top: "res2a_branch2b"
  scale_param {
    bias_term: true
  }
}
layer {
  name: "res2a_branch2b_relu"
  type: "ReLU"
  bottom: "res2a_branch2b"
  top: "res2a_branch2b"
}
layer {
  name: "res2a_branch2c"
  type: "Convolution"
  bottom: "res2a_branch2b"
  top: "res2a_branch2c"
  convolution_param {
    num_output: 256
    bias_term: false
    pad: 0
    kernel_size: 1
    stride: 1
  }
}
layer {
  name: "bn2a_branch2c"
  type: "BatchNorm"
  bottom: "res2a_branch2c"
  top: "res2a_branch2c"
  batch_norm_param {
    use_global_stats: true
  }
}
layer {
  name: "scale2a_branch2c"
  type: "Scale"
  bottom: "res2a_branch2c"
  top: "res2a_branch2c"
  scale_param {
    bias_term: true
  }
}
layer {
  name: "res2a"
  type: "Eltwise"
  bottom: "res2a_branch1"
  bottom: "res2a_branch2c"
  top: "res2a"
}
layer {
  name: "res2a_relu"
  type: "ReLU"
  bottom: "res2a"
  top: "res2a"
}
layer {
  name: "res2b_branch2a"
  type: "Convolution"
  bottom: "res2a"
  top: "res2b_branch2a"
  convolution_param {
    num_output: 64
    bias_term: false
    pad: 0
    kernel_size: 1
    stride: 1
  }
}
layer {
  name: "bn2b_branch2a"
  type: "BatchNorm"
  bottom: "res2b_branch2a"
  top: "res2b_branch2a"
  batch_norm_param {
    use_global_stats: true
  }
}
layer {
  name: "scale2b_branch2a"
  type: "Scale"
  bottom: "res2b_branch2a"
  top: "res2b_branch2a"
  scale_param {
    bias_term: true
  }
}
layer {
  name: "res2b_branch2a_relu"
  type: "ReLU"
  bottom: "res2b_branch2a"
  top: "res2b_branch2a"
}
layer {
  name: "res2b_branch2b"
  type: "Convolution"
  bottom: "res2b_branch2a"
  top: "res2b_branch2b"
  convolution_param {
    num_output: 64
    bias_term: false
    pad: 1
    kernel_size: 3
    stride: 1
  }
}
layer {
  name: "bn2b_branch2b"
  type: "BatchNorm"
  bottom: "res2b_branch2b"
  top: "res2b_branch2b"
  batch_norm_param {
    use_global_stats: true
  }
}
layer {
  name: "scale2b_branch2b"
  type: "Scale"
  bottom: "res2b_branch2b"
  top: "res2b_branch2b"
  scale_param {
    bias_term: true
  }
}
layer {
  name: "res2b_branch2b_relu"
  type: "ReLU"
  bottom: "res2b_branch2b"
  top: "res2b_branch2b"
}
layer {
  name: "res2b_branch2c"
  type: "Convolution"
  bottom: "res2b_branch2b"
  top: "res2b_branch2c"
  convolution_param {
    num_output: 256
    bias_term: false
    pad: 0
    kernel_size: 1
    stride: 1
  }
}
layer {
  name: "bn2b_branch2c"
  type: "BatchNorm"
  bottom: "res2b_branch2c"
  top: "res2b_branch2c"
  batch_norm_param {
    use_global_stats: true
  }
}
layer {
  name: "scale2b_branch2c"
  type: "Scale"
  bottom: "res2b_branch2c"
  top: "res2b_branch2c"
  scale_param {
    bias_term: true
  }
}
layer {
  name: "res2b"
  type: "Eltwise"
  bottom: "res2a"
  bottom: "res2b_branch2c"
  top: "res2b"
}
layer {
  name: "res2b_relu"
  type: "ReLU"
  bottom: "res2b"
  top: "res2b"
}
layer {
  name: "res2c_branch2a"
  type: "Convolution"
  bottom: "res2b"
  top: "res2c_branch2a"
  convolution_param {
    num_output: 64
    bias_term: false
    pad: 0
    kernel_size: 1
    stride: 1
  }
}
layer {
  name: "bn2c_branch2a"
  type: "BatchNorm"
  bottom: "res2c_branch2a"
  top: "res2c_branch2a"
  batch_norm_param {
    use_global_stats: true
  }
}
layer {
  name: "scale2c_branch2a"
  type: "Scale"
  bottom: "res2c_branch2a"
  top: "res2c_branch2a"
  scale_param {
    bias_term: true
  }
}
layer {
  name: "res2c_branch2a_relu"
  type: "ReLU"
  bottom: "res2c_branch2a"
  top: "res2c_branch2a"
}
layer {
  name: "res2c_branch2b"
  type: "Convolution"
  bottom: "res2c_branch2a"
  top: "res2c_branch2b"
  convolution_param {
    num_output: 64
    bias_term: false
    pad: 1
    kernel_size: 3
    stride: 1
  }
}
layer {
  name: "bn2c_branch2b"
  type: "BatchNorm"
  bottom: "res2c_branch2b"
  top: "res2c_branch2b"
  batch_norm_param {
    use_global_stats: true
  }
}
layer {
  name: "scale2c_branch2b"
  type: "Scale"
  bottom: "res2c_branch2b"
  top: "res2c_branch2b"
  scale_param {
    bias_term: true
  }
}
layer {
  name: "res2c_branch2b_relu"
  type: "ReLU"
  bottom: "res2c_branch2b"
  top: "res2c_branch2b"
}
layer {
  name: "res2c_branch2c"
  type: "Convolution"
  bottom: "res2c_branch2b"
  top: "res2c_branch2c"
  convolution_param {
    num_output: 256
    bias_term: false
    pad: 0
    kernel_size: 1
    stride: 1
  }
}
layer {
  name: "bn2c_branch2c"
  type: "BatchNorm"
  bottom: "res2c_branch2c"
  top: "res2c_branch2c"
  batch_norm_param {
    use_global_stats: true
  }
}
layer {
  name: "scale2c_branch2c"
  type: "Scale"
  bottom: "res2c_branch2c"
  top: "res2c_branch2c"
  scale_param {
    bias_term: true
  }
}
layer {
  name: "res2c"
  type: "Eltwise"
  bottom: "res2b"
  bottom: "res2c_branch2c"
  top: "res2c"
}
layer {
  name: "res2c_relu"
  type: "ReLU"
  bottom: "res2c"
  top: "res2c"
}
layer {
  name: "res3a_branch1"
  type: "Convolution"
  bottom: "res2c"
  top: "res3a_branch1"
  convolution_param {
    num_output: 512
    bias_term: false
    pad: 0
    kernel_size: 1
    stride: 2
  }
}
layer {
  name: "bn3a_branch1"
  type: "BatchNorm"
  bottom: "res3a_branch1"
  top: "res3a_branch1"
  batch_norm_param {
    use_global_stats: true
  }
}
layer {
  name: "scale3a_branch1"
  type: "Scale"
  bottom: "res3a_branch1"
  top: "res3a_branch1"
  scale_param {
    bias_term: true
  }
}
layer {
  name: "res3a_branch2a"
  type: "Convolution"
  bottom: "res2c"
  top: "res3a_branch2a"
  convolution_param {
    num_output: 128
    bias_term: false
    pad: 0
    kernel_size: 1
    stride: 2
  }
}
layer {
  name: "bn3a_branch2a"
  type: "BatchNorm"
  bottom: "res3a_branch2a"
  top: "res3a_branch2a"
  batch_norm_param {
    use_global_stats: true
  }
}
layer {
  name: "scale3a_branch2a"
  type: "Scale"
  bottom: "res3a_branch2a"
  top: "res3a_branch2a"
  scale_param {
    bias_term: true
  }
}
layer {
  name: "res3a_branch2a_relu"
  type: "ReLU"
  bottom: "res3a_branch2a"
  top: "res3a_branch2a"
}
layer {
  name: "res3a_branch2b"
  type: "Convolution"
  bottom: "res3a_branch2a"
  top: "res3a_branch2b"
  convolution_param {
    num_output: 128
    bias_term: false
    pad: 1
    kernel_size: 3
    stride: 1
  }
}
layer {
  name: "bn3a_branch2b"
  type: "BatchNorm"
  bottom: "res3a_branch2b"
  top: "res3a_branch2b"
  batch_norm_param {
    use_global_stats: true
  }
}
layer {
  name: "scale3a_branch2b"
  type: "Scale"
  bottom: "res3a_branch2b"
  top: "res3a_branch2b"
  scale_param {
    bias_term: true
  }
}
layer {
  name: "res3a_branch2b_relu"
  type: "ReLU"
  bottom: "res3a_branch2b"
  top: "res3a_branch2b"
}
layer {
  name: "res3a_branch2c"
  type: "Convolution"
  bottom: "res3a_branch2b"
  top: "res3a_branch2c"
  convolution_param {
    num_output: 512
    bias_term: false
    pad: 0
    kernel_size: 1
    stride: 1
  }
}
layer {
  name: "bn3a_branch2c"
  type: "BatchNorm"
  bottom: "res3a_branch2c"
  top: "res3a_branch2c"
  batch_norm_param {
    use_global_stats: true
  }
}
layer {
  name: "scale3a_branch2c"
  type: "Scale"
  bottom: "res3a_branch2c"
  top: "res3a_branch2c"
  scale_param {
    bias_term: true
  }
}
layer {
  name: "res3a"
  type: "Eltwise"
  bottom: "res3a_branch1"
  bottom: "res3a_branch2c"
  top: "res3a"
}
layer {
  name: "res3a_relu"
  type: "ReLU"
  bottom: "res3a"
  top: "res3a"
}
layer {
  name: "res3b1_branch2a"
  type: "Convolution"
  bottom: "res3a"
  top: "res3b1_branch2a"
  convolution_param {
    num_output: 128
    bias_term: false
    pad: 0
    kernel_size: 1
    stride: 1
  }
}
layer {
  name: "bn3b1_branch2a"
  type: "BatchNorm"
  bottom: "res3b1_branch2a"
  top: "res3b1_branch2a"
  batch_norm_param {
    use_global_stats: true
  }
}
layer {
  name: "scale3b1_branch2a"
  type: "Scale"
  bottom: "res3b1_branch2a"
  top: "res3b1_branch2a"
  scale_param {
    bias_term: true
  }
}
layer {
  name: "res3b1_branch2a_relu"
  type: "ReLU"
  bottom: "res3b1_branch2a"
  top: "res3b1_branch2a"
}
layer {
  name: "res3b1_branch2b"
  type: "Convolution"
  bottom: "res3b1_branch2a"
  top: "res3b1_branch2b"
  convolution_param {
    num_output: 128
    bias_term: false
    pad: 1
    kernel_size: 3
    stride: 1
  }
}
layer {
  name: "bn3b1_branch2b"
  type: "BatchNorm"
  bottom: "res3b1_branch2b"
  top: "res3b1_branch2b"
  batch_norm_param {
    use_global_stats: true
  }
}
layer {
  name: "scale3b1_branch2b"
  type: "Scale"
  bottom: "res3b1_branch2b"
  top: "res3b1_branch2b"
  scale_param {
    bias_term: true
  }
}
layer {
  name: "res3b1_branch2b_relu"
  type: "ReLU"
  bottom: "res3b1_branch2b"
  top: "res3b1_branch2b"
}
layer {
  name: "res3b1_branch2c"
  type: "Convolution"
  bottom: "res3b1_branch2b"
  top: "res3b1_branch2c"
  convolution_param {
    num_output: 512
    bias_term: false
    pad: 0
    kernel_size: 1
    stride: 1
  }
}
layer {
  name: "bn3b1_branch2c"
  type: "BatchNorm"
  bottom: "res3b1_branch2c"
  top: "res3b1_branch2c"
  batch_norm_param {
    use_global_stats: true
  }
}
layer {
  name: "scale3b1_branch2c"
  type: "Scale"
  bottom: "res3b1_branch2c"
  top: "res3b1_branch2c"
  scale_param {
    bias_term: true
  }
}
layer {
  name: "res3b1"
  type: "Eltwise"
  bottom: "res3a"
  bottom: "res3b1_branch2c"
  top: "res3b1"
}
layer {
  name: "res3b1_relu"
  type: "ReLU"
  bottom: "res3b1"
  top: "res3b1"
}
layer {
  name: "res3b2_branch2a"
  type: "Convolution"
  bottom: "res3b1"
  top: "res3b2_branch2a"
  convolution_param {
    num_output: 128
    bias_term: false
    pad: 0
    kernel_size: 1
    stride: 1
  }
}
layer {
  name: "bn3b2_branch2a"
  type: "BatchNorm"
  bottom: "res3b2_branch2a"
  top: "res3b2_branch2a"
  batch_norm_param {
    use_global_stats: true
  }
}
layer {
  name: "scale3b2_branch2a"
  type: "Scale"
  bottom: "res3b2_branch2a"
  top: "res3b2_branch2a"
  scale_param {
    bias_term: true
  }
}
layer {
  name: "res3b2_branch2a_relu"
  type: "ReLU"
  bottom: "res3b2_branch2a"
  top: "res3b2_branch2a"
}
layer {
  name: "res3b2_branch2b"
  type: "Convolution"
  bottom: "res3b2_branch2a"
  top: "res3b2_branch2b"
  convolution_param {
    num_output: 128
    bias_term: false
    pad: 1
    kernel_size: 3
    stride: 1
  }
}
layer {
  name: "bn3b2_branch2b"
  type: "BatchNorm"
  bottom: "res3b2_branch2b"
  top: "res3b2_branch2b"
  batch_norm_param {
    use_global_stats: true
  }
}
layer {
  name: "scale3b2_branch2b"
  type: "Scale"
  bottom: "res3b2_branch2b"
  top: "res3b2_branch2b"
  scale_param {
    bias_term: true
  }
}
layer {
  name: "res3b2_branch2b_relu"
  type: "ReLU"
  bottom: "res3b2_branch2b"
  top: "res3b2_branch2b"
}
layer {
  name: "res3b2_branch2c"
  type: "Convolution"
  bottom: "res3b2_branch2b"
  top: "res3b2_branch2c"
  convolution_param {
    num_output: 512
    bias_term: false
    pad: 0
    kernel_size: 1
    stride: 1
  }
}
layer {
  name: "bn3b2_branch2c"
  type: "BatchNorm"
  bottom: "res3b2_branch2c"
  top: "res3b2_branch2c"
  batch_norm_param {
    use_global_stats: true
  }
}
layer {
  name: "scale3b2_branch2c"
  type: "Scale"
  bottom: "res3b2_branch2c"
  top: "res3b2_branch2c"
  scale_param {
    bias_term: true
  }
}
layer {
  name: "res3b2"
  type: "Eltwise"
  bottom: "res3b1"
  bottom: "res3b2_branch2c"
  top: "res3b2"
}
layer {
  name: "res3b2_relu"
  type: "ReLU"
  bottom: "res3b2"
  top: "res3b2"
}
layer {
  name: "res3b3_branch2a"
  type: "Convolution"
  bottom: "res3b2"
  top: "res3b3_branch2a"
  convolution_param {
    num_output: 128
    bias_term: false
    pad: 0
    kernel_size: 1
    stride: 1
  }
}
layer {
  name: "bn3b3_branch2a"
  type: "BatchNorm"
  bottom: "res3b3_branch2a"
  top: "res3b3_branch2a"
  batch_norm_param {
    use_global_stats: true
  }
}
layer {
  name: "scale3b3_branch2a"
  type: "Scale"
  bottom: "res3b3_branch2a"
  top: "res3b3_branch2a"
  scale_param {
    bias_term: true
  }
}
layer {
  name: "res3b3_branch2a_relu"
  type: "ReLU"
  bottom: "res3b3_branch2a"
  top: "res3b3_branch2a"
}
layer {
  name: "res3b3_branch2b"
  type: "Convolution"
  bottom: "res3b3_branch2a"
  top: "res3b3_branch2b"
  convolution_param {
    num_output: 128
    bias_term: false
    pad: 1
    kernel_size: 3
    stride: 1
  }
}
layer {
  name: "bn3b3_branch2b"
  type: "BatchNorm"
  bottom: "res3b3_branch2b"
  top: "res3b3_branch2b"
  batch_norm_param {
    use_global_stats: true
  }
}
layer {
  name: "scale3b3_branch2b"
  type: "Scale"
  bottom: "res3b3_branch2b"
  top: "res3b3_branch2b"
  scale_param {
    bias_term: true
  }
}
layer {
  name: "res3b3_branch2b_relu"
  type: "ReLU"
  bottom: "res3b3_branch2b"
  top: "res3b3_branch2b"
}
layer {
  name: "res3b3_branch2c"
  type: "Convolution"
  bottom: "res3b3_branch2b"
  top: "res3b3_branch2c"
  convolution_param {
    num_output: 512
    bias_term: false
    pad: 0
    kernel_size: 1
    stride: 1
  }
}
layer {
  name: "bn3b3_branch2c"
  type: "BatchNorm"
  bottom: "res3b3_branch2c"
  top: "res3b3_branch2c"
  batch_norm_param {
    use_global_stats: true
  }
}
layer {
  name: "scale3b3_branch2c"
  type: "Scale"
  bottom: "res3b3_branch2c"
  top: "res3b3_branch2c"
  scale_param {
    bias_term: true
  }
}
layer {
  name: "res3b3"
  type: "Eltwise"
  bottom: "res3b2"
  bottom: "res3b3_branch2c"
  top: "res3b3"
}
layer {
  name: "res3b3_relu"
  type: "ReLU"
  bottom: "res3b3"
  top: "res3b3"
}
layer {
  name: "res3b4_branch2a"
  type: "Convolution"
  bottom: "res3b3"
  top: "res3b4_branch2a"
  convolution_param {
    num_output: 128
    bias_term: false
    pad: 0
    kernel_size: 1
    stride: 1
  }
}
layer {
  name: "bn3b4_branch2a"
  type: "BatchNorm"
  bottom: "res3b4_branch2a"
  top: "res3b4_branch2a"
  batch_norm_param {
    use_global_stats: true
  }
}
layer {
  name: "scale3b4_branch2a"
  type: "Scale"
  bottom: "res3b4_branch2a"
  top: "res3b4_branch2a"
  scale_param {
    bias_term: true
  }
}
layer {
  name: "res3b4_branch2a_relu"
  type: "ReLU"
  bottom: "res3b4_branch2a"
  top: "res3b4_branch2a"
}
layer {
  name: "res3b4_branch2b"
  type: "Convolution"
  bottom: "res3b4_branch2a"
  top: "res3b4_branch2b"
  convolution_param {
    num_output: 128
    bias_term: false
    pad: 1
    kernel_size: 3
    stride: 1
  }
}
layer {
  name: "bn3b4_branch2b"
  type: "BatchNorm"
  bottom: "res3b4_branch2b"
  top: "res3b4_branch2b"
  batch_norm_param {
    use_global_stats: true
  }
}
layer {
  name: "scale3b4_branch2b"
  type: "Scale"
  bottom: "res3b4_branch2b"
  top: "res3b4_branch2b"
  scale_param {
    bias_term: true
  }
}
layer {
  name: "res3b4_branch2b_relu"
  type: "ReLU"
  bottom: "res3b4_branch2b"
  top: "res3b4_branch2b"
}
layer {
  name: "res3b4_branch2c"
  type: "Convolution"
  bottom: "res3b4_branch2b"
  top: "res3b4_branch2c"
  convolution_param {
    num_output: 512
    bias_term: false
    pad: 0
    kernel_size: 1
    stride: 1
  }
}
layer {
  name: "bn3b4_branch2c"
  type: "BatchNorm"
  bottom: "res3b4_branch2c"
  top: "res3b4_branch2c"
  batch_norm_param {
    use_global_stats: true
  }
}
layer {
  name: "scale3b4_branch2c"
  type: "Scale"
  bottom: "res3b4_branch2c"
  top: "res3b4_branch2c"
  scale_param {
    bias_term: true
  }
}
layer {
  name: "res3b4"
  type: "Eltwise"
  bottom: "res3b3"
  bottom: "res3b4_branch2c"
  top: "res3b4"
}
layer {
  name: "res3b4_relu"
  type: "ReLU"
  bottom: "res3b4"
  top: "res3b4"
}
layer {
  name: "res3b5_branch2a"
  type: "Convolution"
  bottom: "res3b4"
  top: "res3b5_branch2a"
  convolution_param {
    num_output: 128
    bias_term: false
    pad: 0
    kernel_size: 1
    stride: 1
  }
}
layer {
  name: "bn3b5_branch2a"
  type: "BatchNorm"
  bottom: "res3b5_branch2a"
  top: "res3b5_branch2a"
  batch_norm_param {
    use_global_stats: true
  }
}
layer {
  name: "scale3b5_branch2a"
  type: "Scale"
  bottom: "res3b5_branch2a"
  top: "res3b5_branch2a"
  scale_param {
    bias_term: true
  }
}
layer {
  name: "res3b5_branch2a_relu"
  type: "ReLU"
  bottom: "res3b5_branch2a"
  top: "res3b5_branch2a"
}
layer {
  name: "res3b5_branch2b"
  type: "Convolution"
  bottom: "res3b5_branch2a"
  top: "res3b5_branch2b"
  convolution_param {
    num_output: 128
    bias_term: false
    pad: 1
    kernel_size: 3
    stride: 1
  }
}
layer {
  name: "bn3b5_branch2b"
  type: "BatchNorm"
  bottom: "res3b5_branch2b"
  top: "res3b5_branch2b"
  batch_norm_param {
    use_global_stats: true
  }
}
layer {
  name: "scale3b5_branch2b"
  type: "Scale"
  bottom: "res3b5_branch2b"
  top: "res3b5_branch2b"
  scale_param {
    bias_term: true
  }
}
layer {
  name: "res3b5_branch2b_relu"
  type: "ReLU"
  bottom: "res3b5_branch2b"
  top: "res3b5_branch2b"
}
layer {
  name: "res3b5_branch2c"
  type: "Convolution"
  bottom: "res3b5_branch2b"
  top: "res3b5_branch2c"
  convolution_param {
    num_output: 512
    bias_term: false
    pad: 0
    kernel_size: 1
    stride: 1
  }
}
layer {
  name: "bn3b5_branch2c"
  type: "BatchNorm"
  bottom: "res3b5_branch2c"
  top: "res3b5_branch2c"
  batch_norm_param {
    use_global_stats: true
  }
}
layer {
  name: "scale3b5_branch2c"
  type: "Scale"
  bottom: "res3b5_branch2c"
  top: "res3b5_branch2c"
  scale_param {
    bias_term: true
  }
}
layer {
  name: "res3b5"
  type: "Eltwise"
  bottom: "res3b4"
  bottom: "res3b5_branch2c"
  top: "res3b5"
}
layer {
  name: "res3b5_relu"
  type: "ReLU"
  bottom: "res3b5"
  top: "res3b5"
}
layer {
  name: "res3b6_branch2a"
  type: "Convolution"
  bottom: "res3b5"
  top: "res3b6_branch2a"
  convolution_param {
    num_output: 128
    bias_term: false
    pad: 0
    kernel_size: 1
    stride: 1
  }
}
layer {
  name: "bn3b6_branch2a"
  type: "BatchNorm"
  bottom: "res3b6_branch2a"
  top: "res3b6_branch2a"
  batch_norm_param {
    use_global_stats: true
  }
}
layer {
  name: "scale3b6_branch2a"
  type: "Scale"
  bottom: "res3b6_branch2a"
  top: "res3b6_branch2a"
  scale_param {
    bias_term: true
  }
}
layer {
  name: "res3b6_branch2a_relu"
  type: "ReLU"
  bottom: "res3b6_branch2a"
  top: "res3b6_branch2a"
}
layer {
  name: "res3b6_branch2b"
  type: "Convolution"
  bottom: "res3b6_branch2a"
  top: "res3b6_branch2b"
  convolution_param {
    num_output: 128
    bias_term: false
    pad: 1
    kernel_size: 3
    stride: 1
  }
}
layer {
  name: "bn3b6_branch2b"
  type: "BatchNorm"
  bottom: "res3b6_branch2b"
  top: "res3b6_branch2b"
  batch_norm_param {
    use_global_stats: true
  }
}
layer {
  name: "scale3b6_branch2b"
  type: "Scale"
  bottom: "res3b6_branch2b"
  top: "res3b6_branch2b"
  scale_param {
    bias_term: true
  }
}
layer {
  name: "res3b6_branch2b_relu"
  type: "ReLU"
  bottom: "res3b6_branch2b"
  top: "res3b6_branch2b"
}
layer {
  name: "res3b6_branch2c"
  type: "Convolution"
  bottom: "res3b6_branch2b"
  top: "res3b6_branch2c"
  convolution_param {
    num_output: 512
    bias_term: false
    pad: 0
    kernel_size: 1
    stride: 1
  }
}
layer {
  name: "bn3b6_branch2c"
  type: "BatchNorm"
  bottom: "res3b6_branch2c"
  top: "res3b6_branch2c"
  batch_norm_param {
    use_global_stats: true
  }
}
layer {
  name: "scale3b6_branch2c"
  type: "Scale"
  bottom: "res3b6_branch2c"
  top: "res3b6_branch2c"
  scale_param {
    bias_term: true
  }
}
layer {
  name: "res3b6"
  type: "Eltwise"
  bottom: "res3b5"
  bottom: "res3b6_branch2c"
  top: "res3b6"
}
layer {
  name: "res3b6_relu"
  type: "ReLU"
  bottom: "res3b6"
  top: "res3b6"
}
layer {
  name: "res3b7_branch2a"
  type: "Convolution"
  bottom: "res3b6"
  top: "res3b7_branch2a"
  convolution_param {
    num_output: 128
    bias_term: false
    pad: 0
    kernel_size: 1
    stride: 1
  }
}
layer {
  name: "bn3b7_branch2a"
  type: "BatchNorm"
  bottom: "res3b7_branch2a"
  top: "res3b7_branch2a"
  batch_norm_param {
    use_global_stats: true
  }
}
layer {
  name: "scale3b7_branch2a"
  type: "Scale"
  bottom: "res3b7_branch2a"
  top: "res3b7_branch2a"
  scale_param {
    bias_term: true
  }
}
layer {
  name: "res3b7_branch2a_relu"
  type: "ReLU"
  bottom: "res3b7_branch2a"
  top: "res3b7_branch2a"
}
layer {
  name: "res3b7_branch2b"
  type: "Convolution"
  bottom: "res3b7_branch2a"
  top: "res3b7_branch2b"
  convolution_param {
    num_output: 128
    bias_term: false
    pad: 1
    kernel_size: 3
    stride: 1
  }
}
layer {
  name: "bn3b7_branch2b"
  type: "BatchNorm"
  bottom: "res3b7_branch2b"
  top: "res3b7_branch2b"
  batch_norm_param {
    use_global_stats: true
  }
}
layer {
  name: "scale3b7_branch2b"
  type: "Scale"
  bottom: "res3b7_branch2b"
  top: "res3b7_branch2b"
  scale_param {
    bias_term: true
  }
}
layer {
  name: "res3b7_branch2b_relu"
  type: "ReLU"
  bottom: "res3b7_branch2b"
  top: "res3b7_branch2b"
}
layer {
  name: "res3b7_branch2c"
  type: "Convolution"
  bottom: "res3b7_branch2b"
  top: "res3b7_branch2c"
  convolution_param {
    num_output: 512
    bias_term: false
    pad: 0
    kernel_size: 1
    stride: 1
  }
}
layer {
  name: "bn3b7_branch2c"
  type: "BatchNorm"
  bottom: "res3b7_branch2c"
  top: "res3b7_branch2c"
  batch_norm_param {
    use_global_stats: true
  }
}
layer {
  name: "scale3b7_branch2c"
  type: "Scale"
  bottom: "res3b7_branch2c"
  top: "res3b7_branch2c"
  scale_param {
    bias_term: true
  }
}
layer {
  name: "res3b7"
  type: "Eltwise"
  bottom: "res3b6"
  bottom: "res3b7_branch2c"
  top: "res3b7"
}
layer {
  name: "res3b7_relu"
  type: "ReLU"
  bottom: "res3b7"
  top: "res3b7"
}
layer {
  name: "res4a_branch1"
  type: "Convolution"
  bottom: "res3b7"
  top: "res4a_branch1"
  convolution_param {
    num_output: 1024
    bias_term: false
    pad: 0
    kernel_size: 1
    stride: 2
  }
}
layer {
  name: "bn4a_branch1"
  type: "BatchNorm"
  bottom: "res4a_branch1"
  top: "res4a_branch1"
  batch_norm_param {
    use_global_stats: true
  }
}
layer {
  name: "scale4a_branch1"
  type: "Scale"
  bottom: "res4a_branch1"
  top: "res4a_branch1"
  scale_param {
    bias_term: true
  }
}
layer {
  name: "res4a_branch2a"
  type: "Convolution"
  bottom: "res3b7"
  top: "res4a_branch2a"
  convolution_param {
    num_output: 256
    bias_term: false
    pad: 0
    kernel_size: 1
    stride: 2
  }
}
layer {
  name: "bn4a_branch2a"
  type: "BatchNorm"
  bottom: "res4a_branch2a"
  top: "res4a_branch2a"
  batch_norm_param {
    use_global_stats: true
  }
}
layer {
  name: "scale4a_branch2a"
  type: "Scale"
  bottom: "res4a_branch2a"
  top: "res4a_branch2a"
  scale_param {
    bias_term: true
  }
}
layer {
  name: "res4a_branch2a_relu"
  type: "ReLU"
  bottom: "res4a_branch2a"
  top: "res4a_branch2a"
}
layer {
  name: "res4a_branch2b"
  type: "Convolution"
  bottom: "res4a_branch2a"
  top: "res4a_branch2b"
  convolution_param {
    num_output: 256
    bias_term: false
    pad: 1
    kernel_size: 3
    stride: 1
  }
}
layer {
  name: "bn4a_branch2b"
  type: "BatchNorm"
  bottom: "res4a_branch2b"
  top: "res4a_branch2b"
  batch_norm_param {
    use_global_stats: true
  }
}
layer {
  name: "scale4a_branch2b"
  type: "Scale"
  bottom: "res4a_branch2b"
  top: "res4a_branch2b"
  scale_param {
    bias_term: true
  }
}
layer {
  name: "res4a_branch2b_relu"
  type: "ReLU"
  bottom: "res4a_branch2b"
  top: "res4a_branch2b"
}
layer {
  name: "res4a_branch2c"
  type: "Convolution"
  bottom: "res4a_branch2b"
  top: "res4a_branch2c"
  convolution_param {
    num_output: 1024
    bias_term: false
    pad: 0
    kernel_size: 1
    stride: 1
  }
}
layer {
  name: "bn4a_branch2c"
  type: "BatchNorm"
  bottom: "res4a_branch2c"
  top: "res4a_branch2c"
  batch_norm_param {
    use_global_stats: true
  }
}
layer {
  name: "scale4a_branch2c"
  type: "Scale"
  bottom: "res4a_branch2c"
  top: "res4a_branch2c"
  scale_param {
    bias_term: true
  }
}
layer {
  name: "res4a"
  type: "Eltwise"
  bottom: "res4a_branch1"
  bottom: "res4a_branch2c"
  top: "res4a"
}
layer {
  name: "res4a_relu"
  type: "ReLU"
  bottom: "res4a"
  top: "res4a"
}
layer {
  name: "res4b1_branch2a"
  type: "Convolution"
  bottom: "res4a"
  top: "res4b1_branch2a"
  convolution_param {
    num_output: 256
    bias_term: false
    pad: 0
    kernel_size: 1
    stride: 1
  }
}
layer {
  name: "bn4b1_branch2a"
  type: "BatchNorm"
  bottom: "res4b1_branch2a"
  top: "res4b1_branch2a"
  batch_norm_param {
    use_global_stats: true
  }
}
layer {
  name: "scale4b1_branch2a"
  type: "Scale"
  bottom: "res4b1_branch2a"
  top: "res4b1_branch2a"
  scale_param {
    bias_term: true
  }
}
layer {
  name: "res4b1_branch2a_relu"
  type: "ReLU"
  bottom: "res4b1_branch2a"
  top: "res4b1_branch2a"
}
layer {
  name: "res4b1_branch2b"
  type: "Convolution"
  bottom: "res4b1_branch2a"
  top: "res4b1_branch2b"
  convolution_param {
    num_output: 256
    bias_term: false
    pad: 1
    kernel_size: 3
    stride: 1
  }
}
layer {
  name: "bn4b1_branch2b"
  type: "BatchNorm"
  bottom: "res4b1_branch2b"
  top: "res4b1_branch2b"
  batch_norm_param {
    use_global_stats: true
  }
}
layer {
  name: "scale4b1_branch2b"
  type: "Scale"
  bottom: "res4b1_branch2b"
  top: "res4b1_branch2b"
  scale_param {
    bias_term: true
  }
}
layer {
  name: "res4b1_branch2b_relu"
  type: "ReLU"
  bottom: "res4b1_branch2b"
  top: "res4b1_branch2b"
}
layer {
  name: "res4b1_branch2c"
  type: "Convolution"
  bottom: "res4b1_branch2b"
  top: "res4b1_branch2c"
  convolution_param {
    num_output: 1024
    bias_term: false
    pad: 0
    kernel_size: 1
    stride: 1
  }
}
layer {
  name: "bn4b1_branch2c"
  type: "BatchNorm"
  bottom: "res4b1_branch2c"
  top: "res4b1_branch2c"
  batch_norm_param {
    use_global_stats: true
  }
}
layer {
  name: "scale4b1_branch2c"
  type: "Scale"
  bottom: "res4b1_branch2c"
  top: "res4b1_branch2c"
  scale_param {
    bias_term: true
  }
}
layer {
  name: "res4b1"
  type: "Eltwise"
  bottom: "res4a"
  bottom: "res4b1_branch2c"
  top: "res4b1"
}
layer {
  name: "res4b1_relu"
  type: "ReLU"
  bottom: "res4b1"
  top: "res4b1"
}
layer {
  name: "res4b2_branch2a"
  type: "Convolution"
  bottom: "res4b1"
  top: "res4b2_branch2a"
  convolution_param {
    num_output: 256
    bias_term: false
    pad: 0
    kernel_size: 1
    stride: 1
  }
}
layer {
  name: "bn4b2_branch2a"
  type: "BatchNorm"
  bottom: "res4b2_branch2a"
  top: "res4b2_branch2a"
  batch_norm_param {
    use_global_stats: true
  }
}
layer {
  name: "scale4b2_branch2a"
  type: "Scale"
  bottom: "res4b2_branch2a"
  top: "res4b2_branch2a"
  scale_param {
    bias_term: true
  }
}
layer {
  name: "res4b2_branch2a_relu"
  type: "ReLU"
  bottom: "res4b2_branch2a"
  top: "res4b2_branch2a"
}
layer {
  name: "res4b2_branch2b"
  type: "Convolution"
  bottom: "res4b2_branch2a"
  top: "res4b2_branch2b"
  convolution_param {
    num_output: 256
    bias_term: false
    pad: 1
    kernel_size: 3
    stride: 1
  }
}
layer {
  name: "bn4b2_branch2b"
  type: "BatchNorm"
  bottom: "res4b2_branch2b"
  top: "res4b2_branch2b"
  batch_norm_param {
    use_global_stats: true
  }
}
layer {
  name: "scale4b2_branch2b"
  type: "Scale"
  bottom: "res4b2_branch2b"
  top: "res4b2_branch2b"
  scale_param {
    bias_term: true
  }
}
layer {
  name: "res4b2_branch2b_relu"
  type: "ReLU"
  bottom: "res4b2_branch2b"
  top: "res4b2_branch2b"
}
layer {
  name: "res4b2_branch2c"
  type: "Convolution"
  bottom: "res4b2_branch2b"
  top: "res4b2_branch2c"
  convolution_param {
    num_output: 1024
    bias_term: false
    pad: 0
    kernel_size: 1
    stride: 1
  }
}
layer {
  name: "bn4b2_branch2c"
  type: "BatchNorm"
  bottom: "res4b2_branch2c"
  top: "res4b2_branch2c"
  batch_norm_param {
    use_global_stats: true
  }
}
layer {
  name: "scale4b2_branch2c"
  type: "Scale"
  bottom: "res4b2_branch2c"
  top: "res4b2_branch2c"
  scale_param {
   
I0227 19:12:15.244149 26678 layer_factory.hpp:77] Creating layer data
I0227 19:12:15.514608 26678 net.cpp:86] Creating Layer data
I0227 19:12:15.514645 26678 net.cpp:382] data -> data
I0227 19:12:15.514663 26678 net.cpp:382] data -> sem
I0227 19:12:15.514672 26678 net.cpp:382] data -> geo
I0227 19:12:15.758605 26678 net.cpp:124] Setting up data
I0227 19:12:15.758651 26678 net.cpp:131] Top shape: 1 3 256 256 (196608)
I0227 19:12:15.758656 26678 net.cpp:131] Top shape: 1 33 256 256 (2162688)
I0227 19:12:15.758661 26678 net.cpp:131] Top shape: 1 3 256 256 (196608)
I0227 19:12:15.758664 26678 net.cpp:139] Memory required for data: 10223616
I0227 19:12:15.758671 26678 layer_factory.hpp:77] Creating layer data_data_0_split
I0227 19:12:15.758702 26678 net.cpp:86] Creating Layer data_data_0_split
I0227 19:12:15.758707 26678 net.cpp:408] data_data_0_split <- data
I0227 19:12:15.758714 26678 net.cpp:382] data_data_0_split -> data_data_0_split_0
I0227 19:12:15.758724 26678 net.cpp:382] data_data_0_split -> data_data_0_split_1
I0227 19:12:15.758733 26678 net.cpp:382] data_data_0_split -> data_data_0_split_2
I0227 19:12:15.758792 26678 net.cpp:124] Setting up data_data_0_split
I0227 19:12:15.758800 26678 net.cpp:131] Top shape: 1 3 256 256 (196608)
I0227 19:12:15.758805 26678 net.cpp:131] Top shape: 1 3 256 256 (196608)
I0227 19:12:15.758810 26678 net.cpp:131] Top shape: 1 3 256 256 (196608)
I0227 19:12:15.758812 26678 net.cpp:139] Memory required for data: 12582912
I0227 19:12:15.758816 26678 layer_factory.hpp:77] Creating layer conv1
I0227 19:12:15.758826 26678 net.cpp:86] Creating Layer conv1
I0227 19:12:15.758833 26678 net.cpp:408] conv1 <- data_data_0_split_0
I0227 19:12:15.758839 26678 net.cpp:382] conv1 -> conv1
I0227 19:12:16.113240 26678 net.cpp:124] Setting up conv1
I0227 19:12:16.113281 26678 net.cpp:131] Top shape: 1 64 128 128 (1048576)
I0227 19:12:16.113286 26678 net.cpp:139] Memory required for data: 16777216
I0227 19:12:16.113299 26678 layer_factory.hpp:77] Creating layer bn_conv1
I0227 19:12:16.113327 26678 net.cpp:86] Creating Layer bn_conv1
I0227 19:12:16.113332 26678 net.cpp:408] bn_conv1 <- conv1
I0227 19:12:16.113337 26678 net.cpp:369] bn_conv1 -> conv1 (in-place)
I0227 19:12:16.113549 26678 net.cpp:124] Setting up bn_conv1
I0227 19:12:16.113561 26678 net.cpp:131] Top shape: 1 64 128 128 (1048576)
I0227 19:12:16.113565 26678 net.cpp:139] Memory required for data: 20971520
I0227 19:12:16.113577 26678 layer_factory.hpp:77] Creating layer scale_conv1
I0227 19:12:16.113587 26678 net.cpp:86] Creating Layer scale_conv1
I0227 19:12:16.113591 26678 net.cpp:408] scale_conv1 <- conv1
I0227 19:12:16.113597 26678 net.cpp:369] scale_conv1 -> conv1 (in-place)
I0227 19:12:16.113637 26678 layer_factory.hpp:77] Creating layer scale_conv1
I0227 19:12:16.113765 26678 net.cpp:124] Setting up scale_conv1
I0227 19:12:16.113775 26678 net.cpp:131] Top shape: 1 64 128 128 (1048576)
I0227 19:12:16.113778 26678 net.cpp:139] Memory required for data: 25165824
I0227 19:12:16.113787 26678 layer_factory.hpp:77] Creating layer conv1_relu
I0227 19:12:16.113804 26678 net.cpp:86] Creating Layer conv1_relu
I0227 19:12:16.113811 26678 net.cpp:408] conv1_relu <- conv1
I0227 19:12:16.113816 26678 net.cpp:369] conv1_relu -> conv1 (in-place)
I0227 19:12:16.113975 26678 net.cpp:124] Setting up conv1_relu
I0227 19:12:16.113984 26678 net.cpp:131] Top shape: 1 64 128 128 (1048576)
I0227 19:12:16.113988 26678 net.cpp:139] Memory required for data: 29360128
I0227 19:12:16.113992 26678 layer_factory.hpp:77] Creating layer pool1
I0227 19:12:16.113999 26678 net.cpp:86] Creating Layer pool1
I0227 19:12:16.114003 26678 net.cpp:408] pool1 <- conv1
I0227 19:12:16.114009 26678 net.cpp:382] pool1 -> pool1
I0227 19:12:16.114051 26678 net.cpp:124] Setting up pool1
I0227 19:12:16.114058 26678 net.cpp:131] Top shape: 1 64 64 64 (262144)
I0227 19:12:16.114063 26678 net.cpp:139] Memory required for data: 30408704
I0227 19:12:16.114066 26678 layer_factory.hpp:77] Creating layer pool1_pool1_0_split
I0227 19:12:16.114071 26678 net.cpp:86] Creating Layer pool1_pool1_0_split
I0227 19:12:16.114075 26678 net.cpp:408] pool1_pool1_0_split <- pool1
I0227 19:12:16.114080 26678 net.cpp:382] pool1_pool1_0_split -> pool1_pool1_0_split_0
I0227 19:12:16.114089 26678 net.cpp:382] pool1_pool1_0_split -> pool1_pool1_0_split_1
I0227 19:12:16.114133 26678 net.cpp:124] Setting up pool1_pool1_0_split
I0227 19:12:16.114141 26678 net.cpp:131] Top shape: 1 64 64 64 (262144)
I0227 19:12:16.114146 26678 net.cpp:131] Top shape: 1 64 64 64 (262144)
I0227 19:12:16.114150 26678 net.cpp:139] Memory required for data: 32505856
I0227 19:12:16.114152 26678 layer_factory.hpp:77] Creating layer res2a_branch1
I0227 19:12:16.114162 26678 net.cpp:86] Creating Layer res2a_branch1
I0227 19:12:16.114167 26678 net.cpp:408] res2a_branch1 <- pool1_pool1_0_split_0
I0227 19:12:16.114173 26678 net.cpp:382] res2a_branch1 -> res2a_branch1
I0227 19:12:16.115167 26678 net.cpp:124] Setting up res2a_branch1
I0227 19:12:16.115185 26678 net.cpp:131] Top shape: 1 256 64 64 (1048576)
I0227 19:12:16.115202 26678 net.cpp:139] Memory required for data: 36700160
I0227 19:12:16.115209 26678 layer_factory.hpp:77] Creating layer bn2a_branch1
I0227 19:12:16.115216 26678 net.cpp:86] Creating Layer bn2a_branch1
I0227 19:12:16.115222 26678 net.cpp:408] bn2a_branch1 <- res2a_branch1
I0227 19:12:16.115228 26678 net.cpp:369] bn2a_branch1 -> res2a_branch1 (in-place)
I0227 19:12:16.115962 26678 net.cpp:124] Setting up bn2a_branch1
I0227 19:12:16.115977 26678 net.cpp:131] Top shape: 1 256 64 64 (1048576)
I0227 19:12:16.115994 26678 net.cpp:139] Memory required for data: 40894464
I0227 19:12:16.116006 26678 layer_factory.hpp:77] Creating layer scale2a_branch1
I0227 19:12:16.116014 26678 net.cpp:86] Creating Layer scale2a_branch1
I0227 19:12:16.116020 26678 net.cpp:408] scale2a_branch1 <- res2a_branch1
I0227 19:12:16.116026 26678 net.cpp:369] scale2a_branch1 -> res2a_branch1 (in-place)
I0227 19:12:16.116062 26678 layer_factory.hpp:77] Creating layer scale2a_branch1
I0227 19:12:16.116148 26678 net.cpp:124] Setting up scale2a_branch1
I0227 19:12:16.116158 26678 net.cpp:131] Top shape: 1 256 64 64 (1048576)
I0227 19:12:16.116161 26678 net.cpp:139] Memory required for data: 45088768
I0227 19:12:16.116168 26678 layer_factory.hpp:77] Creating layer res2a_branch2a
I0227 19:12:16.116174 26678 net.cpp:86] Creating Layer res2a_branch2a
I0227 19:12:16.116178 26678 net.cpp:408] res2a_branch2a <- pool1_pool1_0_split_1
I0227 19:12:16.116184 26678 net.cpp:382] res2a_branch2a -> res2a_branch2a
I0227 19:12:16.117182 26678 net.cpp:124] Setting up res2a_branch2a
I0227 19:12:16.117197 26678 net.cpp:131] Top shape: 1 64 64 64 (262144)
I0227 19:12:16.117202 26678 net.cpp:139] Memory required for data: 46137344
I0227 19:12:16.117207 26678 layer_factory.hpp:77] Creating layer bn2a_branch2a
I0227 19:12:16.117214 26678 net.cpp:86] Creating Layer bn2a_branch2a
I0227 19:12:16.117218 26678 net.cpp:408] bn2a_branch2a <- res2a_branch2a
I0227 19:12:16.117223 26678 net.cpp:369] bn2a_branch2a -> res2a_branch2a (in-place)
I0227 19:12:16.117429 26678 net.cpp:124] Setting up bn2a_branch2a
I0227 19:12:16.117439 26678 net.cpp:131] Top shape: 1 64 64 64 (262144)
I0227 19:12:16.117442 26678 net.cpp:139] Memory required for data: 47185920
I0227 19:12:16.117450 26678 layer_factory.hpp:77] Creating layer scale2a_branch2a
I0227 19:12:16.117457 26678 net.cpp:86] Creating Layer scale2a_branch2a
I0227 19:12:16.117460 26678 net.cpp:408] scale2a_branch2a <- res2a_branch2a
I0227 19:12:16.117465 26678 net.cpp:369] scale2a_branch2a -> res2a_branch2a (in-place)
I0227 19:12:16.117503 26678 layer_factory.hpp:77] Creating layer scale2a_branch2a
I0227 19:12:16.117605 26678 net.cpp:124] Setting up scale2a_branch2a
I0227 19:12:16.117614 26678 net.cpp:131] Top shape: 1 64 64 64 (262144)
I0227 19:12:16.117617 26678 net.cpp:139] Memory required for data: 48234496
I0227 19:12:16.117629 26678 layer_factory.hpp:77] Creating layer res2a_branch2a_relu
I0227 19:12:16.117635 26678 net.cpp:86] Creating Layer res2a_branch2a_relu
I0227 19:12:16.117640 26678 net.cpp:408] res2a_branch2a_relu <- res2a_branch2a
I0227 19:12:16.117645 26678 net.cpp:369] res2a_branch2a_relu -> res2a_branch2a (in-place)
I0227 19:12:16.117813 26678 net.cpp:124] Setting up res2a_branch2a_relu
I0227 19:12:16.117825 26678 net.cpp:131] Top shape: 1 64 64 64 (262144)
I0227 19:12:16.117828 26678 net.cpp:139] Memory required for data: 49283072
I0227 19:12:16.117832 26678 layer_factory.hpp:77] Creating layer res2a_branch2b
I0227 19:12:16.117843 26678 net.cpp:86] Creating Layer res2a_branch2b
I0227 19:12:16.117848 26678 net.cpp:408] res2a_branch2b <- res2a_branch2a
I0227 19:12:16.117854 26678 net.cpp:382] res2a_branch2b -> res2a_branch2b
I0227 19:12:16.119323 26678 net.cpp:124] Setting up res2a_branch2b
I0227 19:12:16.119338 26678 net.cpp:131] Top shape: 1 64 64 64 (262144)
I0227 19:12:16.119352 26678 net.cpp:139] Memory required for data: 50331648
I0227 19:12:16.119359 26678 layer_factory.hpp:77] Creating layer bn2a_branch2b
I0227 19:12:16.119367 26678 net.cpp:86] Creating Layer bn2a_branch2b
I0227 19:12:16.119384 26678 net.cpp:408] bn2a_branch2b <- res2a_branch2b
I0227 19:12:16.119390 26678 net.cpp:369] bn2a_branch2b -> res2a_branch2b (in-place)
I0227 19:12:16.119595 26678 net.cpp:124] Setting up bn2a_branch2b
I0227 19:12:16.119604 26678 net.cpp:131] Top shape: 1 64 64 64 (262144)
I0227 19:12:16.119607 26678 net.cpp:139] Memory required for data: 51380224
I0227 19:12:16.119616 26678 layer_factory.hpp:77] Creating layer scale2a_branch2b
I0227 19:12:16.119624 26678 net.cpp:86] Creating Layer scale2a_branch2b
I0227 19:12:16.119630 26678 net.cpp:408] scale2a_branch2b <- res2a_branch2b
I0227 19:12:16.119635 26678 net.cpp:369] scale2a_branch2b -> res2a_branch2b (in-place)
I0227 19:12:16.119673 26678 layer_factory.hpp:77] Creating layer scale2a_branch2b
I0227 19:12:16.119789 26678 net.cpp:124] Setting up scale2a_branch2b
I0227 19:12:16.119798 26678 net.cpp:131] Top shape: 1 64 64 64 (262144)
I0227 19:12:16.119801 26678 net.cpp:139] Memory required for data: 52428800
I0227 19:12:16.119807 26678 layer_factory.hpp:77] Creating layer res2a_branch2b_relu
I0227 19:12:16.119813 26678 net.cpp:86] Creating Layer res2a_branch2b_relu
I0227 19:12:16.119817 26678 net.cpp:408] res2a_branch2b_relu <- res2a_branch2b
I0227 19:12:16.119823 26678 net.cpp:369] res2a_branch2b_relu -> res2a_branch2b (in-place)
I0227 19:12:16.120177 26678 net.cpp:124] Setting up res2a_branch2b_relu
I0227 19:12:16.120204 26678 net.cpp:131] Top shape: 1 64 64 64 (262144)
I0227 19:12:16.120208 26678 net.cpp:139] Memory required for data: 53477376
I0227 19:12:16.120211 26678 layer_factory.hpp:77] Creating layer res2a_branch2c
I0227 19:12:16.120232 26678 net.cpp:86] Creating Layer res2a_branch2c
I0227 19:12:16.120236 26678 net.cpp:408] res2a_branch2c <- res2a_branch2b
I0227 19:12:16.120244 26678 net.cpp:382] res2a_branch2c -> res2a_branch2c
I0227 19:12:16.121227 26678 net.cpp:124] Setting up res2a_branch2c
I0227 19:12:16.121243 26678 net.cpp:131] Top shape: 1 256 64 64 (1048576)
I0227 19:12:16.121248 26678 net.cpp:139] Memory required for data: 57671680
I0227 19:12:16.121253 26678 layer_factory.hpp:77] Creating layer bn2a_branch2c
I0227 19:12:16.121258 26678 net.cpp:86] Creating Layer bn2a_branch2c
I0227 19:12:16.121263 26678 net.cpp:408] bn2a_branch2c <- res2a_branch2c
I0227 19:12:16.121268 26678 net.cpp:369] bn2a_branch2c -> res2a_branch2c (in-place)
I0227 19:12:16.121469 26678 net.cpp:124] Setting up bn2a_branch2c
I0227 19:12:16.121477 26678 net.cpp:131] Top shape: 1 256 64 64 (1048576)
I0227 19:12:16.121481 26678 net.cpp:139] Memory required for data: 61865984
I0227 19:12:16.121490 26678 layer_factory.hpp:77] Creating layer scale2a_branch2c
I0227 19:12:16.121495 26678 net.cpp:86] Creating Layer scale2a_branch2c
I0227 19:12:16.121500 26678 net.cpp:408] scale2a_branch2c <- res2a_branch2c
I0227 19:12:16.121503 26678 net.cpp:369] scale2a_branch2c -> res2a_branch2c (in-place)
I0227 19:12:16.121539 26678 layer_factory.hpp:77] Creating layer scale2a_branch2c
I0227 19:12:16.121640 26678 net.cpp:124] Setting up scale2a_branch2c
I0227 19:12:16.121649 26678 net.cpp:131] Top shape: 1 256 64 64 (1048576)
I0227 19:12:16.121652 26678 net.cpp:139] Memory required for data: 66060288
I0227 19:12:16.121659 26678 layer_factory.hpp:77] Creating layer res2a
I0227 19:12:16.121665 26678 net.cpp:86] Creating Layer res2a
I0227 19:12:16.121670 26678 net.cpp:408] res2a <- res2a_branch1
I0227 19:12:16.121673 26678 net.cpp:408] res2a <- res2a_branch2c
I0227 19:12:16.121680 26678 net.cpp:382] res2a -> res2a
I0227 19:12:16.121708 26678 net.cpp:124] Setting up res2a
I0227 19:12:16.121718 26678 net.cpp:131] Top shape: 1 256 64 64 (1048576)
I0227 19:12:16.121722 26678 net.cpp:139] Memory required for data: 70254592
I0227 19:12:16.121726 26678 layer_factory.hpp:77] Creating layer res2a_relu
I0227 19:12:16.121731 26678 net.cpp:86] Creating Layer res2a_relu
I0227 19:12:16.121734 26678 net.cpp:408] res2a_relu <- res2a
I0227 19:12:16.121738 26678 net.cpp:369] res2a_relu -> res2a (in-place)
I0227 19:12:16.121956 26678 net.cpp:124] Setting up res2a_relu
I0227 19:12:16.121969 26678 net.cpp:131] Top shape: 1 256 64 64 (1048576)
I0227 19:12:16.121973 26678 net.cpp:139] Memory required for data: 74448896
I0227 19:12:16.121978 26678 layer_factory.hpp:77] Creating layer res2a_res2a_relu_0_split
I0227 19:12:16.121984 26678 net.cpp:86] Creating Layer res2a_res2a_relu_0_split
I0227 19:12:16.121987 26678 net.cpp:408] res2a_res2a_relu_0_split <- res2a
I0227 19:12:16.121995 26678 net.cpp:382] res2a_res2a_relu_0_split -> res2a_res2a_relu_0_split_0
I0227 19:12:16.122014 26678 net.cpp:382] res2a_res2a_relu_0_split -> res2a_res2a_relu_0_split_1
I0227 19:12:16.122064 26678 net.cpp:124] Setting up res2a_res2a_relu_0_split
I0227 19:12:16.122073 26678 net.cpp:131] Top shape: 1 256 64 64 (1048576)
I0227 19:12:16.122086 26678 net.cpp:131] Top shape: 1 256 64 64 (1048576)
I0227 19:12:16.122089 26678 net.cpp:139] Memory required for data: 82837504
I0227 19:12:16.122093 26678 layer_factory.hpp:77] Creating layer res2b_branch2a
I0227 19:12:16.122102 26678 net.cpp:86] Creating Layer res2b_branch2a
I0227 19:12:16.122107 26678 net.cpp:408] res2b_branch2a <- res2a_res2a_relu_0_split_0
I0227 19:12:16.122112 26678 net.cpp:382] res2b_branch2a -> res2b_branch2a
I0227 19:12:16.123267 26678 net.cpp:124] Setting up res2b_branch2a
I0227 19:12:16.123284 26678 net.cpp:131] Top shape: 1 64 64 64 (262144)
I0227 19:12:16.123289 26678 net.cpp:139] Memory required for data: 83886080
I0227 19:12:16.123296 26678 layer_factory.hpp:77] Creating layer bn2b_branch2a
I0227 19:12:16.123303 26678 net.cpp:86] Creating Layer bn2b_branch2a
I0227 19:12:16.123307 26678 net.cpp:408] bn2b_branch2a <- res2b_branch2a
I0227 19:12:16.123313 26678 net.cpp:369] bn2b_branch2a -> res2b_branch2a (in-place)
I0227 19:12:16.123567 26678 net.cpp:124] Setting up bn2b_branch2a
I0227 19:12:16.123579 26678 net.cpp:131] Top shape: 1 64 64 64 (262144)
I0227 19:12:16.123584 26678 net.cpp:139] Memory required for data: 84934656
I0227 19:12:16.123596 26678 layer_factory.hpp:77] Creating layer scale2b_branch2a
I0227 19:12:16.123605 26678 net.cpp:86] Creating Layer scale2b_branch2a
I0227 19:12:16.123608 26678 net.cpp:408] scale2b_branch2a <- res2b_branch2a
I0227 19:12:16.123616 26678 net.cpp:369] scale2b_branch2a -> res2b_branch2a (in-place)
I0227 19:12:16.123659 26678 layer_factory.hpp:77] Creating layer scale2b_branch2a
I0227 19:12:16.123775 26678 net.cpp:124] Setting up scale2b_branch2a
I0227 19:12:16.123785 26678 net.cpp:131] Top shape: 1 64 64 64 (262144)
I0227 19:12:16.123788 26678 net.cpp:139] Memory required for data: 85983232
I0227 19:12:16.123795 26678 layer_factory.hpp:77] Creating layer res2b_branch2a_relu
I0227 19:12:16.123800 26678 net.cpp:86] Creating Layer res2b_branch2a_relu
I0227 19:12:16.123805 26678 net.cpp:408] res2b_branch2a_relu <- res2b_branch2a
I0227 19:12:16.123809 26678 net.cpp:369] res2b_branch2a_relu -> res2b_branch2a (in-place)
I0227 19:12:16.124011 26678 net.cpp:124] Setting up res2b_branch2a_relu
I0227 19:12:16.124022 26678 net.cpp:131] Top shape: 1 64 64 64 (262144)
I0227 19:12:16.124027 26678 net.cpp:139] Memory required for data: 87031808
I0227 19:12:16.124032 26678 layer_factory.hpp:77] Creating layer res2b_branch2b
I0227 19:12:16.124042 26678 net.cpp:86] Creating Layer res2b_branch2b
I0227 19:12:16.124047 26678 net.cpp:408] res2b_branch2b <- res2b_branch2a
I0227 19:12:16.124053 26678 net.cpp:382] res2b_branch2b -> res2b_branch2b
I0227 19:12:16.125063 26678 net.cpp:124] Setting up res2b_branch2b
I0227 19:12:16.125078 26678 net.cpp:131] Top shape: 1 64 64 64 (262144)
I0227 19:12:16.125082 26678 net.cpp:139] Memory required for data: 88080384
I0227 19:12:16.125087 26678 layer_factory.hpp:77] Creating layer bn2b_branch2b
I0227 19:12:16.125093 26678 net.cpp:86] Creating Layer bn2b_branch2b
I0227 19:12:16.125097 26678 net.cpp:408] bn2b_branch2b <- res2b_branch2b
I0227 19:12:16.125115 26678 net.cpp:369] bn2b_branch2b -> res2b_branch2b (in-place)
I0227 19:12:16.125310 26678 net.cpp:124] Setting up bn2b_branch2b
I0227 19:12:16.125319 26678 net.cpp:131] Top shape: 1 64 64 64 (262144)
I0227 19:12:16.125324 26678 net.cpp:139] Memory required for data: 89128960
I0227 19:12:16.125331 26678 layer_factory.hpp:77] Creating layer scale2b_branch2b
I0227 19:12:16.125337 26678 net.cpp:86] Creating Layer scale2b_branch2b
I0227 19:12:16.125341 26678 net.cpp:408] scale2b_branch2b <- res2b_branch2b
I0227 19:12:16.125349 26678 net.cpp:369] scale2b_branch2b -> res2b_branch2b (in-place)
I0227 19:12:16.125385 26678 layer_factory.hpp:77] Creating layer scale2b_branch2b
I0227 19:12:16.125488 26678 net.cpp:124] Setting up scale2b_branch2b
I0227 19:12:16.125496 26678 net.cpp:131] Top shape: 1 64 64 64 (262144)
I0227 19:12:16.125500 26678 net.cpp:139] Memory required for data: 90177536
I0227 19:12:16.125506 26678 layer_factory.hpp:77] Creating layer res2b_branch2b_relu
I0227 19:12:16.125516 26678 net.cpp:86] Creating Layer res2b_branch2b_relu
I0227 19:12:16.125521 26678 net.cpp:408] res2b_branch2b_relu <- res2b_branch2b
I0227 19:12:16.125527 26678 net.cpp:369] res2b_branch2b_relu -> res2b_branch2b (in-place)
I0227 19:12:16.125880 26678 net.cpp:124] Setting up res2b_branch2b_relu
I0227 19:12:16.125895 26678 net.cpp:131] Top shape: 1 64 64 64 (262144)
I0227 19:12:16.125897 26678 net.cpp:139] Memory required for data: 91226112
I0227 19:12:16.125900 26678 layer_factory.hpp:77] Creating layer res2b_branch2c
I0227 19:12:16.125910 26678 net.cpp:86] Creating Layer res2b_branch2c
I0227 19:12:16.125913 26678 net.cpp:408] res2b_branch2c <- res2b_branch2b
I0227 19:12:16.125929 26678 net.cpp:382] res2b_branch2c -> res2b_branch2c
I0227 19:12:16.126937 26678 net.cpp:124] Setting up res2b_branch2c
I0227 19:12:16.126952 26678 net.cpp:131] Top shape: 1 256 64 64 (1048576)
I0227 19:12:16.126968 26678 net.cpp:139] Memory required for data: 95420416
I0227 19:12:16.126974 26678 layer_factory.hpp:77] Creating layer bn2b_branch2c
I0227 19:12:16.126993 26678 net.cpp:86] Creating Layer bn2b_branch2c
I0227 19:12:16.126997 26678 net.cpp:408] bn2b_branch2c <- res2b_branch2c
I0227 19:12:16.127003 26678 net.cpp:369] bn2b_branch2c -> res2b_branch2c (in-place)
I0227 19:12:16.127223 26678 net.cpp:124] Setting up bn2b_branch2c
I0227 19:12:16.127235 26678 net.cpp:131] Top shape: 1 256 64 64 (1048576)
I0227 19:12:16.127239 26678 net.cpp:139] Memory required for data: 99614720
I0227 19:12:16.127272 26678 layer_factory.hpp:77] Creating layer scale2b_branch2c
I0227 19:12:16.127285 26678 net.cpp:86] Creating Layer scale2b_branch2c
I0227 19:12:16.127290 26678 net.cpp:408] scale2b_branch2c <- res2b_branch2c
I0227 19:12:16.127295 26678 net.cpp:369] scale2b_branch2c -> res2b_branch2c (in-place)
I0227 19:12:16.127338 26678 layer_factory.hpp:77] Creating layer scale2b_branch2c
I0227 19:12:16.127449 26678 net.cpp:124] Setting up scale2b_branch2c
I0227 19:12:16.127460 26678 net.cpp:131] Top shape: 1 256 64 64 (1048576)
I0227 19:12:16.127465 26678 net.cpp:139] Memory required for data: 103809024
I0227 19:12:16.127470 26678 layer_factory.hpp:77] Creating layer res2b
I0227 19:12:16.127477 26678 net.cpp:86] Creating Layer res2b
I0227 19:12:16.127481 26678 net.cpp:408] res2b <- res2a_res2a_relu_0_split_1
I0227 19:12:16.127485 26678 net.cpp:408] res2b <- res2b_branch2c
I0227 19:12:16.127491 26678 net.cpp:382] res2b -> res2b
I0227 19:12:16.127516 26678 net.cpp:124] Setting up res2b
I0227 19:12:16.127524 26678 net.cpp:131] Top shape: 1 256 64 64 (1048576)
I0227 19:12:16.127527 26678 net.cpp:139] Memory required for data: 108003328
I0227 19:12:16.127532 26678 layer_factory.hpp:77] Creating layer res2b_relu
I0227 19:12:16.127537 26678 net.cpp:86] Creating Layer res2b_relu
I0227 19:12:16.127542 26678 net.cpp:408] res2b_relu <- res2b
I0227 19:12:16.127547 26678 net.cpp:369] res2b_relu -> res2b (in-place)
I0227 19:12:16.127720 26678 net.cpp:124] Setting up res2b_relu
I0227 19:12:16.127732 26678 net.cpp:131] Top shape: 1 256 64 64 (1048576)
I0227 19:12:16.127735 26678 net.cpp:139] Memory required for data: 112197632
I0227 19:12:16.127739 26678 layer_factory.hpp:77] Creating layer res2b_res2b_relu_0_split
I0227 19:12:16.127744 26678 net.cpp:86] Creating Layer res2b_res2b_relu_0_split
I0227 19:12:16.127748 26678 net.cpp:408] res2b_res2b_relu_0_split <- res2b
I0227 19:12:16.127755 26678 net.cpp:382] res2b_res2b_relu_0_split -> res2b_res2b_relu_0_split_0
I0227 19:12:16.127761 26678 net.cpp:382] res2b_res2b_relu_0_split -> res2b_res2b_relu_0_split_1
I0227 19:12:16.127809 26678 net.cpp:124] Setting up res2b_res2b_relu_0_split
I0227 19:12:16.127817 26678 net.cpp:131] Top shape: 1 256 64 64 (1048576)
I0227 19:12:16.127822 26678 net.cpp:131] Top shape: 1 256 64 64 (1048576)
I0227 19:12:16.127851 26678 net.cpp:139] Memory required for data: 120586240
I0227 19:12:16.127856 26678 layer_factory.hpp:77] Creating layer res2c_branch2a
I0227 19:12:16.127866 26678 net.cpp:86] Creating Layer res2c_branch2a
I0227 19:12:16.127869 26678 net.cpp:408] res2c_branch2a <- res2b_res2b_relu_0_split_0
I0227 19:12:16.127876 26678 net.cpp:382] res2c_branch2a -> res2c_branch2a
I0227 19:12:16.129125 26678 net.cpp:124] Setting up res2c_branch2a
I0227 19:12:16.129142 26678 net.cpp:131] Top shape: 1 64 64 64 (262144)
I0227 19:12:16.129145 26678 net.cpp:139] Memory required for data: 121634816
I0227 19:12:16.129153 26678 layer_factory.hpp:77] Creating layer bn2c_branch2a
I0227 19:12:16.129173 26678 net.cpp:86] Creating Layer bn2c_branch2a
I0227 19:12:16.129178 26678 net.cpp:408] bn2c_branch2a <- res2c_branch2a
I0227 19:12:16.129184 26678 net.cpp:369] bn2c_branch2a -> res2c_branch2a (in-place)
I0227 19:12:16.129405 26678 net.cpp:124] Setting up bn2c_branch2a
I0227 19:12:16.129416 26678 net.cpp:131] Top shape: 1 64 64 64 (262144)
I0227 19:12:16.129420 26678 net.cpp:139] Memory required for data: 122683392
I0227 19:12:16.129427 26678 layer_factory.hpp:77] Creating layer scale2c_branch2a
I0227 19:12:16.129436 26678 net.cpp:86] Creating Layer scale2c_branch2a
I0227 19:12:16.129441 26678 net.cpp:408] scale2c_branch2a <- res2c_branch2a
I0227 19:12:16.129446 26678 net.cpp:369] scale2c_branch2a -> res2c_branch2a (in-place)
I0227 19:12:16.129483 26678 layer_factory.hpp:77] Creating layer scale2c_branch2a
I0227 19:12:16.129626 26678 net.cpp:124] Setting up scale2c_branch2a
I0227 19:12:16.129636 26678 net.cpp:131] Top shape: 1 64 64 64 (262144)
I0227 19:12:16.129639 26678 net.cpp:139] Memory required for data: 123731968
I0227 19:12:16.129645 26678 layer_factory.hpp:77] Creating layer res2c_branch2a_relu
I0227 19:12:16.129652 26678 net.cpp:86] Creating Layer res2c_branch2a_relu
I0227 19:12:16.129655 26678 net.cpp:408] res2c_branch2a_relu <- res2c_branch2a
I0227 19:12:16.129662 26678 net.cpp:369] res2c_branch2a_relu -> res2c_branch2a (in-place)
I0227 19:12:16.129842 26678 net.cpp:124] Setting up res2c_branch2a_relu
I0227 19:12:16.129856 26678 net.cpp:131] Top shape: 1 64 64 64 (262144)
I0227 19:12:16.129860 26678 net.cpp:139] Memory required for data: 124780544
I0227 19:12:16.129864 26678 layer_factory.hpp:77] Creating layer res2c_branch2b
I0227 19:12:16.129871 26678 net.cpp:86] Creating Layer res2c_branch2b
I0227 19:12:16.129875 26678 net.cpp:408] res2c_branch2b <- res2c_branch2a
I0227 19:12:16.129884 26678 net.cpp:382] res2c_branch2b -> res2c_branch2b
I0227 19:12:16.130985 26678 net.cpp:124] Setting up res2c_branch2b
I0227 19:12:16.131000 26678 net.cpp:131] Top shape: 1 64 64 64 (262144)
I0227 19:12:16.131016 26678 net.cpp:139] Memory required for data: 125829120
I0227 19:12:16.131022 26678 layer_factory.hpp:77] Creating layer bn2c_branch2b
I0227 19:12:16.131042 26678 net.cpp:86] Creating Layer bn2c_branch2b
I0227 19:12:16.131047 26678 net.cpp:408] bn2c_branch2b <- res2c_branch2b
I0227 19:12:16.131053 26678 net.cpp:369] bn2c_branch2b -> res2c_branch2b (in-place)
I0227 19:12:16.131258 26678 net.cpp:124] Setting up bn2c_branch2b
I0227 19:12:16.131275 26678 net.cpp:131] Top shape: 1 64 64 64 (262144)
I0227 19:12:16.131281 26678 net.cpp:139] Memory required for data: 126877696
I0227 19:12:16.131291 26678 layer_factory.hpp:77] Creating layer scale2c_branch2b
I0227 19:12:16.131299 26678 net.cpp:86] Creating Layer scale2c_branch2b
I0227 19:12:16.131304 26678 net.cpp:408] scale2c_branch2b <- res2c_branch2b
I0227 19:12:16.131309 26678 net.cpp:369] scale2c_branch2b -> res2c_branch2b (in-place)
I0227 19:12:16.131376 26678 layer_factory.hpp:77] Creating layer scale2c_branch2b
I0227 19:12:16.131501 26678 net.cpp:124] Setting up scale2c_branch2b
I0227 19:12:16.131512 26678 net.cpp:131] Top shape: 1 64 64 64 (262144)
I0227 19:12:16.131516 26678 net.cpp:139] Memory required for data: 127926272
I0227 19:12:16.131522 26678 layer_factory.hpp:77] Creating layer res2c_branch2b_relu
I0227 19:12:16.131531 26678 net.cpp:86] Creating Layer res2c_branch2b_relu
I0227 19:12:16.131534 26678 net.cpp:408] res2c_branch2b_relu <- res2c_branch2b
I0227 19:12:16.131539 26678 net.cpp:369] res2c_branch2b_relu -> res2c_branch2b (in-place)
I0227 19:12:16.131927 26678 net.cpp:124] Setting up res2c_branch2b_relu
I0227 19:12:16.131940 26678 net.cpp:131] Top shape: 1 64 64 64 (262144)
I0227 19:12:16.131956 26678 net.cpp:139] Memory required for data: 128974848
I0227 19:12:16.131959 26678 layer_factory.hpp:77] Creating layer res2c_branch2c
I0227 19:12:16.131968 26678 net.cpp:86] Creating Layer res2c_branch2c
I0227 19:12:16.131991 26678 net.cpp:408] res2c_branch2c <- res2c_branch2b
I0227 19:12:16.131999 26678 net.cpp:382] res2c_branch2c -> res2c_branch2c
I0227 19:12:16.133117 26678 net.cpp:124] Setting up res2c_branch2c
I0227 19:12:16.133133 26678 net.cpp:131] Top shape: 1 256 64 64 (1048576)
I0227 19:12:16.133137 26678 net.cpp:139] Memory required for data: 133169152
I0227 19:12:16.133142 26678 layer_factory.hpp:77] Creating layer bn2c_branch2c
I0227 19:12:16.133167 26678 net.cpp:86] Creating Layer bn2c_branch2c
I0227 19:12:16.133172 26678 net.cpp:408] bn2c_branch2c <- res2c_branch2c
I0227 19:12:16.133178 26678 net.cpp:369] bn2c_branch2c -> res2c_branch2c (in-place)
I0227 19:12:16.133386 26678 net.cpp:124] Setting up bn2c_branch2c
I0227 19:12:16.133396 26678 net.cpp:131] Top shape: 1 256 64 64 (1048576)
I0227 19:12:16.133400 26678 net.cpp:139] Memory required for data: 137363456
I0227 19:12:16.133407 26678 layer_factory.hpp:77] Creating layer scale2c_branch2c
I0227 19:12:16.133414 26678 net.cpp:86] Creating Layer scale2c_branch2c
I0227 19:12:16.133430 26678 net.cpp:408] scale2c_branch2c <- res2c_branch2c
I0227 19:12:16.133435 26678 net.cpp:369] scale2c_branch2c -> res2c_branch2c (in-place)
I0227 19:12:16.133472 26678 layer_factory.hpp:77] Creating layer scale2c_branch2c
I0227 19:12:16.133575 26678 net.cpp:124] Setting up scale2c_branch2c
I0227 19:12:16.133584 26678 net.cpp:131] Top shape: 1 256 64 64 (1048576)
I0227 19:12:16.133589 26678 net.cpp:139] Memory required for data: 141557760
I0227 19:12:16.133612 26678 layer_factory.hpp:77] Creating layer res2c
I0227 19:12:16.133620 26678 net.cpp:86] Creating Layer res2c
I0227 19:12:16.133625 26678 net.cpp:408] res2c <- res2b_res2b_relu_0_split_1
I0227 19:12:16.133630 26678 net.cpp:408] res2c <- res2c_branch2c
I0227 19:12:16.133661 26678 net.cpp:382] res2c -> res2c
I0227 19:12:16.133692 26678 net.cpp:124] Setting up res2c
I0227 19:12:16.133699 26678 net.cpp:131] Top shape: 1 256 64 64 (1048576)
I0227 19:12:16.133703 26678 net.cpp:139] Memory required for data: 145752064
I0227 19:12:16.133707 26678 layer_factory.hpp:77] Creating layer res2c_relu
I0227 19:12:16.133713 26678 net.cpp:86] Creating Layer res2c_relu
I0227 19:12:16.133716 26678 net.cpp:408] res2c_relu <- res2c
I0227 19:12:16.133721 26678 net.cpp:369] res2c_relu -> res2c (in-place)
I0227 19:12:16.133901 26678 net.cpp:124] Setting up res2c_relu
I0227 19:12:16.133913 26678 net.cpp:131] Top shape: 1 256 64 64 (1048576)
I0227 19:12:16.133918 26678 net.cpp:139] Memory required for data: 149946368
I0227 19:12:16.133921 26678 layer_factory.hpp:77] Creating layer res2c_res2c_relu_0_split
I0227 19:12:16.133927 26678 net.cpp:86] Creating Layer res2c_res2c_relu_0_split
I0227 19:12:16.133931 26678 net.cpp:408] res2c_res2c_relu_0_split <- res2c
I0227 19:12:16.133939 26678 net.cpp:382] res2c_res2c_relu_0_split -> res2c_res2c_relu_0_split_0
I0227 19:12:16.133946 26678 net.cpp:382] res2c_res2c_relu_0_split -> res2c_res2c_relu_0_split_1
I0227 19:12:16.133988 26678 net.cpp:124] Setting up res2c_res2c_relu_0_split
I0227 19:12:16.134009 26678 net.cpp:131] Top shape: 1 256 64 64 (1048576)
I0227 19:12:16.134014 26678 net.cpp:131] Top shape: 1 256 64 64 (1048576)
I0227 19:12:16.134017 26678 net.cpp:139] Memory required for data: 158334976
I0227 19:12:16.134021 26678 layer_factory.hpp:77] Creating layer res3a_branch1
I0227 19:12:16.134027 26678 net.cpp:86] Creating Layer res3a_branch1
I0227 19:12:16.134032 26678 net.cpp:408] res3a_branch1 <- res2c_res2c_relu_0_split_0
I0227 19:12:16.134038 26678 net.cpp:382] res3a_branch1 -> res3a_branch1
I0227 19:12:16.135771 26678 net.cpp:124] Setting up res3a_branch1
I0227 19:12:16.135788 26678 net.cpp:131] Top shape: 1 512 32 32 (524288)
I0227 19:12:16.135793 26678 net.cpp:139] Memory required for data: 160432128
I0227 19:12:16.135799 26678 layer_factory.hpp:77] Creating layer bn3a_branch1
I0227 19:12:16.135807 26678 net.cpp:86] Creating Layer bn3a_branch1
I0227 19:12:16.135813 26678 net.cpp:408] bn3a_branch1 <- res3a_branch1
I0227 19:12:16.135819 26678 net.cpp:369] bn3a_branch1 -> res3a_branch1 (in-place)
I0227 19:12:16.136612 26678 net.cpp:124] Setting up bn3a_branch1
I0227 19:12:16.136628 26678 net.cpp:131] Top shape: 1 512 32 32 (524288)
I0227 19:12:16.136632 26678 net.cpp:139] Memory required for data: 162529280
I0227 19:12:16.136653 26678 layer_factory.hpp:77] Creating layer scale3a_branch1
I0227 19:12:16.136662 26678 net.cpp:86] Creating Layer scale3a_branch1
I0227 19:12:16.136678 26678 net.cpp:408] scale3a_branch1 <- res3a_branch1
I0227 19:12:16.136684 26678 net.cpp:369] scale3a_branch1 -> res3a_branch1 (in-place)
I0227 19:12:16.136723 26678 layer_factory.hpp:77] Creating layer scale3a_branch1
I0227 19:12:16.136824 26678 net.cpp:124] Setting up scale3a_branch1
I0227 19:12:16.136833 26678 net.cpp:131] Top shape: 1 512 32 32 (524288)
I0227 19:12:16.136837 26678 net.cpp:139] Memory required for data: 164626432
I0227 19:12:16.136849 26678 layer_factory.hpp:77] Creating layer res3a_branch2a
I0227 19:12:16.136862 26678 net.cpp:86] Creating Layer res3a_branch2a
I0227 19:12:16.136868 26678 net.cpp:408] res3a_branch2a <- res2c_res2c_relu_0_split_1
I0227 19:12:16.136873 26678 net.cpp:382] res3a_branch2a -> res3a_branch2a
I0227 19:12:16.137936 26678 net.cpp:124] Setting up res3a_branch2a
I0227 19:12:16.137951 26678 net.cpp:131] Top shape: 1 128 32 32 (131072)
I0227 19:12:16.137955 26678 net.cpp:139] Memory required for data: 165150720
I0227 19:12:16.137960 26678 layer_factory.hpp:77] Creating layer bn3a_branch2a
I0227 19:12:16.137966 26678 net.cpp:86] Creating Layer bn3a_branch2a
I0227 19:12:16.137970 26678 net.cpp:408] bn3a_branch2a <- res3a_branch2a
I0227 19:12:16.137976 26678 net.cpp:369] bn3a_branch2a -> res3a_branch2a (in-place)
I0227 19:12:16.138233 26678 net.cpp:124] Setting up bn3a_branch2a
I0227 19:12:16.138245 26678 net.cpp:131] Top shape: 1 128 32 32 (131072)
I0227 19:12:16.138249 26678 net.cpp:139] Memory required for data: 165675008
I0227 19:12:16.138257 26678 layer_factory.hpp:77] Creating layer scale3a_branch2a
I0227 19:12:16.138264 26678 net.cpp:86] Creating Layer scale3a_branch2a
I0227 19:12:16.138270 26678 net.cpp:408] scale3a_branch2a <- res3a_branch2a
I0227 19:12:16.138276 26678 net.cpp:369] scale3a_branch2a -> res3a_branch2a (in-place)
I0227 19:12:16.138316 26678 layer_factory.hpp:77] Creating layer scale3a_branch2a
I0227 19:12:16.138416 26678 net.cpp:124] Setting up scale3a_branch2a
I0227 19:12:16.138437 26678 net.cpp:131] Top shape: 1 128 32 32 (131072)
I0227 19:12:16.138440 26678 net.cpp:139] Memory required for data: 166199296
I0227 19:12:16.138445 26678 layer_factory.hpp:77] Creating layer res3a_branch2a_relu
I0227 19:12:16.138453 26678 net.cpp:86] Creating Layer res3a_branch2a_relu
I0227 19:12:16.138456 26678 net.cpp:408] res3a_branch2a_relu <- res3a_branch2a
I0227 19:12:16.138461 26678 net.cpp:369] res3a_branch2a_relu -> res3a_branch2a (in-place)
I0227 19:12:16.138666 26678 net.cpp:124] Setting up res3a_branch2a_relu
I0227 19:12:16.138679 26678 net.cpp:131] Top shape: 1 128 32 32 (131072)
I0227 19:12:16.138682 26678 net.cpp:139] Memory required for data: 166723584
I0227 19:12:16.138686 26678 layer_factory.hpp:77] Creating layer res3a_branch2b
I0227 19:12:16.138696 26678 net.cpp:86] Creating Layer res3a_branch2b
I0227 19:12:16.138702 26678 net.cpp:408] res3a_branch2b <- res3a_branch2a
I0227 19:12:16.138708 26678 net.cpp:382] res3a_branch2b -> res3a_branch2b
I0227 19:12:16.140455 26678 net.cpp:124] Setting up res3a_branch2b
I0227 19:12:16.140487 26678 net.cpp:131] Top shape: 1 128 32 32 (131072)
I0227 19:12:16.140492 26678 net.cpp:139] Memory required for data: 167247872
I0227 19:12:16.140497 26678 layer_factory.hpp:77] Creating layer bn3a_branch2b
I0227 19:12:16.140504 26678 net.cpp:86] Creating Layer bn3a_branch2b
I0227 19:12:16.140508 26678 net.cpp:408] bn3a_branch2b <- res3a_branch2b
I0227 19:12:16.140527 26678 net.cpp:369] bn3a_branch2b -> res3a_branch2b (in-place)
I0227 19:12:16.140745 26678 net.cpp:124] Setting up bn3a_branch2b
I0227 19:12:16.140754 26678 net.cpp:131] Top shape: 1 128 32 32 (131072)
I0227 19:12:16.140758 26678 net.cpp:139] Memory required for data: 167772160
I0227 19:12:16.140766 26678 layer_factory.hpp:77] Creating layer scale3a_branch2b
I0227 19:12:16.140774 26678 net.cpp:86] Creating Layer scale3a_branch2b
I0227 19:12:16.140779 26678 net.cpp:408] scale3a_branch2b <- res3a_branch2b
I0227 19:12:16.140784 26678 net.cpp:369] scale3a_branch2b -> res3a_branch2b (in-place)
I0227 19:12:16.140823 26678 layer_factory.hpp:77] Creating layer scale3a_branch2b
I0227 19:12:16.140930 26678 net.cpp:124] Setting up scale3a_branch2b
I0227 19:12:16.140940 26678 net.cpp:131] Top shape: 1 128 32 32 (131072)
I0227 19:12:16.140944 26678 net.cpp:139] Memory required for data: 168296448
I0227 19:12:16.140950 26678 layer_factory.hpp:77] Creating layer res3a_branch2b_relu
I0227 19:12:16.140982 26678 net.cpp:86] Creating Layer res3a_branch2b_relu
I0227 19:12:16.140987 26678 net.cpp:408] res3a_branch2b_relu <- res3a_branch2b
I0227 19:12:16.140995 26678 net.cpp:369] res3a_branch2b_relu -> res3a_branch2b (in-place)
I0227 19:12:16.141357 26678 net.cpp:124] Setting up res3a_branch2b_relu
I0227 19:12:16.141371 26678 net.cpp:131] Top shape: 1 128 32 32 (131072)
I0227 19:12:16.141386 26678 net.cpp:139] Memory required for data: 168820736
I0227 19:12:16.141389 26678 layer_factory.hpp:77] Creating layer res3a_branch2c
I0227 19:12:16.141403 26678 net.cpp:86] Creating Layer res3a_branch2c
I0227 19:12:16.141407 26678 net.cpp:408] res3a_branch2c <- res3a_branch2b
I0227 19:12:16.141414 26678 net.cpp:382] res3a_branch2c -> res3a_branch2c
I0227 19:12:16.142432 26678 net.cpp:124] Setting up res3a_branch2c
I0227 19:12:16.142462 26678 net.cpp:131] Top shape: 1 512 32 32 (524288)
I0227 19:12:16.142467 26678 net.cpp:139] Memory required for data: 170917888
I0227 19:12:16.142483 26678 layer_factory.hpp:77] Creating layer bn3a_branch2c
I0227 19:12:16.142489 26678 net.cpp:86] Creating Layer bn3a_branch2c
I0227 19:12:16.142493 26678 net.cpp:408] bn3a_branch2c <- res3a_branch2c
I0227 19:12:16.142511 26678 net.cpp:369] bn3a_branch2c -> res3a_branch2c (in-place)
I0227 19:12:16.142751 26678 net.cpp:124] Setting up bn3a_branch2c
I0227 19:12:16.142763 26678 net.cpp:131] Top shape: 1 512 32 32 (524288)
I0227 19:12:16.142767 26678 net.cpp:139] Memory required for data: 173015040
I0227 19:12:16.142776 26678 layer_factory.hpp:77] Creating layer scale3a_branch2c
I0227 19:12:16.142782 26678 net.cpp:86] Creating Layer scale3a_branch2c
I0227 19:12:16.142788 26678 net.cpp:408] scale3a_branch2c <- res3a_branch2c
I0227 19:12:16.142793 26678 net.cpp:369] scale3a_branch2c -> res3a_branch2c (in-place)
I0227 19:12:16.142838 26678 layer_factory.hpp:77] Creating layer scale3a_branch2c
I0227 19:12:16.142946 26678 net.cpp:124] Setting up scale3a_branch2c
I0227 19:12:16.142954 26678 net.cpp:131] Top shape: 1 512 32 32 (524288)
I0227 19:12:16.142958 26678 net.cpp:139] Memory required for data: 175112192
I0227 19:12:16.142964 26678 layer_factory.hpp:77] Creating layer res3a
I0227 19:12:16.142971 26678 net.cpp:86] Creating Layer res3a
I0227 19:12:16.142976 26678 net.cpp:408] res3a <- res3a_branch1
I0227 19:12:16.142982 26678 net.cpp:408] res3a <- res3a_branch2c
I0227 19:12:16.142987 26678 net.cpp:382] res3a -> res3a
I0227 19:12:16.143012 26678 net.cpp:124] Setting up res3a
I0227 19:12:16.143019 26678 net.cpp:131] Top shape: 1 512 32 32 (524288)
I0227 19:12:16.143023 26678 net.cpp:139] Memory required for data: 177209344
I0227 19:12:16.143026 26678 layer_factory.hpp:77] Creating layer res3a_relu
I0227 19:12:16.143033 26678 net.cpp:86] Creating Layer res3a_relu
I0227 19:12:16.143035 26678 net.cpp:408] res3a_relu <- res3a
I0227 19:12:16.143043 26678 net.cpp:369] res3a_relu -> res3a (in-place)
I0227 19:12:16.143447 26678 net.cpp:124] Setting up res3a_relu
I0227 19:12:16.143462 26678 net.cpp:131] Top shape: 1 512 32 32 (524288)
I0227 19:12:16.143477 26678 net.cpp:139] Memory required for data: 179306496
I0227 19:12:16.143481 26678 layer_factory.hpp:77] Creating layer res3a_res3a_relu_0_split
I0227 19:12:16.143488 26678 net.cpp:86] Creating Layer res3a_res3a_relu_0_split
I0227 19:12:16.143492 26678 net.cpp:408] res3a_res3a_relu_0_split <- res3a
I0227 19:12:16.143499 26678 net.cpp:382] res3a_res3a_relu_0_split -> res3a_res3a_relu_0_split_0
I0227 19:12:16.143519 26678 net.cpp:382] res3a_res3a_relu_0_split -> res3a_res3a_relu_0_split_1
I0227 19:12:16.143563 26678 net.cpp:124] Setting up res3a_res3a_relu_0_split
I0227 19:12:16.143573 26678 net.cpp:131] Top shape: 1 512 32 32 (524288)
I0227 19:12:16.143576 26678 net.cpp:131] Top shape: 1 512 32 32 (524288)
I0227 19:12:16.143580 26678 net.cpp:139] Memory required for data: 183500800
I0227 19:12:16.143584 26678 layer_factory.hpp:77] Creating layer res3b1_branch2a
I0227 19:12:16.143621 26678 net.cpp:86] Creating Layer res3b1_branch2a
I0227 19:12:16.143628 26678 net.cpp:408] res3b1_branch2a <- res3a_res3a_relu_0_split_0
I0227 19:12:16.143635 26678 net.cpp:382] res3b1_branch2a -> res3b1_branch2a
I0227 19:12:16.145365 26678 net.cpp:124] Setting up res3b1_branch2a
I0227 19:12:16.145380 26678 net.cpp:131] Top shape: 1 128 32 32 (131072)
I0227 19:12:16.145398 26678 net.cpp:139] Memory required for data: 184025088
I0227 19:12:16.145404 26678 layer_factory.hpp:77] Creating layer bn3b1_branch2a
I0227 19:12:16.145411 26678 net.cpp:86] Creating Layer bn3b1_branch2a
I0227 19:12:16.145426 26678 net.cpp:408] bn3b1_branch2a <- res3b1_branch2a
I0227 19:12:16.145432 26678 net.cpp:369] bn3b1_branch2a -> res3b1_branch2a (in-place)
I0227 19:12:16.145627 26678 net.cpp:124] Setting up bn3b1_branch2a
I0227 19:12:16.145637 26678 net.cpp:131] Top shape: 1 128 32 32 (131072)
I0227 19:12:16.145642 26678 net.cpp:139] Memory required for data: 184549376
I0227 19:12:16.145650 26678 layer_factory.hpp:77] Creating layer scale3b1_branch2a
I0227 19:12:16.145658 26678 net.cpp:86] Creating Layer scale3b1_branch2a
I0227 19:12:16.145663 26678 net.cpp:408] scale3b1_branch2a <- res3b1_branch2a
I0227 19:12:16.145668 26678 net.cpp:369] scale3b1_branch2a -> res3b1_branch2a (in-place)
I0227 19:12:16.145709 26678 layer_factory.hpp:77] Creating layer scale3b1_branch2a
I0227 19:12:16.145808 26678 net.cpp:124] Setting up scale3b1_branch2a
I0227 19:12:16.145817 26678 net.cpp:131] Top shape: 1 128 32 32 (131072)
I0227 19:12:16.145820 26678 net.cpp:139] Memory required for data: 185073664
I0227 19:12:16.145826 26678 layer_factory.hpp:77] Creating layer res3b1_branch2a_relu
I0227 19:12:16.145833 26678 net.cpp:86] Creating Layer res3b1_branch2a_relu
I0227 19:12:16.145835 26678 net.cpp:408] res3b1_branch2a_relu <- res3b1_branch2a
I0227 19:12:16.145841 26678 net.cpp:369] res3b1_branch2a_relu -> res3b1_branch2a (in-place)
I0227 19:12:16.146093 26678 net.cpp:124] Setting up res3b1_branch2a_relu
I0227 19:12:16.146126 26678 net.cpp:131] Top shape: 1 128 32 32 (131072)
I0227 19:12:16.146133 26678 net.cpp:139] Memory required for data: 185597952
I0227 19:12:16.146137 26678 layer_factory.hpp:77] Creating layer res3b1_branch2b
I0227 19:12:16.146145 26678 net.cpp:86] Creating Layer res3b1_branch2b
I0227 19:12:16.146149 26678 net.cpp:408] res3b1_branch2b <- res3b1_branch2a
I0227 19:12:16.146158 26678 net.cpp:382] res3b1_branch2b -> res3b1_branch2b
I0227 19:12:16.147950 26678 net.cpp:124] Setting up res3b1_branch2b
I0227 19:12:16.147979 26678 net.cpp:131] Top shape: 1 128 32 32 (131072)
I0227 19:12:16.147982 26678 net.cpp:139] Memory required for data: 186122240
I0227 19:12:16.147989 26678 layer_factory.hpp:77] Creating layer bn3b1_branch2b
I0227 19:12:16.147996 26678 net.cpp:86] Creating Layer bn3b1_branch2b
I0227 19:12:16.148001 26678 net.cpp:408] bn3b1_branch2b <- res3b1_branch2b
I0227 19:12:16.148017 26678 net.cpp:369] bn3b1_branch2b -> res3b1_branch2b (in-place)
I0227 19:12:16.148231 26678 net.cpp:124] Setting up bn3b1_branch2b
I0227 19:12:16.148241 26678 net.cpp:131] Top shape: 1 128 32 32 (131072)
I0227 19:12:16.148250 26678 net.cpp:139] Memory required for data: 186646528
I0227 19:12:16.148262 26678 layer_factory.hpp:77] Creating layer scale3b1_branch2b
I0227 19:12:16.148272 26678 net.cpp:86] Creating Layer scale3b1_branch2b
I0227 19:12:16.148277 26678 net.cpp:408] scale3b1_branch2b <- res3b1_branch2b
I0227 19:12:16.148283 26678 net.cpp:369] scale3b1_branch2b -> res3b1_branch2b (in-place)
I0227 19:12:16.148351 26678 layer_factory.hpp:77] Creating layer scale3b1_branch2b
I0227 19:12:16.148490 26678 net.cpp:124] Setting up scale3b1_branch2b
I0227 19:12:16.148504 26678 net.cpp:131] Top shape: 1 128 32 32 (131072)
I0227 19:12:16.148506 26678 net.cpp:139] Memory required for data: 187170816
I0227 19:12:16.148514 26678 layer_factory.hpp:77] Creating layer res3b1_branch2b_relu
I0227 19:12:16.148519 26678 net.cpp:86] Creating Layer res3b1_branch2b_relu
I0227 19:12:16.148524 26678 net.cpp:408] res3b1_branch2b_relu <- res3b1_branch2b
I0227 19:12:16.148530 26678 net.cpp:369] res3b1_branch2b_relu -> res3b1_branch2b (in-place)
I0227 19:12:16.148917 26678 net.cpp:124] Setting up res3b1_branch2b_relu
I0227 19:12:16.148931 26678 net.cpp:131] Top shape: 1 128 32 32 (131072)
I0227 19:12:16.148947 26678 net.cpp:139] Memory required for data: 187695104
I0227 19:12:16.148950 26678 layer_factory.hpp:77] Creating layer res3b1_branch2c
I0227 19:12:16.148959 26678 net.cpp:86] Creating Layer res3b1_branch2c
I0227 19:12:16.148963 26678 net.cpp:408] res3b1_branch2c <- res3b1_branch2b
I0227 19:12:16.148988 26678 net.cpp:382] res3b1_branch2c -> res3b1_branch2c
I0227 19:12:16.149967 26678 net.cpp:124] Setting up res3b1_branch2c
I0227 19:12:16.149982 26678 net.cpp:131] Top shape: 1 512 32 32 (524288)
I0227 19:12:16.149986 26678 net.cpp:139] Memory required for data: 189792256
I0227 19:12:16.149998 26678 layer_factory.hpp:77] Creating layer bn3b1_branch2c
I0227 19:12:16.150007 26678 net.cpp:86] Creating Layer bn3b1_branch2c
I0227 19:12:16.150010 26678 net.cpp:408] bn3b1_branch2c <- res3b1_branch2c
I0227 19:12:16.150027 26678 net.cpp:369] bn3b1_branch2c -> res3b1_branch2c (in-place)
I0227 19:12:16.150275 26678 net.cpp:124] Setting up bn3b1_branch2c
I0227 19:12:16.150287 26678 net.cpp:131] Top shape: 1 512 32 32 (524288)
I0227 19:12:16.150291 26678 net.cpp:139] Memory required for data: 191889408
I0227 19:12:16.150300 26678 layer_factory.hpp:77] Creating layer scale3b1_branch2c
I0227 19:12:16.150306 26678 net.cpp:86] Creating Layer scale3b1_branch2c
I0227 19:12:16.150312 26678 net.cpp:408] scale3b1_branch2c <- res3b1_branch2c
I0227 19:12:16.150318 26678 net.cpp:369] scale3b1_branch2c -> res3b1_branch2c (in-place)
I0227 19:12:16.150357 26678 layer_factory.hpp:77] Creating layer scale3b1_branch2c
I0227 19:12:16.150473 26678 net.cpp:124] Setting up scale3b1_branch2c
I0227 19:12:16.150482 26678 net.cpp:131] Top shape: 1 512 32 32 (524288)
I0227 19:12:16.150485 26678 net.cpp:139] Memory required for data: 193986560
I0227 19:12:16.150491 26678 layer_factory.hpp:77] Creating layer res3b1
I0227 19:12:16.150498 26678 net.cpp:86] Creating Layer res3b1
I0227 19:12:16.150502 26678 net.cpp:408] res3b1 <- res3a_res3a_relu_0_split_1
I0227 19:12:16.150507 26678 net.cpp:408] res3b1 <- res3b1_branch2c
I0227 19:12:16.150513 26678 net.cpp:382] res3b1 -> res3b1
I0227 19:12:16.150537 26678 net.cpp:124] Setting up res3b1
I0227 19:12:16.150544 26678 net.cpp:131] Top shape: 1 512 32 32 (524288)
I0227 19:12:16.150547 26678 net.cpp:139] Memory required for data: 196083712
I0227 19:12:16.150550 26678 layer_factory.hpp:77] Creating layer res3b1_relu
I0227 19:12:16.150557 26678 net.cpp:86] Creating Layer res3b1_relu
I0227 19:12:16.150559 26678 net.cpp:408] res3b1_relu <- res3b1
I0227 19:12:16.150566 26678 net.cpp:369] res3b1_relu -> res3b1 (in-place)
I0227 19:12:16.150964 26678 net.cpp:124] Setting up res3b1_relu
I0227 19:12:16.150979 26678 net.cpp:131] Top shape: 1 512 32 32 (524288)
I0227 19:12:16.150982 26678 net.cpp:139] Memory required for data: 198180864
I0227 19:12:16.150985 26678 layer_factory.hpp:77] Creating layer res3b1_res3b1_relu_0_split
I0227 19:12:16.150992 26678 net.cpp:86] Creating Layer res3b1_res3b1_relu_0_split
I0227 19:12:16.150996 26678 net.cpp:408] res3b1_res3b1_relu_0_split <- res3b1
I0227 19:12:16.151013 26678 net.cpp:382] res3b1_res3b1_relu_0_split -> res3b1_res3b1_relu_0_split_0
I0227 19:12:16.151021 26678 net.cpp:382] res3b1_res3b1_relu_0_split -> res3b1_res3b1_relu_0_split_1
I0227 19:12:16.151098 26678 net.cpp:124] Setting up res3b1_res3b1_relu_0_split
I0227 19:12:16.151108 26678 net.cpp:131] Top shape: 1 512 32 32 (524288)
I0227 19:12:16.151113 26678 net.cpp:131] Top shape: 1 512 32 32 (524288)
I0227 19:12:16.151115 26678 net.cpp:139] Memory required for data: 202375168
I0227 19:12:16.151119 26678 layer_factory.hpp:77] Creating layer res3b2_branch2a
I0227 19:12:16.151129 26678 net.cpp:86] Creating Layer res3b2_branch2a
I0227 19:12:16.151132 26678 net.cpp:408] res3b2_branch2a <- res3b1_res3b1_relu_0_split_0
I0227 19:12:16.151162 26678 net.cpp:382] res3b2_branch2a -> res3b2_branch2a
I0227 19:12:16.152261 26678 net.cpp:124] Setting up res3b2_branch2a
I0227 19:12:16.152276 26678 net.cpp:131] Top shape: 1 128 32 32 (131072)
I0227 19:12:16.152281 26678 net.cpp:139] Memory required for data: 202899456
I0227 19:12:16.152285 26678 layer_factory.hpp:77] Creating layer bn3b2_branch2a
I0227 19:12:16.152292 26678 net.cpp:86] Creating Layer bn3b2_branch2a
I0227 19:12:16.152297 26678 net.cpp:408] bn3b2_branch2a <- res3b2_branch2a
I0227 19:12:16.152340 26678 net.cpp:369] bn3b2_branch2a -> res3b2_branch2a (in-place)
I0227 19:12:16.152581 26678 net.cpp:124] Setting up bn3b2_branch2a
I0227 19:12:16.152593 26678 net.cpp:131] Top shape: 1 128 32 32 (131072)
I0227 19:12:16.152597 26678 net.cpp:139] Memory required for data: 203423744
I0227 19:12:16.152606 26678 layer_factory.hpp:77] Creating layer scale3b2_branch2a
I0227 19:12:16.152612 26678 net.cpp:86] Creating Layer scale3b2_branch2a
I0227 19:12:16.152617 26678 net.cpp:408] scale3b2_branch2a <- res3b2_branch2a
I0227 19:12:16.152623 26678 net.cpp:369] scale3b2_branch2a -> res3b2_branch2a (in-place)
I0227 19:12:16.152664 26678 layer_factory.hpp:77] Creating layer scale3b2_branch2a
I0227 19:12:16.152781 26678 net.cpp:124] Setting up scale3b2_branch2a
I0227 19:12:16.152791 26678 net.cpp:131] Top shape: 1 128 32 32 (131072)
I0227 19:12:16.152793 26678 net.cpp:139] Memory required for data: 203948032
I0227 19:12:16.152799 26678 layer_factory.hpp:77] Creating layer res3b2_branch2a_relu
I0227 19:12:16.152806 26678 net.cpp:86] Creating Layer res3b2_branch2a_relu
I0227 19:12:16.152811 26678 net.cpp:408] res3b2_branch2a_relu <- res3b2_branch2a
I0227 19:12:16.152815 26678 net.cpp:369] res3b2_branch2a_relu -> res3b2_branch2a (in-place)
I0227 19:12:16.153031 26678 net.cpp:124] Setting up res3b2_branch2a_relu
I0227 19:12:16.153050 26678 net.cpp:131] Top shape: 1 128 32 32 (131072)
I0227 19:12:16.153054 26678 net.cpp:139] Memory required for data: 204472320
I0227 19:12:16.153059 26678 layer_factory.hpp:77] Creating layer res3b2_branch2b
I0227 19:12:16.153069 26678 net.cpp:86] Creating Layer res3b2_branch2b
I0227 19:12:16.153074 26678 net.cpp:408] res3b2_branch2b <- res3b2_branch2a
I0227 19:12:16.153081 26678 net.cpp:382] res3b2_branch2b -> res3b2_branch2b
I0227 19:12:16.154744 26678 net.cpp:124] Setting up res3b2_branch2b
I0227 19:12:16.154772 26678 net.cpp:131] Top shape: 1 128 32 32 (131072)
I0227 19:12:16.154777 26678 net.cpp:139] Memory required for data: 204996608
I0227 19:12:16.154783 26678 layer_factory.hpp:77] Creating layer bn3b2_branch2b
I0227 19:12:16.154799 26678 net.cpp:86] Creating Layer bn3b2_branch2b
I0227 19:12:16.154803 26678 net.cpp:408] bn3b2_branch2b <- res3b2_branch2b
I0227 19:12:16.154810 26678 net.cpp:369] bn3b2_branch2b -> res3b2_branch2b (in-place)
I0227 19:12:16.155025 26678 net.cpp:124] Setting up bn3b2_branch2b
I0227 19:12:16.155035 26678 net.cpp:131] Top shape: 1 128 32 32 (131072)
I0227 19:12:16.155038 26678 net.cpp:139] Memory required for data: 205520896
I0227 19:12:16.155045 26678 layer_factory.hpp:77] Creating layer scale3b2_branch2b
I0227 19:12:16.155052 26678 net.cpp:86] Creating Layer scale3b2_branch2b
I0227 19:12:16.155057 26678 net.cpp:408] scale3b2_branch2b <- res3b2_branch2b
I0227 19:12:16.155063 26678 net.cpp:369] scale3b2_branch2b -> res3b2_branch2b (in-place)
I0227 19:12:16.155103 26678 layer_factory.hpp:77] Creating layer scale3b2_branch2b
I0227 19:12:16.155212 26678 net.cpp:124] Setting up scale3b2_branch2b
I0227 19:12:16.155222 26678 net.cpp:131] Top shape: 1 128 32 32 (131072)
I0227 19:12:16.155226 26678 net.cpp:139] Memory required for data: 206045184
I0227 19:12:16.155232 26678 layer_factory.hpp:77] Creating layer res3b2_branch2b_relu
I0227 19:12:16.155237 26678 net.cpp:86] Creating Layer res3b2_branch2b_relu
I0227 19:12:16.155241 26678 net.cpp:408] res3b2_branch2b_relu <- res3b2_branch2b
I0227 19:12:16.155247 26678 net.cpp:369] res3b2_branch2b_relu -> res3b2_branch2b (in-place)
I0227 19:12:16.155617 26678 net.cpp:124] Setting up res3b2_branch2b_relu
I0227 19:12:16.155630 26678 net.cpp:131] Top shape: 1 128 32 32 (131072)
I0227 19:12:16.155634 26678 net.cpp:139] Memory required for data: 206569472
I0227 19:12:16.155638 26678 layer_factory.hpp:77] Creating layer res3b2_branch2c
I0227 19:12:16.155649 26678 net.cpp:86] Creating Layer res3b2_branch2c
I0227 19:12:16.155664 26678 net.cpp:408] res3b2_branch2c <- res3b2_branch2b
I0227 19:12:16.155673 26678 net.cpp:382] res3b2_branch2c -> res3b2_branch2c
I0227 19:12:16.156610 26678 net.cpp:124] Setting up res3b2_branch2c
I0227 19:12:16.156625 26678 net.cpp:131] Top shape: 1 512 32 32 (524288)
I0227 19:12:16.156628 26678 net.cpp:139] Memory required for data: 208666624
I0227 19:12:16.156633 26678 layer_factory.hpp:77] Creating layer bn3b2_branch2c
I0227 19:12:16.156641 26678 net.cpp:86] Creating Layer bn3b2_branch2c
I0227 19:12:16.156646 26678 net.cpp:408] bn3b2_branch2c <- res3b2_branch2c
I0227 19:12:16.156661 26678 net.cpp:369] bn3b2_branch2c -> res3b2_branch2c (in-place)
I0227 19:12:16.156947 26678 net.cpp:124] Setting up bn3b2_branch2c
I0227 19:12:16.156960 26678 net.cpp:131] Top shape: 1 512 32 32 (524288)
I0227 19:12:16.156980 26678 net.cpp:139] Memory required for data: 210763776
I0227 19:12:16.156999 26678 layer_factory.hpp:77] Creating layer scale3b2_branch2c
I0227 19:12:16.157006 26678 net.cpp:86] Creating Layer scale3b2_branch2c
I0227 19:12:16.157023 26678 net.cpp:408] scale3b2_branch2c <- res3b2_branch2c
I0227 19:12:16.157042 26678 net.cpp:369] scale3b2_branch2c -> res3b2_branch2c (in-place)
I0227 19:12:16.157093 26678 layer_factory.hpp:77] Creating layer scale3b2_branch2c
I0227 19:12:16.157232 26678 net.cpp:124] Setting up scale3b2_branch2c
I0227 19:12:16.157240 26678 net.cpp:131] Top shape: 1 512 32 32 (524288)
I0227 19:12:16.157243 26678 net.cpp:139] Memory required for data: 212860928
I0227 19:12:16.157249 26678 layer_factory.hpp:77] Creating layer res3b2
I0227 19:12:16.157255 26678 net.cpp:86] Creating Layer res3b2
I0227 19:12:16.157259 26678 net.cpp:408] res3b2 <- res3b1_res3b1_relu_0_split_1
I0227 19:12:16.157264 26678 net.cpp:408] res3b2 <- res3b2_branch2c
I0227 19:12:16.157270 26678 net.cpp:382] res3b2 -> res3b2
I0227 19:12:16.157294 26678 net.cpp:124] Setting up res3b2
I0227 19:12:16.157301 26678 net.cpp:131] Top shape: 1 512 32 32 (524288)
I0227 19:12:16.157305 26678 net.cpp:139] Memory required for data: 214958080
I0227 19:12:16.157308 26678 layer_factory.hpp:77] Creating layer res3b2_relu
I0227 19:12:16.157315 26678 net.cpp:86] Creating Layer res3b2_relu
I0227 19:12:16.157320 26678 net.cpp:408] res3b2_relu <- res3b2
I0227 19:12:16.157331 26678 net.cpp:369] res3b2_relu -> res3b2 (in-place)
I0227 19:12:16.157722 26678 net.cpp:124] Setting up res3b2_relu
I0227 19:12:16.157737 26678 net.cpp:131] Top shape: 1 512 32 32 (524288)
I0227 19:12:16.157740 26678 net.cpp:139] Memory required for data: 217055232
I0227 19:12:16.157743 26678 layer_factory.hpp:77] Creating layer res3b2_res3b2_relu_0_split
I0227 19:12:16.157752 26678 net.cpp:86] Creating Layer res3b2_res3b2_relu_0_split
I0227 19:12:16.157754 26678 net.cpp:408] res3b2_res3b2_relu_0_split <- res3b2
I0227 19:12:16.157771 26678 net.cpp:382] res3b2_res3b2_relu_0_split -> res3b2_res3b2_relu_0_split_0
I0227 19:12:16.157778 26678 net.cpp:382] res3b2_res3b2_relu_0_split -> res3b2_res3b2_relu_0_split_1
I0227 19:12:16.157832 26678 net.cpp:124] Setting up res3b2_res3b2_relu_0_split
I0227 19:12:16.157840 26678 net.cpp:131] Top shape: 1 512 32 32 (524288)
I0227 19:12:16.157845 26678 net.cpp:131] Top shape: 1 512 32 32 (524288)
I0227 19:12:16.157848 26678 net.cpp:139] Memory required for data: 221249536
I0227 19:12:16.157863 26678 layer_factory.hpp:77] Creating layer res3b3_branch2a
I0227 19:12:16.157871 26678 net.cpp:86] Creating Layer res3b3_branch2a
I0227 19:12:16.157877 26678 net.cpp:408] res3b3_branch2a <- res3b2_res3b2_relu_0_split_0
I0227 19:12:16.157883 26678 net.cpp:382] res3b3_branch2a -> res3b3_branch2a
I0227 19:12:16.159657 26678 net.cpp:124] Setting up res3b3_branch2a
I0227 19:12:16.159673 26678 net.cpp:131] Top shape: 1 128 32 32 (131072)
I0227 19:12:16.159689 26678 net.cpp:139] Memory required for data: 221773824
I0227 19:12:16.159720 26678 layer_factory.hpp:77] Creating layer bn3b3_branch2a
I0227 19:12:16.159741 26678 net.cpp:86] Creating Layer bn3b3_branch2a
I0227 19:12:16.159747 26678 net.cpp:408] bn3b3_branch2a <- res3b3_branch2a
I0227 19:12:16.159754 26678 net.cpp:369] bn3b3_branch2a -> res3b3_branch2a (in-place)
I0227 19:12:16.159962 26678 net.cpp:124] Setting up bn3b3_branch2a
I0227 19:12:16.159973 26678 net.cpp:131] Top shape: 1 128 32 32 (131072)
I0227 19:12:16.159976 26678 net.cpp:139] Memory required for data: 222298112
I0227 19:12:16.160002 26678 layer_factory.hpp:77] Creating layer scale3b3_branch2a
I0227 19:12:16.160013 26678 net.cpp:86] Creating Layer scale3b3_branch2a
I0227 19:12:16.160017 26678 net.cpp:408] scale3b3_branch2a <- res3b3_branch2a
I0227 19:12:16.160023 26678 net.cpp:369] scale3b3_branch2a -> res3b3_branch2a (in-place)
I0227 19:12:16.160079 26678 layer_factory.hpp:77] Creating layer scale3b3_branch2a
I0227 19:12:16.160183 26678 net.cpp:124] Setting up scale3b3_branch2a
I0227 19:12:16.160192 26678 net.cpp:131] Top shape: 1 128 32 32 (131072)
I0227 19:12:16.160195 26678 net.cpp:139] Memory required for data: 222822400
I0227 19:12:16.160202 26678 layer_factory.hpp:77] Creating layer res3b3_branch2a_relu
I0227 19:12:16.160207 26678 net.cpp:86] Creating Layer res3b3_branch2a_relu
I0227 19:12:16.160212 26678 net.cpp:408] res3b3_branch2a_relu <- res3b3_branch2a
I0227 19:12:16.160215 26678 net.cpp:369] res3b3_branch2a_relu -> res3b3_branch2a (in-place)
I0227 19:12:16.160442 26678 net.cpp:124] Setting up res3b3_branch2a_relu
I0227 19:12:16.160455 26678 net.cpp:131] Top shape: 1 128 32 32 (131072)
I0227 19:12:16.160459 26678 net.cpp:139] Memory required for data: 223346688
I0227 19:12:16.160464 26678 layer_factory.hpp:77] Creating layer res3b3_branch2b
I0227 19:12:16.160475 26678 net.cpp:86] Creating Layer res3b3_branch2b
I0227 19:12:16.160480 26678 net.cpp:408] res3b3_branch2b <- res3b3_branch2a
I0227 19:12:16.160486 26678 net.cpp:382] res3b3_branch2b -> res3b3_branch2b
I0227 19:12:16.162410 26678 net.cpp:124] Setting up res3b3_branch2b
I0227 19:12:16.162437 26678 net.cpp:131] Top shape: 1 128 32 32 (131072)
I0227 19:12:16.162441 26678 net.cpp:139] Memory required for data: 223870976
I0227 19:12:16.162447 26678 layer_factory.hpp:77] Creating layer bn3b3_branch2b
I0227 19:12:16.162467 26678 net.cpp:86] Creating Layer bn3b3_branch2b
I0227 19:12:16.162472 26678 net.cpp:408] bn3b3_branch2b <- res3b3_branch2b
I0227 19:12:16.162477 26678 net.cpp:369] bn3b3_branch2b -> res3b3_branch2b (in-place)
I0227 19:12:16.162724 26678 net.cpp:124] Setting up bn3b3_branch2b
I0227 19:12:16.162736 26678 net.cpp:131] Top shape: 1 128 32 32 (131072)
I0227 19:12:16.162740 26678 net.cpp:139] Memory required for data: 224395264
I0227 19:12:16.162748 26678 layer_factory.hpp:77] Creating layer scale3b3_branch2b
I0227 19:12:16.162758 26678 net.cpp:86] Creating Layer scale3b3_branch2b
I0227 19:12:16.162765 26678 net.cpp:408] scale3b3_branch2b <- res3b3_branch2b
I0227 19:12:16.162770 26678 net.cpp:369] scale3b3_branch2b -> res3b3_branch2b (in-place)
I0227 19:12:16.162812 26678 layer_factory.hpp:77] Creating layer scale3b3_branch2b
I0227 19:12:16.162920 26678 net.cpp:124] Setting up scale3b3_branch2b
I0227 19:12:16.162930 26678 net.cpp:131] Top shape: 1 128 32 32 (131072)
I0227 19:12:16.162935 26678 net.cpp:139] Memory required for data: 224919552
I0227 19:12:16.162941 26678 layer_factory.hpp:77] Creating layer res3b3_branch2b_relu
I0227 19:12:16.162947 26678 net.cpp:86] Creating Layer res3b3_branch2b_relu
I0227 19:12:16.162950 26678 net.cpp:408] res3b3_branch2b_relu <- res3b3_branch2b
I0227 19:12:16.162966 26678 net.cpp:369] res3b3_branch2b_relu -> res3b3_branch2b (in-place)
I0227 19:12:16.163373 26678 net.cpp:124] Setting up res3b3_branch2b_relu
I0227 19:12:16.163388 26678 net.cpp:131] Top shape: 1 128 32 32 (131072)
I0227 19:12:16.163403 26678 net.cpp:139] Memory required for data: 225443840
I0227 19:12:16.163408 26678 layer_factory.hpp:77] Creating layer res3b3_branch2c
I0227 19:12:16.163440 26678 net.cpp:86] Creating Layer res3b3_branch2c
I0227 19:12:16.163445 26678 net.cpp:408] res3b3_branch2c <- res3b3_branch2b
I0227 19:12:16.163452 26678 net.cpp:382] res3b3_branch2c -> res3b3_branch2c
I0227 19:12:16.164458 26678 net.cpp:124] Setting up res3b3_branch2c
I0227 19:12:16.164471 26678 net.cpp:131] Top shape: 1 512 32 32 (524288)
I0227 19:12:16.164475 26678 net.cpp:139] Memory required for data: 227540992
I0227 19:12:16.164480 26678 layer_factory.hpp:77] Creating layer bn3b3_branch2c
I0227 19:12:16.164489 26678 net.cpp:86] Creating Layer bn3b3_branch2c
I0227 19:12:16.164492 26678 net.cpp:408] bn3b3_branch2c <- res3b3_branch2c
I0227 19:12:16.164510 26678 net.cpp:369] bn3b3_branch2c -> res3b3_branch2c (in-place)
I0227 19:12:16.164749 26678 net.cpp:124] Setting up bn3b3_branch2c
I0227 19:12:16.164760 26678 net.cpp:131] Top shape: 1 512 32 32 (524288)
I0227 19:12:16.164764 26678 net.cpp:139] Memory required for data: 229638144
I0227 19:12:16.164772 26678 layer_factory.hpp:77] Creating layer scale3b3_branch2c
I0227 19:12:16.164778 26678 net.cpp:86] Creating Layer scale3b3_branch2c
I0227 19:12:16.164783 26678 net.cpp:408] scale3b3_branch2c <- res3b3_branch2c
I0227 19:12:16.164789 26678 net.cpp:369] scale3b3_branch2c -> res3b3_branch2c (in-place)
I0227 19:12:16.164827 26678 layer_factory.hpp:77] Creating layer scale3b3_branch2c
I0227 19:12:16.164937 26678 net.cpp:124] Setting up scale3b3_branch2c
I0227 19:12:16.164944 26678 net.cpp:131] Top shape: 1 512 32 32 (524288)
I0227 19:12:16.164948 26678 net.cpp:139] Memory required for data: 231735296
I0227 19:12:16.164954 26678 layer_factory.hpp:77] Creating layer res3b3
I0227 19:12:16.164961 26678 net.cpp:86] Creating Layer res3b3
I0227 19:12:16.164965 26678 net.cpp:408] res3b3 <- res3b2_res3b2_relu_0_split_1
I0227 19:12:16.164970 26678 net.cpp:408] res3b3 <- res3b3_branch2c
I0227 19:12:16.164976 26678 net.cpp:382] res3b3 -> res3b3
I0227 19:12:16.165000 26678 net.cpp:124] Setting up res3b3
I0227 19:12:16.165009 26678 net.cpp:131] Top shape: 1 512 32 32 (524288)
I0227 19:12:16.165012 26678 net.cpp:139] Memory required for data: 233832448
I0227 19:12:16.165015 26678 layer_factory.hpp:77] Creating layer res3b3_relu
I0227 19:12:16.165021 26678 net.cpp:86] Creating Layer res3b3_relu
I0227 19:12:16.165024 26678 net.cpp:408] res3b3_relu <- res3b3
I0227 19:12:16.165031 26678 net.cpp:369] res3b3_relu -> res3b3 (in-place)
I0227 19:12:16.165381 26678 net.cpp:124] Setting up res3b3_relu
I0227 19:12:16.165395 26678 net.cpp:131] Top shape: 1 512 32 32 (524288)
I0227 19:12:16.165398 26678 net.cpp:139] Memory required for data: 235929600
I0227 19:12:16.165402 26678 layer_factory.hpp:77] Creating layer res3b3_res3b3_relu_0_split
I0227 19:12:16.165410 26678 net.cpp:86] Creating Layer res3b3_res3b3_relu_0_split
I0227 19:12:16.165413 26678 net.cpp:408] res3b3_res3b3_relu_0_split <- res3b3
I0227 19:12:16.165429 26678 net.cpp:382] res3b3_res3b3_relu_0_split -> res3b3_res3b3_relu_0_split_0
I0227 19:12:16.165436 26678 net.cpp:382] res3b3_res3b3_relu_0_split -> res3b3_res3b3_relu_0_split_1
I0227 19:12:16.165491 26678 net.cpp:124] Setting up res3b3_res3b3_relu_0_split
I0227 19:12:16.165499 26678 net.cpp:131] Top shape: 1 512 32 32 (524288)
I0227 19:12:16.165504 26678 net.cpp:131] Top shape: 1 512 32 32 (524288)
I0227 19:12:16.165508 26678 net.cpp:139] Memory required for data: 240123904
I0227 19:12:16.165522 26678 layer_factory.hpp:77] Creating layer res3b4_branch2a
I0227 19:12:16.165531 26678 net.cpp:86] Creating Layer res3b4_branch2a
I0227 19:12:16.165537 26678 net.cpp:408] res3b4_branch2a <- res3b3_res3b3_relu_0_split_0
I0227 19:12:16.165542 26678 net.cpp:382] res3b4_branch2a -> res3b4_branch2a
I0227 19:12:16.166694 26678 net.cpp:124] Setting up res3b4_branch2a
I0227 19:12:16.166712 26678 net.cpp:131] Top shape: 1 128 32 32 (131072)
I0227 19:12:16.166726 26678 net.cpp:139] Memory required for data: 240648192
I0227 19:12:16.166733 26678 layer_factory.hpp:77] Creating layer bn3b4_branch2a
I0227 19:12:16.166739 26678 net.cpp:86] Creating Layer bn3b4_branch2a
I0227 19:12:16.166755 26678 net.cpp:408] bn3b4_branch2a <- res3b4_branch2a
I0227 19:12:16.166761 26678 net.cpp:369] bn3b4_branch2a -> res3b4_branch2a (in-place)
I0227 19:12:16.166973 26678 net.cpp:124] Setting up bn3b4_branch2a
I0227 19:12:16.166990 26678 net.cpp:131] Top shape: 1 128 32 32 (131072)
I0227 19:12:16.166996 26678 net.cpp:139] Memory required for data: 241172480
I0227 19:12:16.167003 26678 layer_factory.hpp:77] Creating layer scale3b4_branch2a
I0227 19:12:16.167011 26678 net.cpp:86] Creating Layer scale3b4_branch2a
I0227 19:12:16.167014 26678 net.cpp:408] scale3b4_branch2a <- res3b4_branch2a
I0227 19:12:16.167019 26678 net.cpp:369] scale3b4_branch2a -> res3b4_branch2a (in-place)
I0227 19:12:16.167095 26678 layer_factory.hpp:77] Creating layer scale3b4_branch2a
I0227 19:12:16.167225 26678 net.cpp:124] Setting up scale3b4_branch2a
I0227 19:12:16.167237 26678 net.cpp:131] Top shape: 1 128 32 32 (131072)
I0227 19:12:16.167242 26678 net.cpp:139] Memory required for data: 241696768
I0227 19:12:16.167248 26678 layer_factory.hpp:77] Creating layer res3b4_branch2a_relu
I0227 19:12:16.167254 26678 net.cpp:86] Creating Layer res3b4_branch2a_relu
I0227 19:12:16.167258 26678 net.cpp:408] res3b4_branch2a_relu <- res3b4_branch2a
I0227 19:12:16.167286 26678 net.cpp:369] res3b4_branch2a_relu -> res3b4_branch2a (in-place)
I0227 19:12:16.167485 26678 net.cpp:124] Setting up res3b4_branch2a_relu
I0227 19:12:16.167496 26678 net.cpp:131] Top shape: 1 128 32 32 (131072)
I0227 19:12:16.167500 26678 net.cpp:139] Memory required for data: 242221056
I0227 19:12:16.167505 26678 layer_factory.hpp:77] Creating layer res3b4_branch2b
I0227 19:12:16.167511 26678 net.cpp:86] Creating Layer res3b4_branch2b
I0227 19:12:16.167515 26678 net.cpp:408] res3b4_branch2b <- res3b4_branch2a
I0227 19:12:16.167522 26678 net.cpp:382] res3b4_branch2b -> res3b4_branch2b
I0227 19:12:16.169301 26678 net.cpp:124] Setting up res3b4_branch2b
I0227 19:12:16.169324 26678 net.cpp:131] Top shape: 1 128 32 32 (131072)
I0227 19:12:16.169340 26678 net.cpp:139] Memory required for data: 242745344
I0227 19:12:16.169347 26678 layer_factory.hpp:77] Creating layer bn3b4_branch2b
I0227 19:12:16.169389 26678 net.cpp:86] Creating Layer bn3b4_branch2b
I0227 19:12:16.169396 26678 net.cpp:408] bn3b4_branch2b <- res3b4_branch2b
I0227 19:12:16.169404 26678 net.cpp:369] bn3b4_branch2b -> res3b4_branch2b (in-place)
I0227 19:12:16.169633 26678 net.cpp:124] Setting up bn3b4_branch2b
I0227 19:12:16.169644 26678 net.cpp:131] Top shape: 1 128 32 32 (131072)
I0227 19:12:16.169648 26678 net.cpp:139] Memory required for data: 243269632
I0227 19:12:16.169657 26678 layer_factory.hpp:77] Creating layer scale3b4_branch2b
I0227 19:12:16.169664 26678 net.cpp:86] Creating Layer scale3b4_branch2b
I0227 19:12:16.169669 26678 net.cpp:408] scale3b4_branch2b <- res3b4_branch2b
I0227 19:12:16.169675 26678 net.cpp:369] scale3b4_branch2b -> res3b4_branch2b (in-place)
I0227 19:12:16.169750 26678 layer_factory.hpp:77] Creating layer scale3b4_branch2b
I0227 19:12:16.169862 26678 net.cpp:124] Setting up scale3b4_branch2b
I0227 19:12:16.169870 26678 net.cpp:131] Top shape: 1 128 32 32 (131072)
I0227 19:12:16.169874 26678 net.cpp:139] Memory required for data: 243793920
I0227 19:12:16.169880 26678 layer_factory.hpp:77] Creating layer res3b4_branch2b_relu
I0227 19:12:16.169886 26678 net.cpp:86] Creating Layer res3b4_branch2b_relu
I0227 19:12:16.169898 26678 net.cpp:408] res3b4_branch2b_relu <- res3b4_branch2b
I0227 19:12:16.169905 26678 net.cpp:369] res3b4_branch2b_relu -> res3b4_branch2b (in-place)
I0227 19:12:16.170306 26678 net.cpp:124] Setting up res3b4_branch2b_relu
I0227 19:12:16.170320 26678 net.cpp:131] Top shape: 1 128 32 32 (131072)
I0227 19:12:16.170336 26678 net.cpp:139] Memory required for data: 244318208
I0227 19:12:16.170339 26678 layer_factory.hpp:77] Creating layer res3b4_branch2c
I0227 19:12:16.170359 26678 net.cpp:86] Creating Layer res3b4_branch2c
I0227 19:12:16.170364 26678 net.cpp:408] res3b4_branch2c <- res3b4_branch2b
I0227 19:12:16.170372 26678 net.cpp:382] res3b4_branch2c -> res3b4_branch2c
I0227 19:12:16.171401 26678 net.cpp:124] Setting up res3b4_branch2c
I0227 19:12:16.171414 26678 net.cpp:131] Top shape: 1 512 32 32 (524288)
I0227 19:12:16.171430 26678 net.cpp:139] Memory required for data: 246415360
I0227 19:12:16.171435 26678 layer_factory.hpp:77] Creating layer bn3b4_branch2c
I0227 19:12:16.171454 26678 net.cpp:86] Creating Layer bn3b4_branch2c
I0227 19:12:16.171459 26678 net.cpp:408] bn3b4_branch2c <- res3b4_branch2c
I0227 19:12:16.171476 26678 net.cpp:369] bn3b4_branch2c -> res3b4_branch2c (in-place)
I0227 19:12:16.171730 26678 net.cpp:124] Setting up bn3b4_branch2c
I0227 19:12:16.171741 26678 net.cpp:131] Top shape: 1 512 32 32 (524288)
I0227 19:12:16.171756 26678 net.cpp:139] Memory required for data: 248512512
I0227 19:12:16.171777 26678 layer_factory.hpp:77] Creating layer scale3b4_branch2c
I0227 19:12:16.171783 26678 net.cpp:86] Creating Layer scale3b4_branch2c
I0227 19:12:16.171787 26678 net.cpp:408] scale3b4_branch2c <- res3b4_branch2c
I0227 19:12:16.171794 26678 net.cpp:369] scale3b4_branch2c -> res3b4_branch2c (in-place)
I0227 19:12:16.171840 26678 layer_factory.hpp:77] Creating layer scale3b4_branch2c
I0227 19:12:16.171954 26678 net.cpp:124] Setting up scale3b4_branch2c
I0227 19:12:16.171963 26678 net.cpp:131] Top shape: 1 512 32 32 (524288)
I0227 19:12:16.171967 26678 net.cpp:139] Memory required for data: 250609664
I0227 19:12:16.171973 26678 layer_factory.hpp:77] Creating layer res3b4
I0227 19:12:16.171978 26678 net.cpp:86] Creating Layer res3b4
I0227 19:12:16.171983 26678 net.cpp:408] res3b4 <- res3b3_res3b3_relu_0_split_1
I0227 19:12:16.171988 26678 net.cpp:408] res3b4 <- res3b4_branch2c
I0227 19:12:16.171994 26678 net.cpp:382] res3b4 -> res3b4
I0227 19:12:16.172019 26678 net.cpp:124] Setting up res3b4
I0227 19:12:16.172027 26678 net.cpp:131] Top shape: 1 512 32 32 (524288)
I0227 19:12:16.172031 26678 net.cpp:139] Memory required for data: 252706816
I0227 19:12:16.172034 26678 layer_factory.hpp:77] Creating layer res3b4_relu
I0227 19:12:16.172041 26678 net.cpp:86] Creating Layer res3b4_relu
I0227 19:12:16.172045 26678 net.cpp:408] res3b4_relu <- res3b4
I0227 19:12:16.172050 26678 net.cpp:369] res3b4_relu -> res3b4 (in-place)
I0227 19:12:16.172466 26678 net.cpp:124] Setting up res3b4_relu
I0227 19:12:16.172479 26678 net.cpp:131] Top shape: 1 512 32 32 (524288)
I0227 19:12:16.172495 26678 net.cpp:139] Memory required for data: 254803968
I0227 19:12:16.172498 26678 layer_factory.hpp:77] Creating layer res3b4_res3b4_relu_0_split
I0227 19:12:16.172507 26678 net.cpp:86] Creating Layer res3b4_res3b4_relu_0_split
I0227 19:12:16.172521 26678 net.cpp:408] res3b4_res3b4_relu_0_split <- res3b4
I0227 19:12:16.172528 26678 net.cpp:382] res3b4_res3b4_relu_0_split -> res3b4_res3b4_relu_0_split_0
I0227 19:12:16.172534 26678 net.cpp:382] res3b4_res3b4_relu_0_split -> res3b4_res3b4_relu_0_split_1
I0227 19:12:16.172633 26678 net.cpp:124] Setting up res3b4_res3b4_relu_0_split
I0227 19:12:16.172643 26678 net.cpp:131] Top shape: 1 512 32 32 (524288)
I0227 19:12:16.172647 26678 net.cpp:131] Top shape: 1 512 32 32 (524288)
I0227 19:12:16.172652 26678 net.cpp:139] Memory required for data: 258998272
I0227 19:12:16.172667 26678 layer_factory.hpp:77] Creating layer res3b5_branch2a
I0227 19:12:16.172675 26678 net.cpp:86] Creating Layer res3b5_branch2a
I0227 19:12:16.172679 26678 net.cpp:408] res3b5_branch2a <- res3b4_res3b4_relu_0_split_0
I0227 19:12:16.172684 26678 net.cpp:382] res3b5_branch2a -> res3b5_branch2a
I0227 19:12:16.174326 26678 net.cpp:124] Setting up res3b5_branch2a
I0227 19:12:16.174341 26678 net.cpp:131] Top shape: 1 128 32 32 (131072)
I0227 19:12:16.174357 26678 net.cpp:139] Memory required for data: 259522560
I0227 19:12:16.174362 26678 layer_factory.hpp:77] Creating layer bn3b5_branch2a
I0227 19:12:16.174382 26678 net.cpp:86] Creating Layer bn3b5_branch2a
I0227 19:12:16.174386 26678 net.cpp:408] bn3b5_branch2a <- res3b5_branch2a
I0227 19:12:16.174393 26678 net.cpp:369] bn3b5_branch2a -> res3b5_branch2a (in-place)
I0227 19:12:16.174605 26678 net.cpp:124] Setting up bn3b5_branch2a
I0227 19:12:16.174615 26678 net.cpp:131] Top shape: 1 128 32 32 (131072)
I0227 19:12:16.174619 26678 net.cpp:139] Memory required for data: 260046848
I0227 19:12:16.174628 26678 layer_factory.hpp:77] Creating layer scale3b5_branch2a
I0227 19:12:16.174648 26678 net.cpp:86] Creating Layer scale3b5_branch2a
I0227 19:12:16.174654 26678 net.cpp:408] scale3b5_branch2a <- res3b5_branch2a
I0227 19:12:16.174659 26678 net.cpp:369] scale3b5_branch2a -> res3b5_branch2a (in-place)
I0227 19:12:16.174706 26678 layer_factory.hpp:77] Creating layer scale3b5_branch2a
I0227 19:12:16.174816 26678 net.cpp:124] Setting up scale3b5_branch2a
I0227 19:12:16.174825 26678 net.cpp:131] Top shape: 1 128 32 32 (131072)
I0227 19:12:16.174829 26678 net.cpp:139] Memory required for data: 260571136
I0227 19:12:16.174835 26678 layer_factory.hpp:77] Creating layer res3b5_branch2a_relu
I0227 19:12:16.174862 26678 net.cpp:86] Creating Layer res3b5_branch2a_relu
I0227 19:12:16.174868 26678 net.cpp:408] res3b5_branch2a_relu <- res3b5_branch2a
I0227 19:12:16.174873 26678 net.cpp:369] res3b5_branch2a_relu -> res3b5_branch2a (in-place)
I0227 19:12:16.175057 26678 net.cpp:124] Setting up res3b5_branch2a_relu
I0227 19:12:16.175068 26678 net.cpp:131] Top shape: 1 128 32 32 (131072)
I0227 19:12:16.175072 26678 net.cpp:139] Memory required for data: 261095424
I0227 19:12:16.175076 26678 layer_factory.hpp:77] Creating layer res3b5_branch2b
I0227 19:12:16.175086 26678 net.cpp:86] Creating Layer res3b5_branch2b
I0227 19:12:16.175089 26678 net.cpp:408] res3b5_branch2b <- res3b5_branch2a
I0227 19:12:16.175096 26678 net.cpp:382] res3b5_branch2b -> res3b5_branch2b
I0227 19:12:16.176913 26678 net.cpp:124] Setting up res3b5_branch2b
I0227 19:12:16.176928 26678 net.cpp:131] Top shape: 1 128 32 32 (131072)
I0227 19:12:16.176944 26678 net.cpp:139] Memory required for data: 261619712
I0227 19:12:16.176949 26678 layer_factory.hpp:77] Creating layer bn3b5_branch2b
I0227 19:12:16.176957 26678 net.cpp:86] Creating Layer bn3b5_branch2b
I0227 19:12:16.176973 26678 net.cpp:408] bn3b5_branch2b <- res3b5_branch2b
I0227 19:12:16.176980 26678 net.cpp:369] bn3b5_branch2b -> res3b5_branch2b (in-place)
I0227 19:12:16.177214 26678 net.cpp:124] Setting up bn3b5_branch2b
I0227 19:12:16.177225 26678 net.cpp:131] Top shape: 1 128 32 32 (131072)
I0227 19:12:16.177229 26678 net.cpp:139] Memory required for data: 262144000
I0227 19:12:16.177237 26678 layer_factory.hpp:77] Creating layer scale3b5_branch2b
I0227 19:12:16.177244 26678 net.cpp:86] Creating Layer scale3b5_branch2b
I0227 19:12:16.177273 26678 net.cpp:408] scale3b5_branch2b <- res3b5_branch2b
I0227 19:12:16.177283 26678 net.cpp:369] scale3b5_branch2b -> res3b5_branch2b (in-place)
I0227 19:12:16.177330 26678 layer_factory.hpp:77] Creating layer scale3b5_branch2b
I0227 19:12:16.177453 26678 net.cpp:124] Setting up scale3b5_branch2b
I0227 19:12:16.177462 26678 net.cpp:131] Top shape: 1 128 32 32 (131072)
I0227 19:12:16.177466 26678 net.cpp:139] Memory required for data: 262668288
I0227 19:12:16.177472 26678 layer_factory.hpp:77] Creating layer res3b5_branch2b_relu
I0227 19:12:16.177480 26678 net.cpp:86] Creating Layer res3b5_branch2b_relu
I0227 19:12:16.177484 26678 net.cpp:408] res3b5_branch2b_relu <- res3b5_branch2b
I0227 19:12:16.177489 26678 net.cpp:369] res3b5_branch2b_relu -> res3b5_branch2b (in-place)
I0227 19:12:16.177896 26678 net.cpp:124] Setting up res3b5_branch2b_relu
I0227 19:12:16.177908 26678 net.cpp:131] Top shape: 1 128 32 32 (131072)
I0227 19:12:16.177930 26678 net.cpp:139] Memory required for data: 263192576
I0227 19:12:16.177934 26678 layer_factory.hpp:77] Creating layer res3b5_branch2c
I0227 19:12:16.177955 26678 net.cpp:86] Creating Layer res3b5_branch2c
I0227 19:12:16.177959 26678 net.cpp:408] res3b5_branch2c <- res3b5_branch2b
I0227 19:12:16.177965 26678 net.cpp:382] res3b5_branch2c -> res3b5_branch2c
I0227 19:12:16.179220 26678 net.cpp:124] Setting up res3b5_branch2c
I0227 19:12:16.179236 26678 net.cpp:131] Top shape: 1 512 32 32 (524288)
I0227 19:12:16.179252 26678 net.cpp:139] Memory required for data: 265289728
I0227 19:12:16.179258 26678 layer_factory.hpp:77] Creating layer bn3b5_branch2c
I0227 19:12:16.179277 26678 net.cpp:86] Creating Layer bn3b5_branch2c
I0227 19:12:16.179282 26678 net.cpp:408] bn3b5_branch2c <- res3b5_branch2c
I0227 19:12:16.179288 26678 net.cpp:369] bn3b5_branch2c -> res3b5_branch2c (in-place)
I0227 19:12:16.179518 26678 net.cpp:124] Setting up bn3b5_branch2c
I0227 19:12:16.179535 26678 net.cpp:131] Top shape: 1 512 32 32 (524288)
I0227 19:12:16.179541 26678 net.cpp:139] Memory required for data: 267386880
I0227 19:12:16.179549 26678 layer_factory.hpp:77] Creating layer scale3b5_branch2c
I0227 19:12:16.179558 26678 net.cpp:86] Creating Layer scale3b5_branch2c
I0227 19:12:16.179561 26678 net.cpp:408] scale3b5_branch2c <- res3b5_branch2c
I0227 19:12:16.179567 26678 net.cpp:369] scale3b5_branch2c -> res3b5_branch2c (in-place)
I0227 19:12:16.179636 26678 layer_factory.hpp:77] Creating layer scale3b5_branch2c
I0227 19:12:16.179785 26678 net.cpp:124] Setting up scale3b5_branch2c
I0227 19:12:16.179796 26678 net.cpp:131] Top shape: 1 512 32 32 (524288)
I0227 19:12:16.179800 26678 net.cpp:139] Memory required for data: 269484032
I0227 19:12:16.179806 26678 layer_factory.hpp:77] Creating layer res3b5
I0227 19:12:16.179814 26678 net.cpp:86] Creating Layer res3b5
I0227 19:12:16.179821 26678 net.cpp:408] res3b5 <- res3b4_res3b4_relu_0_split_1
I0227 19:12:16.179826 26678 net.cpp:408] res3b5 <- res3b5_branch2c
I0227 19:12:16.179833 26678 net.cpp:382] res3b5 -> res3b5
I0227 19:12:16.179862 26678 net.cpp:124] Setting up res3b5
I0227 19:12:16.179869 26678 net.cpp:131] Top shape: 1 512 32 32 (524288)
I0227 19:12:16.179873 26678 net.cpp:139] Memory required for data: 271581184
I0227 19:12:16.179877 26678 layer_factory.hpp:77] Creating layer res3b5_relu
I0227 19:12:16.179883 26678 net.cpp:86] Creating Layer res3b5_relu
I0227 19:12:16.179886 26678 net.cpp:408] res3b5_relu <- res3b5
I0227 19:12:16.179893 26678 net.cpp:369] res3b5_relu -> res3b5 (in-place)
I0227 19:12:16.180285 26678 net.cpp:124] Setting up res3b5_relu
I0227 19:12:16.180300 26678 net.cpp:131] Top shape: 1 512 32 32 (524288)
I0227 19:12:16.180315 26678 net.cpp:139] Memory required for data: 273678336
I0227 19:12:16.180320 26678 layer_factory.hpp:77] Creating layer res3b5_res3b5_relu_0_split
I0227 19:12:16.180327 26678 net.cpp:86] Creating Layer res3b5_res3b5_relu_0_split
I0227 19:12:16.180343 26678 net.cpp:408] res3b5_res3b5_relu_0_split <- res3b5
I0227 19:12:16.180349 26678 net.cpp:382] res3b5_res3b5_relu_0_split -> res3b5_res3b5_relu_0_split_0
I0227 19:12:16.180364 26678 net.cpp:382] res3b5_res3b5_relu_0_split -> res3b5_res3b5_relu_0_split_1
I0227 19:12:16.180416 26678 net.cpp:124] Setting up res3b5_res3b5_relu_0_split
I0227 19:12:16.180425 26678 net.cpp:131] Top shape: 1 512 32 32 (524288)
I0227 19:12:16.180430 26678 net.cpp:131] Top shape: 1 512 32 32 (524288)
I0227 19:12:16.180433 26678 net.cpp:139] Memory required for data: 277872640
I0227 19:12:16.180438 26678 layer_factory.hpp:77] Creating layer res3b6_branch2a
I0227 19:12:16.180446 26678 net.cpp:86] Creating Layer res3b6_branch2a
I0227 19:12:16.180452 26678 net.cpp:408] res3b6_branch2a <- res3b5_res3b5_relu_0_split_0
I0227 19:12:16.180459 26678 net.cpp:382] res3b6_branch2a -> res3b6_branch2a
I0227 19:12:16.181653 26678 net.cpp:124] Setting up res3b6_branch2a
I0227 19:12:16.181680 26678 net.cpp:131] Top shape: 1 128 32 32 (131072)
I0227 19:12:16.181696 26678 net.cpp:139] Memory required for data: 278396928
I0227 19:12:16.181702 26678 layer_factory.hpp:77] Creating layer bn3b6_branch2a
I0227 19:12:16.181722 26678 net.cpp:86] Creating Layer bn3b6_branch2a
I0227 19:12:16.181727 26678 net.cpp:408] bn3b6_branch2a <- res3b6_branch2a
I0227 19:12:16.181735 26678 net.cpp:369] bn3b6_branch2a -> res3b6_branch2a (in-place)
I0227 19:12:16.181978 26678 net.cpp:124] Setting up bn3b6_branch2a
I0227 19:12:16.181990 26678 net.cpp:131] Top shape: 1 128 32 32 (131072)
I0227 19:12:16.182001 26678 net.cpp:139] Memory required for data: 278921216
I0227 19:12:16.182010 26678 layer_factory.hpp:77] Creating layer scale3b6_branch2a
I0227 19:12:16.182018 26678 net.cpp:86] Creating Layer scale3b6_branch2a
I0227 19:12:16.182023 26678 net.cpp:408] scale3b6_branch2a <- res3b6_branch2a
I0227 19:12:16.182030 26678 net.cpp:369] scale3b6_branch2a -> res3b6_branch2a (in-place)
I0227 19:12:16.182075 26678 layer_factory.hpp:77] Creating layer scale3b6_branch2a
I0227 19:12:16.182193 26678 net.cpp:124] Setting up scale3b6_branch2a
I0227 19:12:16.182201 26678 net.cpp:131] Top shape: 1 128 32 32 (131072)
I0227 19:12:16.182205 26678 net.cpp:139] Memory required for data: 279445504
I0227 19:12:16.182211 26678 layer_factory.hpp:77] Creating layer res3b6_branch2a_relu
I0227 19:12:16.182217 26678 net.cpp:86] Creating Layer res3b6_branch2a_relu
I0227 19:12:16.182221 26678 net.cpp:408] res3b6_branch2a_relu <- res3b6_branch2a
I0227 19:12:16.182227 26678 net.cpp:369] res3b6_branch2a_relu -> res3b6_branch2a (in-place)
I0227 19:12:16.182423 26678 net.cpp:124] Setting up res3b6_branch2a_relu
I0227 19:12:16.182441 26678 net.cpp:131] Top shape: 1 128 32 32 (131072)
I0227 19:12:16.182447 26678 net.cpp:139] Memory required for data: 279969792
I0227 19:12:16.182451 26678 layer_factory.hpp:77] Creating layer res3b6_branch2b
I0227 19:12:16.182461 26678 net.cpp:86] Creating Layer res3b6_branch2b
I0227 19:12:16.182513 26678 net.cpp:408] res3b6_branch2b <- res3b6_branch2a
I0227 19:12:16.182521 26678 net.cpp:382] res3b6_branch2b -> res3b6_branch2b
I0227 19:12:16.184348 26678 net.cpp:124] Setting up res3b6_branch2b
I0227 19:12:16.184365 26678 net.cpp:131] Top shape: 1 128 32 32 (131072)
I0227 19:12:16.184381 26678 net.cpp:139] Memory required for data: 280494080
I0227 19:12:16.184401 26678 layer_factory.hpp:77] Creating layer bn3b6_branch2b
I0227 19:12:16.184408 26678 net.cpp:86] Creating Layer bn3b6_branch2b
I0227 19:12:16.184424 26678 net.cpp:408] bn3b6_branch2b <- res3b6_branch2b
I0227 19:12:16.184432 26678 net.cpp:369] bn3b6_branch2b -> res3b6_branch2b (in-place)
I0227 19:12:16.184638 26678 net.cpp:124] Setting up bn3b6_branch2b
I0227 19:12:16.184648 26678 net.cpp:131] Top shape: 1 128 32 32 (131072)
I0227 19:12:16.184653 26678 net.cpp:139] Memory required for data: 281018368
I0227 19:12:16.184659 26678 layer_factory.hpp:77] Creating layer scale3b6_branch2b
I0227 19:12:16.184665 26678 net.cpp:86] Creating Layer scale3b6_branch2b
I0227 19:12:16.184669 26678 net.cpp:408] scale3b6_branch2b <- res3b6_branch2b
I0227 19:12:16.184676 26678 net.cpp:369] scale3b6_branch2b -> res3b6_branch2b (in-place)
I0227 19:12:16.184720 26678 layer_factory.hpp:77] Creating layer scale3b6_branch2b
I0227 19:12:16.184835 26678 net.cpp:124] Setting up scale3b6_branch2b
I0227 19:12:16.184844 26678 net.cpp:131] Top shape: 1 128 32 32 (131072)
I0227 19:12:16.184849 26678 net.cpp:139] Memory required for data: 281542656
I0227 19:12:16.184854 26678 layer_factory.hpp:77] Creating layer res3b6_branch2b_relu
I0227 19:12:16.184860 26678 net.cpp:86] Creating Layer res3b6_branch2b_relu
I0227 19:12:16.184864 26678 net.cpp:408] res3b6_branch2b_relu <- res3b6_branch2b
I0227 19:12:16.184870 26678 net.cpp:369] res3b6_branch2b_relu -> res3b6_branch2b (in-place)
I0227 19:12:16.185246 26678 net.cpp:124] Setting up res3b6_branch2b_relu
I0227 19:12:16.185261 26678 net.cpp:131] Top shape: 1 128 32 32 (131072)
I0227 19:12:16.185276 26678 net.cpp:139] Memory required for data: 282066944
I0227 19:12:16.185279 26678 layer_factory.hpp:77] Creating layer res3b6_branch2c
I0227 19:12:16.185300 26678 net.cpp:86] Creating Layer res3b6_branch2c
I0227 19:12:16.185304 26678 net.cpp:408] res3b6_branch2c <- res3b6_branch2b
I0227 19:12:16.185312 26678 net.cpp:382] res3b6_branch2c -> res3b6_branch2c
I0227 19:12:16.186300 26678 net.cpp:124] Setting up res3b6_branch2c
I0227 19:12:16.186314 26678 net.cpp:131] Top shape: 1 512 32 32 (524288)
I0227 19:12:16.186317 26678 net.cpp:139] Memory required for data: 284164096
I0227 19:12:16.186323 26678 layer_factory.hpp:77] Creating layer bn3b6_branch2c
I0227 19:12:16.186354 26678 net.cpp:86] Creating Layer bn3b6_branch2c
I0227 19:12:16.186373 26678 net.cpp:408] bn3b6_branch2c <- res3b6_branch2c
I0227 19:12:16.186379 26678 net.cpp:369] bn3b6_branch2c -> res3b6_branch2c (in-place)
I0227 19:12:16.186626 26678 net.cpp:124] Setting up bn3b6_branch2c
I0227 19:12:16.186637 26678 net.cpp:131] Top shape: 1 512 32 32 (524288)
I0227 19:12:16.186641 26678 net.cpp:139] Memory required for data: 286261248
I0227 19:12:16.186650 26678 layer_factory.hpp:77] Creating layer scale3b6_branch2c
I0227 19:12:16.186657 26678 net.cpp:86] Creating Layer scale3b6_branch2c
I0227 19:12:16.186663 26678 net.cpp:408] scale3b6_branch2c <- res3b6_branch2c
I0227 19:12:16.186668 26678 net.cpp:369] scale3b6_branch2c -> res3b6_branch2c (in-place)
I0227 19:12:16.186708 26678 layer_factory.hpp:77] Creating layer scale3b6_branch2c
I0227 19:12:16.186836 26678 net.cpp:124] Setting up scale3b6_branch2c
I0227 19:12:16.186844 26678 net.cpp:131] Top shape: 1 512 32 32 (524288)
I0227 19:12:16.186848 26678 net.cpp:139] Memory required for data: 288358400
I0227 19:12:16.186853 26678 layer_factory.hpp:77] Creating layer res3b6
I0227 19:12:16.186861 26678 net.cpp:86] Creating Layer res3b6
I0227 19:12:16.186873 26678 net.cpp:408] res3b6 <- res3b5_res3b5_relu_0_split_1
I0227 19:12:16.186878 26678 net.cpp:408] res3b6 <- res3b6_branch2c
I0227 19:12:16.186884 26678 net.cpp:382] res3b6 -> res3b6
I0227 19:12:16.186939 26678 net.cpp:124] Setting up res3b6
I0227 19:12:16.186949 26678 net.cpp:131] Top shape: 1 512 32 32 (524288)
I0227 19:12:16.186952 26678 net.cpp:139] Memory required for data: 290455552
I0227 19:12:16.186956 26678 layer_factory.hpp:77] Creating layer res3b6_relu
I0227 19:12:16.186962 26678 net.cpp:86] Creating Layer res3b6_relu
I0227 19:12:16.186966 26678 net.cpp:408] res3b6_relu <- res3b6
I0227 19:12:16.186974 26678 net.cpp:369] res3b6_relu -> res3b6 (in-place)
I0227 19:12:16.187346 26678 net.cpp:124] Setting up res3b6_relu
I0227 19:12:16.187361 26678 net.cpp:131] Top shape: 1 512 32 32 (524288)
I0227 19:12:16.187376 26678 net.cpp:139] Memory required for data: 292552704
I0227 19:12:16.187381 26678 layer_factory.hpp:77] Creating layer res3b6_res3b6_relu_0_split
I0227 19:12:16.187386 26678 net.cpp:86] Creating Layer res3b6_res3b6_relu_0_split
I0227 19:12:16.187391 26678 net.cpp:408] res3b6_res3b6_relu_0_split <- res3b6
I0227 19:12:16.187408 26678 net.cpp:382] res3b6_res3b6_relu_0_split -> res3b6_res3b6_relu_0_split_0
I0227 19:12:16.187417 26678 net.cpp:382] res3b6_res3b6_relu_0_split -> res3b6_res3b6_relu_0_split_1
I0227 19:12:16.187475 26678 net.cpp:124] Setting up res3b6_res3b6_relu_0_split
I0227 19:12:16.187486 26678 net.cpp:131] Top shape: 1 512 32 32 (524288)
I0227 19:12:16.187517 26678 net.cpp:131] Top shape: 1 512 32 32 (524288)
I0227 19:12:16.187522 26678 net.cpp:139] Memory required for data: 296747008
I0227 19:12:16.187526 26678 layer_factory.hpp:77] Creating layer res3b7_branch2a
I0227 19:12:16.187533 26678 net.cpp:86] Creating Layer res3b7_branch2a
I0227 19:12:16.187538 26678 net.cpp:408] res3b7_branch2a <- res3b6_res3b6_relu_0_split_0
I0227 19:12:16.187546 26678 net.cpp:382] res3b7_branch2a -> res3b7_branch2a
I0227 19:12:16.189306 26678 net.cpp:124] Setting up res3b7_branch2a
I0227 19:12:16.189323 26678 net.cpp:131] Top shape: 1 128 32 32 (131072)
I0227 19:12:16.189347 26678 net.cpp:139] Memory required for data: 297271296
I0227 19:12:16.189353 26678 layer_factory.hpp:77] Creating layer bn3b7_branch2a
I0227 19:12:16.189360 26678 net.cpp:86] Creating Layer bn3b7_branch2a
I0227 19:12:16.189365 26678 net.cpp:408] bn3b7_branch2a <- res3b7_branch2a
I0227 19:12:16.189370 26678 net.cpp:369] bn3b7_branch2a -> res3b7_branch2a (in-place)
I0227 19:12:16.189599 26678 net.cpp:124] Setting up bn3b7_branch2a
I0227 19:12:16.189610 26678 net.cpp:131] Top shape: 1 128 32 32 (131072)
I0227 19:12:16.189612 26678 net.cpp:139] Memory required for data: 297795584
I0227 19:12:16.189620 26678 layer_factory.hpp:77] Creating layer scale3b7_branch2a
I0227 19:12:16.189626 26678 net.cpp:86] Creating Layer scale3b7_branch2a
I0227 19:12:16.189632 26678 net.cpp:408] scale3b7_branch2a <- res3b7_branch2a
I0227 19:12:16.189637 26678 net.cpp:369] scale3b7_branch2a -> res3b7_branch2a (in-place)
I0227 19:12:16.189680 26678 layer_factory.hpp:77] Creating layer scale3b7_branch2a
I0227 19:12:16.189803 26678 net.cpp:124] Setting up scale3b7_branch2a
I0227 19:12:16.189837 26678 net.cpp:131] Top shape: 1 128 32 32 (131072)
I0227 19:12:16.189844 26678 net.cpp:139] Memory required for data: 298319872
I0227 19:12:16.189851 26678 layer_factory.hpp:77] Creating layer res3b7_branch2a_relu
I0227 19:12:16.189857 26678 net.cpp:86] Creating Layer res3b7_branch2a_relu
I0227 19:12:16.189860 26678 net.cpp:408] res3b7_branch2a_relu <- res3b7_branch2a
I0227 19:12:16.189867 26678 net.cpp:369] res3b7_branch2a_relu -> res3b7_branch2a (in-place)
I0227 19:12:16.190065 26678 net.cpp:124] Setting up res3b7_branch2a_relu
I0227 19:12:16.190078 26678 net.cpp:131] Top shape: 1 128 32 32 (131072)
I0227 19:12:16.190083 26678 net.cpp:139] Memory required for data: 298844160
I0227 19:12:16.190086 26678 layer_factory.hpp:77] Creating layer res3b7_branch2b
I0227 19:12:16.190093 26678 net.cpp:86] Creating Layer res3b7_branch2b
I0227 19:12:16.190098 26678 net.cpp:408] res3b7_branch2b <- res3b7_branch2a
I0227 19:12:16.190125 26678 net.cpp:382] res3b7_branch2b -> res3b7_branch2b
I0227 19:12:16.191994 26678 net.cpp:124] Setting up res3b7_branch2b
I0227 19:12:16.192023 26678 net.cpp:131] Top shape: 1 128 32 32 (131072)
I0227 19:12:16.192028 26678 net.cpp:139] Memory required for data: 299368448
I0227 19:12:16.192034 26678 layer_factory.hpp:77] Creating layer bn3b7_branch2b
I0227 19:12:16.192051 26678 net.cpp:86] Creating Layer bn3b7_branch2b
I0227 19:12:16.192056 26678 net.cpp:408] bn3b7_branch2b <- res3b7_branch2b
I0227 19:12:16.192064 26678 net.cpp:369] bn3b7_branch2b -> res3b7_branch2b (in-place)
I0227 19:12:16.192323 26678 net.cpp:124] Setting up bn3b7_branch2b
I0227 19:12:16.192345 26678 net.cpp:131] Top shape: 1 128 32 32 (131072)
I0227 19:12:16.192349 26678 net.cpp:139] Memory required for data: 299892736
I0227 19:12:16.192370 26678 layer_factory.hpp:77] Creating layer scale3b7_branch2b
I0227 19:12:16.192378 26678 net.cpp:86] Creating Layer scale3b7_branch2b
I0227 19:12:16.192380 26678 net.cpp:408] scale3b7_branch2b <- res3b7_branch2b
I0227 19:12:16.192386 26678 net.cpp:369] scale3b7_branch2b -> res3b7_branch2b (in-place)
I0227 19:12:16.192442 26678 layer_factory.hpp:77] Creating layer scale3b7_branch2b
I0227 19:12:16.192586 26678 net.cpp:124] Setting up scale3b7_branch2b
I0227 19:12:16.192595 26678 net.cpp:131] Top shape: 1 128 32 32 (131072)
I0227 19:12:16.192600 26678 net.cpp:139] Memory required for data: 300417024
I0227 19:12:16.192605 26678 layer_factory.hpp:77] Creating layer res3b7_branch2b_relu
I0227 19:12:16.192611 26678 net.cpp:86] Creating Layer res3b7_branch2b_relu
I0227 19:12:16.192615 26678 net.cpp:408] res3b7_branch2b_relu <- res3b7_branch2b
I0227 19:12:16.192620 26678 net.cpp:369] res3b7_branch2b_relu -> res3b7_branch2b (in-place)
I0227 19:12:16.193073 26678 net.cpp:124] Setting up res3b7_branch2b_relu
I0227 19:12:16.193087 26678 net.cpp:131] Top shape: 1 128 32 32 (131072)
I0227 19:12:16.193091 26678 net.cpp:139] Memory required for data: 300941312
I0227 19:12:16.193094 26678 layer_factory.hpp:77] Creating layer res3b7_branch2c
I0227 19:12:16.193104 26678 net.cpp:86] Creating Layer res3b7_branch2c
I0227 19:12:16.193107 26678 net.cpp:408] res3b7_branch2c <- res3b7_branch2b
I0227 19:12:16.193125 26678 net.cpp:382] res3b7_branch2c -> res3b7_branch2c
I0227 19:12:16.194164 26678 net.cpp:124] Setting up res3b7_branch2c
I0227 19:12:16.194180 26678 net.cpp:131] Top shape: 1 512 32 32 (524288)
I0227 19:12:16.194183 26678 net.cpp:139] Memory required for data: 303038464
I0227 19:12:16.194190 26678 layer_factory.hpp:77] Creating layer bn3b7_branch2c
I0227 19:12:16.194196 26678 net.cpp:86] Creating Layer bn3b7_branch2c
I0227 19:12:16.194212 26678 net.cpp:408] bn3b7_branch2c <- res3b7_branch2c
I0227 19:12:16.194218 26678 net.cpp:369] bn3b7_branch2c -> res3b7_branch2c (in-place)
I0227 19:12:16.194447 26678 net.cpp:124] Setting up bn3b7_branch2c
I0227 19:12:16.194458 26678 net.cpp:131] Top shape: 1 512 32 32 (524288)
I0227 19:12:16.194460 26678 net.cpp:139] Memory required for data: 305135616
I0227 19:12:16.194468 26678 layer_factory.hpp:77] Creating layer scale3b7_branch2c
I0227 19:12:16.194474 26678 net.cpp:86] Creating Layer scale3b7_branch2c
I0227 19:12:16.194478 26678 net.cpp:408] scale3b7_branch2c <- res3b7_branch2c
I0227 19:12:16.194485 26678 net.cpp:369] scale3b7_branch2c -> res3b7_branch2c (in-place)
I0227 19:12:16.194525 26678 layer_factory.hpp:77] Creating layer scale3b7_branch2c
I0227 19:12:16.194644 26678 net.cpp:124] Setting up scale3b7_branch2c
I0227 19:12:16.194653 26678 net.cpp:131] Top shape: 1 512 32 32 (524288)
I0227 19:12:16.194658 26678 net.cpp:139] Memory required for data: 307232768
I0227 19:12:16.194663 26678 layer_factory.hpp:77] Creating layer res3b7
I0227 19:12:16.194669 26678 net.cpp:86] Creating Layer res3b7
I0227 19:12:16.194672 26678 net.cpp:408] res3b7 <- res3b6_res3b6_relu_0_split_1
I0227 19:12:16.194677 26678 net.cpp:408] res3b7 <- res3b7_branch2c
I0227 19:12:16.194684 26678 net.cpp:382] res3b7 -> res3b7
I0227 19:12:16.194710 26678 net.cpp:124] Setting up res3b7
I0227 19:12:16.194718 26678 net.cpp:131] Top shape: 1 512 32 32 (524288)
I0227 19:12:16.194721 26678 net.cpp:139] Memory required for data: 309329920
I0227 19:12:16.194725 26678 layer_factory.hpp:77] Creating layer res3b7_relu
I0227 19:12:16.194732 26678 net.cpp:86] Creating Layer res3b7_relu
I0227 19:12:16.194736 26678 net.cpp:408] res3b7_relu <- res3b7
I0227 19:12:16.194741 26678 net.cpp:369] res3b7_relu -> res3b7 (in-place)
I0227 19:12:16.195225 26678 net.cpp:124] Setting up res3b7_relu
I0227 19:12:16.195240 26678 net.cpp:131] Top shape: 1 512 32 32 (524288)
I0227 19:12:16.195255 26678 net.cpp:139] Memory required for data: 311427072
I0227 19:12:16.195258 26678 layer_factory.hpp:77] Creating layer res3b7_res3b7_relu_0_split
I0227 19:12:16.195266 26678 net.cpp:86] Creating Layer res3b7_res3b7_relu_0_split
I0227 19:12:16.195281 26678 net.cpp:408] res3b7_res3b7_relu_0_split <- res3b7
I0227 19:12:16.195287 26678 net.cpp:382] res3b7_res3b7_relu_0_split -> res3b7_res3b7_relu_0_split_0
I0227 19:12:16.195294 26678 net.cpp:382] res3b7_res3b7_relu_0_split -> res3b7_res3b7_relu_0_split_1
I0227 19:12:16.195346 26678 net.cpp:124] Setting up res3b7_res3b7_relu_0_split
I0227 19:12:16.195354 26678 net.cpp:131] Top shape: 1 512 32 32 (524288)
I0227 19:12:16.195359 26678 net.cpp:131] Top shape: 1 512 32 32 (524288)
I0227 19:12:16.195371 26678 net.cpp:139] Memory required for data: 315621376
I0227 19:12:16.195375 26678 layer_factory.hpp:77] Creating layer res4a_branch1
I0227 19:12:16.195384 26678 net.cpp:86] Creating Layer res4a_branch1
I0227 19:12:16.195389 26678 net.cpp:408] res4a_branch1 <- res3b7_res3b7_relu_0_split_0
I0227 19:12:16.195395 26678 net.cpp:382] res4a_branch1 -> res4a_branch1
I0227 19:12:16.197870 26678 net.cpp:124] Setting up res4a_branch1
I0227 19:12:16.197886 26678 net.cpp:131] Top shape: 1 1024 16 16 (262144)
I0227 19:12:16.197901 26678 net.cpp:139] Memory required for data: 316669952
I0227 19:12:16.197908 26678 layer_factory.hpp:77] Creating layer bn4a_branch1
I0227 19:12:16.197914 26678 net.cpp:86] Creating Layer bn4a_branch1
I0227 19:12:16.197932 26678 net.cpp:408] bn4a_branch1 <- res4a_branch1
I0227 19:12:16.197938 26678 net.cpp:369] bn4a_branch1 -> res4a_branch1 (in-place)
I0227 19:12:16.198195 26678 net.cpp:124] Setting up bn4a_branch1
I0227 19:12:16.198205 26678 net.cpp:131] Top shape: 1 1024 16 16 (262144)
I0227 19:12:16.198210 26678 net.cpp:139] Memory required for data: 317718528
I0227 19:12:16.198217 26678 layer_factory.hpp:77] Creating layer scale4a_branch1
I0227 19:12:16.198225 26678 net.cpp:86] Creating Layer scale4a_branch1
I0227 19:12:16.198228 26678 net.cpp:408] scale4a_branch1 <- res4a_branch1
I0227 19:12:16.198233 26678 net.cpp:369] scale4a_branch1 -> res4a_branch1 (in-place)
I0227 19:12:16.198284 26678 layer_factory.hpp:77] Creating layer scale4a_branch1
I0227 19:12:16.198453 26678 net.cpp:124] Setting up scale4a_branch1
I0227 19:12:16.198465 26678 net.cpp:131] Top shape: 1 1024 16 16 (262144)
I0227 19:12:16.198469 26678 net.cpp:139] Memory required for data: 318767104
I0227 19:12:16.198475 26678 layer_factory.hpp:77] Creating layer res4a_branch2a
I0227 19:12:16.198484 26678 net.cpp:86] Creating Layer res4a_branch2a
I0227 19:12:16.198492 26678 net.cpp:408] res4a_branch2a <- res3b7_res3b7_relu_0_split_1
I0227 19:12:16.198498 26678 net.cpp:382] res4a_branch2a -> res4a_branch2a
I0227 19:12:16.199724 26678 net.cpp:124] Setting up res4a_branch2a
I0227 19:12:16.199740 26678 net.cpp:131] Top shape: 1 256 16 16 (65536)
I0227 19:12:16.199756 26678 net.cpp:139] Memory required for data: 319029248
I0227 19:12:16.199762 26678 layer_factory.hpp:77] Creating layer bn4a_branch2a
I0227 19:12:16.199781 26678 net.cpp:86] Creating Layer bn4a_branch2a
I0227 19:12:16.199786 26678 net.cpp:408] bn4a_branch2a <- res4a_branch2a
I0227 19:12:16.199793 26678 net.cpp:369] bn4a_branch2a -> res4a_branch2a (in-place)
I0227 19:12:16.200037 26678 net.cpp:124] Setting up bn4a_branch2a
I0227 19:12:16.200047 26678 net.cpp:131] Top shape: 1 256 16 16 (65536)
I0227 19:12:16.200064 26678 net.cpp:139] Memory required for data: 319291392
I0227 19:12:16.200075 26678 layer_factory.hpp:77] Creating layer scale4a_branch2a
I0227 19:12:16.200083 26678 net.cpp:86] Creating Layer scale4a_branch2a
I0227 19:12:16.200088 26678 net.cpp:408] scale4a_branch2a <- res4a_branch2a
I0227 19:12:16.200094 26678 net.cpp:369] scale4a_branch2a -> res4a_branch2a (in-place)
I0227 19:12:16.200150 26678 layer_factory.hpp:77] Creating layer scale4a_branch2a
I0227 19:12:16.200274 26678 net.cpp:124] Setting up scale4a_branch2a
I0227 19:12:16.200284 26678 net.cpp:131] Top shape: 1 256 16 16 (65536)
I0227 19:12:16.200286 26678 net.cpp:139] Memory required for data: 319553536
I0227 19:12:16.200294 26678 layer_factory.hpp:77] Creating layer res4a_branch2a_relu
I0227 19:12:16.200300 26678 net.cpp:86] Creating Layer res4a_branch2a_relu
I0227 19:12:16.200304 26678 net.cpp:408] res4a_branch2a_relu <- res4a_branch2a
I0227 19:12:16.200309 26678 net.cpp:369] res4a_branch2a_relu -> res4a_branch2a (in-place)
I0227 19:12:16.200703 26678 net.cpp:124] Setting up res4a_branch2a_relu
I0227 19:12:16.200736 26678 net.cpp:131] Top shape: 1 256 16 16 (65536)
I0227 19:12:16.200740 26678 net.cpp:139] Memory required for data: 319815680
I0227 19:12:16.200755 26678 layer_factory.hpp:77] Creating layer res4a_branch2b
I0227 19:12:16.200762 26678 net.cpp:86] Creating Layer res4a_branch2b
I0227 19:12:16.200767 26678 net.cpp:408] res4a_branch2b <- res4a_branch2a
I0227 19:12:16.200774 26678 net.cpp:382] res4a_branch2b -> res4a_branch2b
I0227 19:12:16.203253 26678 net.cpp:124] Setting up res4a_branch2b
I0227 19:12:16.203269 26678 net.cpp:131] Top shape: 1 256 16 16 (65536)
I0227 19:12:16.203284 26678 net.cpp:139] Memory required for data: 320077824
I0227 19:12:16.203290 26678 layer_factory.hpp:77] Creating layer bn4a_branch2b
I0227 19:12:16.203311 26678 net.cpp:86] Creating Layer bn4a_branch2b
I0227 19:12:16.203315 26678 net.cpp:408] bn4a_branch2b <- res4a_branch2b
I0227 19:12:16.203336 26678 net.cpp:369] bn4a_branch2b -> res4a_branch2b (in-place)
I0227 19:12:16.203621 26678 net.cpp:124] Setting up bn4a_branch2b
I0227 19:12:16.203632 26678 net.cpp:131] Top shape: 1 256 16 16 (65536)
I0227 19:12:16.203647 26678 net.cpp:139] Memory required for data: 320339968
I0227 19:12:16.203655 26678 layer_factory.hpp:77] Creating layer scale4a_branch2b
I0227 19:12:16.203661 26678 net.cpp:86] Creating Layer scale4a_branch2b
I0227 19:12:16.203677 26678 net.cpp:408] scale4a_branch2b <- res4a_branch2b
I0227 19:12:16.203696 26678 net.cpp:369] scale4a_branch2b -> res4a_branch2b (in-place)
I0227 19:12:16.203764 26678 layer_factory.hpp:77] Creating layer scale4a_branch2b
I0227 19:12:16.203905 26678 net.cpp:124] Setting up scale4a_branch2b
I0227 19:12:16.203914 26678 net.cpp:131] Top shape: 1 256 16 16 (65536)
I0227 19:12:16.203917 26678 net.cpp:139] Memory required for data: 320602112
I0227 19:12:16.203923 26678 layer_factory.hpp:77] Creating layer res4a_branch2b_relu
I0227 19:12:16.203930 26678 net.cpp:86] Creating Layer res4a_branch2b_relu
I0227 19:12:16.203935 26678 net.cpp:408] res4a_branch2b_relu <- res4a_branch2b
I0227 19:12:16.203939 26678 net.cpp:369] res4a_branch2b_relu -> res4a_branch2b (in-place)
I0227 19:12:16.204128 26678 net.cpp:124] Setting up res4a_branch2b_relu
I0227 19:12:16.204139 26678 net.cpp:131] Top shape: 1 256 16 16 (65536)
I0227 19:12:16.204144 26678 net.cpp:139] Memory required for data: 320864256
I0227 19:12:16.204147 26678 layer_factory.hpp:77] Creating layer res4a_branch2c
I0227 19:12:16.204155 26678 net.cpp:86] Creating Layer res4a_branch2c
I0227 19:12:16.204161 26678 net.cpp:408] res4a_branch2c <- res4a_branch2b
I0227 19:12:16.204167 26678 net.cpp:382] res4a_branch2c -> res4a_branch2c
I0227 19:12:16.205870 26678 net.cpp:124] Setting up res4a_branch2c
I0227 19:12:16.205885 26678 net.cpp:131] Top shape: 1 1024 16 16 (262144)
I0227 19:12:16.205900 26678 net.cpp:139] Memory required for data: 321912832
I0227 19:12:16.205905 26678 layer_factory.hpp:77] Creating layer bn4a_branch2c
I0227 19:12:16.205945 26678 net.cpp:86] Creating Layer bn4a_branch2c
I0227 19:12:16.205952 26678 net.cpp:408] bn4a_branch2c <- res4a_branch2c
I0227 19:12:16.205958 26678 net.cpp:369] bn4a_branch2c -> res4a_branch2c (in-place)
I0227 19:12:16.206265 26678 net.cpp:124] Setting up bn4a_branch2c
I0227 19:12:16.206276 26678 net.cpp:131] Top shape: 1 1024 16 16 (262144)
I0227 19:12:16.206291 26678 net.cpp:139] Memory required for data: 322961408
I0227 19:12:16.206300 26678 layer_factory.hpp:77] Creating layer scale4a_branch2c
I0227 19:12:16.206306 26678 net.cpp:86] Creating Layer scale4a_branch2c
I0227 19:12:16.206310 26678 net.cpp:408] scale4a_branch2c <- res4a_branch2c
I0227 19:12:16.206331 26678 net.cpp:369] scale4a_branch2c -> res4a_branch2c (in-place)
I0227 19:12:16.206405 26678 layer_factory.hpp:77] Creating layer scale4a_branch2c
I0227 19:12:16.206555 26678 net.cpp:124] Setting up scale4a_branch2c
I0227 19:12:16.206564 26678 net.cpp:131] Top shape: 1 1024 16 16 (262144)
I0227 19:12:16.206568 26678 net.cpp:139] Memory required for data: 324009984
I0227 19:12:16.206574 26678 layer_factory.hpp:77] Creating layer res4a
I0227 19:12:16.206580 26678 net.cpp:86] Creating Layer res4a
I0227 19:12:16.206584 26678 net.cpp:408] res4a <- res4a_branch1
I0227 19:12:16.206589 26678 net.cpp:408] res4a <- res4a_branch2c
I0227 19:12:16.206598 26678 net.cpp:382] res4a -> res4a
I0227 19:12:16.206622 26678 net.cpp:124] Setting up res4a
I0227 19:12:16.206641 26678 net.cpp:131] Top shape: 1 1024 16 16 (262144)
I0227 19:12:16.206645 26678 net.cpp:139] Memory required for data: 325058560
I0227 19:12:16.206648 26678 layer_factory.hpp:77] Creating layer res4a_relu
I0227 19:12:16.206655 26678 net.cpp:86] Creating Layer res4a_relu
I0227 19:12:16.206658 26678 net.cpp:408] res4a_relu <- res4a
I0227 19:12:16.206665 26678 net.cpp:369] res4a_relu -> res4a (in-place)
I0227 19:12:16.207072 26678 net.cpp:124] Setting up res4a_relu
I0227 19:12:16.207085 26678 net.cpp:131] Top shape: 1 1024 16 16 (262144)
I0227 19:12:16.207100 26678 net.cpp:139] Memory required for data: 326107136
I0227 19:12:16.207103 26678 layer_factory.hpp:77] Creating layer res4a_res4a_relu_0_split
I0227 19:12:16.207109 26678 net.cpp:86] Creating Layer res4a_res4a_relu_0_split
I0227 19:12:16.207124 26678 net.cpp:408] res4a_res4a_relu_0_split <- res4a
I0227 19:12:16.207131 26678 net.cpp:382] res4a_res4a_relu_0_split -> res4a_res4a_relu_0_split_0
I0227 19:12:16.207144 26678 net.cpp:382] res4a_res4a_relu_0_split -> res4a_res4a_relu_0_split_1
I0227 19:12:16.207236 26678 net.cpp:124] Setting up res4a_res4a_relu_0_split
I0227 19:12:16.207244 26678 net.cpp:131] Top shape: 1 1024 16 16 (262144)
I0227 19:12:16.207249 26678 net.cpp:131] Top shape: 1 1024 16 16 (262144)
I0227 19:12:16.207252 26678 net.cpp:139] Memory required for data: 328204288
I0227 19:12:16.207255 26678 layer_factory.hpp:77] Creating layer res4b1_branch2a
I0227 19:12:16.207264 26678 net.cpp:86] Creating Layer res4b1_branch2a
I0227 19:12:16.207268 26678 net.cpp:408] res4b1_branch2a <- res4a_res4a_relu_0_split_0
I0227 19:12:16.207274 26678 net.cpp:382] res4b1_branch2a -> res4b1_branch2a
I0227 19:12:16.209100 26678 net.cpp:124] Setting up res4b1_branch2a
I0227 19:12:16.209127 26678 net.cpp:131] Top shape: 1 256 16 16 (65536)
I0227 19:12:16.209156 26678 net.cpp:139] Memory required for data: 328466432
I0227 19:12:16.209175 26678 layer_factory.hpp:77] Creating layer bn4b1_branch2a
I0227 19:12:16.209184 26678 net.cpp:86] Creating Layer bn4b1_branch2a
I0227 19:12:16.209188 26678 net.cpp:408] bn4b1_branch2a <- res4b1_branch2a
I0227 19:12:16.209197 26678 net.cpp:369] bn4b1_branch2a -> res4b1_branch2a (in-place)
I0227 19:12:16.209450 26678 net.cpp:124] Setting up bn4b1_branch2a
I0227 19:12:16.209461 26678 net.cpp:131] Top shape: 1 256 16 16 (65536)
I0227 19:12:16.209465 26678 net.cpp:139] Memory required for data: 328728576
I0227 19:12:16.209473 26678 layer_factory.hpp:77] Creating layer scale4b1_branch2a
I0227 19:12:16.209480 26678 net.cpp:86] Creating Layer scale4b1_branch2a
I0227 19:12:16.209484 26678 net.cpp:408] scale4b1_branch2a <- res4b1_branch2a
I0227 19:12:16.209489 26678 net.cpp:369] scale4b1_branch2a -> res4b1_branch2a (in-place)
I0227 19:12:16.209549 26678 layer_factory.hpp:77] Creating layer scale4b1_branch2a
I0227 19:12:16.209678 26678 net.cpp:124] Setting up scale4b1_branch2a
I0227 19:12:16.209689 26678 net.cpp:131] Top shape: 1 256 16 16 (65536)
I0227 19:12:16.209692 26678 net.cpp:139] Memory required for data: 328990720
I0227 19:12:16.209698 26678 layer_factory.hpp:77] Creating layer res4b1_branch2a_relu
I0227 19:12:16.209707 26678 net.cpp:86] Creating Layer res4b1_branch2a_relu
I0227 19:12:16.209722 26678 net.cpp:408] res4b1_branch2a_relu <- res4b1_branch2a
I0227 19:12:16.209743 26678 net.cpp:369] res4b1_branch2a_relu -> res4b1_branch2a (in-place)
I0227 19:12:16.210124 26678 net.cpp:124] Setting up res4b1_branch2a_relu
I0227 19:12:16.210137 26678 net.cpp:131] Top shape: 1 256 16 16 (65536)
I0227 19:12:16.210153 26678 net.cpp:139] Memory required for data: 329252864
I0227 19:12:16.210156 26678 layer_factory.hpp:77] Creating layer res4b1_branch2b
I0227 19:12:16.210177 26678 net.cpp:86] Creating Layer res4b1_branch2b
I0227 19:12:16.210182 26678 net.cpp:408] res4b1_branch2b <- res4b1_branch2a
I0227 19:12:16.210189 26678 net.cpp:382] res4b1_branch2b -> res4b1_branch2b
I0227 19:12:16.212730 26678 net.cpp:124] Setting up res4b1_branch2b
I0227 19:12:16.212745 26678 net.cpp:131] Top shape: 1 256 16 16 (65536)
I0227 19:12:16.212761 26678 net.cpp:139] Memory required for data: 329515008
I0227 19:12:16.212767 26678 layer_factory.hpp:77] Creating layer bn4b1_branch2b
I0227 19:12:16.212785 26678 net.cpp:86] Creating Layer bn4b1_branch2b
I0227 19:12:16.212790 26678 net.cpp:408] bn4b1_branch2b <- res4b1_branch2b
I0227 19:12:16.212796 26678 net.cpp:369] bn4b1_branch2b -> res4b1_branch2b (in-place)
I0227 19:12:16.213070 26678 net.cpp:124] Setting up bn4b1_branch2b
I0227 19:12:16.213081 26678 net.cpp:131] Top shape: 1 256 16 16 (65536)
I0227 19:12:16.213085 26678 net.cpp:139] Memory required for data: 329777152
I0227 19:12:16.213093 26678 layer_factory.hpp:77] Creating layer scale4b1_branch2b
I0227 19:12:16.213100 26678 net.cpp:86] Creating Layer scale4b1_branch2b
I0227 19:12:16.213104 26678 net.cpp:408] scale4b1_branch2b <- res4b1_branch2b
I0227 19:12:16.213110 26678 net.cpp:369] scale4b1_branch2b -> res4b1_branch2b (in-place)
I0227 19:12:16.213160 26678 layer_factory.hpp:77] Creating layer scale4b1_branch2b
I0227 19:12:16.213287 26678 net.cpp:124] Setting up scale4b1_branch2b
I0227 19:12:16.213295 26678 net.cpp:131] Top shape: 1 256 16 16 (65536)
I0227 19:12:16.213299 26678 net.cpp:139] Memory required for data: 330039296
I0227 19:12:16.213305 26678 layer_factory.hpp:77] Creating layer res4b1_branch2b_relu
I0227 19:12:16.213313 26678 net.cpp:86] Creating Layer res4b1_branch2b_relu
I0227 19:12:16.213317 26678 net.cpp:408] res4b1_branch2b_relu <- res4b1_branch2b
I0227 19:12:16.213322 26678 net.cpp:369] res4b1_branch2b_relu -> res4b1_branch2b (in-place)
I0227 19:12:16.213520 26678 net.cpp:124] Setting up res4b1_branch2b_relu
I0227 19:12:16.213532 26678 net.cpp:131] Top shape: 1 256 16 16 (65536)
I0227 19:12:16.213536 26678 net.cpp:139] Memory required for data: 330301440
I0227 19:12:16.213539 26678 layer_factory.hpp:77] Creating layer res4b1_branch2c
I0227 19:12:16.213549 26678 net.cpp:86] Creating Layer res4b1_branch2c
I0227 19:12:16.213553 26678 net.cpp:408] res4b1_branch2c <- res4b1_branch2b
I0227 19:12:16.213560 26678 net.cpp:382] res4b1_branch2c -> res4b1_branch2c
I0227 19:12:16.215315 26678 net.cpp:124] Setting up res4b1_branch2c
I0227 19:12:16.215332 26678 net.cpp:131] Top shape: 1 1024 16 16 (262144)
I0227 19:12:16.215337 26678 net.cpp:139] Memory required for data: 331350016
I0227 19:12:16.215354 26678 layer_factory.hpp:77] Creating layer bn4b1_branch2c
I0227 19:12:16.215361 26678 net.cpp:86] Creating Layer bn4b1_branch2c
I0227 19:12:16.215365 26678 net.cpp:408] bn4b1_branch2c <- res4b1_branch2c
I0227 19:12:16.215392 26678 net.cpp:369] bn4b1_branch2c -> res4b1_branch2c (in-place)
I0227 19:12:16.215683 26678 net.cpp:124] Setting up bn4b1_branch2c
I0227 19:12:16.215693 26678 net.cpp:131] Top shape: 1 1024 16 16 (262144)
I0227 19:12:16.215708 26678 net.cpp:139] Memory required for data: 332398592
I0227 19:12:16.215716 26678 layer_factory.hpp:77] Creating layer scale4b1_branch2c
I0227 19:12:16.215723 26678 net.cpp:86] Creating Layer scale4b1_branch2c
I0227 19:12:16.215728 26678 net.cpp:408] scale4b1_branch2c <- res4b1_branch2c
I0227 19:12:16.215733 26678 net.cpp:369] scale4b1_branch2c -> res4b1_branch2c (in-place)
I0227 19:12:16.215814 26678 layer_factory.hpp:77] Creating layer scale4b1_branch2c
I0227 19:12:16.215965 26678 net.cpp:124] Setting up scale4b1_branch2c
I0227 19:12:16.215973 26678 net.cpp:131] Top shape: 1 1024 16 16 (262144)
I0227 19:12:16.215977 26678 net.cpp:139] Memory required for data: 333447168
I0227 19:12:16.216014 26678 layer_factory.hpp:77] Creating layer res4b1
I0227 19:12:16.216024 26678 net.cpp:86] Creating Layer res4b1
I0227 19:12:16.216028 26678 net.cpp:408] res4b1 <- res4a_res4a_relu_0_split_1
I0227 19:12:16.216033 26678 net.cpp:408] res4b1 <- res4b1_branch2c
I0227 19:12:16.216039 26678 net.cpp:382] res4b1 -> res4b1
I0227 19:12:16.216069 26678 net.cpp:124] Setting up res4b1
I0227 19:12:16.216078 26678 net.cpp:131] Top shape: 1 1024 16 16 (262144)
I0227 19:12:16.216083 26678 net.cpp:139] Memory required for data: 334495744
I0227 19:12:16.216085 26678 layer_factory.hpp:77] Creating layer res4b1_relu
I0227 19:12:16.216091 26678 net.cpp:86] Creating Layer res4b1_relu
I0227 19:12:16.216095 26678 net.cpp:408] res4b1_relu <- res4b1
I0227 19:12:16.216101 26678 net.cpp:369] res4b1_relu -> res4b1 (in-place)
I0227 19:12:16.216490 26678 net.cpp:124] Setting up res4b1_relu
I0227 19:12:16.216503 26678 net.cpp:131] Top shape: 1 1024 16 16 (262144)
I0227 19:12:16.216518 26678 net.cpp:139] Memory required for data: 335544320
I0227 19:12:16.216522 26678 layer_factory.hpp:77] Creating layer res4b1_res4b1_relu_0_split
I0227 19:12:16.216528 26678 net.cpp:86] Creating Layer res4b1_res4b1_relu_0_split
I0227 19:12:16.216543 26678 net.cpp:408] res4b1_res4b1_relu_0_split <- res4b1
I0227 19:12:16.216552 26678 net.cpp:382] res4b1_res4b1_relu_0_split -> res4b1_res4b1_relu_0_split_0
I0227 19:12:16.216558 26678 net.cpp:382] res4b1_res4b1_relu_0_split -> res4b1_res4b1_relu_0_split_1
I0227 19:12:16.216620 26678 net.cpp:124] Setting up res4b1_res4b1_relu_0_split
I0227 19:12:16.216630 26678 net.cpp:131] Top shape: 1 1024 16 16 (262144)
I0227 19:12:16.216634 26678 net.cpp:131] Top shape: 1 1024 16 16 (262144)
I0227 19:12:16.216637 26678 net.cpp:139] Memory required for data: 337641472
I0227 19:12:16.216641 26678 layer_factory.hpp:77] Creating layer res4b2_branch2a
I0227 19:12:16.216660 26678 net.cpp:86] Creating Layer res4b2_branch2a
I0227 19:12:16.216665 26678 net.cpp:408] res4b2_branch2a <- res4b1_res4b1_relu_0_split_0
I0227 19:12:16.216672 26678 net.cpp:382] res4b2_branch2a -> res4b2_branch2a
I0227 19:12:16.218473 26678 net.cpp:124] Setting up res4b2_branch2a
I0227 19:12:16.218490 26678 net.cpp:131] Top shape: 1 256 16 16 (65536)
I0227 19:12:16.218507 26678 net.cpp:139] Memory required for data: 337903616
I0227 19:12:16.218513 26678 layer_factory.hpp:77] Creating layer bn4b2_branch2a
I0227 19:12:16.218533 26678 net.cpp:86] Creating Layer bn4b2_branch2a
I0227 19:12:16.218538 26678 net.cpp:408] bn4b2_branch2a <- res4b2_branch2a
I0227 19:12:16.218544 26678 net.cpp:369] bn4b2_branch2a -> res4b2_branch2a (in-place)
I0227 19:12:16.218775 26678 net.cpp:124] Setting up bn4b2_branch2a
I0227 19:12:16.218786 26678 net.cpp:131] Top shape: 1 256 16 16 (65536)
I0227 19:12:16.218789 26678 net.cpp:139] Memory required for data: 338165760
I0227 19:12:16.218797 26678 layer_factory.hpp:77] Creating layer scale4b2_branch2a
I0227 19:12:16.218806 26678 net.cpp:86] Creating Layer scale4b2_branch2a
I0227 19:12:16.218811 26678 net.cpp:408] scale4b2_branch2a <- res4b2_branch2a
I0227 19:12:16.218816 26678 net.cpp:369] scale4b2_branch2a -> res4b2_branch2a (in-place)
I0227 19:12:16.218865 26678 layer_factory.hpp:77] Creating layer scale4b2_branch2a
I0227 19:12:16.218996 26678 net.cpp:124] Setting up scale4b2_branch2a
I0227 19:12:16.219004 26678 net.cpp:131] Top shape: 1 256 16 16 (65536)
I0227 19:12:16.219008 26678 net.cpp:139] Memory required for data: 338427904
I0227 19:12:16.219014 26678 layer_factory.hpp:77] Creating layer res4b2_branch2a_relu
I0227 19:12:16.219020 26678 net.cpp:86] Creating Layer res4b2_branch2a_relu
I0227 19:12:16.219023 26678 net.cpp:408] res4b2_branch2a_relu <- res4b2_branch2a
I0227 19:12:16.219028 26678 net.cpp:369] res4b2_branch2a_relu -> res4b2_branch2a (in-place)
I0227 19:12:16.219421 26678 net.cpp:124] Setting up res4b2_branch2a_relu
I0227 19:12:16.219435 26678 net.cpp:131] Top shape: 1 256 16 16 (65536)
I0227 19:12:16.219450 26678 net.cpp:139] Memory required for data: 338690048
I0227 19:12:16.219455 26678 layer_factory.hpp:77] Creating layer res4b2_branch2b
I0227 19:12:16.219475 26678 net.cpp:86] Creating Layer res4b2_branch2b
I0227 19:12:16.219478 26678 net.cpp:408] res4b2_branch2b <- res4b2_branch2a
I0227 19:12:16.219485 26678 net.cpp:382] res4b2_branch2b -> res4b2_branch2b
I0227 19:12:16.221879 26678 net.cpp:124] Setting up res4b2_branch2b
I0227 19:12:16.221906 26678 net.cpp:131] Top shape: 1 256 16 16 (65536)
I0227 19:12:16.221911 26678 net.cpp:139] Memory required for data: 338952192
I0227 19:12:16.221917 26678 layer_factory.hpp:77] Creating layer bn4b2_branch2b
I0227 19:12:16.221936 26678 net.cpp:86] Creating Layer bn4b2_branch2b
I0227 19:12:16.221941 26678 net.cpp:408] bn4b2_branch2b <- res4b2_branch2b
I0227 19:12:16.221947 26678 net.cpp:369] bn4b2_branch2b -> res4b2_branch2b (in-place)
I0227 19:12:16.222239 26678 net.cpp:124] Setting up bn4b2_branch2b
I0227 19:12:16.222250 26678 net.cpp:131] Top shape: 1 256 16 16 (65536)
I0227 19:12:16.222265 26678 net.cpp:139] Memory required for data: 339214336
I0227 19:12:16.222273 26678 layer_factory.hpp:77] Creating layer scale4b2_branch2b
I0227 19:12:16.222282 26678 net.cpp:86] Creating Layer scale4b2_branch2b
I0227 19:12:16.222286 26678 net.cpp:408] scale4b2_branch2b <- res4b2_branch2b
I0227 19:12:16.222291 26678 net.cpp:369] scale4b2_branch2b -> res4b2_branch2b (in-place)
I0227 19:12:16.222357 26678 layer_factory.hpp:77] Creating layer scale4b2_branch2b
I0227 19:12:16.222522 26678 net.cpp:124] Setting up scale4b2_branch2b
I0227 19:12:16.222530 26678 net.cpp:131] Top shape: 1 256 16 16 (65536)
I0227 19:12:16.222534 26678 net.cpp:139] Memory required for data: 339476480
I0227 19:12:16.222540 26678 layer_factory.hpp:77] Creating layer res4b2_branch2b_relu
I0227 19:12:16.222546 26678 net.cpp:86] Creating Layer res4b2_branch2b_relu
I0227 19:12:16.222550 26678 net.cpp:408] res4b2_branch2b_relu <- res4b2_branch2b
I0227 19:12:16.222558 26678 net.cpp:369] res4b2_branch2b_relu -> res4b2_branch2b (in-place)
I0227 19:12:16.222759 26678 net.cpp:124] Setting up res4b2_branch2b_relu
I0227 19:12:16.222769 26678 net.cpp:131] Top shape: 1 256 16 16 (65536)
I0227 19:12:16.222774 26678 net.cpp:139] Memory required for data: 339738624
I0227 19:12:16.222777 26678 layer_factory.hpp:77] Creating layer res4b2_branch2c
I0227 19:12:16.222785 26678 net.cpp:86] Creating Layer res4b2_branch2c
I0227 19:12:16.222790 26678 net.cpp:408] res4b2_branch2c <- res4b2_branch2b
I0227 19:12:16.222797 26678 net.cpp:382] res4b2_branch2c -> res4b2_branch2c
I0227 19:12:16.224628 26678 net.cpp:124] Setting up res4b2_branch2c
I0227 19:12:16.224645 26678 net.cpp:131] Top shape: 1 1024 16 16 (262144)
I0227 19:12:16.224660 26678 net.cpp:139] Memory required for data: 340787200
I0227 19:12:16.224668 26678 layer_factory.hpp:77] Creating layer bn4b2_branch2c
I0227 19:12:16.224686 26678 net.cpp:86] Creating Layer bn4b2_branch2c
I0227 19:12:16.224691 26678 net.cpp:408] bn4b2_branch2c <- res4b2_branch2c
I0227 19:12:16.224696 26678 net.cpp:369] bn4b2_branch2c -> res4b2_branch2c (in-place)
I0227 19:12:16.224958 26678 net.cpp:124] Setting up bn4b2_branch2c
I0227 19:12:16.224968 26678 net.cpp:131] Top shape: 1 1024 16 16 (262144)
I0227 19:12:16.224983 26678 net.cpp:139] Memory required for data: 341835776
I0227 19:12:16.225003 26678 layer_factory.hpp:77] Creating layer scale4b2_branch2c
I0227 19:12:16.225010 26678 net.cpp:86] Creating Layer scale4b2_branch2c
I0227 19:12:16.225015 26678 net.cpp:408] scale4b2_branch2c <- res4b2_branch2c
I0227 19:12:16.225020 26678 net.cpp:369] scale4b2_branch2c -> res4b2_branch2c (in-place)
I0227 19:12:16.225067 26678 layer_factory.hpp:77] Creating layer scale4b2_branch2c
I0227 19:12:16.225210 26678 net.cpp:124] Setting up scale4b2_branch2c
I0227 19:12:16.225220 26678 net.cpp:131] Top shape: 1 1024 16 16 (262144)
I0227 19:12:16.225224 26678 net.cpp:139] Memory required for data: 342884352
I0227 19:12:16.225230 26678 layer_factory.hpp:77] Creating layer res4b2
I0227 19:12:16.225237 26678 net.cpp:86] Creating Layer res4b2
I0227 19:12:16.225241 26678 net.cpp:408] res4b2 <- res4b1_res4b1_relu_0_split_1
I0227 19:12:16.225246 26678 net.cpp:408] res4b2 <- res4b2_branch2c
I0227 19:12:16.225253 26678 net.cpp:382] res4b2 -> res4b2
I0227 19:12:16.225280 26678 net.cpp:124] Setting up res4b2
I0227 19:12:16.225287 26678 net.cpp:131] Top shape: 1 1024 16 16 (262144)
I0227 19:12:16.225291 26678 net.cpp:139] Memory required for data: 343932928
I0227 19:12:16.225296 26678 layer_factory.hpp:77] Creating layer res4b2_relu
I0227 19:12:16.225302 26678 net.cpp:86] Creating Layer res4b2_relu
I0227 19:12:16.225307 26678 net.cpp:408] res4b2_relu <- res4b2
I0227 19:12:16.225311 26678 net.cpp:369] res4b2_relu -> res4b2 (in-place)
I0227 19:12:16.225689 26678 net.cpp:124] Setting up res4b2_relu
I0227 19:12:16.225703 26678 net.cpp:131] Top shape: 1 1024 16 16 (262144)
I0227 19:12:16.225718 26678 net.cpp:139] Memory required for data: 344981504
I0227 19:12:16.225723 26678 layer_factory.hpp:77] Creating layer res4b2_res4b2_relu_0_split
I0227 19:12:16.225730 26678 net.cpp:86] Creating Layer res4b2_res4b2_relu_0_split
I0227 19:12:16.225746 26678 net.cpp:408] res4b2_res4b2_relu_0_split <- res4b2
…
I0227 19:12:17.136873 26678 net.cpp:408] res4b34_branch2a_relu <- res4b34_branch2a
I0227 19:12:17.136878 26678 net.cpp:369] res4b34_branch2a_relu -> res4b34_branch2a (in-place)
I0227 19:12:17.137347 26678 net.cpp:124] Setting up res4b34_branch2a_relu
I0227 19:12:17.137362 26678 net.cpp:131] Top shape: 1 256 16 16 (65536)
I0227 19:12:17.137378 26678 net.cpp:139] Memory required for data: 631767040
I0227 19:12:17.137382 26678 layer_factory.hpp:77] Creating layer res4b34_branch2b
I0227 19:12:17.137392 26678 net.cpp:86] Creating Layer res4b34_branch2b
I0227 19:12:17.137398 26678 net.cpp:408] res4b34_branch2b <- res4b34_branch2a
I0227 19:12:17.137415 26678 net.cpp:382] res4b34_branch2b -> res4b34_branch2b
I0227 19:12:17.140605 26678 net.cpp:124] Setting up res4b34_branch2b
I0227 19:12:17.140622 26678 net.cpp:131] Top shape: 1 256 16 16 (65536)
I0227 19:12:17.140638 26678 net.cpp:139] Memory required for data: 632029184
I0227 19:12:17.140645 26678 layer_factory.hpp:77] Creating layer bn4b34_branch2b
I0227 19:12:17.140653 26678 net.cpp:86] Creating Layer bn4b34_branch2b
I0227 19:12:17.140657 26678 net.cpp:408] bn4b34_branch2b <- res4b34_branch2b
I0227 19:12:17.140676 26678 net.cpp:369] bn4b34_branch2b -> res4b34_branch2b (in-place)
I0227 19:12:17.141666 26678 net.cpp:124] Setting up bn4b34_branch2b
I0227 19:12:17.141681 26678 net.cpp:131] Top shape: 1 256 16 16 (65536)
I0227 19:12:17.141697 26678 net.cpp:139] Memory required for data: 632291328
I0227 19:12:17.141705 26678 layer_factory.hpp:77] Creating layer scale4b34_branch2b
I0227 19:12:17.141768 26678 net.cpp:86] Creating Layer scale4b34_branch2b
I0227 19:12:17.141777 26678 net.cpp:408] scale4b34_branch2b <- res4b34_branch2b
I0227 19:12:17.141782 26678 net.cpp:369] scale4b34_branch2b -> res4b34_branch2b (in-place)
I0227 19:12:17.141844 26678 layer_factory.hpp:77] Creating layer scale4b34_branch2b
I0227 19:12:17.141957 26678 net.cpp:124] Setting up scale4b34_branch2b
I0227 19:12:17.141966 26678 net.cpp:131] Top shape: 1 256 16 16 (65536)
I0227 19:12:17.141970 26678 net.cpp:139] Memory required for data: 632553472
I0227 19:12:17.141976 26678 layer_factory.hpp:77] Creating layer res4b34_branch2b_relu
I0227 19:12:17.141983 26678 net.cpp:86] Creating Layer res4b34_branch2b_relu
I0227 19:12:17.141988 26678 net.cpp:408] res4b34_branch2b_relu <- res4b34_branch2b
I0227 19:12:17.141991 26678 net.cpp:369] res4b34_branch2b_relu -> res4b34_branch2b (in-place)
I0227 19:12:17.142241 26678 net.cpp:124] Setting up res4b34_branch2b_relu
I0227 19:12:17.142254 26678 net.cpp:131] Top shape: 1 256 16 16 (65536)
I0227 19:12:17.142259 26678 net.cpp:139] Memory required for data: 632815616
I0227 19:12:17.142262 26678 layer_factory.hpp:77] Creating layer res4b34_branch2c
I0227 19:12:17.142271 26678 net.cpp:86] Creating Layer res4b34_branch2c
I0227 19:12:17.142276 26678 net.cpp:408] res4b34_branch2c <- res4b34_branch2b
I0227 19:12:17.142283 26678 net.cpp:382] res4b34_branch2c -> res4b34_branch2c
I0227 19:12:17.144587 26678 net.cpp:124] Setting up res4b34_branch2c
I0227 19:12:17.144603 26678 net.cpp:131] Top shape: 1 1024 16 16 (262144)
I0227 19:12:17.144619 26678 net.cpp:139] Memory required for data: 633864192
I0227 19:12:17.144625 26678 layer_factory.hpp:77] Creating layer bn4b34_branch2c
I0227 19:12:17.144634 26678 net.cpp:86] Creating Layer bn4b34_branch2c
I0227 19:12:17.144639 26678 net.cpp:408] bn4b34_branch2c <- res4b34_branch2c
I0227 19:12:17.144656 26678 net.cpp:369] bn4b34_branch2c -> res4b34_branch2c (in-place)
I0227 19:12:17.144908 26678 net.cpp:124] Setting up bn4b34_branch2c
I0227 19:12:17.144919 26678 net.cpp:131] Top shape: 1 1024 16 16 (262144)
I0227 19:12:17.144923 26678 net.cpp:139] Memory required for data: 634912768
I0227 19:12:17.144932 26678 layer_factory.hpp:77] Creating layer scale4b34_branch2c
I0227 19:12:17.144940 26678 net.cpp:86] Creating Layer scale4b34_branch2c
I0227 19:12:17.144948 26678 net.cpp:408] scale4b34_branch2c <- res4b34_branch2c
I0227 19:12:17.144953 26678 net.cpp:369] scale4b34_branch2c -> res4b34_branch2c (in-place)
I0227 19:12:17.145021 26678 layer_factory.hpp:77] Creating layer scale4b34_branch2c
I0227 19:12:17.145171 26678 net.cpp:124] Setting up scale4b34_branch2c
I0227 19:12:17.145182 26678 net.cpp:131] Top shape: 1 1024 16 16 (262144)
I0227 19:12:17.145185 26678 net.cpp:139] Memory required for data: 635961344
I0227 19:12:17.145192 26678 layer_factory.hpp:77] Creating layer res4b34
I0227 19:12:17.145198 26678 net.cpp:86] Creating Layer res4b34
I0227 19:12:17.145202 26678 net.cpp:408] res4b34 <- res4b33_res4b33_relu_0_split_1
I0227 19:12:17.145207 26678 net.cpp:408] res4b34 <- res4b34_branch2c
I0227 19:12:17.145252 26678 net.cpp:382] res4b34 -> res4b34
I0227 19:12:17.145277 26678 net.cpp:124] Setting up res4b34
I0227 19:12:17.145285 26678 net.cpp:131] Top shape: 1 1024 16 16 (262144)
I0227 19:12:17.145288 26678 net.cpp:139] Memory required for data: 637009920
I0227 19:12:17.145292 26678 layer_factory.hpp:77] Creating layer res4b34_relu
I0227 19:12:17.145299 26678 net.cpp:86] Creating Layer res4b34_relu
I0227 19:12:17.145304 26678 net.cpp:408] res4b34_relu <- res4b34
I0227 19:12:17.145308 26678 net.cpp:369] res4b34_relu -> res4b34 (in-place)
I0227 19:12:17.145548 26678 net.cpp:124] Setting up res4b34_relu
I0227 19:12:17.145560 26678 net.cpp:131] Top shape: 1 1024 16 16 (262144)
I0227 19:12:17.145565 26678 net.cpp:139] Memory required for data: 638058496
I0227 19:12:17.145568 26678 layer_factory.hpp:77] Creating layer res4b34_res4b34_relu_0_split
I0227 19:12:17.145576 26678 net.cpp:86] Creating Layer res4b34_res4b34_relu_0_split
I0227 19:12:17.145581 26678 net.cpp:408] res4b34_res4b34_relu_0_split <- res4b34
I0227 19:12:17.145588 26678 net.cpp:382] res4b34_res4b34_relu_0_split -> res4b34_res4b34_relu_0_split_0
I0227 19:12:17.145596 26678 net.cpp:382] res4b34_res4b34_relu_0_split -> res4b34_res4b34_relu_0_split_1
I0227 19:12:17.145644 26678 net.cpp:124] Setting up res4b34_res4b34_relu_0_split
I0227 19:12:17.145653 26678 net.cpp:131] Top shape: 1 1024 16 16 (262144)
I0227 19:12:17.145658 26678 net.cpp:131] Top shape: 1 1024 16 16 (262144)
I0227 19:12:17.145661 26678 net.cpp:139] Memory required for data: 640155648
I0227 19:12:17.145664 26678 layer_factory.hpp:77] Creating layer res4b35_branch2a
I0227 19:12:17.145673 26678 net.cpp:86] Creating Layer res4b35_branch2a
I0227 19:12:17.145678 26678 net.cpp:408] res4b35_branch2a <- res4b34_res4b34_relu_0_split_0
I0227 19:12:17.145685 26678 net.cpp:382] res4b35_branch2a -> res4b35_branch2a
I0227 19:12:17.148116 26678 net.cpp:124] Setting up res4b35_branch2a
I0227 19:12:17.148133 26678 net.cpp:131] Top shape: 1 256 16 16 (65536)
I0227 19:12:17.148149 26678 net.cpp:139] Memory required for data: 640417792
I0227 19:12:17.148155 26678 layer_factory.hpp:77] Creating layer bn4b35_branch2a
I0227 19:12:17.148164 26678 net.cpp:86] Creating Layer bn4b35_branch2a
I0227 19:12:17.148169 26678 net.cpp:408] bn4b35_branch2a <- res4b35_branch2a
I0227 19:12:17.148186 26678 net.cpp:369] bn4b35_branch2a -> res4b35_branch2a (in-place)
I0227 19:12:17.148387 26678 net.cpp:124] Setting up bn4b35_branch2a
I0227 19:12:17.148398 26678 net.cpp:131] Top shape: 1 256 16 16 (65536)
I0227 19:12:17.148402 26678 net.cpp:139] Memory required for data: 640679936
I0227 19:12:17.148409 26678 layer_factory.hpp:77] Creating layer scale4b35_branch2a
I0227 19:12:17.148421 26678 net.cpp:86] Creating Layer scale4b35_branch2a
I0227 19:12:17.148427 26678 net.cpp:408] scale4b35_branch2a <- res4b35_branch2a
I0227 19:12:17.148432 26678 net.cpp:369] scale4b35_branch2a -> res4b35_branch2a (in-place)
I0227 19:12:17.148474 26678 layer_factory.hpp:77] Creating layer scale4b35_branch2a
I0227 19:12:17.148582 26678 net.cpp:124] Setting up scale4b35_branch2a
I0227 19:12:17.148591 26678 net.cpp:131] Top shape: 1 256 16 16 (65536)
I0227 19:12:17.148594 26678 net.cpp:139] Memory required for data: 640942080
I0227 19:12:17.148600 26678 layer_factory.hpp:77] Creating layer res4b35_branch2a_relu
I0227 19:12:17.148607 26678 net.cpp:86] Creating Layer res4b35_branch2a_relu
I0227 19:12:17.148612 26678 net.cpp:408] res4b35_branch2a_relu <- res4b35_branch2a
I0227 19:12:17.148617 26678 net.cpp:369] res4b35_branch2a_relu -> res4b35_branch2a (in-place)
I0227 19:12:17.149085 26678 net.cpp:124] Setting up res4b35_branch2a_relu
I0227 19:12:17.149099 26678 net.cpp:131] Top shape: 1 256 16 16 (65536)
I0227 19:12:17.149116 26678 net.cpp:139] Memory required for data: 641204224
I0227 19:12:17.149119 26678 layer_factory.hpp:77] Creating layer res4b35_branch2b
I0227 19:12:17.149179 26678 net.cpp:86] Creating Layer res4b35_branch2b
I0227 19:12:17.149188 26678 net.cpp:408] res4b35_branch2b <- res4b35_branch2a
I0227 19:12:17.149194 26678 net.cpp:382] res4b35_branch2b -> res4b35_branch2b
I0227 19:12:17.152391 26678 net.cpp:124] Setting up res4b35_branch2b
I0227 19:12:17.152408 26678 net.cpp:131] Top shape: 1 256 16 16 (65536)
I0227 19:12:17.152423 26678 net.cpp:139] Memory required for data: 641466368
I0227 19:12:17.152431 26678 layer_factory.hpp:77] Creating layer bn4b35_branch2b
I0227 19:12:17.152451 26678 net.cpp:86] Creating Layer bn4b35_branch2b
I0227 19:12:17.152456 26678 net.cpp:408] bn4b35_branch2b <- res4b35_branch2b
I0227 19:12:17.152460 26678 net.cpp:369] bn4b35_branch2b -> res4b35_branch2b (in-place)
I0227 19:12:17.152671 26678 net.cpp:124] Setting up bn4b35_branch2b
I0227 19:12:17.152681 26678 net.cpp:131] Top shape: 1 256 16 16 (65536)
I0227 19:12:17.152685 26678 net.cpp:139] Memory required for data: 641728512
I0227 19:12:17.152693 26678 layer_factory.hpp:77] Creating layer scale4b35_branch2b
I0227 19:12:17.152700 26678 net.cpp:86] Creating Layer scale4b35_branch2b
I0227 19:12:17.152709 26678 net.cpp:408] scale4b35_branch2b <- res4b35_branch2b
I0227 19:12:17.152714 26678 net.cpp:369] scale4b35_branch2b -> res4b35_branch2b (in-place)
I0227 19:12:17.152757 26678 layer_factory.hpp:77] Creating layer scale4b35_branch2b
I0227 19:12:17.152870 26678 net.cpp:124] Setting up scale4b35_branch2b
I0227 19:12:17.152879 26678 net.cpp:131] Top shape: 1 256 16 16 (65536)
I0227 19:12:17.152884 26678 net.cpp:139] Memory required for data: 641990656
I0227 19:12:17.152890 26678 layer_factory.hpp:77] Creating layer res4b35_branch2b_relu
I0227 19:12:17.152896 26678 net.cpp:86] Creating Layer res4b35_branch2b_relu
I0227 19:12:17.152900 26678 net.cpp:408] res4b35_branch2b_relu <- res4b35_branch2b
I0227 19:12:17.152905 26678 net.cpp:369] res4b35_branch2b_relu -> res4b35_branch2b (in-place)
I0227 19:12:17.153154 26678 net.cpp:124] Setting up res4b35_branch2b_relu
I0227 19:12:17.153167 26678 net.cpp:131] Top shape: 1 256 16 16 (65536)
I0227 19:12:17.153170 26678 net.cpp:139] Memory required for data: 642252800
I0227 19:12:17.153174 26678 layer_factory.hpp:77] Creating layer res4b35_branch2c
I0227 19:12:17.153183 26678 net.cpp:86] Creating Layer res4b35_branch2c
I0227 19:12:17.153188 26678 net.cpp:408] res4b35_branch2c <- res4b35_branch2b
I0227 19:12:17.153197 26678 net.cpp:382] res4b35_branch2c -> res4b35_branch2c
I0227 19:12:17.155805 26678 net.cpp:124] Setting up res4b35_branch2c
I0227 19:12:17.155822 26678 net.cpp:131] Top shape: 1 1024 16 16 (262144)
I0227 19:12:17.155839 26678 net.cpp:139] Memory required for data: 643301376
I0227 19:12:17.155845 26678 layer_factory.hpp:77] Creating layer bn4b35_branch2c
I0227 19:12:17.155853 26678 net.cpp:86] Creating Layer bn4b35_branch2c
I0227 19:12:17.155858 26678 net.cpp:408] bn4b35_branch2c <- res4b35_branch2c
I0227 19:12:17.155877 26678 net.cpp:369] bn4b35_branch2c -> res4b35_branch2c (in-place)
I0227 19:12:17.156198 26678 net.cpp:124] Setting up bn4b35_branch2c
I0227 19:12:17.156210 26678 net.cpp:131] Top shape: 1 1024 16 16 (262144)
I0227 19:12:17.156230 26678 net.cpp:139] Memory required for data: 644349952
I0227 19:12:17.156250 26678 layer_factory.hpp:77] Creating layer scale4b35_branch2c
I0227 19:12:17.156256 26678 net.cpp:86] Creating Layer scale4b35_branch2c
I0227 19:12:17.156260 26678 net.cpp:408] scale4b35_branch2c <- res4b35_branch2c
I0227 19:12:17.156277 26678 net.cpp:369] scale4b35_branch2c -> res4b35_branch2c (in-place)
I0227 19:12:17.156347 26678 layer_factory.hpp:77] Creating layer scale4b35_branch2c
I0227 19:12:17.156502 26678 net.cpp:124] Setting up scale4b35_branch2c
I0227 19:12:17.156512 26678 net.cpp:131] Top shape: 1 1024 16 16 (262144)
I0227 19:12:17.156517 26678 net.cpp:139] Memory required for data: 645398528
I0227 19:12:17.156522 26678 layer_factory.hpp:77] Creating layer res4b35
I0227 19:12:17.156530 26678 net.cpp:86] Creating Layer res4b35
I0227 19:12:17.156535 26678 net.cpp:408] res4b35 <- res4b34_res4b34_relu_0_split_1
I0227 19:12:17.156540 26678 net.cpp:408] res4b35 <- res4b35_branch2c
I0227 19:12:17.156546 26678 net.cpp:382] res4b35 -> res4b35
I0227 19:12:17.156568 26678 net.cpp:124] Setting up res4b35
I0227 19:12:17.156576 26678 net.cpp:131] Top shape: 1 1024 16 16 (262144)
I0227 19:12:17.156579 26678 net.cpp:139] Memory required for data: 646447104
I0227 19:12:17.156584 26678 layer_factory.hpp:77] Creating layer res4b35_relu
I0227 19:12:17.156589 26678 net.cpp:86] Creating Layer res4b35_relu
I0227 19:12:17.156592 26678 net.cpp:408] res4b35_relu <- res4b35
I0227 19:12:17.156597 26678 net.cpp:369] res4b35_relu -> res4b35 (in-place)
I0227 19:12:17.156848 26678 net.cpp:124] Setting up res4b35_relu
I0227 19:12:17.156860 26678 net.cpp:131] Top shape: 1 1024 16 16 (262144)
I0227 19:12:17.156864 26678 net.cpp:139] Memory required for data: 647495680
I0227 19:12:17.156868 26678 layer_factory.hpp:77] Creating layer res4b35_res4b35_relu_0_split
I0227 19:12:17.156877 26678 net.cpp:86] Creating Layer res4b35_res4b35_relu_0_split
I0227 19:12:17.156882 26678 net.cpp:408] res4b35_res4b35_relu_0_split <- res4b35
I0227 19:12:17.156888 26678 net.cpp:382] res4b35_res4b35_relu_0_split -> res4b35_res4b35_relu_0_split_0
I0227 19:12:17.156894 26678 net.cpp:382] res4b35_res4b35_relu_0_split -> res4b35_res4b35_relu_0_split_1
I0227 19:12:17.156901 26678 net.cpp:382] res4b35_res4b35_relu_0_split -> res4b35_res4b35_relu_0_split_2
I0227 19:12:17.156909 26678 net.cpp:382] res4b35_res4b35_relu_0_split -> res4b35_res4b35_relu_0_split_3
I0227 19:12:17.156986 26678 net.cpp:124] Setting up res4b35_res4b35_relu_0_split
I0227 19:12:17.156996 26678 net.cpp:131] Top shape: 1 1024 16 16 (262144)
I0227 19:12:17.157001 26678 net.cpp:131] Top shape: 1 1024 16 16 (262144)
I0227 19:12:17.157004 26678 net.cpp:131] Top shape: 1 1024 16 16 (262144)
I0227 19:12:17.157008 26678 net.cpp:131] Top shape: 1 1024 16 16 (262144)
I0227 19:12:17.157011 26678 net.cpp:139] Memory required for data: 651689984
I0227 19:12:17.157016 26678 layer_factory.hpp:77] Creating layer res5a_branch1
I0227 19:12:17.157024 26678 net.cpp:86] Creating Layer res5a_branch1
I0227 19:12:17.157028 26678 net.cpp:408] res5a_branch1 <- res4b35_res4b35_relu_0_split_0
I0227 19:12:17.157035 26678 net.cpp:382] res5a_branch1 -> res5a_branch1
I0227 19:12:17.164007 26678 net.cpp:124] Setting up res5a_branch1
I0227 19:12:17.164026 26678 net.cpp:131] Top shape: 1 2048 8 8 (131072)
I0227 19:12:17.164042 26678 net.cpp:139] Memory required for data: 652214272
I0227 19:12:17.164049 26678 layer_factory.hpp:77] Creating layer bn5a_branch1
I0227 19:12:17.164058 26678 net.cpp:86] Creating Layer bn5a_branch1
I0227 19:12:17.164075 26678 net.cpp:408] bn5a_branch1 <- res5a_branch1
I0227 19:12:17.164082 26678 net.cpp:369] bn5a_branch1 -> res5a_branch1 (in-place)
I0227 19:12:17.164369 26678 net.cpp:124] Setting up bn5a_branch1
I0227 19:12:17.164417 26678 net.cpp:131] Top shape: 1 2048 8 8 (131072)
I0227 19:12:17.164422 26678 net.cpp:139] Memory required for data: 652738560
I0227 19:12:17.164432 26678 layer_factory.hpp:77] Creating layer scale5a_branch1
I0227 19:12:17.164438 26678 net.cpp:86] Creating Layer scale5a_branch1
I0227 19:12:17.164448 26678 net.cpp:408] scale5a_branch1 <- res5a_branch1
I0227 19:12:17.164453 26678 net.cpp:369] scale5a_branch1 -> res5a_branch1 (in-place)
I0227 19:12:17.164526 26678 layer_factory.hpp:77] Creating layer scale5a_branch1
I0227 19:12:17.164692 26678 net.cpp:124] Setting up scale5a_branch1
I0227 19:12:17.164703 26678 net.cpp:131] Top shape: 1 2048 8 8 (131072)
I0227 19:12:17.164706 26678 net.cpp:139] Memory required for data: 653262848
I0227 19:12:17.164713 26678 layer_factory.hpp:77] Creating layer res5a_branch2a
I0227 19:12:17.164723 26678 net.cpp:86] Creating Layer res5a_branch2a
I0227 19:12:17.164731 26678 net.cpp:408] res5a_branch2a <- res4b35_res4b35_relu_0_split_1
I0227 19:12:17.164737 26678 net.cpp:382] res5a_branch2a -> res5a_branch2a
I0227 19:12:17.167764 26678 net.cpp:124] Setting up res5a_branch2a
I0227 19:12:17.167781 26678 net.cpp:131] Top shape: 1 512 8 8 (32768)
I0227 19:12:17.167798 26678 net.cpp:139] Memory required for data: 653393920
I0227 19:12:17.167804 26678 layer_factory.hpp:77] Creating layer bn5a_branch2a
I0227 19:12:17.167814 26678 net.cpp:86] Creating Layer bn5a_branch2a
I0227 19:12:17.167819 26678 net.cpp:408] bn5a_branch2a <- res5a_branch2a
I0227 19:12:17.167836 26678 net.cpp:369] bn5a_branch2a -> res5a_branch2a (in-place)
I0227 19:12:17.168103 26678 net.cpp:124] Setting up bn5a_branch2a
I0227 19:12:17.168114 26678 net.cpp:131] Top shape: 1 512 8 8 (32768)
I0227 19:12:17.168118 26678 net.cpp:139] Memory required for data: 653524992
I0227 19:12:17.168126 26678 layer_factory.hpp:77] Creating layer scale5a_branch2a
I0227 19:12:17.168133 26678 net.cpp:86] Creating Layer scale5a_branch2a
I0227 19:12:17.168138 26678 net.cpp:408] scale5a_branch2a <- res5a_branch2a
I0227 19:12:17.168145 26678 net.cpp:369] scale5a_branch2a -> res5a_branch2a (in-place)
I0227 19:12:17.168211 26678 layer_factory.hpp:77] Creating layer scale5a_branch2a
I0227 19:12:17.168375 26678 net.cpp:124] Setting up scale5a_branch2a
I0227 19:12:17.168385 26678 net.cpp:131] Top shape: 1 512 8 8 (32768)
I0227 19:12:17.168388 26678 net.cpp:139] Memory required for data: 653656064
I0227 19:12:17.168395 26678 layer_factory.hpp:77] Creating layer res5a_branch2a_relu
I0227 19:12:17.168401 26678 net.cpp:86] Creating Layer res5a_branch2a_relu
I0227 19:12:17.168406 26678 net.cpp:408] res5a_branch2a_relu <- res5a_branch2a
I0227 19:12:17.168411 26678 net.cpp:369] res5a_branch2a_relu -> res5a_branch2a (in-place)
I0227 19:12:17.168884 26678 net.cpp:124] Setting up res5a_branch2a_relu
I0227 19:12:17.168900 26678 net.cpp:131] Top shape: 1 512 8 8 (32768)
I0227 19:12:17.168915 26678 net.cpp:139] Memory required for data: 653787136
I0227 19:12:17.168920 26678 layer_factory.hpp:77] Creating layer res5a_branch2b
I0227 19:12:17.168928 26678 net.cpp:86] Creating Layer res5a_branch2b
I0227 19:12:17.168933 26678 net.cpp:408] res5a_branch2b <- res5a_branch2a
I0227 19:12:17.168952 26678 net.cpp:382] res5a_branch2b -> res5a_branch2b
I0227 19:12:17.176717 26678 net.cpp:124] Setting up res5a_branch2b
I0227 19:12:17.176748 26678 net.cpp:131] Top shape: 1 512 8 8 (32768)
I0227 19:12:17.176751 26678 net.cpp:139] Memory required for data: 653918208
I0227 19:12:17.176758 26678 layer_factory.hpp:77] Creating layer bn5a_branch2b
I0227 19:12:17.176831 26678 net.cpp:86] Creating Layer bn5a_branch2b
I0227 19:12:17.176839 26678 net.cpp:408] bn5a_branch2b <- res5a_branch2b
I0227 19:12:17.176846 26678 net.cpp:369] bn5a_branch2b -> res5a_branch2b (in-place)
I0227 19:12:17.177116 26678 net.cpp:124] Setting up bn5a_branch2b
I0227 19:12:17.177139 26678 net.cpp:131] Top shape: 1 512 8 8 (32768)
I0227 19:12:17.177153 26678 net.cpp:139] Memory required for data: 654049280
I0227 19:12:17.177173 26678 layer_factory.hpp:77] Creating layer scale5a_branch2b
I0227 19:12:17.177182 26678 net.cpp:86] Creating Layer scale5a_branch2b
I0227 19:12:17.177186 26678 net.cpp:408] scale5a_branch2b <- res5a_branch2b
I0227 19:12:17.177204 26678 net.cpp:369] scale5a_branch2b -> res5a_branch2b (in-place)
I0227 19:12:17.177300 26678 layer_factory.hpp:77] Creating layer scale5a_branch2b
I0227 19:12:17.177464 26678 net.cpp:124] Setting up scale5a_branch2b
I0227 19:12:17.177475 26678 net.cpp:131] Top shape: 1 512 8 8 (32768)
I0227 19:12:17.177479 26678 net.cpp:139] Memory required for data: 654180352
I0227 19:12:17.177485 26678 layer_factory.hpp:77] Creating layer res5a_branch2b_relu
I0227 19:12:17.177492 26678 net.cpp:86] Creating Layer res5a_branch2b_relu
I0227 19:12:17.177496 26678 net.cpp:408] res5a_branch2b_relu <- res5a_branch2b
I0227 19:12:17.177503 26678 net.cpp:369] res5a_branch2b_relu -> res5a_branch2b (in-place)
I0227 19:12:17.177975 26678 net.cpp:124] Setting up res5a_branch2b_relu
I0227 19:12:17.177989 26678 net.cpp:131] Top shape: 1 512 8 8 (32768)
I0227 19:12:17.178005 26678 net.cpp:139] Memory required for data: 654311424
I0227 19:12:17.178009 26678 layer_factory.hpp:77] Creating layer res5a_branch2c
I0227 19:12:17.178020 26678 net.cpp:86] Creating Layer res5a_branch2c
I0227 19:12:17.178025 26678 net.cpp:408] res5a_branch2c <- res5a_branch2b
I0227 19:12:17.178043 26678 net.cpp:382] res5a_branch2c -> res5a_branch2c
I0227 19:12:17.182548 26678 net.cpp:124] Setting up res5a_branch2c
I0227 19:12:17.182565 26678 net.cpp:131] Top shape: 1 2048 8 8 (131072)
I0227 19:12:17.182581 26678 net.cpp:139] Memory required for data: 654835712
I0227 19:12:17.182587 26678 layer_factory.hpp:77] Creating layer bn5a_branch2c
I0227 19:12:17.182595 26678 net.cpp:86] Creating Layer bn5a_branch2c
I0227 19:12:17.182600 26678 net.cpp:408] bn5a_branch2c <- res5a_branch2c
I0227 19:12:17.182618 26678 net.cpp:369] bn5a_branch2c -> res5a_branch2c (in-place)
I0227 19:12:17.182926 26678 net.cpp:124] Setting up bn5a_branch2c
I0227 19:12:17.182938 26678 net.cpp:131] Top shape: 1 2048 8 8 (131072)
I0227 19:12:17.182953 26678 net.cpp:139] Memory required for data: 655360000
I0227 19:12:17.182962 26678 layer_factory.hpp:77] Creating layer scale5a_branch2c
I0227 19:12:17.182970 26678 net.cpp:86] Creating Layer scale5a_branch2c
I0227 19:12:17.182973 26678 net.cpp:408] scale5a_branch2c <- res5a_branch2c
I0227 19:12:17.182979 26678 net.cpp:369] scale5a_branch2c -> res5a_branch2c (in-place)
I0227 19:12:17.183063 26678 layer_factory.hpp:77] Creating layer scale5a_branch2c
I0227 19:12:17.183259 26678 net.cpp:124] Setting up scale5a_branch2c
I0227 19:12:17.183272 26678 net.cpp:131] Top shape: 1 2048 8 8 (131072)
I0227 19:12:17.183276 26678 net.cpp:139] Memory required for data: 655884288
I0227 19:12:17.183284 26678 layer_factory.hpp:77] Creating layer res5a
I0227 19:12:17.183290 26678 net.cpp:86] Creating Layer res5a
I0227 19:12:17.183295 26678 net.cpp:408] res5a <- res5a_branch1
I0227 19:12:17.183301 26678 net.cpp:408] res5a <- res5a_branch2c
I0227 19:12:17.183308 26678 net.cpp:382] res5a -> res5a
I0227 19:12:17.183336 26678 net.cpp:124] Setting up res5a
I0227 19:12:17.183346 26678 net.cpp:131] Top shape: 1 2048 8 8 (131072)
I0227 19:12:17.183348 26678 net.cpp:139] Memory required for data: 656408576
I0227 19:12:17.183352 26678 layer_factory.hpp:77] Creating layer res5a_relu
I0227 19:12:17.183360 26678 net.cpp:86] Creating Layer res5a_relu
I0227 19:12:17.183364 26678 net.cpp:408] res5a_relu <- res5a
I0227 19:12:17.183370 26678 net.cpp:369] res5a_relu -> res5a (in-place)
I0227 19:12:17.183627 26678 net.cpp:124] Setting up res5a_relu
I0227 19:12:17.183640 26678 net.cpp:131] Top shape: 1 2048 8 8 (131072)
I0227 19:12:17.183655 26678 net.cpp:139] Memory required for data: 656932864
I0227 19:12:17.183660 26678 layer_factory.hpp:77] Creating layer res5a_res5a_relu_0_split
I0227 19:12:17.183678 26678 net.cpp:86] Creating Layer res5a_res5a_relu_0_split
I0227 19:12:17.183682 26678 net.cpp:408] res5a_res5a_relu_0_split <- res5a
I0227 19:12:17.183701 26678 net.cpp:382] res5a_res5a_relu_0_split -> res5a_res5a_relu_0_split_0
I0227 19:12:17.183709 26678 net.cpp:382] res5a_res5a_relu_0_split -> res5a_res5a_relu_0_split_1
I0227 19:12:17.183780 26678 net.cpp:124] Setting up res5a_res5a_relu_0_split
I0227 19:12:17.183789 26678 net.cpp:131] Top shape: 1 2048 8 8 (131072)
I0227 19:12:17.183794 26678 net.cpp:131] Top shape: 1 2048 8 8 (131072)
I0227 19:12:17.183797 26678 net.cpp:139] Memory required for data: 657981440
I0227 19:12:17.183801 26678 layer_factory.hpp:77] Creating layer res5b_branch2a
I0227 19:12:17.183811 26678 net.cpp:86] Creating Layer res5b_branch2a
I0227 19:12:17.183830 26678 net.cpp:408] res5b_branch2a <- res5a_res5a_relu_0_split_0
I0227 19:12:17.183837 26678 net.cpp:382] res5b_branch2a -> res5b_branch2a
I0227 19:12:17.188103 26678 net.cpp:124] Setting up res5b_branch2a
I0227 19:12:17.188122 26678 net.cpp:131] Top shape: 1 512 8 8 (32768)
I0227 19:12:17.188138 26678 net.cpp:139] Memory required for data: 658112512
I0227 19:12:17.188144 26678 layer_factory.hpp:77] Creating layer bn5b_branch2a
I0227 19:12:17.188154 26678 net.cpp:86] Creating Layer bn5b_branch2a
I0227 19:12:17.188171 26678 net.cpp:408] bn5b_branch2a <- res5b_branch2a
I0227 19:12:17.188179 26678 net.cpp:369] bn5b_branch2a -> res5b_branch2a (in-place)
I0227 19:12:17.188467 26678 net.cpp:124] Setting up bn5b_branch2a
I0227 19:12:17.188488 26678 net.cpp:131] Top shape: 1 512 8 8 (32768)
I0227 19:12:17.188504 26678 net.cpp:139] Memory required for data: 658243584
I0227 19:12:17.188513 26678 layer_factory.hpp:77] Creating layer scale5b_branch2a
I0227 19:12:17.188532 26678 net.cpp:86] Creating Layer scale5b_branch2a
I0227 19:12:17.188537 26678 net.cpp:408] scale5b_branch2a <- res5b_branch2a
I0227 19:12:17.188555 26678 net.cpp:369] scale5b_branch2a -> res5b_branch2a (in-place)
I0227 19:12:17.188624 26678 layer_factory.hpp:77] Creating layer scale5b_branch2a
I0227 19:12:17.188822 26678 net.cpp:124] Setting up scale5b_branch2a
I0227 19:12:17.188834 26678 net.cpp:131] Top shape: 1 512 8 8 (32768)
I0227 19:12:17.188838 26678 net.cpp:139] Memory required for data: 658374656
I0227 19:12:17.188844 26678 layer_factory.hpp:77] Creating layer res5b_branch2a_relu
I0227 19:12:17.188851 26678 net.cpp:86] Creating Layer res5b_branch2a_relu
I0227 19:12:17.188855 26678 net.cpp:408] res5b_branch2a_relu <- res5b_branch2a
I0227 19:12:17.188860 26678 net.cpp:369] res5b_branch2a_relu -> res5b_branch2a (in-place)
I0227 19:12:17.189383 26678 net.cpp:124] Setting up res5b_branch2a_relu
I0227 19:12:17.189396 26678 net.cpp:131] Top shape: 1 512 8 8 (32768)
I0227 19:12:17.189400 26678 net.cpp:139] Memory required for data: 658505728
I0227 19:12:17.189404 26678 layer_factory.hpp:77] Creating layer res5b_branch2b
I0227 19:12:17.189427 26678 net.cpp:86] Creating Layer res5b_branch2b
I0227 19:12:17.189432 26678 net.cpp:408] res5b_branch2b <- res5b_branch2a
I0227 19:12:17.189438 26678 net.cpp:382] res5b_branch2b -> res5b_branch2b
I0227 19:12:17.196477 26678 net.cpp:124] Setting up res5b_branch2b
I0227 19:12:17.196507 26678 net.cpp:131] Top shape: 1 512 8 8 (32768)
I0227 19:12:17.196512 26678 net.cpp:139] Memory required for data: 658636800
I0227 19:12:17.196518 26678 layer_factory.hpp:77] Creating layer bn5b_branch2b
I0227 19:12:17.196527 26678 net.cpp:86] Creating Layer bn5b_branch2b
I0227 19:12:17.196543 26678 net.cpp:408] bn5b_branch2b <- res5b_branch2b
I0227 19:12:17.196549 26678 net.cpp:369] bn5b_branch2b -> res5b_branch2b (in-place)
I0227 19:12:17.196827 26678 net.cpp:124] Setting up bn5b_branch2b
I0227 19:12:17.196851 26678 net.cpp:131] Top shape: 1 512 8 8 (32768)
I0227 19:12:17.196866 26678 net.cpp:139] Memory required for data: 658767872
I0227 19:12:17.196874 26678 layer_factory.hpp:77] Creating layer scale5b_branch2b
I0227 19:12:17.196883 26678 net.cpp:86] Creating Layer scale5b_branch2b
I0227 19:12:17.196887 26678 net.cpp:408] scale5b_branch2b <- res5b_branch2b
I0227 19:12:17.196904 26678 net.cpp:369] scale5b_branch2b -> res5b_branch2b (in-place)
I0227 19:12:17.196997 26678 layer_factory.hpp:77] Creating layer scale5b_branch2b
I0227 19:12:17.197170 26678 net.cpp:124] Setting up scale5b_branch2b
I0227 19:12:17.197180 26678 net.cpp:131] Top shape: 1 512 8 8 (32768)
I0227 19:12:17.197185 26678 net.cpp:139] Memory required for data: 658898944
I0227 19:12:17.197190 26678 layer_factory.hpp:77] Creating layer res5b_branch2b_relu
I0227 19:12:17.197201 26678 net.cpp:86] Creating Layer res5b_branch2b_relu
I0227 19:12:17.197206 26678 net.cpp:408] res5b_branch2b_relu <- res5b_branch2b
I0227 19:12:17.197211 26678 net.cpp:369] res5b_branch2b_relu -> res5b_branch2b (in-place)
I0227 19:12:17.197712 26678 net.cpp:124] Setting up res5b_branch2b_relu
I0227 19:12:17.197726 26678 net.cpp:131] Top shape: 1 512 8 8 (32768)
I0227 19:12:17.197741 26678 net.cpp:139] Memory required for data: 659030016
I0227 19:12:17.197744 26678 layer_factory.hpp:77] Creating layer res5b_branch2c
I0227 19:12:17.197754 26678 net.cpp:86] Creating Layer res5b_branch2c
I0227 19:12:17.197758 26678 net.cpp:408] res5b_branch2c <- res5b_branch2b
I0227 19:12:17.197777 26678 net.cpp:382] res5b_branch2c -> res5b_branch2c
I0227 19:12:17.201815 26678 net.cpp:124] Setting up res5b_branch2c
I0227 19:12:17.201833 26678 net.cpp:131] Top shape: 1 2048 8 8 (131072)
I0227 19:12:17.201849 26678 net.cpp:139] Memory required for data: 659554304
I0227 19:12:17.201856 26678 layer_factory.hpp:77] Creating layer bn5b_branch2c
I0227 19:12:17.201875 26678 net.cpp:86] Creating Layer bn5b_branch2c
I0227 19:12:17.201880 26678 net.cpp:408] bn5b_branch2c <- res5b_branch2c
I0227 19:12:17.201900 26678 net.cpp:369] bn5b_branch2c -> res5b_branch2c (in-place)
I0227 19:12:17.202210 26678 net.cpp:124] Setting up bn5b_branch2c
I0227 19:12:17.202221 26678 net.cpp:131] Top shape: 1 2048 8 8 (131072)
I0227 19:12:17.202236 26678 net.cpp:139] Memory required for data: 660078592
I0227 19:12:17.202244 26678 layer_factory.hpp:77] Creating layer scale5b_branch2c
I0227 19:12:17.202251 26678 net.cpp:86] Creating Layer scale5b_branch2c
I0227 19:12:17.202267 26678 net.cpp:408] scale5b_branch2c <- res5b_branch2c
I0227 19:12:17.202272 26678 net.cpp:369] scale5b_branch2c -> res5b_branch2c (in-place)
I0227 19:12:17.202354 26678 layer_factory.hpp:77] Creating layer scale5b_branch2c
I0227 19:12:17.202539 26678 net.cpp:124] Setting up scale5b_branch2c
I0227 19:12:17.202550 26678 net.cpp:131] Top shape: 1 2048 8 8 (131072)
I0227 19:12:17.202553 26678 net.cpp:139] Memory required for data: 660602880
I0227 19:12:17.202560 26678 layer_factory.hpp:77] Creating layer res5b
I0227 19:12:17.202569 26678 net.cpp:86] Creating Layer res5b
I0227 19:12:17.202574 26678 net.cpp:408] res5b <- res5a_res5a_relu_0_split_1
I0227 19:12:17.202579 26678 net.cpp:408] res5b <- res5b_branch2c
I0227 19:12:17.202589 26678 net.cpp:382] res5b -> res5b
I0227 19:12:17.202616 26678 net.cpp:124] Setting up res5b
I0227 19:12:17.202625 26678 net.cpp:131] Top shape: 1 2048 8 8 (131072)
I0227 19:12:17.202628 26678 net.cpp:139] Memory required for data: 661127168
I0227 19:12:17.202632 26678 layer_factory.hpp:77] Creating layer res5b_relu
I0227 19:12:17.202639 26678 net.cpp:86] Creating Layer res5b_relu
I0227 19:12:17.202644 26678 net.cpp:408] res5b_relu <- res5b
I0227 19:12:17.202649 26678 net.cpp:369] res5b_relu -> res5b (in-place)
I0227 19:12:17.202898 26678 net.cpp:124] Setting up res5b_relu
I0227 19:12:17.202910 26678 net.cpp:131] Top shape: 1 2048 8 8 (131072)
I0227 19:12:17.202914 26678 net.cpp:139] Memory required for data: 661651456
I0227 19:12:17.202919 26678 layer_factory.hpp:77] Creating layer res5b_res5b_relu_0_split
I0227 19:12:17.202924 26678 net.cpp:86] Creating Layer res5b_res5b_relu_0_split
I0227 19:12:17.202929 26678 net.cpp:408] res5b_res5b_relu_0_split <- res5b
I0227 19:12:17.202936 26678 net.cpp:382] res5b_res5b_relu_0_split -> res5b_res5b_relu_0_split_0
I0227 19:12:17.202944 26678 net.cpp:382] res5b_res5b_relu_0_split -> res5b_res5b_relu_0_split_1
I0227 19:12:17.202996 26678 net.cpp:124] Setting up res5b_res5b_relu_0_split
I0227 19:12:17.203003 26678 net.cpp:131] Top shape: 1 2048 8 8 (131072)
I0227 19:12:17.203008 26678 net.cpp:131] Top shape: 1 2048 8 8 (131072)
I0227 19:12:17.203011 26678 net.cpp:139] Memory required for data: 662700032
I0227 19:12:17.203016 26678 layer_factory.hpp:77] Creating layer res5c_branch2a
I0227 19:12:17.203027 26678 net.cpp:86] Creating Layer res5c_branch2a
I0227 19:12:17.203032 26678 net.cpp:408] res5c_branch2a <- res5b_res5b_relu_0_split_0
I0227 19:12:17.203038 26678 net.cpp:382] res5c_branch2a -> res5c_branch2a
I0227 19:12:17.208106 26678 net.cpp:124] Setting up res5c_branch2a
I0227 19:12:17.208129 26678 net.cpp:131] Top shape: 1 512 8 8 (32768)
I0227 19:12:17.208134 26678 net.cpp:139] Memory required for data: 662831104
I0227 19:12:17.208153 26678 layer_factory.hpp:77] Creating layer bn5c_branch2a
I0227 19:12:17.208211 26678 net.cpp:86] Creating Layer bn5c_branch2a
I0227 19:12:17.208220 26678 net.cpp:408] bn5c_branch2a <- res5c_branch2a
I0227 19:12:17.208227 26678 net.cpp:369] bn5c_branch2a -> res5c_branch2a (in-place)
I0227 19:12:17.208516 26678 net.cpp:124] Setting up bn5c_branch2a
I0227 19:12:17.208539 26678 net.cpp:131] Top shape: 1 512 8 8 (32768)
I0227 19:12:17.208541 26678 net.cpp:139] Memory required for data: 662962176
I0227 19:12:17.208562 26678 layer_factory.hpp:77] Creating layer scale5c_branch2a
I0227 19:12:17.208580 26678 net.cpp:86] Creating Layer scale5c_branch2a
I0227 19:12:17.208585 26678 net.cpp:408] scale5c_branch2a <- res5c_branch2a
I0227 19:12:17.208591 26678 net.cpp:369] scale5c_branch2a -> res5c_branch2a (in-place)
I0227 19:12:17.208673 26678 layer_factory.hpp:77] Creating layer scale5c_branch2a
I0227 19:12:17.208842 26678 net.cpp:124] Setting up scale5c_branch2a
I0227 19:12:17.208853 26678 net.cpp:131] Top shape: 1 512 8 8 (32768)
I0227 19:12:17.208858 26678 net.cpp:139] Memory required for data: 663093248
I0227 19:12:17.208864 26678 layer_factory.hpp:77] Creating layer res5c_branch2a_relu
I0227 19:12:17.208870 26678 net.cpp:86] Creating Layer res5c_branch2a_relu
I0227 19:12:17.208874 26678 net.cpp:408] res5c_branch2a_relu <- res5c_branch2a
I0227 19:12:17.208879 26678 net.cpp:369] res5c_branch2a_relu -> res5c_branch2a (in-place)
I0227 19:12:17.209568 26678 net.cpp:124] Setting up res5c_branch2a_relu
I0227 19:12:17.209581 26678 net.cpp:131] Top shape: 1 512 8 8 (32768)
I0227 19:12:17.209597 26678 net.cpp:139] Memory required for data: 663224320
I0227 19:12:17.209601 26678 layer_factory.hpp:77] Creating layer res5c_branch2b
I0227 19:12:17.209611 26678 net.cpp:86] Creating Layer res5c_branch2b
I0227 19:12:17.209617 26678 net.cpp:408] res5c_branch2b <- res5c_branch2a
I0227 19:12:17.209635 26678 net.cpp:382] res5c_branch2b -> res5c_branch2b
I0227 19:12:17.218853 26678 net.cpp:124] Setting up res5c_branch2b
I0227 19:12:17.218899 26678 net.cpp:131] Top shape: 1 512 8 8 (32768)
I0227 19:12:17.218904 26678 net.cpp:139] Memory required for data: 663355392
I0227 19:12:17.218914 26678 layer_factory.hpp:77] Creating layer bn5c_branch2b
I0227 19:12:17.218927 26678 net.cpp:86] Creating Layer bn5c_branch2b
I0227 19:12:17.218945 26678 net.cpp:408] bn5c_branch2b <- res5c_branch2b
I0227 19:12:17.218952 26678 net.cpp:369] bn5c_branch2b -> res5c_branch2b (in-place)
I0227 19:12:17.219354 26678 net.cpp:124] Setting up bn5c_branch2b
I0227 19:12:17.219368 26678 net.cpp:131] Top shape: 1 512 8 8 (32768)
I0227 19:12:17.219372 26678 net.cpp:139] Memory required for data: 663486464
I0227 19:12:17.219383 26678 layer_factory.hpp:77] Creating layer scale5c_branch2b
I0227 19:12:17.219390 26678 net.cpp:86] Creating Layer scale5c_branch2b
I0227 19:12:17.219398 26678 net.cpp:408] scale5c_branch2b <- res5c_branch2b
I0227 19:12:17.219403 26678 net.cpp:369] scale5c_branch2b -> res5c_branch2b (in-place)
I0227 19:12:17.219516 26678 layer_factory.hpp:77] Creating layer scale5c_branch2b
I0227 19:12:17.219688 26678 net.cpp:124] Setting up scale5c_branch2b
I0227 19:12:17.219698 26678 net.cpp:131] Top shape: 1 512 8 8 (32768)
I0227 19:12:17.219702 26678 net.cpp:139] Memory required for data: 663617536
I0227 19:12:17.219708 26678 layer_factory.hpp:77] Creating layer res5c_branch2b_relu
I0227 19:12:17.219717 26678 net.cpp:86] Creating Layer res5c_branch2b_relu
I0227 19:12:17.219722 26678 net.cpp:408] res5c_branch2b_relu <- res5c_branch2b
I0227 19:12:17.219727 26678 net.cpp:369] res5c_branch2b_relu -> res5c_branch2b (in-place)
I0227 19:12:17.220222 26678 net.cpp:124] Setting up res5c_branch2b_relu
I0227 19:12:17.220237 26678 net.cpp:131] Top shape: 1 512 8 8 (32768)
I0227 19:12:17.220252 26678 net.cpp:139] Memory required for data: 663748608
I0227 19:12:17.220257 26678 layer_factory.hpp:77] Creating layer res5c_branch2c
I0227 19:12:17.220269 26678 net.cpp:86] Creating Layer res5c_branch2c
I0227 19:12:17.220286 26678 net.cpp:408] res5c_branch2c <- res5c_branch2b
I0227 19:12:17.220293 26678 net.cpp:382] res5c_branch2c -> res5c_branch2c
I0227 19:12:17.225261 26678 net.cpp:124] Setting up res5c_branch2c
I0227 19:12:17.225303 26678 net.cpp:131] Top shape: 1 2048 8 8 (131072)
I0227 19:12:17.225308 26678 net.cpp:139] Memory required for data: 664272896
I0227 19:12:17.225317 26678 layer_factory.hpp:77] Creating layer bn5c_branch2c
I0227 19:12:17.225328 26678 net.cpp:86] Creating Layer bn5c_branch2c
I0227 19:12:17.225347 26678 net.cpp:408] bn5c_branch2c <- res5c_branch2c
I0227 19:12:17.225355 26678 net.cpp:369] bn5c_branch2c -> res5c_branch2c (in-place)
I0227 19:12:17.225693 26678 net.cpp:124] Setting up bn5c_branch2c
I0227 19:12:17.225704 26678 net.cpp:131] Top shape: 1 2048 8 8 (131072)
I0227 19:12:17.225721 26678 net.cpp:139] Memory required for data: 664797184
I0227 19:12:17.225729 26678 layer_factory.hpp:77] Creating layer scale5c_branch2c
I0227 19:12:17.225750 26678 net.cpp:86] Creating Layer scale5c_branch2c
I0227 19:12:17.225754 26678 net.cpp:408] scale5c_branch2c <- res5c_branch2c
I0227 19:12:17.225771 26678 net.cpp:369] scale5c_branch2c -> res5c_branch2c (in-place)
I0227 19:12:17.225867 26678 layer_factory.hpp:77] Creating layer scale5c_branch2c
I0227 19:12:17.226115 26678 net.cpp:124] Setting up scale5c_branch2c
I0227 19:12:17.226127 26678 net.cpp:131] Top shape: 1 2048 8 8 (131072)
I0227 19:12:17.226130 26678 net.cpp:139] Memory required for data: 665321472
I0227 19:12:17.226137 26678 layer_factory.hpp:77] Creating layer res5c
I0227 19:12:17.226145 26678 net.cpp:86] Creating Layer res5c
I0227 19:12:17.226150 26678 net.cpp:408] res5c <- res5b_res5b_relu_0_split_1
I0227 19:12:17.226155 26678 net.cpp:408] res5c <- res5c_branch2c
I0227 19:12:17.226161 26678 net.cpp:382] res5c -> res5c
I0227 19:12:17.226193 26678 net.cpp:124] Setting up res5c
I0227 19:12:17.226202 26678 net.cpp:131] Top shape: 1 2048 8 8 (131072)
I0227 19:12:17.226207 26678 net.cpp:139] Memory required for data: 665845760
I0227 19:12:17.226210 26678 layer_factory.hpp:77] Creating layer res5c_relu
I0227 19:12:17.226217 26678 net.cpp:86] Creating Layer res5c_relu
I0227 19:12:17.226220 26678 net.cpp:408] res5c_relu <- res5c
I0227 19:12:17.226225 26678 net.cpp:369] res5c_relu -> res5c (in-place)
I0227 19:12:17.226475 26678 net.cpp:124] Setting up res5c_relu
I0227 19:12:17.226487 26678 net.cpp:131] Top shape: 1 2048 8 8 (131072)
I0227 19:12:17.226491 26678 net.cpp:139] Memory required for data: 666370048
I0227 19:12:17.226495 26678 layer_factory.hpp:77] Creating layer res5c_res5c_relu_0_split
I0227 19:12:17.226501 26678 net.cpp:86] Creating Layer res5c_res5c_relu_0_split
I0227 19:12:17.226506 26678 net.cpp:408] res5c_res5c_relu_0_split <- res5c
I0227 19:12:17.226513 26678 net.cpp:382] res5c_res5c_relu_0_split -> res5c_res5c_relu_0_split_0
I0227 19:12:17.226521 26678 net.cpp:382] res5c_res5c_relu_0_split -> res5c_res5c_relu_0_split_1
I0227 19:12:17.226573 26678 net.cpp:124] Setting up res5c_res5c_relu_0_split
I0227 19:12:17.226582 26678 net.cpp:131] Top shape: 1 2048 8 8 (131072)
I0227 19:12:17.226588 26678 net.cpp:131] Top shape: 1 2048 8 8 (131072)
I0227 19:12:17.226591 26678 net.cpp:139] Memory required for data: 667418624
I0227 19:12:17.226594 26678 layer_factory.hpp:77] Creating layer score_fr_sem
I0227 19:12:17.226604 26678 net.cpp:86] Creating Layer score_fr_sem
I0227 19:12:17.226610 26678 net.cpp:408] score_fr_sem <- res5c_res5c_relu_0_split_0
I0227 19:12:17.226619 26678 net.cpp:382] score_fr_sem -> score_fr_sem
I0227 19:12:17.230700 26678 net.cpp:124] Setting up score_fr_sem
I0227 19:12:17.230742 26678 net.cpp:131] Top shape: 1 33 8 8 (2112)
I0227 19:12:17.230747 26678 net.cpp:139] Memory required for data: 667427072
I0227 19:12:17.230757 26678 layer_factory.hpp:77] Creating layer upscore2_sem
I0227 19:12:17.230772 26678 net.cpp:86] Creating Layer upscore2_sem
I0227 19:12:17.230789 26678 net.cpp:408] upscore2_sem <- score_fr_sem
I0227 19:12:17.230798 26678 net.cpp:382] upscore2_sem -> upscore2_sem
I0227 19:12:17.231102 26678 net.cpp:124] Setting up upscore2_sem
I0227 19:12:17.231113 26678 net.cpp:131] Top shape: 1 33 18 18 (10692)
I0227 19:12:17.231128 26678 net.cpp:139] Memory required for data: 667469840
I0227 19:12:17.231134 26678 layer_factory.hpp:77] Creating layer score_pool4_sem
I0227 19:12:17.231163 26678 net.cpp:86] Creating Layer score_pool4_sem
I0227 19:12:17.231180 26678 net.cpp:408] score_pool4_sem <- res4b35_res4b35_relu_0_split_2
I0227 19:12:17.231202 26678 net.cpp:382] score_pool4_sem -> score_pool4_sem
I0227 19:12:17.234449 26678 net.cpp:124] Setting up score_pool4_sem
I0227 19:12:17.234465 26678 net.cpp:131] Top shape: 1 33 16 16 (8448)
I0227 19:12:17.234482 26678 net.cpp:139] Memory required for data: 667503632
I0227 19:12:17.234488 26678 layer_factory.hpp:77] Creating layer score_pool4_sem_score_pool4_sem_0_split
I0227 19:12:17.234498 26678 net.cpp:86] Creating Layer score_pool4_sem_score_pool4_sem_0_split
I0227 19:12:17.234514 26678 net.cpp:408] score_pool4_sem_score_pool4_sem_0_split <- score_pool4_sem
I0227 19:12:17.234520 26678 net.cpp:382] score_pool4_sem_score_pool4_sem_0_split -> score_pool4_sem_score_pool4_sem_0_split_0
I0227 19:12:17.234529 26678 net.cpp:382] score_pool4_sem_score_pool4_sem_0_split -> score_pool4_sem_score_pool4_sem_0_split_1
I0227 19:12:17.234571 26678 net.cpp:124] Setting up score_pool4_sem_score_pool4_sem_0_split
I0227 19:12:17.234580 26678 net.cpp:131] Top shape: 1 33 16 16 (8448)
I0227 19:12:17.234596 26678 net.cpp:131] Top shape: 1 33 16 16 (8448)
I0227 19:12:17.234601 26678 net.cpp:139] Memory required for data: 667571216
I0227 19:12:17.234604 26678 layer_factory.hpp:77] Creating layer score_pool4c_sem
I0227 19:12:17.234613 26678 net.cpp:86] Creating Layer score_pool4c_sem
I0227 19:12:17.234618 26678 net.cpp:408] score_pool4c_sem <- upscore2_sem
I0227 19:12:17.234623 26678 net.cpp:408] score_pool4c_sem <- score_pool4_sem_score_pool4_sem_0_split_0
I0227 19:12:17.234630 26678 net.cpp:382] score_pool4c_sem -> upscore2c_sem
I0227 19:12:17.234661 26678 net.cpp:124] Setting up score_pool4c_sem
I0227 19:12:17.234669 26678 net.cpp:131] Top shape: 1 33 16 16 (8448)
I0227 19:12:17.234673 26678 net.cpp:139] Memory required for data: 667605008
I0227 19:12:17.234676 26678 layer_factory.hpp:77] Creating layer fuse_pool4_sem
I0227 19:12:17.234684 26678 net.cpp:86] Creating Layer fuse_pool4_sem
I0227 19:12:17.234689 26678 net.cpp:408] fuse_pool4_sem <- score_pool4_sem_score_pool4_sem_0_split_1
I0227 19:12:17.234694 26678 net.cpp:408] fuse_pool4_sem <- upscore2c_sem
I0227 19:12:17.234699 26678 net.cpp:382] fuse_pool4_sem -> fuse_pool4_sem
I0227 19:12:17.234781 26678 net.cpp:124] Setting up fuse_pool4_sem
I0227 19:12:17.234791 26678 net.cpp:131] Top shape: 1 33 16 16 (8448)
I0227 19:12:17.234794 26678 net.cpp:139] Memory required for data: 667638800
I0227 19:12:17.234798 26678 layer_factory.hpp:77] Creating layer upscore_skip16_sem
I0227 19:12:17.234807 26678 net.cpp:86] Creating Layer upscore_skip16_sem
I0227 19:12:17.234812 26678 net.cpp:408] upscore_skip16_sem <- fuse_pool4_sem
I0227 19:12:17.234817 26678 net.cpp:382] upscore_skip16_sem -> upscore_sem
I0227 19:12:17.238580 26678 net.cpp:124] Setting up upscore_skip16_sem
I0227 19:12:17.238595 26678 net.cpp:131] Top shape: 1 33 272 272 (2441472)
I0227 19:12:17.238611 26678 net.cpp:139] Memory required for data: 677404688
I0227 19:12:17.238617 26678 layer_factory.hpp:77] Creating layer score_sem
I0227 19:12:17.238625 26678 net.cpp:86] Creating Layer score_sem
I0227 19:12:17.238628 26678 net.cpp:408] score_sem <- upscore_sem
I0227 19:12:17.238646 26678 net.cpp:408] score_sem <- data_data_0_split_1
I0227 19:12:17.238651 26678 net.cpp:382] score_sem -> score_sem
I0227 19:12:17.238684 26678 net.cpp:124] Setting up score_sem
I0227 19:12:17.238693 26678 net.cpp:131] Top shape: 1 33 256 256 (2162688)
I0227 19:12:17.238698 26678 net.cpp:139] Memory required for data: 686055440
I0227 19:12:17.238700 26678 layer_factory.hpp:77] Creating layer loss
I0227 19:12:17.238708 26678 net.cpp:86] Creating Layer loss
I0227 19:12:17.238713 26678 net.cpp:408] loss <- score_sem
I0227 19:12:17.238716 26678 net.cpp:408] loss <- sem
I0227 19:12:17.238723 26678 net.cpp:382] loss -> loss
I0227 19:12:17.238730 26678 layer_factory.hpp:77] Creating layer loss
I0227 19:12:17.245174 26678 net.cpp:124] Setting up loss
I0227 19:12:17.245193 26678 net.cpp:131] Top shape: (1)
I0227 19:12:17.245209 26678 net.cpp:134]     with loss weight 1
I0227 19:12:17.245232 26678 net.cpp:139] Memory required for data: 686055444
I0227 19:12:17.245235 26678 layer_factory.hpp:77] Creating layer score_fr_geo
I0227 19:12:17.245260 26678 net.cpp:86] Creating Layer score_fr_geo
I0227 19:12:17.245266 26678 net.cpp:408] score_fr_geo <- res5c_res5c_relu_0_split_1
I0227 19:12:17.245275 26678 net.cpp:382] score_fr_geo -> score_fr_geo
I0227 19:12:17.247090 26678 net.cpp:124] Setting up score_fr_geo
I0227 19:12:17.247107 26678 net.cpp:131] Top shape: 1 3 8 8 (192)
I0227 19:12:17.247123 26678 net.cpp:139] Memory required for data: 686056212
I0227 19:12:17.247129 26678 layer_factory.hpp:77] Creating layer upscore2_geo
I0227 19:12:17.247158 26678 net.cpp:86] Creating Layer upscore2_geo
I0227 19:12:17.247164 26678 net.cpp:408] upscore2_geo <- score_fr_geo
I0227 19:12:17.247184 26678 net.cpp:382] upscore2_geo -> upscore2_geo
I0227 19:12:17.247503 26678 net.cpp:124] Setting up upscore2_geo
I0227 19:12:17.247516 26678 net.cpp:131] Top shape: 1 3 18 18 (972)
I0227 19:12:17.247520 26678 net.cpp:139] Memory required for data: 686060100
I0227 19:12:17.247525 26678 layer_factory.hpp:77] Creating layer score_pool4_geo
I0227 19:12:17.247537 26678 net.cpp:86] Creating Layer score_pool4_geo
I0227 19:12:17.247545 26678 net.cpp:408] score_pool4_geo <- res4b35_res4b35_relu_0_split_3
I0227 19:12:17.247552 26678 net.cpp:382] score_pool4_geo -> score_pool4_geo
I0227 19:12:17.249227 26678 net.cpp:124] Setting up score_pool4_geo
I0227 19:12:17.249243 26678 net.cpp:131] Top shape: 1 3 16 16 (768)
I0227 19:12:17.249259 26678 net.cpp:139] Memory required for data: 686063172
I0227 19:12:17.249266 26678 layer_factory.hpp:77] Creating layer score_pool4_geo_score_pool4_geo_0_split
I0227 19:12:17.249274 26678 net.cpp:86] Creating Layer score_pool4_geo_score_pool4_geo_0_split
I0227 19:12:17.249291 26678 net.cpp:408] score_pool4_geo_score_pool4_geo_0_split <- score_pool4_geo
I0227 19:12:17.249299 26678 net.cpp:382] score_pool4_geo_score_pool4_geo_0_split -> score_pool4_geo_score_pool4_geo_0_split_0
I0227 19:12:17.249306 26678 net.cpp:382] score_pool4_geo_score_pool4_geo_0_split -> score_pool4_geo_score_pool4_geo_0_split_1
I0227 19:12:17.249351 26678 net.cpp:124] Setting up score_pool4_geo_score_pool4_geo_0_split
I0227 19:12:17.249359 26678 net.cpp:131] Top shape: 1 3 16 16 (768)
I0227 19:12:17.249364 26678 net.cpp:131] Top shape: 1 3 16 16 (768)
I0227 19:12:17.249367 26678 net.cpp:139] Memory required for data: 686069316
I0227 19:12:17.249372 26678 layer_factory.hpp:77] Creating layer score_pool4c_geo
I0227 19:12:17.249379 26678 net.cpp:86] Creating Layer score_pool4c_geo
I0227 19:12:17.249383 26678 net.cpp:408] score_pool4c_geo <- upscore2_geo
I0227 19:12:17.249389 26678 net.cpp:408] score_pool4c_geo <- score_pool4_geo_score_pool4_geo_0_split_0
I0227 19:12:17.249395 26678 net.cpp:382] score_pool4c_geo -> upscore2c_geo
I0227 19:12:17.249423 26678 net.cpp:124] Setting up score_pool4c_geo
I0227 19:12:17.249431 26678 net.cpp:131] Top shape: 1 3 16 16 (768)
I0227 19:12:17.249434 26678 net.cpp:139] Memory required for data: 686072388
I0227 19:12:17.249439 26678 layer_factory.hpp:77] Creating layer fuse_pool4_geo
I0227 19:12:17.249446 26678 net.cpp:86] Creating Layer fuse_pool4_geo
I0227 19:12:17.249451 26678 net.cpp:408] fuse_pool4_geo <- score_pool4_geo_score_pool4_geo_0_split_1
I0227 19:12:17.249456 26678 net.cpp:408] fuse_pool4_geo <- upscore2c_geo
I0227 19:12:17.249461 26678 net.cpp:382] fuse_pool4_geo -> fuse_pool4_geo
I0227 19:12:17.249490 26678 net.cpp:124] Setting up fuse_pool4_geo
I0227 19:12:17.249496 26678 net.cpp:131] Top shape: 1 3 16 16 (768)
I0227 19:12:17.249500 26678 net.cpp:139] Memory required for data: 686075460
I0227 19:12:17.249503 26678 layer_factory.hpp:77] Creating layer upscore_skip16_geo
I0227 19:12:17.249511 26678 net.cpp:86] Creating Layer upscore_skip16_geo
I0227 19:12:17.249516 26678 net.cpp:408] upscore_skip16_geo <- fuse_pool4_geo
I0227 19:12:17.249521 26678 net.cpp:382] upscore_skip16_geo -> upscore_geo
I0227 19:12:17.249788 26678 net.cpp:124] Setting up upscore_skip16_geo
I0227 19:12:17.249809 26678 net.cpp:131] Top shape: 1 3 272 272 (221952)
I0227 19:12:17.249812 26678 net.cpp:139] Memory required for data: 686963268
I0227 19:12:17.249830 26678 layer_factory.hpp:77] Creating layer score_geo
I0227 19:12:17.249836 26678 net.cpp:86] Creating Layer score_geo
I0227 19:12:17.249840 26678 net.cpp:408] score_geo <- upscore_geo
I0227 19:12:17.249845 26678 net.cpp:408] score_geo <- data_data_0_split_2
I0227 19:12:17.249850 26678 net.cpp:382] score_geo -> score_geo
I0227 19:12:17.249879 26678 net.cpp:124] Setting up score_geo
I0227 19:12:17.249889 26678 net.cpp:131] Top shape: 1 3 256 256 (196608)
I0227 19:12:17.249893 26678 net.cpp:139] Memory required for data: 687749700
I0227 19:12:17.249897 26678 layer_factory.hpp:77] Creating layer loss_geo
I0227 19:12:17.249905 26678 net.cpp:86] Creating Layer loss_geo
I0227 19:12:17.249909 26678 net.cpp:408] loss_geo <- score_geo
I0227 19:12:17.249913 26678 net.cpp:408] loss_geo <- geo
I0227 19:12:17.249919 26678 net.cpp:382] loss_geo -> loss_geo
…
