…
test_initialization: false
average_loss: 20
iter_size: 1
I0208 18:22:21.488507 20331 solver.cpp:81] Creating training net from train_net file: trainval.prototxt
I0208 18:22:21.502694 20331 net.cpp:58] Initializing net from parameters: 
name: "FCNResNet152Train"
state {
  phase: TRAIN
}
layer {
  name: "data"
  type: "Python"
  top: "data"
  top: "sem"
  top: "geo"
  python_param {
    module: "siftflow_layers_distillation"
    layer: "SIFTFlowSegDataLayer"
    param_str: "{\'siftflow_dir\': \'../data/sift-flow\', \'seed\': 1337, \'split\': \'trainval\'}"
  }
}
layer {
  name: "conv1"
  type: "Convolution"
  bottom: "data"
  top: "conv1"
  convolution_param {
    num_output: 64
    bias_term: false
    pad: 3
    kernel_size: 7
    stride: 2
  }
}
layer {
  name: "bn_conv1"
  type: "BatchNorm"
  bottom: "conv1"
  top: "conv1"
  batch_norm_param {
    use_global_stats: true
  }
}
layer {
  name: "scale_conv1"
  type: "Scale"
  bottom: "conv1"
  top: "conv1"
  scale_param {
    bias_term: true
  }
}
layer {
  name: "conv1_relu"
  type: "ReLU"
  bottom: "conv1"
  top: "conv1"
}
layer {
  name: "pool1"
  type: "Pooling"
  bottom: "conv1"
  top: "pool1"
  pooling_param {
    pool: MAX
    kernel_size: 3
    stride: 2
  }
}
layer {
  name: "res2a_branch1"
  type: "Convolution"
  bottom: "pool1"
  top: "res2a_branch1"
  convolution_param {
    num_output: 256
    bias_term: false
    pad: 0
    kernel_size: 1
    stride: 1
  }
}
layer {
  name: "bn2a_branch1"
  type: "BatchNorm"
  bottom: "res2a_branch1"
  top: "res2a_branch1"
  batch_norm_param {
    use_global_stats: true
  }
}
layer {
  name: "scale2a_branch1"
  type: "Scale"
  bottom: "res2a_branch1"
  top: "res2a_branch1"
  scale_param {
    bias_term: true
  }
}
layer {
  name: "res2a_branch2a"
  type: "Convolution"
  bottom: "pool1"
  top: "res2a_branch2a"
  convolution_param {
    num_output: 64
    bias_term: false
    pad: 0
    kernel_size: 1
    stride: 1
  }
}
layer {
  name: "bn2a_branch2a"
  type: "BatchNorm"
  bottom: "res2a_branch2a"
  top: "res2a_branch2a"
  batch_norm_param {
    use_global_stats: true
  }
}
layer {
  name: "scale2a_branch2a"
  type: "Scale"
  bottom: "res2a_branch2a"
  top: "res2a_branch2a"
  scale_param {
    bias_term: true
  }
}
layer {
  name: "res2a_branch2a_relu"
  type: "ReLU"
  bottom: "res2a_branch2a"
  top: "res2a_branch2a"
}
layer {
  name: "res2a_branch2b"
  type: "Convolution"
  bottom: "res2a_branch2a"
  top: "res2a_branch2b"
  convolution_param {
    num_output: 64
    bias_term: false
    pad: 1
    kernel_size: 3
    stride: 1
  }
}
layer {
  name: "bn2a_branch2b"
  type: "BatchNorm"
  bottom: "res2a_branch2b"
  top: "res2a_branch2b"
  batch_norm_param {
    use_global_stats: true
  }
}
layer {
  name: "scale2a_branch2b"
  type: "Scale"
  bottom: "res2a_branch2b"
  top: "res2a_branch2b"
  scale_param {
    bias_term: true
  }
}
layer {
  name: "res2a_branch2b_relu"
  type: "ReLU"
  bottom: "res2a_branch2b"
  top: "res2a_branch2b"
}
layer {
  name: "res2a_branch2c"
  type: "Convolution"
  bottom: "res2a_branch2b"
  top: "res2a_branch2c"
  convolution_param {
    num_output: 256
    bias_term: false
    pad: 0
    kernel_size: 1
    stride: 1
  }
}
layer {
  name: "bn2a_branch2c"
  type: "BatchNorm"
  bottom: "res2a_branch2c"
  top: "res2a_branch2c"
  batch_norm_param {
    use_global_stats: true
  }
}
layer {
  name: "scale2a_branch2c"
  type: "Scale"
  bottom: "res2a_branch2c"
  top: "res2a_branch2c"
  scale_param {
    bias_term: true
  }
}
layer {
  name: "res2a"
  type: "Eltwise"
  bottom: "res2a_branch1"
  bottom: "res2a_branch2c"
  top: "res2a"
}
layer {
  name: "res2a_relu"
  type: "ReLU"
  bottom: "res2a"
  top: "res2a"
}
layer {
  name: "res2b_branch2a"
  type: "Convolution"
  bottom: "res2a"
  top: "res2b_branch2a"
  convolution_param {
    num_output: 64
    bias_term: false
    pad: 0
    kernel_size: 1
    stride: 1
  }
}
layer {
  name: "bn2b_branch2a"
  type: "BatchNorm"
  bottom: "res2b_branch2a"
  top: "res2b_branch2a"
  batch_norm_param {
    use_global_stats: true
  }
}
layer {
  name: "scale2b_branch2a"
  type: "Scale"
  bottom: "res2b_branch2a"
  top: "res2b_branch2a"
  scale_param {
    bias_term: true
  }
}
layer {
  name: "res2b_branch2a_relu"
  type: "ReLU"
  bottom: "res2b_branch2a"
  top: "res2b_branch2a"
}
layer {
  name: "res2b_branch2b"
  type: "Convolution"
  bottom: "res2b_branch2a"
  top: "res2b_branch2b"
  convolution_param {
    num_output: 64
    bias_term: false
    pad: 1
    kernel_size: 3
    stride: 1
  }
}
layer {
  name: "bn2b_branch2b"
  type: "BatchNorm"
  bottom: "res2b_branch2b"
  top: "res2b_branch2b"
  batch_norm_param {
    use_global_stats: true
  }
}
layer {
  name: "scale2b_branch2b"
  type: "Scale"
  bottom: "res2b_branch2b"
  top: "res2b_branch2b"
  scale_param {
    bias_term: true
  }
}
layer {
  name: "res2b_branch2b_relu"
  type: "ReLU"
  bottom: "res2b_branch2b"
  top: "res2b_branch2b"
}
layer {
  name: "res2b_branch2c"
  type: "Convolution"
  bottom: "res2b_branch2b"
  top: "res2b_branch2c"
  convolution_param {
    num_output: 256
    bias_term: false
    pad: 0
    kernel_size: 1
    stride: 1
  }
}
layer {
  name: "bn2b_branch2c"
  type: "BatchNorm"
  bottom: "res2b_branch2c"
  top: "res2b_branch2c"
  batch_norm_param {
    use_global_stats: true
  }
}
layer {
  name: "scale2b_branch2c"
  type: "Scale"
  bottom: "res2b_branch2c"
  top: "res2b_branch2c"
  scale_param {
    bias_term: true
  }
}
layer {
  name: "res2b"
  type: "Eltwise"
  bottom: "res2a"
  bottom: "res2b_branch2c"
  top: "res2b"
}
layer {
  name: "res2b_relu"
  type: "ReLU"
  bottom: "res2b"
  top: "res2b"
}
layer {
  name: "res2c_branch2a"
  type: "Convolution"
  bottom: "res2b"
  top: "res2c_branch2a"
  convolution_param {
    num_output: 64
    bias_term: false
    pad: 0
    kernel_size: 1
    stride: 1
  }
}
layer {
  name: "bn2c_branch2a"
  type: "BatchNorm"
  bottom: "res2c_branch2a"
  top: "res2c_branch2a"
  batch_norm_param {
    use_global_stats: true
  }
}
layer {
  name: "scale2c_branch2a"
  type: "Scale"
  bottom: "res2c_branch2a"
  top: "res2c_branch2a"
  scale_param {
    bias_term: true
  }
}
layer {
  name: "res2c_branch2a_relu"
  type: "ReLU"
  bottom: "res2c_branch2a"
  top: "res2c_branch2a"
}
layer {
  name: "res2c_branch2b"
  type: "Convolution"
  bottom: "res2c_branch2a"
  top: "res2c_branch2b"
  convolution_param {
    num_output: 64
    bias_term: false
    pad: 1
    kernel_size: 3
    stride: 1
  }
}
layer {
  name: "bn2c_branch2b"
  type: "BatchNorm"
  bottom: "res2c_branch2b"
  top: "res2c_branch2b"
  batch_norm_param {
    use_global_stats: true
  }
}
layer {
  name: "scale2c_branch2b"
  type: "Scale"
  bottom: "res2c_branch2b"
  top: "res2c_branch2b"
  scale_param {
    bias_term: true
  }
}
layer {
  name: "res2c_branch2b_relu"
  type: "ReLU"
  bottom: "res2c_branch2b"
  top: "res2c_branch2b"
}
layer {
  name: "res2c_branch2c"
  type: "Convolution"
  bottom: "res2c_branch2b"
  top: "res2c_branch2c"
  convolution_param {
    num_output: 256
    bias_term: false
    pad: 0
    kernel_size: 1
    stride: 1
  }
}
layer {
  name: "bn2c_branch2c"
  type: "BatchNorm"
  bottom: "res2c_branch2c"
  top: "res2c_branch2c"
  batch_norm_param {
    use_global_stats: true
  }
}
layer {
  name: "scale2c_branch2c"
  type: "Scale"
  bottom: "res2c_branch2c"
  top: "res2c_branch2c"
  scale_param {
    bias_term: true
  }
}
layer {
  name: "res2c"
  type: "Eltwise"
  bottom: "res2b"
  bottom: "res2c_branch2c"
  top: "res2c"
}
layer {
  name: "res2c_relu"
  type: "ReLU"
  bottom: "res2c"
  top: "res2c"
}
layer {
  name: "res3a_branch1"
  type: "Convolution"
  bottom: "res2c"
  top: "res3a_branch1"
  convolution_param {
    num_output: 512
    bias_term: false
    pad: 0
    kernel_size: 1
    stride: 2
  }
}
layer {
  name: "bn3a_branch1"
  type: "BatchNorm"
  bottom: "res3a_branch1"
  top: "res3a_branch1"
  batch_norm_param {
    use_global_stats: true
  }
}
layer {
  name: "scale3a_branch1"
  type: "Scale"
  bottom: "res3a_branch1"
  top: "res3a_branch1"
  scale_param {
    bias_term: true
  }
}
layer {
  name: "res3a_branch2a"
  type: "Convolution"
  bottom: "res2c"
  top: "res3a_branch2a"
  convolution_param {
    num_output: 128
    bias_term: false
    pad: 0
    kernel_size: 1
    stride: 2
  }
}
layer {
  name: "bn3a_branch2a"
  type: "BatchNorm"
  bottom: "res3a_branch2a"
  top: "res3a_branch2a"
  batch_norm_param {
    use_global_stats: true
  }
}
layer {
  name: "scale3a_branch2a"
  type: "Scale"
  bottom: "res3a_branch2a"
  top: "res3a_branch2a"
  scale_param {
    bias_term: true
  }
}
layer {
  name: "res3a_branch2a_relu"
  type: "ReLU"
  bottom: "res3a_branch2a"
  top: "res3a_branch2a"
}
layer {
  name: "res3a_branch2b"
  type: "Convolution"
  bottom: "res3a_branch2a"
  top: "res3a_branch2b"
  convolution_param {
    num_output: 128
    bias_term: false
    pad: 1
    kernel_size: 3
    stride: 1
  }
}
layer {
  name: "bn3a_branch2b"
  type: "BatchNorm"
  bottom: "res3a_branch2b"
  top: "res3a_branch2b"
  batch_norm_param {
    use_global_stats: true
  }
}
layer {
  name: "scale3a_branch2b"
  type: "Scale"
  bottom: "res3a_branch2b"
  top: "res3a_branch2b"
  scale_param {
    bias_term: true
  }
}
layer {
  name: "res3a_branch2b_relu"
  type: "ReLU"
  bottom: "res3a_branch2b"
  top: "res3a_branch2b"
}
layer {
  name: "res3a_branch2c"
  type: "Convolution"
  bottom: "res3a_branch2b"
  top: "res3a_branch2c"
  convolution_param {
    num_output: 512
    bias_term: false
    pad: 0
    kernel_size: 1
    stride: 1
  }
}
layer {
  name: "bn3a_branch2c"
  type: "BatchNorm"
  bottom: "res3a_branch2c"
  top: "res3a_branch2c"
  batch_norm_param {
    use_global_stats: true
  }
}
layer {
  name: "scale3a_branch2c"
  type: "Scale"
  bottom: "res3a_branch2c"
  top: "res3a_branch2c"
  scale_param {
    bias_term: true
  }
}
layer {
  name: "res3a"
  type: "Eltwise"
  bottom: "res3a_branch1"
  bottom: "res3a_branch2c"
  top: "res3a"
}
layer {
  name: "res3a_relu"
  type: "ReLU"
  bottom: "res3a"
  top: "res3a"
}
layer {
  name: "res3b1_branch2a"
  type: "Convolution"
  bottom: "res3a"
  top: "res3b1_branch2a"
  convolution_param {
    num_output: 128
    bias_term: false
    pad: 0
    kernel_size: 1
    stride: 1
  }
}
layer {
  name: "bn3b1_branch2a"
  type: "BatchNorm"
  bottom: "res3b1_branch2a"
  top: "res3b1_branch2a"
  batch_norm_param {
    use_global_stats: true
  }
}
layer {
  name: "scale3b1_branch2a"
  type: "Scale"
  bottom: "res3b1_branch2a"
  top: "res3b1_branch2a"
  scale_param {
    bias_term: true
  }
}
layer {
  name: "res3b1_branch2a_relu"
  type: "ReLU"
  bottom: "res3b1_branch2a"
  top: "res3b1_branch2a"
}
layer {
  name: "res3b1_branch2b"
  type: "Convolution"
  bottom: "res3b1_branch2a"
  top: "res3b1_branch2b"
  convolution_param {
    num_output: 128
    bias_term: false
    pad: 1
    kernel_size: 3
    stride: 1
  }
}
layer {
  name: "bn3b1_branch2b"
  type: "BatchNorm"
  bottom: "res3b1_branch2b"
  top: "res3b1_branch2b"
  batch_norm_param {
    use_global_stats: true
  }
}
layer {
  name: "scale3b1_branch2b"
  type: "Scale"
  bottom: "res3b1_branch2b"
  top: "res3b1_branch2b"
  scale_param {
    bias_term: true
  }
}
layer {
  name: "res3b1_branch2b_relu"
  type: "ReLU"
  bottom: "res3b1_branch2b"
  top: "res3b1_branch2b"
}
layer {
  name: "res3b1_branch2c"
  type: "Convolution"
  bottom: "res3b1_branch2b"
  top: "res3b1_branch2c"
  convolution_param {
    num_output: 512
    bias_term: false
    pad: 0
    kernel_size: 1
    stride: 1
  }
}
layer {
  name: "bn3b1_branch2c"
  type: "BatchNorm"
  bottom: "res3b1_branch2c"
  top: "res3b1_branch2c"
  batch_norm_param {
    use_global_stats: true
  }
}
layer {
  name: "scale3b1_branch2c"
  type: "Scale"
  bottom: "res3b1_branch2c"
  top: "res3b1_branch2c"
  scale_param {
    bias_term: true
  }
}
layer {
  name: "res3b1"
  type: "Eltwise"
  bottom: "res3a"
  bottom: "res3b1_branch2c"
  top: "res3b1"
}
layer {
  name: "res3b1_relu"
  type: "ReLU"
  bottom: "res3b1"
  top: "res3b1"
}
layer {
  name: "res3b2_branch2a"
  type: "Convolution"
  bottom: "res3b1"
  top: "res3b2_branch2a"
  convolution_param {
    num_output: 128
    bias_term: false
    pad: 0
    kernel_size: 1
    stride: 1
  }
}
layer {
  name: "bn3b2_branch2a"
  type: "BatchNorm"
  bottom: "res3b2_branch2a"
  top: "res3b2_branch2a"
  batch_norm_param {
    use_global_stats: true
  }
}
layer {
  name: "scale3b2_branch2a"
  type: "Scale"
  bottom: "res3b2_branch2a"
  top: "res3b2_branch2a"
  scale_param {
    bias_term: true
  }
}
layer {
  name: "res3b2_branch2a_relu"
  type: "ReLU"
  bottom: "res3b2_branch2a"
  top: "res3b2_branch2a"
}
layer {
  name: "res3b2_branch2b"
  type: "Convolution"
  bottom: "res3b2_branch2a"
  top: "res3b2_branch2b"
  convolution_param {
    num_output: 128
    bias_term: false
    pad: 1
    kernel_size: 3
    stride: 1
  }
}
layer {
  name: "bn3b2_branch2b"
  type: "BatchNorm"
  bottom: "res3b2_branch2b"
  top: "res3b2_branch2b"
  batch_norm_param {
    use_global_stats: true
  }
}
layer {
  name: "scale3b2_branch2b"
  type: "Scale"
  bottom: "res3b2_branch2b"
  top: "res3b2_branch2b"
  scale_param {
    bias_term: true
  }
}
layer {
  name: "res3b2_branch2b_relu"
  type: "ReLU"
  bottom: "res3b2_branch2b"
  top: "res3b2_branch2b"
}
layer {
  name: "res3b2_branch2c"
  type: "Convolution"
  bottom: "res3b2_branch2b"
  top: "res3b2_branch2c"
  convolution_param {
    num_output: 512
    bias_term: false
    pad: 0
    kernel_size: 1
    stride: 1
  }
}
layer {
  name: "bn3b2_branch2c"
  type: "BatchNorm"
  bottom: "res3b2_branch2c"
  top: "res3b2_branch2c"
  batch_norm_param {
    use_global_stats: true
  }
}
layer {
  name: "scale3b2_branch2c"
  type: "Scale"
  bottom: "res3b2_branch2c"
  top: "res3b2_branch2c"
  scale_param {
    bias_term: true
  }
}
layer {
  name: "res3b2"
  type: "Eltwise"
  bottom: "res3b1"
  bottom: "res3b2_branch2c"
  top: "res3b2"
}
layer {
  name: "res3b2_relu"
  type: "ReLU"
  bottom: "res3b2"
  top: "res3b2"
}
layer {
  name: "res3b3_branch2a"
  type: "Convolution"
  bottom: "res3b2"
  top: "res3b3_branch2a"
  convolution_param {
    num_output: 128
    bias_term: false
    pad: 0
    kernel_size: 1
    stride: 1
  }
}
layer {
  name: "bn3b3_branch2a"
  type: "BatchNorm"
  bottom: "res3b3_branch2a"
  top: "res3b3_branch2a"
  batch_norm_param {
    use_global_stats: true
  }
}
layer {
  name: "scale3b3_branch2a"
  type: "Scale"
  bottom: "res3b3_branch2a"
  top: "res3b3_branch2a"
  scale_param {
    bias_term: true
  }
}
layer {
  name: "res3b3_branch2a_relu"
  type: "ReLU"
  bottom: "res3b3_branch2a"
  top: "res3b3_branch2a"
}
layer {
  name: "res3b3_branch2b"
  type: "Convolution"
  bottom: "res3b3_branch2a"
  top: "res3b3_branch2b"
  convolution_param {
    num_output: 128
    bias_term: false
    pad: 1
    kernel_size: 3
    stride: 1
  }
}
layer {
  name: "bn3b3_branch2b"
  type: "BatchNorm"
  bottom: "res3b3_branch2b"
  top: "res3b3_branch2b"
  batch_norm_param {
    use_global_stats: true
  }
}
layer {
  name: "scale3b3_branch2b"
  type: "Scale"
  bottom: "res3b3_branch2b"
  top: "res3b3_branch2b"
  scale_param {
    bias_term: true
  }
}
layer {
  name: "res3b3_branch2b_relu"
  type: "ReLU"
  bottom: "res3b3_branch2b"
  top: "res3b3_branch2b"
}
layer {
  name: "res3b3_branch2c"
  type: "Convolution"
  bottom: "res3b3_branch2b"
  top: "res3b3_branch2c"
  convolution_param {
    num_output: 512
    bias_term: false
    pad: 0
    kernel_size: 1
    stride: 1
  }
}
layer {
  name: "bn3b3_branch2c"
  type: "BatchNorm"
  bottom: "res3b3_branch2c"
  top: "res3b3_branch2c"
  batch_norm_param {
    use_global_stats: true
  }
}
layer {
  name: "scale3b3_branch2c"
  type: "Scale"
  bottom: "res3b3_branch2c"
  top: "res3b3_branch2c"
  scale_param {
    bias_term: true
  }
}
layer {
  name: "res3b3"
  type: "Eltwise"
  bottom: "res3b2"
  bottom: "res3b3_branch2c"
  top: "res3b3"
}
layer {
  name: "res3b3_relu"
  type: "ReLU"
  bottom: "res3b3"
  top: "res3b3"
}
layer {
  name: "res3b4_branch2a"
  type: "Convolution"
  bottom: "res3b3"
  top: "res3b4_branch2a"
  convolution_param {
    num_output: 128
    bias_term: false
    pad: 0
    kernel_size: 1
    stride: 1
  }
}
layer {
  name: "bn3b4_branch2a"
  type: "BatchNorm"
  bottom: "res3b4_branch2a"
  top: "res3b4_branch2a"
  batch_norm_param {
    use_global_stats: true
  }
}
layer {
  name: "scale3b4_branch2a"
  type: "Scale"
  bottom: "res3b4_branch2a"
  top: "res3b4_branch2a"
  scale_param {
    bias_term: true
  }
}
layer {
  name: "res3b4_branch2a_relu"
  type: "ReLU"
  bottom: "res3b4_branch2a"
  top: "res3b4_branch2a"
}
layer {
  name: "res3b4_branch2b"
  type: "Convolution"
  bottom: "res3b4_branch2a"
  top: "res3b4_branch2b"
  convolution_param {
    num_output: 128
    bias_term: false
    pad: 1
    kernel_size: 3
    stride: 1
  }
}
layer {
  name: "bn3b4_branch2b"
  type: "BatchNorm"
  bottom: "res3b4_branch2b"
  top: "res3b4_branch2b"
  batch_norm_param {
    use_global_stats: true
  }
}
layer {
  name: "scale3b4_branch2b"
  type: "Scale"
  bottom: "res3b4_branch2b"
  top: "res3b4_branch2b"
  scale_param {
    bias_term: true
  }
}
layer {
  name: "res3b4_branch2b_relu"
  type: "ReLU"
  bottom: "res3b4_branch2b"
  top: "res3b4_branch2b"
}
layer {
  name: "res3b4_branch2c"
  type: "Convolution"
  bottom: "res3b4_branch2b"
  top: "res3b4_branch2c"
  convolution_param {
    num_output: 512
    bias_term: false
    pad: 0
    kernel_size: 1
    stride: 1
  }
}
layer {
  name: "bn3b4_branch2c"
  type: "BatchNorm"
  bottom: "res3b4_branch2c"
  top: "res3b4_branch2c"
  batch_norm_param {
    use_global_stats: true
  }
}
layer {
  name: "scale3b4_branch2c"
  type: "Scale"
  bottom: "res3b4_branch2c"
  top: "res3b4_branch2c"
  scale_param {
    bias_term: true
  }
}
layer {
  name: "res3b4"
  type: "Eltwise"
  bottom: "res3b3"
  bottom: "res3b4_branch2c"
  top: "res3b4"
}
layer {
  name: "res3b4_relu"
  type: "ReLU"
  bottom: "res3b4"
  top: "res3b4"
}
layer {
  name: "res3b5_branch2a"
  type: "Convolution"
  bottom: "res3b4"
  top: "res3b5_branch2a"
  convolution_param {
    num_output: 128
    bias_term: false
    pad: 0
    kernel_size: 1
    stride: 1
  }
}
layer {
  name: "bn3b5_branch2a"
  type: "BatchNorm"
  bottom: "res3b5_branch2a"
  top: "res3b5_branch2a"
  batch_norm_param {
    use_global_stats: true
  }
}
layer {
  name: "scale3b5_branch2a"
  type: "Scale"
  bottom: "res3b5_branch2a"
  top: "res3b5_branch2a"
  scale_param {
    bias_term: true
  }
}
layer {
  name: "res3b5_branch2a_relu"
  type: "ReLU"
  bottom: "res3b5_branch2a"
  top: "res3b5_branch2a"
}
layer {
  name: "res3b5_branch2b"
  type: "Convolution"
  bottom: "res3b5_branch2a"
  top: "res3b5_branch2b"
  convolution_param {
    num_output: 128
    bias_term: false
    pad: 1
    kernel_size: 3
    stride: 1
  }
}
layer {
  name: "bn3b5_branch2b"
  type: "BatchNorm"
  bottom: "res3b5_branch2b"
  top: "res3b5_branch2b"
  batch_norm_param {
    use_global_stats: true
  }
}
layer {
  name: "scale3b5_branch2b"
  type: "Scale"
  bottom: "res3b5_branch2b"
  top: "res3b5_branch2b"
  scale_param {
    bias_term: true
  }
}
layer {
  name: "res3b5_branch2b_relu"
  type: "ReLU"
  bottom: "res3b5_branch2b"
  top: "res3b5_branch2b"
}
layer {
  name: "res3b5_branch2c"
  type: "Convolution"
  bottom: "res3b5_branch2b"
  top: "res3b5_branch2c"
  convolution_param {
    num_output: 512
    bias_term: false
    pad: 0
    kernel_size: 1
    stride: 1
  }
}
layer {
  name: "bn3b5_branch2c"
  type: "BatchNorm"
  bottom: "res3b5_branch2c"
  top: "res3b5_branch2c"
  batch_norm_param {
    use_global_stats: true
  }
}
layer {
  name: "scale3b5_branch2c"
  type: "Scale"
  bottom: "res3b5_branch2c"
  top: "res3b5_branch2c"
  scale_param {
    bias_term: true
  }
}
layer {
  name: "res3b5"
  type: "Eltwise"
  bottom: "res3b4"
  bottom: "res3b5_branch2c"
  top: "res3b5"
}
layer {
  name: "res3b5_relu"
  type: "ReLU"
  bottom: "res3b5"
  top: "res3b5"
}
layer {
  name: "res3b6_branch2a"
  type: "Convolution"
  bottom: "res3b5"
  top: "res3b6_branch2a"
  convolution_param {
    num_output: 128
    bias_term: false
    pad: 0
    kernel_size: 1
    stride: 1
  }
}
layer {
  name: "bn3b6_branch2a"
  type: "BatchNorm"
  bottom: "res3b6_branch2a"
  top: "res3b6_branch2a"
  batch_norm_param {
    use_global_stats: true
  }
}
layer {
  name: "scale3b6_branch2a"
  type: "Scale"
  bottom: "res3b6_branch2a"
  top: "res3b6_branch2a"
  scale_param {
    bias_term: true
  }
}
layer {
  name: "res3b6_branch2a_relu"
  type: "ReLU"
  bottom: "res3b6_branch2a"
  top: "res3b6_branch2a"
}
layer {
  name: "res3b6_branch2b"
  type: "Convolution"
  bottom: "res3b6_branch2a"
  top: "res3b6_branch2b"
  convolution_param {
    num_output: 128
    bias_term: false
    pad: 1
    kernel_size: 3
    stride: 1
  }
}
layer {
  name: "bn3b6_branch2b"
  type: "BatchNorm"
  bottom: "res3b6_branch2b"
  top: "res3b6_branch2b"
  batch_norm_param {
    use_global_stats: true
  }
}
layer {
  name: "scale3b6_branch2b"
  type: "Scale"
  bottom: "res3b6_branch2b"
  top: "res3b6_branch2b"
  scale_param {
    bias_term: true
  }
}
layer {
  name: "res3b6_branch2b_relu"
  type: "ReLU"
  bottom: "res3b6_branch2b"
  top: "res3b6_branch2b"
}
layer {
  name: "res3b6_branch2c"
  type: "Convolution"
  bottom: "res3b6_branch2b"
  top: "res3b6_branch2c"
  convolution_param {
    num_output: 512
    bias_term: false
    pad: 0
    kernel_size: 1
    stride: 1
  }
}
layer {
  name: "bn3b6_branch2c"
  type: "BatchNorm"
  bottom: "res3b6_branch2c"
  top: "res3b6_branch2c"
  batch_norm_param {
    use_global_stats: true
  }
}
layer {
  name: "scale3b6_branch2c"
  type: "Scale"
  bottom: "res3b6_branch2c"
  top: "res3b6_branch2c"
  scale_param {
    bias_term: true
  }
}
layer {
  name: "res3b6"
  type: "Eltwise"
  bottom: "res3b5"
  bottom: "res3b6_branch2c"
  top: "res3b6"
}
layer {
  name: "res3b6_relu"
  type: "ReLU"
  bottom: "res3b6"
  top: "res3b6"
}
layer {
  name: "res3b7_branch2a"
  type: "Convolution"
  bottom: "res3b6"
  top: "res3b7_branch2a"
  convolution_param {
    num_output: 128
    bias_term: false
    pad: 0
    kernel_size: 1
    stride: 1
  }
}
layer {
  name: "bn3b7_branch2a"
  type: "BatchNorm"
  bottom: "res3b7_branch2a"
  top: "res3b7_branch2a"
  batch_norm_param {
    use_global_stats: true
  }
}
layer {
  name: "scale3b7_branch2a"
  type: "Scale"
  bottom: "res3b7_branch2a"
  top: "res3b7_branch2a"
  scale_param {
    bias_term: true
  }
}
layer {
  name: "res3b7_branch2a_relu"
  type: "ReLU"
  bottom: "res3b7_branch2a"
  top: "res3b7_branch2a"
}
layer {
  name: "res3b7_branch2b"
  type: "Convolution"
  bottom: "res3b7_branch2a"
  top: "res3b7_branch2b"
  convolution_param {
    num_output: 128
    bias_term: false
    pad: 1
    kernel_size: 3
    stride: 1
  }
}
layer {
  name: "bn3b7_branch2b"
  type: "BatchNorm"
  bottom: "res3b7_branch2b"
  top: "res3b7_branch2b"
  batch_norm_param {
    use_global_stats: true
  }
}
layer {
  name: "scale3b7_branch2b"
  type: "Scale"
  bottom: "res3b7_branch2b"
  top: "res3b7_branch2b"
  scale_param {
    bias_term: true
  }
}
layer {
  name: "res3b7_branch2b_relu"
  type: "ReLU"
  bottom: "res3b7_branch2b"
  top: "res3b7_branch2b"
}
layer {
  name: "res3b7_branch2c"
  type: "Convolution"
  bottom: "res3b7_branch2b"
  top: "res3b7_branch2c"
  convolution_param {
    num_output: 512
    bias_term: false
    pad: 0
    kernel_size: 1
    stride: 1
  }
}
layer {
  name: "bn3b7_branch2c"
  type: "BatchNorm"
  bottom: "res3b7_branch2c"
  top: "res3b7_branch2c"
  batch_norm_param {
    use_global_stats: true
  }
}
layer {
  name: "scale3b7_branch2c"
  type: "Scale"
  bottom: "res3b7_branch2c"
  top: "res3b7_branch2c"
  scale_param {
    bias_term: true
  }
}
layer {
  name: "res3b7"
  type: "Eltwise"
  bottom: "res3b6"
  bottom: "res3b7_branch2c"
  top: "res3b7"
}
layer {
  name: "res3b7_relu"
  type: "ReLU"
  bottom: "res3b7"
  top: "res3b7"
}
layer {
  name: "res4a_branch1"
  type: "Convolution"
  bottom: "res3b7"
  top: "res4a_branch1"
  convolution_param {
    num_output: 1024
    bias_term: false
    pad: 0
    kernel_size: 1
    stride: 2
  }
}
layer {
  name: "bn4a_branch1"
  type: "BatchNorm"
  bottom: "res4a_branch1"
  top: "res4a_branch1"
  batch_norm_param {
    use_global_stats: true
  }
}
layer {
  name: "scale4a_branch1"
  type: "Scale"
  bottom: "res4a_branch1"
  top: "res4a_branch1"
  scale_param {
    bias_term: true
  }
}
layer {
  name: "res4a_branch2a"
  type: "Convolution"
  bottom: "res3b7"
  top: "res4a_branch2a"
  convolution_param {
    num_output: 256
    bias_term: false
    pad: 0
    kernel_size: 1
    stride: 2
  }
}
layer {
  name: "bn4a_branch2a"
  type: "BatchNorm"
  bottom: "res4a_branch2a"
  top: "res4a_branch2a"
  batch_norm_param {
    use_global_stats: true
  }
}
layer {
  name: "scale4a_branch2a"
  type: "Scale"
  bottom: "res4a_branch2a"
  top: "res4a_branch2a"
  scale_param {
    bias_term: true
  }
}
layer {
  name: "res4a_branch2a_relu"
  type: "ReLU"
  bottom: "res4a_branch2a"
  top: "res4a_branch2a"
}
layer {
  name: "res4a_branch2b"
  type: "Convolution"
  bottom: "res4a_branch2a"
  top: "res4a_branch2b"
  convolution_param {
    num_output: 256
    bias_term: false
    pad: 1
    kernel_size: 3
    stride: 1
  }
}
layer {
  name: "bn4a_branch2b"
  type: "BatchNorm"
  bottom: "res4a_branch2b"
  top: "res4a_branch2b"
  batch_norm_param {
    use_global_stats: true
  }
}
layer {
  name: "scale4a_branch2b"
  type: "Scale"
  bottom: "res4a_branch2b"
  top: "res4a_branch2b"
  scale_param {
    bias_term: true
  }
}
layer {
  name: "res4a_branch2b_relu"
  type: "ReLU"
  bottom: "res4a_branch2b"
  top: "res4a_branch2b"
}
layer {
  name: "res4a_branch2c"
  type: "Convolution"
  bottom: "res4a_branch2b"
  top: "res4a_branch2c"
  convolution_param {
    num_output: 1024
    bias_term: false
    pad: 0
    kernel_size: 1
    stride: 1
  }
}
layer {
  name: "bn4a_branch2c"
  type: "BatchNorm"
  bottom: "res4a_branch2c"
  top: "res4a_branch2c"
  batch_norm_param {
    use_global_stats: true
  }
}
layer {
  name: "scale4a_branch2c"
  type: "Scale"
  bottom: "res4a_branch2c"
  top: "res4a_branch2c"
  scale_param {
    bias_term: true
  }
}
layer {
  name: "res4a"
  type: "Eltwise"
  bottom: "res4a_branch1"
  bottom: "res4a_branch2c"
  top: "res4a"
}
layer {
  name: "res4a_relu"
  type: "ReLU"
  bottom: "res4a"
  top: "res4a"
}
layer {
  name: "res4b1_branch2a"
  type: "Convolution"
  bottom: "res4a"
  top: "res4b1_branch2a"
  convolution_param {
    num_output: 256
    bias_term: false
    pad: 0
    kernel_size: 1
    stride: 1
  }
}
layer {
  name: "bn4b1_branch2a"
  type: "BatchNorm"
  bottom: "res4b1_branch2a"
  top: "res4b1_branch2a"
  batch_norm_param {
    use_global_stats: true
  }
}
layer {
  name: "scale4b1_branch2a"
  type: "Scale"
  bottom: "res4b1_branch2a"
  top: "res4b1_branch2a"
  scale_param {
    bias_term: true
  }
}
layer {
  name: "res4b1_branch2a_relu"
  type: "ReLU"
  bottom: "res4b1_branch2a"
  top: "res4b1_branch2a"
}
layer {
  name: "res4b1_branch2b"
  type: "Convolution"
  bottom: "res4b1_branch2a"
  top: "res4b1_branch2b"
  convolution_param {
    num_output: 256
    bias_term: false
    pad: 1
    kernel_size: 3
    stride: 1
  }
}
layer {
  name: "bn4b1_branch2b"
  type: "BatchNorm"
  bottom: "res4b1_branch2b"
  top: "res4b1_branch2b"
  batch_norm_param {
    use_global_stats: true
  }
}
layer {
  name: "scale4b1_branch2b"
  type: "Scale"
  bottom: "res4b1_branch2b"
  top: "res4b1_branch2b"
  scale_param {
    bias_term: true
  }
}
layer {
  name: "res4b1_branch2b_relu"
  type: "ReLU"
  bottom: "res4b1_branch2b"
  top: "res4b1_branch2b"
}
layer {
  name: "res4b1_branch2c"
  type: "Convolution"
  bottom: "res4b1_branch2b"
  top: "res4b1_branch2c"
  convolution_param {
    num_output: 1024
    bias_term: false
    pad: 0
    kernel_size: 1
    stride: 1
  }
}
layer {
  name: "bn4b1_branch2c"
  type: "BatchNorm"
  bottom: "res4b1_branch2c"
  top: "res4b1_branch2c"
  batch_norm_param {
    use_global_stats: true
  }
}
layer {
  name: "scale4b1_branch2c"
  type: "Scale"
  bottom: "res4b1_branch2c"
  top: "res4b1_branch2c"
  scale_param {
    bias_term: true
  }
}
layer {
  name: "res4b1"
  type: "Eltwise"
  bottom: "res4a"
  bottom: "res4b1_branch2c"
  top: "res4b1"
}
layer {
  name: "res4b1_relu"
  type: "ReLU"
  bottom: "res4b1"
  top: "res4b1"
}
layer {
  name: "res4b2_branch2a"
  type: "Convolution"
  bottom: "res4b1"
  top: "res4b2_branch2a"
  convolution_param {
    num_output: 256
    bias_term: false
    pad: 0
    kernel_size: 1
    stride: 1
  }
}
layer {
  name: "bn4b2_branch2a"
  type: "BatchNorm"
  bottom: "res4b2_branch2a"
  top: "res4b2_branch2a"
  batch_norm_param {
    use_global_stats: true
  }
}
layer {
  name: "scale4b2_branch2a"
  type: "Scale"
  bottom: "res4b2_branch2a"
  top: "res4b2_branch2a"
  scale_param {
    bias_term: true
  }
}
layer {
  name: "res4b2_branch2a_relu"
  type: "ReLU"
  bottom: "res4b2_branch2a"
  top: "res4b2_branch2a"
}
layer {
  name: "res4b2_branch2b"
  type: "Convolution"
  bottom: "res4b2_branch2a"
  top: "res4b2_branch2b"
  convolution_param {
    num_output: 256
    bias_term: false
    pad: 1
    kernel_size: 3
    stride: 1
  }
}
layer {
  name: "bn4b2_branch2b"
  type: "BatchNorm"
  bottom: "res4b2_branch2b"
  top: "res4b2_branch2b"
  batch_norm_param {
    use_global_stats: true
  }
}
layer {
  name: "scale4b2_branch2b"
  type: "Scale"
  bottom: "res4b2_branch2b"
  top: "res4b2_branch2b"
  scale_param {
    bias_term: true
  }
}
layer {
  name: "res4b2_branch2b_relu"
  type: "ReLU"
  bottom: "res4b2_branch2b"
  top: "res4b2_branch2b"
}
layer {
  name: "res4b2_branch2c"
  type: "Convolution"
  bottom: "res4b2_branch2b"
  top: "res4b2_branch2c"
  convolution_param {
    num_output: 1024
    bias_term: false
    pad: 0
    kernel_size: 1
    stride: 1
  }
}
layer {
  name: "bn4b2_branch2c"
  type: "BatchNorm"
  bottom: "res4b2_branch2c"
  top: "res4b2_branch2c"
  batch_norm_param {
    use_global_stats: true
  }
}
layer {
  name: "scale4b2_branch2c"
  type: "Scale"
  bottom: "res4b2_branch2c"
  top: "res4b2_branch2c"
  scale_param {
    b
I0208 18:22:21.505601 20331 layer_factory.hpp:77] Creating layer data
I0208 18:22:21.522989 20331 net.cpp:100] Creating Layer data
I0208 18:22:21.523012 20331 net.cpp:408] data -> data
I0208 18:22:21.523039 20331 net.cpp:408] data -> sem
I0208 18:22:21.523048 20331 net.cpp:408] data -> geo
I0208 18:22:21.565752 20331 net.cpp:150] Setting up data
I0208 18:22:21.565793 20331 net.cpp:157] Top shape: 1 3 256 256 (196608)
I0208 18:22:21.565800 20331 net.cpp:157] Top shape: 1 33 256 256 (2162688)
I0208 18:22:21.565805 20331 net.cpp:157] Top shape: 1 3 256 256 (196608)
I0208 18:22:21.565809 20331 net.cpp:165] Memory required for data: 10223616
I0208 18:22:21.565819 20331 layer_factory.hpp:77] Creating layer data_data_0_split
I0208 18:22:21.565840 20331 net.cpp:100] Creating Layer data_data_0_split
I0208 18:22:21.565846 20331 net.cpp:434] data_data_0_split <- data
I0208 18:22:21.565858 20331 net.cpp:408] data_data_0_split -> data_data_0_split_0
I0208 18:22:21.565871 20331 net.cpp:408] data_data_0_split -> data_data_0_split_1
I0208 18:22:21.565879 20331 net.cpp:408] data_data_0_split -> data_data_0_split_2
I0208 18:22:21.565925 20331 net.cpp:150] Setting up data_data_0_split
I0208 18:22:21.565937 20331 net.cpp:157] Top shape: 1 3 256 256 (196608)
I0208 18:22:21.565943 20331 net.cpp:157] Top shape: 1 3 256 256 (196608)
I0208 18:22:21.565948 20331 net.cpp:157] Top shape: 1 3 256 256 (196608)
I0208 18:22:21.565958 20331 net.cpp:165] Memory required for data: 12582912
I0208 18:22:21.565963 20331 layer_factory.hpp:77] Creating layer conv1
I0208 18:22:21.565975 20331 net.cpp:100] Creating Layer conv1
I0208 18:22:21.565982 20331 net.cpp:434] conv1 <- data_data_0_split_0
I0208 18:22:21.565989 20331 net.cpp:408] conv1 -> conv1
I0208 18:22:21.708071 20331 net.cpp:150] Setting up conv1
I0208 18:22:21.708106 20331 net.cpp:157] Top shape: 1 64 128 128 (1048576)
I0208 18:22:21.708112 20331 net.cpp:165] Memory required for data: 16777216
I0208 18:22:21.708132 20331 layer_factory.hpp:77] Creating layer bn_conv1
I0208 18:22:21.708148 20331 net.cpp:100] Creating Layer bn_conv1
I0208 18:22:21.708153 20331 net.cpp:434] bn_conv1 <- conv1
I0208 18:22:21.708161 20331 net.cpp:395] bn_conv1 -> conv1 (in-place)
I0208 18:22:21.708385 20331 net.cpp:150] Setting up bn_conv1
I0208 18:22:21.708398 20331 net.cpp:157] Top shape: 1 64 128 128 (1048576)
I0208 18:22:21.708402 20331 net.cpp:165] Memory required for data: 20971520
I0208 18:22:21.708416 20331 layer_factory.hpp:77] Creating layer scale_conv1
I0208 18:22:21.708431 20331 net.cpp:100] Creating Layer scale_conv1
I0208 18:22:21.708438 20331 net.cpp:434] scale_conv1 <- conv1
I0208 18:22:21.708446 20331 net.cpp:395] scale_conv1 -> conv1 (in-place)
I0208 18:22:21.708495 20331 layer_factory.hpp:77] Creating layer scale_conv1
I0208 18:22:21.708644 20331 net.cpp:150] Setting up scale_conv1
I0208 18:22:21.708657 20331 net.cpp:157] Top shape: 1 64 128 128 (1048576)
I0208 18:22:21.708660 20331 net.cpp:165] Memory required for data: 25165824
I0208 18:22:21.708672 20331 layer_factory.hpp:77] Creating layer conv1_relu
I0208 18:22:21.708683 20331 net.cpp:100] Creating Layer conv1_relu
I0208 18:22:21.708689 20331 net.cpp:434] conv1_relu <- conv1
I0208 18:22:21.708696 20331 net.cpp:395] conv1_relu -> conv1 (in-place)
I0208 18:22:21.708915 20331 net.cpp:150] Setting up conv1_relu
I0208 18:22:21.708931 20331 net.cpp:157] Top shape: 1 64 128 128 (1048576)
I0208 18:22:21.708935 20331 net.cpp:165] Memory required for data: 29360128
I0208 18:22:21.708940 20331 layer_factory.hpp:77] Creating layer pool1
I0208 18:22:21.708950 20331 net.cpp:100] Creating Layer pool1
I0208 18:22:21.708956 20331 net.cpp:434] pool1 <- conv1
I0208 18:22:21.708963 20331 net.cpp:408] pool1 -> pool1
I0208 18:22:21.709014 20331 net.cpp:150] Setting up pool1
I0208 18:22:21.709025 20331 net.cpp:157] Top shape: 1 64 64 64 (262144)
I0208 18:22:21.709029 20331 net.cpp:165] Memory required for data: 30408704
I0208 18:22:21.709033 20331 layer_factory.hpp:77] Creating layer pool1_pool1_0_split
I0208 18:22:21.709043 20331 net.cpp:100] Creating Layer pool1_pool1_0_split
I0208 18:22:21.709046 20331 net.cpp:434] pool1_pool1_0_split <- pool1
I0208 18:22:21.709053 20331 net.cpp:408] pool1_pool1_0_split -> pool1_pool1_0_split_0
I0208 18:22:21.709061 20331 net.cpp:408] pool1_pool1_0_split -> pool1_pool1_0_split_1
I0208 18:22:21.709106 20331 net.cpp:150] Setting up pool1_pool1_0_split
I0208 18:22:21.709116 20331 net.cpp:157] Top shape: 1 64 64 64 (262144)
I0208 18:22:21.709121 20331 net.cpp:157] Top shape: 1 64 64 64 (262144)
I0208 18:22:21.709125 20331 net.cpp:165] Memory required for data: 32505856
I0208 18:22:21.709130 20331 layer_factory.hpp:77] Creating layer res2a_branch1
I0208 18:22:21.709143 20331 net.cpp:100] Creating Layer res2a_branch1
I0208 18:22:21.709151 20331 net.cpp:434] res2a_branch1 <- pool1_pool1_0_split_0
I0208 18:22:21.709158 20331 net.cpp:408] res2a_branch1 -> res2a_branch1
I0208 18:22:21.710216 20331 net.cpp:150] Setting up res2a_branch1
I0208 18:22:21.710234 20331 net.cpp:157] Top shape: 1 256 64 64 (1048576)
I0208 18:22:21.710240 20331 net.cpp:165] Memory required for data: 36700160
I0208 18:22:21.710247 20331 layer_factory.hpp:77] Creating layer bn2a_branch1
I0208 18:22:21.710258 20331 net.cpp:100] Creating Layer bn2a_branch1
I0208 18:22:21.710263 20331 net.cpp:434] bn2a_branch1 <- res2a_branch1
I0208 18:22:21.710269 20331 net.cpp:395] bn2a_branch1 -> res2a_branch1 (in-place)
I0208 18:22:21.710968 20331 net.cpp:150] Setting up bn2a_branch1
I0208 18:22:21.710986 20331 net.cpp:157] Top shape: 1 256 64 64 (1048576)
I0208 18:22:21.710991 20331 net.cpp:165] Memory required for data: 40894464
I0208 18:22:21.711006 20331 layer_factory.hpp:77] Creating layer scale2a_branch1
I0208 18:22:21.711014 20331 net.cpp:100] Creating Layer scale2a_branch1
I0208 18:22:21.711019 20331 net.cpp:434] scale2a_branch1 <- res2a_branch1
I0208 18:22:21.711025 20331 net.cpp:395] scale2a_branch1 -> res2a_branch1 (in-place)
I0208 18:22:21.711071 20331 layer_factory.hpp:77] Creating layer scale2a_branch1
I0208 18:22:21.711211 20331 net.cpp:150] Setting up scale2a_branch1
I0208 18:22:21.711228 20331 net.cpp:157] Top shape: 1 256 64 64 (1048576)
I0208 18:22:21.711236 20331 net.cpp:165] Memory required for data: 45088768
I0208 18:22:21.711249 20331 layer_factory.hpp:77] Creating layer res2a_branch2a
I0208 18:22:21.711268 20331 net.cpp:100] Creating Layer res2a_branch2a
I0208 18:22:21.711277 20331 net.cpp:434] res2a_branch2a <- pool1_pool1_0_split_1
I0208 18:22:21.711289 20331 net.cpp:408] res2a_branch2a -> res2a_branch2a
I0208 18:22:21.712347 20331 net.cpp:150] Setting up res2a_branch2a
I0208 18:22:21.712369 20331 net.cpp:157] Top shape: 1 64 64 64 (262144)
I0208 18:22:21.712378 20331 net.cpp:165] Memory required for data: 46137344
I0208 18:22:21.712397 20331 layer_factory.hpp:77] Creating layer bn2a_branch2a
I0208 18:22:21.712414 20331 net.cpp:100] Creating Layer bn2a_branch2a
I0208 18:22:21.712424 20331 net.cpp:434] bn2a_branch2a <- res2a_branch2a
I0208 18:22:21.712437 20331 net.cpp:395] bn2a_branch2a -> res2a_branch2a (in-place)
I0208 18:22:21.712651 20331 net.cpp:150] Setting up bn2a_branch2a
I0208 18:22:21.712666 20331 net.cpp:157] Top shape: 1 64 64 64 (262144)
I0208 18:22:21.712674 20331 net.cpp:165] Memory required for data: 47185920
I0208 18:22:21.712694 20331 layer_factory.hpp:77] Creating layer scale2a_branch2a
I0208 18:22:21.712714 20331 net.cpp:100] Creating Layer scale2a_branch2a
I0208 18:22:21.712729 20331 net.cpp:434] scale2a_branch2a <- res2a_branch2a
I0208 18:22:21.712767 20331 net.cpp:395] scale2a_branch2a -> res2a_branch2a (in-place)
I0208 18:22:21.712832 20331 layer_factory.hpp:77] Creating layer scale2a_branch2a
I0208 18:22:21.712971 20331 net.cpp:150] Setting up scale2a_branch2a
I0208 18:22:21.712987 20331 net.cpp:157] Top shape: 1 64 64 64 (262144)
I0208 18:22:21.712994 20331 net.cpp:165] Memory required for data: 48234496
I0208 18:22:21.713017 20331 layer_factory.hpp:77] Creating layer res2a_branch2a_relu
I0208 18:22:21.713032 20331 net.cpp:100] Creating Layer res2a_branch2a_relu
I0208 18:22:21.713042 20331 net.cpp:434] res2a_branch2a_relu <- res2a_branch2a
I0208 18:22:21.713054 20331 net.cpp:395] res2a_branch2a_relu -> res2a_branch2a (in-place)
I0208 18:22:21.713397 20331 net.cpp:150] Setting up res2a_branch2a_relu
I0208 18:22:21.713418 20331 net.cpp:157] Top shape: 1 64 64 64 (262144)
I0208 18:22:21.713426 20331 net.cpp:165] Memory required for data: 49283072
I0208 18:22:21.713434 20331 layer_factory.hpp:77] Creating layer res2a_branch2b
I0208 18:22:21.713451 20331 net.cpp:100] Creating Layer res2a_branch2b
I0208 18:22:21.713461 20331 net.cpp:434] res2a_branch2b <- res2a_branch2a
I0208 18:22:21.713474 20331 net.cpp:408] res2a_branch2b -> res2a_branch2b
I0208 18:22:21.714927 20331 net.cpp:150] Setting up res2a_branch2b
I0208 18:22:21.714948 20331 net.cpp:157] Top shape: 1 64 64 64 (262144)
I0208 18:22:21.714957 20331 net.cpp:165] Memory required for data: 50331648
I0208 18:22:21.714974 20331 layer_factory.hpp:77] Creating layer bn2a_branch2b
I0208 18:22:21.714990 20331 net.cpp:100] Creating Layer bn2a_branch2b
I0208 18:22:21.714999 20331 net.cpp:434] bn2a_branch2b <- res2a_branch2b
I0208 18:22:21.715014 20331 net.cpp:395] bn2a_branch2b -> res2a_branch2b (in-place)
I0208 18:22:21.715245 20331 net.cpp:150] Setting up bn2a_branch2b
I0208 18:22:21.715261 20331 net.cpp:157] Top shape: 1 64 64 64 (262144)
I0208 18:22:21.715268 20331 net.cpp:165] Memory required for data: 51380224
I0208 18:22:21.715286 20331 layer_factory.hpp:77] Creating layer scale2a_branch2b
I0208 18:22:21.715298 20331 net.cpp:100] Creating Layer scale2a_branch2b
I0208 18:22:21.715306 20331 net.cpp:434] scale2a_branch2b <- res2a_branch2b
I0208 18:22:21.715320 20331 net.cpp:395] scale2a_branch2b -> res2a_branch2b (in-place)
I0208 18:22:21.715378 20331 layer_factory.hpp:77] Creating layer scale2a_branch2b
I0208 18:22:21.715509 20331 net.cpp:150] Setting up scale2a_branch2b
I0208 18:22:21.715525 20331 net.cpp:157] Top shape: 1 64 64 64 (262144)
I0208 18:22:21.715533 20331 net.cpp:165] Memory required for data: 52428800
I0208 18:22:21.715546 20331 layer_factory.hpp:77] Creating layer res2a_branch2b_relu
I0208 18:22:21.715559 20331 net.cpp:100] Creating Layer res2a_branch2b_relu
I0208 18:22:21.715566 20331 net.cpp:434] res2a_branch2b_relu <- res2a_branch2b
I0208 18:22:21.715576 20331 net.cpp:395] res2a_branch2b_relu -> res2a_branch2b (in-place)
I0208 18:22:21.715936 20331 net.cpp:150] Setting up res2a_branch2b_relu
I0208 18:22:21.715956 20331 net.cpp:157] Top shape: 1 64 64 64 (262144)
I0208 18:22:21.715965 20331 net.cpp:165] Memory required for data: 53477376
I0208 18:22:21.715972 20331 layer_factory.hpp:77] Creating layer res2a_branch2c
I0208 18:22:21.715991 20331 net.cpp:100] Creating Layer res2a_branch2c
I0208 18:22:21.716001 20331 net.cpp:434] res2a_branch2c <- res2a_branch2b
I0208 18:22:21.716012 20331 net.cpp:408] res2a_branch2c -> res2a_branch2c
I0208 18:22:21.717120 20331 net.cpp:150] Setting up res2a_branch2c
I0208 18:22:21.717144 20331 net.cpp:157] Top shape: 1 256 64 64 (1048576)
I0208 18:22:21.717154 20331 net.cpp:165] Memory required for data: 57671680
I0208 18:22:21.717165 20331 layer_factory.hpp:77] Creating layer bn2a_branch2c
I0208 18:22:21.717180 20331 net.cpp:100] Creating Layer bn2a_branch2c
I0208 18:22:21.717191 20331 net.cpp:434] bn2a_branch2c <- res2a_branch2c
I0208 18:22:21.717208 20331 net.cpp:395] bn2a_branch2c -> res2a_branch2c (in-place)
I0208 18:22:21.717414 20331 net.cpp:150] Setting up bn2a_branch2c
I0208 18:22:21.717429 20331 net.cpp:157] Top shape: 1 256 64 64 (1048576)
I0208 18:22:21.717437 20331 net.cpp:165] Memory required for data: 61865984
I0208 18:22:21.717453 20331 layer_factory.hpp:77] Creating layer scale2a_branch2c
I0208 18:22:21.717471 20331 net.cpp:100] Creating Layer scale2a_branch2c
I0208 18:22:21.717483 20331 net.cpp:434] scale2a_branch2c <- res2a_branch2c
I0208 18:22:21.717495 20331 net.cpp:395] scale2a_branch2c -> res2a_branch2c (in-place)
I0208 18:22:21.717551 20331 layer_factory.hpp:77] Creating layer scale2a_branch2c
I0208 18:22:21.717675 20331 net.cpp:150] Setting up scale2a_branch2c
I0208 18:22:21.717692 20331 net.cpp:157] Top shape: 1 256 64 64 (1048576)
I0208 18:22:21.717700 20331 net.cpp:165] Memory required for data: 66060288
I0208 18:22:21.717715 20331 layer_factory.hpp:77] Creating layer res2a
I0208 18:22:21.717726 20331 net.cpp:100] Creating Layer res2a
I0208 18:22:21.717734 20331 net.cpp:434] res2a <- res2a_branch1
I0208 18:22:21.717744 20331 net.cpp:434] res2a <- res2a_branch2c
I0208 18:22:21.717754 20331 net.cpp:408] res2a -> res2a
I0208 18:22:21.717799 20331 net.cpp:150] Setting up res2a
I0208 18:22:21.717813 20331 net.cpp:157] Top shape: 1 256 64 64 (1048576)
I0208 18:22:21.717821 20331 net.cpp:165] Memory required for data: 70254592
I0208 18:22:21.717829 20331 layer_factory.hpp:77] Creating layer res2a_relu
I0208 18:22:21.717839 20331 net.cpp:100] Creating Layer res2a_relu
I0208 18:22:21.717847 20331 net.cpp:434] res2a_relu <- res2a
I0208 18:22:21.717860 20331 net.cpp:395] res2a_relu -> res2a (in-place)
I0208 18:22:21.718067 20331 net.cpp:150] Setting up res2a_relu
I0208 18:22:21.718085 20331 net.cpp:157] Top shape: 1 256 64 64 (1048576)
I0208 18:22:21.718092 20331 net.cpp:165] Memory required for data: 74448896
I0208 18:22:21.718101 20331 layer_factory.hpp:77] Creating layer res2a_res2a_relu_0_split
I0208 18:22:21.718114 20331 net.cpp:100] Creating Layer res2a_res2a_relu_0_split
I0208 18:22:21.718122 20331 net.cpp:434] res2a_res2a_relu_0_split <- res2a
I0208 18:22:21.718135 20331 net.cpp:408] res2a_res2a_relu_0_split -> res2a_res2a_relu_0_split_0
I0208 18:22:21.718150 20331 net.cpp:408] res2a_res2a_relu_0_split -> res2a_res2a_relu_0_split_1
I0208 18:22:21.718211 20331 net.cpp:150] Setting up res2a_res2a_relu_0_split
I0208 18:22:21.718228 20331 net.cpp:157] Top shape: 1 256 64 64 (1048576)
I0208 18:22:21.718240 20331 net.cpp:157] Top shape: 1 256 64 64 (1048576)
I0208 18:22:21.718247 20331 net.cpp:165] Memory required for data: 82837504
I0208 18:22:21.718255 20331 layer_factory.hpp:77] Creating layer res2b_branch2a
I0208 18:22:21.718271 20331 net.cpp:100] Creating Layer res2b_branch2a
I0208 18:22:21.718278 20331 net.cpp:434] res2b_branch2a <- res2a_res2a_relu_0_split_0
I0208 18:22:21.718293 20331 net.cpp:408] res2b_branch2a -> res2b_branch2a
I0208 18:22:21.719390 20331 net.cpp:150] Setting up res2b_branch2a
I0208 18:22:21.719410 20331 net.cpp:157] Top shape: 1 64 64 64 (262144)
I0208 18:22:21.719419 20331 net.cpp:165] Memory required for data: 83886080
I0208 18:22:21.719431 20331 layer_factory.hpp:77] Creating layer bn2b_branch2a
I0208 18:22:21.719447 20331 net.cpp:100] Creating Layer bn2b_branch2a
I0208 18:22:21.719456 20331 net.cpp:434] bn2b_branch2a <- res2b_branch2a
I0208 18:22:21.719470 20331 net.cpp:395] bn2b_branch2a -> res2b_branch2a (in-place)
I0208 18:22:21.719681 20331 net.cpp:150] Setting up bn2b_branch2a
I0208 18:22:21.719696 20331 net.cpp:157] Top shape: 1 64 64 64 (262144)
I0208 18:22:21.719704 20331 net.cpp:165] Memory required for data: 84934656
I0208 18:22:21.719730 20331 layer_factory.hpp:77] Creating layer scale2b_branch2a
I0208 18:22:21.719745 20331 net.cpp:100] Creating Layer scale2b_branch2a
I0208 18:22:21.719753 20331 net.cpp:434] scale2b_branch2a <- res2b_branch2a
I0208 18:22:21.719765 20331 net.cpp:395] scale2b_branch2a -> res2b_branch2a (in-place)
I0208 18:22:21.719823 20331 layer_factory.hpp:77] Creating layer scale2b_branch2a
I0208 18:22:21.719959 20331 net.cpp:150] Setting up scale2b_branch2a
I0208 18:22:21.719974 20331 net.cpp:157] Top shape: 1 64 64 64 (262144)
I0208 18:22:21.719981 20331 net.cpp:165] Memory required for data: 85983232
I0208 18:22:21.719995 20331 layer_factory.hpp:77] Creating layer res2b_branch2a_relu
I0208 18:22:21.720005 20331 net.cpp:100] Creating Layer res2b_branch2a_relu
I0208 18:22:21.720015 20331 net.cpp:434] res2b_branch2a_relu <- res2b_branch2a
I0208 18:22:21.720027 20331 net.cpp:395] res2b_branch2a_relu -> res2b_branch2a (in-place)
I0208 18:22:21.720379 20331 net.cpp:150] Setting up res2b_branch2a_relu
I0208 18:22:21.720399 20331 net.cpp:157] Top shape: 1 64 64 64 (262144)
I0208 18:22:21.720407 20331 net.cpp:165] Memory required for data: 87031808
I0208 18:22:21.720415 20331 layer_factory.hpp:77] Creating layer res2b_branch2b
I0208 18:22:21.720433 20331 net.cpp:100] Creating Layer res2b_branch2b
I0208 18:22:21.720443 20331 net.cpp:434] res2b_branch2b <- res2b_branch2a
I0208 18:22:21.720455 20331 net.cpp:408] res2b_branch2b -> res2b_branch2b
I0208 18:22:21.721444 20331 net.cpp:150] Setting up res2b_branch2b
I0208 18:22:21.721465 20331 net.cpp:157] Top shape: 1 64 64 64 (262144)
I0208 18:22:21.721473 20331 net.cpp:165] Memory required for data: 88080384
I0208 18:22:21.721485 20331 layer_factory.hpp:77] Creating layer bn2b_branch2b
I0208 18:22:21.721501 20331 net.cpp:100] Creating Layer bn2b_branch2b
I0208 18:22:21.721511 20331 net.cpp:434] bn2b_branch2b <- res2b_branch2b
I0208 18:22:21.721525 20331 net.cpp:395] bn2b_branch2b -> res2b_branch2b (in-place)
I0208 18:22:21.721736 20331 net.cpp:150] Setting up bn2b_branch2b
I0208 18:22:21.721751 20331 net.cpp:157] Top shape: 1 64 64 64 (262144)
I0208 18:22:21.721760 20331 net.cpp:165] Memory required for data: 89128960
I0208 18:22:21.721776 20331 layer_factory.hpp:77] Creating layer scale2b_branch2b
I0208 18:22:21.721791 20331 net.cpp:100] Creating Layer scale2b_branch2b
I0208 18:22:21.721801 20331 net.cpp:434] scale2b_branch2b <- res2b_branch2b
I0208 18:22:21.721813 20331 net.cpp:395] scale2b_branch2b -> res2b_branch2b (in-place)
I0208 18:22:21.721870 20331 layer_factory.hpp:77] Creating layer scale2b_branch2b
I0208 18:22:21.722013 20331 net.cpp:150] Setting up scale2b_branch2b
I0208 18:22:21.722029 20331 net.cpp:157] Top shape: 1 64 64 64 (262144)
I0208 18:22:21.722036 20331 net.cpp:165] Memory required for data: 90177536
I0208 18:22:21.722049 20331 layer_factory.hpp:77] Creating layer res2b_branch2b_relu
I0208 18:22:21.722074 20331 net.cpp:100] Creating Layer res2b_branch2b_relu
I0208 18:22:21.722082 20331 net.cpp:434] res2b_branch2b_relu <- res2b_branch2b
I0208 18:22:21.722095 20331 net.cpp:395] res2b_branch2b_relu -> res2b_branch2b (in-place)
I0208 18:22:21.722457 20331 net.cpp:150] Setting up res2b_branch2b_relu
I0208 18:22:21.722476 20331 net.cpp:157] Top shape: 1 64 64 64 (262144)
I0208 18:22:21.722484 20331 net.cpp:165] Memory required for data: 91226112
I0208 18:22:21.722493 20331 layer_factory.hpp:77] Creating layer res2b_branch2c
I0208 18:22:21.722510 20331 net.cpp:100] Creating Layer res2b_branch2c
I0208 18:22:21.722520 20331 net.cpp:434] res2b_branch2c <- res2b_branch2b
I0208 18:22:21.722533 20331 net.cpp:408] res2b_branch2c -> res2b_branch2c
I0208 18:22:21.723641 20331 net.cpp:150] Setting up res2b_branch2c
I0208 18:22:21.723662 20331 net.cpp:157] Top shape: 1 256 64 64 (1048576)
I0208 18:22:21.723671 20331 net.cpp:165] Memory required for data: 95420416
I0208 18:22:21.723690 20331 layer_factory.hpp:77] Creating layer bn2b_branch2c
I0208 18:22:21.723702 20331 net.cpp:100] Creating Layer bn2b_branch2c
I0208 18:22:21.723711 20331 net.cpp:434] bn2b_branch2c <- res2b_branch2c
I0208 18:22:21.723726 20331 net.cpp:395] bn2b_branch2c -> res2b_branch2c (in-place)
I0208 18:22:21.723933 20331 net.cpp:150] Setting up bn2b_branch2c
I0208 18:22:21.723948 20331 net.cpp:157] Top shape: 1 256 64 64 (1048576)
I0208 18:22:21.723956 20331 net.cpp:165] Memory required for data: 99614720
I0208 18:22:21.723978 20331 layer_factory.hpp:77] Creating layer scale2b_branch2c
I0208 18:22:21.723990 20331 net.cpp:100] Creating Layer scale2b_branch2c
I0208 18:22:21.724001 20331 net.cpp:434] scale2b_branch2c <- res2b_branch2c
I0208 18:22:21.724014 20331 net.cpp:395] scale2b_branch2c -> res2b_branch2c (in-place)
I0208 18:22:21.724073 20331 layer_factory.hpp:77] Creating layer scale2b_branch2c
I0208 18:22:21.724200 20331 net.cpp:150] Setting up scale2b_branch2c
I0208 18:22:21.724215 20331 net.cpp:157] Top shape: 1 256 64 64 (1048576)
I0208 18:22:21.724222 20331 net.cpp:165] Memory required for data: 103809024
I0208 18:22:21.724236 20331 layer_factory.hpp:77] Creating layer res2b
I0208 18:22:21.724256 20331 net.cpp:100] Creating Layer res2b
I0208 18:22:21.724267 20331 net.cpp:434] res2b <- res2a_res2a_relu_0_split_1
I0208 18:22:21.724277 20331 net.cpp:434] res2b <- res2b_branch2c
I0208 18:22:21.724288 20331 net.cpp:408] res2b -> res2b
I0208 18:22:21.724325 20331 net.cpp:150] Setting up res2b
I0208 18:22:21.724339 20331 net.cpp:157] Top shape: 1 256 64 64 (1048576)
I0208 18:22:21.724346 20331 net.cpp:165] Memory required for data: 108003328
I0208 18:22:21.724354 20331 layer_factory.hpp:77] Creating layer res2b_relu
I0208 18:22:21.724365 20331 net.cpp:100] Creating Layer res2b_relu
I0208 18:22:21.724372 20331 net.cpp:434] res2b_relu <- res2b
I0208 18:22:21.724385 20331 net.cpp:395] res2b_relu -> res2b (in-place)
I0208 18:22:21.724592 20331 net.cpp:150] Setting up res2b_relu
I0208 18:22:21.724611 20331 net.cpp:157] Top shape: 1 256 64 64 (1048576)
I0208 18:22:21.724619 20331 net.cpp:165] Memory required for data: 112197632
I0208 18:22:21.724627 20331 layer_factory.hpp:77] Creating layer res2b_res2b_relu_0_split
I0208 18:22:21.724638 20331 net.cpp:100] Creating Layer res2b_res2b_relu_0_split
I0208 18:22:21.724647 20331 net.cpp:434] res2b_res2b_relu_0_split <- res2b
I0208 18:22:21.724658 20331 net.cpp:408] res2b_res2b_relu_0_split -> res2b_res2b_relu_0_split_0
I0208 18:22:21.724671 20331 net.cpp:408] res2b_res2b_relu_0_split -> res2b_res2b_relu_0_split_1
I0208 18:22:21.724732 20331 net.cpp:150] Setting up res2b_res2b_relu_0_split
I0208 18:22:21.724771 20331 net.cpp:157] Top shape: 1 256 64 64 (1048576)
I0208 18:22:21.724783 20331 net.cpp:157] Top shape: 1 256 64 64 (1048576)
I0208 18:22:21.724792 20331 net.cpp:165] Memory required for data: 120586240
I0208 18:22:21.724799 20331 layer_factory.hpp:77] Creating layer res2c_branch2a
I0208 18:22:21.724817 20331 net.cpp:100] Creating Layer res2c_branch2a
I0208 18:22:21.724828 20331 net.cpp:434] res2c_branch2a <- res2b_res2b_relu_0_split_0
I0208 18:22:21.724844 20331 net.cpp:408] res2c_branch2a -> res2c_branch2a
I0208 18:22:21.726178 20331 net.cpp:150] Setting up res2c_branch2a
I0208 18:22:21.726199 20331 net.cpp:157] Top shape: 1 64 64 64 (262144)
I0208 18:22:21.726208 20331 net.cpp:165] Memory required for data: 121634816
I0208 18:22:21.726220 20331 layer_factory.hpp:77] Creating layer bn2c_branch2a
I0208 18:22:21.726236 20331 net.cpp:100] Creating Layer bn2c_branch2a
I0208 18:22:21.726245 20331 net.cpp:434] bn2c_branch2a <- res2c_branch2a
I0208 18:22:21.726258 20331 net.cpp:395] bn2c_branch2a -> res2c_branch2a (in-place)
I0208 18:22:21.726478 20331 net.cpp:150] Setting up bn2c_branch2a
I0208 18:22:21.726495 20331 net.cpp:157] Top shape: 1 64 64 64 (262144)
I0208 18:22:21.726501 20331 net.cpp:165] Memory required for data: 122683392
I0208 18:22:21.726518 20331 layer_factory.hpp:77] Creating layer scale2c_branch2a
I0208 18:22:21.726531 20331 net.cpp:100] Creating Layer scale2c_branch2a
I0208 18:22:21.726542 20331 net.cpp:434] scale2c_branch2a <- res2c_branch2a
I0208 18:22:21.726554 20331 net.cpp:395] scale2c_branch2a -> res2c_branch2a (in-place)
I0208 18:22:21.726613 20331 layer_factory.hpp:77] Creating layer scale2c_branch2a
I0208 18:22:21.726758 20331 net.cpp:150] Setting up scale2c_branch2a
I0208 18:22:21.726773 20331 net.cpp:157] Top shape: 1 64 64 64 (262144)
I0208 18:22:21.726786 20331 net.cpp:165] Memory required for data: 123731968
I0208 18:22:21.726799 20331 layer_factory.hpp:77] Creating layer res2c_branch2a_relu
I0208 18:22:21.726811 20331 net.cpp:100] Creating Layer res2c_branch2a_relu
I0208 18:22:21.726819 20331 net.cpp:434] res2c_branch2a_relu <- res2c_branch2a
I0208 18:22:21.726833 20331 net.cpp:395] res2c_branch2a_relu -> res2c_branch2a (in-place)
I0208 18:22:21.727185 20331 net.cpp:150] Setting up res2c_branch2a_relu
I0208 18:22:21.727205 20331 net.cpp:157] Top shape: 1 64 64 64 (262144)
I0208 18:22:21.727212 20331 net.cpp:165] Memory required for data: 124780544
I0208 18:22:21.727226 20331 layer_factory.hpp:77] Creating layer res2c_branch2b
I0208 18:22:21.727249 20331 net.cpp:100] Creating Layer res2c_branch2b
I0208 18:22:21.727258 20331 net.cpp:434] res2c_branch2b <- res2c_branch2a
I0208 18:22:21.727273 20331 net.cpp:408] res2c_branch2b -> res2c_branch2b
I0208 18:22:21.728248 20331 net.cpp:150] Setting up res2c_branch2b
I0208 18:22:21.728269 20331 net.cpp:157] Top shape: 1 64 64 64 (262144)
I0208 18:22:21.728278 20331 net.cpp:165] Memory required for data: 125829120
I0208 18:22:21.728291 20331 layer_factory.hpp:77] Creating layer bn2c_branch2b
I0208 18:22:21.728307 20331 net.cpp:100] Creating Layer bn2c_branch2b
I0208 18:22:21.728315 20331 net.cpp:434] bn2c_branch2b <- res2c_branch2b
I0208 18:22:21.728328 20331 net.cpp:395] bn2c_branch2b -> res2c_branch2b (in-place)
I0208 18:22:21.728550 20331 net.cpp:150] Setting up bn2c_branch2b
I0208 18:22:21.728566 20331 net.cpp:157] Top shape: 1 64 64 64 (262144)
I0208 18:22:21.728574 20331 net.cpp:165] Memory required for data: 126877696
I0208 18:22:21.728590 20331 layer_factory.hpp:77] Creating layer scale2c_branch2b
I0208 18:22:21.728602 20331 net.cpp:100] Creating Layer scale2c_branch2b
I0208 18:22:21.728613 20331 net.cpp:434] scale2c_branch2b <- res2c_branch2b
I0208 18:22:21.728626 20331 net.cpp:395] scale2c_branch2b -> res2c_branch2b (in-place)
I0208 18:22:21.728684 20331 layer_factory.hpp:77] Creating layer scale2c_branch2b
I0208 18:22:21.728847 20331 net.cpp:150] Setting up scale2c_branch2b
I0208 18:22:21.728863 20331 net.cpp:157] Top shape: 1 64 64 64 (262144)
I0208 18:22:21.728871 20331 net.cpp:165] Memory required for data: 127926272
I0208 18:22:21.728884 20331 layer_factory.hpp:77] Creating layer res2c_branch2b_relu
I0208 18:22:21.728896 20331 net.cpp:100] Creating Layer res2c_branch2b_relu
I0208 18:22:21.728904 20331 net.cpp:434] res2c_branch2b_relu <- res2c_branch2b
I0208 18:22:21.728919 20331 net.cpp:395] res2c_branch2b_relu -> res2c_branch2b (in-place)
I0208 18:22:21.729286 20331 net.cpp:150] Setting up res2c_branch2b_relu
I0208 18:22:21.729306 20331 net.cpp:157] Top shape: 1 64 64 64 (262144)
I0208 18:22:21.729315 20331 net.cpp:165] Memory required for data: 128974848
I0208 18:22:21.729323 20331 layer_factory.hpp:77] Creating layer res2c_branch2c
I0208 18:22:21.729341 20331 net.cpp:100] Creating Layer res2c_branch2c
I0208 18:22:21.729349 20331 net.cpp:434] res2c_branch2c <- res2c_branch2b
I0208 18:22:21.729362 20331 net.cpp:408] res2c_branch2c -> res2c_branch2c
I0208 18:22:21.730459 20331 net.cpp:150] Setting up res2c_branch2c
I0208 18:22:21.730480 20331 net.cpp:157] Top shape: 1 256 64 64 (1048576)
I0208 18:22:21.730489 20331 net.cpp:165] Memory required for data: 133169152
I0208 18:22:21.730500 20331 layer_factory.hpp:77] Creating layer bn2c_branch2c
I0208 18:22:21.730517 20331 net.cpp:100] Creating Layer bn2c_branch2c
I0208 18:22:21.730527 20331 net.cpp:434] bn2c_branch2c <- res2c_branch2c
I0208 18:22:21.730540 20331 net.cpp:395] bn2c_branch2c -> res2c_branch2c (in-place)
I0208 18:22:21.730751 20331 net.cpp:150] Setting up bn2c_branch2c
I0208 18:22:21.730765 20331 net.cpp:157] Top shape: 1 256 64 64 (1048576)
I0208 18:22:21.730773 20331 net.cpp:165] Memory required for data: 137363456
I0208 18:22:21.730790 20331 layer_factory.hpp:77] Creating layer scale2c_branch2c
I0208 18:22:21.730806 20331 net.cpp:100] Creating Layer scale2c_branch2c
I0208 18:22:21.730818 20331 net.cpp:434] scale2c_branch2c <- res2c_branch2c
I0208 18:22:21.730829 20331 net.cpp:395] scale2c_branch2c -> res2c_branch2c (in-place)
I0208 18:22:21.730887 20331 layer_factory.hpp:77] Creating layer scale2c_branch2c
I0208 18:22:21.731017 20331 net.cpp:150] Setting up scale2c_branch2c
I0208 18:22:21.731032 20331 net.cpp:157] Top shape: 1 256 64 64 (1048576)
I0208 18:22:21.731040 20331 net.cpp:165] Memory required for data: 141557760
I0208 18:22:21.731070 20331 layer_factory.hpp:77] Creating layer res2c
I0208 18:22:21.731082 20331 net.cpp:100] Creating Layer res2c
I0208 18:22:21.731091 20331 net.cpp:434] res2c <- res2b_res2b_relu_0_split_1
I0208 18:22:21.731101 20331 net.cpp:434] res2c <- res2c_branch2c
I0208 18:22:21.731117 20331 net.cpp:408] res2c -> res2c
I0208 18:22:21.731159 20331 net.cpp:150] Setting up res2c
I0208 18:22:21.731173 20331 net.cpp:157] Top shape: 1 256 64 64 (1048576)
I0208 18:22:21.731179 20331 net.cpp:165] Memory required for data: 145752064
I0208 18:22:21.731187 20331 layer_factory.hpp:77] Creating layer res2c_relu
I0208 18:22:21.731199 20331 net.cpp:100] Creating Layer res2c_relu
I0208 18:22:21.731206 20331 net.cpp:434] res2c_relu <- res2c
I0208 18:22:21.731220 20331 net.cpp:395] res2c_relu -> res2c (in-place)
I0208 18:22:21.731432 20331 net.cpp:150] Setting up res2c_relu
I0208 18:22:21.731449 20331 net.cpp:157] Top shape: 1 256 64 64 (1048576)
I0208 18:22:21.731457 20331 net.cpp:165] Memory required for data: 149946368
I0208 18:22:21.731465 20331 layer_factory.hpp:77] Creating layer res2c_res2c_relu_0_split
I0208 18:22:21.731477 20331 net.cpp:100] Creating Layer res2c_res2c_relu_0_split
I0208 18:22:21.731484 20331 net.cpp:434] res2c_res2c_relu_0_split <- res2c
I0208 18:22:21.731498 20331 net.cpp:408] res2c_res2c_relu_0_split -> res2c_res2c_relu_0_split_0
I0208 18:22:21.731513 20331 net.cpp:408] res2c_res2c_relu_0_split -> res2c_res2c_relu_0_split_1
I0208 18:22:21.731572 20331 net.cpp:150] Setting up res2c_res2c_relu_0_split
I0208 18:22:21.731586 20331 net.cpp:157] Top shape: 1 256 64 64 (1048576)
I0208 18:22:21.731595 20331 net.cpp:157] Top shape: 1 256 64 64 (1048576)
I0208 18:22:21.731603 20331 net.cpp:165] Memory required for data: 158334976
I0208 18:22:21.731611 20331 layer_factory.hpp:77] Creating layer res3a_branch1
I0208 18:22:21.731628 20331 net.cpp:100] Creating Layer res3a_branch1
I0208 18:22:21.731640 20331 net.cpp:434] res3a_branch1 <- res2c_res2c_relu_0_split_0
I0208 18:22:21.731653 20331 net.cpp:408] res3a_branch1 -> res3a_branch1
I0208 18:22:21.733538 20331 net.cpp:150] Setting up res3a_branch1
I0208 18:22:21.733561 20331 net.cpp:157] Top shape: 1 512 32 32 (524288)
I0208 18:22:21.733569 20331 net.cpp:165] Memory required for data: 160432128
I0208 18:22:21.733582 20331 layer_factory.hpp:77] Creating layer bn3a_branch1
I0208 18:22:21.733597 20331 net.cpp:100] Creating Layer bn3a_branch1
I0208 18:22:21.733606 20331 net.cpp:434] bn3a_branch1 <- res3a_branch1
I0208 18:22:21.733619 20331 net.cpp:395] bn3a_branch1 -> res3a_branch1 (in-place)
I0208 18:22:21.734344 20331 net.cpp:150] Setting up bn3a_branch1
I0208 18:22:21.734362 20331 net.cpp:157] Top shape: 1 512 32 32 (524288)
I0208 18:22:21.734370 20331 net.cpp:165] Memory required for data: 162529280
I0208 18:22:21.734388 20331 layer_factory.hpp:77] Creating layer scale3a_branch1
I0208 18:22:21.734402 20331 net.cpp:100] Creating Layer scale3a_branch1
I0208 18:22:21.734411 20331 net.cpp:434] scale3a_branch1 <- res3a_branch1
I0208 18:22:21.734422 20331 net.cpp:395] scale3a_branch1 -> res3a_branch1 (in-place)
I0208 18:22:21.734480 20331 layer_factory.hpp:77] Creating layer scale3a_branch1
I0208 18:22:21.734612 20331 net.cpp:150] Setting up scale3a_branch1
I0208 18:22:21.734627 20331 net.cpp:157] Top shape: 1 512 32 32 (524288)
I0208 18:22:21.734634 20331 net.cpp:165] Memory required for data: 164626432
I0208 18:22:21.734648 20331 layer_factory.hpp:77] Creating layer res3a_branch2a
I0208 18:22:21.734666 20331 net.cpp:100] Creating Layer res3a_branch2a
I0208 18:22:21.734681 20331 net.cpp:434] res3a_branch2a <- res2c_res2c_relu_0_split_1
I0208 18:22:21.734694 20331 net.cpp:408] res3a_branch2a -> res3a_branch2a
I0208 18:22:21.735908 20331 net.cpp:150] Setting up res3a_branch2a
I0208 18:22:21.735934 20331 net.cpp:157] Top shape: 1 128 32 32 (131072)
I0208 18:22:21.735944 20331 net.cpp:165] Memory required for data: 165150720
I0208 18:22:21.735956 20331 layer_factory.hpp:77] Creating layer bn3a_branch2a
I0208 18:22:21.735970 20331 net.cpp:100] Creating Layer bn3a_branch2a
I0208 18:22:21.735978 20331 net.cpp:434] bn3a_branch2a <- res3a_branch2a
I0208 18:22:21.735994 20331 net.cpp:395] bn3a_branch2a -> res3a_branch2a (in-place)
I0208 18:22:21.736212 20331 net.cpp:150] Setting up bn3a_branch2a
I0208 18:22:21.736227 20331 net.cpp:157] Top shape: 1 128 32 32 (131072)
I0208 18:22:21.736234 20331 net.cpp:165] Memory required for data: 165675008
I0208 18:22:21.736250 20331 layer_factory.hpp:77] Creating layer scale3a_branch2a
I0208 18:22:21.736268 20331 net.cpp:100] Creating Layer scale3a_branch2a
I0208 18:22:21.736279 20331 net.cpp:434] scale3a_branch2a <- res3a_branch2a
I0208 18:22:21.736290 20331 net.cpp:395] scale3a_branch2a -> res3a_branch2a (in-place)
I0208 18:22:21.736346 20331 layer_factory.hpp:77] Creating layer scale3a_branch2a
I0208 18:22:21.736469 20331 net.cpp:150] Setting up scale3a_branch2a
I0208 18:22:21.736482 20331 net.cpp:157] Top shape: 1 128 32 32 (131072)
I0208 18:22:21.736490 20331 net.cpp:165] Memory required for data: 166199296
I0208 18:22:21.736503 20331 layer_factory.hpp:77] Creating layer res3a_branch2a_relu
I0208 18:22:21.736515 20331 net.cpp:100] Creating Layer res3a_branch2a_relu
I0208 18:22:21.736523 20331 net.cpp:434] res3a_branch2a_relu <- res3a_branch2a
I0208 18:22:21.736536 20331 net.cpp:395] res3a_branch2a_relu -> res3a_branch2a (in-place)
I0208 18:22:21.736758 20331 net.cpp:150] Setting up res3a_branch2a_relu
I0208 18:22:21.736776 20331 net.cpp:157] Top shape: 1 128 32 32 (131072)
I0208 18:22:21.736785 20331 net.cpp:165] Memory required for data: 166723584
I0208 18:22:21.736793 20331 layer_factory.hpp:77] Creating layer res3a_branch2b
I0208 18:22:21.736807 20331 net.cpp:100] Creating Layer res3a_branch2b
I0208 18:22:21.736816 20331 net.cpp:434] res3a_branch2b <- res3a_branch2a
I0208 18:22:21.736832 20331 net.cpp:408] res3a_branch2b -> res3a_branch2b
I0208 18:22:21.738504 20331 net.cpp:150] Setting up res3a_branch2b
I0208 18:22:21.738526 20331 net.cpp:157] Top shape: 1 128 32 32 (131072)
I0208 18:22:21.738534 20331 net.cpp:165] Memory required for data: 167247872
I0208 18:22:21.738546 20331 layer_factory.hpp:77] Creating layer bn3a_branch2b
I0208 18:22:21.738562 20331 net.cpp:100] Creating Layer bn3a_branch2b
I0208 18:22:21.738572 20331 net.cpp:434] bn3a_branch2b <- res3a_branch2b
I0208 18:22:21.738584 20331 net.cpp:395] bn3a_branch2b -> res3a_branch2b (in-place)
I0208 18:22:21.738796 20331 net.cpp:150] Setting up bn3a_branch2b
I0208 18:22:21.738812 20331 net.cpp:157] Top shape: 1 128 32 32 (131072)
I0208 18:22:21.738819 20331 net.cpp:165] Memory required for data: 167772160
I0208 18:22:21.738839 20331 layer_factory.hpp:77] Creating layer scale3a_branch2b
I0208 18:22:21.738855 20331 net.cpp:100] Creating Layer scale3a_branch2b
I0208 18:22:21.738863 20331 net.cpp:434] scale3a_branch2b <- res3a_branch2b
I0208 18:22:21.738893 20331 net.cpp:395] scale3a_branch2b -> res3a_branch2b (in-place)
I0208 18:22:21.738953 20331 layer_factory.hpp:77] Creating layer scale3a_branch2b
I0208 18:22:21.739085 20331 net.cpp:150] Setting up scale3a_branch2b
I0208 18:22:21.739100 20331 net.cpp:157] Top shape: 1 128 32 32 (131072)
I0208 18:22:21.739109 20331 net.cpp:165] Memory required for data: 168296448
I0208 18:22:21.739121 20331 layer_factory.hpp:77] Creating layer res3a_branch2b_relu
I0208 18:22:21.739132 20331 net.cpp:100] Creating Layer res3a_branch2b_relu
I0208 18:22:21.739141 20331 net.cpp:434] res3a_branch2b_relu <- res3a_branch2b
I0208 18:22:21.739154 20331 net.cpp:395] res3a_branch2b_relu -> res3a_branch2b (in-place)
I0208 18:22:21.739503 20331 net.cpp:150] Setting up res3a_branch2b_relu
I0208 18:22:21.739523 20331 net.cpp:157] Top shape: 1 128 32 32 (131072)
I0208 18:22:21.739531 20331 net.cpp:165] Memory required for data: 168820736
I0208 18:22:21.739539 20331 layer_factory.hpp:77] Creating layer res3a_branch2c
I0208 18:22:21.739568 20331 net.cpp:100] Creating Layer res3a_branch2c
I0208 18:22:21.739579 20331 net.cpp:434] res3a_branch2c <- res3a_branch2b
I0208 18:22:21.739593 20331 net.cpp:408] res3a_branch2c -> res3a_branch2c
I0208 18:22:21.740618 20331 net.cpp:150] Setting up res3a_branch2c
I0208 18:22:21.740639 20331 net.cpp:157] Top shape: 1 512 32 32 (524288)
I0208 18:22:21.740648 20331 net.cpp:165] Memory required for data: 170917888
I0208 18:22:21.740660 20331 layer_factory.hpp:77] Creating layer bn3a_branch2c
I0208 18:22:21.740675 20331 net.cpp:100] Creating Layer bn3a_branch2c
I0208 18:22:21.740685 20331 net.cpp:434] bn3a_branch2c <- res3a_branch2c
I0208 18:22:21.740696 20331 net.cpp:395] bn3a_branch2c -> res3a_branch2c (in-place)
I0208 18:22:21.740931 20331 net.cpp:150] Setting up bn3a_branch2c
I0208 18:22:21.740947 20331 net.cpp:157] Top shape: 1 512 32 32 (524288)
I0208 18:22:21.740954 20331 net.cpp:165] Memory required for data: 173015040
I0208 18:22:21.740972 20331 layer_factory.hpp:77] Creating layer scale3a_branch2c
I0208 18:22:21.740988 20331 net.cpp:100] Creating Layer scale3a_branch2c
I0208 18:22:21.740999 20331 net.cpp:434] scale3a_branch2c <- res3a_branch2c
I0208 18:22:21.741011 20331 net.cpp:395] scale3a_branch2c -> res3a_branch2c (in-place)
I0208 18:22:21.741066 20331 layer_factory.hpp:77] Creating layer scale3a_branch2c
I0208 18:22:21.741199 20331 net.cpp:150] Setting up scale3a_branch2c
I0208 18:22:21.741212 20331 net.cpp:157] Top shape: 1 512 32 32 (524288)
I0208 18:22:21.741220 20331 net.cpp:165] Memory required for data: 175112192
I0208 18:22:21.741233 20331 layer_factory.hpp:77] Creating layer res3a
I0208 18:22:21.741245 20331 net.cpp:100] Creating Layer res3a
I0208 18:22:21.741253 20331 net.cpp:434] res3a <- res3a_branch1
I0208 18:22:21.741263 20331 net.cpp:434] res3a <- res3a_branch2c
I0208 18:22:21.741274 20331 net.cpp:408] res3a -> res3a
I0208 18:22:21.741313 20331 net.cpp:150] Setting up res3a
I0208 18:22:21.741329 20331 net.cpp:157] Top shape: 1 512 32 32 (524288)
I0208 18:22:21.741338 20331 net.cpp:165] Memory required for data: 177209344
I0208 18:22:21.741345 20331 layer_factory.hpp:77] Creating layer res3a_relu
I0208 18:22:21.741355 20331 net.cpp:100] Creating Layer res3a_relu
I0208 18:22:21.741364 20331 net.cpp:434] res3a_relu <- res3a
I0208 18:22:21.741374 20331 net.cpp:395] res3a_relu -> res3a (in-place)
I0208 18:22:21.741740 20331 net.cpp:150] Setting up res3a_relu
I0208 18:22:21.741760 20331 net.cpp:157] Top shape: 1 512 32 32 (524288)
I0208 18:22:21.741767 20331 net.cpp:165] Memory required for data: 179306496
I0208 18:22:21.741775 20331 layer_factory.hpp:77] Creating layer res3a_res3a_relu_0_split
I0208 18:22:21.741787 20331 net.cpp:100] Creating Layer res3a_res3a_relu_0_split
I0208 18:22:21.741796 20331 net.cpp:434] res3a_res3a_relu_0_split <- res3a
I0208 18:22:21.741806 20331 net.cpp:408] res3a_res3a_relu_0_split -> res3a_res3a_relu_0_split_0
I0208 18:22:21.741822 20331 net.cpp:408] res3a_res3a_relu_0_split -> res3a_res3a_relu_0_split_1
I0208 18:22:21.741881 20331 net.cpp:150] Setting up res3a_res3a_relu_0_split
I0208 18:22:21.741895 20331 net.cpp:157] Top shape: 1 512 32 32 (524288)
I0208 18:22:21.741905 20331 net.cpp:157] Top shape: 1 512 32 32 (524288)
I0208 18:22:21.741912 20331 net.cpp:165] Memory required for data: 183500800
I0208 18:22:21.741920 20331 layer_factory.hpp:77] Creating layer res3b1_branch2a
I0208 18:22:21.741937 20331 net.cpp:100] Creating Layer res3b1_branch2a
I0208 18:22:21.741946 20331 net.cpp:434] res3b1_branch2a <- res3a_res3a_relu_0_split_0
I0208 18:22:21.741961 20331 net.cpp:408] res3b1_branch2a -> res3b1_branch2a
I0208 18:22:21.743759 20331 net.cpp:150] Setting up res3b1_branch2a
I0208 18:22:21.743779 20331 net.cpp:157] Top shape: 1 128 32 32 (131072)
I0208 18:22:21.743788 20331 net.cpp:165] Memory required for data: 184025088
I0208 18:22:21.743801 20331 layer_factory.hpp:77] Creating layer bn3b1_branch2a
I0208 18:22:21.743818 20331 net.cpp:100] Creating Layer bn3b1_branch2a
I0208 18:22:21.743827 20331 net.cpp:434] bn3b1_branch2a <- res3b1_branch2a
I0208 18:22:21.743839 20331 net.cpp:395] bn3b1_branch2a -> res3b1_branch2a (in-place)
I0208 18:22:21.744058 20331 net.cpp:150] Setting up bn3b1_branch2a
I0208 18:22:21.744073 20331 net.cpp:157] Top shape: 1 128 32 32 (131072)
I0208 18:22:21.744081 20331 net.cpp:165] Memory required for data: 184549376
I0208 18:22:21.744097 20331 layer_factory.hpp:77] Creating layer scale3b1_branch2a
I0208 18:22:21.744112 20331 net.cpp:100] Creating Layer scale3b1_branch2a
I0208 18:22:21.744123 20331 net.cpp:434] scale3b1_branch2a <- res3b1_branch2a
I0208 18:22:21.744135 20331 net.cpp:395] scale3b1_branch2a -> res3b1_branch2a (in-place)
I0208 18:22:21.744194 20331 layer_factory.hpp:77] Creating layer scale3b1_branch2a
I0208 18:22:21.744323 20331 net.cpp:150] Setting up scale3b1_branch2a
I0208 18:22:21.744338 20331 net.cpp:157] Top shape: 1 128 32 32 (131072)
I0208 18:22:21.744344 20331 net.cpp:165] Memory required for data: 185073664
I0208 18:22:21.744359 20331 layer_factory.hpp:77] Creating layer res3b1_branch2a_relu
I0208 18:22:21.744370 20331 net.cpp:100] Creating Layer res3b1_branch2a_relu
I0208 18:22:21.744379 20331 net.cpp:434] res3b1_branch2a_relu <- res3b1_branch2a
I0208 18:22:21.744388 20331 net.cpp:395] res3b1_branch2a_relu -> res3b1_branch2a (in-place)
I0208 18:22:21.744618 20331 net.cpp:150] Setting up res3b1_branch2a_relu
I0208 18:22:21.744635 20331 net.cpp:157] Top shape: 1 128 32 32 (131072)
I0208 18:22:21.744643 20331 net.cpp:165] Memory required for data: 185597952
I0208 18:22:21.744652 20331 layer_factory.hpp:77] Creating layer res3b1_branch2b
I0208 18:22:21.744668 20331 net.cpp:100] Creating Layer res3b1_branch2b
I0208 18:22:21.744678 20331 net.cpp:434] res3b1_branch2b <- res3b1_branch2a
I0208 18:22:21.744693 20331 net.cpp:408] res3b1_branch2b -> res3b1_branch2b
I0208 18:22:21.746579 20331 net.cpp:150] Setting up res3b1_branch2b
I0208 18:22:21.746600 20331 net.cpp:157] Top shape: 1 128 32 32 (131072)
I0208 18:22:21.746609 20331 net.cpp:165] Memory required for data: 186122240
I0208 18:22:21.746621 20331 layer_factory.hpp:77] Creating layer bn3b1_branch2b
I0208 18:22:21.746637 20331 net.cpp:100] Creating Layer bn3b1_branch2b
I0208 18:22:21.746646 20331 net.cpp:434] bn3b1_branch2b <- res3b1_branch2b
I0208 18:22:21.746659 20331 net.cpp:395] bn3b1_branch2b -> res3b1_branch2b (in-place)
I0208 18:22:21.746879 20331 net.cpp:150] Setting up bn3b1_branch2b
I0208 18:22:21.746893 20331 net.cpp:157] Top shape: 1 128 32 32 (131072)
I0208 18:22:21.746901 20331 net.cpp:165] Memory required for data: 186646528
I0208 18:22:21.746918 20331 layer_factory.hpp:77] Creating layer scale3b1_branch2b
I0208 18:22:21.746934 20331 net.cpp:100] Creating Layer scale3b1_branch2b
I0208 18:22:21.746945 20331 net.cpp:434] scale3b1_branch2b <- res3b1_branch2b
I0208 18:22:21.746958 20331 net.cpp:395] scale3b1_branch2b -> res3b1_branch2b (in-place)
I0208 18:22:21.747016 20331 layer_factory.hpp:77] Creating layer scale3b1_branch2b
I0208 18:22:21.747143 20331 net.cpp:150] Setting up scale3b1_branch2b
I0208 18:22:21.747159 20331 net.cpp:157] Top shape: 1 128 32 32 (131072)
I0208 18:22:21.747166 20331 net.cpp:165] Memory required for data: 187170816
I0208 18:22:21.747179 20331 layer_factory.hpp:77] Creating layer res3b1_branch2b_relu
I0208 18:22:21.747191 20331 net.cpp:100] Creating Layer res3b1_branch2b_relu
I0208 18:22:21.747200 20331 net.cpp:434] res3b1_branch2b_relu <- res3b1_branch2b
I0208 18:22:21.747210 20331 net.cpp:395] res3b1_branch2b_relu -> res3b1_branch2b (in-place)
I0208 18:22:21.747567 20331 net.cpp:150] Setting up res3b1_branch2b_relu
I0208 18:22:21.747587 20331 net.cpp:157] Top shape: 1 128 32 32 (131072)
I0208 18:22:21.747596 20331 net.cpp:165] Memory required for data: 187695104
I0208 18:22:21.747603 20331 layer_factory.hpp:77] Creating layer res3b1_branch2c
I0208 18:22:21.747622 20331 net.cpp:100] Creating Layer res3b1_branch2c
I0208 18:22:21.747632 20331 net.cpp:434] res3b1_branch2c <- res3b1_branch2b
I0208 18:22:21.747644 20331 net.cpp:408] res3b1_branch2c -> res3b1_branch2c
I0208 18:22:21.748668 20331 net.cpp:150] Setting up res3b1_branch2c
I0208 18:22:21.748688 20331 net.cpp:157] Top shape: 1 512 32 32 (524288)
I0208 18:22:21.748697 20331 net.cpp:165] Memory required for data: 189792256
I0208 18:22:21.748709 20331 layer_factory.hpp:77] Creating layer bn3b1_branch2c
I0208 18:22:21.748726 20331 net.cpp:100] Creating Layer bn3b1_branch2c
I0208 18:22:21.748736 20331 net.cpp:434] bn3b1_branch2c <- res3b1_branch2c
I0208 18:22:21.748775 20331 net.cpp:395] bn3b1_branch2c -> res3b1_branch2c (in-place)
I0208 18:22:21.749002 20331 net.cpp:150] Setting up bn3b1_branch2c
I0208 18:22:21.749017 20331 net.cpp:157] Top shape: 1 512 32 32 (524288)
I0208 18:22:21.749025 20331 net.cpp:165] Memory required for data: 191889408
I0208 18:22:21.749042 20331 layer_factory.hpp:77] Creating layer scale3b1_branch2c
I0208 18:22:21.749058 20331 net.cpp:100] Creating Layer scale3b1_branch2c
I0208 18:22:21.749068 20331 net.cpp:434] scale3b1_branch2c <- res3b1_branch2c
I0208 18:22:21.749080 20331 net.cpp:395] scale3b1_branch2c -> res3b1_branch2c (in-place)
I0208 18:22:21.749135 20331 layer_factory.hpp:77] Creating layer scale3b1_branch2c
I0208 18:22:21.749272 20331 net.cpp:150] Setting up scale3b1_branch2c
I0208 18:22:21.749287 20331 net.cpp:157] Top shape: 1 512 32 32 (524288)
I0208 18:22:21.749294 20331 net.cpp:165] Memory required for data: 193986560
I0208 18:22:21.749308 20331 layer_factory.hpp:77] Creating layer res3b1
I0208 18:22:21.749339 20331 net.cpp:100] Creating Layer res3b1
I0208 18:22:21.749351 20331 net.cpp:434] res3b1 <- res3a_res3a_relu_0_split_1
I0208 18:22:21.749361 20331 net.cpp:434] res3b1 <- res3b1_branch2c
I0208 18:22:21.749374 20331 net.cpp:408] res3b1 -> res3b1
I0208 18:22:21.749415 20331 net.cpp:150] Setting up res3b1
I0208 18:22:21.749428 20331 net.cpp:157] Top shape: 1 512 32 32 (524288)
I0208 18:22:21.749435 20331 net.cpp:165] Memory required for data: 196083712
I0208 18:22:21.749444 20331 layer_factory.hpp:77] Creating layer res3b1_relu
I0208 18:22:21.749457 20331 net.cpp:100] Creating Layer res3b1_relu
I0208 18:22:21.749465 20331 net.cpp:434] res3b1_relu <- res3b1
I0208 18:22:21.749476 20331 net.cpp:395] res3b1_relu -> res3b1 (in-place)
I0208 18:22:21.749825 20331 net.cpp:150] Setting up res3b1_relu
I0208 18:22:21.749845 20331 net.cpp:157] Top shape: 1 512 32 32 (524288)
I0208 18:22:21.749852 20331 net.cpp:165] Memory required for data: 198180864
I0208 18:22:21.749861 20331 layer_factory.hpp:77] Creating layer res3b1_res3b1_relu_0_split
I0208 18:22:21.749876 20331 net.cpp:100] Creating Layer res3b1_res3b1_relu_0_split
I0208 18:22:21.749883 20331 net.cpp:434] res3b1_res3b1_relu_0_split <- res3b1
I0208 18:22:21.749896 20331 net.cpp:408] res3b1_res3b1_relu_0_split -> res3b1_res3b1_relu_0_split_0
I0208 18:22:21.749912 20331 net.cpp:408] res3b1_res3b1_relu_0_split -> res3b1_res3b1_relu_0_split_1
I0208 18:22:21.749975 20331 net.cpp:150] Setting up res3b1_res3b1_relu_0_split
I0208 18:22:21.749989 20331 net.cpp:157] Top shape: 1 512 32 32 (524288)
I0208 18:22:21.749999 20331 net.cpp:157] Top shape: 1 512 32 32 (524288)
I0208 18:22:21.750006 20331 net.cpp:165] Memory required for data: 202375168
I0208 18:22:21.750015 20331 layer_factory.hpp:77] Creating layer res3b2_branch2a
I0208 18:22:21.750030 20331 net.cpp:100] Creating Layer res3b2_branch2a
I0208 18:22:21.750039 20331 net.cpp:434] res3b2_branch2a <- res3b1_res3b1_relu_0_split_0
I0208 18:22:21.750052 20331 net.cpp:408] res3b2_branch2a -> res3b2_branch2a
I0208 18:22:21.751216 20331 net.cpp:150] Setting up res3b2_branch2a
I0208 18:22:21.751237 20331 net.cpp:157] Top shape: 1 128 32 32 (131072)
I0208 18:22:21.751246 20331 net.cpp:165] Memory required for data: 202899456
I0208 18:22:21.751258 20331 layer_factory.hpp:77] Creating layer bn3b2_branch2a
I0208 18:22:21.751273 20331 net.cpp:100] Creating Layer bn3b2_branch2a
I0208 18:22:21.751283 20331 net.cpp:434] bn3b2_branch2a <- res3b2_branch2a
I0208 18:22:21.751296 20331 net.cpp:395] bn3b2_branch2a -> res3b2_branch2a (in-place)
I0208 18:22:21.751519 20331 net.cpp:150] Setting up bn3b2_branch2a
I0208 18:22:21.751533 20331 net.cpp:157] Top shape: 1 128 32 32 (131072)
I0208 18:22:21.751541 20331 net.cpp:165] Memory required for data: 203423744
I0208 18:22:21.751557 20331 layer_factory.hpp:77] Creating layer scale3b2_branch2a
I0208 18:22:21.751570 20331 net.cpp:100] Creating Layer scale3b2_branch2a
I0208 18:22:21.751581 20331 net.cpp:434] scale3b2_branch2a <- res3b2_branch2a
I0208 18:22:21.751595 20331 net.cpp:395] scale3b2_branch2a -> res3b2_branch2a (in-place)
I0208 18:22:21.751653 20331 layer_factory.hpp:77] Creating layer scale3b2_branch2a
I0208 18:22:21.751786 20331 net.cpp:150] Setting up scale3b2_branch2a
I0208 18:22:21.751801 20331 net.cpp:157] Top shape: 1 128 32 32 (131072)
I0208 18:22:21.751808 20331 net.cpp:165] Memory required for data: 203948032
I0208 18:22:21.751822 20331 layer_factory.hpp:77] Creating layer res3b2_branch2a_relu
I0208 18:22:21.751833 20331 net.cpp:100] Creating Layer res3b2_branch2a_relu
I0208 18:22:21.751842 20331 net.cpp:434] res3b2_branch2a_relu <- res3b2_branch2a
I0208 18:22:21.751853 20331 net.cpp:395] res3b2_branch2a_relu -> res3b2_branch2a (in-place)
I0208 18:22:21.752063 20331 net.cpp:150] Setting up res3b2_branch2a_relu
I0208 18:22:21.752079 20331 net.cpp:157] Top shape: 1 128 32 32 (131072)
I0208 18:22:21.752086 20331 net.cpp:165] Memory required for data: 204472320
I0208 18:22:21.752094 20331 layer_factory.hpp:77] Creating layer res3b2_branch2b
I0208 18:22:21.752111 20331 net.cpp:100] Creating Layer res3b2_branch2b
I0208 18:22:21.752120 20331 net.cpp:434] res3b2_branch2b <- res3b2_branch2a
I0208 18:22:21.752136 20331 net.cpp:408] res3b2_branch2b -> res3b2_branch2b
I0208 18:22:21.753840 20331 net.cpp:150] Setting up res3b2_branch2b
I0208 18:22:21.753865 20331 net.cpp:157] Top shape: 1 128 32 32 (131072)
I0208 18:22:21.753873 20331 net.cpp:165] Memory required for data: 204996608
I0208 18:22:21.753886 20331 layer_factory.hpp:77] Creating layer bn3b2_branch2b
I0208 18:22:21.753900 20331 net.cpp:100] Creating Layer bn3b2_branch2b
I0208 18:22:21.753908 20331 net.cpp:434] bn3b2_branch2b <- res3b2_branch2b
I0208 18:22:21.753921 20331 net.cpp:395] bn3b2_branch2b -> res3b2_branch2b (in-place)
I0208 18:22:21.754150 20331 net.cpp:150] Setting up bn3b2_branch2b
I0208 18:22:21.754165 20331 net.cpp:157] Top shape: 1 128 32 32 (131072)
I0208 18:22:21.754173 20331 net.cpp:165] Memory required for data: 205520896
I0208 18:22:21.754189 20331 layer_factory.hpp:77] Creating layer scale3b2_branch2b
I0208 18:22:21.754201 20331 net.cpp:100] Creating Layer scale3b2_branch2b
I0208 18:22:21.754212 20331 net.cpp:434] scale3b2_branch2b <- res3b2_branch2b
I0208 18:22:21.754225 20331 net.cpp:395] scale3b2_branch2b -> res3b2_branch2b (in-place)
I0208 18:22:21.754287 20331 layer_factory.hpp:77] Creating layer scale3b2_branch2b
I0208 18:22:21.754421 20331 net.cpp:150] Setting up scale3b2_branch2b
I0208 18:22:21.754436 20331 net.cpp:157] Top shape: 1 128 32 32 (131072)
I0208 18:22:21.754443 20331 net.cpp:165] Memory required for data: 206045184
I0208 18:22:21.754456 20331 layer_factory.hpp:77] Creating layer res3b2_branch2b_relu
I0208 18:22:21.754468 20331 net.cpp:100] Creating Layer res3b2_branch2b_relu
I0208 18:22:21.754477 20331 net.cpp:434] res3b2_branch2b_relu <- res3b2_branch2b
I0208 18:22:21.754489 20331 net.cpp:395] res3b2_branch2b_relu -> res3b2_branch2b (in-place)
I0208 18:22:21.754844 20331 net.cpp:150] Setting up res3b2_branch2b_relu
I0208 18:22:21.754863 20331 net.cpp:157] Top shape: 1 128 32 32 (131072)
I0208 18:22:21.754871 20331 net.cpp:165] Memory required for data: 206569472
I0208 18:22:21.754879 20331 layer_factory.hpp:77] Creating layer res3b2_branch2c
I0208 18:22:21.754897 20331 net.cpp:100] Creating Layer res3b2_branch2c
I0208 18:22:21.754906 20331 net.cpp:434] res3b2_branch2c <- res3b2_branch2b
I0208 18:22:21.754922 20331 net.cpp:408] res3b2_branch2c -> res3b2_branch2c
I0208 18:22:21.755941 20331 net.cpp:150] Setting up res3b2_branch2c
I0208 18:22:21.755962 20331 net.cpp:157] Top shape: 1 512 32 32 (524288)
I0208 18:22:21.755971 20331 net.cpp:165] Memory required for data: 208666624
I0208 18:22:21.755982 20331 layer_factory.hpp:77] Creating layer bn3b2_branch2c
I0208 18:22:21.756000 20331 net.cpp:100] Creating Layer bn3b2_branch2c
I0208 18:22:21.756009 20331 net.cpp:434] bn3b2_branch2c <- res3b2_branch2c
I0208 18:22:21.756021 20331 net.cpp:395] bn3b2_branch2c -> res3b2_branch2c (in-place)
I0208 18:22:21.756252 20331 net.cpp:150] Setting up bn3b2_branch2c
I0208 18:22:21.756266 20331 net.cpp:157] Top shape: 1 512 32 32 (524288)
I0208 18:22:21.756273 20331 net.cpp:165] Memory required for data: 210763776
I0208 18:22:21.756290 20331 layer_factory.hpp:77] Creating layer scale3b2_branch2c
I0208 18:22:21.756302 20331 net.cpp:100] Creating Layer scale3b2_branch2c
I0208 18:22:21.756314 20331 net.cpp:434] scale3b2_branch2c <- res3b2_branch2c
I0208 18:22:21.756327 20331 net.cpp:395] scale3b2_branch2c -> res3b2_branch2c (in-place)
I0208 18:22:21.756384 20331 layer_factory.hpp:77] Creating layer scale3b2_branch2c
I0208 18:22:21.756526 20331 net.cpp:150] Setting up scale3b2_branch2c
I0208 18:22:21.756541 20331 net.cpp:157] Top shape: 1 512 32 32 (524288)
I0208 18:22:21.756548 20331 net.cpp:165] Memory required for data: 212860928
I0208 18:22:21.756562 20331 layer_factory.hpp:77] Creating layer res3b2
I0208 18:22:21.756574 20331 net.cpp:100] Creating Layer res3b2
I0208 18:22:21.756582 20331 net.cpp:434] res3b2 <- res3b1_res3b1_relu_0_split_1
I0208 18:22:21.756592 20331 net.cpp:434] res3b2 <- res3b2_branch2c
I0208 18:22:21.756605 20331 net.cpp:408] res3b2 -> res3b2
I0208 18:22:21.756647 20331 net.cpp:150] Setting up res3b2
I0208 18:22:21.756660 20331 net.cpp:157] Top shape: 1 512 32 32 (524288)
I0208 18:22:21.756669 20331 net.cpp:165] Memory required for data: 214958080
I0208 18:22:21.756676 20331 layer_factory.hpp:77] Creating layer res3b2_relu
I0208 18:22:21.756690 20331 net.cpp:100] Creating Layer res3b2_relu
I0208 18:22:21.756698 20331 net.cpp:434] res3b2_relu <- res3b2
I0208 18:22:21.756709 20331 net.cpp:395] res3b2_relu -> res3b2 (in-place)
I0208 18:22:21.757073 20331 net.cpp:150] Setting up res3b2_relu
I0208 18:22:21.757092 20331 net.cpp:157] Top shape: 1 512 32 32 (524288)
I0208 18:22:21.757100 20331 net.cpp:165] Memory required for data: 217055232
I0208 18:22:21.757108 20331 layer_factory.hpp:77] Creating layer res3b2_res3b2_relu_0_split
I0208 18:22:21.757123 20331 net.cpp:100] Creating Layer res3b2_res3b2_relu_0_split
I0208 18:22:21.757131 20331 net.cpp:434] res3b2_res3b2_relu_0_split <- res3b2
I0208 18:22:21.757145 20331 net.cpp:408] res3b2_res3b2_relu_0_split -> res3b2_res3b2_relu_0_split_0
I0208 18:22:21.757161 20331 net.cpp:408] res3b2_res3b2_relu_0_split -> res3b2_res3b2_relu_0_split_1
I0208 18:22:21.757225 20331 net.cpp:150] Setting up res3b2_res3b2_relu_0_split
I0208 18:22:21.757241 20331 net.cpp:157] Top shape: 1 512 32 32 (524288)
I0208 18:22:21.757251 20331 net.cpp:157] Top shape: 1 512 32 32 (524288)
I0208 18:22:21.757257 20331 net.cpp:165] Memory required for data: 221249536
I0208 18:22:21.757266 20331 layer_factory.hpp:77] Creating layer res3b3_branch2a
I0208 18:22:21.757282 20331 net.cpp:100] Creating Layer res3b3_branch2a
I0208 18:22:21.757292 20331 net.cpp:434] res3b3_branch2a <- res3b2_res3b2_relu_0_split_0
I0208 18:22:21.757308 20331 net.cpp:408] res3b3_branch2a -> res3b3_branch2a
I0208 18:22:21.758985 20331 net.cpp:150] Setting up res3b3_branch2a
I0208 18:22:21.759006 20331 net.cpp:157] Top shape: 1 128 32 32 (131072)
I0208 18:22:21.759014 20331 net.cpp:165] Memory required for data: 221773824
I0208 18:22:21.759027 20331 layer_factory.hpp:77] Creating layer bn3b3_branch2a
I0208 18:22:21.759042 20331 net.cpp:100] Creating Layer bn3b3_branch2a
I0208 18:22:21.759052 20331 net.cpp:434] bn3b3_branch2a <- res3b3_branch2a
I0208 18:22:21.759064 20331 net.cpp:395] bn3b3_branch2a -> res3b3_branch2a (in-place)
I0208 18:22:21.759294 20331 net.cpp:150] Setting up bn3b3_branch2a
I0208 18:22:21.759308 20331 net.cpp:157] Top shape: 1 128 32 32 (131072)
I0208 18:22:21.759316 20331 net.cpp:165] Memory required for data: 222298112
I0208 18:22:21.759353 20331 layer_factory.hpp:77] Creating layer scale3b3_branch2a
I0208 18:22:21.759368 20331 net.cpp:100] Creating Layer scale3b3_branch2a
I0208 18:22:21.759377 20331 net.cpp:434] scale3b3_branch2a <- res3b3_branch2a
I0208 18:22:21.759388 20331 net.cpp:395] scale3b3_branch2a -> res3b3_branch2a (in-place)
I0208 18:22:21.759451 20331 layer_factory.hpp:77] Creating layer scale3b3_branch2a
I0208 18:22:21.759587 20331 net.cpp:150] Setting up scale3b3_branch2a
I0208 18:22:21.759600 20331 net.cpp:157] Top shape: 1 128 32 32 (131072)
I0208 18:22:21.759608 20331 net.cpp:165] Memory required for data: 222822400
I0208 18:22:21.759623 20331 layer_factory.hpp:77] Creating layer res3b3_branch2a_relu
I0208 18:22:21.759634 20331 net.cpp:100] Creating Layer res3b3_branch2a_relu
I0208 18:22:21.759641 20331 net.cpp:434] res3b3_branch2a_relu <- res3b3_branch2a
I0208 18:22:21.759651 20331 net.cpp:395] res3b3_branch2a_relu -> res3b3_branch2a (in-place)
I0208 18:22:21.759863 20331 net.cpp:150] Setting up res3b3_branch2a_relu
I0208 18:22:21.759879 20331 net.cpp:157] Top shape: 1 128 32 32 (131072)
I0208 18:22:21.759887 20331 net.cpp:165] Memory required for data: 223346688
I0208 18:22:21.759896 20331 layer_factory.hpp:77] Creating layer res3b3_branch2b
I0208 18:22:21.759912 20331 net.cpp:100] Creating Layer res3b3_branch2b
I0208 18:22:21.759922 20331 net.cpp:434] res3b3_branch2b <- res3b3_branch2a
I0208 18:22:21.759934 20331 net.cpp:408] res3b3_branch2b -> res3b3_branch2b
I0208 18:22:21.761668 20331 net.cpp:150] Setting up res3b3_branch2b
I0208 18:22:21.761689 20331 net.cpp:157] Top shape: 1 128 32 32 (131072)
I0208 18:22:21.761698 20331 net.cpp:165] Memory required for data: 223870976
I0208 18:22:21.761710 20331 layer_factory.hpp:77] Creating layer bn3b3_branch2b
I0208 18:22:21.761726 20331 net.cpp:100] Creating Layer bn3b3_branch2b
I0208 18:22:21.761735 20331 net.cpp:434] bn3b3_branch2b <- res3b3_branch2b
I0208 18:22:21.761747 20331 net.cpp:395] bn3b3_branch2b -> res3b3_branch2b (in-place)
I0208 18:22:21.761979 20331 net.cpp:150] Setting up bn3b3_branch2b
I0208 18:22:21.761994 20331 net.cpp:157] Top shape: 1 128 32 32 (131072)
I0208 18:22:21.762002 20331 net.cpp:165] Memory required for data: 224395264
I0208 18:22:21.762019 20331 layer_factory.hpp:77] Creating layer scale3b3_branch2b
I0208 18:22:21.762032 20331 net.cpp:100] Creating Layer scale3b3_branch2b
I0208 18:22:21.762042 20331 net.cpp:434] scale3b3_branch2b <- res3b3_branch2b
I0208 18:22:21.762054 20331 net.cpp:395] scale3b3_branch2b -> res3b3_branch2b (in-place)
I0208 18:22:21.762115 20331 layer_factory.hpp:77] Creating layer scale3b3_branch2b
I0208 18:22:21.762253 20331 net.cpp:150] Setting up scale3b3_branch2b
I0208 18:22:21.762269 20331 net.cpp:157] Top shape: 1 128 32 32 (131072)
I0208 18:22:21.762277 20331 net.cpp:165] Memory required for data: 224919552
I0208 18:22:21.762290 20331 layer_factory.hpp:77] Creating layer res3b3_branch2b_relu
I0208 18:22:21.762305 20331 net.cpp:100] Creating Layer res3b3_branch2b_relu
I0208 18:22:21.762315 20331 net.cpp:434] res3b3_branch2b_relu <- res3b3_branch2b
I0208 18:22:21.762326 20331 net.cpp:395] res3b3_branch2b_relu -> res3b3_branch2b (in-place)
I0208 18:22:21.762687 20331 net.cpp:150] Setting up res3b3_branch2b_relu
I0208 18:22:21.762706 20331 net.cpp:157] Top shape: 1 128 32 32 (131072)
I0208 18:22:21.762715 20331 net.cpp:165] Memory required for data: 225443840
I0208 18:22:21.762723 20331 layer_factory.hpp:77] Creating layer res3b3_branch2c
I0208 18:22:21.762742 20331 net.cpp:100] Creating Layer res3b3_branch2c
I0208 18:22:21.762750 20331 net.cpp:434] res3b3_branch2c <- res3b3_branch2b
I0208 18:22:21.762763 20331 net.cpp:408] res3b3_branch2c -> res3b3_branch2c
I0208 18:22:21.763808 20331 net.cpp:150] Setting up res3b3_branch2c
I0208 18:22:21.763828 20331 net.cpp:157] Top shape: 1 512 32 32 (524288)
I0208 18:22:21.763836 20331 net.cpp:165] Memory required for data: 227540992
I0208 18:22:21.763849 20331 layer_factory.hpp:77] Creating layer bn3b3_branch2c
I0208 18:22:21.763864 20331 net.cpp:100] Creating Layer bn3b3_branch2c
I0208 18:22:21.763873 20331 net.cpp:434] bn3b3_branch2c <- res3b3_branch2c
I0208 18:22:21.763885 20331 net.cpp:395] bn3b3_branch2c -> res3b3_branch2c (in-place)
I0208 18:22:21.764113 20331 net.cpp:150] Setting up bn3b3_branch2c
I0208 18:22:21.764128 20331 net.cpp:157] Top shape: 1 512 32 32 (524288)
I0208 18:22:21.764135 20331 net.cpp:165] Memory required for data: 229638144
I0208 18:22:21.764156 20331 layer_factory.hpp:77] Creating layer scale3b3_branch2c
I0208 18:22:21.764171 20331 net.cpp:100] Creating Layer scale3b3_branch2c
I0208 18:22:21.764180 20331 net.cpp:434] scale3b3_branch2c <- res3b3_branch2c
I0208 18:22:21.764191 20331 net.cpp:395] scale3b3_branch2c -> res3b3_branch2c (in-place)
I0208 18:22:21.764252 20331 layer_factory.hpp:77] Creating layer scale3b3_branch2c
I0208 18:22:21.764394 20331 net.cpp:150] Setting up scale3b3_branch2c
I0208 18:22:21.764410 20331 net.cpp:157] Top shape: 1 512 32 32 (524288)
I0208 18:22:21.764416 20331 net.cpp:165] Memory required for data: 231735296
I0208 18:22:21.764430 20331 layer_factory.hpp:77] Creating layer res3b3
I0208 18:22:21.764441 20331 net.cpp:100] Creating Layer res3b3
I0208 18:22:21.764449 20331 net.cpp:434] res3b3 <- res3b2_res3b2_relu_0_split_1
I0208 18:22:21.764459 20331 net.cpp:434] res3b3 <- res3b3_branch2c
I0208 18:22:21.764472 20331 net.cpp:408] res3b3 -> res3b3
I0208 18:22:21.764514 20331 net.cpp:150] Setting up res3b3
I0208 18:22:21.764530 20331 net.cpp:157] Top shape: 1 512 32 32 (524288)
I0208 18:22:21.764539 20331 net.cpp:165] Memory required for data: 233832448
I0208 18:22:21.764545 20331 layer_factory.hpp:77] Creating layer res3b3_relu
I0208 18:22:21.764556 20331 net.cpp:100] Creating Layer res3b3_relu
I0208 18:22:21.764564 20331 net.cpp:434] res3b3_relu <- res3b3
I0208 18:22:21.764575 20331 net.cpp:395] res3b3_relu -> res3b3 (in-place)
I0208 18:22:21.764947 20331 net.cpp:150] Setting up res3b3_relu
I0208 18:22:21.764966 20331 net.cpp:157] Top shape: 1 512 32 32 (524288)
I0208 18:22:21.764976 20331 net.cpp:165] Memory required for data: 235929600
I0208 18:22:21.764983 20331 layer_factory.hpp:77] Creating layer res3b3_res3b3_relu_0_split
I0208 18:22:21.764994 20331 net.cpp:100] Creating Layer res3b3_res3b3_relu_0_split
I0208 18:22:21.765002 20331 net.cpp:434] res3b3_res3b3_relu_0_split <- res3b3
I0208 18:22:21.765014 20331 net.cpp:408] res3b3_res3b3_relu_0_split -> res3b3_res3b3_relu_0_split_0
I0208 18:22:21.765034 20331 net.cpp:408] res3b3_res3b3_relu_0_split -> res3b3_res3b3_relu_0_split_1
I0208 18:22:21.765101 20331 net.cpp:150] Setting up res3b3_res3b3_relu_0_split
I0208 18:22:21.765115 20331 net.cpp:157] Top shape: 1 512 32 32 (524288)
I0208 18:22:21.765125 20331 net.cpp:157] Top shape: 1 512 32 32 (524288)
I0208 18:22:21.765133 20331 net.cpp:165] Memory required for data: 240123904
I0208 18:22:21.765141 20331 layer_factory.hpp:77] Creating layer res3b4_branch2a
I0208 18:22:21.765157 20331 net.cpp:100] Creating Layer res3b4_branch2a
I0208 18:22:21.765167 20331 net.cpp:434] res3b4_branch2a <- res3b3_res3b3_relu_0_split_0
I0208 18:22:21.765182 20331 net.cpp:408] res3b4_branch2a -> res3b4_branch2a
I0208 18:22:21.766533 20331 net.cpp:150] Setting up res3b4_branch2a
I0208 18:22:21.766556 20331 net.cpp:157] Top shape: 1 128 32 32 (131072)
I0208 18:22:21.766566 20331 net.cpp:165] Memory required for data: 240648192
I0208 18:22:21.766577 20331 layer_factory.hpp:77] Creating layer bn3b4_branch2a
I0208 18:22:21.766590 20331 net.cpp:100] Creating Layer bn3b4_branch2a
I0208 18:22:21.766600 20331 net.cpp:434] bn3b4_branch2a <- res3b4_branch2a
I0208 18:22:21.766614 20331 net.cpp:395] bn3b4_branch2a -> res3b4_branch2a (in-place)
I0208 18:22:21.766849 20331 net.cpp:150] Setting up bn3b4_branch2a
I0208 18:22:21.766863 20331 net.cpp:157] Top shape: 1 128 32 32 (131072)
I0208 18:22:21.766871 20331 net.cpp:165] Memory required for data: 241172480
I0208 18:22:21.766887 20331 layer_factory.hpp:77] Creating layer scale3b4_branch2a
I0208 18:22:21.766899 20331 net.cpp:100] Creating Layer scale3b4_branch2a
I0208 18:22:21.766911 20331 net.cpp:434] scale3b4_branch2a <- res3b4_branch2a
I0208 18:22:21.766922 20331 net.cpp:395] scale3b4_branch2a -> res3b4_branch2a (in-place)
I0208 18:22:21.766983 20331 layer_factory.hpp:77] Creating layer scale3b4_branch2a
I0208 18:22:21.767118 20331 net.cpp:150] Setting up scale3b4_branch2a
I0208 18:22:21.767133 20331 net.cpp:157] Top shape: 1 128 32 32 (131072)
I0208 18:22:21.767140 20331 net.cpp:165] Memory required for data: 241696768
I0208 18:22:21.767153 20331 layer_factory.hpp:77] Creating layer res3b4_branch2a_relu
I0208 18:22:21.767165 20331 net.cpp:100] Creating Layer res3b4_branch2a_relu
I0208 18:22:21.767174 20331 net.cpp:434] res3b4_branch2a_relu <- res3b4_branch2a
I0208 18:22:21.767186 20331 net.cpp:395] res3b4_branch2a_relu -> res3b4_branch2a (in-place)
I0208 18:22:21.767402 20331 net.cpp:150] Setting up res3b4_branch2a_relu
I0208 18:22:21.767419 20331 net.cpp:157] Top shape: 1 128 32 32 (131072)
I0208 18:22:21.767427 20331 net.cpp:165] Memory required for data: 242221056
I0208 18:22:21.767434 20331 layer_factory.hpp:77] Creating layer res3b4_branch2b
I0208 18:22:21.767449 20331 net.cpp:100] Creating Layer res3b4_branch2b
I0208 18:22:21.767457 20331 net.cpp:434] res3b4_branch2b <- res3b4_branch2a
I0208 18:22:21.767473 20331 net.cpp:408] res3b4_branch2b -> res3b4_branch2b
I0208 18:22:21.769202 20331 net.cpp:150] Setting up res3b4_branch2b
I0208 18:22:21.769223 20331 net.cpp:157] Top shape: 1 128 32 32 (131072)
I0208 18:22:21.769232 20331 net.cpp:165] Memory required for data: 242745344
I0208 18:22:21.769244 20331 layer_factory.hpp:77] Creating layer bn3b4_branch2b
I0208 18:22:21.769260 20331 net.cpp:100] Creating Layer bn3b4_branch2b
I0208 18:22:21.769269 20331 net.cpp:434] bn3b4_branch2b <- res3b4_branch2b
I0208 18:22:21.769281 20331 net.cpp:395] bn3b4_branch2b -> res3b4_branch2b (in-place)
I0208 18:22:21.769517 20331 net.cpp:150] Setting up bn3b4_branch2b
I0208 18:22:21.769532 20331 net.cpp:157] Top shape: 1 128 32 32 (131072)
I0208 18:22:21.769539 20331 net.cpp:165] Memory required for data: 243269632
I0208 18:22:21.769559 20331 layer_factory.hpp:77] Creating layer scale3b4_branch2b
I0208 18:22:21.769575 20331 net.cpp:100] Creating Layer scale3b4_branch2b
I0208 18:22:21.769584 20331 net.cpp:434] scale3b4_branch2b <- res3b4_branch2b
I0208 18:22:21.769596 20331 net.cpp:395] scale3b4_branch2b -> res3b4_branch2b (in-place)
I0208 18:22:21.769661 20331 layer_factory.hpp:77] Creating layer scale3b4_branch2b
I0208 18:22:21.769800 20331 net.cpp:150] Setting up scale3b4_branch2b
I0208 18:22:21.769815 20331 net.cpp:157] Top shape: 1 128 32 32 (131072)
I0208 18:22:21.769824 20331 net.cpp:165] Memory required for data: 243793920
I0208 18:22:21.769836 20331 layer_factory.hpp:77] Creating layer res3b4_branch2b_relu
I0208 18:22:21.769847 20331 net.cpp:100] Creating Layer res3b4_branch2b_relu
I0208 18:22:21.769855 20331 net.cpp:434] res3b4_branch2b_relu <- res3b4_branch2b
I0208 18:22:21.769868 20331 net.cpp:395] res3b4_branch2b_relu -> res3b4_branch2b (in-place)
I0208 18:22:21.770225 20331 net.cpp:150] Setting up res3b4_branch2b_relu
I0208 18:22:21.770243 20331 net.cpp:157] Top shape: 1 128 32 32 (131072)
I0208 18:22:21.770252 20331 net.cpp:165] Memory required for data: 244318208
I0208 18:22:21.770261 20331 layer_factory.hpp:77] Creating layer res3b4_branch2c
I0208 18:22:21.770277 20331 net.cpp:100] Creating Layer res3b4_branch2c
I0208 18:22:21.770287 20331 net.cpp:434] res3b4_branch2c <- res3b4_branch2b
I0208 18:22:21.770299 20331 net.cpp:408] res3b4_branch2c -> res3b4_branch2c
I0208 18:22:21.771366 20331 net.cpp:150] Setting up res3b4_branch2c
I0208 18:22:21.771386 20331 net.cpp:157] Top shape: 1 512 32 32 (524288)
I0208 18:22:21.771395 20331 net.cpp:165] Memory required for data: 246415360
I0208 18:22:21.771407 20331 layer_factory.hpp:77] Creating layer bn3b4_branch2c
I0208 18:22:21.771422 20331 net.cpp:100] Creating Layer bn3b4_branch2c
I0208 18:22:21.771432 20331 net.cpp:434] bn3b4_branch2c <- res3b4_branch2c
I0208 18:22:21.771445 20331 net.cpp:395] bn3b4_branch2c -> res3b4_branch2c (in-place)
I0208 18:22:21.771682 20331 net.cpp:150] Setting up bn3b4_branch2c
I0208 18:22:21.771697 20331 net.cpp:157] Top shape: 1 512 32 32 (524288)
I0208 18:22:21.771703 20331 net.cpp:165] Memory required for data: 248512512
I0208 18:22:21.771720 20331 layer_factory.hpp:77] Creating layer scale3b4_branch2c
I0208 18:22:21.771735 20331 net.cpp:100] Creating Layer scale3b4_branch2c
I0208 18:22:21.771746 20331 net.cpp:434] scale3b4_branch2c <- res3b4_branch2c
I0208 18:22:21.771759 20331 net.cpp:395] scale3b4_branch2c -> res3b4_branch2c (in-place)
I0208 18:22:21.771816 20331 layer_factory.hpp:77] Creating layer scale3b4_branch2c
I0208 18:22:21.771956 20331 net.cpp:150] Setting up scale3b4_branch2c
I0208 18:22:21.771971 20331 net.cpp:157] Top shape: 1 512 32 32 (524288)
I0208 18:22:21.771978 20331 net.cpp:165] Memory required for data: 250609664
I0208 18:22:21.771991 20331 layer_factory.hpp:77] Creating layer res3b4
I0208 18:22:21.772009 20331 net.cpp:100] Creating Layer res3b4
I0208 18:22:21.772020 20331 net.cpp:434] res3b4 <- res3b3_res3b3_relu_0_split_1
I0208 18:22:21.772030 20331 net.cpp:434] res3b4 <- res3b4_branch2c
I0208 18:22:21.772044 20331 net.cpp:408] res3b4 -> res3b4
I0208 18:22:21.772088 20331 net.cpp:150] Setting up res3b4
I0208 18:22:21.772100 20331 net.cpp:157] Top shape: 1 512 32 32 (524288)
I0208 18:22:21.772109 20331 net.cpp:165] Memory required for data: 252706816
I0208 18:22:21.772116 20331 layer_factory.hpp:77] Creating layer res3b4_relu
I0208 18:22:21.772130 20331 net.cpp:100] Creating Layer res3b4_relu
I0208 18:22:21.772138 20331 net.cpp:434] res3b4_relu <- res3b4
I0208 18:22:21.772150 20331 net.cpp:395] res3b4_relu -> res3b4 (in-place)
I0208 18:22:21.772505 20331 net.cpp:150] Setting up res3b4_relu
I0208 18:22:21.772523 20331 net.cpp:157] Top shape: 1 512 32 32 (524288)
I0208 18:22:21.772531 20331 net.cpp:165] Memory required for data: 254803968
I0208 18:22:21.772541 20331 layer_factory.hpp:77] Creating layer res3b4_res3b4_relu_0_split
I0208 18:22:21.772554 20331 net.cpp:100] Creating Layer res3b4_res3b4_relu_0_split
I0208 18:22:21.772563 20331 net.cpp:434] res3b4_res3b4_relu_0_split <- res3b4
I0208 18:22:21.772575 20331 net.cpp:408] res3b4_res3b4_relu_0_split -> res3b4_res3b4_relu_0_split_0
I0208 18:22:21.772589 20331 net.cpp:408] res3b4_res3b4_relu_0_split -> res3b4_res3b4_relu_0_split_1
I0208 18:22:21.772658 20331 net.cpp:150] Setting up res3b4_res3b4_relu_0_split
I0208 18:22:21.772672 20331 net.cpp:157] Top shape: 1 512 32 32 (524288)
I0208 18:22:21.772682 20331 net.cpp:157] Top shape: 1 512 32 32 (524288)
I0208 18:22:21.772689 20331 net.cpp:165] Memory required for data: 258998272
I0208 18:22:21.772697 20331 layer_factory.hpp:77] Creating layer res3b5_branch2a
I0208 18:22:21.772713 20331 net.cpp:100] Creating Layer res3b5_branch2a
I0208 18:22:21.772725 20331 net.cpp:434] res3b5_branch2a <- res3b4_res3b4_relu_0_split_0
I0208 18:22:21.772738 20331 net.cpp:408] res3b5_branch2a -> res3b5_branch2a
I0208 18:22:21.774413 20331 net.cpp:150] Setting up res3b5_branch2a
I0208 18:22:21.774435 20331 net.cpp:157] Top shape: 1 128 32 32 (131072)
I0208 18:22:21.774443 20331 net.cpp:165] Memory required for data: 259522560
I0208 18:22:21.774456 20331 layer_factory.hpp:77] Creating layer bn3b5_branch2a
I0208 18:22:21.774472 20331 net.cpp:100] Creating Layer bn3b5_branch2a
I0208 18:22:21.774482 20331 net.cpp:434] bn3b5_branch2a <- res3b5_branch2a
I0208 18:22:21.774497 20331 net.cpp:395] bn3b5_branch2a -> res3b5_branch2a (in-place)
I0208 18:22:21.774737 20331 net.cpp:150] Setting up bn3b5_branch2a
I0208 18:22:21.774752 20331 net.cpp:157] Top shape: 1 128 32 32 (131072)
I0208 18:22:21.774760 20331 net.cpp:165] Memory required for data: 260046848
I0208 18:22:21.774777 20331 layer_factory.hpp:77] Creating layer scale3b5_branch2a
I0208 18:22:21.774806 20331 net.cpp:100] Creating Layer scale3b5_branch2a
I0208 18:22:21.774816 20331 net.cpp:434] scale3b5_branch2a <- res3b5_branch2a
I0208 18:22:21.774828 20331 net.cpp:395] scale3b5_branch2a -> res3b5_branch2a (in-place)
I0208 18:22:21.774894 20331 layer_factory.hpp:77] Creating layer scale3b5_branch2a
I0208 18:22:21.775035 20331 net.cpp:150] Setting up scale3b5_branch2a
I0208 18:22:21.775051 20331 net.cpp:157] Top shape: 1 128 32 32 (131072)
I0208 18:22:21.775058 20331 net.cpp:165] Memory required for data: 260571136
I0208 18:22:21.775073 20331 layer_factory.hpp:77] Creating layer res3b5_branch2a_relu
I0208 18:22:21.775084 20331 net.cpp:100] Creating Layer res3b5_branch2a_relu
I0208 18:22:21.775092 20331 net.cpp:434] res3b5_branch2a_relu <- res3b5_branch2a
I0208 18:22:21.775105 20331 net.cpp:395] res3b5_branch2a_relu -> res3b5_branch2a (in-place)
I0208 18:22:21.775326 20331 net.cpp:150] Setting up res3b5_branch2a_relu
I0208 18:22:21.775341 20331 net.cpp:157] Top shape: 1 128 32 32 (131072)
I0208 18:22:21.775349 20331 net.cpp:165] Memory required for data: 261095424
I0208 18:22:21.775357 20331 layer_factory.hpp:77] Creating layer res3b5_branch2b
I0208 18:22:21.775374 20331 net.cpp:100] Creating Layer res3b5_branch2b
I0208 18:22:21.775383 20331 net.cpp:434] res3b5_branch2b <- res3b5_branch2a
I0208 18:22:21.775400 20331 net.cpp:408] res3b5_branch2b -> res3b5_branch2b
I0208 18:22:21.777119 20331 net.cpp:150] Setting up res3b5_branch2b
I0208 18:22:21.777140 20331 net.cpp:157] Top shape: 1 128 32 32 (131072)
I0208 18:22:21.777149 20331 net.cpp:165] Memory required for data: 261619712
I0208 18:22:21.777161 20331 layer_factory.hpp:77] Creating layer bn3b5_branch2b
I0208 18:22:21.777174 20331 net.cpp:100] Creating Layer bn3b5_branch2b
I0208 18:22:21.777182 20331 net.cpp:434] bn3b5_branch2b <- res3b5_branch2b
I0208 18:22:21.777197 20331 net.cpp:395] bn3b5_branch2b -> res3b5_branch2b (in-place)
I0208 18:22:21.777443 20331 net.cpp:150] Setting up bn3b5_branch2b
I0208 18:22:21.777459 20331 net.cpp:157] Top shape: 1 128 32 32 (131072)
I0208 18:22:21.777467 20331 net.cpp:165] Memory required for data: 262144000
I0208 18:22:21.777483 20331 layer_factory.hpp:77] Creating layer scale3b5_branch2b
I0208 18:22:21.777499 20331 net.cpp:100] Creating Layer scale3b5_branch2b
I0208 18:22:21.777510 20331 net.cpp:434] scale3b5_branch2b <- res3b5_branch2b
I0208 18:22:21.777523 20331 net.cpp:395] scale3b5_branch2b -> res3b5_branch2b (in-place)
I0208 18:22:21.777588 20331 layer_factory.hpp:77] Creating layer scale3b5_branch2b
I0208 18:22:21.777734 20331 net.cpp:150] Setting up scale3b5_branch2b
I0208 18:22:21.777750 20331 net.cpp:157] Top shape: 1 128 32 32 (131072)
I0208 18:22:21.777756 20331 net.cpp:165] Memory required for data: 262668288
I0208 18:22:21.777770 20331 layer_factory.hpp:77] Creating layer res3b5_branch2b_relu
I0208 18:22:21.777784 20331 net.cpp:100] Creating Layer res3b5_branch2b_relu
I0208 18:22:21.777796 20331 net.cpp:434] res3b5_branch2b_relu <- res3b5_branch2b
I0208 18:22:21.777806 20331 net.cpp:395] res3b5_branch2b_relu -> res3b5_branch2b (in-place)
I0208 18:22:21.778170 20331 net.cpp:150] Setting up res3b5_branch2b_relu
I0208 18:22:21.778190 20331 net.cpp:157] Top shape: 1 128 32 32 (131072)
I0208 18:22:21.778198 20331 net.cpp:165] Memory required for data: 263192576
I0208 18:22:21.778206 20331 layer_factory.hpp:77] Creating layer res3b5_branch2c
I0208 18:22:21.778226 20331 net.cpp:100] Creating Layer res3b5_branch2c
I0208 18:22:21.778235 20331 net.cpp:434] res3b5_branch2c <- res3b5_branch2b
I0208 18:22:21.778249 20331 net.cpp:408] res3b5_branch2c -> res3b5_branch2c
I0208 18:22:21.779356 20331 net.cpp:150] Setting up res3b5_branch2c
I0208 18:22:21.779376 20331 net.cpp:157] Top shape: 1 512 32 32 (524288)
I0208 18:22:21.779384 20331 net.cpp:165] Memory required for data: 265289728
I0208 18:22:21.779397 20331 layer_factory.hpp:77] Creating layer bn3b5_branch2c
I0208 18:22:21.779413 20331 net.cpp:100] Creating Layer bn3b5_branch2c
I0208 18:22:21.779422 20331 net.cpp:434] bn3b5_branch2c <- res3b5_branch2c
I0208 18:22:21.779434 20331 net.cpp:395] bn3b5_branch2c -> res3b5_branch2c (in-place)
I0208 18:22:21.779685 20331 net.cpp:150] Setting up bn3b5_branch2c
I0208 18:22:21.779700 20331 net.cpp:157] Top shape: 1 512 32 32 (524288)
I0208 18:22:21.779708 20331 net.cpp:165] Memory required for data: 267386880
I0208 18:22:21.779724 20331 layer_factory.hpp:77] Creating layer scale3b5_branch2c
I0208 18:22:21.779741 20331 net.cpp:100] Creating Layer scale3b5_branch2c
I0208 18:22:21.779752 20331 net.cpp:434] scale3b5_branch2c <- res3b5_branch2c
I0208 18:22:21.779762 20331 net.cpp:395] scale3b5_branch2c -> res3b5_branch2c (in-place)
I0208 18:22:21.779822 20331 layer_factory.hpp:77] Creating layer scale3b5_branch2c
I0208 18:22:21.779968 20331 net.cpp:150] Setting up scale3b5_branch2c
I0208 18:22:21.779983 20331 net.cpp:157] Top shape: 1 512 32 32 (524288)
I0208 18:22:21.779990 20331 net.cpp:165] Memory required for data: 269484032
I0208 18:22:21.780004 20331 layer_factory.hpp:77] Creating layer res3b5
I0208 18:22:21.780014 20331 net.cpp:100] Creating Layer res3b5
I0208 18:22:21.780024 20331 net.cpp:434] res3b5 <- res3b4_res3b4_relu_0_split_1
I0208 18:22:21.780032 20331 net.cpp:434] res3b5 <- res3b5_branch2c
I0208 18:22:21.780043 20331 net.cpp:408] res3b5 -> res3b5
I0208 18:22:21.780086 20331 net.cpp:150] Setting up res3b5
I0208 18:22:21.780100 20331 net.cpp:157] Top shape: 1 512 32 32 (524288)
I0208 18:22:21.780107 20331 net.cpp:165] Memory required for data: 271581184
I0208 18:22:21.780115 20331 layer_factory.hpp:77] Creating layer res3b5_relu
I0208 18:22:21.780129 20331 net.cpp:100] Creating Layer res3b5_relu
I0208 18:22:21.780138 20331 net.cpp:434] res3b5_relu <- res3b5
I0208 18:22:21.780148 20331 net.cpp:395] res3b5_relu -> res3b5 (in-place)
I0208 18:22:21.780508 20331 net.cpp:150] Setting up res3b5_relu
I0208 18:22:21.780529 20331 net.cpp:157] Top shape: 1 512 32 32 (524288)
I0208 18:22:21.780537 20331 net.cpp:165] Memory required for data: 273678336
I0208 18:22:21.780545 20331 layer_factory.hpp:77] Creating layer res3b5_res3b5_relu_0_split
I0208 18:22:21.780556 20331 net.cpp:100] Creating Layer res3b5_res3b5_relu_0_split
I0208 18:22:21.780565 20331 net.cpp:434] res3b5_res3b5_relu_0_split <- res3b5
I0208 18:22:21.780576 20331 net.cpp:408] res3b5_res3b5_relu_0_split -> res3b5_res3b5_relu_0_split_0
I0208 18:22:21.780602 20331 net.cpp:408] res3b5_res3b5_relu_0_split -> res3b5_res3b5_relu_0_split_1
I0208 18:22:21.780673 20331 net.cpp:150] Setting up res3b5_res3b5_relu_0_split
I0208 18:22:21.780688 20331 net.cpp:157] Top shape: 1 512 32 32 (524288)
I0208 18:22:21.780697 20331 net.cpp:157] Top shape: 1 512 32 32 (524288)
I0208 18:22:21.780704 20331 net.cpp:165] Memory required for data: 277872640
I0208 18:22:21.780712 20331 layer_factory.hpp:77] Creating layer res3b6_branch2a
I0208 18:22:21.780730 20331 net.cpp:100] Creating Layer res3b6_branch2a
I0208 18:22:21.780752 20331 net.cpp:434] res3b6_branch2a <- res3b5_res3b5_relu_0_split_0
I0208 18:22:21.780769 20331 net.cpp:408] res3b6_branch2a -> res3b6_branch2a
I0208 18:22:21.781987 20331 net.cpp:150] Setting up res3b6_branch2a
I0208 18:22:21.782011 20331 net.cpp:157] Top shape: 1 128 32 32 (131072)
I0208 18:22:21.782018 20331 net.cpp:165] Memory required for data: 278396928
I0208 18:22:21.782030 20331 layer_factory.hpp:77] Creating layer bn3b6_branch2a
I0208 18:22:21.782043 20331 net.cpp:100] Creating Layer bn3b6_branch2a
I0208 18:22:21.782052 20331 net.cpp:434] bn3b6_branch2a <- res3b6_branch2a
I0208 18:22:21.782068 20331 net.cpp:395] bn3b6_branch2a -> res3b6_branch2a (in-place)
I0208 18:22:21.782307 20331 net.cpp:150] Setting up bn3b6_branch2a
I0208 18:22:21.782322 20331 net.cpp:157] Top shape: 1 128 32 32 (131072)
I0208 18:22:21.782330 20331 net.cpp:165] Memory required for data: 278921216
I0208 18:22:21.782346 20331 layer_factory.hpp:77] Creating layer scale3b6_branch2a
I0208 18:22:21.782359 20331 net.cpp:100] Creating Layer scale3b6_branch2a
I0208 18:22:21.782367 20331 net.cpp:434] scale3b6_branch2a <- res3b6_branch2a
I0208 18:22:21.782378 20331 net.cpp:395] scale3b6_branch2a -> res3b6_branch2a (in-place)
I0208 18:22:21.782443 20331 layer_factory.hpp:77] Creating layer scale3b6_branch2a
I0208 18:22:21.782585 20331 net.cpp:150] Setting up scale3b6_branch2a
I0208 18:22:21.782600 20331 net.cpp:157] Top shape: 1 128 32 32 (131072)
I0208 18:22:21.782608 20331 net.cpp:165] Memory required for data: 279445504
I0208 18:22:21.782621 20331 layer_factory.hpp:77] Creating layer res3b6_branch2a_relu
I0208 18:22:21.782634 20331 net.cpp:100] Creating Layer res3b6_branch2a_relu
I0208 18:22:21.782640 20331 net.cpp:434] res3b6_branch2a_relu <- res3b6_branch2a
I0208 18:22:21.782654 20331 net.cpp:395] res3b6_branch2a_relu -> res3b6_branch2a (in-place)
I0208 18:22:21.782872 20331 net.cpp:150] Setting up res3b6_branch2a_relu
I0208 18:22:21.782888 20331 net.cpp:157] Top shape: 1 128 32 32 (131072)
I0208 18:22:21.782897 20331 net.cpp:165] Memory required for data: 279969792
I0208 18:22:21.782904 20331 layer_factory.hpp:77] Creating layer res3b6_branch2b
I0208 18:22:21.782922 20331 net.cpp:100] Creating Layer res3b6_branch2b
I0208 18:22:21.782932 20331 net.cpp:434] res3b6_branch2b <- res3b6_branch2a
I0208 18:22:21.782943 20331 net.cpp:408] res3b6_branch2b -> res3b6_branch2b
I0208 18:22:21.784662 20331 net.cpp:150] Setting up res3b6_branch2b
I0208 18:22:21.784682 20331 net.cpp:157] Top shape: 1 128 32 32 (131072)
I0208 18:22:21.784690 20331 net.cpp:165] Memory required for data: 280494080
I0208 18:22:21.784703 20331 layer_factory.hpp:77] Creating layer bn3b6_branch2b
I0208 18:22:21.784718 20331 net.cpp:100] Creating Layer bn3b6_branch2b
I0208 18:22:21.784728 20331 net.cpp:434] bn3b6_branch2b <- res3b6_branch2b
I0208 18:22:21.784739 20331 net.cpp:395] bn3b6_branch2b -> res3b6_branch2b (in-place)
I0208 18:22:21.784993 20331 net.cpp:150] Setting up bn3b6_branch2b
I0208 18:22:21.785008 20331 net.cpp:157] Top shape: 1 128 32 32 (131072)
I0208 18:22:21.785017 20331 net.cpp:165] Memory required for data: 281018368
I0208 18:22:21.785035 20331 layer_factory.hpp:77] Creating layer scale3b6_branch2b
I0208 18:22:21.785051 20331 net.cpp:100] Creating Layer scale3b6_branch2b
I0208 18:22:21.785063 20331 net.cpp:434] scale3b6_branch2b <- res3b6_branch2b
I0208 18:22:21.785075 20331 net.cpp:395] scale3b6_branch2b -> res3b6_branch2b (in-place)
I0208 18:22:21.785140 20331 layer_factory.hpp:77] Creating layer scale3b6_branch2b
I0208 18:22:21.785285 20331 net.cpp:150] Setting up scale3b6_branch2b
I0208 18:22:21.785300 20331 net.cpp:157] Top shape: 1 128 32 32 (131072)
I0208 18:22:21.785308 20331 net.cpp:165] Memory required for data: 281542656
I0208 18:22:21.785322 20331 layer_factory.hpp:77] Creating layer res3b6_branch2b_relu
I0208 18:22:21.785332 20331 net.cpp:100] Creating Layer res3b6_branch2b_relu
I0208 18:22:21.785341 20331 net.cpp:434] res3b6_branch2b_relu <- res3b6_branch2b
I0208 18:22:21.785357 20331 net.cpp:395] res3b6_branch2b_relu -> res3b6_branch2b (in-place)
I0208 18:22:21.785723 20331 net.cpp:150] Setting up res3b6_branch2b_relu
I0208 18:22:21.785742 20331 net.cpp:157] Top shape: 1 128 32 32 (131072)
I0208 18:22:21.785750 20331 net.cpp:165] Memory required for data: 282066944
I0208 18:22:21.785759 20331 layer_factory.hpp:77] Creating layer res3b6_branch2c
I0208 18:22:21.785776 20331 net.cpp:100] Creating Layer res3b6_branch2c
I0208 18:22:21.785785 20331 net.cpp:434] res3b6_branch2c <- res3b6_branch2b
I0208 18:22:21.785802 20331 net.cpp:408] res3b6_branch2c -> res3b6_branch2c
I0208 18:22:21.787050 20331 net.cpp:150] Setting up res3b6_branch2c
I0208 18:22:21.787070 20331 net.cpp:157] Top shape: 1 512 32 32 (524288)
I0208 18:22:21.787078 20331 net.cpp:165] Memory required for data: 284164096
I0208 18:22:21.787091 20331 layer_factory.hpp:77] Creating layer bn3b6_branch2c
I0208 18:22:21.787106 20331 net.cpp:100] Creating Layer bn3b6_branch2c
I0208 18:22:21.787116 20331 net.cpp:434] bn3b6_branch2c <- res3b6_branch2c
I0208 18:22:21.787127 20331 net.cpp:395] bn3b6_branch2c -> res3b6_branch2c (in-place)
I0208 18:22:21.787379 20331 net.cpp:150] Setting up bn3b6_branch2c
I0208 18:22:21.787395 20331 net.cpp:157] Top shape: 1 512 32 32 (524288)
I0208 18:22:21.787401 20331 net.cpp:165] Memory required for data: 286261248
I0208 18:22:21.787418 20331 layer_factory.hpp:77] Creating layer scale3b6_branch2c
I0208 18:22:21.787431 20331 net.cpp:100] Creating Layer scale3b6_branch2c
I0208 18:22:21.787441 20331 net.cpp:434] scale3b6_branch2c <- res3b6_branch2c
I0208 18:22:21.787457 20331 net.cpp:395] scale3b6_branch2c -> res3b6_branch2c (in-place)
I0208 18:22:21.787518 20331 layer_factory.hpp:77] Creating layer scale3b6_branch2c
I0208 18:22:21.787672 20331 net.cpp:150] Setting up scale3b6_branch2c
I0208 18:22:21.787686 20331 net.cpp:157] Top shape: 1 512 32 32 (524288)
I0208 18:22:21.787693 20331 net.cpp:165] Memory required for data: 288358400
I0208 18:22:21.787708 20331 layer_factory.hpp:77] Creating layer res3b6
I0208 18:22:21.787719 20331 net.cpp:100] Creating Layer res3b6
I0208 18:22:21.787726 20331 net.cpp:434] res3b6 <- res3b5_res3b5_relu_0_split_1
I0208 18:22:21.787736 20331 net.cpp:434] res3b6 <- res3b6_branch2c
I0208 18:22:21.787750 20331 net.cpp:408] res3b6 -> res3b6
I0208 18:22:21.787791 20331 net.cpp:150] Setting up res3b6
I0208 18:22:21.787804 20331 net.cpp:157] Top shape: 1 512 32 32 (524288)
I0208 18:22:21.787812 20331 net.cpp:165] Memory required for data: 290455552
I0208 18:22:21.787819 20331 layer_factory.hpp:77] Creating layer res3b6_relu
I0208 18:22:21.787833 20331 net.cpp:100] Creating Layer res3b6_relu
I0208 18:22:21.787842 20331 net.cpp:434] res3b6_relu <- res3b6
I0208 18:22:21.787853 20331 net.cpp:395] res3b6_relu -> res3b6 (in-place)
I0208 18:22:21.788210 20331 net.cpp:150] Setting up res3b6_relu
I0208 18:22:21.788229 20331 net.cpp:157] Top shape: 1 512 32 32 (524288)
I0208 18:22:21.788238 20331 net.cpp:165] Memory required for data: 292552704
I0208 18:22:21.788245 20331 layer_factory.hpp:77] Creating layer res3b6_res3b6_relu_0_split
I0208 18:22:21.788259 20331 net.cpp:100] Creating Layer res3b6_res3b6_relu_0_split
I0208 18:22:21.788267 20331 net.cpp:434] res3b6_res3b6_relu_0_split <- res3b6
I0208 18:22:21.788282 20331 net.cpp:408] res3b6_res3b6_relu_0_split -> res3b6_res3b6_relu_0_split_0
I0208 18:22:21.788298 20331 net.cpp:408] res3b6_res3b6_relu_0_split -> res3b6_res3b6_relu_0_split_1
I0208 18:22:21.788367 20331 net.cpp:150] Setting up res3b6_res3b6_relu_0_split
I0208 18:22:21.788380 20331 net.cpp:157] Top shape: 1 512 32 32 (524288)
I0208 18:22:21.788390 20331 net.cpp:157] Top shape: 1 512 32 32 (524288)
I0208 18:22:21.788398 20331 net.cpp:165] Memory required for data: 296747008
I0208 18:22:21.788404 20331 layer_factory.hpp:77] Creating layer res3b7_branch2a
I0208 18:22:21.788421 20331 net.cpp:100] Creating Layer res3b7_branch2a
I0208 18:22:21.788430 20331 net.cpp:434] res3b7_branch2a <- res3b6_res3b6_relu_0_split_0
I0208 18:22:21.788444 20331 net.cpp:408] res3b7_branch2a -> res3b7_branch2a
I0208 18:22:21.790122 20331 net.cpp:150] Setting up res3b7_branch2a
I0208 18:22:21.790143 20331 net.cpp:157] Top shape: 1 128 32 32 (131072)
I0208 18:22:21.790153 20331 net.cpp:165] Memory required for data: 297271296
I0208 18:22:21.790164 20331 layer_factory.hpp:77] Creating layer bn3b7_branch2a
I0208 18:22:21.790179 20331 net.cpp:100] Creating Layer bn3b7_branch2a
I0208 18:22:21.790189 20331 net.cpp:434] bn3b7_branch2a <- res3b7_branch2a
I0208 18:22:21.790201 20331 net.cpp:395] bn3b7_branch2a -> res3b7_branch2a (in-place)
I0208 18:22:21.790449 20331 net.cpp:150] Setting up bn3b7_branch2a
I0208 18:22:21.790464 20331 net.cpp:157] Top shape: 1 128 32 32 (131072)
I0208 18:22:21.790472 20331 net.cpp:165] Memory required for data: 297795584
I0208 18:22:21.790490 20331 layer_factory.hpp:77] Creating layer scale3b7_branch2a
I0208 18:22:21.790505 20331 net.cpp:100] Creating Layer scale3b7_branch2a
I0208 18:22:21.790516 20331 net.cpp:434] scale3b7_branch2a <- res3b7_branch2a
I0208 18:22:21.790529 20331 net.cpp:395] scale3b7_branch2a -> res3b7_branch2a (in-place)
I0208 18:22:21.790597 20331 layer_factory.hpp:77] Creating layer scale3b7_branch2a
I0208 18:22:21.790746 20331 net.cpp:150] Setting up scale3b7_branch2a
I0208 18:22:21.790762 20331 net.cpp:157] Top shape: 1 128 32 32 (131072)
I0208 18:22:21.790769 20331 net.cpp:165] Memory required for data: 298319872
I0208 18:22:21.790782 20331 layer_factory.hpp:77] Creating layer res3b7_branch2a_relu
I0208 18:22:21.790794 20331 net.cpp:100] Creating Layer res3b7_branch2a_relu
I0208 18:22:21.790802 20331 net.cpp:434] res3b7_branch2a_relu <- res3b7_branch2a
I0208 18:22:21.790815 20331 net.cpp:395] res3b7_branch2a_relu -> res3b7_branch2a (in-place)
I0208 18:22:21.791033 20331 net.cpp:150] Setting up res3b7_branch2a_relu
I0208 18:22:21.791051 20331 net.cpp:157] Top shape: 1 128 32 32 (131072)
I0208 18:22:21.791059 20331 net.cpp:165] Memory required for data: 298844160
I0208 18:22:21.791067 20331 layer_factory.hpp:77] Creating layer res3b7_branch2b
I0208 18:22:21.791097 20331 net.cpp:100] Creating Layer res3b7_branch2b
I0208 18:22:21.791106 20331 net.cpp:434] res3b7_branch2b <- res3b7_branch2a
I0208 18:22:21.791121 20331 net.cpp:408] res3b7_branch2b -> res3b7_branch2b
I0208 18:22:21.792894 20331 net.cpp:150] Setting up res3b7_branch2b
I0208 18:22:21.792914 20331 net.cpp:157] Top shape: 1 128 32 32 (131072)
I0208 18:22:21.792923 20331 net.cpp:165] Memory required for data: 299368448
I0208 18:22:21.792935 20331 layer_factory.hpp:77] Creating layer bn3b7_branch2b
I0208 18:22:21.792951 20331 net.cpp:100] Creating Layer bn3b7_branch2b
I0208 18:22:21.792960 20331 net.cpp:434] bn3b7_branch2b <- res3b7_branch2b
I0208 18:22:21.792973 20331 net.cpp:395] bn3b7_branch2b -> res3b7_branch2b (in-place)
I0208 18:22:21.793225 20331 net.cpp:150] Setting up bn3b7_branch2b
I0208 18:22:21.793239 20331 net.cpp:157] Top shape: 1 128 32 32 (131072)
I0208 18:22:21.793247 20331 net.cpp:165] Memory required for data: 299892736
I0208 18:22:21.793263 20331 layer_factory.hpp:77] Creating layer scale3b7_branch2b
I0208 18:22:21.793282 20331 net.cpp:100] Creating Layer scale3b7_branch2b
I0208 18:22:21.793292 20331 net.cpp:434] scale3b7_branch2b <- res3b7_branch2b
I0208 18:22:21.793303 20331 net.cpp:395] scale3b7_branch2b -> res3b7_branch2b (in-place)
I0208 18:22:21.793370 20331 layer_factory.hpp:77] Creating layer scale3b7_branch2b
I0208 18:22:21.793517 20331 net.cpp:150] Setting up scale3b7_branch2b
I0208 18:22:21.793532 20331 net.cpp:157] Top shape: 1 128 32 32 (131072)
I0208 18:22:21.793540 20331 net.cpp:165] Memory required for data: 300417024
I0208 18:22:21.793553 20331 layer_factory.hpp:77] Creating layer res3b7_branch2b_relu
I0208 18:22:21.793565 20331 net.cpp:100] Creating Layer res3b7_branch2b_relu
I0208 18:22:21.793572 20331 net.cpp:434] res3b7_branch2b_relu <- res3b7_branch2b
I0208 18:22:21.793582 20331 net.cpp:395] res3b7_branch2b_relu -> res3b7_branch2b (in-place)
I0208 18:22:21.793956 20331 net.cpp:150] Setting up res3b7_branch2b_relu
I0208 18:22:21.793975 20331 net.cpp:157] Top shape: 1 128 32 32 (131072)
I0208 18:22:21.793983 20331 net.cpp:165] Memory required for data: 300941312
I0208 18:22:21.793992 20331 layer_factory.hpp:77] Creating layer res3b7_branch2c
I0208 18:22:21.794009 20331 net.cpp:100] Creating Layer res3b7_branch2c
I0208 18:22:21.794019 20331 net.cpp:434] res3b7_branch2c <- res3b7_branch2b
I0208 18:22:21.794033 20331 net.cpp:408] res3b7_branch2c -> res3b7_branch2c
I0208 18:22:21.795132 20331 net.cpp:150] Setting up res3b7_branch2c
I0208 18:22:21.795152 20331 net.cpp:157] Top shape: 1 512 32 32 (524288)
I0208 18:22:21.795161 20331 net.cpp:165] Memory required for data: 303038464
I0208 18:22:21.795172 20331 layer_factory.hpp:77] Creating layer bn3b7_branch2c
I0208 18:22:21.795186 20331 net.cpp:100] Creating Layer bn3b7_branch2c
I0208 18:22:21.795194 20331 net.cpp:434] bn3b7_branch2c <- res3b7_branch2c
I0208 18:22:21.795209 20331 net.cpp:395] bn3b7_branch2c -> res3b7_branch2c (in-place)
I0208 18:22:21.795469 20331 net.cpp:150] Setting up bn3b7_branch2c
I0208 18:22:21.795485 20331 net.cpp:157] Top shape: 1 512 32 32 (524288)
I0208 18:22:21.795492 20331 net.cpp:165] Memory required for data: 305135616
I0208 18:22:21.795509 20331 layer_factory.hpp:77] Creating layer scale3b7_branch2c
I0208 18:22:21.795522 20331 net.cpp:100] Creating Layer scale3b7_branch2c
I0208 18:22:21.795533 20331 net.cpp:434] scale3b7_branch2c <- res3b7_branch2c
I0208 18:22:21.795544 20331 net.cpp:395] scale3b7_branch2c -> res3b7_branch2c (in-place)
I0208 18:22:21.795608 20331 layer_factory.hpp:77] Creating layer scale3b7_branch2c
I0208 18:22:21.795768 20331 net.cpp:150] Setting up scale3b7_branch2c
I0208 18:22:21.795783 20331 net.cpp:157] Top shape: 1 512 32 32 (524288)
I0208 18:22:21.795791 20331 net.cpp:165] Memory required for data: 307232768
I0208 18:22:21.795804 20331 layer_factory.hpp:77] Creating layer res3b7
I0208 18:22:21.795819 20331 net.cpp:100] Creating Layer res3b7
I0208 18:22:21.795830 20331 net.cpp:434] res3b7 <- res3b6_res3b6_relu_0_split_1
I0208 18:22:21.795840 20331 net.cpp:434] res3b7 <- res3b7_branch2c
I0208 18:22:21.795851 20331 net.cpp:408] res3b7 -> res3b7
I0208 18:22:21.795897 20331 net.cpp:150] Setting up res3b7
I0208 18:22:21.795909 20331 net.cpp:157] Top shape: 1 512 32 32 (524288)
I0208 18:22:21.795917 20331 net.cpp:165] Memory required for data: 309329920
I0208 18:22:21.795924 20331 layer_factory.hpp:77] Creating layer res3b7_relu
I0208 18:22:21.795934 20331 net.cpp:100] Creating Layer res3b7_relu
I0208 18:22:21.795943 20331 net.cpp:434] res3b7_relu <- res3b7
I0208 18:22:21.795956 20331 net.cpp:395] res3b7_relu -> res3b7 (in-place)
I0208 18:22:21.796324 20331 net.cpp:150] Setting up res3b7_relu
I0208 18:22:21.796344 20331 net.cpp:157] Top shape: 1 512 32 32 (524288)
I0208 18:22:21.796351 20331 net.cpp:165] Memory required for data: 311427072
I0208 18:22:21.796360 20331 layer_factory.hpp:77] Creating layer res3b7_res3b7_relu_0_split
I0208 18:22:21.796370 20331 net.cpp:100] Creating Layer res3b7_res3b7_relu_0_split
I0208 18:22:21.796380 20331 net.cpp:434] res3b7_res3b7_relu_0_split <- res3b7
I0208 18:22:21.796393 20331 net.cpp:408] res3b7_res3b7_relu_0_split -> res3b7_res3b7_relu_0_split_0
I0208 18:22:21.796409 20331 net.cpp:408] res3b7_res3b7_relu_0_split -> res3b7_res3b7_relu_0_split_1
I0208 18:22:21.796483 20331 net.cpp:150] Setting up res3b7_res3b7_relu_0_split
I0208 18:22:21.796496 20331 net.cpp:157] Top shape: 1 512 32 32 (524288)
I0208 18:22:21.796507 20331 net.cpp:157] Top shape: 1 512 32 32 (524288)
I0208 18:22:21.796514 20331 net.cpp:165] Memory required for data: 315621376
I0208 18:22:21.796522 20331 layer_factory.hpp:77] Creating layer res4a_branch1
I0208 18:22:21.796540 20331 net.cpp:100] Creating Layer res4a_branch1
I0208 18:22:21.796550 20331 net.cpp:434] res4a_branch1 <- res3b7_res3b7_relu_0_split_0
I0208 18:22:21.796563 20331 net.cpp:408] res4a_branch1 -> res4a_branch1
I0208 18:22:21.798918 20331 net.cpp:150] Setting up res4a_branch1
I0208 18:22:21.798939 20331 net.cpp:157] Top shape: 1 1024 16 16 (262144)
I0208 18:22:21.798948 20331 net.cpp:165] Memory required for data: 316669952
I0208 18:22:21.798960 20331 layer_factory.hpp:77] Creating layer bn4a_branch1
I0208 18:22:21.798975 20331 net.cpp:100] Creating Layer bn4a_branch1
I0208 18:22:21.798985 20331 net.cpp:434] bn4a_branch1 <- res4a_branch1
I0208 18:22:21.798998 20331 net.cpp:395] bn4a_branch1 -> res4a_branch1 (in-place)
I0208 18:22:21.799257 20331 net.cpp:150] Setting up bn4a_branch1
I0208 18:22:21.799271 20331 net.cpp:157] Top shape: 1 1024 16 16 (262144)
I0208 18:22:21.799278 20331 net.cpp:165] Memory required for data: 317718528
I0208 18:22:21.799295 20331 layer_factory.hpp:77] Creating layer scale4a_branch1
I0208 18:22:21.799310 20331 net.cpp:100] Creating Layer scale4a_branch1
I0208 18:22:21.799321 20331 net.cpp:434] scale4a_branch1 <- res4a_branch1
I0208 18:22:21.799334 20331 net.cpp:395] scale4a_branch1 -> res4a_branch1 (in-place)
I0208 18:22:21.799393 20331 layer_factory.hpp:77] Creating layer scale4a_branch1
I0208 18:22:21.799556 20331 net.cpp:150] Setting up scale4a_branch1
I0208 18:22:21.799572 20331 net.cpp:157] Top shape: 1 1024 16 16 (262144)
I0208 18:22:21.799579 20331 net.cpp:165] Memory required for data: 318767104
I0208 18:22:21.799593 20331 layer_factory.hpp:77] Creating layer res4a_branch2a
I0208 18:22:21.799607 20331 net.cpp:100] Creating Layer res4a_branch2a
I0208 18:22:21.799618 20331 net.cpp:434] res4a_branch2a <- res3b7_res3b7_relu_0_split_1
I0208 18:22:21.799634 20331 net.cpp:408] res4a_branch2a -> res4a_branch2a
I0208 18:22:21.800950 20331 net.cpp:150] Setting up res4a_branch2a
I0208 18:22:21.800971 20331 net.cpp:157] Top shape: 1 256 16 16 (65536)
I0208 18:22:21.800979 20331 net.cpp:165] Memory required for data: 319029248
I0208 18:22:21.800992 20331 layer_factory.hpp:77] Creating layer bn4a_branch2a
I0208 18:22:21.801007 20331 net.cpp:100] Creating Layer bn4a_branch2a
I0208 18:22:21.801017 20331 net.cpp:434] bn4a_branch2a <- res4a_branch2a
I0208 18:22:21.801029 20331 net.cpp:395] bn4a_branch2a -> res4a_branch2a (in-place)
I0208 18:22:21.801307 20331 net.cpp:150] Setting up bn4a_branch2a
I0208 18:22:21.801322 20331 net.cpp:157] Top shape: 1 256 16 16 (65536)
I0208 18:22:21.801329 20331 net.cpp:165] Memory required for data: 319291392
I0208 18:22:21.801347 20331 layer_factory.hpp:77] Creating layer scale4a_branch2a
I0208 18:22:21.801359 20331 net.cpp:100] Creating Layer scale4a_branch2a
I0208 18:22:21.801370 20331 net.cpp:434] scale4a_branch2a <- res4a_branch2a
I0208 18:22:21.801383 20331 net.cpp:395] scale4a_branch2a -> res4a_branch2a (in-place)
I0208 18:22:21.801450 20331 layer_factory.hpp:77] Creating layer scale4a_branch2a
I0208 18:22:21.801601 20331 net.cpp:150] Setting up scale4a_branch2a
I0208 18:22:21.801616 20331 net.cpp:157] Top shape: 1 256 16 16 (65536)
I0208 18:22:21.801623 20331 net.cpp:165] Memory required for data: 319553536
I0208 18:22:21.801637 20331 layer_factory.hpp:77] Creating layer res4a_branch2a_relu
I0208 18:22:21.801648 20331 net.cpp:100] Creating Layer res4a_branch2a_relu
I0208 18:22:21.801656 20331 net.cpp:434] res4a_branch2a_relu <- res4a_branch2a
I0208 18:22:21.801671 20331 net.cpp:395] res4a_branch2a_relu -> res4a_branch2a (in-place)
I0208 18:22:21.801893 20331 net.cpp:150] Setting up res4a_branch2a_relu
I0208 18:22:21.801910 20331 net.cpp:157] Top shape: 1 256 16 16 (65536)
I0208 18:22:21.801918 20331 net.cpp:165] Memory required for data: 319815680
I0208 18:22:21.801926 20331 layer_factory.hpp:77] Creating layer res4a_branch2b
I0208 18:22:21.801944 20331 net.cpp:100] Creating Layer res4a_branch2b
I0208 18:22:21.801952 20331 net.cpp:434] res4a_branch2b <- res4a_branch2a
I0208 18:22:21.801966 20331 net.cpp:408] res4a_branch2b -> res4a_branch2b
I0208 18:22:21.804447 20331 net.cpp:150] Setting up res4a_branch2b
I0208 18:22:21.804469 20331 net.cpp:157] Top shape: 1 256 16 16 (65536)
I0208 18:22:21.804477 20331 net.cpp:165] Memory required for data: 320077824
I0208 18:22:21.804489 20331 layer_factory.hpp:77] Creating layer bn4a_branch2b
I0208 18:22:21.804505 20331 net.cpp:100] Creating Layer bn4a_branch2b
I0208 18:22:21.804515 20331 net.cpp:434] bn4a_branch2b <- res4a_branch2b
I0208 18:22:21.804527 20331 net.cpp:395] bn4a_branch2b -> res4a_branch2b (in-place)
I0208 18:22:21.804801 20331 net.cpp:150] Setting up bn4a_branch2b
I0208 18:22:21.804817 20331 net.cpp:157] Top shape: 1 256 16 16 (65536)
I0208 18:22:21.804826 20331 net.cpp:165] Memory required for data: 320339968
I0208 18:22:21.804846 20331 layer_factory.hpp:77] Creating layer scale4a_branch2b
I0208 18:22:21.804858 20331 net.cpp:100] Creating Layer scale4a_branch2b
I0208 18:22:21.804869 20331 net.cpp:434] scale4a_branch2b <- res4a_branch2b
I0208 18:22:21.804882 20331 net.cpp:395] scale4a_branch2b -> res4a_branch2b (in-place)
I0208 18:22:21.804949 20331 layer_factory.hpp:77] Creating layer scale4a_branch2b
I0208 18:22:21.805233 20331 net.cpp:150] Setting up scale4a_branch2b
I0208 18:22:21.805250 20331 net.cpp:157] Top shape: 1 256 16 16 (65536)
I0208 18:22:21.805258 20331 net.cpp:165] Memory required for data: 320602112
I0208 18:22:21.805272 20331 layer_factory.hpp:77] Creating layer res4a_branch2b_relu
I0208 18:22:21.805284 20331 net.cpp:100] Creating Layer res4a_branch2b_relu
I0208 18:22:21.805294 20331 net.cpp:434] res4a_branch2b_relu <- res4a_branch2b
I0208 18:22:21.805307 20331 net.cpp:395] res4a_branch2b_relu -> res4a_branch2b (in-place)
I0208 18:22:21.805536 20331 net.cpp:150] Setting up res4a_branch2b_relu
I0208 18:22:21.805554 20331 net.cpp:157] Top shape: 1 256 16 16 (65536)
I0208 18:22:21.805562 20331 net.cpp:165] Memory required for data: 320864256
I0208 18:22:21.805569 20331 layer_factory.hpp:77] Creating layer res4a_branch2c
I0208 18:22:21.805586 20331 net.cpp:100] Creating Layer res4a_branch2c
I0208 18:22:21.805596 20331 net.cpp:434] res4a_branch2c <- res4a_branch2b
I0208 18:22:21.805608 20331 net.cpp:408] res4a_branch2c -> res4a_branch2c
I0208 18:22:21.807456 20331 net.cpp:150] Setting up res4a_branch2c
I0208 18:22:21.807476 20331 net.cpp:157] Top shape: 1 1024 16 16 (262144)
I0208 18:22:21.807485 20331 net.cpp:165] Memory required for data: 321912832
I0208 18:22:21.807497 20331 layer_factory.hpp:77] Creating layer bn4a_branch2c
I0208 18:22:21.807513 20331 net.cpp:100] Creating Layer bn4a_branch2c
I0208 18:22:21.807523 20331 net.cpp:434] bn4a_branch2c <- res4a_branch2c
I0208 18:22:21.807535 20331 net.cpp:395] bn4a_branch2c -> res4a_branch2c (in-place)
I0208 18:22:21.807799 20331 net.cpp:150] Setting up bn4a_branch2c
I0208 18:22:21.807816 20331 net.cpp:157] Top shape: 1 1024 16 16 (262144)
I0208 18:22:21.807822 20331 net.cpp:165] Memory required for data: 322961408
I0208 18:22:21.807839 20331 layer_factory.hpp:77] Creating layer scale4a_branch2c
I0208 18:22:21.807854 20331 net.cpp:100] Creating Layer scale4a_branch2c
I0208 18:22:21.807868 20331 net.cpp:434] scale4a_branch2c <- res4a_branch2c
I0208 18:22:21.807880 20331 net.cpp:395] scale4a_branch2c -> res4a_branch2c (in-place)
I0208 18:22:21.807946 20331 layer_factory.hpp:77] Creating layer scale4a_branch2c
I0208 18:22:21.808110 20331 net.cpp:150] Setting up scale4a_branch2c
I0208 18:22:21.808125 20331 net.cpp:157] Top shape: 1 1024 16 16 (262144)
I0208 18:22:21.808133 20331 net.cpp:165] Memory required for data: 324009984
I0208 18:22:21.808146 20331 layer_factory.hpp:77] Creating layer res4a
I0208 18:22:21.808157 20331 net.cpp:100] Creating Layer res4a
I0208 18:22:21.808166 20331 net.cpp:434] res4a <- res4a_branch1
I0208 18:22:21.808176 20331 net.cpp:434] res4a <- res4a_branch2c
I0208 18:22:21.808189 20331 net.cpp:408] res4a -> res4a
I0208 18:22:21.808228 20331 net.cpp:150] Setting up res4a
I0208 18:22:21.808241 20331 net.cpp:157] Top shape: 1 1024 16 16 (262144)
I0208 18:22:21.808251 20331 net.cpp:165] Memory required for data: 325058560
I0208 18:22:21.808259 20331 layer_factory.hpp:77] Creating layer res4a_relu
I0208 18:22:21.808270 20331 net.cpp:100] Creating Layer res4a_relu
I0208 18:22:21.808279 20331 net.cpp:434] res4a_relu <- res4a
I0208 18:22:21.808289 20331 net.cpp:395] res4a_relu -> res4a (in-place)
I0208 18:22:21.808667 20331 net.cpp:150] Setting up res4a_relu
I0208 18:22:21.808689 20331 net.cpp:157] Top shape: 1 1024 16 16 (262144)
I0208 18:22:21.808698 20331 net.cpp:165] Memory required for data: 326107136
I0208 18:22:21.808706 20331 layer_factory.hpp:77] Creating layer res4a_res4a_relu_0_split
I0208 18:22:21.808717 20331 net.cpp:100] Creating Layer res4a_res4a_relu_0_split
I0208 18:22:21.808727 20331 net.cpp:434] res4a_res4a_relu_0_split <- res4a
I0208 18:22:21.808738 20331 net.cpp:408] res4a_res4a_relu_0_split -> res4a_res4a_relu_0_split_0
I0208 18:22:21.808761 20331 net.cpp:408] res4a_res4a_relu_0_split -> res4a_res4a_relu_0_split_1
I0208 18:22:21.808837 20331 net.cpp:150] Setting up res4a_res4a_relu_0_split
I0208 18:22:21.808852 20331 net.cpp:157] Top shape: 1 1024 16 16 (262144)
I0208 18:22:21.808862 20331 net.cpp:157] Top shape: 1 1024 16 16 (262144)
I0208 18:22:21.808871 20331 net.cpp:165] Memory required for data: 328204288
I0208 18:22:21.808877 20331 layer_factory.hpp:77] Creating layer res4b1_branch2a
I0208 18:22:21.808897 20331 net.cpp:100] Creating Layer res4b1_branch2a
I0208 18:22:21.808907 20331 net.cpp:434] res4b1_branch2a <- res4a_res4a_relu_0_split_0
I0208 18:22:21.808921 20331 net.cpp:408] res4b1_branch2a -> res4b1_branch2a
I0208 18:22:21.810969 20331 net.cpp:150] Setting up res4b1_branch2a
I0208 18:22:21.810991 20331 net.cpp:157] Top shape: 1 256 16 16 (65536)
I0208 18:22:21.810999 20331 net.cpp:165] Memory required for data: 328466432
I0208 18:22:21.811012 20331 layer_factory.hpp:77] Creating layer bn4b1_branch2a
I0208 18:22:21.811028 20331 net.cpp:100] Creating Layer bn4b1_branch2a
I0208 18:22:21.811036 20331 net.cpp:434] bn4b1_branch2a <- res4b1_branch2a
I0208 18:22:21.811048 20331 net.cpp:395] bn4b1_branch2a -> res4b1_branch2a (in-place)
I0208 18:22:21.811309 20331 net.cpp:150] Setting up bn4b1_branch2a
I0208 18:22:21.811326 20331 net.cpp:157] Top shape: 1 256 16 16 (65536)
I0208 18:22:21.811332 20331 net.cpp:165] Memory required for data: 328728576
I0208 18:22:21.811349 20331 layer_factory.hpp:77] Creating layer scale4b1_branch2a
I0208 18:22:21.811364 20331 net.cpp:100] Creating Layer scale4b1_branch2a
I0208 18:22:21.811375 20331 net.cpp:434] scale4b1_branch2a <- res4b1_branch2a
I0208 18:22:21.811386 20331 net.cpp:395] scale4b1_branch2a -> res4b1_branch2a (in-place)
I0208 18:22:21.811458 20331 layer_factory.hpp:77] Creating layer scale4b1_branch2a
I0208 18:22:21.811616 20331 net.cpp:150] Setting up scale4b1_branch2a
I0208 18:22:21.811632 20331 net.cpp:157] Top shape: 1 256 16 16 (65536)
I0208 18:22:21.811640 20331 net.cpp:165] Memory required for data: 328990720
I0208 18:22:21.811653 20331 layer_factory.hpp:77] Creating layer res4b1_branch2a_relu
I0208 18:22:21.811664 20331 net.cpp:100] Creating Layer res4b1_branch2a_relu
I0208 18:22:21.811673 20331 net.cpp:434] res4b1_branch2a_relu <- res4b1_branch2a
I0208 18:22:21.811686 20331 net.cpp:395] res4b1_branch2a_relu -> res4b1_branch2a (in-place)
I0208 18:22:21.811921 20331 net.cpp:150] Setting up res4b1_branch2a_relu
I0208 18:22:21.811939 20331 net.cpp:157] Top shape: 1 256 16 16 (65536)
I0208 18:22:21.811946 20331 net.cpp:165] Memory required for data: 329252864
I0208 18:22:21.811954 20331 layer_factory.hpp:77] Creating layer res4b1_branch2b
I0208 18:22:21.811971 20331 net.cpp:100] Creating Layer res4b1_branch2b
I0208 18:22:21.811981 20331 net.cpp:434] res4b1_branch2b <- res4b1_branch2a
I0208 18:22:21.811995 20331 net.cpp:408] res4b1_branch2b -> res4b1_branch2b
I0208 18:22:21.814504 20331 net.cpp:150] Setting up res4b1_branch2b
I0208 18:22:21.814527 20331 net.cpp:157] Top shape: 1 256 16 16 (65536)
I0208 18:22:21.814535 20331 net.cpp:165] Memory required for data: 329515008
I0208 18:22:21.814548 20331 layer_factory.hpp:77] Creating layer bn4b1_branch2b
I0208 18:22:21.814561 20331 net.cpp:100] Creating Layer bn4b1_branch2b
I0208 18:22:21.814570 20331 net.cpp:434] bn4b1_branch2b <- res4b1_branch2b
I0208 18:22:21.814584 20331 net.cpp:395] bn4b1_branch2b -> res4b1_branch2b (in-place)
I0208 18:22:21.814851 20331 net.cpp:150] Setting up bn4b1_branch2b
I0208 18:22:21.814867 20331 net.cpp:157] Top shape: 1 256 16 16 (65536)
I0208 18:22:21.814874 20331 net.cpp:165] Memory required for data: 329777152
I0208 18:22:21.814891 20331 layer_factory.hpp:77] Creating layer scale4b1_branch2b
I0208 18:22:21.814904 20331 net.cpp:100] Creating Layer scale4b1_branch2b
I0208 18:22:21.814916 20331 net.cpp:434] scale4b1_branch2b <- res4b1_branch2b
I0208 18:22:21.814929 20331 net.cpp:395] scale4b1_branch2b -> res4b1_branch2b (in-place)
I0208 18:22:21.814996 20331 layer_factory.hpp:77] Creating layer scale4b1_branch2b
I0208 18:22:21.815156 20331 net.cpp:150] Setting up scale4b1_branch2b
I0208 18:22:21.815171 20331 net.cpp:157] Top shape: 1 256 16 16 (65536)
I0208 18:22:21.815179 20331 net.cpp:165] Memory required for data: 330039296
I0208 18:22:21.815192 20331 layer_factory.hpp:77] Creating layer res4b1_branch2b_relu
I0208 18:22:21.815207 20331 net.cpp:100] Creating Layer res4b1_branch2b_relu
I0208 18:22:21.815217 20331 net.cpp:434] res4b1_branch2b_relu <- res4b1_branch2b
I0208 18:22:21.815228 20331 net.cpp:395] res4b1_branch2b_relu -> res4b1_branch2b (in-place)
I0208 18:22:21.815460 20331 net.cpp:150] Setting up res4b1_branch2b_relu
I0208 18:22:21.815477 20331 net.cpp:157] Top shape: 1 256 16 16 (65536)
I0208 18:22:21.815485 20331 net.cpp:165] Memory required for data: 330301440
I0208 18:22:21.815493 20331 layer_factory.hpp:77] Creating layer res4b1_branch2c
I0208 18:22:21.815510 20331 net.cpp:100] Creating Layer res4b1_branch2c
I0208 18:22:21.815520 20331 net.cpp:434] res4b1_branch2c <- res4b1_branch2b
I0208 18:22:21.815534 20331 net.cpp:408] res4b1_branch2c -> res4b1_branch2c
I0208 18:22:21.817410 20331 net.cpp:150] Setting up res4b1_branch2c
I0208 18:22:21.817433 20331 net.cpp:157] Top shape: 1 1024 16 16 (262144)
I0208 18:22:21.817442 20331 net.cpp:165] Memory required for data: 331350016
I0208 18:22:21.817456 20331 layer_factory.hpp:77] Creating layer bn4b1_branch2c
I0208 18:22:21.817468 20331 net.cpp:100] Creating Layer bn4b1_branch2c
I0208 18:22:21.817477 20331 net.cpp:434] bn4b1_branch2c <- res4b1_branch2c
I0208 18:22:21.817489 20331 net.cpp:395] bn4b1_branch2c -> res4b1_branch2c (in-place)
I0208 18:22:21.817764 20331 net.cpp:150] Setting up bn4b1_branch2c
I0208 18:22:21.817780 20331 net.cpp:157] Top shape: 1 1024 16 16 (262144)
I0208 18:22:21.817786 20331 net.cpp:165] Memory required for data: 332398592
I0208 18:22:21.817803 20331 layer_factory.hpp:77] Creating layer scale4b1_branch2c
I0208 18:22:21.817816 20331 net.cpp:100] Creating Layer scale4b1_branch2c
I0208 18:22:21.817827 20331 net.cpp:434] scale4b1_branch2c <- res4b1_branch2c
I0208 18:22:21.817838 20331 net.cpp:395] scale4b1_branch2c -> res4b1_branch2c (in-place)
I0208 18:22:21.817904 20331 layer_factory.hpp:77] Creating layer scale4b1_branch2c
I0208 18:22:21.818071 20331 net.cpp:150] Setting up scale4b1_branch2c
I0208 18:22:21.818087 20331 net.cpp:157] Top shape: 1 1024 16 16 (262144)
I0208 18:22:21.818094 20331 net.cpp:165] Memory required for data: 333447168
I0208 18:22:21.818141 20331 layer_factory.hpp:77] Creating layer res4b1
I0208 18:22:21.818156 20331 net.cpp:100] Creating Layer res4b1
I0208 18:22:21.818166 20331 net.cpp:434] res4b1 <- res4a_res4a_relu_0_split_1
I0208 18:22:21.818176 20331 net.cpp:434] res4b1 <- res4b1_branch2c
I0208 18:22:21.818186 20331 net.cpp:408] res4b1 -> res4b1
I0208 18:22:21.818231 20331 net.cpp:150] Setting up res4b1
I0208 18:22:21.818244 20331 net.cpp:157] Top shape: 1 1024 16 16 (262144)
I0208 18:22:21.818253 20331 net.cpp:165] Memory required for data: 334495744
I0208 18:22:21.818260 20331 layer_factory.hpp:77] Creating layer res4b1_relu
I0208 18:22:21.818271 20331 net.cpp:100] Creating Layer res4b1_relu
I0208 18:22:21.818279 20331 net.cpp:434] res4b1_relu <- res4b1
I0208 18:22:21.818292 20331 net.cpp:395] res4b1_relu -> res4b1 (in-place)
I0208 18:22:21.818670 20331 net.cpp:150] Setting up res4b1_relu
I0208 18:22:21.818688 20331 net.cpp:157] Top shape: 1 1024 16 16 (262144)
I0208 18:22:21.818696 20331 net.cpp:165] Memory required for data: 335544320
I0208 18:22:21.818704 20331 layer_factory.hpp:77] Creating layer res4b1_res4b1_relu_0_split
I0208 18:22:21.818716 20331 net.cpp:100] Creating Layer res4b1_res4b1_relu_0_split
I0208 18:22:21.818724 20331 net.cpp:434] res4b1_res4b1_relu_0_split <- res4b1
I0208 18:22:21.818739 20331 net.cpp:408] res4b1_res4b1_relu_0_split -> res4b1_res4b1_relu_0_split_0
I0208 18:22:21.818754 20331 net.cpp:408] res4b1_res4b1_relu_0_split -> res4b1_res4b1_relu_0_split_1
I0208 18:22:21.818826 20331 net.cpp:150] Setting up res4b1_res4b1_relu_0_split
I0208 18:22:21.818841 20331 net.cpp:157] Top shape: 1 1024 16 16 (262144)
I0208 18:22:21.818851 20331 net.cpp:157] Top shape: 1 1024 16 16 (262144)
I0208 18:22:21.818859 20331 net.cpp:165] Memory required for data: 337641472
I0208 18:22:21.818867 20331 layer_factory.hpp:77] Creating layer res4b2_branch2a
I0208 18:22:21.818881 20331 net.cpp:100] Creating Layer res4b2_branch2a
I0208 18:22:21.818889 20331 net.cpp:434] res4b2_branch2a <- res4b1_res4b1_relu_0_split_0
I0208 18:22:21.818904 20331 net.cpp:408] res4b2_branch2a -> res4b2_branch2a
I0208 18:22:21.820812 20331 net.cpp:150] Setting up res4b2_branch2a
I0208 18:22:21.820834 20331 net.cpp:157] Top shape: 1 256 16 16 (65536)
I0208 18:22:21.820843 20331 net.cpp:165] Memory required for data: 337903616
I0208 18:22:21.820855 20331 layer_factory.hpp:77] Creating layer bn4b2_branch2a
I0208 18:22:21.820870 20331 net.cpp:100] Creating Layer bn4b2_branch2a
I0208 18:22:21.820879 20331 net.cpp:434] bn4b2_branch2a <- res4b2_branch2a
I0208 18:22:21.820891 20331 net.cpp:395] bn4b2_branch2a -> res4b2_branch2a (in-place)
I0208 18:22:21.821161 20331 net.cpp:150] Setting up bn4b2_branch2a
I0208 18:22:21.821175 20331 net.cpp:157] Top shape: 1 256 16 16 (65536)
I0208 18:22:21.821183 20331 net.cpp:165] Memory required for data: 338165760
I0208 18:22:21.821200 20331 layer_factory.hpp:77] Creating layer scale4b2_branch2a
I0208 18:22:21.821216 20331 net.cpp:100] Creating Layer scale4b2_branch2a
I0208 18:22:21.821228 20331 net.cpp:434] scale4b2_branch2a <- res4b2_branch2a
I0208 18:22:21.821239 20331 net.cpp:395] scale4b2_branch2a -> res4b2_branch2a (in-place)
I0208 18:22:21.821310 20331 layer_factory.hpp:77] Creating layer scale4b2_branch2a
I0208 18:22:21.821470 20331 net.cpp:150] Setting up scale4b2_branch2a
I0208 18:22:21.821485 20331 net.cpp:157] Top shape: 1 256 16 16 (65536)
I0208 18:22:21.821491 20331 net.cpp:165] Memory required for data: 338427904
I0208 18:22:21.821504 20331 layer_factory.hpp:77] Creating layer res4b2_branch2a_relu
I0208 18:22:21.821516 20331 net.cpp:100] Creating Layer res4b2_branch2a_relu
I0208 18:22:21.821523 20331 net.cpp:434] res4b2_branch2a_relu <- res4b2_branch2a
I0208 18:22:21.821534 20331 net.cpp:395] res4b2_branch2a_relu -> res4b2_branch2a (in-place)
I0208 18:22:21.821760 20331 net.cpp:150] Setting up res4b2_branch2a_relu
I0208 18:22:21.821777 20331 net.cpp:157] Top shape: 1 256 16 16 (65536)
I0208 18:22:21.821784 20331 net.cpp:165] Memory required for data: 338690048
I0208 18:22:21.821792 20331 layer_factory.hpp:77] Creating layer res4b2_branch2b
I0208 18:22:21.821810 20331 net.cpp:100] Creating Layer res4b2_branch2b
I0208 18:22:21.821817 20331 net.cpp:434] res4b2_branch2b <- res4b2_branch2a
I0208 18:22:21.821832 20331 net.cpp:408] res4b2_branch2b -> res4b2_branch2b
I0208 18:22:21.824324 20331 net.cpp:150] Setting up res4b2_branch2b
I0208 18:22:21.824345 20331 net.cpp:157] Top shape: 1 256 16 16 (65536)
I0208 18:22:21.824354 20331 net.cpp:165] Memory required for data: 338952192
I0208 18:22:21.824367 20331 layer_factory.hpp:77] Creating layer bn4b2_branch2b
I0208 18:22:21.824383 20331 net.cpp:100] Creating Layer bn4b2_branch2b
I0208 18:22:21.824393 20331 net.cpp:434] bn4b2_branch2b <- res4b2_branch2b
I0208 18:22:21.824406 20331 net.cpp:395] bn4b2_branch2b -> res4b2_branch2b (in-place)
I0208 18:22:21.824673 20331 net.cpp:150] Setting up bn4b2_branch2b
I0208 18:22:21.824688 20331 net.cpp:157] Top shape: 1 256 16 16 (65536)
I0208 18:22:21.824697 20331 net.cpp:165] Memory required for data: 339214336
I0208 18:22:21.824713 20331 layer_factory.hpp:77] Creating layer scale4b2_branch2b
I0208 18:22:21.824725 20331 net.cpp:100] Creating Layer scale4b2_branch2b
I0208 18:22:21.824746 20331 net.cpp:434] scale4b2_branch2b <- res4b2_branch2b
I0208 18:22:21.824764 20331 net.cpp:395] scale4b2_branch2b -> res4b2_branch2b (in-place)
I0208 18:22:21.824831 20331 layer_factory.hpp:77] Creating layer scale4b2_branch2b
I0208 18:22:21.824993 20331 net.cpp:150] Setting up scale4b2_branch2b
I0208 18:22:21.825011 20331 net.cpp:157] Top shape: 1 256 16 16 (65536)
I0208 18:22:21.825018 20331 net.cpp:165] Memory required for data: 339476480
I0208 18:22:21.825031 20331 layer_factory.hpp:77] Creating layer res4b2_branch2b_relu
I0208 18:22:21.825042 20331 net.cpp:100] Creating Layer res4b2_branch2b_relu
I0208 18:22:21.825052 20331 net.cpp:434] res4b2_branch2b_relu <- res4b2_branch2b
I0208 18:22:21.825062 20331 net.cpp:395] res4b2_branch2b_relu -> res4b2_branch2b (in-place)
I0208 18:22:21.825295 20331 net.cpp:150] Setting up res4b2_branch2b_relu
I0208 18:22:21.825312 20331 net.cpp:157] Top shape: 1 256 16 16 (65536)
I0208 18:22:21.825320 20331 net.cpp:165] Memory required for data: 339738624
I0208 18:22:21.825328 20331 layer_factory.hpp:77] Creating layer res4b2_branch2c
I0208 18:22:21.825345 20331 net.cpp:100] Creating Layer res4b2_branch2c
I0208 18:22:21.825354 20331 net.cpp:434] res4b2_branch2c <- res4b2_branch2b
I0208 18:22:21.825366 20331 net.cpp:408] res4b2_branch2c -> res4b2_branch2c
I0208 18:22:21.827247 20331 net.cpp:150] Setting up res4b2_branch2c
I0208 18:22:21.827268 20331 net.cpp:157] Top shape: 1 1024 16 16 (262144)
I0208 18:22:21.827276 20331 net.cpp:165] Memory required for data: 340787200
I0208 18:22:21.827288 20331 layer_factory.hpp:77] Creating layer bn4b2_branch2c
I0208 18:22:21.827304 20331 net.cpp:100] Creating Layer bn4b2_branch2c
I0208 18:22:21.827313 20331 net.cpp:434] bn4b2_branch2c <- res4b2_branch2c
I0208 18:22:21.827327 20331 net.cpp:395] bn4b2_branch2c -> res4b2_branch2c (in-place)
I0208 18:22:21.827605 20331 net.cpp:150] Setting up bn4b2_branch2c
I0208 18:22:21.827621 20331 net.cpp:157] Top shape: 1 1024 16 16 (262144)
I0208 18:22:21.827630 20331 net.cpp:165] Memory required for data: 341835776
I0208 18:22:21.827646 20331 layer_factory.hpp:77] Creating layer scale4b2_branch2c
I0208 18:22:21.827658 20331 net.cpp:100] Creating Layer scale4b2_branch2c
I0208 18:22:21.827674 20331 net.cpp:434] scale4b2_branch2c <- res4b2_branch2c
I0208 18:22:21.827692 20331 net.cpp:395] scale4b2_branch2c -> res4b2_branch2c (in-place)
I0208 18:22:21.827761 20331 layer_factory.hpp:77] Creating layer scale4b2_branch2c
I0208 18:22:21.827932 20331 net.cpp:150] Setting up scale4b2_branch2c
I0208 18:22:21.827947 20331 net.cpp:157] Top shape: 1 1024 16 16 (262144)
I0208 18:22:21.827955 20331 net.cpp:165] Memory required for data: 342884352
I0208 18:22:21.827967 20331 layer_factory.hpp:77] Creating layer res4b2
I0208 18:22:21.827982 20331 net.cpp:100] Creating Layer res4b2
I0208 18:22:21.827991 20331 net.cpp:434] res4b2 <- res4b1_res4b1_relu_0_split_1
I0208 18:22:21.828001 20331 net.cpp:434] res4b2 <- res4b2_branch2c
I0208 18:22:21.828012 20331 net.cpp:408] res4b2 -> res4b2
I0208 18:22:21.828050 20331 net.cpp:150] Setting up res4b2
I0208 18:22:21.828064 20331 net.cpp:157] Top shape: 1 1024 16 16 (262144)
I0208 18:22:21.828071 20331 net.cpp:165] Memory required for data: 343932928
I0208 18:22:21.828079 20331 layer_factory.hpp:77] Creating layer res4b2_relu
I0208 18:22:21.828094 20331 net.cpp:100] Creating Layer res4b2_relu
I0208 18:22:21.828102 20331 net.cpp:434] res4b2_relu <- res4b2
I0208 18:22:21.828112 20331 net.cpp:395] res4b2_relu -> res4b2 (in-place)
I0208 18:22:21.828488 20331 net.cpp:150] Setting up res4b2_relu
I0208 18:22:21.828507 20331 net.cpp:157] Top shape: 1 1024 16 16 (262144)
I0208 18:22:21.828516 20331 net.cpp:165] Memory required for data: 344981504
I0208 18:22:21.828523 20331 layer_factory.hpp:77] Creating layer res4b2_res4b2_relu_0_split
…
I0208 18:22:22.634408 20331 net.cpp:100] Creating Layer scale4b33_branch2b
I0208 18:22:22.634413 20331 net.cpp:434] scale4b33_branch2b <- res4b33_branch2b
I0208 18:22:22.634418 20331 net.cpp:395] scale4b33_branch2b -> res4b33_branch2b (in-place)
I0208 18:22:22.634469 20331 layer_factory.hpp:77] Creating layer scale4b33_branch2b
I0208 18:22:22.634609 20331 net.cpp:150] Setting up scale4b33_branch2b
I0208 18:22:22.634619 20331 net.cpp:157] Top shape: 1 256 16 16 (65536)
I0208 18:22:22.634623 20331 net.cpp:165] Memory required for data: 623116288
I0208 18:22:22.634629 20331 layer_factory.hpp:77] Creating layer res4b33_branch2b_relu
I0208 18:22:22.634634 20331 net.cpp:100] Creating Layer res4b33_branch2b_relu
I0208 18:22:22.634639 20331 net.cpp:434] res4b33_branch2b_relu <- res4b33_branch2b
I0208 18:22:22.634644 20331 net.cpp:395] res4b33_branch2b_relu -> res4b33_branch2b (in-place)
I0208 18:22:22.635277 20331 net.cpp:150] Setting up res4b33_branch2b_relu
I0208 18:22:22.635290 20331 net.cpp:157] Top shape: 1 256 16 16 (65536)
I0208 18:22:22.635305 20331 net.cpp:165] Memory required for data: 623378432
I0208 18:22:22.635310 20331 layer_factory.hpp:77] Creating layer res4b33_branch2c
I0208 18:22:22.635319 20331 net.cpp:100] Creating Layer res4b33_branch2c
I0208 18:22:22.635335 20331 net.cpp:434] res4b33_branch2c <- res4b33_branch2b
I0208 18:22:22.635341 20331 net.cpp:408] res4b33_branch2c -> res4b33_branch2c
I0208 18:22:22.637228 20331 net.cpp:150] Setting up res4b33_branch2c
I0208 18:22:22.637253 20331 net.cpp:157] Top shape: 1 1024 16 16 (262144)
I0208 18:22:22.637257 20331 net.cpp:165] Memory required for data: 624427008
I0208 18:22:22.637264 20331 layer_factory.hpp:77] Creating layer bn4b33_branch2c
I0208 18:22:22.637272 20331 net.cpp:100] Creating Layer bn4b33_branch2c
I0208 18:22:22.637289 20331 net.cpp:434] bn4b33_branch2c <- res4b33_branch2c
I0208 18:22:22.637295 20331 net.cpp:395] bn4b33_branch2c -> res4b33_branch2c (in-place)
I0208 18:22:22.637586 20331 net.cpp:150] Setting up bn4b33_branch2c
I0208 18:22:22.637598 20331 net.cpp:157] Top shape: 1 1024 16 16 (262144)
I0208 18:22:22.637600 20331 net.cpp:165] Memory required for data: 625475584
I0208 18:22:22.637609 20331 layer_factory.hpp:77] Creating layer scale4b33_branch2c
I0208 18:22:22.637615 20331 net.cpp:100] Creating Layer scale4b33_branch2c
I0208 18:22:22.637619 20331 net.cpp:434] scale4b33_branch2c <- res4b33_branch2c
I0208 18:22:22.637626 20331 net.cpp:395] scale4b33_branch2c -> res4b33_branch2c (in-place)
I0208 18:22:22.637706 20331 layer_factory.hpp:77] Creating layer scale4b33_branch2c
I0208 18:22:22.637892 20331 net.cpp:150] Setting up scale4b33_branch2c
I0208 18:22:22.637903 20331 net.cpp:157] Top shape: 1 1024 16 16 (262144)
I0208 18:22:22.637907 20331 net.cpp:165] Memory required for data: 626524160
I0208 18:22:22.637914 20331 layer_factory.hpp:77] Creating layer res4b33
I0208 18:22:22.637920 20331 net.cpp:100] Creating Layer res4b33
I0208 18:22:22.637924 20331 net.cpp:434] res4b33 <- res4b32_res4b32_relu_0_split_1
I0208 18:22:22.637929 20331 net.cpp:434] res4b33 <- res4b33_branch2c
I0208 18:22:22.637946 20331 net.cpp:408] res4b33 -> res4b33
I0208 18:22:22.637974 20331 net.cpp:150] Setting up res4b33
I0208 18:22:22.637982 20331 net.cpp:157] Top shape: 1 1024 16 16 (262144)
I0208 18:22:22.637986 20331 net.cpp:165] Memory required for data: 627572736
I0208 18:22:22.637989 20331 layer_factory.hpp:77] Creating layer res4b33_relu
I0208 18:22:22.637995 20331 net.cpp:100] Creating Layer res4b33_relu
I0208 18:22:22.638000 20331 net.cpp:434] res4b33_relu <- res4b33
I0208 18:22:22.638005 20331 net.cpp:395] res4b33_relu -> res4b33 (in-place)
I0208 18:22:22.638445 20331 net.cpp:150] Setting up res4b33_relu
I0208 18:22:22.638469 20331 net.cpp:157] Top shape: 1 1024 16 16 (262144)
I0208 18:22:22.638473 20331 net.cpp:165] Memory required for data: 628621312
I0208 18:22:22.638489 20331 layer_factory.hpp:77] Creating layer res4b33_res4b33_relu_0_split
I0208 18:22:22.638494 20331 net.cpp:100] Creating Layer res4b33_res4b33_relu_0_split
I0208 18:22:22.638509 20331 net.cpp:434] res4b33_res4b33_relu_0_split <- res4b33
I0208 18:22:22.638527 20331 net.cpp:408] res4b33_res4b33_relu_0_split -> res4b33_res4b33_relu_0_split_0
I0208 18:22:22.638535 20331 net.cpp:408] res4b33_res4b33_relu_0_split -> res4b33_res4b33_relu_0_split_1
I0208 18:22:22.638592 20331 net.cpp:150] Setting up res4b33_res4b33_relu_0_split
I0208 18:22:22.638602 20331 net.cpp:157] Top shape: 1 1024 16 16 (262144)
I0208 18:22:22.638607 20331 net.cpp:157] Top shape: 1 1024 16 16 (262144)
I0208 18:22:22.638609 20331 net.cpp:165] Memory required for data: 630718464
I0208 18:22:22.638613 20331 layer_factory.hpp:77] Creating layer res4b34_branch2a
I0208 18:22:22.638620 20331 net.cpp:100] Creating Layer res4b34_branch2a
I0208 18:22:22.638624 20331 net.cpp:434] res4b34_branch2a <- res4b33_res4b33_relu_0_split_0
I0208 18:22:22.638631 20331 net.cpp:408] res4b34_branch2a -> res4b34_branch2a
I0208 18:22:22.640553 20331 net.cpp:150] Setting up res4b34_branch2a
I0208 18:22:22.640580 20331 net.cpp:157] Top shape: 1 256 16 16 (65536)
I0208 18:22:22.640585 20331 net.cpp:165] Memory required for data: 630980608
I0208 18:22:22.640591 20331 layer_factory.hpp:77] Creating layer bn4b34_branch2a
I0208 18:22:22.640597 20331 net.cpp:100] Creating Layer bn4b34_branch2a
I0208 18:22:22.640604 20331 net.cpp:434] bn4b34_branch2a <- res4b34_branch2a
I0208 18:22:22.640609 20331 net.cpp:395] bn4b34_branch2a -> res4b34_branch2a (in-place)
I0208 18:22:22.640902 20331 net.cpp:150] Setting up bn4b34_branch2a
I0208 18:22:22.640913 20331 net.cpp:157] Top shape: 1 256 16 16 (65536)
I0208 18:22:22.640916 20331 net.cpp:165] Memory required for data: 631242752
I0208 18:22:22.640925 20331 layer_factory.hpp:77] Creating layer scale4b34_branch2a
I0208 18:22:22.640933 20331 net.cpp:100] Creating Layer scale4b34_branch2a
I0208 18:22:22.640938 20331 net.cpp:434] scale4b34_branch2a <- res4b34_branch2a
I0208 18:22:22.640943 20331 net.cpp:395] scale4b34_branch2a -> res4b34_branch2a (in-place)
I0208 18:22:22.640995 20331 layer_factory.hpp:77] Creating layer scale4b34_branch2a
I0208 18:22:22.641134 20331 net.cpp:150] Setting up scale4b34_branch2a
I0208 18:22:22.641144 20331 net.cpp:157] Top shape: 1 256 16 16 (65536)
I0208 18:22:22.641149 20331 net.cpp:165] Memory required for data: 631504896
I0208 18:22:22.641155 20331 layer_factory.hpp:77] Creating layer res4b34_branch2a_relu
I0208 18:22:22.641160 20331 net.cpp:100] Creating Layer res4b34_branch2a_relu
I0208 18:22:22.641165 20331 net.cpp:434] res4b34_branch2a_relu <- res4b34_branch2a
I0208 18:22:22.641168 20331 net.cpp:395] res4b34_branch2a_relu -> res4b34_branch2a (in-place)
I0208 18:22:22.641400 20331 net.cpp:150] Setting up res4b34_branch2a_relu
I0208 18:22:22.641412 20331 net.cpp:157] Top shape: 1 256 16 16 (65536)
I0208 18:22:22.641417 20331 net.cpp:165] Memory required for data: 631767040
I0208 18:22:22.641420 20331 layer_factory.hpp:77] Creating layer res4b34_branch2b
I0208 18:22:22.641429 20331 net.cpp:100] Creating Layer res4b34_branch2b
I0208 18:22:22.641433 20331 net.cpp:434] res4b34_branch2b <- res4b34_branch2a
I0208 18:22:22.641439 20331 net.cpp:408] res4b34_branch2b -> res4b34_branch2b
I0208 18:22:22.643954 20331 net.cpp:150] Setting up res4b34_branch2b
I0208 18:22:22.643978 20331 net.cpp:157] Top shape: 1 256 16 16 (65536)
I0208 18:22:22.643982 20331 net.cpp:165] Memory required for data: 632029184
I0208 18:22:22.643988 20331 layer_factory.hpp:77] Creating layer bn4b34_branch2b
I0208 18:22:22.643996 20331 net.cpp:100] Creating Layer bn4b34_branch2b
I0208 18:22:22.644001 20331 net.cpp:434] bn4b34_branch2b <- res4b34_branch2b
I0208 18:22:22.644008 20331 net.cpp:395] bn4b34_branch2b -> res4b34_branch2b (in-place)
I0208 18:22:22.644297 20331 net.cpp:150] Setting up bn4b34_branch2b
I0208 18:22:22.644307 20331 net.cpp:157] Top shape: 1 256 16 16 (65536)
I0208 18:22:22.644311 20331 net.cpp:165] Memory required for data: 632291328
I0208 18:22:22.644320 20331 layer_factory.hpp:77] Creating layer scale4b34_branch2b
I0208 18:22:22.644326 20331 net.cpp:100] Creating Layer scale4b34_branch2b
I0208 18:22:22.644331 20331 net.cpp:434] scale4b34_branch2b <- res4b34_branch2b
I0208 18:22:22.644337 20331 net.cpp:395] scale4b34_branch2b -> res4b34_branch2b (in-place)
I0208 18:22:22.644390 20331 layer_factory.hpp:77] Creating layer scale4b34_branch2b
I0208 18:22:22.644548 20331 net.cpp:150] Setting up scale4b34_branch2b
I0208 18:22:22.644560 20331 net.cpp:157] Top shape: 1 256 16 16 (65536)
I0208 18:22:22.644564 20331 net.cpp:165] Memory required for data: 632553472
I0208 18:22:22.644578 20331 layer_factory.hpp:77] Creating layer res4b34_branch2b_relu
I0208 18:22:22.644585 20331 net.cpp:100] Creating Layer res4b34_branch2b_relu
I0208 18:22:22.644589 20331 net.cpp:434] res4b34_branch2b_relu <- res4b34_branch2b
I0208 18:22:22.644594 20331 net.cpp:395] res4b34_branch2b_relu -> res4b34_branch2b (in-place)
I0208 18:22:22.645104 20331 net.cpp:150] Setting up res4b34_branch2b_relu
I0208 18:22:22.645136 20331 net.cpp:157] Top shape: 1 256 16 16 (65536)
I0208 18:22:22.645153 20331 net.cpp:165] Memory required for data: 632815616
I0208 18:22:22.645156 20331 layer_factory.hpp:77] Creating layer res4b34_branch2c
I0208 18:22:22.645165 20331 net.cpp:100] Creating Layer res4b34_branch2c
I0208 18:22:22.645170 20331 net.cpp:434] res4b34_branch2c <- res4b34_branch2b
I0208 18:22:22.645190 20331 net.cpp:408] res4b34_branch2c -> res4b34_branch2c
I0208 18:22:22.647038 20331 net.cpp:150] Setting up res4b34_branch2c
I0208 18:22:22.647063 20331 net.cpp:157] Top shape: 1 1024 16 16 (262144)
I0208 18:22:22.647068 20331 net.cpp:165] Memory required for data: 633864192
I0208 18:22:22.647073 20331 layer_factory.hpp:77] Creating layer bn4b34_branch2c
I0208 18:22:22.647081 20331 net.cpp:100] Creating Layer bn4b34_branch2c
I0208 18:22:22.647097 20331 net.cpp:434] bn4b34_branch2c <- res4b34_branch2c
I0208 18:22:22.647104 20331 net.cpp:395] bn4b34_branch2c -> res4b34_branch2c (in-place)
I0208 18:22:22.647440 20331 net.cpp:150] Setting up bn4b34_branch2c
I0208 18:22:22.647451 20331 net.cpp:157] Top shape: 1 1024 16 16 (262144)
I0208 18:22:22.647466 20331 net.cpp:165] Memory required for data: 634912768
I0208 18:22:22.647475 20331 layer_factory.hpp:77] Creating layer scale4b34_branch2c
I0208 18:22:22.647482 20331 net.cpp:100] Creating Layer scale4b34_branch2c
I0208 18:22:22.647486 20331 net.cpp:434] scale4b34_branch2c <- res4b34_branch2c
I0208 18:22:22.647495 20331 net.cpp:395] scale4b34_branch2c -> res4b34_branch2c (in-place)
I0208 18:22:22.647565 20331 layer_factory.hpp:77] Creating layer scale4b34_branch2c
I0208 18:22:22.647769 20331 net.cpp:150] Setting up scale4b34_branch2c
I0208 18:22:22.647781 20331 net.cpp:157] Top shape: 1 1024 16 16 (262144)
I0208 18:22:22.647785 20331 net.cpp:165] Memory required for data: 635961344
I0208 18:22:22.647792 20331 layer_factory.hpp:77] Creating layer res4b34
I0208 18:22:22.647799 20331 net.cpp:100] Creating Layer res4b34
I0208 18:22:22.647804 20331 net.cpp:434] res4b34 <- res4b33_res4b33_relu_0_split_1
I0208 18:22:22.647809 20331 net.cpp:434] res4b34 <- res4b34_branch2c
I0208 18:22:22.647815 20331 net.cpp:408] res4b34 -> res4b34
I0208 18:22:22.647845 20331 net.cpp:150] Setting up res4b34
I0208 18:22:22.647851 20331 net.cpp:157] Top shape: 1 1024 16 16 (262144)
I0208 18:22:22.647855 20331 net.cpp:165] Memory required for data: 637009920
I0208 18:22:22.647860 20331 layer_factory.hpp:77] Creating layer res4b34_relu
I0208 18:22:22.647866 20331 net.cpp:100] Creating Layer res4b34_relu
I0208 18:22:22.647871 20331 net.cpp:434] res4b34_relu <- res4b34
I0208 18:22:22.647876 20331 net.cpp:395] res4b34_relu -> res4b34 (in-place)
I0208 18:22:22.648350 20331 net.cpp:150] Setting up res4b34_relu
I0208 18:22:22.648365 20331 net.cpp:157] Top shape: 1 1024 16 16 (262144)
I0208 18:22:22.648368 20331 net.cpp:165] Memory required for data: 638058496
I0208 18:22:22.648372 20331 layer_factory.hpp:77] Creating layer res4b34_res4b34_relu_0_split
I0208 18:22:22.648380 20331 net.cpp:100] Creating Layer res4b34_res4b34_relu_0_split
I0208 18:22:22.648385 20331 net.cpp:434] res4b34_res4b34_relu_0_split <- res4b34
I0208 18:22:22.648391 20331 net.cpp:408] res4b34_res4b34_relu_0_split -> res4b34_res4b34_relu_0_split_0
I0208 18:22:22.648411 20331 net.cpp:408] res4b34_res4b34_relu_0_split -> res4b34_res4b34_relu_0_split_1
I0208 18:22:22.648471 20331 net.cpp:150] Setting up res4b34_res4b34_relu_0_split
I0208 18:22:22.648481 20331 net.cpp:157] Top shape: 1 1024 16 16 (262144)
I0208 18:22:22.648497 20331 net.cpp:157] Top shape: 1 1024 16 16 (262144)
I0208 18:22:22.648501 20331 net.cpp:165] Memory required for data: 640155648
I0208 18:22:22.648505 20331 layer_factory.hpp:77] Creating layer res4b35_branch2a
I0208 18:22:22.648514 20331 net.cpp:100] Creating Layer res4b35_branch2a
I0208 18:22:22.648519 20331 net.cpp:434] res4b35_branch2a <- res4b34_res4b34_relu_0_split_0
I0208 18:22:22.648525 20331 net.cpp:408] res4b35_branch2a -> res4b35_branch2a
I0208 18:22:22.651017 20331 net.cpp:150] Setting up res4b35_branch2a
I0208 18:22:22.651044 20331 net.cpp:157] Top shape: 1 256 16 16 (65536)
I0208 18:22:22.651049 20331 net.cpp:165] Memory required for data: 640417792
I0208 18:22:22.651056 20331 layer_factory.hpp:77] Creating layer bn4b35_branch2a
I0208 18:22:22.651063 20331 net.cpp:100] Creating Layer bn4b35_branch2a
I0208 18:22:22.651068 20331 net.cpp:434] bn4b35_branch2a <- res4b35_branch2a
I0208 18:22:22.651074 20331 net.cpp:395] bn4b35_branch2a -> res4b35_branch2a (in-place)
I0208 18:22:22.651284 20331 net.cpp:150] Setting up bn4b35_branch2a
I0208 18:22:22.651295 20331 net.cpp:157] Top shape: 1 256 16 16 (65536)
I0208 18:22:22.651299 20331 net.cpp:165] Memory required for data: 640679936
I0208 18:22:22.651307 20331 layer_factory.hpp:77] Creating layer scale4b35_branch2a
I0208 18:22:22.651315 20331 net.cpp:100] Creating Layer scale4b35_branch2a
I0208 18:22:22.651319 20331 net.cpp:434] scale4b35_branch2a <- res4b35_branch2a
I0208 18:22:22.651324 20331 net.cpp:395] scale4b35_branch2a -> res4b35_branch2a (in-place)
I0208 18:22:22.651365 20331 layer_factory.hpp:77] Creating layer scale4b35_branch2a
I0208 18:22:22.651473 20331 net.cpp:150] Setting up scale4b35_branch2a
I0208 18:22:22.651484 20331 net.cpp:157] Top shape: 1 256 16 16 (65536)
I0208 18:22:22.651486 20331 net.cpp:165] Memory required for data: 640942080
I0208 18:22:22.651494 20331 layer_factory.hpp:77] Creating layer res4b35_branch2a_relu
I0208 18:22:22.651499 20331 net.cpp:100] Creating Layer res4b35_branch2a_relu
I0208 18:22:22.651504 20331 net.cpp:434] res4b35_branch2a_relu <- res4b35_branch2a
I0208 18:22:22.651510 20331 net.cpp:395] res4b35_branch2a_relu -> res4b35_branch2a (in-place)
I0208 18:22:22.651751 20331 net.cpp:150] Setting up res4b35_branch2a_relu
I0208 18:22:22.651765 20331 net.cpp:157] Top shape: 1 256 16 16 (65536)
I0208 18:22:22.651769 20331 net.cpp:165] Memory required for data: 641204224
I0208 18:22:22.651773 20331 layer_factory.hpp:77] Creating layer res4b35_branch2b
I0208 18:22:22.651793 20331 net.cpp:100] Creating Layer res4b35_branch2b
I0208 18:22:22.651798 20331 net.cpp:434] res4b35_branch2b <- res4b35_branch2a
I0208 18:22:22.651805 20331 net.cpp:408] res4b35_branch2b -> res4b35_branch2b
I0208 18:22:22.654345 20331 net.cpp:150] Setting up res4b35_branch2b
I0208 18:22:22.654381 20331 net.cpp:157] Top shape: 1 256 16 16 (65536)
I0208 18:22:22.654384 20331 net.cpp:165] Memory required for data: 641466368
I0208 18:22:22.654391 20331 layer_factory.hpp:77] Creating layer bn4b35_branch2b
I0208 18:22:22.654399 20331 net.cpp:100] Creating Layer bn4b35_branch2b
I0208 18:22:22.654404 20331 net.cpp:434] bn4b35_branch2b <- res4b35_branch2b
I0208 18:22:22.654409 20331 net.cpp:395] bn4b35_branch2b -> res4b35_branch2b (in-place)
I0208 18:22:22.654623 20331 net.cpp:150] Setting up bn4b35_branch2b
I0208 18:22:22.654633 20331 net.cpp:157] Top shape: 1 256 16 16 (65536)
I0208 18:22:22.654636 20331 net.cpp:165] Memory required for data: 641728512
I0208 18:22:22.654644 20331 layer_factory.hpp:77] Creating layer scale4b35_branch2b
I0208 18:22:22.654652 20331 net.cpp:100] Creating Layer scale4b35_branch2b
I0208 18:22:22.654656 20331 net.cpp:434] scale4b35_branch2b <- res4b35_branch2b
I0208 18:22:22.654662 20331 net.cpp:395] scale4b35_branch2b -> res4b35_branch2b (in-place)
I0208 18:22:22.654703 20331 layer_factory.hpp:77] Creating layer scale4b35_branch2b
I0208 18:22:22.654814 20331 net.cpp:150] Setting up scale4b35_branch2b
I0208 18:22:22.654824 20331 net.cpp:157] Top shape: 1 256 16 16 (65536)
I0208 18:22:22.654826 20331 net.cpp:165] Memory required for data: 641990656
I0208 18:22:22.654834 20331 layer_factory.hpp:77] Creating layer res4b35_branch2b_relu
I0208 18:22:22.654839 20331 net.cpp:100] Creating Layer res4b35_branch2b_relu
I0208 18:22:22.654842 20331 net.cpp:434] res4b35_branch2b_relu <- res4b35_branch2b
I0208 18:22:22.654847 20331 net.cpp:395] res4b35_branch2b_relu -> res4b35_branch2b (in-place)
I0208 18:22:22.655323 20331 net.cpp:150] Setting up res4b35_branch2b_relu
I0208 18:22:22.655346 20331 net.cpp:157] Top shape: 1 256 16 16 (65536)
I0208 18:22:22.655350 20331 net.cpp:165] Memory required for data: 642252800
I0208 18:22:22.655354 20331 layer_factory.hpp:77] Creating layer res4b35_branch2c
I0208 18:22:22.655364 20331 net.cpp:100] Creating Layer res4b35_branch2c
I0208 18:22:22.655380 20331 net.cpp:434] res4b35_branch2c <- res4b35_branch2b
I0208 18:22:22.655387 20331 net.cpp:408] res4b35_branch2c -> res4b35_branch2c
I0208 18:22:22.657191 20331 net.cpp:150] Setting up res4b35_branch2c
I0208 18:22:22.657217 20331 net.cpp:157] Top shape: 1 1024 16 16 (262144)
I0208 18:22:22.657222 20331 net.cpp:165] Memory required for data: 643301376
I0208 18:22:22.657228 20331 layer_factory.hpp:77] Creating layer bn4b35_branch2c
I0208 18:22:22.657236 20331 net.cpp:100] Creating Layer bn4b35_branch2c
I0208 18:22:22.657253 20331 net.cpp:434] bn4b35_branch2c <- res4b35_branch2c
I0208 18:22:22.657260 20331 net.cpp:395] bn4b35_branch2c -> res4b35_branch2c (in-place)
I0208 18:22:22.657538 20331 net.cpp:150] Setting up bn4b35_branch2c
I0208 18:22:22.657549 20331 net.cpp:157] Top shape: 1 1024 16 16 (262144)
I0208 18:22:22.657553 20331 net.cpp:165] Memory required for data: 644349952
I0208 18:22:22.657562 20331 layer_factory.hpp:77] Creating layer scale4b35_branch2c
I0208 18:22:22.657570 20331 net.cpp:100] Creating Layer scale4b35_branch2c
I0208 18:22:22.657575 20331 net.cpp:434] scale4b35_branch2c <- res4b35_branch2c
I0208 18:22:22.657582 20331 net.cpp:395] scale4b35_branch2c -> res4b35_branch2c (in-place)
I0208 18:22:22.657649 20331 layer_factory.hpp:77] Creating layer scale4b35_branch2c
I0208 18:22:22.657809 20331 net.cpp:150] Setting up scale4b35_branch2c
I0208 18:22:22.657821 20331 net.cpp:157] Top shape: 1 1024 16 16 (262144)
I0208 18:22:22.657825 20331 net.cpp:165] Memory required for data: 645398528
I0208 18:22:22.657832 20331 layer_factory.hpp:77] Creating layer res4b35
I0208 18:22:22.657840 20331 net.cpp:100] Creating Layer res4b35
I0208 18:22:22.657845 20331 net.cpp:434] res4b35 <- res4b34_res4b34_relu_0_split_1
I0208 18:22:22.657848 20331 net.cpp:434] res4b35 <- res4b35_branch2c
I0208 18:22:22.657855 20331 net.cpp:408] res4b35 -> res4b35
I0208 18:22:22.657876 20331 net.cpp:150] Setting up res4b35
I0208 18:22:22.657883 20331 net.cpp:157] Top shape: 1 1024 16 16 (262144)
I0208 18:22:22.657887 20331 net.cpp:165] Memory required for data: 646447104
I0208 18:22:22.657891 20331 layer_factory.hpp:77] Creating layer res4b35_relu
I0208 18:22:22.657896 20331 net.cpp:100] Creating Layer res4b35_relu
I0208 18:22:22.657901 20331 net.cpp:434] res4b35_relu <- res4b35
I0208 18:22:22.657907 20331 net.cpp:395] res4b35_relu -> res4b35 (in-place)
I0208 18:22:22.658386 20331 net.cpp:150] Setting up res4b35_relu
I0208 18:22:22.658411 20331 net.cpp:157] Top shape: 1 1024 16 16 (262144)
I0208 18:22:22.658414 20331 net.cpp:165] Memory required for data: 647495680
I0208 18:22:22.658418 20331 layer_factory.hpp:77] Creating layer res4b35_res4b35_relu_0_split
I0208 18:22:22.658424 20331 net.cpp:100] Creating Layer res4b35_res4b35_relu_0_split
I0208 18:22:22.658440 20331 net.cpp:434] res4b35_res4b35_relu_0_split <- res4b35
I0208 18:22:22.658447 20331 net.cpp:408] res4b35_res4b35_relu_0_split -> res4b35_res4b35_relu_0_split_0
I0208 18:22:22.658465 20331 net.cpp:408] res4b35_res4b35_relu_0_split -> res4b35_res4b35_relu_0_split_1
I0208 18:22:22.658511 20331 net.cpp:150] Setting up res4b35_res4b35_relu_0_split
I0208 18:22:22.658521 20331 net.cpp:157] Top shape: 1 1024 16 16 (262144)
I0208 18:22:22.658526 20331 net.cpp:157] Top shape: 1 1024 16 16 (262144)
I0208 18:22:22.658530 20331 net.cpp:165] Memory required for data: 649592832
I0208 18:22:22.658534 20331 layer_factory.hpp:77] Creating layer res5a_branch1
I0208 18:22:22.658542 20331 net.cpp:100] Creating Layer res5a_branch1
I0208 18:22:22.658546 20331 net.cpp:434] res5a_branch1 <- res4b35_res4b35_relu_0_split_0
I0208 18:22:22.658553 20331 net.cpp:408] res5a_branch1 -> res5a_branch1
I0208 18:22:22.663565 20331 net.cpp:150] Setting up res5a_branch1
I0208 18:22:22.663594 20331 net.cpp:157] Top shape: 1 2048 8 8 (131072)
I0208 18:22:22.663597 20331 net.cpp:165] Memory required for data: 650117120
I0208 18:22:22.663604 20331 layer_factory.hpp:77] Creating layer bn5a_branch1
I0208 18:22:22.663611 20331 net.cpp:100] Creating Layer bn5a_branch1
I0208 18:22:22.663615 20331 net.cpp:434] bn5a_branch1 <- res5a_branch1
I0208 18:22:22.663621 20331 net.cpp:395] bn5a_branch1 -> res5a_branch1 (in-place)
I0208 18:22:22.663923 20331 net.cpp:150] Setting up bn5a_branch1
I0208 18:22:22.663934 20331 net.cpp:157] Top shape: 1 2048 8 8 (131072)
I0208 18:22:22.663938 20331 net.cpp:165] Memory required for data: 650641408
I0208 18:22:22.663946 20331 layer_factory.hpp:77] Creating layer scale5a_branch1
I0208 18:22:22.663954 20331 net.cpp:100] Creating Layer scale5a_branch1
I0208 18:22:22.663957 20331 net.cpp:434] scale5a_branch1 <- res5a_branch1
I0208 18:22:22.663962 20331 net.cpp:395] scale5a_branch1 -> res5a_branch1 (in-place)
I0208 18:22:22.664033 20331 layer_factory.hpp:77] Creating layer scale5a_branch1
I0208 18:22:22.664194 20331 net.cpp:150] Setting up scale5a_branch1
I0208 18:22:22.664206 20331 net.cpp:157] Top shape: 1 2048 8 8 (131072)
I0208 18:22:22.664209 20331 net.cpp:165] Memory required for data: 651165696
I0208 18:22:22.664216 20331 layer_factory.hpp:77] Creating layer res5a_branch2a
I0208 18:22:22.664227 20331 net.cpp:100] Creating Layer res5a_branch2a
I0208 18:22:22.664232 20331 net.cpp:434] res5a_branch2a <- res4b35_res4b35_relu_0_split_1
I0208 18:22:22.664237 20331 net.cpp:408] res5a_branch2a -> res5a_branch2a
I0208 18:22:22.666649 20331 net.cpp:150] Setting up res5a_branch2a
I0208 18:22:22.666677 20331 net.cpp:157] Top shape: 1 512 8 8 (32768)
I0208 18:22:22.666682 20331 net.cpp:165] Memory required for data: 651296768
I0208 18:22:22.666688 20331 layer_factory.hpp:77] Creating layer bn5a_branch2a
I0208 18:22:22.666697 20331 net.cpp:100] Creating Layer bn5a_branch2a
I0208 18:22:22.666702 20331 net.cpp:434] bn5a_branch2a <- res5a_branch2a
I0208 18:22:22.666709 20331 net.cpp:395] bn5a_branch2a -> res5a_branch2a (in-place)
I0208 18:22:22.666986 20331 net.cpp:150] Setting up bn5a_branch2a
I0208 18:22:22.666997 20331 net.cpp:157] Top shape: 1 512 8 8 (32768)
I0208 18:22:22.667001 20331 net.cpp:165] Memory required for data: 651427840
I0208 18:22:22.667009 20331 layer_factory.hpp:77] Creating layer scale5a_branch2a
I0208 18:22:22.667017 20331 net.cpp:100] Creating Layer scale5a_branch2a
I0208 18:22:22.667021 20331 net.cpp:434] scale5a_branch2a <- res5a_branch2a
I0208 18:22:22.667027 20331 net.cpp:395] scale5a_branch2a -> res5a_branch2a (in-place)
I0208 18:22:22.667096 20331 layer_factory.hpp:77] Creating layer scale5a_branch2a
I0208 18:22:22.667258 20331 net.cpp:150] Setting up scale5a_branch2a
I0208 18:22:22.667268 20331 net.cpp:157] Top shape: 1 512 8 8 (32768)
I0208 18:22:22.667273 20331 net.cpp:165] Memory required for data: 651558912
I0208 18:22:22.667279 20331 layer_factory.hpp:77] Creating layer res5a_branch2a_relu
I0208 18:22:22.667284 20331 net.cpp:100] Creating Layer res5a_branch2a_relu
I0208 18:22:22.667289 20331 net.cpp:434] res5a_branch2a_relu <- res5a_branch2a
I0208 18:22:22.667295 20331 net.cpp:395] res5a_branch2a_relu -> res5a_branch2a (in-place)
I0208 18:22:22.667536 20331 net.cpp:150] Setting up res5a_branch2a_relu
I0208 18:22:22.667549 20331 net.cpp:157] Top shape: 1 512 8 8 (32768)
I0208 18:22:22.667554 20331 net.cpp:165] Memory required for data: 651689984
I0208 18:22:22.667558 20331 layer_factory.hpp:77] Creating layer res5a_branch2b
I0208 18:22:22.667567 20331 net.cpp:100] Creating Layer res5a_branch2b
I0208 18:22:22.667572 20331 net.cpp:434] res5a_branch2b <- res5a_branch2a
I0208 18:22:22.667578 20331 net.cpp:408] res5a_branch2b -> res5a_branch2b
I0208 18:22:22.672940 20331 net.cpp:150] Setting up res5a_branch2b
I0208 18:22:22.672971 20331 net.cpp:157] Top shape: 1 512 8 8 (32768)
I0208 18:22:22.672976 20331 net.cpp:165] Memory required for data: 651821056
I0208 18:22:22.672983 20331 layer_factory.hpp:77] Creating layer bn5a_branch2b
I0208 18:22:22.672993 20331 net.cpp:100] Creating Layer bn5a_branch2b
I0208 18:22:22.672998 20331 net.cpp:434] bn5a_branch2b <- res5a_branch2b
I0208 18:22:22.673004 20331 net.cpp:395] bn5a_branch2b -> res5a_branch2b (in-place)
I0208 18:22:22.673317 20331 net.cpp:150] Setting up bn5a_branch2b
I0208 18:22:22.673329 20331 net.cpp:157] Top shape: 1 512 8 8 (32768)
I0208 18:22:22.673332 20331 net.cpp:165] Memory required for data: 651952128
I0208 18:22:22.673341 20331 layer_factory.hpp:77] Creating layer scale5a_branch2b
I0208 18:22:22.673349 20331 net.cpp:100] Creating Layer scale5a_branch2b
I0208 18:22:22.673353 20331 net.cpp:434] scale5a_branch2b <- res5a_branch2b
I0208 18:22:22.673358 20331 net.cpp:395] scale5a_branch2b -> res5a_branch2b (in-place)
I0208 18:22:22.673427 20331 layer_factory.hpp:77] Creating layer scale5a_branch2b
I0208 18:22:22.673590 20331 net.cpp:150] Setting up scale5a_branch2b
I0208 18:22:22.673602 20331 net.cpp:157] Top shape: 1 512 8 8 (32768)
I0208 18:22:22.673605 20331 net.cpp:165] Memory required for data: 652083200
I0208 18:22:22.673612 20331 layer_factory.hpp:77] Creating layer res5a_branch2b_relu
I0208 18:22:22.673619 20331 net.cpp:100] Creating Layer res5a_branch2b_relu
I0208 18:22:22.673622 20331 net.cpp:434] res5a_branch2b_relu <- res5a_branch2b
I0208 18:22:22.673629 20331 net.cpp:395] res5a_branch2b_relu -> res5a_branch2b (in-place)
I0208 18:22:22.673874 20331 net.cpp:150] Setting up res5a_branch2b_relu
I0208 18:22:22.673887 20331 net.cpp:157] Top shape: 1 512 8 8 (32768)
I0208 18:22:22.673890 20331 net.cpp:165] Memory required for data: 652214272
I0208 18:22:22.673895 20331 layer_factory.hpp:77] Creating layer res5a_branch2c
I0208 18:22:22.673904 20331 net.cpp:100] Creating Layer res5a_branch2c
I0208 18:22:22.673909 20331 net.cpp:434] res5a_branch2c <- res5a_branch2b
I0208 18:22:22.673915 20331 net.cpp:408] res5a_branch2c -> res5a_branch2c
I0208 18:22:22.677126 20331 net.cpp:150] Setting up res5a_branch2c
I0208 18:22:22.677152 20331 net.cpp:157] Top shape: 1 2048 8 8 (131072)
I0208 18:22:22.677158 20331 net.cpp:165] Memory required for data: 652738560
I0208 18:22:22.677165 20331 layer_factory.hpp:77] Creating layer bn5a_branch2c
I0208 18:22:22.677170 20331 net.cpp:100] Creating Layer bn5a_branch2c
I0208 18:22:22.677175 20331 net.cpp:434] bn5a_branch2c <- res5a_branch2c
I0208 18:22:22.677181 20331 net.cpp:395] bn5a_branch2c -> res5a_branch2c (in-place)
I0208 18:22:22.677476 20331 net.cpp:150] Setting up bn5a_branch2c
I0208 18:22:22.677489 20331 net.cpp:157] Top shape: 1 2048 8 8 (131072)
I0208 18:22:22.677492 20331 net.cpp:165] Memory required for data: 653262848
I0208 18:22:22.677500 20331 layer_factory.hpp:77] Creating layer scale5a_branch2c
I0208 18:22:22.677507 20331 net.cpp:100] Creating Layer scale5a_branch2c
I0208 18:22:22.677511 20331 net.cpp:434] scale5a_branch2c <- res5a_branch2c
I0208 18:22:22.677517 20331 net.cpp:395] scale5a_branch2c -> res5a_branch2c (in-place)
I0208 18:22:22.677587 20331 layer_factory.hpp:77] Creating layer scale5a_branch2c
I0208 18:22:22.677752 20331 net.cpp:150] Setting up scale5a_branch2c
I0208 18:22:22.677763 20331 net.cpp:157] Top shape: 1 2048 8 8 (131072)
I0208 18:22:22.677767 20331 net.cpp:165] Memory required for data: 653787136
I0208 18:22:22.677773 20331 layer_factory.hpp:77] Creating layer res5a
I0208 18:22:22.677780 20331 net.cpp:100] Creating Layer res5a
I0208 18:22:22.677784 20331 net.cpp:434] res5a <- res5a_branch1
I0208 18:22:22.677789 20331 net.cpp:434] res5a <- res5a_branch2c
I0208 18:22:22.677796 20331 net.cpp:408] res5a -> res5a
I0208 18:22:22.677822 20331 net.cpp:150] Setting up res5a
I0208 18:22:22.677829 20331 net.cpp:157] Top shape: 1 2048 8 8 (131072)
I0208 18:22:22.677832 20331 net.cpp:165] Memory required for data: 654311424
I0208 18:22:22.677836 20331 layer_factory.hpp:77] Creating layer res5a_relu
I0208 18:22:22.677842 20331 net.cpp:100] Creating Layer res5a_relu
I0208 18:22:22.677846 20331 net.cpp:434] res5a_relu <- res5a
I0208 18:22:22.677851 20331 net.cpp:395] res5a_relu -> res5a (in-place)
I0208 18:22:22.678347 20331 net.cpp:150] Setting up res5a_relu
I0208 18:22:22.678381 20331 net.cpp:157] Top shape: 1 2048 8 8 (131072)
I0208 18:22:22.678385 20331 net.cpp:165] Memory required for data: 654835712
I0208 18:22:22.678390 20331 layer_factory.hpp:77] Creating layer res5a_res5a_relu_0_split
I0208 18:22:22.678397 20331 net.cpp:100] Creating Layer res5a_res5a_relu_0_split
I0208 18:22:22.678411 20331 net.cpp:434] res5a_res5a_relu_0_split <- res5a
I0208 18:22:22.678417 20331 net.cpp:408] res5a_res5a_relu_0_split -> res5a_res5a_relu_0_split_0
I0208 18:22:22.678426 20331 net.cpp:408] res5a_res5a_relu_0_split -> res5a_res5a_relu_0_split_1
I0208 18:22:22.678485 20331 net.cpp:150] Setting up res5a_res5a_relu_0_split
I0208 18:22:22.678494 20331 net.cpp:157] Top shape: 1 2048 8 8 (131072)
I0208 18:22:22.678499 20331 net.cpp:157] Top shape: 1 2048 8 8 (131072)
I0208 18:22:22.678503 20331 net.cpp:165] Memory required for data: 655884288
I0208 18:22:22.678506 20331 layer_factory.hpp:77] Creating layer res5b_branch2a
I0208 18:22:22.678525 20331 net.cpp:100] Creating Layer res5b_branch2a
I0208 18:22:22.678530 20331 net.cpp:434] res5b_branch2a <- res5a_res5a_relu_0_split_0
I0208 18:22:22.678537 20331 net.cpp:408] res5b_branch2a -> res5b_branch2a
I0208 18:22:22.681674 20331 net.cpp:150] Setting up res5b_branch2a
I0208 18:22:22.681700 20331 net.cpp:157] Top shape: 1 512 8 8 (32768)
I0208 18:22:22.681705 20331 net.cpp:165] Memory required for data: 656015360
I0208 18:22:22.681711 20331 layer_factory.hpp:77] Creating layer bn5b_branch2a
I0208 18:22:22.681718 20331 net.cpp:100] Creating Layer bn5b_branch2a
I0208 18:22:22.681723 20331 net.cpp:434] bn5b_branch2a <- res5b_branch2a
I0208 18:22:22.681728 20331 net.cpp:395] bn5b_branch2a -> res5b_branch2a (in-place)
I0208 18:22:22.682004 20331 net.cpp:150] Setting up bn5b_branch2a
I0208 18:22:22.682015 20331 net.cpp:157] Top shape: 1 512 8 8 (32768)
I0208 18:22:22.682019 20331 net.cpp:165] Memory required for data: 656146432
I0208 18:22:22.682027 20331 layer_factory.hpp:77] Creating layer scale5b_branch2a
I0208 18:22:22.682035 20331 net.cpp:100] Creating Layer scale5b_branch2a
I0208 18:22:22.682050 20331 net.cpp:434] scale5b_branch2a <- res5b_branch2a
I0208 18:22:22.682056 20331 net.cpp:395] scale5b_branch2a -> res5b_branch2a (in-place)
I0208 18:22:22.682129 20331 layer_factory.hpp:77] Creating layer scale5b_branch2a
I0208 18:22:22.682293 20331 net.cpp:150] Setting up scale5b_branch2a
I0208 18:22:22.682304 20331 net.cpp:157] Top shape: 1 512 8 8 (32768)
I0208 18:22:22.682320 20331 net.cpp:165] Memory required for data: 656277504
I0208 18:22:22.682327 20331 layer_factory.hpp:77] Creating layer res5b_branch2a_relu
I0208 18:22:22.682345 20331 net.cpp:100] Creating Layer res5b_branch2a_relu
I0208 18:22:22.682350 20331 net.cpp:434] res5b_branch2a_relu <- res5b_branch2a
I0208 18:22:22.682355 20331 net.cpp:395] res5b_branch2a_relu -> res5b_branch2a (in-place)
I0208 18:22:22.682617 20331 net.cpp:150] Setting up res5b_branch2a_relu
I0208 18:22:22.682631 20331 net.cpp:157] Top shape: 1 512 8 8 (32768)
I0208 18:22:22.682636 20331 net.cpp:165] Memory required for data: 656408576
I0208 18:22:22.682639 20331 layer_factory.hpp:77] Creating layer res5b_branch2b
I0208 18:22:22.682648 20331 net.cpp:100] Creating Layer res5b_branch2b
I0208 18:22:22.682653 20331 net.cpp:434] res5b_branch2b <- res5b_branch2a
I0208 18:22:22.682660 20331 net.cpp:408] res5b_branch2b -> res5b_branch2b
I0208 18:22:22.687784 20331 net.cpp:150] Setting up res5b_branch2b
I0208 18:22:22.687800 20331 net.cpp:157] Top shape: 1 512 8 8 (32768)
I0208 18:22:22.687804 20331 net.cpp:165] Memory required for data: 656539648
I0208 18:22:22.687810 20331 layer_factory.hpp:77] Creating layer bn5b_branch2b
I0208 18:22:22.687819 20331 net.cpp:100] Creating Layer bn5b_branch2b
I0208 18:22:22.687822 20331 net.cpp:434] bn5b_branch2b <- res5b_branch2b
I0208 18:22:22.687829 20331 net.cpp:395] bn5b_branch2b -> res5b_branch2b (in-place)
I0208 18:22:22.688140 20331 net.cpp:150] Setting up bn5b_branch2b
I0208 18:22:22.688153 20331 net.cpp:157] Top shape: 1 512 8 8 (32768)
I0208 18:22:22.688156 20331 net.cpp:165] Memory required for data: 656670720
I0208 18:22:22.688166 20331 layer_factory.hpp:77] Creating layer scale5b_branch2b
I0208 18:22:22.688174 20331 net.cpp:100] Creating Layer scale5b_branch2b
I0208 18:22:22.688177 20331 net.cpp:434] scale5b_branch2b <- res5b_branch2b
I0208 18:22:22.688184 20331 net.cpp:395] scale5b_branch2b -> res5b_branch2b (in-place)
I0208 18:22:22.688256 20331 layer_factory.hpp:77] Creating layer scale5b_branch2b
I0208 18:22:22.688446 20331 net.cpp:150] Setting up scale5b_branch2b
I0208 18:22:22.688455 20331 net.cpp:157] Top shape: 1 512 8 8 (32768)
I0208 18:22:22.688459 20331 net.cpp:165] Memory required for data: 656801792
I0208 18:22:22.688465 20331 layer_factory.hpp:77] Creating layer res5b_branch2b_relu
I0208 18:22:22.688474 20331 net.cpp:100] Creating Layer res5b_branch2b_relu
I0208 18:22:22.688478 20331 net.cpp:434] res5b_branch2b_relu <- res5b_branch2b
I0208 18:22:22.688483 20331 net.cpp:395] res5b_branch2b_relu -> res5b_branch2b (in-place)
I0208 18:22:22.688726 20331 net.cpp:150] Setting up res5b_branch2b_relu
I0208 18:22:22.688738 20331 net.cpp:157] Top shape: 1 512 8 8 (32768)
I0208 18:22:22.688748 20331 net.cpp:165] Memory required for data: 656932864
I0208 18:22:22.688752 20331 layer_factory.hpp:77] Creating layer res5b_branch2c
I0208 18:22:22.688762 20331 net.cpp:100] Creating Layer res5b_branch2c
I0208 18:22:22.688767 20331 net.cpp:434] res5b_branch2c <- res5b_branch2b
I0208 18:22:22.688774 20331 net.cpp:408] res5b_branch2c -> res5b_branch2c
I0208 18:22:22.691969 20331 net.cpp:150] Setting up res5b_branch2c
I0208 18:22:22.691997 20331 net.cpp:157] Top shape: 1 2048 8 8 (131072)
I0208 18:22:22.692000 20331 net.cpp:165] Memory required for data: 657457152
I0208 18:22:22.692006 20331 layer_factory.hpp:77] Creating layer bn5b_branch2c
I0208 18:22:22.692013 20331 net.cpp:100] Creating Layer bn5b_branch2c
I0208 18:22:22.692018 20331 net.cpp:434] bn5b_branch2c <- res5b_branch2c
I0208 18:22:22.692025 20331 net.cpp:395] bn5b_branch2c -> res5b_branch2c (in-place)
I0208 18:22:22.692337 20331 net.cpp:150] Setting up bn5b_branch2c
I0208 18:22:22.692349 20331 net.cpp:157] Top shape: 1 2048 8 8 (131072)
I0208 18:22:22.692353 20331 net.cpp:165] Memory required for data: 657981440
I0208 18:22:22.692363 20331 layer_factory.hpp:77] Creating layer scale5b_branch2c
I0208 18:22:22.692369 20331 net.cpp:100] Creating Layer scale5b_branch2c
I0208 18:22:22.692373 20331 net.cpp:434] scale5b_branch2c <- res5b_branch2c
I0208 18:22:22.692378 20331 net.cpp:395] scale5b_branch2c -> res5b_branch2c (in-place)
I0208 18:22:22.692451 20331 layer_factory.hpp:77] Creating layer scale5b_branch2c
I0208 18:22:22.692636 20331 net.cpp:150] Setting up scale5b_branch2c
I0208 18:22:22.692646 20331 net.cpp:157] Top shape: 1 2048 8 8 (131072)
I0208 18:22:22.692651 20331 net.cpp:165] Memory required for data: 658505728
I0208 18:22:22.692656 20331 layer_factory.hpp:77] Creating layer res5b
I0208 18:22:22.692663 20331 net.cpp:100] Creating Layer res5b
I0208 18:22:22.692668 20331 net.cpp:434] res5b <- res5a_res5a_relu_0_split_1
I0208 18:22:22.692673 20331 net.cpp:434] res5b <- res5b_branch2c
I0208 18:22:22.692679 20331 net.cpp:408] res5b -> res5b
I0208 18:22:22.692706 20331 net.cpp:150] Setting up res5b
I0208 18:22:22.692713 20331 net.cpp:157] Top shape: 1 2048 8 8 (131072)
I0208 18:22:22.692716 20331 net.cpp:165] Memory required for data: 659030016
I0208 18:22:22.692720 20331 layer_factory.hpp:77] Creating layer res5b_relu
I0208 18:22:22.692725 20331 net.cpp:100] Creating Layer res5b_relu
I0208 18:22:22.692729 20331 net.cpp:434] res5b_relu <- res5b
I0208 18:22:22.692735 20331 net.cpp:395] res5b_relu -> res5b (in-place)
I0208 18:22:22.693220 20331 net.cpp:150] Setting up res5b_relu
I0208 18:22:22.693246 20331 net.cpp:157] Top shape: 1 2048 8 8 (131072)
I0208 18:22:22.693250 20331 net.cpp:165] Memory required for data: 659554304
I0208 18:22:22.693255 20331 layer_factory.hpp:77] Creating layer res5b_res5b_relu_0_split
I0208 18:22:22.693261 20331 net.cpp:100] Creating Layer res5b_res5b_relu_0_split
I0208 18:22:22.693265 20331 net.cpp:434] res5b_res5b_relu_0_split <- res5b
I0208 18:22:22.693274 20331 net.cpp:408] res5b_res5b_relu_0_split -> res5b_res5b_relu_0_split_0
I0208 18:22:22.693290 20331 net.cpp:408] res5b_res5b_relu_0_split -> res5b_res5b_relu_0_split_1
I0208 18:22:22.693348 20331 net.cpp:150] Setting up res5b_res5b_relu_0_split
I0208 18:22:22.693356 20331 net.cpp:157] Top shape: 1 2048 8 8 (131072)
I0208 18:22:22.693361 20331 net.cpp:157] Top shape: 1 2048 8 8 (131072)
I0208 18:22:22.693364 20331 net.cpp:165] Memory required for data: 660602880
I0208 18:22:22.693367 20331 layer_factory.hpp:77] Creating layer res5c_branch2a
I0208 18:22:22.693375 20331 net.cpp:100] Creating Layer res5c_branch2a
I0208 18:22:22.693379 20331 net.cpp:434] res5c_branch2a <- res5b_res5b_relu_0_split_0
I0208 18:22:22.693387 20331 net.cpp:408] res5c_branch2a -> res5c_branch2a
I0208 18:22:22.696666 20331 net.cpp:150] Setting up res5c_branch2a
I0208 18:22:22.696692 20331 net.cpp:157] Top shape: 1 512 8 8 (32768)
I0208 18:22:22.696696 20331 net.cpp:165] Memory required for data: 660733952
I0208 18:22:22.696702 20331 layer_factory.hpp:77] Creating layer bn5c_branch2a
I0208 18:22:22.696710 20331 net.cpp:100] Creating Layer bn5c_branch2a
I0208 18:22:22.696714 20331 net.cpp:434] bn5c_branch2a <- res5c_branch2a
I0208 18:22:22.696720 20331 net.cpp:395] bn5c_branch2a -> res5c_branch2a (in-place)
I0208 18:22:22.697032 20331 net.cpp:150] Setting up bn5c_branch2a
I0208 18:22:22.697044 20331 net.cpp:157] Top shape: 1 512 8 8 (32768)
I0208 18:22:22.697048 20331 net.cpp:165] Memory required for data: 660865024
I0208 18:22:22.697057 20331 layer_factory.hpp:77] Creating layer scale5c_branch2a
I0208 18:22:22.697064 20331 net.cpp:100] Creating Layer scale5c_branch2a
I0208 18:22:22.697068 20331 net.cpp:434] scale5c_branch2a <- res5c_branch2a
I0208 18:22:22.697077 20331 net.cpp:395] scale5c_branch2a -> res5c_branch2a (in-place)
I0208 18:22:22.697146 20331 layer_factory.hpp:77] Creating layer scale5c_branch2a
I0208 18:22:22.697309 20331 net.cpp:150] Setting up scale5c_branch2a
I0208 18:22:22.697320 20331 net.cpp:157] Top shape: 1 512 8 8 (32768)
I0208 18:22:22.697324 20331 net.cpp:165] Memory required for data: 660996096
I0208 18:22:22.697330 20331 layer_factory.hpp:77] Creating layer res5c_branch2a_relu
I0208 18:22:22.697336 20331 net.cpp:100] Creating Layer res5c_branch2a_relu
I0208 18:22:22.697340 20331 net.cpp:434] res5c_branch2a_relu <- res5c_branch2a
I0208 18:22:22.697345 20331 net.cpp:395] res5c_branch2a_relu -> res5c_branch2a (in-place)
I0208 18:22:22.697583 20331 net.cpp:150] Setting up res5c_branch2a_relu
I0208 18:22:22.697595 20331 net.cpp:157] Top shape: 1 512 8 8 (32768)
I0208 18:22:22.697599 20331 net.cpp:165] Memory required for data: 661127168
I0208 18:22:22.697604 20331 layer_factory.hpp:77] Creating layer res5c_branch2b
I0208 18:22:22.697613 20331 net.cpp:100] Creating Layer res5c_branch2b
I0208 18:22:22.697618 20331 net.cpp:434] res5c_branch2b <- res5c_branch2a
I0208 18:22:22.697623 20331 net.cpp:408] res5c_branch2b -> res5c_branch2b
I0208 18:22:22.702817 20331 net.cpp:150] Setting up res5c_branch2b
I0208 18:22:22.702847 20331 net.cpp:157] Top shape: 1 512 8 8 (32768)
I0208 18:22:22.702850 20331 net.cpp:165] Memory required for data: 661258240
I0208 18:22:22.702857 20331 layer_factory.hpp:77] Creating layer bn5c_branch2b
I0208 18:22:22.702865 20331 net.cpp:100] Creating Layer bn5c_branch2b
I0208 18:22:22.702869 20331 net.cpp:434] bn5c_branch2b <- res5c_branch2b
I0208 18:22:22.702874 20331 net.cpp:395] bn5c_branch2b -> res5c_branch2b (in-place)
I0208 18:22:22.703179 20331 net.cpp:150] Setting up bn5c_branch2b
I0208 18:22:22.703191 20331 net.cpp:157] Top shape: 1 512 8 8 (32768)
I0208 18:22:22.703194 20331 net.cpp:165] Memory required for data: 661389312
I0208 18:22:22.703202 20331 layer_factory.hpp:77] Creating layer scale5c_branch2b
I0208 18:22:22.703208 20331 net.cpp:100] Creating Layer scale5c_branch2b
I0208 18:22:22.703212 20331 net.cpp:434] scale5c_branch2b <- res5c_branch2b
I0208 18:22:22.703219 20331 net.cpp:395] scale5c_branch2b -> res5c_branch2b (in-place)
I0208 18:22:22.703286 20331 layer_factory.hpp:77] Creating layer scale5c_branch2b
I0208 18:22:22.703452 20331 net.cpp:150] Setting up scale5c_branch2b
I0208 18:22:22.703464 20331 net.cpp:157] Top shape: 1 512 8 8 (32768)
I0208 18:22:22.703466 20331 net.cpp:165] Memory required for data: 661520384
I0208 18:22:22.703474 20331 layer_factory.hpp:77] Creating layer res5c_branch2b_relu
I0208 18:22:22.703479 20331 net.cpp:100] Creating Layer res5c_branch2b_relu
I0208 18:22:22.703482 20331 net.cpp:434] res5c_branch2b_relu <- res5c_branch2b
I0208 18:22:22.703487 20331 net.cpp:395] res5c_branch2b_relu -> res5c_branch2b (in-place)
I0208 18:22:22.703730 20331 net.cpp:150] Setting up res5c_branch2b_relu
I0208 18:22:22.703742 20331 net.cpp:157] Top shape: 1 512 8 8 (32768)
I0208 18:22:22.703747 20331 net.cpp:165] Memory required for data: 661651456
I0208 18:22:22.703750 20331 layer_factory.hpp:77] Creating layer res5c_branch2c
I0208 18:22:22.703759 20331 net.cpp:100] Creating Layer res5c_branch2c
I0208 18:22:22.703764 20331 net.cpp:434] res5c_branch2c <- res5c_branch2b
I0208 18:22:22.703771 20331 net.cpp:408] res5c_branch2c -> res5c_branch2c
I0208 18:22:22.706923 20331 net.cpp:150] Setting up res5c_branch2c
I0208 18:22:22.706948 20331 net.cpp:157] Top shape: 1 2048 8 8 (131072)
I0208 18:22:22.706954 20331 net.cpp:165] Memory required for data: 662175744
I0208 18:22:22.706959 20331 layer_factory.hpp:77] Creating layer bn5c_branch2c
I0208 18:22:22.706967 20331 net.cpp:100] Creating Layer bn5c_branch2c
I0208 18:22:22.706971 20331 net.cpp:434] bn5c_branch2c <- res5c_branch2c
I0208 18:22:22.706977 20331 net.cpp:395] bn5c_branch2c -> res5c_branch2c (in-place)
I0208 18:22:22.707267 20331 net.cpp:150] Setting up bn5c_branch2c
I0208 18:22:22.707278 20331 net.cpp:157] Top shape: 1 2048 8 8 (131072)
I0208 18:22:22.707281 20331 net.cpp:165] Memory required for data: 662700032
I0208 18:22:22.707289 20331 layer_factory.hpp:77] Creating layer scale5c_branch2c
I0208 18:22:22.707296 20331 net.cpp:100] Creating Layer scale5c_branch2c
I0208 18:22:22.707301 20331 net.cpp:434] scale5c_branch2c <- res5c_branch2c
I0208 18:22:22.707306 20331 net.cpp:395] scale5c_branch2c -> res5c_branch2c (in-place)
I0208 18:22:22.707376 20331 layer_factory.hpp:77] Creating layer scale5c_branch2c
I0208 18:22:22.707541 20331 net.cpp:150] Setting up scale5c_branch2c
I0208 18:22:22.707552 20331 net.cpp:157] Top shape: 1 2048 8 8 (131072)
I0208 18:22:22.707556 20331 net.cpp:165] Memory required for data: 663224320
I0208 18:22:22.707562 20331 layer_factory.hpp:77] Creating layer res5c
I0208 18:22:22.707569 20331 net.cpp:100] Creating Layer res5c
I0208 18:22:22.707574 20331 net.cpp:434] res5c <- res5b_res5b_relu_0_split_1
I0208 18:22:22.707579 20331 net.cpp:434] res5c <- res5c_branch2c
I0208 18:22:22.707584 20331 net.cpp:408] res5c -> res5c
I0208 18:22:22.707623 20331 net.cpp:150] Setting up res5c
I0208 18:22:22.707633 20331 net.cpp:157] Top shape: 1 2048 8 8 (131072)
I0208 18:22:22.707636 20331 net.cpp:165] Memory required for data: 663748608
I0208 18:22:22.707640 20331 layer_factory.hpp:77] Creating layer res5c_relu
I0208 18:22:22.707645 20331 net.cpp:100] Creating Layer res5c_relu
I0208 18:22:22.707649 20331 net.cpp:434] res5c_relu <- res5c
I0208 18:22:22.707656 20331 net.cpp:395] res5c_relu -> res5c (in-place)
I0208 18:22:22.708174 20331 net.cpp:150] Setting up res5c_relu
I0208 18:22:22.708199 20331 net.cpp:157] Top shape: 1 2048 8 8 (131072)
I0208 18:22:22.708202 20331 net.cpp:165] Memory required for data: 664272896
I0208 18:22:22.708206 20331 layer_factory.hpp:77] Creating layer res5c_res5c_relu_0_split
I0208 18:22:22.708212 20331 net.cpp:100] Creating Layer res5c_res5c_relu_0_split
I0208 18:22:22.708216 20331 net.cpp:434] res5c_res5c_relu_0_split <- res5c
I0208 18:22:22.708235 20331 net.cpp:408] res5c_res5c_relu_0_split -> res5c_res5c_relu_0_split_0
I0208 18:22:22.708243 20331 net.cpp:408] res5c_res5c_relu_0_split -> res5c_res5c_relu_0_split_1
I0208 18:22:22.708302 20331 net.cpp:150] Setting up res5c_res5c_relu_0_split
I0208 18:22:22.708312 20331 net.cpp:157] Top shape: 1 2048 8 8 (131072)
I0208 18:22:22.708317 20331 net.cpp:157] Top shape: 1 2048 8 8 (131072)
I0208 18:22:22.708322 20331 net.cpp:165] Memory required for data: 665321472
I0208 18:22:22.708324 20331 layer_factory.hpp:77] Creating layer score_fr_sem
I0208 18:22:22.708336 20331 net.cpp:100] Creating Layer score_fr_sem
I0208 18:22:22.708340 20331 net.cpp:434] score_fr_sem <- res5c_res5c_relu_0_split_0
I0208 18:22:22.708348 20331 net.cpp:408] score_fr_sem -> score_fr_sem
I0208 18:22:22.711704 20331 net.cpp:150] Setting up score_fr_sem
I0208 18:22:22.711719 20331 net.cpp:157] Top shape: 1 33 8 8 (2112)
I0208 18:22:22.711722 20331 net.cpp:165] Memory required for data: 665329920
I0208 18:22:22.711730 20331 layer_factory.hpp:77] Creating layer upscore_sem
I0208 18:22:22.711738 20331 net.cpp:100] Creating Layer upscore_sem
I0208 18:22:22.711742 20331 net.cpp:434] upscore_sem <- score_fr_sem
I0208 18:22:22.711747 20331 net.cpp:408] upscore_sem -> upscore_sem
I0208 18:22:22.719377 20331 net.cpp:150] Setting up upscore_sem
I0208 18:22:22.719401 20331 net.cpp:157] Top shape: 1 33 288 288 (2737152)
I0208 18:22:22.719405 20331 net.cpp:165] Memory required for data: 676278528
I0208 18:22:22.719413 20331 layer_factory.hpp:77] Creating layer score_sem
I0208 18:22:22.719422 20331 net.cpp:100] Creating Layer score_sem
I0208 18:22:22.719429 20331 net.cpp:434] score_sem <- upscore_sem
I0208 18:22:22.719435 20331 net.cpp:434] score_sem <- data_data_0_split_1
I0208 18:22:22.719441 20331 net.cpp:408] score_sem -> score_sem
I0208 18:22:22.719480 20331 net.cpp:150] Setting up score_sem
I0208 18:22:22.719486 20331 net.cpp:157] Top shape: 1 33 256 256 (2162688)
I0208 18:22:22.719490 20331 net.cpp:165] Memory required for data: 684929280
I0208 18:22:22.719492 20331 layer_factory.hpp:77] Creating layer loss
I0208 18:22:22.719506 20331 net.cpp:100] Creating Layer loss
I0208 18:22:22.719509 20331 net.cpp:434] loss <- score_sem
I0208 18:22:22.719513 20331 net.cpp:434] loss <- sem
I0208 18:22:22.719518 20331 net.cpp:408] loss -> loss
I0208 18:22:22.719528 20331 layer_factory.hpp:77] Creating layer loss
I0208 18:22:22.723423 20331 net.cpp:150] Setting up loss
I0208 18:22:22.723439 20331 net.cpp:157] Top shape: (1)
I0208 18:22:22.723443 20331 net.cpp:160]     with loss weight 1
I0208 18:22:22.723453 20331 net.cpp:165] Memory required for data: 684929284
I0208 18:22:22.723456 20331 layer_factory.hpp:77] Creating layer score_fr_geo
I0208 18:22:22.723471 20331 net.cpp:100] Creating Layer score_fr_geo
I0208 18:22:22.723476 20331 net.cpp:434] score_fr_geo <- res5c_res5c_relu_0_split_1
I0208 18:22:22.723482 20331 net.cpp:408] score_fr_geo -> score_fr_geo
I0208 18:22:22.725337 20331 net.cpp:150] Setting up score_fr_geo
I0208 18:22:22.725352 20331 net.cpp:157] Top shape: 1 3 8 8 (192)
I0208 18:22:22.725355 20331 net.cpp:165] Memory required for data: 684930052
I0208 18:22:22.725363 20331 layer_factory.hpp:77] Creating layer upscore_geo
I0208 18:22:22.725371 20331 net.cpp:100] Creating Layer upscore_geo
I0208 18:22:22.725375 20331 net.cpp:434] upscore_geo <- score_fr_geo
I0208 18:22:22.725383 20331 net.cpp:408] upscore_geo -> upscore_geo
I0208 18:22:22.726130 20331 net.cpp:150] Setting up upscore_geo
I0208 18:22:22.726142 20331 net.cpp:157] Top shape: 1 3 288 288 (248832)
I0208 18:22:22.726146 20331 net.cpp:165] Memory required for data: 685925380
I0208 18:22:22.726151 20331 layer_factory.hpp:77] Creating layer score_geo
I0208 18:22:22.726157 20331 net.cpp:100] Creating Layer score_geo
I0208 18:22:22.726161 20331 net.cpp:434] score_geo <- upscore_geo
I0208 18:22:22.726166 20331 net.cpp:434] score_geo <- data_data_0_split_2
I0208 18:22:22.726171 20331 net.cpp:408] score_geo -> score_geo
I0208 18:22:22.726275 20331 net.cpp:150] Setting up score_geo
I0208 18:22:22.726286 20331 net.cpp:157] Top shape: 1 3 256 256 (196608)
I0208 18:22:22.726290 20331 net.cpp:165] Memory required for data: 686711812
I0208 18:22:22.726294 20331 layer_factory.hpp:77] Creating layer loss_geo
I0208 18:22:22.726302 20331 net.cpp:100] Creating Layer loss_geo
I0208 18:22:22.726306 20331 net.cpp:434] loss_geo <- score_geo
I0208 18:22:22.726310 20331 net.cpp:434] loss_geo <- geo
I0208 18:22:22.726315 20331 net.cpp:408] loss_geo -> loss_geo
…
