…
weight_decay: 0.0005
test_initialization: false
average_loss: 20
iter_size: 1
I0130 21:53:17.559330 13635 solver.cpp:81] Creating training net from train_net file: trainval.prototxt
I0130 21:53:17.572718 13635 net.cpp:58] Initializing net from parameters: 
name: "FCNResNet152Train"
state {
  phase: TRAIN
}
layer {
  name: "data"
  type: "Python"
  top: "data"
  top: "sem"
  top: "geo"
  python_param {
    module: "siftflow_layers"
    layer: "SIFTFlowSegDataLayer"
    param_str: "{\'siftflow_dir\': \'../data/sift-flow\', \'seed\': 1337, \'split\': \'trainval\'}"
  }
}
layer {
  name: "conv1"
  type: "Convolution"
  bottom: "data"
  top: "conv1"
  convolution_param {
    num_output: 64
    bias_term: false
    pad: 3
    kernel_size: 7
    stride: 2
  }
}
layer {
  name: "bn_conv1"
  type: "BatchNorm"
  bottom: "conv1"
  top: "conv1"
  batch_norm_param {
    use_global_stats: true
  }
}
layer {
  name: "scale_conv1"
  type: "Scale"
  bottom: "conv1"
  top: "conv1"
  scale_param {
    bias_term: true
  }
}
layer {
  name: "conv1_relu"
  type: "ReLU"
  bottom: "conv1"
  top: "conv1"
}
layer {
  name: "pool1"
  type: "Pooling"
  bottom: "conv1"
  top: "pool1"
  pooling_param {
    pool: MAX
    kernel_size: 3
    stride: 2
  }
}
layer {
  name: "res2a_branch1"
  type: "Convolution"
  bottom: "pool1"
  top: "res2a_branch1"
  convolution_param {
    num_output: 256
    bias_term: false
    pad: 0
    kernel_size: 1
    stride: 1
  }
}
layer {
  name: "bn2a_branch1"
  type: "BatchNorm"
  bottom: "res2a_branch1"
  top: "res2a_branch1"
  batch_norm_param {
    use_global_stats: true
  }
}
layer {
  name: "scale2a_branch1"
  type: "Scale"
  bottom: "res2a_branch1"
  top: "res2a_branch1"
  scale_param {
    bias_term: true
  }
}
layer {
  name: "res2a_branch2a"
  type: "Convolution"
  bottom: "pool1"
  top: "res2a_branch2a"
  convolution_param {
    num_output: 64
    bias_term: false
    pad: 0
    kernel_size: 1
    stride: 1
  }
}
layer {
  name: "bn2a_branch2a"
  type: "BatchNorm"
  bottom: "res2a_branch2a"
  top: "res2a_branch2a"
  batch_norm_param {
    use_global_stats: true
  }
}
layer {
  name: "scale2a_branch2a"
  type: "Scale"
  bottom: "res2a_branch2a"
  top: "res2a_branch2a"
  scale_param {
    bias_term: true
  }
}
layer {
  name: "res2a_branch2a_relu"
  type: "ReLU"
  bottom: "res2a_branch2a"
  top: "res2a_branch2a"
}
layer {
  name: "res2a_branch2b"
  type: "Convolution"
  bottom: "res2a_branch2a"
  top: "res2a_branch2b"
  convolution_param {
    num_output: 64
    bias_term: false
    pad: 1
    kernel_size: 3
    stride: 1
  }
}
layer {
  name: "bn2a_branch2b"
  type: "BatchNorm"
  bottom: "res2a_branch2b"
  top: "res2a_branch2b"
  batch_norm_param {
    use_global_stats: true
  }
}
layer {
  name: "scale2a_branch2b"
  type: "Scale"
  bottom: "res2a_branch2b"
  top: "res2a_branch2b"
  scale_param {
    bias_term: true
  }
}
layer {
  name: "res2a_branch2b_relu"
  type: "ReLU"
  bottom: "res2a_branch2b"
  top: "res2a_branch2b"
}
layer {
  name: "res2a_branch2c"
  type: "Convolution"
  bottom: "res2a_branch2b"
  top: "res2a_branch2c"
  convolution_param {
    num_output: 256
    bias_term: false
    pad: 0
    kernel_size: 1
    stride: 1
  }
}
layer {
  name: "bn2a_branch2c"
  type: "BatchNorm"
  bottom: "res2a_branch2c"
  top: "res2a_branch2c"
  batch_norm_param {
    use_global_stats: true
  }
}
layer {
  name: "scale2a_branch2c"
  type: "Scale"
  bottom: "res2a_branch2c"
  top: "res2a_branch2c"
  scale_param {
    bias_term: true
  }
}
layer {
  name: "res2a"
  type: "Eltwise"
  bottom: "res2a_branch1"
  bottom: "res2a_branch2c"
  top: "res2a"
}
layer {
  name: "res2a_relu"
  type: "ReLU"
  bottom: "res2a"
  top: "res2a"
}
layer {
  name: "res2b_branch2a"
  type: "Convolution"
  bottom: "res2a"
  top: "res2b_branch2a"
  convolution_param {
    num_output: 64
    bias_term: false
    pad: 0
    kernel_size: 1
    stride: 1
  }
}
layer {
  name: "bn2b_branch2a"
  type: "BatchNorm"
  bottom: "res2b_branch2a"
  top: "res2b_branch2a"
  batch_norm_param {
    use_global_stats: true
  }
}
layer {
  name: "scale2b_branch2a"
  type: "Scale"
  bottom: "res2b_branch2a"
  top: "res2b_branch2a"
  scale_param {
    bias_term: true
  }
}
layer {
  name: "res2b_branch2a_relu"
  type: "ReLU"
  bottom: "res2b_branch2a"
  top: "res2b_branch2a"
}
layer {
  name: "res2b_branch2b"
  type: "Convolution"
  bottom: "res2b_branch2a"
  top: "res2b_branch2b"
  convolution_param {
    num_output: 64
    bias_term: false
    pad: 1
    kernel_size: 3
    stride: 1
  }
}
layer {
  name: "bn2b_branch2b"
  type: "BatchNorm"
  bottom: "res2b_branch2b"
  top: "res2b_branch2b"
  batch_norm_param {
    use_global_stats: true
  }
}
layer {
  name: "scale2b_branch2b"
  type: "Scale"
  bottom: "res2b_branch2b"
  top: "res2b_branch2b"
  scale_param {
    bias_term: true
  }
}
layer {
  name: "res2b_branch2b_relu"
  type: "ReLU"
  bottom: "res2b_branch2b"
  top: "res2b_branch2b"
}
layer {
  name: "res2b_branch2c"
  type: "Convolution"
  bottom: "res2b_branch2b"
  top: "res2b_branch2c"
  convolution_param {
    num_output: 256
    bias_term: false
    pad: 0
    kernel_size: 1
    stride: 1
  }
}
layer {
  name: "bn2b_branch2c"
  type: "BatchNorm"
  bottom: "res2b_branch2c"
  top: "res2b_branch2c"
  batch_norm_param {
    use_global_stats: true
  }
}
layer {
  name: "scale2b_branch2c"
  type: "Scale"
  bottom: "res2b_branch2c"
  top: "res2b_branch2c"
  scale_param {
    bias_term: true
  }
}
layer {
  name: "res2b"
  type: "Eltwise"
  bottom: "res2a"
  bottom: "res2b_branch2c"
  top: "res2b"
}
layer {
  name: "res2b_relu"
  type: "ReLU"
  bottom: "res2b"
  top: "res2b"
}
layer {
  name: "res2c_branch2a"
  type: "Convolution"
  bottom: "res2b"
  top: "res2c_branch2a"
  convolution_param {
    num_output: 64
    bias_term: false
    pad: 0
    kernel_size: 1
    stride: 1
  }
}
layer {
  name: "bn2c_branch2a"
  type: "BatchNorm"
  bottom: "res2c_branch2a"
  top: "res2c_branch2a"
  batch_norm_param {
    use_global_stats: true
  }
}
layer {
  name: "scale2c_branch2a"
  type: "Scale"
  bottom: "res2c_branch2a"
  top: "res2c_branch2a"
  scale_param {
    bias_term: true
  }
}
layer {
  name: "res2c_branch2a_relu"
  type: "ReLU"
  bottom: "res2c_branch2a"
  top: "res2c_branch2a"
}
layer {
  name: "res2c_branch2b"
  type: "Convolution"
  bottom: "res2c_branch2a"
  top: "res2c_branch2b"
  convolution_param {
    num_output: 64
    bias_term: false
    pad: 1
    kernel_size: 3
    stride: 1
  }
}
layer {
  name: "bn2c_branch2b"
  type: "BatchNorm"
  bottom: "res2c_branch2b"
  top: "res2c_branch2b"
  batch_norm_param {
    use_global_stats: true
  }
}
layer {
  name: "scale2c_branch2b"
  type: "Scale"
  bottom: "res2c_branch2b"
  top: "res2c_branch2b"
  scale_param {
    bias_term: true
  }
}
layer {
  name: "res2c_branch2b_relu"
  type: "ReLU"
  bottom: "res2c_branch2b"
  top: "res2c_branch2b"
}
layer {
  name: "res2c_branch2c"
  type: "Convolution"
  bottom: "res2c_branch2b"
  top: "res2c_branch2c"
  convolution_param {
    num_output: 256
    bias_term: false
    pad: 0
    kernel_size: 1
    stride: 1
  }
}
layer {
  name: "bn2c_branch2c"
  type: "BatchNorm"
  bottom: "res2c_branch2c"
  top: "res2c_branch2c"
  batch_norm_param {
    use_global_stats: true
  }
}
layer {
  name: "scale2c_branch2c"
  type: "Scale"
  bottom: "res2c_branch2c"
  top: "res2c_branch2c"
  scale_param {
    bias_term: true
  }
}
layer {
  name: "res2c"
  type: "Eltwise"
  bottom: "res2b"
  bottom: "res2c_branch2c"
  top: "res2c"
}
layer {
  name: "res2c_relu"
  type: "ReLU"
  bottom: "res2c"
  top: "res2c"
}
layer {
  name: "res3a_branch1"
  type: "Convolution"
  bottom: "res2c"
  top: "res3a_branch1"
  convolution_param {
    num_output: 512
    bias_term: false
    pad: 0
    kernel_size: 1
    stride: 2
  }
}
layer {
  name: "bn3a_branch1"
  type: "BatchNorm"
  bottom: "res3a_branch1"
  top: "res3a_branch1"
  batch_norm_param {
    use_global_stats: true
  }
}
layer {
  name: "scale3a_branch1"
  type: "Scale"
  bottom: "res3a_branch1"
  top: "res3a_branch1"
  scale_param {
    bias_term: true
  }
}
layer {
  name: "res3a_branch2a"
  type: "Convolution"
  bottom: "res2c"
  top: "res3a_branch2a"
  convolution_param {
    num_output: 128
    bias_term: false
    pad: 0
    kernel_size: 1
    stride: 2
  }
}
layer {
  name: "bn3a_branch2a"
  type: "BatchNorm"
  bottom: "res3a_branch2a"
  top: "res3a_branch2a"
  batch_norm_param {
    use_global_stats: true
  }
}
layer {
  name: "scale3a_branch2a"
  type: "Scale"
  bottom: "res3a_branch2a"
  top: "res3a_branch2a"
  scale_param {
    bias_term: true
  }
}
layer {
  name: "res3a_branch2a_relu"
  type: "ReLU"
  bottom: "res3a_branch2a"
  top: "res3a_branch2a"
}
layer {
  name: "res3a_branch2b"
  type: "Convolution"
  bottom: "res3a_branch2a"
  top: "res3a_branch2b"
  convolution_param {
    num_output: 128
    bias_term: false
    pad: 1
    kernel_size: 3
    stride: 1
  }
}
layer {
  name: "bn3a_branch2b"
  type: "BatchNorm"
  bottom: "res3a_branch2b"
  top: "res3a_branch2b"
  batch_norm_param {
    use_global_stats: true
  }
}
layer {
  name: "scale3a_branch2b"
  type: "Scale"
  bottom: "res3a_branch2b"
  top: "res3a_branch2b"
  scale_param {
    bias_term: true
  }
}
layer {
  name: "res3a_branch2b_relu"
  type: "ReLU"
  bottom: "res3a_branch2b"
  top: "res3a_branch2b"
}
layer {
  name: "res3a_branch2c"
  type: "Convolution"
  bottom: "res3a_branch2b"
  top: "res3a_branch2c"
  convolution_param {
    num_output: 512
    bias_term: false
    pad: 0
    kernel_size: 1
    stride: 1
  }
}
layer {
  name: "bn3a_branch2c"
  type: "BatchNorm"
  bottom: "res3a_branch2c"
  top: "res3a_branch2c"
  batch_norm_param {
    use_global_stats: true
  }
}
layer {
  name: "scale3a_branch2c"
  type: "Scale"
  bottom: "res3a_branch2c"
  top: "res3a_branch2c"
  scale_param {
    bias_term: true
  }
}
layer {
  name: "res3a"
  type: "Eltwise"
  bottom: "res3a_branch1"
  bottom: "res3a_branch2c"
  top: "res3a"
}
layer {
  name: "res3a_relu"
  type: "ReLU"
  bottom: "res3a"
  top: "res3a"
}
layer {
  name: "res3b1_branch2a"
  type: "Convolution"
  bottom: "res3a"
  top: "res3b1_branch2a"
  convolution_param {
    num_output: 128
    bias_term: false
    pad: 0
    kernel_size: 1
    stride: 1
  }
}
layer {
  name: "bn3b1_branch2a"
  type: "BatchNorm"
  bottom: "res3b1_branch2a"
  top: "res3b1_branch2a"
  batch_norm_param {
    use_global_stats: true
  }
}
layer {
  name: "scale3b1_branch2a"
  type: "Scale"
  bottom: "res3b1_branch2a"
  top: "res3b1_branch2a"
  scale_param {
    bias_term: true
  }
}
layer {
  name: "res3b1_branch2a_relu"
  type: "ReLU"
  bottom: "res3b1_branch2a"
  top: "res3b1_branch2a"
}
layer {
  name: "res3b1_branch2b"
  type: "Convolution"
  bottom: "res3b1_branch2a"
  top: "res3b1_branch2b"
  convolution_param {
    num_output: 128
    bias_term: false
    pad: 1
    kernel_size: 3
    stride: 1
  }
}
layer {
  name: "bn3b1_branch2b"
  type: "BatchNorm"
  bottom: "res3b1_branch2b"
  top: "res3b1_branch2b"
  batch_norm_param {
    use_global_stats: true
  }
}
layer {
  name: "scale3b1_branch2b"
  type: "Scale"
  bottom: "res3b1_branch2b"
  top: "res3b1_branch2b"
  scale_param {
    bias_term: true
  }
}
layer {
  name: "res3b1_branch2b_relu"
  type: "ReLU"
  bottom: "res3b1_branch2b"
  top: "res3b1_branch2b"
}
layer {
  name: "res3b1_branch2c"
  type: "Convolution"
  bottom: "res3b1_branch2b"
  top: "res3b1_branch2c"
  convolution_param {
    num_output: 512
    bias_term: false
    pad: 0
    kernel_size: 1
    stride: 1
  }
}
layer {
  name: "bn3b1_branch2c"
  type: "BatchNorm"
  bottom: "res3b1_branch2c"
  top: "res3b1_branch2c"
  batch_norm_param {
    use_global_stats: true
  }
}
layer {
  name: "scale3b1_branch2c"
  type: "Scale"
  bottom: "res3b1_branch2c"
  top: "res3b1_branch2c"
  scale_param {
    bias_term: true
  }
}
layer {
  name: "res3b1"
  type: "Eltwise"
  bottom: "res3a"
  bottom: "res3b1_branch2c"
  top: "res3b1"
}
layer {
  name: "res3b1_relu"
  type: "ReLU"
  bottom: "res3b1"
  top: "res3b1"
}
layer {
  name: "res3b2_branch2a"
  type: "Convolution"
  bottom: "res3b1"
  top: "res3b2_branch2a"
  convolution_param {
    num_output: 128
    bias_term: false
    pad: 0
    kernel_size: 1
    stride: 1
  }
}
layer {
  name: "bn3b2_branch2a"
  type: "BatchNorm"
  bottom: "res3b2_branch2a"
  top: "res3b2_branch2a"
  batch_norm_param {
    use_global_stats: true
  }
}
layer {
  name: "scale3b2_branch2a"
  type: "Scale"
  bottom: "res3b2_branch2a"
  top: "res3b2_branch2a"
  scale_param {
    bias_term: true
  }
}
layer {
  name: "res3b2_branch2a_relu"
  type: "ReLU"
  bottom: "res3b2_branch2a"
  top: "res3b2_branch2a"
}
layer {
  name: "res3b2_branch2b"
  type: "Convolution"
  bottom: "res3b2_branch2a"
  top: "res3b2_branch2b"
  convolution_param {
    num_output: 128
    bias_term: false
    pad: 1
    kernel_size: 3
    stride: 1
  }
}
layer {
  name: "bn3b2_branch2b"
  type: "BatchNorm"
  bottom: "res3b2_branch2b"
  top: "res3b2_branch2b"
  batch_norm_param {
    use_global_stats: true
  }
}
layer {
  name: "scale3b2_branch2b"
  type: "Scale"
  bottom: "res3b2_branch2b"
  top: "res3b2_branch2b"
  scale_param {
    bias_term: true
  }
}
layer {
  name: "res3b2_branch2b_relu"
  type: "ReLU"
  bottom: "res3b2_branch2b"
  top: "res3b2_branch2b"
}
layer {
  name: "res3b2_branch2c"
  type: "Convolution"
  bottom: "res3b2_branch2b"
  top: "res3b2_branch2c"
  convolution_param {
    num_output: 512
    bias_term: false
    pad: 0
    kernel_size: 1
    stride: 1
  }
}
layer {
  name: "bn3b2_branch2c"
  type: "BatchNorm"
  bottom: "res3b2_branch2c"
  top: "res3b2_branch2c"
  batch_norm_param {
    use_global_stats: true
  }
}
layer {
  name: "scale3b2_branch2c"
  type: "Scale"
  bottom: "res3b2_branch2c"
  top: "res3b2_branch2c"
  scale_param {
    bias_term: true
  }
}
layer {
  name: "res3b2"
  type: "Eltwise"
  bottom: "res3b1"
  bottom: "res3b2_branch2c"
  top: "res3b2"
}
layer {
  name: "res3b2_relu"
  type: "ReLU"
  bottom: "res3b2"
  top: "res3b2"
}
layer {
  name: "res3b3_branch2a"
  type: "Convolution"
  bottom: "res3b2"
  top: "res3b3_branch2a"
  convolution_param {
    num_output: 128
    bias_term: false
    pad: 0
    kernel_size: 1
    stride: 1
  }
}
layer {
  name: "bn3b3_branch2a"
  type: "BatchNorm"
  bottom: "res3b3_branch2a"
  top: "res3b3_branch2a"
  batch_norm_param {
    use_global_stats: true
  }
}
layer {
  name: "scale3b3_branch2a"
  type: "Scale"
  bottom: "res3b3_branch2a"
  top: "res3b3_branch2a"
  scale_param {
    bias_term: true
  }
}
layer {
  name: "res3b3_branch2a_relu"
  type: "ReLU"
  bottom: "res3b3_branch2a"
  top: "res3b3_branch2a"
}
layer {
  name: "res3b3_branch2b"
  type: "Convolution"
  bottom: "res3b3_branch2a"
  top: "res3b3_branch2b"
  convolution_param {
    num_output: 128
    bias_term: false
    pad: 1
    kernel_size: 3
    stride: 1
  }
}
layer {
  name: "bn3b3_branch2b"
  type: "BatchNorm"
  bottom: "res3b3_branch2b"
  top: "res3b3_branch2b"
  batch_norm_param {
    use_global_stats: true
  }
}
layer {
  name: "scale3b3_branch2b"
  type: "Scale"
  bottom: "res3b3_branch2b"
  top: "res3b3_branch2b"
  scale_param {
    bias_term: true
  }
}
layer {
  name: "res3b3_branch2b_relu"
  type: "ReLU"
  bottom: "res3b3_branch2b"
  top: "res3b3_branch2b"
}
layer {
  name: "res3b3_branch2c"
  type: "Convolution"
  bottom: "res3b3_branch2b"
  top: "res3b3_branch2c"
  convolution_param {
    num_output: 512
    bias_term: false
    pad: 0
    kernel_size: 1
    stride: 1
  }
}
layer {
  name: "bn3b3_branch2c"
  type: "BatchNorm"
  bottom: "res3b3_branch2c"
  top: "res3b3_branch2c"
  batch_norm_param {
    use_global_stats: true
  }
}
layer {
  name: "scale3b3_branch2c"
  type: "Scale"
  bottom: "res3b3_branch2c"
  top: "res3b3_branch2c"
  scale_param {
    bias_term: true
  }
}
layer {
  name: "res3b3"
  type: "Eltwise"
  bottom: "res3b2"
  bottom: "res3b3_branch2c"
  top: "res3b3"
}
layer {
  name: "res3b3_relu"
  type: "ReLU"
  bottom: "res3b3"
  top: "res3b3"
}
layer {
  name: "res3b4_branch2a"
  type: "Convolution"
  bottom: "res3b3"
  top: "res3b4_branch2a"
  convolution_param {
    num_output: 128
    bias_term: false
    pad: 0
    kernel_size: 1
    stride: 1
  }
}
layer {
  name: "bn3b4_branch2a"
  type: "BatchNorm"
  bottom: "res3b4_branch2a"
  top: "res3b4_branch2a"
  batch_norm_param {
    use_global_stats: true
  }
}
layer {
  name: "scale3b4_branch2a"
  type: "Scale"
  bottom: "res3b4_branch2a"
  top: "res3b4_branch2a"
  scale_param {
    bias_term: true
  }
}
layer {
  name: "res3b4_branch2a_relu"
  type: "ReLU"
  bottom: "res3b4_branch2a"
  top: "res3b4_branch2a"
}
layer {
  name: "res3b4_branch2b"
  type: "Convolution"
  bottom: "res3b4_branch2a"
  top: "res3b4_branch2b"
  convolution_param {
    num_output: 128
    bias_term: false
    pad: 1
    kernel_size: 3
    stride: 1
  }
}
layer {
  name: "bn3b4_branch2b"
  type: "BatchNorm"
  bottom: "res3b4_branch2b"
  top: "res3b4_branch2b"
  batch_norm_param {
    use_global_stats: true
  }
}
layer {
  name: "scale3b4_branch2b"
  type: "Scale"
  bottom: "res3b4_branch2b"
  top: "res3b4_branch2b"
  scale_param {
    bias_term: true
  }
}
layer {
  name: "res3b4_branch2b_relu"
  type: "ReLU"
  bottom: "res3b4_branch2b"
  top: "res3b4_branch2b"
}
layer {
  name: "res3b4_branch2c"
  type: "Convolution"
  bottom: "res3b4_branch2b"
  top: "res3b4_branch2c"
  convolution_param {
    num_output: 512
    bias_term: false
    pad: 0
    kernel_size: 1
    stride: 1
  }
}
layer {
  name: "bn3b4_branch2c"
  type: "BatchNorm"
  bottom: "res3b4_branch2c"
  top: "res3b4_branch2c"
  batch_norm_param {
    use_global_stats: true
  }
}
layer {
  name: "scale3b4_branch2c"
  type: "Scale"
  bottom: "res3b4_branch2c"
  top: "res3b4_branch2c"
  scale_param {
    bias_term: true
  }
}
layer {
  name: "res3b4"
  type: "Eltwise"
  bottom: "res3b3"
  bottom: "res3b4_branch2c"
  top: "res3b4"
}
layer {
  name: "res3b4_relu"
  type: "ReLU"
  bottom: "res3b4"
  top: "res3b4"
}
layer {
  name: "res3b5_branch2a"
  type: "Convolution"
  bottom: "res3b4"
  top: "res3b5_branch2a"
  convolution_param {
    num_output: 128
    bias_term: false
    pad: 0
    kernel_size: 1
    stride: 1
  }
}
layer {
  name: "bn3b5_branch2a"
  type: "BatchNorm"
  bottom: "res3b5_branch2a"
  top: "res3b5_branch2a"
  batch_norm_param {
    use_global_stats: true
  }
}
layer {
  name: "scale3b5_branch2a"
  type: "Scale"
  bottom: "res3b5_branch2a"
  top: "res3b5_branch2a"
  scale_param {
    bias_term: true
  }
}
layer {
  name: "res3b5_branch2a_relu"
  type: "ReLU"
  bottom: "res3b5_branch2a"
  top: "res3b5_branch2a"
}
layer {
  name: "res3b5_branch2b"
  type: "Convolution"
  bottom: "res3b5_branch2a"
  top: "res3b5_branch2b"
  convolution_param {
    num_output: 128
    bias_term: false
    pad: 1
    kernel_size: 3
    stride: 1
  }
}
layer {
  name: "bn3b5_branch2b"
  type: "BatchNorm"
  bottom: "res3b5_branch2b"
  top: "res3b5_branch2b"
  batch_norm_param {
    use_global_stats: true
  }
}
layer {
  name: "scale3b5_branch2b"
  type: "Scale"
  bottom: "res3b5_branch2b"
  top: "res3b5_branch2b"
  scale_param {
    bias_term: true
  }
}
layer {
  name: "res3b5_branch2b_relu"
  type: "ReLU"
  bottom: "res3b5_branch2b"
  top: "res3b5_branch2b"
}
layer {
  name: "res3b5_branch2c"
  type: "Convolution"
  bottom: "res3b5_branch2b"
  top: "res3b5_branch2c"
  convolution_param {
    num_output: 512
    bias_term: false
    pad: 0
    kernel_size: 1
    stride: 1
  }
}
layer {
  name: "bn3b5_branch2c"
  type: "BatchNorm"
  bottom: "res3b5_branch2c"
  top: "res3b5_branch2c"
  batch_norm_param {
    use_global_stats: true
  }
}
layer {
  name: "scale3b5_branch2c"
  type: "Scale"
  bottom: "res3b5_branch2c"
  top: "res3b5_branch2c"
  scale_param {
    bias_term: true
  }
}
layer {
  name: "res3b5"
  type: "Eltwise"
  bottom: "res3b4"
  bottom: "res3b5_branch2c"
  top: "res3b5"
}
layer {
  name: "res3b5_relu"
  type: "ReLU"
  bottom: "res3b5"
  top: "res3b5"
}
layer {
  name: "res3b6_branch2a"
  type: "Convolution"
  bottom: "res3b5"
  top: "res3b6_branch2a"
  convolution_param {
    num_output: 128
    bias_term: false
    pad: 0
    kernel_size: 1
    stride: 1
  }
}
layer {
  name: "bn3b6_branch2a"
  type: "BatchNorm"
  bottom: "res3b6_branch2a"
  top: "res3b6_branch2a"
  batch_norm_param {
    use_global_stats: true
  }
}
layer {
  name: "scale3b6_branch2a"
  type: "Scale"
  bottom: "res3b6_branch2a"
  top: "res3b6_branch2a"
  scale_param {
    bias_term: true
  }
}
layer {
  name: "res3b6_branch2a_relu"
  type: "ReLU"
  bottom: "res3b6_branch2a"
  top: "res3b6_branch2a"
}
layer {
  name: "res3b6_branch2b"
  type: "Convolution"
  bottom: "res3b6_branch2a"
  top: "res3b6_branch2b"
  convolution_param {
    num_output: 128
    bias_term: false
    pad: 1
    kernel_size: 3
    stride: 1
  }
}
layer {
  name: "bn3b6_branch2b"
  type: "BatchNorm"
  bottom: "res3b6_branch2b"
  top: "res3b6_branch2b"
  batch_norm_param {
    use_global_stats: true
  }
}
layer {
  name: "scale3b6_branch2b"
  type: "Scale"
  bottom: "res3b6_branch2b"
  top: "res3b6_branch2b"
  scale_param {
    bias_term: true
  }
}
layer {
  name: "res3b6_branch2b_relu"
  type: "ReLU"
  bottom: "res3b6_branch2b"
  top: "res3b6_branch2b"
}
layer {
  name: "res3b6_branch2c"
  type: "Convolution"
  bottom: "res3b6_branch2b"
  top: "res3b6_branch2c"
  convolution_param {
    num_output: 512
    bias_term: false
    pad: 0
    kernel_size: 1
    stride: 1
  }
}
layer {
  name: "bn3b6_branch2c"
  type: "BatchNorm"
  bottom: "res3b6_branch2c"
  top: "res3b6_branch2c"
  batch_norm_param {
    use_global_stats: true
  }
}
layer {
  name: "scale3b6_branch2c"
  type: "Scale"
  bottom: "res3b6_branch2c"
  top: "res3b6_branch2c"
  scale_param {
    bias_term: true
  }
}
layer {
  name: "res3b6"
  type: "Eltwise"
  bottom: "res3b5"
  bottom: "res3b6_branch2c"
  top: "res3b6"
}
layer {
  name: "res3b6_relu"
  type: "ReLU"
  bottom: "res3b6"
  top: "res3b6"
}
layer {
  name: "res3b7_branch2a"
  type: "Convolution"
  bottom: "res3b6"
  top: "res3b7_branch2a"
  convolution_param {
    num_output: 128
    bias_term: false
    pad: 0
    kernel_size: 1
    stride: 1
  }
}
layer {
  name: "bn3b7_branch2a"
  type: "BatchNorm"
  bottom: "res3b7_branch2a"
  top: "res3b7_branch2a"
  batch_norm_param {
    use_global_stats: true
  }
}
layer {
  name: "scale3b7_branch2a"
  type: "Scale"
  bottom: "res3b7_branch2a"
  top: "res3b7_branch2a"
  scale_param {
    bias_term: true
  }
}
layer {
  name: "res3b7_branch2a_relu"
  type: "ReLU"
  bottom: "res3b7_branch2a"
  top: "res3b7_branch2a"
}
layer {
  name: "res3b7_branch2b"
  type: "Convolution"
  bottom: "res3b7_branch2a"
  top: "res3b7_branch2b"
  convolution_param {
    num_output: 128
    bias_term: false
    pad: 1
    kernel_size: 3
    stride: 1
  }
}
layer {
  name: "bn3b7_branch2b"
  type: "BatchNorm"
  bottom: "res3b7_branch2b"
  top: "res3b7_branch2b"
  batch_norm_param {
    use_global_stats: true
  }
}
layer {
  name: "scale3b7_branch2b"
  type: "Scale"
  bottom: "res3b7_branch2b"
  top: "res3b7_branch2b"
  scale_param {
    bias_term: true
  }
}
layer {
  name: "res3b7_branch2b_relu"
  type: "ReLU"
  bottom: "res3b7_branch2b"
  top: "res3b7_branch2b"
}
layer {
  name: "res3b7_branch2c"
  type: "Convolution"
  bottom: "res3b7_branch2b"
  top: "res3b7_branch2c"
  convolution_param {
    num_output: 512
    bias_term: false
    pad: 0
    kernel_size: 1
    stride: 1
  }
}
layer {
  name: "bn3b7_branch2c"
  type: "BatchNorm"
  bottom: "res3b7_branch2c"
  top: "res3b7_branch2c"
  batch_norm_param {
    use_global_stats: true
  }
}
layer {
  name: "scale3b7_branch2c"
  type: "Scale"
  bottom: "res3b7_branch2c"
  top: "res3b7_branch2c"
  scale_param {
    bias_term: true
  }
}
layer {
  name: "res3b7"
  type: "Eltwise"
  bottom: "res3b6"
  bottom: "res3b7_branch2c"
  top: "res3b7"
}
layer {
  name: "res3b7_relu"
  type: "ReLU"
  bottom: "res3b7"
  top: "res3b7"
}
layer {
  name: "res4a_branch1"
  type: "Convolution"
  bottom: "res3b7"
  top: "res4a_branch1"
  convolution_param {
    num_output: 1024
    bias_term: false
    pad: 0
    kernel_size: 1
    stride: 2
  }
}
layer {
  name: "bn4a_branch1"
  type: "BatchNorm"
  bottom: "res4a_branch1"
  top: "res4a_branch1"
  batch_norm_param {
    use_global_stats: true
  }
}
layer {
  name: "scale4a_branch1"
  type: "Scale"
  bottom: "res4a_branch1"
  top: "res4a_branch1"
  scale_param {
    bias_term: true
  }
}
layer {
  name: "res4a_branch2a"
  type: "Convolution"
  bottom: "res3b7"
  top: "res4a_branch2a"
  convolution_param {
    num_output: 256
    bias_term: false
    pad: 0
    kernel_size: 1
    stride: 2
  }
}
layer {
  name: "bn4a_branch2a"
  type: "BatchNorm"
  bottom: "res4a_branch2a"
  top: "res4a_branch2a"
  batch_norm_param {
    use_global_stats: true
  }
}
layer {
  name: "scale4a_branch2a"
  type: "Scale"
  bottom: "res4a_branch2a"
  top: "res4a_branch2a"
  scale_param {
    bias_term: true
  }
}
layer {
  name: "res4a_branch2a_relu"
  type: "ReLU"
  bottom: "res4a_branch2a"
  top: "res4a_branch2a"
}
layer {
  name: "res4a_branch2b"
  type: "Convolution"
  bottom: "res4a_branch2a"
  top: "res4a_branch2b"
  convolution_param {
    num_output: 256
    bias_term: false
    pad: 1
    kernel_size: 3
    stride: 1
  }
}
layer {
  name: "bn4a_branch2b"
  type: "BatchNorm"
  bottom: "res4a_branch2b"
  top: "res4a_branch2b"
  batch_norm_param {
    use_global_stats: true
  }
}
layer {
  name: "scale4a_branch2b"
  type: "Scale"
  bottom: "res4a_branch2b"
  top: "res4a_branch2b"
  scale_param {
    bias_term: true
  }
}
layer {
  name: "res4a_branch2b_relu"
  type: "ReLU"
  bottom: "res4a_branch2b"
  top: "res4a_branch2b"
}
layer {
  name: "res4a_branch2c"
  type: "Convolution"
  bottom: "res4a_branch2b"
  top: "res4a_branch2c"
  convolution_param {
    num_output: 1024
    bias_term: false
    pad: 0
    kernel_size: 1
    stride: 1
  }
}
layer {
  name: "bn4a_branch2c"
  type: "BatchNorm"
  bottom: "res4a_branch2c"
  top: "res4a_branch2c"
  batch_norm_param {
    use_global_stats: true
  }
}
layer {
  name: "scale4a_branch2c"
  type: "Scale"
  bottom: "res4a_branch2c"
  top: "res4a_branch2c"
  scale_param {
    bias_term: true
  }
}
layer {
  name: "res4a"
  type: "Eltwise"
  bottom: "res4a_branch1"
  bottom: "res4a_branch2c"
  top: "res4a"
}
layer {
  name: "res4a_relu"
  type: "ReLU"
  bottom: "res4a"
  top: "res4a"
}
layer {
  name: "res4b1_branch2a"
  type: "Convolution"
  bottom: "res4a"
  top: "res4b1_branch2a"
  convolution_param {
    num_output: 256
    bias_term: false
    pad: 0
    kernel_size: 1
    stride: 1
  }
}
layer {
  name: "bn4b1_branch2a"
  type: "BatchNorm"
  bottom: "res4b1_branch2a"
  top: "res4b1_branch2a"
  batch_norm_param {
    use_global_stats: true
  }
}
layer {
  name: "scale4b1_branch2a"
  type: "Scale"
  bottom: "res4b1_branch2a"
  top: "res4b1_branch2a"
  scale_param {
    bias_term: true
  }
}
layer {
  name: "res4b1_branch2a_relu"
  type: "ReLU"
  bottom: "res4b1_branch2a"
  top: "res4b1_branch2a"
}
layer {
  name: "res4b1_branch2b"
  type: "Convolution"
  bottom: "res4b1_branch2a"
  top: "res4b1_branch2b"
  convolution_param {
    num_output: 256
    bias_term: false
    pad: 1
    kernel_size: 3
    stride: 1
  }
}
layer {
  name: "bn4b1_branch2b"
  type: "BatchNorm"
  bottom: "res4b1_branch2b"
  top: "res4b1_branch2b"
  batch_norm_param {
    use_global_stats: true
  }
}
layer {
  name: "scale4b1_branch2b"
  type: "Scale"
  bottom: "res4b1_branch2b"
  top: "res4b1_branch2b"
  scale_param {
    bias_term: true
  }
}
layer {
  name: "res4b1_branch2b_relu"
  type: "ReLU"
  bottom: "res4b1_branch2b"
  top: "res4b1_branch2b"
}
layer {
  name: "res4b1_branch2c"
  type: "Convolution"
  bottom: "res4b1_branch2b"
  top: "res4b1_branch2c"
  convolution_param {
    num_output: 1024
    bias_term: false
    pad: 0
    kernel_size: 1
    stride: 1
  }
}
layer {
  name: "bn4b1_branch2c"
  type: "BatchNorm"
  bottom: "res4b1_branch2c"
  top: "res4b1_branch2c"
  batch_norm_param {
    use_global_stats: true
  }
}
layer {
  name: "scale4b1_branch2c"
  type: "Scale"
  bottom: "res4b1_branch2c"
  top: "res4b1_branch2c"
  scale_param {
    bias_term: true
  }
}
layer {
  name: "res4b1"
  type: "Eltwise"
  bottom: "res4a"
  bottom: "res4b1_branch2c"
  top: "res4b1"
}
layer {
  name: "res4b1_relu"
  type: "ReLU"
  bottom: "res4b1"
  top: "res4b1"
}
layer {
  name: "res4b2_branch2a"
  type: "Convolution"
  bottom: "res4b1"
  top: "res4b2_branch2a"
  convolution_param {
    num_output: 256
    bias_term: false
    pad: 0
    kernel_size: 1
    stride: 1
  }
}
layer {
  name: "bn4b2_branch2a"
  type: "BatchNorm"
  bottom: "res4b2_branch2a"
  top: "res4b2_branch2a"
  batch_norm_param {
    use_global_stats: true
  }
}
layer {
  name: "scale4b2_branch2a"
  type: "Scale"
  bottom: "res4b2_branch2a"
  top: "res4b2_branch2a"
  scale_param {
    bias_term: true
  }
}
layer {
  name: "res4b2_branch2a_relu"
  type: "ReLU"
  bottom: "res4b2_branch2a"
  top: "res4b2_branch2a"
}
layer {
  name: "res4b2_branch2b"
  type: "Convolution"
  bottom: "res4b2_branch2a"
  top: "res4b2_branch2b"
  convolution_param {
    num_output: 256
    bias_term: false
    pad: 1
    kernel_size: 3
    stride: 1
  }
}
layer {
  name: "bn4b2_branch2b"
  type: "BatchNorm"
  bottom: "res4b2_branch2b"
  top: "res4b2_branch2b"
  batch_norm_param {
    use_global_stats: true
  }
}
layer {
  name: "scale4b2_branch2b"
  type: "Scale"
  bottom: "res4b2_branch2b"
  top: "res4b2_branch2b"
  scale_param {
    bias_term: true
  }
}
layer {
  name: "res4b2_branch2b_relu"
  type: "ReLU"
  bottom: "res4b2_branch2b"
  top: "res4b2_branch2b"
}
layer {
  name: "res4b2_branch2c"
  type: "Convolution"
  bottom: "res4b2_branch2b"
  top: "res4b2_branch2c"
  convolution_param {
    num_output: 1024
    bias_term: false
    pad: 0
    kernel_size: 1
    stride: 1
  }
}
layer {
  name: "bn4b2_branch2c"
  type: "BatchNorm"
  bottom: "res4b2_branch2c"
  top: "res4b2_branch2c"
  batch_norm_param {
    use_global_stats: true
  }
}
layer {
  name: "scale4b2_branch2c"
  type: "Scale"
  bottom: "res4b2_branch2c"
  top: "res4b2_branch2c"
  scale_param {
    bias_term: tru
I0130 21:53:17.575528 13635 layer_factory.hpp:77] Creating layer data
I0130 21:53:17.596448 13635 net.cpp:100] Creating Layer data
I0130 21:53:17.596495 13635 net.cpp:408] data -> data
I0130 21:53:17.596518 13635 net.cpp:408] data -> sem
I0130 21:53:17.596526 13635 net.cpp:408] data -> geo
I0130 21:53:17.616392 13635 net.cpp:150] Setting up data
I0130 21:53:17.616443 13635 net.cpp:157] Top shape: 1 3 256 256 (196608)
I0130 21:53:17.616451 13635 net.cpp:157] Top shape: 1 1 256 256 (65536)
I0130 21:53:17.616457 13635 net.cpp:157] Top shape: 1 1 256 256 (65536)
I0130 21:53:17.616461 13635 net.cpp:165] Memory required for data: 1310720
I0130 21:53:17.616469 13635 layer_factory.hpp:77] Creating layer data_data_0_split
I0130 21:53:17.616484 13635 net.cpp:100] Creating Layer data_data_0_split
I0130 21:53:17.616488 13635 net.cpp:434] data_data_0_split <- data
I0130 21:53:17.616511 13635 net.cpp:408] data_data_0_split -> data_data_0_split_0
I0130 21:53:17.616523 13635 net.cpp:408] data_data_0_split -> data_data_0_split_1
I0130 21:53:17.616533 13635 net.cpp:408] data_data_0_split -> data_data_0_split_2
I0130 21:53:17.616576 13635 net.cpp:150] Setting up data_data_0_split
I0130 21:53:17.616583 13635 net.cpp:157] Top shape: 1 3 256 256 (196608)
I0130 21:53:17.616588 13635 net.cpp:157] Top shape: 1 3 256 256 (196608)
I0130 21:53:17.616593 13635 net.cpp:157] Top shape: 1 3 256 256 (196608)
I0130 21:53:17.616596 13635 net.cpp:165] Memory required for data: 3670016
I0130 21:53:17.616600 13635 layer_factory.hpp:77] Creating layer conv1
I0130 21:53:17.616613 13635 net.cpp:100] Creating Layer conv1
I0130 21:53:17.616617 13635 net.cpp:434] conv1 <- data_data_0_split_0
I0130 21:53:17.616628 13635 net.cpp:408] conv1 -> conv1
I0130 21:53:17.757252 13635 net.cpp:150] Setting up conv1
I0130 21:53:17.757295 13635 net.cpp:157] Top shape: 1 64 128 128 (1048576)
I0130 21:53:17.757300 13635 net.cpp:165] Memory required for data: 7864320
I0130 21:53:17.757319 13635 layer_factory.hpp:77] Creating layer bn_conv1
I0130 21:53:17.757333 13635 net.cpp:100] Creating Layer bn_conv1
I0130 21:53:17.757339 13635 net.cpp:434] bn_conv1 <- conv1
I0130 21:53:17.757345 13635 net.cpp:395] bn_conv1 -> conv1 (in-place)
I0130 21:53:17.757532 13635 net.cpp:150] Setting up bn_conv1
I0130 21:53:17.757544 13635 net.cpp:157] Top shape: 1 64 128 128 (1048576)
I0130 21:53:17.757547 13635 net.cpp:165] Memory required for data: 12058624
I0130 21:53:17.757560 13635 layer_factory.hpp:77] Creating layer scale_conv1
I0130 21:53:17.757571 13635 net.cpp:100] Creating Layer scale_conv1
I0130 21:53:17.757575 13635 net.cpp:434] scale_conv1 <- conv1
I0130 21:53:17.757581 13635 net.cpp:395] scale_conv1 -> conv1 (in-place)
I0130 21:53:17.757623 13635 layer_factory.hpp:77] Creating layer scale_conv1
I0130 21:53:17.757761 13635 net.cpp:150] Setting up scale_conv1
I0130 21:53:17.757771 13635 net.cpp:157] Top shape: 1 64 128 128 (1048576)
I0130 21:53:17.757776 13635 net.cpp:165] Memory required for data: 16252928
I0130 21:53:17.757784 13635 layer_factory.hpp:77] Creating layer conv1_relu
I0130 21:53:17.757793 13635 net.cpp:100] Creating Layer conv1_relu
I0130 21:53:17.757797 13635 net.cpp:434] conv1_relu <- conv1
I0130 21:53:17.757802 13635 net.cpp:395] conv1_relu -> conv1 (in-place)
I0130 21:53:17.757966 13635 net.cpp:150] Setting up conv1_relu
I0130 21:53:17.757977 13635 net.cpp:157] Top shape: 1 64 128 128 (1048576)
I0130 21:53:17.757982 13635 net.cpp:165] Memory required for data: 20447232
I0130 21:53:17.757985 13635 layer_factory.hpp:77] Creating layer pool1
I0130 21:53:17.757993 13635 net.cpp:100] Creating Layer pool1
I0130 21:53:17.757997 13635 net.cpp:434] pool1 <- conv1
I0130 21:53:17.758003 13635 net.cpp:408] pool1 -> pool1
I0130 21:53:17.758045 13635 net.cpp:150] Setting up pool1
I0130 21:53:17.758054 13635 net.cpp:157] Top shape: 1 64 64 64 (262144)
I0130 21:53:17.758059 13635 net.cpp:165] Memory required for data: 21495808
I0130 21:53:17.758062 13635 layer_factory.hpp:77] Creating layer pool1_pool1_0_split
I0130 21:53:17.758069 13635 net.cpp:100] Creating Layer pool1_pool1_0_split
I0130 21:53:17.758072 13635 net.cpp:434] pool1_pool1_0_split <- pool1
I0130 21:53:17.758079 13635 net.cpp:408] pool1_pool1_0_split -> pool1_pool1_0_split_0
I0130 21:53:17.758087 13635 net.cpp:408] pool1_pool1_0_split -> pool1_pool1_0_split_1
I0130 21:53:17.758116 13635 net.cpp:150] Setting up pool1_pool1_0_split
I0130 21:53:17.758122 13635 net.cpp:157] Top shape: 1 64 64 64 (262144)
I0130 21:53:17.758127 13635 net.cpp:157] Top shape: 1 64 64 64 (262144)
I0130 21:53:17.758131 13635 net.cpp:165] Memory required for data: 23592960
I0130 21:53:17.758134 13635 layer_factory.hpp:77] Creating layer res2a_branch1
I0130 21:53:17.758144 13635 net.cpp:100] Creating Layer res2a_branch1
I0130 21:53:17.758148 13635 net.cpp:434] res2a_branch1 <- pool1_pool1_0_split_0
I0130 21:53:17.758154 13635 net.cpp:408] res2a_branch1 -> res2a_branch1
I0130 21:53:17.759070 13635 net.cpp:150] Setting up res2a_branch1
I0130 21:53:17.759086 13635 net.cpp:157] Top shape: 1 256 64 64 (1048576)
I0130 21:53:17.759104 13635 net.cpp:165] Memory required for data: 27787264
I0130 21:53:17.759109 13635 layer_factory.hpp:77] Creating layer bn2a_branch1
I0130 21:53:17.759117 13635 net.cpp:100] Creating Layer bn2a_branch1
I0130 21:53:17.759121 13635 net.cpp:434] bn2a_branch1 <- res2a_branch1
I0130 21:53:17.759127 13635 net.cpp:395] bn2a_branch1 -> res2a_branch1 (in-place)
I0130 21:53:17.760399 13635 net.cpp:150] Setting up bn2a_branch1
I0130 21:53:17.760426 13635 net.cpp:157] Top shape: 1 256 64 64 (1048576)
I0130 21:53:17.760432 13635 net.cpp:165] Memory required for data: 31981568
I0130 21:53:17.760457 13635 layer_factory.hpp:77] Creating layer scale2a_branch1
I0130 21:53:17.760464 13635 net.cpp:100] Creating Layer scale2a_branch1
I0130 21:53:17.760468 13635 net.cpp:434] scale2a_branch1 <- res2a_branch1
I0130 21:53:17.760474 13635 net.cpp:395] scale2a_branch1 -> res2a_branch1 (in-place)
I0130 21:53:17.760512 13635 layer_factory.hpp:77] Creating layer scale2a_branch1
I0130 21:53:17.760604 13635 net.cpp:150] Setting up scale2a_branch1
I0130 21:53:17.760614 13635 net.cpp:157] Top shape: 1 256 64 64 (1048576)
I0130 21:53:17.760618 13635 net.cpp:165] Memory required for data: 36175872
I0130 21:53:17.760625 13635 layer_factory.hpp:77] Creating layer res2a_branch2a
I0130 21:53:17.760633 13635 net.cpp:100] Creating Layer res2a_branch2a
I0130 21:53:17.760638 13635 net.cpp:434] res2a_branch2a <- pool1_pool1_0_split_1
I0130 21:53:17.760644 13635 net.cpp:408] res2a_branch2a -> res2a_branch2a
I0130 21:53:17.761592 13635 net.cpp:150] Setting up res2a_branch2a
I0130 21:53:17.761610 13635 net.cpp:157] Top shape: 1 64 64 64 (262144)
I0130 21:53:17.761615 13635 net.cpp:165] Memory required for data: 37224448
I0130 21:53:17.761620 13635 layer_factory.hpp:77] Creating layer bn2a_branch2a
I0130 21:53:17.761628 13635 net.cpp:100] Creating Layer bn2a_branch2a
I0130 21:53:17.761633 13635 net.cpp:434] bn2a_branch2a <- res2a_branch2a
I0130 21:53:17.761641 13635 net.cpp:395] bn2a_branch2a -> res2a_branch2a (in-place)
I0130 21:53:17.761822 13635 net.cpp:150] Setting up bn2a_branch2a
I0130 21:53:17.761833 13635 net.cpp:157] Top shape: 1 64 64 64 (262144)
I0130 21:53:17.761837 13635 net.cpp:165] Memory required for data: 38273024
I0130 21:53:17.761847 13635 layer_factory.hpp:77] Creating layer scale2a_branch2a
I0130 21:53:17.761853 13635 net.cpp:100] Creating Layer scale2a_branch2a
I0130 21:53:17.761857 13635 net.cpp:434] scale2a_branch2a <- res2a_branch2a
I0130 21:53:17.761868 13635 net.cpp:395] scale2a_branch2a -> res2a_branch2a (in-place)
I0130 21:53:17.761904 13635 layer_factory.hpp:77] Creating layer scale2a_branch2a
I0130 21:53:17.762006 13635 net.cpp:150] Setting up scale2a_branch2a
I0130 21:53:17.762014 13635 net.cpp:157] Top shape: 1 64 64 64 (262144)
I0130 21:53:17.762018 13635 net.cpp:165] Memory required for data: 39321600
I0130 21:53:17.762028 13635 layer_factory.hpp:77] Creating layer res2a_branch2a_relu
I0130 21:53:17.762035 13635 net.cpp:100] Creating Layer res2a_branch2a_relu
I0130 21:53:17.762039 13635 net.cpp:434] res2a_branch2a_relu <- res2a_branch2a
I0130 21:53:17.762045 13635 net.cpp:395] res2a_branch2a_relu -> res2a_branch2a (in-place)
I0130 21:53:17.762351 13635 net.cpp:150] Setting up res2a_branch2a_relu
I0130 21:53:17.762365 13635 net.cpp:157] Top shape: 1 64 64 64 (262144)
I0130 21:53:17.762370 13635 net.cpp:165] Memory required for data: 40370176
I0130 21:53:17.762374 13635 layer_factory.hpp:77] Creating layer res2a_branch2b
I0130 21:53:17.762384 13635 net.cpp:100] Creating Layer res2a_branch2b
I0130 21:53:17.762389 13635 net.cpp:434] res2a_branch2b <- res2a_branch2a
I0130 21:53:17.762398 13635 net.cpp:408] res2a_branch2b -> res2a_branch2b
I0130 21:53:17.763772 13635 net.cpp:150] Setting up res2a_branch2b
I0130 21:53:17.763792 13635 net.cpp:157] Top shape: 1 64 64 64 (262144)
I0130 21:53:17.763808 13635 net.cpp:165] Memory required for data: 41418752
I0130 21:53:17.763814 13635 layer_factory.hpp:77] Creating layer bn2a_branch2b
I0130 21:53:17.763826 13635 net.cpp:100] Creating Layer bn2a_branch2b
I0130 21:53:17.763831 13635 net.cpp:434] bn2a_branch2b <- res2a_branch2b
I0130 21:53:17.763837 13635 net.cpp:395] bn2a_branch2b -> res2a_branch2b (in-place)
I0130 21:53:17.764021 13635 net.cpp:150] Setting up bn2a_branch2b
I0130 21:53:17.764031 13635 net.cpp:157] Top shape: 1 64 64 64 (262144)
I0130 21:53:17.764035 13635 net.cpp:165] Memory required for data: 42467328
I0130 21:53:17.764044 13635 layer_factory.hpp:77] Creating layer scale2a_branch2b
I0130 21:53:17.764051 13635 net.cpp:100] Creating Layer scale2a_branch2b
I0130 21:53:17.764055 13635 net.cpp:434] scale2a_branch2b <- res2a_branch2b
I0130 21:53:17.764060 13635 net.cpp:395] scale2a_branch2b -> res2a_branch2b (in-place)
I0130 21:53:17.764099 13635 layer_factory.hpp:77] Creating layer scale2a_branch2b
I0130 21:53:17.764207 13635 net.cpp:150] Setting up scale2a_branch2b
I0130 21:53:17.764217 13635 net.cpp:157] Top shape: 1 64 64 64 (262144)
I0130 21:53:17.764221 13635 net.cpp:165] Memory required for data: 43515904
I0130 21:53:17.764227 13635 layer_factory.hpp:77] Creating layer res2a_branch2b_relu
I0130 21:53:17.764236 13635 net.cpp:100] Creating Layer res2a_branch2b_relu
I0130 21:53:17.764240 13635 net.cpp:434] res2a_branch2b_relu <- res2a_branch2b
I0130 21:53:17.764246 13635 net.cpp:395] res2a_branch2b_relu -> res2a_branch2b (in-place)
I0130 21:53:17.764564 13635 net.cpp:150] Setting up res2a_branch2b_relu
I0130 21:53:17.764580 13635 net.cpp:157] Top shape: 1 64 64 64 (262144)
I0130 21:53:17.764583 13635 net.cpp:165] Memory required for data: 44564480
I0130 21:53:17.764588 13635 layer_factory.hpp:77] Creating layer res2a_branch2c
I0130 21:53:17.764601 13635 net.cpp:100] Creating Layer res2a_branch2c
I0130 21:53:17.764606 13635 net.cpp:434] res2a_branch2c <- res2a_branch2b
I0130 21:53:17.764612 13635 net.cpp:408] res2a_branch2c -> res2a_branch2c
I0130 21:53:17.765609 13635 net.cpp:150] Setting up res2a_branch2c
I0130 21:53:17.765625 13635 net.cpp:157] Top shape: 1 256 64 64 (1048576)
I0130 21:53:17.765640 13635 net.cpp:165] Memory required for data: 48758784
I0130 21:53:17.765647 13635 layer_factory.hpp:77] Creating layer bn2a_branch2c
I0130 21:53:17.765655 13635 net.cpp:100] Creating Layer bn2a_branch2c
I0130 21:53:17.765660 13635 net.cpp:434] bn2a_branch2c <- res2a_branch2c
I0130 21:53:17.765667 13635 net.cpp:395] bn2a_branch2c -> res2a_branch2c (in-place)
I0130 21:53:17.765842 13635 net.cpp:150] Setting up bn2a_branch2c
I0130 21:53:17.765851 13635 net.cpp:157] Top shape: 1 256 64 64 (1048576)
I0130 21:53:17.765856 13635 net.cpp:165] Memory required for data: 52953088
I0130 21:53:17.765864 13635 layer_factory.hpp:77] Creating layer scale2a_branch2c
I0130 21:53:17.765871 13635 net.cpp:100] Creating Layer scale2a_branch2c
I0130 21:53:17.765874 13635 net.cpp:434] scale2a_branch2c <- res2a_branch2c
I0130 21:53:17.765879 13635 net.cpp:395] scale2a_branch2c -> res2a_branch2c (in-place)
I0130 21:53:17.765918 13635 layer_factory.hpp:77] Creating layer scale2a_branch2c
I0130 21:53:17.766023 13635 net.cpp:150] Setting up scale2a_branch2c
I0130 21:53:17.766032 13635 net.cpp:157] Top shape: 1 256 64 64 (1048576)
I0130 21:53:17.766036 13635 net.cpp:165] Memory required for data: 57147392
I0130 21:53:17.766043 13635 layer_factory.hpp:77] Creating layer res2a
I0130 21:53:17.766052 13635 net.cpp:100] Creating Layer res2a
I0130 21:53:17.766057 13635 net.cpp:434] res2a <- res2a_branch1
I0130 21:53:17.766062 13635 net.cpp:434] res2a <- res2a_branch2c
I0130 21:53:17.766067 13635 net.cpp:408] res2a -> res2a
I0130 21:53:17.766098 13635 net.cpp:150] Setting up res2a
I0130 21:53:17.766105 13635 net.cpp:157] Top shape: 1 256 64 64 (1048576)
I0130 21:53:17.766109 13635 net.cpp:165] Memory required for data: 61341696
I0130 21:53:17.766113 13635 layer_factory.hpp:77] Creating layer res2a_relu
I0130 21:53:17.766119 13635 net.cpp:100] Creating Layer res2a_relu
I0130 21:53:17.766122 13635 net.cpp:434] res2a_relu <- res2a
I0130 21:53:17.766129 13635 net.cpp:395] res2a_relu -> res2a (in-place)
I0130 21:53:17.766306 13635 net.cpp:150] Setting up res2a_relu
I0130 21:53:17.766317 13635 net.cpp:157] Top shape: 1 256 64 64 (1048576)
I0130 21:53:17.766321 13635 net.cpp:165] Memory required for data: 65536000
I0130 21:53:17.766325 13635 layer_factory.hpp:77] Creating layer res2a_res2a_relu_0_split
I0130 21:53:17.766332 13635 net.cpp:100] Creating Layer res2a_res2a_relu_0_split
I0130 21:53:17.766336 13635 net.cpp:434] res2a_res2a_relu_0_split <- res2a
I0130 21:53:17.766343 13635 net.cpp:408] res2a_res2a_relu_0_split -> res2a_res2a_relu_0_split_0
I0130 21:53:17.766351 13635 net.cpp:408] res2a_res2a_relu_0_split -> res2a_res2a_relu_0_split_1
I0130 21:53:17.766392 13635 net.cpp:150] Setting up res2a_res2a_relu_0_split
I0130 21:53:17.766402 13635 net.cpp:157] Top shape: 1 256 64 64 (1048576)
I0130 21:53:17.766412 13635 net.cpp:157] Top shape: 1 256 64 64 (1048576)
I0130 21:53:17.766417 13635 net.cpp:165] Memory required for data: 73924608
I0130 21:53:17.766420 13635 layer_factory.hpp:77] Creating layer res2b_branch2a
I0130 21:53:17.766429 13635 net.cpp:100] Creating Layer res2b_branch2a
I0130 21:53:17.766433 13635 net.cpp:434] res2b_branch2a <- res2a_res2a_relu_0_split_0
I0130 21:53:17.766439 13635 net.cpp:408] res2b_branch2a -> res2b_branch2a
I0130 21:53:17.767429 13635 net.cpp:150] Setting up res2b_branch2a
I0130 21:53:17.767446 13635 net.cpp:157] Top shape: 1 64 64 64 (262144)
I0130 21:53:17.767462 13635 net.cpp:165] Memory required for data: 74973184
I0130 21:53:17.767467 13635 layer_factory.hpp:77] Creating layer bn2b_branch2a
I0130 21:53:17.767477 13635 net.cpp:100] Creating Layer bn2b_branch2a
I0130 21:53:17.767482 13635 net.cpp:434] bn2b_branch2a <- res2b_branch2a
I0130 21:53:17.767488 13635 net.cpp:395] bn2b_branch2a -> res2b_branch2a (in-place)
I0130 21:53:17.767669 13635 net.cpp:150] Setting up bn2b_branch2a
I0130 21:53:17.767679 13635 net.cpp:157] Top shape: 1 64 64 64 (262144)
I0130 21:53:17.767683 13635 net.cpp:165] Memory required for data: 76021760
I0130 21:53:17.767698 13635 layer_factory.hpp:77] Creating layer scale2b_branch2a
I0130 21:53:17.767706 13635 net.cpp:100] Creating Layer scale2b_branch2a
I0130 21:53:17.767710 13635 net.cpp:434] scale2b_branch2a <- res2b_branch2a
I0130 21:53:17.767715 13635 net.cpp:395] scale2b_branch2a -> res2b_branch2a (in-place)
I0130 21:53:17.767758 13635 layer_factory.hpp:77] Creating layer scale2b_branch2a
I0130 21:53:17.767868 13635 net.cpp:150] Setting up scale2b_branch2a
I0130 21:53:17.767877 13635 net.cpp:157] Top shape: 1 64 64 64 (262144)
I0130 21:53:17.767880 13635 net.cpp:165] Memory required for data: 77070336
I0130 21:53:17.767887 13635 layer_factory.hpp:77] Creating layer res2b_branch2a_relu
I0130 21:53:17.767894 13635 net.cpp:100] Creating Layer res2b_branch2a_relu
I0130 21:53:17.767897 13635 net.cpp:434] res2b_branch2a_relu <- res2b_branch2a
I0130 21:53:17.767904 13635 net.cpp:395] res2b_branch2a_relu -> res2b_branch2a (in-place)
I0130 21:53:17.768208 13635 net.cpp:150] Setting up res2b_branch2a_relu
I0130 21:53:17.768224 13635 net.cpp:157] Top shape: 1 64 64 64 (262144)
I0130 21:53:17.768227 13635 net.cpp:165] Memory required for data: 78118912
I0130 21:53:17.768231 13635 layer_factory.hpp:77] Creating layer res2b_branch2b
I0130 21:53:17.768241 13635 net.cpp:100] Creating Layer res2b_branch2b
I0130 21:53:17.768246 13635 net.cpp:434] res2b_branch2b <- res2b_branch2a
I0130 21:53:17.768254 13635 net.cpp:408] res2b_branch2b -> res2b_branch2b
I0130 21:53:17.769124 13635 net.cpp:150] Setting up res2b_branch2b
I0130 21:53:17.769140 13635 net.cpp:157] Top shape: 1 64 64 64 (262144)
I0130 21:53:17.769143 13635 net.cpp:165] Memory required for data: 79167488
I0130 21:53:17.769150 13635 layer_factory.hpp:77] Creating layer bn2b_branch2b
I0130 21:53:17.769157 13635 net.cpp:100] Creating Layer bn2b_branch2b
I0130 21:53:17.769162 13635 net.cpp:434] bn2b_branch2b <- res2b_branch2b
I0130 21:53:17.769170 13635 net.cpp:395] bn2b_branch2b -> res2b_branch2b (in-place)
I0130 21:53:17.769356 13635 net.cpp:150] Setting up bn2b_branch2b
I0130 21:53:17.769366 13635 net.cpp:157] Top shape: 1 64 64 64 (262144)
I0130 21:53:17.769369 13635 net.cpp:165] Memory required for data: 80216064
I0130 21:53:17.769377 13635 layer_factory.hpp:77] Creating layer scale2b_branch2b
I0130 21:53:17.769384 13635 net.cpp:100] Creating Layer scale2b_branch2b
I0130 21:53:17.769388 13635 net.cpp:434] scale2b_branch2b <- res2b_branch2b
I0130 21:53:17.769395 13635 net.cpp:395] scale2b_branch2b -> res2b_branch2b (in-place)
I0130 21:53:17.769433 13635 layer_factory.hpp:77] Creating layer scale2b_branch2b
I0130 21:53:17.769537 13635 net.cpp:150] Setting up scale2b_branch2b
I0130 21:53:17.769548 13635 net.cpp:157] Top shape: 1 64 64 64 (262144)
I0130 21:53:17.769551 13635 net.cpp:165] Memory required for data: 81264640
I0130 21:53:17.769558 13635 layer_factory.hpp:77] Creating layer res2b_branch2b_relu
I0130 21:53:17.769567 13635 net.cpp:100] Creating Layer res2b_branch2b_relu
I0130 21:53:17.769572 13635 net.cpp:434] res2b_branch2b_relu <- res2b_branch2b
I0130 21:53:17.769577 13635 net.cpp:395] res2b_branch2b_relu -> res2b_branch2b (in-place)
I0130 21:53:17.769888 13635 net.cpp:150] Setting up res2b_branch2b_relu
I0130 21:53:17.769902 13635 net.cpp:157] Top shape: 1 64 64 64 (262144)
I0130 21:53:17.769906 13635 net.cpp:165] Memory required for data: 82313216
I0130 21:53:17.769912 13635 layer_factory.hpp:77] Creating layer res2b_branch2c
I0130 21:53:17.769922 13635 net.cpp:100] Creating Layer res2b_branch2c
I0130 21:53:17.769927 13635 net.cpp:434] res2b_branch2c <- res2b_branch2b
I0130 21:53:17.769932 13635 net.cpp:408] res2b_branch2c -> res2b_branch2c
I0130 21:53:17.770928 13635 net.cpp:150] Setting up res2b_branch2c
I0130 21:53:17.770943 13635 net.cpp:157] Top shape: 1 256 64 64 (1048576)
I0130 21:53:17.770948 13635 net.cpp:165] Memory required for data: 86507520
I0130 21:53:17.770954 13635 layer_factory.hpp:77] Creating layer bn2b_branch2c
I0130 21:53:17.770963 13635 net.cpp:100] Creating Layer bn2b_branch2c
I0130 21:53:17.770968 13635 net.cpp:434] bn2b_branch2c <- res2b_branch2c
I0130 21:53:17.770974 13635 net.cpp:395] bn2b_branch2c -> res2b_branch2c (in-place)
I0130 21:53:17.771152 13635 net.cpp:150] Setting up bn2b_branch2c
I0130 21:53:17.771162 13635 net.cpp:157] Top shape: 1 256 64 64 (1048576)
I0130 21:53:17.771165 13635 net.cpp:165] Memory required for data: 90701824
I0130 21:53:17.771173 13635 layer_factory.hpp:77] Creating layer scale2b_branch2c
I0130 21:53:17.771183 13635 net.cpp:100] Creating Layer scale2b_branch2c
I0130 21:53:17.771186 13635 net.cpp:434] scale2b_branch2c <- res2b_branch2c
I0130 21:53:17.771191 13635 net.cpp:395] scale2b_branch2c -> res2b_branch2c (in-place)
I0130 21:53:17.771229 13635 layer_factory.hpp:77] Creating layer scale2b_branch2c
I0130 21:53:17.771330 13635 net.cpp:150] Setting up scale2b_branch2c
I0130 21:53:17.771339 13635 net.cpp:157] Top shape: 1 256 64 64 (1048576)
I0130 21:53:17.771343 13635 net.cpp:165] Memory required for data: 94896128
I0130 21:53:17.771350 13635 layer_factory.hpp:77] Creating layer res2b
I0130 21:53:17.771356 13635 net.cpp:100] Creating Layer res2b
I0130 21:53:17.771360 13635 net.cpp:434] res2b <- res2a_res2a_relu_0_split_1
I0130 21:53:17.771365 13635 net.cpp:434] res2b <- res2b_branch2c
I0130 21:53:17.771371 13635 net.cpp:408] res2b -> res2b
I0130 21:53:17.771396 13635 net.cpp:150] Setting up res2b
I0130 21:53:17.771402 13635 net.cpp:157] Top shape: 1 256 64 64 (1048576)
I0130 21:53:17.771406 13635 net.cpp:165] Memory required for data: 99090432
I0130 21:53:17.771409 13635 layer_factory.hpp:77] Creating layer res2b_relu
I0130 21:53:17.771417 13635 net.cpp:100] Creating Layer res2b_relu
I0130 21:53:17.771420 13635 net.cpp:434] res2b_relu <- res2b
I0130 21:53:17.771425 13635 net.cpp:395] res2b_relu -> res2b (in-place)
I0130 21:53:17.771598 13635 net.cpp:150] Setting up res2b_relu
I0130 21:53:17.771610 13635 net.cpp:157] Top shape: 1 256 64 64 (1048576)
I0130 21:53:17.771613 13635 net.cpp:165] Memory required for data: 103284736
I0130 21:53:17.771617 13635 layer_factory.hpp:77] Creating layer res2b_res2b_relu_0_split
I0130 21:53:17.771625 13635 net.cpp:100] Creating Layer res2b_res2b_relu_0_split
I0130 21:53:17.771630 13635 net.cpp:434] res2b_res2b_relu_0_split <- res2b
I0130 21:53:17.771636 13635 net.cpp:408] res2b_res2b_relu_0_split -> res2b_res2b_relu_0_split_0
I0130 21:53:17.771643 13635 net.cpp:408] res2b_res2b_relu_0_split -> res2b_res2b_relu_0_split_1
I0130 21:53:17.771682 13635 net.cpp:150] Setting up res2b_res2b_relu_0_split
I0130 21:53:17.771688 13635 net.cpp:157] Top shape: 1 256 64 64 (1048576)
I0130 21:53:17.771693 13635 net.cpp:157] Top shape: 1 256 64 64 (1048576)
I0130 21:53:17.771697 13635 net.cpp:165] Memory required for data: 111673344
I0130 21:53:17.771700 13635 layer_factory.hpp:77] Creating layer res2c_branch2a
I0130 21:53:17.771709 13635 net.cpp:100] Creating Layer res2c_branch2a
I0130 21:53:17.771713 13635 net.cpp:434] res2c_branch2a <- res2b_res2b_relu_0_split_0
I0130 21:53:17.771720 13635 net.cpp:408] res2c_branch2a -> res2c_branch2a
I0130 21:53:17.772868 13635 net.cpp:150] Setting up res2c_branch2a
I0130 21:53:17.772886 13635 net.cpp:157] Top shape: 1 64 64 64 (262144)
I0130 21:53:17.772891 13635 net.cpp:165] Memory required for data: 112721920
I0130 21:53:17.772897 13635 layer_factory.hpp:77] Creating layer bn2c_branch2a
I0130 21:53:17.772907 13635 net.cpp:100] Creating Layer bn2c_branch2a
I0130 21:53:17.772912 13635 net.cpp:434] bn2c_branch2a <- res2c_branch2a
I0130 21:53:17.772919 13635 net.cpp:395] bn2c_branch2a -> res2c_branch2a (in-place)
I0130 21:53:17.773111 13635 net.cpp:150] Setting up bn2c_branch2a
I0130 21:53:17.773121 13635 net.cpp:157] Top shape: 1 64 64 64 (262144)
I0130 21:53:17.773125 13635 net.cpp:165] Memory required for data: 113770496
I0130 21:53:17.773133 13635 layer_factory.hpp:77] Creating layer scale2c_branch2a
I0130 21:53:17.773141 13635 net.cpp:100] Creating Layer scale2c_branch2a
I0130 21:53:17.773145 13635 net.cpp:434] scale2c_branch2a <- res2c_branch2a
I0130 21:53:17.773150 13635 net.cpp:395] scale2c_branch2a -> res2c_branch2a (in-place)
I0130 21:53:17.773191 13635 layer_factory.hpp:77] Creating layer scale2c_branch2a
I0130 21:53:17.773304 13635 net.cpp:150] Setting up scale2c_branch2a
I0130 21:53:17.773313 13635 net.cpp:157] Top shape: 1 64 64 64 (262144)
I0130 21:53:17.773317 13635 net.cpp:165] Memory required for data: 114819072
I0130 21:53:17.773324 13635 layer_factory.hpp:77] Creating layer res2c_branch2a_relu
I0130 21:53:17.773329 13635 net.cpp:100] Creating Layer res2c_branch2a_relu
I0130 21:53:17.773334 13635 net.cpp:434] res2c_branch2a_relu <- res2c_branch2a
I0130 21:53:17.773342 13635 net.cpp:395] res2c_branch2a_relu -> res2c_branch2a (in-place)
I0130 21:53:17.773650 13635 net.cpp:150] Setting up res2c_branch2a_relu
I0130 21:53:17.773665 13635 net.cpp:157] Top shape: 1 64 64 64 (262144)
I0130 21:53:17.773669 13635 net.cpp:165] Memory required for data: 115867648
I0130 21:53:17.773674 13635 layer_factory.hpp:77] Creating layer res2c_branch2b
I0130 21:53:17.773684 13635 net.cpp:100] Creating Layer res2c_branch2b
I0130 21:53:17.773689 13635 net.cpp:434] res2c_branch2b <- res2c_branch2a
I0130 21:53:17.773696 13635 net.cpp:408] res2c_branch2b -> res2c_branch2b
I0130 21:53:17.774574 13635 net.cpp:150] Setting up res2c_branch2b
I0130 21:53:17.774590 13635 net.cpp:157] Top shape: 1 64 64 64 (262144)
I0130 21:53:17.774595 13635 net.cpp:165] Memory required for data: 116916224
I0130 21:53:17.774601 13635 layer_factory.hpp:77] Creating layer bn2c_branch2b
I0130 21:53:17.774611 13635 net.cpp:100] Creating Layer bn2c_branch2b
I0130 21:53:17.774616 13635 net.cpp:434] bn2c_branch2b <- res2c_branch2b
I0130 21:53:17.774621 13635 net.cpp:395] bn2c_branch2b -> res2c_branch2b (in-place)
I0130 21:53:17.774813 13635 net.cpp:150] Setting up bn2c_branch2b
I0130 21:53:17.774823 13635 net.cpp:157] Top shape: 1 64 64 64 (262144)
I0130 21:53:17.774827 13635 net.cpp:165] Memory required for data: 117964800
I0130 21:53:17.774835 13635 layer_factory.hpp:77] Creating layer scale2c_branch2b
I0130 21:53:17.774843 13635 net.cpp:100] Creating Layer scale2c_branch2b
I0130 21:53:17.774848 13635 net.cpp:434] scale2c_branch2b <- res2c_branch2b
I0130 21:53:17.774853 13635 net.cpp:395] scale2c_branch2b -> res2c_branch2b (in-place)
I0130 21:53:17.774893 13635 layer_factory.hpp:77] Creating layer scale2c_branch2b
I0130 21:53:17.775001 13635 net.cpp:150] Setting up scale2c_branch2b
I0130 21:53:17.775009 13635 net.cpp:157] Top shape: 1 64 64 64 (262144)
I0130 21:53:17.775013 13635 net.cpp:165] Memory required for data: 119013376
I0130 21:53:17.775019 13635 layer_factory.hpp:77] Creating layer res2c_branch2b_relu
I0130 21:53:17.775027 13635 net.cpp:100] Creating Layer res2c_branch2b_relu
I0130 21:53:17.775029 13635 net.cpp:434] res2c_branch2b_relu <- res2c_branch2b
I0130 21:53:17.775037 13635 net.cpp:395] res2c_branch2b_relu -> res2c_branch2b (in-place)
I0130 21:53:17.775347 13635 net.cpp:150] Setting up res2c_branch2b_relu
I0130 21:53:17.775362 13635 net.cpp:157] Top shape: 1 64 64 64 (262144)
I0130 21:53:17.775365 13635 net.cpp:165] Memory required for data: 120061952
I0130 21:53:17.775369 13635 layer_factory.hpp:77] Creating layer res2c_branch2c
I0130 21:53:17.775383 13635 net.cpp:100] Creating Layer res2c_branch2c
I0130 21:53:17.775388 13635 net.cpp:434] res2c_branch2c <- res2c_branch2b
I0130 21:53:17.775396 13635 net.cpp:408] res2c_branch2c -> res2c_branch2c
I0130 21:53:17.776391 13635 net.cpp:150] Setting up res2c_branch2c
I0130 21:53:17.776407 13635 net.cpp:157] Top shape: 1 256 64 64 (1048576)
I0130 21:53:17.776412 13635 net.cpp:165] Memory required for data: 124256256
I0130 21:53:17.776417 13635 layer_factory.hpp:77] Creating layer bn2c_branch2c
I0130 21:53:17.776427 13635 net.cpp:100] Creating Layer bn2c_branch2c
I0130 21:53:17.776430 13635 net.cpp:434] bn2c_branch2c <- res2c_branch2c
I0130 21:53:17.776437 13635 net.cpp:395] bn2c_branch2c -> res2c_branch2c (in-place)
I0130 21:53:17.776621 13635 net.cpp:150] Setting up bn2c_branch2c
I0130 21:53:17.776631 13635 net.cpp:157] Top shape: 1 256 64 64 (1048576)
I0130 21:53:17.776635 13635 net.cpp:165] Memory required for data: 128450560
I0130 21:53:17.776643 13635 layer_factory.hpp:77] Creating layer scale2c_branch2c
I0130 21:53:17.776651 13635 net.cpp:100] Creating Layer scale2c_branch2c
I0130 21:53:17.776655 13635 net.cpp:434] scale2c_branch2c <- res2c_branch2c
I0130 21:53:17.776660 13635 net.cpp:395] scale2c_branch2c -> res2c_branch2c (in-place)
I0130 21:53:17.776700 13635 layer_factory.hpp:77] Creating layer scale2c_branch2c
I0130 21:53:17.776810 13635 net.cpp:150] Setting up scale2c_branch2c
I0130 21:53:17.776820 13635 net.cpp:157] Top shape: 1 256 64 64 (1048576)
I0130 21:53:17.776824 13635 net.cpp:165] Memory required for data: 132644864
I0130 21:53:17.776844 13635 layer_factory.hpp:77] Creating layer res2c
I0130 21:53:17.776851 13635 net.cpp:100] Creating Layer res2c
I0130 21:53:17.776855 13635 net.cpp:434] res2c <- res2b_res2b_relu_0_split_1
I0130 21:53:17.776860 13635 net.cpp:434] res2c <- res2c_branch2c
I0130 21:53:17.776866 13635 net.cpp:408] res2c -> res2c
I0130 21:53:17.776893 13635 net.cpp:150] Setting up res2c
I0130 21:53:17.776901 13635 net.cpp:157] Top shape: 1 256 64 64 (1048576)
I0130 21:53:17.776904 13635 net.cpp:165] Memory required for data: 136839168
I0130 21:53:17.776908 13635 layer_factory.hpp:77] Creating layer res2c_relu
I0130 21:53:17.776913 13635 net.cpp:100] Creating Layer res2c_relu
I0130 21:53:17.776917 13635 net.cpp:434] res2c_relu <- res2c
I0130 21:53:17.776922 13635 net.cpp:395] res2c_relu -> res2c (in-place)
I0130 21:53:17.777099 13635 net.cpp:150] Setting up res2c_relu
I0130 21:53:17.777110 13635 net.cpp:157] Top shape: 1 256 64 64 (1048576)
I0130 21:53:17.777113 13635 net.cpp:165] Memory required for data: 141033472
I0130 21:53:17.777118 13635 layer_factory.hpp:77] Creating layer res2c_res2c_relu_0_split
I0130 21:53:17.777124 13635 net.cpp:100] Creating Layer res2c_res2c_relu_0_split
I0130 21:53:17.777128 13635 net.cpp:434] res2c_res2c_relu_0_split <- res2c
I0130 21:53:17.777135 13635 net.cpp:408] res2c_res2c_relu_0_split -> res2c_res2c_relu_0_split_0
I0130 21:53:17.777143 13635 net.cpp:408] res2c_res2c_relu_0_split -> res2c_res2c_relu_0_split_1
I0130 21:53:17.777184 13635 net.cpp:150] Setting up res2c_res2c_relu_0_split
I0130 21:53:17.777190 13635 net.cpp:157] Top shape: 1 256 64 64 (1048576)
I0130 21:53:17.777195 13635 net.cpp:157] Top shape: 1 256 64 64 (1048576)
I0130 21:53:17.777199 13635 net.cpp:165] Memory required for data: 149422080
I0130 21:53:17.777202 13635 layer_factory.hpp:77] Creating layer res3a_branch1
I0130 21:53:17.777210 13635 net.cpp:100] Creating Layer res3a_branch1
I0130 21:53:17.777215 13635 net.cpp:434] res3a_branch1 <- res2c_res2c_relu_0_split_0
I0130 21:53:17.777221 13635 net.cpp:408] res3a_branch1 -> res3a_branch1
I0130 21:53:17.779430 13635 net.cpp:150] Setting up res3a_branch1
I0130 21:53:17.779449 13635 net.cpp:157] Top shape: 1 512 32 32 (524288)
I0130 21:53:17.779464 13635 net.cpp:165] Memory required for data: 151519232
I0130 21:53:17.779472 13635 layer_factory.hpp:77] Creating layer bn3a_branch1
I0130 21:53:17.779480 13635 net.cpp:100] Creating Layer bn3a_branch1
I0130 21:53:17.779485 13635 net.cpp:434] bn3a_branch1 <- res3a_branch1
I0130 21:53:17.779491 13635 net.cpp:395] bn3a_branch1 -> res3a_branch1 (in-place)
I0130 21:53:17.780158 13635 net.cpp:150] Setting up bn3a_branch1
I0130 21:53:17.780172 13635 net.cpp:157] Top shape: 1 512 32 32 (524288)
I0130 21:53:17.780186 13635 net.cpp:165] Memory required for data: 153616384
I0130 21:53:17.780195 13635 layer_factory.hpp:77] Creating layer scale3a_branch1
I0130 21:53:17.780205 13635 net.cpp:100] Creating Layer scale3a_branch1
I0130 21:53:17.780210 13635 net.cpp:434] scale3a_branch1 <- res3a_branch1
I0130 21:53:17.780215 13635 net.cpp:395] scale3a_branch1 -> res3a_branch1 (in-place)
I0130 21:53:17.780258 13635 layer_factory.hpp:77] Creating layer scale3a_branch1
I0130 21:53:17.780364 13635 net.cpp:150] Setting up scale3a_branch1
I0130 21:53:17.780374 13635 net.cpp:157] Top shape: 1 512 32 32 (524288)
I0130 21:53:17.780377 13635 net.cpp:165] Memory required for data: 155713536
I0130 21:53:17.780383 13635 layer_factory.hpp:77] Creating layer res3a_branch2a
I0130 21:53:17.780392 13635 net.cpp:100] Creating Layer res3a_branch2a
I0130 21:53:17.780396 13635 net.cpp:434] res3a_branch2a <- res2c_res2c_relu_0_split_1
I0130 21:53:17.780405 13635 net.cpp:408] res3a_branch2a -> res3a_branch2a
I0130 21:53:17.781468 13635 net.cpp:150] Setting up res3a_branch2a
I0130 21:53:17.781486 13635 net.cpp:157] Top shape: 1 128 32 32 (131072)
I0130 21:53:17.781500 13635 net.cpp:165] Memory required for data: 156237824
I0130 21:53:17.781507 13635 layer_factory.hpp:77] Creating layer bn3a_branch2a
I0130 21:53:17.781517 13635 net.cpp:100] Creating Layer bn3a_branch2a
I0130 21:53:17.781522 13635 net.cpp:434] bn3a_branch2a <- res3a_branch2a
I0130 21:53:17.781528 13635 net.cpp:395] bn3a_branch2a -> res3a_branch2a (in-place)
I0130 21:53:17.781721 13635 net.cpp:150] Setting up bn3a_branch2a
I0130 21:53:17.781731 13635 net.cpp:157] Top shape: 1 128 32 32 (131072)
I0130 21:53:17.781735 13635 net.cpp:165] Memory required for data: 156762112
I0130 21:53:17.781744 13635 layer_factory.hpp:77] Creating layer scale3a_branch2a
I0130 21:53:17.781752 13635 net.cpp:100] Creating Layer scale3a_branch2a
I0130 21:53:17.781757 13635 net.cpp:434] scale3a_branch2a <- res3a_branch2a
I0130 21:53:17.781762 13635 net.cpp:395] scale3a_branch2a -> res3a_branch2a (in-place)
I0130 21:53:17.781801 13635 layer_factory.hpp:77] Creating layer scale3a_branch2a
I0130 21:53:17.781898 13635 net.cpp:150] Setting up scale3a_branch2a
I0130 21:53:17.781908 13635 net.cpp:157] Top shape: 1 128 32 32 (131072)
I0130 21:53:17.781911 13635 net.cpp:165] Memory required for data: 157286400
I0130 21:53:17.781918 13635 layer_factory.hpp:77] Creating layer res3a_branch2a_relu
I0130 21:53:17.781925 13635 net.cpp:100] Creating Layer res3a_branch2a_relu
I0130 21:53:17.781929 13635 net.cpp:434] res3a_branch2a_relu <- res3a_branch2a
I0130 21:53:17.781934 13635 net.cpp:395] res3a_branch2a_relu -> res3a_branch2a (in-place)
I0130 21:53:17.782114 13635 net.cpp:150] Setting up res3a_branch2a_relu
I0130 21:53:17.782126 13635 net.cpp:157] Top shape: 1 128 32 32 (131072)
I0130 21:53:17.782130 13635 net.cpp:165] Memory required for data: 157810688
I0130 21:53:17.782135 13635 layer_factory.hpp:77] Creating layer res3a_branch2b
I0130 21:53:17.782143 13635 net.cpp:100] Creating Layer res3a_branch2b
I0130 21:53:17.782148 13635 net.cpp:434] res3a_branch2b <- res3a_branch2a
I0130 21:53:17.782155 13635 net.cpp:408] res3a_branch2b -> res3a_branch2b
I0130 21:53:17.783731 13635 net.cpp:150] Setting up res3a_branch2b
I0130 21:53:17.783749 13635 net.cpp:157] Top shape: 1 128 32 32 (131072)
I0130 21:53:17.783754 13635 net.cpp:165] Memory required for data: 158334976
I0130 21:53:17.783761 13635 layer_factory.hpp:77] Creating layer bn3a_branch2b
I0130 21:53:17.783771 13635 net.cpp:100] Creating Layer bn3a_branch2b
I0130 21:53:17.783776 13635 net.cpp:434] bn3a_branch2b <- res3a_branch2b
I0130 21:53:17.783782 13635 net.cpp:395] bn3a_branch2b -> res3a_branch2b (in-place)
I0130 21:53:17.783972 13635 net.cpp:150] Setting up bn3a_branch2b
I0130 21:53:17.783982 13635 net.cpp:157] Top shape: 1 128 32 32 (131072)
I0130 21:53:17.783987 13635 net.cpp:165] Memory required for data: 158859264
I0130 21:53:17.783995 13635 layer_factory.hpp:77] Creating layer scale3a_branch2b
I0130 21:53:17.784003 13635 net.cpp:100] Creating Layer scale3a_branch2b
I0130 21:53:17.784006 13635 net.cpp:434] scale3a_branch2b <- res3a_branch2b
I0130 21:53:17.784013 13635 net.cpp:395] scale3a_branch2b -> res3a_branch2b (in-place)
I0130 21:53:17.784051 13635 layer_factory.hpp:77] Creating layer scale3a_branch2b
I0130 21:53:17.784153 13635 net.cpp:150] Setting up scale3a_branch2b
I0130 21:53:17.784162 13635 net.cpp:157] Top shape: 1 128 32 32 (131072)
I0130 21:53:17.784167 13635 net.cpp:165] Memory required for data: 159383552
I0130 21:53:17.784173 13635 layer_factory.hpp:77] Creating layer res3a_branch2b_relu
I0130 21:53:17.784179 13635 net.cpp:100] Creating Layer res3a_branch2b_relu
I0130 21:53:17.784183 13635 net.cpp:434] res3a_branch2b_relu <- res3a_branch2b
I0130 21:53:17.784189 13635 net.cpp:395] res3a_branch2b_relu -> res3a_branch2b (in-place)
I0130 21:53:17.784500 13635 net.cpp:150] Setting up res3a_branch2b_relu
I0130 21:53:17.784515 13635 net.cpp:157] Top shape: 1 128 32 32 (131072)
I0130 21:53:17.784519 13635 net.cpp:165] Memory required for data: 159907840
I0130 21:53:17.784523 13635 layer_factory.hpp:77] Creating layer res3a_branch2c
I0130 21:53:17.784541 13635 net.cpp:100] Creating Layer res3a_branch2c
I0130 21:53:17.784546 13635 net.cpp:434] res3a_branch2c <- res3a_branch2b
I0130 21:53:17.784554 13635 net.cpp:408] res3a_branch2c -> res3a_branch2c
I0130 21:53:17.785522 13635 net.cpp:150] Setting up res3a_branch2c
I0130 21:53:17.785539 13635 net.cpp:157] Top shape: 1 512 32 32 (524288)
I0130 21:53:17.785544 13635 net.cpp:165] Memory required for data: 162004992
I0130 21:53:17.785552 13635 layer_factory.hpp:77] Creating layer bn3a_branch2c
I0130 21:53:17.785560 13635 net.cpp:100] Creating Layer bn3a_branch2c
I0130 21:53:17.785565 13635 net.cpp:434] bn3a_branch2c <- res3a_branch2c
I0130 21:53:17.785571 13635 net.cpp:395] bn3a_branch2c -> res3a_branch2c (in-place)
I0130 21:53:17.785753 13635 net.cpp:150] Setting up bn3a_branch2c
I0130 21:53:17.785763 13635 net.cpp:157] Top shape: 1 512 32 32 (524288)
I0130 21:53:17.785768 13635 net.cpp:165] Memory required for data: 164102144
I0130 21:53:17.785776 13635 layer_factory.hpp:77] Creating layer scale3a_branch2c
I0130 21:53:17.785782 13635 net.cpp:100] Creating Layer scale3a_branch2c
I0130 21:53:17.785787 13635 net.cpp:434] scale3a_branch2c <- res3a_branch2c
I0130 21:53:17.785797 13635 net.cpp:395] scale3a_branch2c -> res3a_branch2c (in-place)
I0130 21:53:17.785832 13635 layer_factory.hpp:77] Creating layer scale3a_branch2c
I0130 21:53:17.785938 13635 net.cpp:150] Setting up scale3a_branch2c
I0130 21:53:17.785946 13635 net.cpp:157] Top shape: 1 512 32 32 (524288)
I0130 21:53:17.785949 13635 net.cpp:165] Memory required for data: 166199296
I0130 21:53:17.785956 13635 layer_factory.hpp:77] Creating layer res3a
I0130 21:53:17.785962 13635 net.cpp:100] Creating Layer res3a
I0130 21:53:17.785966 13635 net.cpp:434] res3a <- res3a_branch1
I0130 21:53:17.785971 13635 net.cpp:434] res3a <- res3a_branch2c
I0130 21:53:17.785979 13635 net.cpp:408] res3a -> res3a
I0130 21:53:17.786003 13635 net.cpp:150] Setting up res3a
I0130 21:53:17.786010 13635 net.cpp:157] Top shape: 1 512 32 32 (524288)
I0130 21:53:17.786013 13635 net.cpp:165] Memory required for data: 168296448
I0130 21:53:17.786017 13635 layer_factory.hpp:77] Creating layer res3a_relu
I0130 21:53:17.786025 13635 net.cpp:100] Creating Layer res3a_relu
I0130 21:53:17.786028 13635 net.cpp:434] res3a_relu <- res3a
I0130 21:53:17.786033 13635 net.cpp:395] res3a_relu -> res3a (in-place)
I0130 21:53:17.786360 13635 net.cpp:150] Setting up res3a_relu
I0130 21:53:17.786375 13635 net.cpp:157] Top shape: 1 512 32 32 (524288)
I0130 21:53:17.786378 13635 net.cpp:165] Memory required for data: 170393600
I0130 21:53:17.786382 13635 layer_factory.hpp:77] Creating layer res3a_res3a_relu_0_split
I0130 21:53:17.786391 13635 net.cpp:100] Creating Layer res3a_res3a_relu_0_split
I0130 21:53:17.786396 13635 net.cpp:434] res3a_res3a_relu_0_split <- res3a
I0130 21:53:17.786403 13635 net.cpp:408] res3a_res3a_relu_0_split -> res3a_res3a_relu_0_split_0
I0130 21:53:17.786412 13635 net.cpp:408] res3a_res3a_relu_0_split -> res3a_res3a_relu_0_split_1
I0130 21:53:17.786455 13635 net.cpp:150] Setting up res3a_res3a_relu_0_split
I0130 21:53:17.786463 13635 net.cpp:157] Top shape: 1 512 32 32 (524288)
I0130 21:53:17.786466 13635 net.cpp:157] Top shape: 1 512 32 32 (524288)
I0130 21:53:17.786470 13635 net.cpp:165] Memory required for data: 174587904
I0130 21:53:17.786474 13635 layer_factory.hpp:77] Creating layer res3b1_branch2a
I0130 21:53:17.786484 13635 net.cpp:100] Creating Layer res3b1_branch2a
I0130 21:53:17.786487 13635 net.cpp:434] res3b1_branch2a <- res3a_res3a_relu_0_split_0
I0130 21:53:17.786494 13635 net.cpp:408] res3b1_branch2a -> res3b1_branch2a
I0130 21:53:17.788146 13635 net.cpp:150] Setting up res3b1_branch2a
I0130 21:53:17.788162 13635 net.cpp:157] Top shape: 1 128 32 32 (131072)
I0130 21:53:17.788167 13635 net.cpp:165] Memory required for data: 175112192
I0130 21:53:17.788173 13635 layer_factory.hpp:77] Creating layer bn3b1_branch2a
I0130 21:53:17.788185 13635 net.cpp:100] Creating Layer bn3b1_branch2a
I0130 21:53:17.788190 13635 net.cpp:434] bn3b1_branch2a <- res3b1_branch2a
I0130 21:53:17.788197 13635 net.cpp:395] bn3b1_branch2a -> res3b1_branch2a (in-place)
I0130 21:53:17.788388 13635 net.cpp:150] Setting up bn3b1_branch2a
I0130 21:53:17.788398 13635 net.cpp:157] Top shape: 1 128 32 32 (131072)
I0130 21:53:17.788401 13635 net.cpp:165] Memory required for data: 175636480
I0130 21:53:17.788409 13635 layer_factory.hpp:77] Creating layer scale3b1_branch2a
I0130 21:53:17.788416 13635 net.cpp:100] Creating Layer scale3b1_branch2a
I0130 21:53:17.788420 13635 net.cpp:434] scale3b1_branch2a <- res3b1_branch2a
I0130 21:53:17.788429 13635 net.cpp:395] scale3b1_branch2a -> res3b1_branch2a (in-place)
I0130 21:53:17.788467 13635 layer_factory.hpp:77] Creating layer scale3b1_branch2a
I0130 21:53:17.788568 13635 net.cpp:150] Setting up scale3b1_branch2a
I0130 21:53:17.788578 13635 net.cpp:157] Top shape: 1 128 32 32 (131072)
I0130 21:53:17.788581 13635 net.cpp:165] Memory required for data: 176160768
I0130 21:53:17.788589 13635 layer_factory.hpp:77] Creating layer res3b1_branch2a_relu
I0130 21:53:17.788594 13635 net.cpp:100] Creating Layer res3b1_branch2a_relu
I0130 21:53:17.788599 13635 net.cpp:434] res3b1_branch2a_relu <- res3b1_branch2a
I0130 21:53:17.788604 13635 net.cpp:395] res3b1_branch2a_relu -> res3b1_branch2a (in-place)
I0130 21:53:17.788800 13635 net.cpp:150] Setting up res3b1_branch2a_relu
I0130 21:53:17.788812 13635 net.cpp:157] Top shape: 1 128 32 32 (131072)
I0130 21:53:17.788816 13635 net.cpp:165] Memory required for data: 176685056
I0130 21:53:17.788820 13635 layer_factory.hpp:77] Creating layer res3b1_branch2b
I0130 21:53:17.788830 13635 net.cpp:100] Creating Layer res3b1_branch2b
I0130 21:53:17.788835 13635 net.cpp:434] res3b1_branch2b <- res3b1_branch2a
I0130 21:53:17.788842 13635 net.cpp:408] res3b1_branch2b -> res3b1_branch2b
I0130 21:53:17.790576 13635 net.cpp:150] Setting up res3b1_branch2b
I0130 21:53:17.790593 13635 net.cpp:157] Top shape: 1 128 32 32 (131072)
I0130 21:53:17.790597 13635 net.cpp:165] Memory required for data: 177209344
I0130 21:53:17.790604 13635 layer_factory.hpp:77] Creating layer bn3b1_branch2b
I0130 21:53:17.790613 13635 net.cpp:100] Creating Layer bn3b1_branch2b
I0130 21:53:17.790618 13635 net.cpp:434] bn3b1_branch2b <- res3b1_branch2b
I0130 21:53:17.790624 13635 net.cpp:395] bn3b1_branch2b -> res3b1_branch2b (in-place)
I0130 21:53:17.790815 13635 net.cpp:150] Setting up bn3b1_branch2b
I0130 21:53:17.790825 13635 net.cpp:157] Top shape: 1 128 32 32 (131072)
I0130 21:53:17.790828 13635 net.cpp:165] Memory required for data: 177733632
I0130 21:53:17.790838 13635 layer_factory.hpp:77] Creating layer scale3b1_branch2b
I0130 21:53:17.790843 13635 net.cpp:100] Creating Layer scale3b1_branch2b
I0130 21:53:17.790848 13635 net.cpp:434] scale3b1_branch2b <- res3b1_branch2b
I0130 21:53:17.790853 13635 net.cpp:395] scale3b1_branch2b -> res3b1_branch2b (in-place)
I0130 21:53:17.790894 13635 layer_factory.hpp:77] Creating layer scale3b1_branch2b
I0130 21:53:17.790997 13635 net.cpp:150] Setting up scale3b1_branch2b
I0130 21:53:17.791007 13635 net.cpp:157] Top shape: 1 128 32 32 (131072)
I0130 21:53:17.791010 13635 net.cpp:165] Memory required for data: 178257920
I0130 21:53:17.791018 13635 layer_factory.hpp:77] Creating layer res3b1_branch2b_relu
I0130 21:53:17.791025 13635 net.cpp:100] Creating Layer res3b1_branch2b_relu
I0130 21:53:17.791029 13635 net.cpp:434] res3b1_branch2b_relu <- res3b1_branch2b
I0130 21:53:17.791034 13635 net.cpp:395] res3b1_branch2b_relu -> res3b1_branch2b (in-place)
I0130 21:53:17.791357 13635 net.cpp:150] Setting up res3b1_branch2b_relu
I0130 21:53:17.791373 13635 net.cpp:157] Top shape: 1 128 32 32 (131072)
I0130 21:53:17.791376 13635 net.cpp:165] Memory required for data: 178782208
I0130 21:53:17.791381 13635 layer_factory.hpp:77] Creating layer res3b1_branch2c
I0130 21:53:17.791393 13635 net.cpp:100] Creating Layer res3b1_branch2c
I0130 21:53:17.791398 13635 net.cpp:434] res3b1_branch2c <- res3b1_branch2b
I0130 21:53:17.791404 13635 net.cpp:408] res3b1_branch2c -> res3b1_branch2c
I0130 21:53:17.792352 13635 net.cpp:150] Setting up res3b1_branch2c
I0130 21:53:17.792368 13635 net.cpp:157] Top shape: 1 512 32 32 (524288)
I0130 21:53:17.792372 13635 net.cpp:165] Memory required for data: 180879360
I0130 21:53:17.792379 13635 layer_factory.hpp:77] Creating layer bn3b1_branch2c
I0130 21:53:17.792387 13635 net.cpp:100] Creating Layer bn3b1_branch2c
I0130 21:53:17.792392 13635 net.cpp:434] bn3b1_branch2c <- res3b1_branch2c
I0130 21:53:17.792398 13635 net.cpp:395] bn3b1_branch2c -> res3b1_branch2c (in-place)
I0130 21:53:17.792593 13635 net.cpp:150] Setting up bn3b1_branch2c
I0130 21:53:17.792603 13635 net.cpp:157] Top shape: 1 512 32 32 (524288)
I0130 21:53:17.792608 13635 net.cpp:165] Memory required for data: 182976512
I0130 21:53:17.792615 13635 layer_factory.hpp:77] Creating layer scale3b1_branch2c
I0130 21:53:17.792624 13635 net.cpp:100] Creating Layer scale3b1_branch2c
I0130 21:53:17.792629 13635 net.cpp:434] scale3b1_branch2c <- res3b1_branch2c
I0130 21:53:17.792634 13635 net.cpp:395] scale3b1_branch2c -> res3b1_branch2c (in-place)
I0130 21:53:17.792672 13635 layer_factory.hpp:77] Creating layer scale3b1_branch2c
I0130 21:53:17.792786 13635 net.cpp:150] Setting up scale3b1_branch2c
I0130 21:53:17.792796 13635 net.cpp:157] Top shape: 1 512 32 32 (524288)
I0130 21:53:17.792800 13635 net.cpp:165] Memory required for data: 185073664
I0130 21:53:17.792807 13635 layer_factory.hpp:77] Creating layer res3b1
I0130 21:53:17.792814 13635 net.cpp:100] Creating Layer res3b1
I0130 21:53:17.792819 13635 net.cpp:434] res3b1 <- res3a_res3a_relu_0_split_1
I0130 21:53:17.792822 13635 net.cpp:434] res3b1 <- res3b1_branch2c
I0130 21:53:17.792829 13635 net.cpp:408] res3b1 -> res3b1
I0130 21:53:17.792855 13635 net.cpp:150] Setting up res3b1
I0130 21:53:17.792863 13635 net.cpp:157] Top shape: 1 512 32 32 (524288)
I0130 21:53:17.792867 13635 net.cpp:165] Memory required for data: 187170816
I0130 21:53:17.792871 13635 layer_factory.hpp:77] Creating layer res3b1_relu
I0130 21:53:17.792877 13635 net.cpp:100] Creating Layer res3b1_relu
I0130 21:53:17.792881 13635 net.cpp:434] res3b1_relu <- res3b1
I0130 21:53:17.792886 13635 net.cpp:395] res3b1_relu -> res3b1 (in-place)
I0130 21:53:17.793200 13635 net.cpp:150] Setting up res3b1_relu
I0130 21:53:17.793215 13635 net.cpp:157] Top shape: 1 512 32 32 (524288)
I0130 21:53:17.793218 13635 net.cpp:165] Memory required for data: 189267968
I0130 21:53:17.793222 13635 layer_factory.hpp:77] Creating layer res3b1_res3b1_relu_0_split
I0130 21:53:17.793229 13635 net.cpp:100] Creating Layer res3b1_res3b1_relu_0_split
I0130 21:53:17.793233 13635 net.cpp:434] res3b1_res3b1_relu_0_split <- res3b1
I0130 21:53:17.793241 13635 net.cpp:408] res3b1_res3b1_relu_0_split -> res3b1_res3b1_relu_0_split_0
I0130 21:53:17.793248 13635 net.cpp:408] res3b1_res3b1_relu_0_split -> res3b1_res3b1_relu_0_split_1
I0130 21:53:17.793296 13635 net.cpp:150] Setting up res3b1_res3b1_relu_0_split
I0130 21:53:17.793303 13635 net.cpp:157] Top shape: 1 512 32 32 (524288)
I0130 21:53:17.793308 13635 net.cpp:157] Top shape: 1 512 32 32 (524288)
I0130 21:53:17.793311 13635 net.cpp:165] Memory required for data: 193462272
I0130 21:53:17.793315 13635 layer_factory.hpp:77] Creating layer res3b2_branch2a
I0130 21:53:17.793324 13635 net.cpp:100] Creating Layer res3b2_branch2a
I0130 21:53:17.793329 13635 net.cpp:434] res3b2_branch2a <- res3b1_res3b1_relu_0_split_0
I0130 21:53:17.793336 13635 net.cpp:408] res3b2_branch2a -> res3b2_branch2a
I0130 21:53:17.794736 13635 net.cpp:150] Setting up res3b2_branch2a
I0130 21:53:17.794797 13635 net.cpp:157] Top shape: 1 128 32 32 (131072)
I0130 21:53:17.794824 13635 net.cpp:165] Memory required for data: 193986560
I0130 21:53:17.794852 13635 layer_factory.hpp:77] Creating layer bn3b2_branch2a
I0130 21:53:17.794883 13635 net.cpp:100] Creating Layer bn3b2_branch2a
I0130 21:53:17.794909 13635 net.cpp:434] bn3b2_branch2a <- res3b2_branch2a
I0130 21:53:17.794934 13635 net.cpp:395] bn3b2_branch2a -> res3b2_branch2a (in-place)
I0130 21:53:17.795181 13635 net.cpp:150] Setting up bn3b2_branch2a
I0130 21:53:17.795194 13635 net.cpp:157] Top shape: 1 128 32 32 (131072)
I0130 21:53:17.795199 13635 net.cpp:165] Memory required for data: 194510848
I0130 21:53:17.795210 13635 layer_factory.hpp:77] Creating layer scale3b2_branch2a
I0130 21:53:17.795217 13635 net.cpp:100] Creating Layer scale3b2_branch2a
I0130 21:53:17.795222 13635 net.cpp:434] scale3b2_branch2a <- res3b2_branch2a
I0130 21:53:17.795228 13635 net.cpp:395] scale3b2_branch2a -> res3b2_branch2a (in-place)
I0130 21:53:17.795272 13635 layer_factory.hpp:77] Creating layer scale3b2_branch2a
I0130 21:53:17.795377 13635 net.cpp:150] Setting up scale3b2_branch2a
I0130 21:53:17.795387 13635 net.cpp:157] Top shape: 1 128 32 32 (131072)
I0130 21:53:17.795390 13635 net.cpp:165] Memory required for data: 195035136
I0130 21:53:17.795397 13635 layer_factory.hpp:77] Creating layer res3b2_branch2a_relu
I0130 21:53:17.795403 13635 net.cpp:100] Creating Layer res3b2_branch2a_relu
I0130 21:53:17.795408 13635 net.cpp:434] res3b2_branch2a_relu <- res3b2_branch2a
I0130 21:53:17.795413 13635 net.cpp:395] res3b2_branch2a_relu -> res3b2_branch2a (in-place)
I0130 21:53:17.795599 13635 net.cpp:150] Setting up res3b2_branch2a_relu
I0130 21:53:17.795611 13635 net.cpp:157] Top shape: 1 128 32 32 (131072)
I0130 21:53:17.795616 13635 net.cpp:165] Memory required for data: 195559424
I0130 21:53:17.795620 13635 layer_factory.hpp:77] Creating layer res3b2_branch2b
I0130 21:53:17.795629 13635 net.cpp:100] Creating Layer res3b2_branch2b
I0130 21:53:17.795634 13635 net.cpp:434] res3b2_branch2b <- res3b2_branch2a
I0130 21:53:17.795642 13635 net.cpp:408] res3b2_branch2b -> res3b2_branch2b
I0130 21:53:17.797513 13635 net.cpp:150] Setting up res3b2_branch2b
I0130 21:53:17.797533 13635 net.cpp:157] Top shape: 1 128 32 32 (131072)
I0130 21:53:17.797538 13635 net.cpp:165] Memory required for data: 196083712
I0130 21:53:17.797545 13635 layer_factory.hpp:77] Creating layer bn3b2_branch2b
I0130 21:53:17.797556 13635 net.cpp:100] Creating Layer bn3b2_branch2b
I0130 21:53:17.797561 13635 net.cpp:434] bn3b2_branch2b <- res3b2_branch2b
I0130 21:53:17.797569 13635 net.cpp:395] bn3b2_branch2b -> res3b2_branch2b (in-place)
I0130 21:53:17.797768 13635 net.cpp:150] Setting up bn3b2_branch2b
I0130 21:53:17.797778 13635 net.cpp:157] Top shape: 1 128 32 32 (131072)
I0130 21:53:17.797782 13635 net.cpp:165] Memory required for data: 196608000
I0130 21:53:17.797791 13635 layer_factory.hpp:77] Creating layer scale3b2_branch2b
I0130 21:53:17.797797 13635 net.cpp:100] Creating Layer scale3b2_branch2b
I0130 21:53:17.797801 13635 net.cpp:434] scale3b2_branch2b <- res3b2_branch2b
I0130 21:53:17.797811 13635 net.cpp:395] scale3b2_branch2b -> res3b2_branch2b (in-place)
I0130 21:53:17.797854 13635 layer_factory.hpp:77] Creating layer scale3b2_branch2b
I0130 21:53:17.797965 13635 net.cpp:150] Setting up scale3b2_branch2b
I0130 21:53:17.797974 13635 net.cpp:157] Top shape: 1 128 32 32 (131072)
I0130 21:53:17.797978 13635 net.cpp:165] Memory required for data: 197132288
I0130 21:53:17.797984 13635 layer_factory.hpp:77] Creating layer res3b2_branch2b_relu
I0130 21:53:17.797992 13635 net.cpp:100] Creating Layer res3b2_branch2b_relu
I0130 21:53:17.797996 13635 net.cpp:434] res3b2_branch2b_relu <- res3b2_branch2b
I0130 21:53:17.798002 13635 net.cpp:395] res3b2_branch2b_relu -> res3b2_branch2b (in-place)
I0130 21:53:17.798321 13635 net.cpp:150] Setting up res3b2_branch2b_relu
I0130 21:53:17.798336 13635 net.cpp:157] Top shape: 1 128 32 32 (131072)
I0130 21:53:17.798339 13635 net.cpp:165] Memory required for data: 197656576
I0130 21:53:17.798343 13635 layer_factory.hpp:77] Creating layer res3b2_branch2c
I0130 21:53:17.798354 13635 net.cpp:100] Creating Layer res3b2_branch2c
I0130 21:53:17.798359 13635 net.cpp:434] res3b2_branch2c <- res3b2_branch2b
I0130 21:53:17.798367 13635 net.cpp:408] res3b2_branch2c -> res3b2_branch2c
I0130 21:53:17.799331 13635 net.cpp:150] Setting up res3b2_branch2c
I0130 21:53:17.799347 13635 net.cpp:157] Top shape: 1 512 32 32 (524288)
I0130 21:53:17.799353 13635 net.cpp:165] Memory required for data: 199753728
I0130 21:53:17.799360 13635 layer_factory.hpp:77] Creating layer bn3b2_branch2c
I0130 21:53:17.799367 13635 net.cpp:100] Creating Layer bn3b2_branch2c
I0130 21:53:17.799371 13635 net.cpp:434] bn3b2_branch2c <- res3b2_branch2c
I0130 21:53:17.799377 13635 net.cpp:395] bn3b2_branch2c -> res3b2_branch2c (in-place)
I0130 21:53:17.799576 13635 net.cpp:150] Setting up bn3b2_branch2c
I0130 21:53:17.799585 13635 net.cpp:157] Top shape: 1 512 32 32 (524288)
I0130 21:53:17.799589 13635 net.cpp:165] Memory required for data: 201850880
I0130 21:53:17.799599 13635 layer_factory.hpp:77] Creating layer scale3b2_branch2c
I0130 21:53:17.799607 13635 net.cpp:100] Creating Layer scale3b2_branch2c
I0130 21:53:17.799612 13635 net.cpp:434] scale3b2_branch2c <- res3b2_branch2c
I0130 21:53:17.799616 13635 net.cpp:395] scale3b2_branch2c -> res3b2_branch2c (in-place)
I0130 21:53:17.799654 13635 layer_factory.hpp:77] Creating layer scale3b2_branch2c
I0130 21:53:17.799764 13635 net.cpp:150] Setting up scale3b2_branch2c
I0130 21:53:17.799773 13635 net.cpp:157] Top shape: 1 512 32 32 (524288)
I0130 21:53:17.799777 13635 net.cpp:165] Memory required for data: 203948032
I0130 21:53:17.799783 13635 layer_factory.hpp:77] Creating layer res3b2
I0130 21:53:17.799790 13635 net.cpp:100] Creating Layer res3b2
I0130 21:53:17.799794 13635 net.cpp:434] res3b2 <- res3b1_res3b1_relu_0_split_1
I0130 21:53:17.799800 13635 net.cpp:434] res3b2 <- res3b2_branch2c
I0130 21:53:17.799811 13635 net.cpp:408] res3b2 -> res3b2
I0130 21:53:17.799839 13635 net.cpp:150] Setting up res3b2
I0130 21:53:17.799846 13635 net.cpp:157] Top shape: 1 512 32 32 (524288)
I0130 21:53:17.799850 13635 net.cpp:165] Memory required for data: 206045184
I0130 21:53:17.799854 13635 layer_factory.hpp:77] Creating layer res3b2_relu
I0130 21:53:17.799860 13635 net.cpp:100] Creating Layer res3b2_relu
I0130 21:53:17.799863 13635 net.cpp:434] res3b2_relu <- res3b2
I0130 21:53:17.799868 13635 net.cpp:395] res3b2_relu -> res3b2 (in-place)
I0130 21:53:17.800185 13635 net.cpp:150] Setting up res3b2_relu
I0130 21:53:17.800200 13635 net.cpp:157] Top shape: 1 512 32 32 (524288)
I0130 21:53:17.800204 13635 net.cpp:165] Memory required for data: 208142336
I0130 21:53:17.800209 13635 layer_factory.hpp:77] Creating layer res3b2_res3b2_relu_0_split
I0130 21:53:17.800215 13635 net.cpp:100] Creating Layer res3b2_res3b2_relu_0_split
I0130 21:53:17.800220 13635 net.cpp:434] res3b2_res3b2_relu_0_split <- res3b2
I0130 21:53:17.800226 13635 net.cpp:408] res3b2_res3b2_relu_0_split -> res3b2_res3b2_relu_0_split_0
I0130 21:53:17.800235 13635 net.cpp:408] res3b2_res3b2_relu_0_split -> res3b2_res3b2_relu_0_split_1
I0130 21:53:17.800282 13635 net.cpp:150] Setting up res3b2_res3b2_relu_0_split
I0130 21:53:17.800288 13635 net.cpp:157] Top shape: 1 512 32 32 (524288)
I0130 21:53:17.800292 13635 net.cpp:157] Top shape: 1 512 32 32 (524288)
I0130 21:53:17.800297 13635 net.cpp:165] Memory required for data: 212336640
I0130 21:53:17.800300 13635 layer_factory.hpp:77] Creating layer res3b3_branch2a
I0130 21:53:17.800314 13635 net.cpp:100] Creating Layer res3b3_branch2a
I0130 21:53:17.800319 13635 net.cpp:434] res3b3_branch2a <- res3b2_res3b2_relu_0_split_0
I0130 21:53:17.800326 13635 net.cpp:408] res3b3_branch2a -> res3b3_branch2a
I0130 21:53:17.801993 13635 net.cpp:150] Setting up res3b3_branch2a
I0130 21:53:17.802024 13635 net.cpp:157] Top shape: 1 128 32 32 (131072)
I0130 21:53:17.802029 13635 net.cpp:165] Memory required for data: 212860928
I0130 21:53:17.802037 13635 layer_factory.hpp:77] Creating layer bn3b3_branch2a
I0130 21:53:17.802047 13635 net.cpp:100] Creating Layer bn3b3_branch2a
I0130 21:53:17.802052 13635 net.cpp:434] bn3b3_branch2a <- res3b3_branch2a
I0130 21:53:17.802059 13635 net.cpp:395] bn3b3_branch2a -> res3b3_branch2a (in-place)
I0130 21:53:17.802258 13635 net.cpp:150] Setting up bn3b3_branch2a
I0130 21:53:17.802268 13635 net.cpp:157] Top shape: 1 128 32 32 (131072)
I0130 21:53:17.802271 13635 net.cpp:165] Memory required for data: 213385216
I0130 21:53:17.802304 13635 layer_factory.hpp:77] Creating layer scale3b3_branch2a
I0130 21:53:17.802316 13635 net.cpp:100] Creating Layer scale3b3_branch2a
I0130 21:53:17.802320 13635 net.cpp:434] scale3b3_branch2a <- res3b3_branch2a
I0130 21:53:17.802328 13635 net.cpp:395] scale3b3_branch2a -> res3b3_branch2a (in-place)
I0130 21:53:17.802372 13635 layer_factory.hpp:77] Creating layer scale3b3_branch2a
I0130 21:53:17.802479 13635 net.cpp:150] Setting up scale3b3_branch2a
I0130 21:53:17.802489 13635 net.cpp:157] Top shape: 1 128 32 32 (131072)
I0130 21:53:17.802492 13635 net.cpp:165] Memory required for data: 213909504
I0130 21:53:17.802500 13635 layer_factory.hpp:77] Creating layer res3b3_branch2a_relu
I0130 21:53:17.802507 13635 net.cpp:100] Creating Layer res3b3_branch2a_relu
I0130 21:53:17.802511 13635 net.cpp:434] res3b3_branch2a_relu <- res3b3_branch2a
I0130 21:53:17.802516 13635 net.cpp:395] res3b3_branch2a_relu -> res3b3_branch2a (in-place)
I0130 21:53:17.802700 13635 net.cpp:150] Setting up res3b3_branch2a_relu
I0130 21:53:17.802711 13635 net.cpp:157] Top shape: 1 128 32 32 (131072)
I0130 21:53:17.802716 13635 net.cpp:165] Memory required for data: 214433792
I0130 21:53:17.802719 13635 layer_factory.hpp:77] Creating layer res3b3_branch2b
I0130 21:53:17.802729 13635 net.cpp:100] Creating Layer res3b3_branch2b
I0130 21:53:17.802733 13635 net.cpp:434] res3b3_branch2b <- res3b3_branch2a
I0130 21:53:17.802742 13635 net.cpp:408] res3b3_branch2b -> res3b3_branch2b
I0130 21:53:17.804386 13635 net.cpp:150] Setting up res3b3_branch2b
I0130 21:53:17.804404 13635 net.cpp:157] Top shape: 1 128 32 32 (131072)
I0130 21:53:17.804420 13635 net.cpp:165] Memory required for data: 214958080
I0130 21:53:17.804427 13635 layer_factory.hpp:77] Creating layer bn3b3_branch2b
I0130 21:53:17.804436 13635 net.cpp:100] Creating Layer bn3b3_branch2b
I0130 21:53:17.804442 13635 net.cpp:434] bn3b3_branch2b <- res3b3_branch2b
I0130 21:53:17.804448 13635 net.cpp:395] bn3b3_branch2b -> res3b3_branch2b (in-place)
I0130 21:53:17.804651 13635 net.cpp:150] Setting up bn3b3_branch2b
I0130 21:53:17.804661 13635 net.cpp:157] Top shape: 1 128 32 32 (131072)
I0130 21:53:17.804666 13635 net.cpp:165] Memory required for data: 215482368
I0130 21:53:17.804673 13635 layer_factory.hpp:77] Creating layer scale3b3_branch2b
I0130 21:53:17.804683 13635 net.cpp:100] Creating Layer scale3b3_branch2b
I0130 21:53:17.804687 13635 net.cpp:434] scale3b3_branch2b <- res3b3_branch2b
I0130 21:53:17.804693 13635 net.cpp:395] scale3b3_branch2b -> res3b3_branch2b (in-place)
I0130 21:53:17.804738 13635 layer_factory.hpp:77] Creating layer scale3b3_branch2b
I0130 21:53:17.804857 13635 net.cpp:150] Setting up scale3b3_branch2b
I0130 21:53:17.804867 13635 net.cpp:157] Top shape: 1 128 32 32 (131072)
I0130 21:53:17.804872 13635 net.cpp:165] Memory required for data: 216006656
I0130 21:53:17.804878 13635 layer_factory.hpp:77] Creating layer res3b3_branch2b_relu
I0130 21:53:17.804884 13635 net.cpp:100] Creating Layer res3b3_branch2b_relu
I0130 21:53:17.804888 13635 net.cpp:434] res3b3_branch2b_relu <- res3b3_branch2b
I0130 21:53:17.804893 13635 net.cpp:395] res3b3_branch2b_relu -> res3b3_branch2b (in-place)
I0130 21:53:17.805214 13635 net.cpp:150] Setting up res3b3_branch2b_relu
I0130 21:53:17.805229 13635 net.cpp:157] Top shape: 1 128 32 32 (131072)
I0130 21:53:17.805233 13635 net.cpp:165] Memory required for data: 216530944
I0130 21:53:17.805238 13635 layer_factory.hpp:77] Creating layer res3b3_branch2c
I0130 21:53:17.805248 13635 net.cpp:100] Creating Layer res3b3_branch2c
I0130 21:53:17.805253 13635 net.cpp:434] res3b3_branch2c <- res3b3_branch2b
I0130 21:53:17.805260 13635 net.cpp:408] res3b3_branch2c -> res3b3_branch2c
I0130 21:53:17.806289 13635 net.cpp:150] Setting up res3b3_branch2c
I0130 21:53:17.806304 13635 net.cpp:157] Top shape: 1 512 32 32 (524288)
I0130 21:53:17.806319 13635 net.cpp:165] Memory required for data: 218628096
I0130 21:53:17.806325 13635 layer_factory.hpp:77] Creating layer bn3b3_branch2c
I0130 21:53:17.806335 13635 net.cpp:100] Creating Layer bn3b3_branch2c
I0130 21:53:17.806349 13635 net.cpp:434] bn3b3_branch2c <- res3b3_branch2c
I0130 21:53:17.806356 13635 net.cpp:395] bn3b3_branch2c -> res3b3_branch2c (in-place)
I0130 21:53:17.806571 13635 net.cpp:150] Setting up bn3b3_branch2c
I0130 21:53:17.806581 13635 net.cpp:157] Top shape: 1 512 32 32 (524288)
I0130 21:53:17.806584 13635 net.cpp:165] Memory required for data: 220725248
I0130 21:53:17.806592 13635 layer_factory.hpp:77] Creating layer scale3b3_branch2c
I0130 21:53:17.806598 13635 net.cpp:100] Creating Layer scale3b3_branch2c
I0130 21:53:17.806602 13635 net.cpp:434] scale3b3_branch2c <- res3b3_branch2c
I0130 21:53:17.806612 13635 net.cpp:395] scale3b3_branch2c -> res3b3_branch2c (in-place)
I0130 21:53:17.806649 13635 layer_factory.hpp:77] Creating layer scale3b3_branch2c
I0130 21:53:17.806758 13635 net.cpp:150] Setting up scale3b3_branch2c
I0130 21:53:17.806767 13635 net.cpp:157] Top shape: 1 512 32 32 (524288)
I0130 21:53:17.806771 13635 net.cpp:165] Memory required for data: 222822400
I0130 21:53:17.806777 13635 layer_factory.hpp:77] Creating layer res3b3
I0130 21:53:17.806784 13635 net.cpp:100] Creating Layer res3b3
I0130 21:53:17.806788 13635 net.cpp:434] res3b3 <- res3b2_res3b2_relu_0_split_1
I0130 21:53:17.806793 13635 net.cpp:434] res3b3 <- res3b3_branch2c
I0130 21:53:17.806802 13635 net.cpp:408] res3b3 -> res3b3
I0130 21:53:17.806829 13635 net.cpp:150] Setting up res3b3
I0130 21:53:17.806835 13635 net.cpp:157] Top shape: 1 512 32 32 (524288)
I0130 21:53:17.806839 13635 net.cpp:165] Memory required for data: 224919552
I0130 21:53:17.806843 13635 layer_factory.hpp:77] Creating layer res3b3_relu
I0130 21:53:17.806850 13635 net.cpp:100] Creating Layer res3b3_relu
I0130 21:53:17.806854 13635 net.cpp:434] res3b3_relu <- res3b3
I0130 21:53:17.806859 13635 net.cpp:395] res3b3_relu -> res3b3 (in-place)
I0130 21:53:17.807183 13635 net.cpp:150] Setting up res3b3_relu
I0130 21:53:17.807198 13635 net.cpp:157] Top shape: 1 512 32 32 (524288)
I0130 21:53:17.807201 13635 net.cpp:165] Memory required for data: 227016704
I0130 21:53:17.807206 13635 layer_factory.hpp:77] Creating layer res3b3_res3b3_relu_0_split
I0130 21:53:17.807214 13635 net.cpp:100] Creating Layer res3b3_res3b3_relu_0_split
I0130 21:53:17.807217 13635 net.cpp:434] res3b3_res3b3_relu_0_split <- res3b3
I0130 21:53:17.807227 13635 net.cpp:408] res3b3_res3b3_relu_0_split -> res3b3_res3b3_relu_0_split_0
I0130 21:53:17.807235 13635 net.cpp:408] res3b3_res3b3_relu_0_split -> res3b3_res3b3_relu_0_split_1
I0130 21:53:17.807281 13635 net.cpp:150] Setting up res3b3_res3b3_relu_0_split
I0130 21:53:17.807291 13635 net.cpp:157] Top shape: 1 512 32 32 (524288)
I0130 21:53:17.807296 13635 net.cpp:157] Top shape: 1 512 32 32 (524288)
I0130 21:53:17.807298 13635 net.cpp:165] Memory required for data: 231211008
I0130 21:53:17.807302 13635 layer_factory.hpp:77] Creating layer res3b4_branch2a
I0130 21:53:17.807310 13635 net.cpp:100] Creating Layer res3b4_branch2a
I0130 21:53:17.807314 13635 net.cpp:434] res3b4_branch2a <- res3b3_res3b3_relu_0_split_0
I0130 21:53:17.807322 13635 net.cpp:408] res3b4_branch2a -> res3b4_branch2a
I0130 21:53:17.808609 13635 net.cpp:150] Setting up res3b4_branch2a
I0130 21:53:17.808624 13635 net.cpp:157] Top shape: 1 128 32 32 (131072)
I0130 21:53:17.808640 13635 net.cpp:165] Memory required for data: 231735296
I0130 21:53:17.808646 13635 layer_factory.hpp:77] Creating layer bn3b4_branch2a
I0130 21:53:17.808656 13635 net.cpp:100] Creating Layer bn3b4_branch2a
I0130 21:53:17.808660 13635 net.cpp:434] bn3b4_branch2a <- res3b4_branch2a
I0130 21:53:17.808668 13635 net.cpp:395] bn3b4_branch2a -> res3b4_branch2a (in-place)
I0130 21:53:17.808892 13635 net.cpp:150] Setting up bn3b4_branch2a
I0130 21:53:17.808904 13635 net.cpp:157] Top shape: 1 128 32 32 (131072)
I0130 21:53:17.808908 13635 net.cpp:165] Memory required for data: 232259584
I0130 21:53:17.808917 13635 layer_factory.hpp:77] Creating layer scale3b4_branch2a
I0130 21:53:17.808926 13635 net.cpp:100] Creating Layer scale3b4_branch2a
I0130 21:53:17.808930 13635 net.cpp:434] scale3b4_branch2a <- res3b4_branch2a
I0130 21:53:17.808936 13635 net.cpp:395] scale3b4_branch2a -> res3b4_branch2a (in-place)
I0130 21:53:17.808979 13635 layer_factory.hpp:77] Creating layer scale3b4_branch2a
I0130 21:53:17.809089 13635 net.cpp:150] Setting up scale3b4_branch2a
I0130 21:53:17.809098 13635 net.cpp:157] Top shape: 1 128 32 32 (131072)
I0130 21:53:17.809101 13635 net.cpp:165] Memory required for data: 232783872
I0130 21:53:17.809108 13635 layer_factory.hpp:77] Creating layer res3b4_branch2a_relu
I0130 21:53:17.809115 13635 net.cpp:100] Creating Layer res3b4_branch2a_relu
I0130 21:53:17.809119 13635 net.cpp:434] res3b4_branch2a_relu <- res3b4_branch2a
I0130 21:53:17.809124 13635 net.cpp:395] res3b4_branch2a_relu -> res3b4_branch2a (in-place)
I0130 21:53:17.809310 13635 net.cpp:150] Setting up res3b4_branch2a_relu
I0130 21:53:17.809325 13635 net.cpp:157] Top shape: 1 128 32 32 (131072)
I0130 21:53:17.809329 13635 net.cpp:165] Memory required for data: 233308160
I0130 21:53:17.809334 13635 layer_factory.hpp:77] Creating layer res3b4_branch2b
I0130 21:53:17.809342 13635 net.cpp:100] Creating Layer res3b4_branch2b
I0130 21:53:17.809347 13635 net.cpp:434] res3b4_branch2b <- res3b4_branch2a
I0130 21:53:17.809353 13635 net.cpp:408] res3b4_branch2b -> res3b4_branch2b
I0130 21:53:17.811064 13635 net.cpp:150] Setting up res3b4_branch2b
I0130 21:53:17.811089 13635 net.cpp:157] Top shape: 1 128 32 32 (131072)
I0130 21:53:17.811094 13635 net.cpp:165] Memory required for data: 233832448
I0130 21:53:17.811102 13635 layer_factory.hpp:77] Creating layer bn3b4_branch2b
I0130 21:53:17.811115 13635 net.cpp:100] Creating Layer bn3b4_branch2b
I0130 21:53:17.811120 13635 net.cpp:434] bn3b4_branch2b <- res3b4_branch2b
I0130 21:53:17.811126 13635 net.cpp:395] bn3b4_branch2b -> res3b4_branch2b (in-place)
I0130 21:53:17.811336 13635 net.cpp:150] Setting up bn3b4_branch2b
I0130 21:53:17.811344 13635 net.cpp:157] Top shape: 1 128 32 32 (131072)
I0130 21:53:17.811348 13635 net.cpp:165] Memory required for data: 234356736
I0130 21:53:17.811357 13635 layer_factory.hpp:77] Creating layer scale3b4_branch2b
I0130 21:53:17.811365 13635 net.cpp:100] Creating Layer scale3b4_branch2b
I0130 21:53:17.811369 13635 net.cpp:434] scale3b4_branch2b <- res3b4_branch2b
I0130 21:53:17.811378 13635 net.cpp:395] scale3b4_branch2b -> res3b4_branch2b (in-place)
I0130 21:53:17.811421 13635 layer_factory.hpp:77] Creating layer scale3b4_branch2b
I0130 21:53:17.811538 13635 net.cpp:150] Setting up scale3b4_branch2b
I0130 21:53:17.811548 13635 net.cpp:157] Top shape: 1 128 32 32 (131072)
I0130 21:53:17.811553 13635 net.cpp:165] Memory required for data: 234881024
I0130 21:53:17.811558 13635 layer_factory.hpp:77] Creating layer res3b4_branch2b_relu
I0130 21:53:17.811565 13635 net.cpp:100] Creating Layer res3b4_branch2b_relu
I0130 21:53:17.811569 13635 net.cpp:434] res3b4_branch2b_relu <- res3b4_branch2b
I0130 21:53:17.811575 13635 net.cpp:395] res3b4_branch2b_relu -> res3b4_branch2b (in-place)
I0130 21:53:17.811913 13635 net.cpp:150] Setting up res3b4_branch2b_relu
I0130 21:53:17.811928 13635 net.cpp:157] Top shape: 1 128 32 32 (131072)
I0130 21:53:17.811931 13635 net.cpp:165] Memory required for data: 235405312
I0130 21:53:17.811936 13635 layer_factory.hpp:77] Creating layer res3b4_branch2c
I0130 21:53:17.811947 13635 net.cpp:100] Creating Layer res3b4_branch2c
I0130 21:53:17.811952 13635 net.cpp:434] res3b4_branch2c <- res3b4_branch2b
I0130 21:53:17.811959 13635 net.cpp:408] res3b4_branch2c -> res3b4_branch2c
I0130 21:53:17.813019 13635 net.cpp:150] Setting up res3b4_branch2c
I0130 21:53:17.813035 13635 net.cpp:157] Top shape: 1 512 32 32 (524288)
I0130 21:53:17.813052 13635 net.cpp:165] Memory required for data: 237502464
I0130 21:53:17.813060 13635 layer_factory.hpp:77] Creating layer bn3b4_branch2c
I0130 21:53:17.813068 13635 net.cpp:100] Creating Layer bn3b4_branch2c
I0130 21:53:17.813073 13635 net.cpp:434] bn3b4_branch2c <- res3b4_branch2c
I0130 21:53:17.813079 13635 net.cpp:395] bn3b4_branch2c -> res3b4_branch2c (in-place)
I0130 21:53:17.813285 13635 net.cpp:150] Setting up bn3b4_branch2c
I0130 21:53:17.813295 13635 net.cpp:157] Top shape: 1 512 32 32 (524288)
I0130 21:53:17.813299 13635 net.cpp:165] Memory required for data: 239599616
I0130 21:53:17.813308 13635 layer_factory.hpp:77] Creating layer scale3b4_branch2c
I0130 21:53:17.813316 13635 net.cpp:100] Creating Layer scale3b4_branch2c
I0130 21:53:17.813321 13635 net.cpp:434] scale3b4_branch2c <- res3b4_branch2c
I0130 21:53:17.813326 13635 net.cpp:395] scale3b4_branch2c -> res3b4_branch2c (in-place)
I0130 21:53:17.813366 13635 layer_factory.hpp:77] Creating layer scale3b4_branch2c
I0130 21:53:17.813484 13635 net.cpp:150] Setting up scale3b4_branch2c
I0130 21:53:17.813493 13635 net.cpp:157] Top shape: 1 512 32 32 (524288)
I0130 21:53:17.813496 13635 net.cpp:165] Memory required for data: 241696768
I0130 21:53:17.813503 13635 layer_factory.hpp:77] Creating layer res3b4
I0130 21:53:17.813510 13635 net.cpp:100] Creating Layer res3b4
I0130 21:53:17.813514 13635 net.cpp:434] res3b4 <- res3b3_res3b3_relu_0_split_1
I0130 21:53:17.813519 13635 net.cpp:434] res3b4 <- res3b4_branch2c
I0130 21:53:17.813525 13635 net.cpp:408] res3b4 -> res3b4
I0130 21:53:17.813554 13635 net.cpp:150] Setting up res3b4
I0130 21:53:17.813561 13635 net.cpp:157] Top shape: 1 512 32 32 (524288)
I0130 21:53:17.813565 13635 net.cpp:165] Memory required for data: 243793920
I0130 21:53:17.813568 13635 layer_factory.hpp:77] Creating layer res3b4_relu
I0130 21:53:17.813575 13635 net.cpp:100] Creating Layer res3b4_relu
I0130 21:53:17.813578 13635 net.cpp:434] res3b4_relu <- res3b4
I0130 21:53:17.813583 13635 net.cpp:395] res3b4_relu -> res3b4 (in-place)
I0130 21:53:17.813912 13635 net.cpp:150] Setting up res3b4_relu
I0130 21:53:17.813930 13635 net.cpp:157] Top shape: 1 512 32 32 (524288)
I0130 21:53:17.813933 13635 net.cpp:165] Memory required for data: 245891072
I0130 21:53:17.813937 13635 layer_factory.hpp:77] Creating layer res3b4_res3b4_relu_0_split
I0130 21:53:17.813944 13635 net.cpp:100] Creating Layer res3b4_res3b4_relu_0_split
I0130 21:53:17.813949 13635 net.cpp:434] res3b4_res3b4_relu_0_split <- res3b4
I0130 21:53:17.813956 13635 net.cpp:408] res3b4_res3b4_relu_0_split -> res3b4_res3b4_relu_0_split_0
I0130 21:53:17.813963 13635 net.cpp:408] res3b4_res3b4_relu_0_split -> res3b4_res3b4_relu_0_split_1
I0130 21:53:17.814015 13635 net.cpp:150] Setting up res3b4_res3b4_relu_0_split
I0130 21:53:17.814025 13635 net.cpp:157] Top shape: 1 512 32 32 (524288)
I0130 21:53:17.814029 13635 net.cpp:157] Top shape: 1 512 32 32 (524288)
I0130 21:53:17.814033 13635 net.cpp:165] Memory required for data: 250085376
I0130 21:53:17.814038 13635 layer_factory.hpp:77] Creating layer res3b5_branch2a
I0130 21:53:17.814052 13635 net.cpp:100] Creating Layer res3b5_branch2a
I0130 21:53:17.814057 13635 net.cpp:434] res3b5_branch2a <- res3b4_res3b4_relu_0_split_0
I0130 21:53:17.814064 13635 net.cpp:408] res3b5_branch2a -> res3b5_branch2a
I0130 21:53:17.815666 13635 net.cpp:150] Setting up res3b5_branch2a
I0130 21:53:17.815685 13635 net.cpp:157] Top shape: 1 128 32 32 (131072)
I0130 21:53:17.815690 13635 net.cpp:165] Memory required for data: 250609664
I0130 21:53:17.815697 13635 layer_factory.hpp:77] Creating layer bn3b5_branch2a
I0130 21:53:17.815706 13635 net.cpp:100] Creating Layer bn3b5_branch2a
I0130 21:53:17.815711 13635 net.cpp:434] bn3b5_branch2a <- res3b5_branch2a
I0130 21:53:17.815718 13635 net.cpp:395] bn3b5_branch2a -> res3b5_branch2a (in-place)
I0130 21:53:17.815932 13635 net.cpp:150] Setting up bn3b5_branch2a
I0130 21:53:17.815943 13635 net.cpp:157] Top shape: 1 128 32 32 (131072)
I0130 21:53:17.815946 13635 net.cpp:165] Memory required for data: 251133952
I0130 21:53:17.815955 13635 layer_factory.hpp:77] Creating layer scale3b5_branch2a
I0130 21:53:17.815976 13635 net.cpp:100] Creating Layer scale3b5_branch2a
I0130 21:53:17.815981 13635 net.cpp:434] scale3b5_branch2a <- res3b5_branch2a
I0130 21:53:17.815987 13635 net.cpp:395] scale3b5_branch2a -> res3b5_branch2a (in-place)
I0130 21:53:17.816033 13635 layer_factory.hpp:77] Creating layer scale3b5_branch2a
I0130 21:53:17.816148 13635 net.cpp:150] Setting up scale3b5_branch2a
I0130 21:53:17.816157 13635 net.cpp:157] Top shape: 1 128 32 32 (131072)
I0130 21:53:17.816161 13635 net.cpp:165] Memory required for data: 251658240
I0130 21:53:17.816169 13635 layer_factory.hpp:77] Creating layer res3b5_branch2a_relu
I0130 21:53:17.816174 13635 net.cpp:100] Creating Layer res3b5_branch2a_relu
I0130 21:53:17.816179 13635 net.cpp:434] res3b5_branch2a_relu <- res3b5_branch2a
I0130 21:53:17.816190 13635 net.cpp:395] res3b5_branch2a_relu -> res3b5_branch2a (in-place)
I0130 21:53:17.816378 13635 net.cpp:150] Setting up res3b5_branch2a_relu
I0130 21:53:17.816390 13635 net.cpp:157] Top shape: 1 128 32 32 (131072)
I0130 21:53:17.816395 13635 net.cpp:165] Memory required for data: 252182528
I0130 21:53:17.816400 13635 layer_factory.hpp:77] Creating layer res3b5_branch2b
I0130 21:53:17.816407 13635 net.cpp:100] Creating Layer res3b5_branch2b
I0130 21:53:17.816411 13635 net.cpp:434] res3b5_branch2b <- res3b5_branch2a
I0130 21:53:17.816421 13635 net.cpp:408] res3b5_branch2b -> res3b5_branch2b
I0130 21:53:17.818122 13635 net.cpp:150] Setting up res3b5_branch2b
I0130 21:53:17.818140 13635 net.cpp:157] Top shape: 1 128 32 32 (131072)
I0130 21:53:17.818145 13635 net.cpp:165] Memory required for data: 252706816
I0130 21:53:17.818152 13635 layer_factory.hpp:77] Creating layer bn3b5_branch2b
I0130 21:53:17.818161 13635 net.cpp:100] Creating Layer bn3b5_branch2b
I0130 21:53:17.818166 13635 net.cpp:434] bn3b5_branch2b <- res3b5_branch2b
I0130 21:53:17.818172 13635 net.cpp:395] bn3b5_branch2b -> res3b5_branch2b (in-place)
I0130 21:53:17.818388 13635 net.cpp:150] Setting up bn3b5_branch2b
I0130 21:53:17.818398 13635 net.cpp:157] Top shape: 1 128 32 32 (131072)
I0130 21:53:17.818403 13635 net.cpp:165] Memory required for data: 253231104
I0130 21:53:17.818411 13635 layer_factory.hpp:77] Creating layer scale3b5_branch2b
I0130 21:53:17.818419 13635 net.cpp:100] Creating Layer scale3b5_branch2b
I0130 21:53:17.818423 13635 net.cpp:434] scale3b5_branch2b <- res3b5_branch2b
I0130 21:53:17.818429 13635 net.cpp:395] scale3b5_branch2b -> res3b5_branch2b (in-place)
I0130 21:53:17.818475 13635 layer_factory.hpp:77] Creating layer scale3b5_branch2b
I0130 21:53:17.818593 13635 net.cpp:150] Setting up scale3b5_branch2b
I0130 21:53:17.818603 13635 net.cpp:157] Top shape: 1 128 32 32 (131072)
I0130 21:53:17.818608 13635 net.cpp:165] Memory required for data: 253755392
I0130 21:53:17.818614 13635 layer_factory.hpp:77] Creating layer res3b5_branch2b_relu
I0130 21:53:17.818620 13635 net.cpp:100] Creating Layer res3b5_branch2b_relu
I0130 21:53:17.818624 13635 net.cpp:434] res3b5_branch2b_relu <- res3b5_branch2b
I0130 21:53:17.818629 13635 net.cpp:395] res3b5_branch2b_relu -> res3b5_branch2b (in-place)
I0130 21:53:17.818954 13635 net.cpp:150] Setting up res3b5_branch2b_relu
I0130 21:53:17.818969 13635 net.cpp:157] Top shape: 1 128 32 32 (131072)
I0130 21:53:17.818974 13635 net.cpp:165] Memory required for data: 254279680
I0130 21:53:17.818979 13635 layer_factory.hpp:77] Creating layer res3b5_branch2c
I0130 21:53:17.818989 13635 net.cpp:100] Creating Layer res3b5_branch2c
I0130 21:53:17.818994 13635 net.cpp:434] res3b5_branch2c <- res3b5_branch2b
I0130 21:53:17.819000 13635 net.cpp:408] res3b5_branch2c -> res3b5_branch2c
I0130 21:53:17.820022 13635 net.cpp:150] Setting up res3b5_branch2c
I0130 21:53:17.820039 13635 net.cpp:157] Top shape: 1 512 32 32 (524288)
I0130 21:53:17.820044 13635 net.cpp:165] Memory required for data: 256376832
I0130 21:53:17.820050 13635 layer_factory.hpp:77] Creating layer bn3b5_branch2c
I0130 21:53:17.820058 13635 net.cpp:100] Creating Layer bn3b5_branch2c
I0130 21:53:17.820063 13635 net.cpp:434] bn3b5_branch2c <- res3b5_branch2c
I0130 21:53:17.820070 13635 net.cpp:395] bn3b5_branch2c -> res3b5_branch2c (in-place)
I0130 21:53:17.820284 13635 net.cpp:150] Setting up bn3b5_branch2c
I0130 21:53:17.820294 13635 net.cpp:157] Top shape: 1 512 32 32 (524288)
I0130 21:53:17.820298 13635 net.cpp:165] Memory required for data: 258473984
I0130 21:53:17.820307 13635 layer_factory.hpp:77] Creating layer scale3b5_branch2c
I0130 21:53:17.820313 13635 net.cpp:100] Creating Layer scale3b5_branch2c
I0130 21:53:17.820317 13635 net.cpp:434] scale3b5_branch2c <- res3b5_branch2c
I0130 21:53:17.820323 13635 net.cpp:395] scale3b5_branch2c -> res3b5_branch2c (in-place)
I0130 21:53:17.820363 13635 layer_factory.hpp:77] Creating layer scale3b5_branch2c
I0130 21:53:17.820479 13635 net.cpp:150] Setting up scale3b5_branch2c
I0130 21:53:17.820488 13635 net.cpp:157] Top shape: 1 512 32 32 (524288)
I0130 21:53:17.820492 13635 net.cpp:165] Memory required for data: 260571136
I0130 21:53:17.820499 13635 layer_factory.hpp:77] Creating layer res3b5
I0130 21:53:17.820505 13635 net.cpp:100] Creating Layer res3b5
I0130 21:53:17.820509 13635 net.cpp:434] res3b5 <- res3b4_res3b4_relu_0_split_1
I0130 21:53:17.820514 13635 net.cpp:434] res3b5 <- res3b5_branch2c
I0130 21:53:17.820521 13635 net.cpp:408] res3b5 -> res3b5
I0130 21:53:17.820549 13635 net.cpp:150] Setting up res3b5
I0130 21:53:17.820556 13635 net.cpp:157] Top shape: 1 512 32 32 (524288)
I0130 21:53:17.820559 13635 net.cpp:165] Memory required for data: 262668288
I0130 21:53:17.820564 13635 layer_factory.hpp:77] Creating layer res3b5_relu
I0130 21:53:17.820571 13635 net.cpp:100] Creating Layer res3b5_relu
I0130 21:53:17.820575 13635 net.cpp:434] res3b5_relu <- res3b5
I0130 21:53:17.820580 13635 net.cpp:395] res3b5_relu -> res3b5 (in-place)
I0130 21:53:17.820924 13635 net.cpp:150] Setting up res3b5_relu
I0130 21:53:17.820940 13635 net.cpp:157] Top shape: 1 512 32 32 (524288)
I0130 21:53:17.820943 13635 net.cpp:165] Memory required for data: 264765440
I0130 21:53:17.820947 13635 layer_factory.hpp:77] Creating layer res3b5_res3b5_relu_0_split
I0130 21:53:17.820956 13635 net.cpp:100] Creating Layer res3b5_res3b5_relu_0_split
I0130 21:53:17.820960 13635 net.cpp:434] res3b5_res3b5_relu_0_split <- res3b5
I0130 21:53:17.820967 13635 net.cpp:408] res3b5_res3b5_relu_0_split -> res3b5_res3b5_relu_0_split_0
I0130 21:53:17.820986 13635 net.cpp:408] res3b5_res3b5_relu_0_split -> res3b5_res3b5_relu_0_split_1
I0130 21:53:17.821039 13635 net.cpp:150] Setting up res3b5_res3b5_relu_0_split
I0130 21:53:17.821048 13635 net.cpp:157] Top shape: 1 512 32 32 (524288)
I0130 21:53:17.821053 13635 net.cpp:157] Top shape: 1 512 32 32 (524288)
I0130 21:53:17.821055 13635 net.cpp:165] Memory required for data: 268959744
I0130 21:53:17.821060 13635 layer_factory.hpp:77] Creating layer res3b6_branch2a
I0130 21:53:17.821070 13635 net.cpp:100] Creating Layer res3b6_branch2a
I0130 21:53:17.821074 13635 net.cpp:434] res3b6_branch2a <- res3b5_res3b5_relu_0_split_0
I0130 21:53:17.821081 13635 net.cpp:408] res3b6_branch2a -> res3b6_branch2a
I0130 21:53:17.822224 13635 net.cpp:150] Setting up res3b6_branch2a
I0130 21:53:17.822242 13635 net.cpp:157] Top shape: 1 128 32 32 (131072)
I0130 21:53:17.822245 13635 net.cpp:165] Memory required for data: 269484032
I0130 21:53:17.822252 13635 layer_factory.hpp:77] Creating layer bn3b6_branch2a
I0130 21:53:17.822262 13635 net.cpp:100] Creating Layer bn3b6_branch2a
I0130 21:53:17.822266 13635 net.cpp:434] bn3b6_branch2a <- res3b6_branch2a
I0130 21:53:17.822273 13635 net.cpp:395] bn3b6_branch2a -> res3b6_branch2a (in-place)
I0130 21:53:17.822485 13635 net.cpp:150] Setting up bn3b6_branch2a
I0130 21:53:17.822495 13635 net.cpp:157] Top shape: 1 128 32 32 (131072)
I0130 21:53:17.822499 13635 net.cpp:165] Memory required for data: 270008320
I0130 21:53:17.822507 13635 layer_factory.hpp:77] Creating layer scale3b6_branch2a
I0130 21:53:17.822515 13635 net.cpp:100] Creating Layer scale3b6_branch2a
I0130 21:53:17.822520 13635 net.cpp:434] scale3b6_branch2a <- res3b6_branch2a
I0130 21:53:17.822525 13635 net.cpp:395] scale3b6_branch2a -> res3b6_branch2a (in-place)
I0130 21:53:17.822571 13635 layer_factory.hpp:77] Creating layer scale3b6_branch2a
I0130 21:53:17.822685 13635 net.cpp:150] Setting up scale3b6_branch2a
I0130 21:53:17.822695 13635 net.cpp:157] Top shape: 1 128 32 32 (131072)
I0130 21:53:17.822698 13635 net.cpp:165] Memory required for data: 270532608
I0130 21:53:17.822705 13635 layer_factory.hpp:77] Creating layer res3b6_branch2a_relu
I0130 21:53:17.822712 13635 net.cpp:100] Creating Layer res3b6_branch2a_relu
I0130 21:53:17.822716 13635 net.cpp:434] res3b6_branch2a_relu <- res3b6_branch2a
I0130 21:53:17.822721 13635 net.cpp:395] res3b6_branch2a_relu -> res3b6_branch2a (in-place)
I0130 21:53:17.822909 13635 net.cpp:150] Setting up res3b6_branch2a_relu
I0130 21:53:17.822921 13635 net.cpp:157] Top shape: 1 128 32 32 (131072)
I0130 21:53:17.822924 13635 net.cpp:165] Memory required for data: 271056896
I0130 21:53:17.822928 13635 layer_factory.hpp:77] Creating layer res3b6_branch2b
I0130 21:53:17.822938 13635 net.cpp:100] Creating Layer res3b6_branch2b
I0130 21:53:17.822942 13635 net.cpp:434] res3b6_branch2b <- res3b6_branch2a
I0130 21:53:17.822948 13635 net.cpp:408] res3b6_branch2b -> res3b6_branch2b
I0130 21:53:17.824648 13635 net.cpp:150] Setting up res3b6_branch2b
I0130 21:53:17.824723 13635 net.cpp:157] Top shape: 1 128 32 32 (131072)
I0130 21:53:17.824760 13635 net.cpp:165] Memory required for data: 271581184
I0130 21:53:17.824792 13635 layer_factory.hpp:77] Creating layer bn3b6_branch2b
I0130 21:53:17.824823 13635 net.cpp:100] Creating Layer bn3b6_branch2b
I0130 21:53:17.824847 13635 net.cpp:434] bn3b6_branch2b <- res3b6_branch2b
I0130 21:53:17.824875 13635 net.cpp:395] bn3b6_branch2b -> res3b6_branch2b (in-place)
I0130 21:53:17.825126 13635 net.cpp:150] Setting up bn3b6_branch2b
I0130 21:53:17.825139 13635 net.cpp:157] Top shape: 1 128 32 32 (131072)
I0130 21:53:17.825143 13635 net.cpp:165] Memory required for data: 272105472
I0130 21:53:17.825152 13635 layer_factory.hpp:77] Creating layer scale3b6_branch2b
I0130 21:53:17.825160 13635 net.cpp:100] Creating Layer scale3b6_branch2b
I0130 21:53:17.825165 13635 net.cpp:434] scale3b6_branch2b <- res3b6_branch2b
I0130 21:53:17.825172 13635 net.cpp:395] scale3b6_branch2b -> res3b6_branch2b (in-place)
I0130 21:53:17.825217 13635 layer_factory.hpp:77] Creating layer scale3b6_branch2b
I0130 21:53:17.825336 13635 net.cpp:150] Setting up scale3b6_branch2b
I0130 21:53:17.825346 13635 net.cpp:157] Top shape: 1 128 32 32 (131072)
I0130 21:53:17.825350 13635 net.cpp:165] Memory required for data: 272629760
I0130 21:53:17.825357 13635 layer_factory.hpp:77] Creating layer res3b6_branch2b_relu
I0130 21:53:17.825364 13635 net.cpp:100] Creating Layer res3b6_branch2b_relu
I0130 21:53:17.825368 13635 net.cpp:434] res3b6_branch2b_relu <- res3b6_branch2b
I0130 21:53:17.825376 13635 net.cpp:395] res3b6_branch2b_relu -> res3b6_branch2b (in-place)
I0130 21:53:17.825727 13635 net.cpp:150] Setting up res3b6_branch2b_relu
I0130 21:53:17.825742 13635 net.cpp:157] Top shape: 1 128 32 32 (131072)
I0130 21:53:17.825747 13635 net.cpp:165] Memory required for data: 273154048
I0130 21:53:17.825752 13635 layer_factory.hpp:77] Creating layer res3b6_branch2c
I0130 21:53:17.825762 13635 net.cpp:100] Creating Layer res3b6_branch2c
I0130 21:53:17.825767 13635 net.cpp:434] res3b6_branch2c <- res3b6_branch2b
I0130 21:53:17.825774 13635 net.cpp:408] res3b6_branch2c -> res3b6_branch2c
I0130 21:53:17.826974 13635 net.cpp:150] Setting up res3b6_branch2c
I0130 21:53:17.826992 13635 net.cpp:157] Top shape: 1 512 32 32 (524288)
I0130 21:53:17.826995 13635 net.cpp:165] Memory required for data: 275251200
I0130 21:53:17.827003 13635 layer_factory.hpp:77] Creating layer bn3b6_branch2c
I0130 21:53:17.827011 13635 net.cpp:100] Creating Layer bn3b6_branch2c
I0130 21:53:17.827016 13635 net.cpp:434] bn3b6_branch2c <- res3b6_branch2c
I0130 21:53:17.827023 13635 net.cpp:395] bn3b6_branch2c -> res3b6_branch2c (in-place)
I0130 21:53:17.827237 13635 net.cpp:150] Setting up bn3b6_branch2c
I0130 21:53:17.827247 13635 net.cpp:157] Top shape: 1 512 32 32 (524288)
I0130 21:53:17.827251 13635 net.cpp:165] Memory required for data: 277348352
I0130 21:53:17.827260 13635 layer_factory.hpp:77] Creating layer scale3b6_branch2c
I0130 21:53:17.827268 13635 net.cpp:100] Creating Layer scale3b6_branch2c
I0130 21:53:17.827272 13635 net.cpp:434] scale3b6_branch2c <- res3b6_branch2c
I0130 21:53:17.827277 13635 net.cpp:395] scale3b6_branch2c -> res3b6_branch2c (in-place)
I0130 21:53:17.827320 13635 layer_factory.hpp:77] Creating layer scale3b6_branch2c
I0130 21:53:17.827442 13635 net.cpp:150] Setting up scale3b6_branch2c
I0130 21:53:17.827451 13635 net.cpp:157] Top shape: 1 512 32 32 (524288)
I0130 21:53:17.827455 13635 net.cpp:165] Memory required for data: 279445504
I0130 21:53:17.827461 13635 layer_factory.hpp:77] Creating layer res3b6
I0130 21:53:17.827468 13635 net.cpp:100] Creating Layer res3b6
I0130 21:53:17.827472 13635 net.cpp:434] res3b6 <- res3b5_res3b5_relu_0_split_1
I0130 21:53:17.827477 13635 net.cpp:434] res3b6 <- res3b6_branch2c
I0130 21:53:17.827484 13635 net.cpp:408] res3b6 -> res3b6
I0130 21:53:17.827514 13635 net.cpp:150] Setting up res3b6
I0130 21:53:17.827522 13635 net.cpp:157] Top shape: 1 512 32 32 (524288)
I0130 21:53:17.827524 13635 net.cpp:165] Memory required for data: 281542656
I0130 21:53:17.827528 13635 layer_factory.hpp:77] Creating layer res3b6_relu
I0130 21:53:17.827534 13635 net.cpp:100] Creating Layer res3b6_relu
I0130 21:53:17.827538 13635 net.cpp:434] res3b6_relu <- res3b6
I0130 21:53:17.827543 13635 net.cpp:395] res3b6_relu -> res3b6 (in-place)
I0130 21:53:17.827870 13635 net.cpp:150] Setting up res3b6_relu
I0130 21:53:17.827884 13635 net.cpp:157] Top shape: 1 512 32 32 (524288)
I0130 21:53:17.827889 13635 net.cpp:165] Memory required for data: 283639808
I0130 21:53:17.827893 13635 layer_factory.hpp:77] Creating layer res3b6_res3b6_relu_0_split
I0130 21:53:17.827900 13635 net.cpp:100] Creating Layer res3b6_res3b6_relu_0_split
I0130 21:53:17.827904 13635 net.cpp:434] res3b6_res3b6_relu_0_split <- res3b6
I0130 21:53:17.827910 13635 net.cpp:408] res3b6_res3b6_relu_0_split -> res3b6_res3b6_relu_0_split_0
I0130 21:53:17.827924 13635 net.cpp:408] res3b6_res3b6_relu_0_split -> res3b6_res3b6_relu_0_split_1
I0130 21:53:17.827975 13635 net.cpp:150] Setting up res3b6_res3b6_relu_0_split
I0130 21:53:17.827982 13635 net.cpp:157] Top shape: 1 512 32 32 (524288)
I0130 21:53:17.827986 13635 net.cpp:157] Top shape: 1 512 32 32 (524288)
I0130 21:53:17.827991 13635 net.cpp:165] Memory required for data: 287834112
I0130 21:53:17.827994 13635 layer_factory.hpp:77] Creating layer res3b7_branch2a
I0130 21:53:17.828004 13635 net.cpp:100] Creating Layer res3b7_branch2a
I0130 21:53:17.828008 13635 net.cpp:434] res3b7_branch2a <- res3b6_res3b6_relu_0_split_0
I0130 21:53:17.828016 13635 net.cpp:408] res3b7_branch2a -> res3b7_branch2a
I0130 21:53:17.829656 13635 net.cpp:150] Setting up res3b7_branch2a
I0130 21:53:17.829675 13635 net.cpp:157] Top shape: 1 128 32 32 (131072)
I0130 21:53:17.829679 13635 net.cpp:165] Memory required for data: 288358400
I0130 21:53:17.829686 13635 layer_factory.hpp:77] Creating layer bn3b7_branch2a
I0130 21:53:17.829696 13635 net.cpp:100] Creating Layer bn3b7_branch2a
I0130 21:53:17.829701 13635 net.cpp:434] bn3b7_branch2a <- res3b7_branch2a
I0130 21:53:17.829708 13635 net.cpp:395] bn3b7_branch2a -> res3b7_branch2a (in-place)
I0130 21:53:17.829927 13635 net.cpp:150] Setting up bn3b7_branch2a
I0130 21:53:17.829937 13635 net.cpp:157] Top shape: 1 128 32 32 (131072)
I0130 21:53:17.829941 13635 net.cpp:165] Memory required for data: 288882688
I0130 21:53:17.829951 13635 layer_factory.hpp:77] Creating layer scale3b7_branch2a
I0130 21:53:17.829958 13635 net.cpp:100] Creating Layer scale3b7_branch2a
I0130 21:53:17.829962 13635 net.cpp:434] scale3b7_branch2a <- res3b7_branch2a
I0130 21:53:17.829969 13635 net.cpp:395] scale3b7_branch2a -> res3b7_branch2a (in-place)
I0130 21:53:17.830013 13635 layer_factory.hpp:77] Creating layer scale3b7_branch2a
I0130 21:53:17.830132 13635 net.cpp:150] Setting up scale3b7_branch2a
I0130 21:53:17.830142 13635 net.cpp:157] Top shape: 1 128 32 32 (131072)
I0130 21:53:17.830147 13635 net.cpp:165] Memory required for data: 289406976
I0130 21:53:17.830152 13635 layer_factory.hpp:77] Creating layer res3b7_branch2a_relu
I0130 21:53:17.830159 13635 net.cpp:100] Creating Layer res3b7_branch2a_relu
I0130 21:53:17.830163 13635 net.cpp:434] res3b7_branch2a_relu <- res3b7_branch2a
I0130 21:53:17.830170 13635 net.cpp:395] res3b7_branch2a_relu -> res3b7_branch2a (in-place)
I0130 21:53:17.830359 13635 net.cpp:150] Setting up res3b7_branch2a_relu
I0130 21:53:17.830370 13635 net.cpp:157] Top shape: 1 128 32 32 (131072)
I0130 21:53:17.830374 13635 net.cpp:165] Memory required for data: 289931264
I0130 21:53:17.830379 13635 layer_factory.hpp:77] Creating layer res3b7_branch2b
I0130 21:53:17.830389 13635 net.cpp:100] Creating Layer res3b7_branch2b
I0130 21:53:17.830394 13635 net.cpp:434] res3b7_branch2b <- res3b7_branch2a
I0130 21:53:17.830400 13635 net.cpp:408] res3b7_branch2b -> res3b7_branch2b
I0130 21:53:17.832651 13635 net.cpp:150] Setting up res3b7_branch2b
I0130 21:53:17.832669 13635 net.cpp:157] Top shape: 1 128 32 32 (131072)
I0130 21:53:17.832674 13635 net.cpp:165] Memory required for data: 290455552
I0130 21:53:17.832680 13635 layer_factory.hpp:77] Creating layer bn3b7_branch2b
I0130 21:53:17.832690 13635 net.cpp:100] Creating Layer bn3b7_branch2b
I0130 21:53:17.832695 13635 net.cpp:434] bn3b7_branch2b <- res3b7_branch2b
I0130 21:53:17.832701 13635 net.cpp:395] bn3b7_branch2b -> res3b7_branch2b (in-place)
I0130 21:53:17.832934 13635 net.cpp:150] Setting up bn3b7_branch2b
I0130 21:53:17.832947 13635 net.cpp:157] Top shape: 1 128 32 32 (131072)
I0130 21:53:17.832950 13635 net.cpp:165] Memory required for data: 290979840
I0130 21:53:17.832959 13635 layer_factory.hpp:77] Creating layer scale3b7_branch2b
I0130 21:53:17.832967 13635 net.cpp:100] Creating Layer scale3b7_branch2b
I0130 21:53:17.832970 13635 net.cpp:434] scale3b7_branch2b <- res3b7_branch2b
I0130 21:53:17.832976 13635 net.cpp:395] scale3b7_branch2b -> res3b7_branch2b (in-place)
I0130 21:53:17.833022 13635 layer_factory.hpp:77] Creating layer scale3b7_branch2b
I0130 21:53:17.833143 13635 net.cpp:150] Setting up scale3b7_branch2b
I0130 21:53:17.833153 13635 net.cpp:157] Top shape: 1 128 32 32 (131072)
I0130 21:53:17.833156 13635 net.cpp:165] Memory required for data: 291504128
I0130 21:53:17.833163 13635 layer_factory.hpp:77] Creating layer res3b7_branch2b_relu
I0130 21:53:17.833171 13635 net.cpp:100] Creating Layer res3b7_branch2b_relu
I0130 21:53:17.833175 13635 net.cpp:434] res3b7_branch2b_relu <- res3b7_branch2b
I0130 21:53:17.833183 13635 net.cpp:395] res3b7_branch2b_relu -> res3b7_branch2b (in-place)
I0130 21:53:17.833511 13635 net.cpp:150] Setting up res3b7_branch2b_relu
I0130 21:53:17.833526 13635 net.cpp:157] Top shape: 1 128 32 32 (131072)
I0130 21:53:17.833530 13635 net.cpp:165] Memory required for data: 292028416
I0130 21:53:17.833535 13635 layer_factory.hpp:77] Creating layer res3b7_branch2c
I0130 21:53:17.833545 13635 net.cpp:100] Creating Layer res3b7_branch2c
I0130 21:53:17.833550 13635 net.cpp:434] res3b7_branch2c <- res3b7_branch2b
I0130 21:53:17.833556 13635 net.cpp:408] res3b7_branch2c -> res3b7_branch2c
I0130 21:53:17.834563 13635 net.cpp:150] Setting up res3b7_branch2c
I0130 21:53:17.834578 13635 net.cpp:157] Top shape: 1 512 32 32 (524288)
I0130 21:53:17.834583 13635 net.cpp:165] Memory required for data: 294125568
I0130 21:53:17.834589 13635 layer_factory.hpp:77] Creating layer bn3b7_branch2c
I0130 21:53:17.834599 13635 net.cpp:100] Creating Layer bn3b7_branch2c
I0130 21:53:17.834604 13635 net.cpp:434] bn3b7_branch2c <- res3b7_branch2c
I0130 21:53:17.834609 13635 net.cpp:395] bn3b7_branch2c -> res3b7_branch2c (in-place)
I0130 21:53:17.834830 13635 net.cpp:150] Setting up bn3b7_branch2c
I0130 21:53:17.834839 13635 net.cpp:157] Top shape: 1 512 32 32 (524288)
I0130 21:53:17.834843 13635 net.cpp:165] Memory required for data: 296222720
I0130 21:53:17.834851 13635 layer_factory.hpp:77] Creating layer scale3b7_branch2c
I0130 21:53:17.834861 13635 net.cpp:100] Creating Layer scale3b7_branch2c
I0130 21:53:17.834864 13635 net.cpp:434] scale3b7_branch2c <- res3b7_branch2c
I0130 21:53:17.834869 13635 net.cpp:395] scale3b7_branch2c -> res3b7_branch2c (in-place)
I0130 21:53:17.834910 13635 layer_factory.hpp:77] Creating layer scale3b7_branch2c
I0130 21:53:17.835036 13635 net.cpp:150] Setting up scale3b7_branch2c
I0130 21:53:17.835047 13635 net.cpp:157] Top shape: 1 512 32 32 (524288)
I0130 21:53:17.835049 13635 net.cpp:165] Memory required for data: 298319872
I0130 21:53:17.835057 13635 layer_factory.hpp:77] Creating layer res3b7
I0130 21:53:17.835062 13635 net.cpp:100] Creating Layer res3b7
I0130 21:53:17.835067 13635 net.cpp:434] res3b7 <- res3b6_res3b6_relu_0_split_1
I0130 21:53:17.835072 13635 net.cpp:434] res3b7 <- res3b7_branch2c
I0130 21:53:17.835078 13635 net.cpp:408] res3b7 -> res3b7
I0130 21:53:17.835108 13635 net.cpp:150] Setting up res3b7
I0130 21:53:17.835115 13635 net.cpp:157] Top shape: 1 512 32 32 (524288)
I0130 21:53:17.835120 13635 net.cpp:165] Memory required for data: 300417024
I0130 21:53:17.835124 13635 layer_factory.hpp:77] Creating layer res3b7_relu
I0130 21:53:17.835129 13635 net.cpp:100] Creating Layer res3b7_relu
I0130 21:53:17.835135 13635 net.cpp:434] res3b7_relu <- res3b7
I0130 21:53:17.835140 13635 net.cpp:395] res3b7_relu -> res3b7 (in-place)
I0130 21:53:17.835469 13635 net.cpp:150] Setting up res3b7_relu
I0130 21:53:17.835484 13635 net.cpp:157] Top shape: 1 512 32 32 (524288)
I0130 21:53:17.835489 13635 net.cpp:165] Memory required for data: 302514176
I0130 21:53:17.835494 13635 layer_factory.hpp:77] Creating layer res3b7_res3b7_relu_0_split
I0130 21:53:17.835501 13635 net.cpp:100] Creating Layer res3b7_res3b7_relu_0_split
I0130 21:53:17.835505 13635 net.cpp:434] res3b7_res3b7_relu_0_split <- res3b7
I0130 21:53:17.835512 13635 net.cpp:408] res3b7_res3b7_relu_0_split -> res3b7_res3b7_relu_0_split_0
I0130 21:53:17.835520 13635 net.cpp:408] res3b7_res3b7_relu_0_split -> res3b7_res3b7_relu_0_split_1
I0130 21:53:17.835572 13635 net.cpp:150] Setting up res3b7_res3b7_relu_0_split
I0130 21:53:17.835578 13635 net.cpp:157] Top shape: 1 512 32 32 (524288)
I0130 21:53:17.835583 13635 net.cpp:157] Top shape: 1 512 32 32 (524288)
I0130 21:53:17.835587 13635 net.cpp:165] Memory required for data: 306708480
I0130 21:53:17.835590 13635 layer_factory.hpp:77] Creating layer res4a_branch1
I0130 21:53:17.835602 13635 net.cpp:100] Creating Layer res4a_branch1
I0130 21:53:17.835605 13635 net.cpp:434] res4a_branch1 <- res3b7_res3b7_relu_0_split_0
I0130 21:53:17.835611 13635 net.cpp:408] res4a_branch1 -> res4a_branch1
I0130 21:53:17.837909 13635 net.cpp:150] Setting up res4a_branch1
I0130 21:53:17.837929 13635 net.cpp:157] Top shape: 1 1024 16 16 (262144)
I0130 21:53:17.837934 13635 net.cpp:165] Memory required for data: 307757056
I0130 21:53:17.837940 13635 layer_factory.hpp:77] Creating layer bn4a_branch1
I0130 21:53:17.837949 13635 net.cpp:100] Creating Layer bn4a_branch1
I0130 21:53:17.837952 13635 net.cpp:434] bn4a_branch1 <- res4a_branch1
I0130 21:53:17.837960 13635 net.cpp:395] bn4a_branch1 -> res4a_branch1 (in-place)
I0130 21:53:17.838186 13635 net.cpp:150] Setting up bn4a_branch1
I0130 21:53:17.838196 13635 net.cpp:157] Top shape: 1 1024 16 16 (262144)
I0130 21:53:17.838201 13635 net.cpp:165] Memory required for data: 308805632
I0130 21:53:17.838209 13635 layer_factory.hpp:77] Creating layer scale4a_branch1
I0130 21:53:17.838217 13635 net.cpp:100] Creating Layer scale4a_branch1
I0130 21:53:17.838220 13635 net.cpp:434] scale4a_branch1 <- res4a_branch1
I0130 21:53:17.838227 13635 net.cpp:395] scale4a_branch1 -> res4a_branch1 (in-place)
I0130 21:53:17.838269 13635 layer_factory.hpp:77] Creating layer scale4a_branch1
I0130 21:53:17.838397 13635 net.cpp:150] Setting up scale4a_branch1
I0130 21:53:17.838407 13635 net.cpp:157] Top shape: 1 1024 16 16 (262144)
I0130 21:53:17.838410 13635 net.cpp:165] Memory required for data: 309854208
I0130 21:53:17.838418 13635 layer_factory.hpp:77] Creating layer res4a_branch2a
I0130 21:53:17.838428 13635 net.cpp:100] Creating Layer res4a_branch2a
I0130 21:53:17.838433 13635 net.cpp:434] res4a_branch2a <- res3b7_res3b7_relu_0_split_1
I0130 21:53:17.838438 13635 net.cpp:408] res4a_branch2a -> res4a_branch2a
I0130 21:53:17.839655 13635 net.cpp:150] Setting up res4a_branch2a
I0130 21:53:17.839671 13635 net.cpp:157] Top shape: 1 256 16 16 (65536)
I0130 21:53:17.839676 13635 net.cpp:165] Memory required for data: 310116352
I0130 21:53:17.839684 13635 layer_factory.hpp:77] Creating layer bn4a_branch2a
I0130 21:53:17.839691 13635 net.cpp:100] Creating Layer bn4a_branch2a
I0130 21:53:17.839696 13635 net.cpp:434] bn4a_branch2a <- res4a_branch2a
I0130 21:53:17.839702 13635 net.cpp:395] bn4a_branch2a -> res4a_branch2a (in-place)
I0130 21:53:17.839926 13635 net.cpp:150] Setting up bn4a_branch2a
I0130 21:53:17.839936 13635 net.cpp:157] Top shape: 1 256 16 16 (65536)
I0130 21:53:17.839941 13635 net.cpp:165] Memory required for data: 310378496
I0130 21:53:17.839948 13635 layer_factory.hpp:77] Creating layer scale4a_branch2a
I0130 21:53:17.839957 13635 net.cpp:100] Creating Layer scale4a_branch2a
I0130 21:53:17.839962 13635 net.cpp:434] scale4a_branch2a <- res4a_branch2a
I0130 21:53:17.839967 13635 net.cpp:395] scale4a_branch2a -> res4a_branch2a (in-place)
I0130 21:53:17.840015 13635 layer_factory.hpp:77] Creating layer scale4a_branch2a
I0130 21:53:17.840136 13635 net.cpp:150] Setting up scale4a_branch2a
I0130 21:53:17.840145 13635 net.cpp:157] Top shape: 1 256 16 16 (65536)
I0130 21:53:17.840148 13635 net.cpp:165] Memory required for data: 310640640
I0130 21:53:17.840155 13635 layer_factory.hpp:77] Creating layer res4a_branch2a_relu
I0130 21:53:17.840162 13635 net.cpp:100] Creating Layer res4a_branch2a_relu
I0130 21:53:17.840165 13635 net.cpp:434] res4a_branch2a_relu <- res4a_branch2a
I0130 21:53:17.840173 13635 net.cpp:395] res4a_branch2a_relu -> res4a_branch2a (in-place)
I0130 21:53:17.840363 13635 net.cpp:150] Setting up res4a_branch2a_relu
I0130 21:53:17.840375 13635 net.cpp:157] Top shape: 1 256 16 16 (65536)
I0130 21:53:17.840379 13635 net.cpp:165] Memory required for data: 310902784
I0130 21:53:17.840384 13635 layer_factory.hpp:77] Creating layer res4a_branch2b
I0130 21:53:17.840391 13635 net.cpp:100] Creating Layer res4a_branch2b
I0130 21:53:17.840395 13635 net.cpp:434] res4a_branch2b <- res4a_branch2a
I0130 21:53:17.840404 13635 net.cpp:408] res4a_branch2b -> res4a_branch2b
I0130 21:53:17.842723 13635 net.cpp:150] Setting up res4a_branch2b
I0130 21:53:17.842741 13635 net.cpp:157] Top shape: 1 256 16 16 (65536)
I0130 21:53:17.842756 13635 net.cpp:165] Memory required for data: 311164928
I0130 21:53:17.842762 13635 layer_factory.hpp:77] Creating layer bn4a_branch2b
I0130 21:53:17.842772 13635 net.cpp:100] Creating Layer bn4a_branch2b
I0130 21:53:17.842777 13635 net.cpp:434] bn4a_branch2b <- res4a_branch2b
I0130 21:53:17.842784 13635 net.cpp:395] bn4a_branch2b -> res4a_branch2b (in-place)
I0130 21:53:17.843005 13635 net.cpp:150] Setting up bn4a_branch2b
I0130 21:53:17.843015 13635 net.cpp:157] Top shape: 1 256 16 16 (65536)
I0130 21:53:17.843019 13635 net.cpp:165] Memory required for data: 311427072
I0130 21:53:17.843027 13635 layer_factory.hpp:77] Creating layer scale4a_branch2b
I0130 21:53:17.843034 13635 net.cpp:100] Creating Layer scale4a_branch2b
I0130 21:53:17.843039 13635 net.cpp:434] scale4a_branch2b <- res4a_branch2b
I0130 21:53:17.843045 13635 net.cpp:395] scale4a_branch2b -> res4a_branch2b (in-place)
I0130 21:53:17.843091 13635 layer_factory.hpp:77] Creating layer scale4a_branch2b
I0130 21:53:17.843212 13635 net.cpp:150] Setting up scale4a_branch2b
I0130 21:53:17.843221 13635 net.cpp:157] Top shape: 1 256 16 16 (65536)
I0130 21:53:17.843225 13635 net.cpp:165] Memory required for data: 311689216
I0130 21:53:17.843231 13635 layer_factory.hpp:77] Creating layer res4a_branch2b_relu
I0130 21:53:17.843240 13635 net.cpp:100] Creating Layer res4a_branch2b_relu
I0130 21:53:17.843243 13635 net.cpp:434] res4a_branch2b_relu <- res4a_branch2b
I0130 21:53:17.843248 13635 net.cpp:395] res4a_branch2b_relu -> res4a_branch2b (in-place)
I0130 21:53:17.843438 13635 net.cpp:150] Setting up res4a_branch2b_relu
I0130 21:53:17.843451 13635 net.cpp:157] Top shape: 1 256 16 16 (65536)
I0130 21:53:17.843454 13635 net.cpp:165] Memory required for data: 311951360
I0130 21:53:17.843458 13635 layer_factory.hpp:77] Creating layer res4a_branch2c
I0130 21:53:17.843468 13635 net.cpp:100] Creating Layer res4a_branch2c
I0130 21:53:17.843472 13635 net.cpp:434] res4a_branch2c <- res4a_branch2b
I0130 21:53:17.843478 13635 net.cpp:408] res4a_branch2c -> res4a_branch2c
I0130 21:53:17.845266 13635 net.cpp:150] Setting up res4a_branch2c
I0130 21:53:17.845284 13635 net.cpp:157] Top shape: 1 1024 16 16 (262144)
I0130 21:53:17.845289 13635 net.cpp:165] Memory required for data: 312999936
I0130 21:53:17.845295 13635 layer_factory.hpp:77] Creating layer bn4a_branch2c
I0130 21:53:17.845304 13635 net.cpp:100] Creating Layer bn4a_branch2c
I0130 21:53:17.845309 13635 net.cpp:434] bn4a_branch2c <- res4a_branch2c
I0130 21:53:17.845315 13635 net.cpp:395] bn4a_branch2c -> res4a_branch2c (in-place)
I0130 21:53:17.845543 13635 net.cpp:150] Setting up bn4a_branch2c
I0130 21:53:17.845552 13635 net.cpp:157] Top shape: 1 1024 16 16 (262144)
I0130 21:53:17.845556 13635 net.cpp:165] Memory required for data: 314048512
I0130 21:53:17.845566 13635 layer_factory.hpp:77] Creating layer scale4a_branch2c
I0130 21:53:17.845571 13635 net.cpp:100] Creating Layer scale4a_branch2c
I0130 21:53:17.845577 13635 net.cpp:434] scale4a_branch2c <- res4a_branch2c
I0130 21:53:17.845584 13635 net.cpp:395] scale4a_branch2c -> res4a_branch2c (in-place)
I0130 21:53:17.845628 13635 layer_factory.hpp:77] Creating layer scale4a_branch2c
I0130 21:53:17.845755 13635 net.cpp:150] Setting up scale4a_branch2c
I0130 21:53:17.845765 13635 net.cpp:157] Top shape: 1 1024 16 16 (262144)
I0130 21:53:17.845768 13635 net.cpp:165] Memory required for data: 315097088
I0130 21:53:17.845775 13635 layer_factory.hpp:77] Creating layer res4a
I0130 21:53:17.845783 13635 net.cpp:100] Creating Layer res4a
I0130 21:53:17.845788 13635 net.cpp:434] res4a <- res4a_branch1
I0130 21:53:17.845793 13635 net.cpp:434] res4a <- res4a_branch2c
I0130 21:53:17.845799 13635 net.cpp:408] res4a -> res4a
I0130 21:53:17.845824 13635 net.cpp:150] Setting up res4a
I0130 21:53:17.845830 13635 net.cpp:157] Top shape: 1 1024 16 16 (262144)
I0130 21:53:17.845834 13635 net.cpp:165] Memory required for data: 316145664
I0130 21:53:17.845837 13635 layer_factory.hpp:77] Creating layer res4a_relu
I0130 21:53:17.845845 13635 net.cpp:100] Creating Layer res4a_relu
I0130 21:53:17.845849 13635 net.cpp:434] res4a_relu <- res4a
I0130 21:53:17.845854 13635 net.cpp:395] res4a_relu -> res4a (in-place)
I0130 21:53:17.846189 13635 net.cpp:150] Setting up res4a_relu
I0130 21:53:17.846204 13635 net.cpp:157] Top shape: 1 1024 16 16 (262144)
I0130 21:53:17.846210 13635 net.cpp:165] Memory required for data: 317194240
I0130 21:53:17.846213 13635 layer_factory.hpp:77] Creating layer res4a_res4a_relu_0_split
I0130 21:53:17.846221 13635 net.cpp:100] Creating Layer res4a_res4a_relu_0_split
I0130 21:53:17.846226 13635 net.cpp:434] res4a_res4a_relu_0_split <- res4a
I0130 21:53:17.846233 13635 net.cpp:408] res4a_res4a_relu_0_split -> res4a_res4a_relu_0_split_0
I0130 21:53:17.846245 13635 net.cpp:408] res4a_res4a_relu_0_split -> res4a_res4a_relu_0_split_1
I0130 21:53:17.846297 13635 net.cpp:150] Setting up res4a_res4a_relu_0_split
I0130 21:53:17.846303 13635 net.cpp:157] Top shape: 1 1024 16 16 (262144)
I0130 21:53:17.846308 13635 net.cpp:157] Top shape: 1 1024 16 16 (262144)
I0130 21:53:17.846312 13635 net.cpp:165] Memory required for data: 319291392
I0130 21:53:17.846315 13635 layer_factory.hpp:77] Creating layer res4b1_branch2a
I0130 21:53:17.846324 13635 net.cpp:100] Creating Layer res4b1_branch2a
I0130 21:53:17.846328 13635 net.cpp:434] res4b1_branch2a <- res4a_res4a_relu_0_split_0
I0130 21:53:17.846335 13635 net.cpp:408] res4b1_branch2a -> res4b1_branch2a
I0130 21:53:17.848212 13635 net.cpp:150] Setting up res4b1_branch2a
I0130 21:53:17.848229 13635 net.cpp:157] Top shape: 1 256 16 16 (65536)
I0130 21:53:17.848234 13635 net.cpp:165] Memory required for data: 319553536
I0130 21:53:17.848240 13635 layer_factory.hpp:77] Creating layer bn4b1_branch2a
I0130 21:53:17.848249 13635 net.cpp:100] Creating Layer bn4b1_branch2a
I0130 21:53:17.848254 13635 net.cpp:434] bn4b1_branch2a <- res4b1_branch2a
I0130 21:53:17.848260 13635 net.cpp:395] bn4b1_branch2a -> res4b1_branch2a (in-place)
I0130 21:53:17.848486 13635 net.cpp:150] Setting up bn4b1_branch2a
I0130 21:53:17.848496 13635 net.cpp:157] Top shape: 1 256 16 16 (65536)
I0130 21:53:17.848500 13635 net.cpp:165] Memory required for data: 319815680
I0130 21:53:17.848508 13635 layer_factory.hpp:77] Creating layer scale4b1_branch2a
I0130 21:53:17.848516 13635 net.cpp:100] Creating Layer scale4b1_branch2a
I0130 21:53:17.848520 13635 net.cpp:434] scale4b1_branch2a <- res4b1_branch2a
I0130 21:53:17.848526 13635 net.cpp:395] scale4b1_branch2a -> res4b1_branch2a (in-place)
I0130 21:53:17.848573 13635 layer_factory.hpp:77] Creating layer scale4b1_branch2a
I0130 21:53:17.848697 13635 net.cpp:150] Setting up scale4b1_branch2a
I0130 21:53:17.848706 13635 net.cpp:157] Top shape: 1 256 16 16 (65536)
I0130 21:53:17.848711 13635 net.cpp:165] Memory required for data: 320077824
I0130 21:53:17.848716 13635 layer_factory.hpp:77] Creating layer res4b1_branch2a_relu
I0130 21:53:17.848723 13635 net.cpp:100] Creating Layer res4b1_branch2a_relu
I0130 21:53:17.848727 13635 net.cpp:434] res4b1_branch2a_relu <- res4b1_branch2a
I0130 21:53:17.848733 13635 net.cpp:395] res4b1_branch2a_relu -> res4b1_branch2a (in-place)
I0130 21:53:17.848942 13635 net.cpp:150] Setting up res4b1_branch2a_relu
I0130 21:53:17.848956 13635 net.cpp:157] Top shape: 1 256 16 16 (65536)
I0130 21:53:17.848960 13635 net.cpp:165] Memory required for data: 320339968
I0130 21:53:17.848964 13635 layer_factory.hpp:77] Creating layer res4b1_branch2b
I0130 21:53:17.848973 13635 net.cpp:100] Creating Layer res4b1_branch2b
I0130 21:53:17.848978 13635 net.cpp:434] res4b1_branch2b <- res4b1_branch2a
I0130 21:53:17.848984 13635 net.cpp:408] res4b1_branch2b -> res4b1_branch2b
I0130 21:53:17.851861 13635 net.cpp:150] Setting up res4b1_branch2b
I0130 21:53:17.851881 13635 net.cpp:157] Top shape: 1 256 16 16 (65536)
I0130 21:53:17.851886 13635 net.cpp:165] Memory required for data: 320602112
I0130 21:53:17.851891 13635 layer_factory.hpp:77] Creating layer bn4b1_branch2b
I0130 21:53:17.851902 13635 net.cpp:100] Creating Layer bn4b1_branch2b
I0130 21:53:17.851907 13635 net.cpp:434] bn4b1_branch2b <- res4b1_branch2b
I0130 21:53:17.851914 13635 net.cpp:395] bn4b1_branch2b -> res4b1_branch2b (in-place)
I0130 21:53:17.852138 13635 net.cpp:150] Setting up bn4b1_branch2b
I0130 21:53:17.852149 13635 net.cpp:157] Top shape: 1 256 16 16 (65536)
I0130 21:53:17.852152 13635 net.cpp:165] Memory required for data: 320864256
I0130 21:53:17.852161 13635 layer_factory.hpp:77] Creating layer scale4b1_branch2b
I0130 21:53:17.852169 13635 net.cpp:100] Creating Layer scale4b1_branch2b
I0130 21:53:17.852174 13635 net.cpp:434] scale4b1_branch2b <- res4b1_branch2b
I0130 21:53:17.852180 13635 net.cpp:395] scale4b1_branch2b -> res4b1_branch2b (in-place)
I0130 21:53:17.852228 13635 layer_factory.hpp:77] Creating layer scale4b1_branch2b
I0130 21:53:17.852355 13635 net.cpp:150] Setting up scale4b1_branch2b
I0130 21:53:17.852365 13635 net.cpp:157] Top shape: 1 256 16 16 (65536)
I0130 21:53:17.852367 13635 net.cpp:165] Memory required for data: 321126400
I0130 21:53:17.852375 13635 layer_factory.hpp:77] Creating layer res4b1_branch2b_relu
I0130 21:53:17.852380 13635 net.cpp:100] Creating Layer res4b1_branch2b_relu
I0130 21:53:17.852385 13635 net.cpp:434] res4b1_branch2b_relu <- res4b1_branch2b
I0130 21:53:17.852390 13635 net.cpp:395] res4b1_branch2b_relu -> res4b1_branch2b (in-place)
I0130 21:53:17.852581 13635 net.cpp:150] Setting up res4b1_branch2b_relu
I0130 21:53:17.852592 13635 net.cpp:157] Top shape: 1 256 16 16 (65536)
I0130 21:53:17.852596 13635 net.cpp:165] Memory required for data: 321388544
I0130 21:53:17.852601 13635 layer_factory.hpp:77] Creating layer res4b1_branch2c
I0130 21:53:17.852610 13635 net.cpp:100] Creating Layer res4b1_branch2c
I0130 21:53:17.852615 13635 net.cpp:434] res4b1_branch2c <- res4b1_branch2b
I0130 21:53:17.852622 13635 net.cpp:408] res4b1_branch2c -> res4b1_branch2c
I0130 21:53:17.854996 13635 net.cpp:150] Setting up res4b1_branch2c
I0130 21:53:17.855017 13635 net.cpp:157] Top shape: 1 1024 16 16 (262144)
I0130 21:53:17.855022 13635 net.cpp:165] Memory required for data: 322437120
I0130 21:53:17.855031 13635 layer_factory.hpp:77] Creating layer bn4b1_branch2c
I0130 21:53:17.855041 13635 net.cpp:100] Creating Layer bn4b1_branch2c
I0130 21:53:17.855046 13635 net.cpp:434] bn4b1_branch2c <- res4b1_branch2c
I0130 21:53:17.855053 13635 net.cpp:395] bn4b1_branch2c -> res4b1_branch2c (in-place)
I0130 21:53:17.855283 13635 net.cpp:150] Setting up bn4b1_branch2c
I0130 21:53:17.855293 13635 net.cpp:157] Top shape: 1 1024 16 16 (262144)
I0130 21:53:17.855298 13635 net.cpp:165] Memory required for data: 323485696
I0130 21:53:17.855306 13635 layer_factory.hpp:77] Creating layer scale4b1_branch2c
I0130 21:53:17.855314 13635 net.cpp:100] Creating Layer scale4b1_branch2c
I0130 21:53:17.855319 13635 net.cpp:434] scale4b1_branch2c <- res4b1_branch2c
I0130 21:53:17.855326 13635 net.cpp:395] scale4b1_branch2c -> res4b1_branch2c (in-place)
I0130 21:53:17.855370 13635 layer_factory.hpp:77] Creating layer scale4b1_branch2c
I0130 21:53:17.855502 13635 net.cpp:150] Setting up scale4b1_branch2c
I0130 21:53:17.855512 13635 net.cpp:157] Top shape: 1 1024 16 16 (262144)
I0130 21:53:17.855516 13635 net.cpp:165] Memory required for data: 324534272
I0130 21:53:17.855561 13635 layer_factory.hpp:77] Creating layer res4b1
I0130 21:53:17.855569 13635 net.cpp:100] Creating Layer res4b1
I0130 21:53:17.855573 13635 net.cpp:434] res4b1 <- res4a_res4a_relu_0_split_1
I0130 21:53:17.855579 13635 net.cpp:434] res4b1 <- res4b1_branch2c
I0130 21:53:17.855584 13635 net.cpp:408] res4b1 -> res4b1
I0130 21:53:17.855614 13635 net.cpp:150] Setting up res4b1
I0130 21:53:17.855621 13635 net.cpp:157] Top shape: 1 1024 16 16 (262144)
I0130 21:53:17.855624 13635 net.cpp:165] Memory required for data: 325582848
I0130 21:53:17.855628 13635 layer_factory.hpp:77] Creating layer res4b1_relu
I0130 21:53:17.855634 13635 net.cpp:100] Creating Layer res4b1_relu
I0130 21:53:17.855639 13635 net.cpp:434] res4b1_relu <- res4b1
I0130 21:53:17.855645 13635 net.cpp:395] res4b1_relu -> res4b1 (in-place)
I0130 21:53:17.855990 13635 net.cpp:150] Setting up res4b1_relu
I0130 21:53:17.856005 13635 net.cpp:157] Top shape: 1 1024 16 16 (262144)
I0130 21:53:17.856010 13635 net.cpp:165] Memory required for data: 326631424
I0130 21:53:17.856014 13635 layer_factory.hpp:77] Creating layer res4b1_res4b1_relu_0_split
I0130 21:53:17.856021 13635 net.cpp:100] Creating Layer res4b1_res4b1_relu_0_split
I0130 21:53:17.856025 13635 net.cpp:434] res4b1_res4b1_relu_0_split <- res4b1
I0130 21:53:17.856034 13635 net.cpp:408] res4b1_res4b1_relu_0_split -> res4b1_res4b1_relu_0_split_0
I0130 21:53:17.856043 13635 net.cpp:408] res4b1_res4b1_relu_0_split -> res4b1_res4b1_relu_0_split_1
I0130 21:53:17.856096 13635 net.cpp:150] Setting up res4b1_res4b1_relu_0_split
I0130 21:53:17.856103 13635 net.cpp:157] Top shape: 1 1024 16 16 (262144)
I0130 21:53:17.856108 13635 net.cpp:157] Top shape: 1 1024 16 16 (262144)
I0130 21:53:17.856112 13635 net.cpp:165] Memory required for data: 328728576
I0130 21:53:17.856115 13635 layer_factory.hpp:77] Creating layer res4b2_branch2a
I0130 21:53:17.856127 13635 net.cpp:100] Creating Layer res4b2_branch2a
I0130 21:53:17.856132 13635 net.cpp:434] res4b2_branch2a <- res4b1_res4b1_relu_0_split_0
I0130 21:53:17.856137 13635 net.cpp:408] res4b2_branch2a -> res4b2_branch2a
I0130 21:53:17.857908 13635 net.cpp:150] Setting up res4b2_branch2a
I0130 21:53:17.857925 13635 net.cpp:157] Top shape: 1 256 16 16 (65536)
I0130 21:53:17.857930 13635 net.cpp:165] Memory required for data: 328990720
I0130 21:53:17.857936 13635 layer_factory.hpp:77] Creating layer bn4b2_branch2a
I0130 21:53:17.857944 13635 net.cpp:100] Creating Layer bn4b2_branch2a
I0130 21:53:17.857949 13635 net.cpp:434] bn4b2_branch2a <- res4b2_branch2a
I0130 21:53:17.857957 13635 net.cpp:395] bn4b2_branch2a -> res4b2_branch2a (in-place)
I0130 21:53:17.858186 13635 net.cpp:150] Setting up bn4b2_branch2a
I0130 21:53:17.858196 13635 net.cpp:157] Top shape: 1 256 16 16 (65536)
I0130 21:53:17.858198 13635 net.cpp:165] Memory required for data: 329252864
I0130 21:53:17.858207 13635 layer_factory.hpp:77] Creating layer scale4b2_branch2a
I0130 21:53:17.858214 13635 net.cpp:100] Creating Layer scale4b2_branch2a
I0130 21:53:17.858218 13635 net.cpp:434] scale4b2_branch2a <- res4b2_branch2a
I0130 21:53:17.858223 13635 net.cpp:395] scale4b2_branch2a -> res4b2_branch2a (in-place)
I0130 21:53:17.858273 13635 layer_factory.hpp:77] Creating layer scale4b2_branch2a
I0130 21:53:17.858409 13635 net.cpp:150] Setting up scale4b2_branch2a
I0130 21:53:17.858419 13635 net.cpp:157] Top shape: 1 256 16 16 (65536)
I0130 21:53:17.858422 13635 net.cpp:165] Memory required for data: 329515008
I0130 21:53:17.858429 13635 layer_factory.hpp:77] Creating layer res4b2_branch2a_relu
I0130 21:53:17.858436 13635 net.cpp:100] Creating Layer res4b2_branch2a_relu
I0130 21:53:17.858439 13635 net.cpp:434] res4b2_branch2a_relu <- res4b2_branch2a
I0130 21:53:17.858446 13635 net.cpp:395] res4b2_branch2a_relu -> res4b2_branch2a (in-place)
I0130 21:53:17.858645 13635 net.cpp:150] Setting up res4b2_branch2a_relu
I0130 21:53:17.858657 13635 net.cpp:157] Top shape: 1 256 16 16 (65536)
I0130 21:53:17.858661 13635 net.cpp:165] Memory required for data: 329777152
I0130 21:53:17.858665 13635 layer_factory.hpp:77] Creating layer res4b2_branch2b
I0130 21:53:17.858675 13635 net.cpp:100] Creating Layer res4b2_branch2b
I0130 21:53:17.858680 13635 net.cpp:434] res4b2_branch2b <- res4b2_branch2a
I0130 21:53:17.858687 13635 net.cpp:408] res4b2_branch2b -> res4b2_branch2b
I0130 21:53:17.861030 13635 net.cpp:150] Setting up res4b2_branch2b
I0130 21:53:17.861047 13635 net.cpp:157] Top shape: 1 256 16 16 (65536)
I0130 21:53:17.861063 13635 net.cpp:165] Memory required for data: 330039296
I0130 21:53:17.861069 13635 layer_factory.hpp:77] Creating layer bn4b2_branch2b
I0130 21:53:17.861076 13635 net.cpp:100] Creating Layer bn4b2_branch2b
I0130 21:53:17.861081 13635 net.cpp:434] bn4b2_branch2b <- res4b2_branch2b
I0130 21:53:17.861089 13635 net.cpp:395] bn4b2_branch2b -> res4b2_branch2b (in-place)
I0130 21:53:17.861325 13635 net.cpp:150] Setting up bn4b2_branch2b
I0130 21:53:17.861335 13635 net.cpp:157] Top shape: 1 256 16 16 (65536)
I0130 21:53:17.861340 13635 net.cpp:165] Memory required for data: 330301440
I0130 21:53:17.861347 13635 layer_factory.hpp:77] Creating layer scale4b2_branch2b
I0130 21:53:17.861354 13635 net.cpp:100] Creating Layer scale4b2_branch2b
I0130 21:53:17.861358 13635 net.cpp:434] scale4b2_branch2b <- res4b2_branch2b
I0130 21:53:17.861363 13635 net.cpp:395] scale4b2_branch2b -> res4b2_branch2b (in-place)
I0130 21:53:17.861414 13635 layer_factory.hpp:77] Creating layer scale4b2_branch2b
I0130 21:53:17.861542 13635 net.cpp:150] Setting up scale4b2_branch2b
I0130 21:53:17.861552 13635 net.cpp:157] Top shape: 1 256 16 16 (65536)
I0130 21:53:17.861555 13635 net.cpp:165] Memory required for data: 330563584
I0130 21:53:17.861562 13635 layer_factory.hpp:77] Creating layer res4b2_branch2b_relu
I0130 21:53:17.861569 13635 net.cpp:100] Creating Layer res4b2_branch2b_relu
I0130 21:53:17.861573 13635 net.cpp:434] res4b2_branch2b_relu <- res4b2_branch2b
I0130 21:53:17.861578 13635 net.cpp:395] res4b2_branch2b_relu -> res4b2_branch2b (in-place)
I0130 21:53:17.861773 13635 net.cpp:150] Setting up res4b2_branch2b_relu
I0130 21:53:17.861783 13635 net.cpp:157] Top shape: 1 256 16 16 (65536)
I0130 21:53:17.861788 13635 net.cpp:165] Memory required for data: 330825728
I0130 21:53:17.861791 13635 layer_factory.hpp:77] Creating layer res4b2_branch2c
I0130 21:53:17.861801 13635 net.cpp:100] Creating Layer res4b2_branch2c
I0130 21:53:17.861805 13635 net.cpp:434] res4b2_branch2c <- res4b2_branch2b
I0130 21:53:17.861814 13635 net.cpp:408] res4b2_branch2c -> res4b2_branch2c
I0130 21:53:17.863546 13635 net.cpp:150] Setting up res4b2_branch2c
I0130 21:53:17.863565 13635 net.cpp:157] Top shape: 1 1024 16 16 (262144)
I0130 21:53:17.863570 13635 net.cpp:165] Memory required for data: 331874304
I0130 21:53:17.863576 13635 layer_factory.hpp:77] Creating layer bn4b2_branch2c
I0130 21:53:17.863584 13635 net.cpp:100] Creating Layer bn4b2_branch2c
I0130 21:53:17.863590 13635 net.cpp:434] bn4b2_branch2c <- res4b2_branch2c
I0130 21:53:17.863595 13635 net.cpp:395] bn4b2_branch2c -> res4b2_branch2c (in-place)
I0130 21:53:17.863836 13635 net.cpp:150] Setting up bn4b2_branch2c
I0130 21:53:17.863847 13635 net.cpp:157] Top shape: 1 1024 16 16 (262144)
I0130 21:53:17.863852 13635 net.cpp:165] Memory required for data: 332922880
I0130 21:53:17.863859 13635 layer_factory.hpp:77] Creating layer scale4b2_branch2c
I0130 21:53:17.863867 13635 net.cpp:100] Creating Layer scale4b2_branch2c
I0130 21:53:17.863870 13635 net.cpp:434] scale4b2_branch2c <- res4b2_branch2c
I0130 21:53:17.863875 13635 net.cpp:395] scale4b2_branch2c -> res4b2_branch2c (in-place)
I0130 21:53:17.863924 13635 layer_factory.hpp:77] Creating layer scale4b2_branch2c
I0130 21:53:17.864061 13635 net.cpp:150] Setting up scale4b2_branch2c
I0130 21:53:17.864071 13635 net.cpp:157] Top shape: 1 1024 16 16 (262144)
I0130 21:53:17.864074 13635 net.cpp:165] Memory required for data: 333971456
I0130 21:53:17.864081 13635 layer_factory.hpp:77] Creating layer res4b2
I0130 21:53:17.864089 13635 net.cpp:100] Creating Layer res4b2
I0130 21:53:17.864094 13635 net.cpp:434] res4b2 <- res4b1_res4b1_relu_0_split_1
I0130 21:53:17.864099 13635 net.cpp:434] res4b2 <- res4b2_branch2c
I0130 21:53:17.864105 13635 net.cpp:408] res4b2 -> res4b2
I0130 21:53:17.864133 13635 net.cpp:150] Setting up res4b2
I0130 21:53:17.864140 13635 net.cpp:157] Top shape: 1 1024 16 16 (262144)
I0130 21:53:17.864145 13635 net.cpp:165] Memory required for data: 335020032
I0130 21:53:17.864148 13635 layer_factory.hpp:77] Creating layer res4b2_relu
I0130 21:53:17.864153 13635 net.cpp:100] Creating Layer res4b2_relu
I0130 21:53:17.864157 13635 net.cpp:434] res4b2_relu <- res4b2
I0130 21:53:17.864162 13635 net.cpp:395] res4b2_relu -> res4b2 (in-place)
I0130 21:53:17.864498 13635 net.cpp:150] Setting up res4b2_relu
I0130 21:53:17.864513 13635 net.cpp:157] Top shape: 1 1024 16 16 (262144)
I0130 21:53:17.864517 13635 net.cpp:165] Memory required for data: 336068608
I0130 21:53:17.864521 13635 layer_factory.hpp:77] Creating layer res4b2_res4b2_relu_0_split
…
I0130 21:53:18.272733 13635 net.cpp:100] Creating Layer scale4b33_branch2b
I0130 21:53:18.272750 13635 net.cpp:434] scale4b33_branch2b <- res4b33_branch2b
I0130 21:53:18.272761 13635 net.cpp:395] scale4b33_branch2b -> res4b33_branch2b (in-place)
I0130 21:53:18.272850 13635 layer_factory.hpp:77] Creating layer scale4b33_branch2b
I0130 21:53:18.273039 13635 net.cpp:150] Setting up scale4b33_branch2b
I0130 21:53:18.273058 13635 net.cpp:157] Top shape: 1 256 16 16 (65536)
I0130 21:53:18.273066 13635 net.cpp:165] Memory required for data: 623116288
I0130 21:53:18.273085 13635 layer_factory.hpp:77] Creating layer res4b33_branch2b_relu
I0130 21:53:18.273097 13635 net.cpp:100] Creating Layer res4b33_branch2b_relu
I0130 21:53:18.273105 13635 net.cpp:434] res4b33_branch2b_relu <- res4b33_branch2b
I0130 21:53:18.273118 13635 net.cpp:395] res4b33_branch2b_relu -> res4b33_branch2b (in-place)
I0130 21:53:18.273545 13635 net.cpp:150] Setting up res4b33_branch2b_relu
I0130 21:53:18.273561 13635 net.cpp:157] Top shape: 1 256 16 16 (65536)
I0130 21:53:18.273566 13635 net.cpp:165] Memory required for data: 623378432
I0130 21:53:18.273571 13635 layer_factory.hpp:77] Creating layer res4b33_branch2c
I0130 21:53:18.273583 13635 net.cpp:100] Creating Layer res4b33_branch2c
I0130 21:53:18.273588 13635 net.cpp:434] res4b33_branch2c <- res4b33_branch2b
I0130 21:53:18.273597 13635 net.cpp:408] res4b33_branch2c -> res4b33_branch2c
I0130 21:53:18.276335 13635 net.cpp:150] Setting up res4b33_branch2c
I0130 21:53:18.276371 13635 net.cpp:157] Top shape: 1 1024 16 16 (262144)
I0130 21:53:18.276381 13635 net.cpp:165] Memory required for data: 624427008
I0130 21:53:18.276391 13635 layer_factory.hpp:77] Creating layer bn4b33_branch2c
I0130 21:53:18.276403 13635 net.cpp:100] Creating Layer bn4b33_branch2c
I0130 21:53:18.276410 13635 net.cpp:434] bn4b33_branch2c <- res4b33_branch2c
I0130 21:53:18.276420 13635 net.cpp:395] bn4b33_branch2c -> res4b33_branch2c (in-place)
I0130 21:53:18.276902 13635 net.cpp:150] Setting up bn4b33_branch2c
I0130 21:53:18.276919 13635 net.cpp:157] Top shape: 1 1024 16 16 (262144)
I0130 21:53:18.276924 13635 net.cpp:165] Memory required for data: 625475584
I0130 21:53:18.276935 13635 layer_factory.hpp:77] Creating layer scale4b33_branch2c
I0130 21:53:18.276944 13635 net.cpp:100] Creating Layer scale4b33_branch2c
I0130 21:53:18.276950 13635 net.cpp:434] scale4b33_branch2c <- res4b33_branch2c
I0130 21:53:18.276959 13635 net.cpp:395] scale4b33_branch2c -> res4b33_branch2c (in-place)
I0130 21:53:18.277060 13635 layer_factory.hpp:77] Creating layer scale4b33_branch2c
I0130 21:53:18.277250 13635 net.cpp:150] Setting up scale4b33_branch2c
I0130 21:53:18.277261 13635 net.cpp:157] Top shape: 1 1024 16 16 (262144)
I0130 21:53:18.277264 13635 net.cpp:165] Memory required for data: 626524160
I0130 21:53:18.277272 13635 layer_factory.hpp:77] Creating layer res4b33
I0130 21:53:18.277281 13635 net.cpp:100] Creating Layer res4b33
I0130 21:53:18.277287 13635 net.cpp:434] res4b33 <- res4b32_res4b32_relu_0_split_1
I0130 21:53:18.277293 13635 net.cpp:434] res4b33 <- res4b33_branch2c
I0130 21:53:18.277300 13635 net.cpp:408] res4b33 -> res4b33
I0130 21:53:18.277340 13635 net.cpp:150] Setting up res4b33
I0130 21:53:18.277351 13635 net.cpp:157] Top shape: 1 1024 16 16 (262144)
I0130 21:53:18.277355 13635 net.cpp:165] Memory required for data: 627572736
I0130 21:53:18.277359 13635 layer_factory.hpp:77] Creating layer res4b33_relu
I0130 21:53:18.277366 13635 net.cpp:100] Creating Layer res4b33_relu
I0130 21:53:18.277371 13635 net.cpp:434] res4b33_relu <- res4b33
I0130 21:53:18.277379 13635 net.cpp:395] res4b33_relu -> res4b33 (in-place)
I0130 21:53:18.278023 13635 net.cpp:150] Setting up res4b33_relu
I0130 21:53:18.278040 13635 net.cpp:157] Top shape: 1 1024 16 16 (262144)
I0130 21:53:18.278045 13635 net.cpp:165] Memory required for data: 628621312
I0130 21:53:18.278050 13635 layer_factory.hpp:77] Creating layer res4b33_res4b33_relu_0_split
I0130 21:53:18.278057 13635 net.cpp:100] Creating Layer res4b33_res4b33_relu_0_split
I0130 21:53:18.278064 13635 net.cpp:434] res4b33_res4b33_relu_0_split <- res4b33
I0130 21:53:18.278077 13635 net.cpp:408] res4b33_res4b33_relu_0_split -> res4b33_res4b33_relu_0_split_0
I0130 21:53:18.278087 13635 net.cpp:408] res4b33_res4b33_relu_0_split -> res4b33_res4b33_relu_0_split_1
I0130 21:53:18.278151 13635 net.cpp:150] Setting up res4b33_res4b33_relu_0_split
I0130 21:53:18.278161 13635 net.cpp:157] Top shape: 1 1024 16 16 (262144)
I0130 21:53:18.278165 13635 net.cpp:157] Top shape: 1 1024 16 16 (262144)
I0130 21:53:18.278169 13635 net.cpp:165] Memory required for data: 630718464
I0130 21:53:18.278173 13635 layer_factory.hpp:77] Creating layer res4b34_branch2a
I0130 21:53:18.278187 13635 net.cpp:100] Creating Layer res4b34_branch2a
I0130 21:53:18.278192 13635 net.cpp:434] res4b34_branch2a <- res4b33_res4b33_relu_0_split_0
I0130 21:53:18.278219 13635 net.cpp:408] res4b34_branch2a -> res4b34_branch2a
I0130 21:53:18.280971 13635 net.cpp:150] Setting up res4b34_branch2a
I0130 21:53:18.281002 13635 net.cpp:157] Top shape: 1 256 16 16 (65536)
I0130 21:53:18.281008 13635 net.cpp:165] Memory required for data: 630980608
I0130 21:53:18.281018 13635 layer_factory.hpp:77] Creating layer bn4b34_branch2a
I0130 21:53:18.281028 13635 net.cpp:100] Creating Layer bn4b34_branch2a
I0130 21:53:18.281034 13635 net.cpp:434] bn4b34_branch2a <- res4b34_branch2a
I0130 21:53:18.281044 13635 net.cpp:395] bn4b34_branch2a -> res4b34_branch2a (in-place)
I0130 21:53:18.281332 13635 net.cpp:150] Setting up bn4b34_branch2a
I0130 21:53:18.281344 13635 net.cpp:157] Top shape: 1 256 16 16 (65536)
I0130 21:53:18.281349 13635 net.cpp:165] Memory required for data: 631242752
I0130 21:53:18.281359 13635 layer_factory.hpp:77] Creating layer scale4b34_branch2a
I0130 21:53:18.281368 13635 net.cpp:100] Creating Layer scale4b34_branch2a
I0130 21:53:18.281373 13635 net.cpp:434] scale4b34_branch2a <- res4b34_branch2a
I0130 21:53:18.281378 13635 net.cpp:395] scale4b34_branch2a -> res4b34_branch2a (in-place)
I0130 21:53:18.281436 13635 layer_factory.hpp:77] Creating layer scale4b34_branch2a
I0130 21:53:18.281606 13635 net.cpp:150] Setting up scale4b34_branch2a
I0130 21:53:18.281620 13635 net.cpp:157] Top shape: 1 256 16 16 (65536)
I0130 21:53:18.281625 13635 net.cpp:165] Memory required for data: 631504896
I0130 21:53:18.281631 13635 layer_factory.hpp:77] Creating layer res4b34_branch2a_relu
I0130 21:53:18.281656 13635 net.cpp:100] Creating Layer res4b34_branch2a_relu
I0130 21:53:18.281662 13635 net.cpp:434] res4b34_branch2a_relu <- res4b34_branch2a
I0130 21:53:18.281671 13635 net.cpp:395] res4b34_branch2a_relu -> res4b34_branch2a (in-place)
I0130 21:53:18.281991 13635 net.cpp:150] Setting up res4b34_branch2a_relu
I0130 21:53:18.282006 13635 net.cpp:157] Top shape: 1 256 16 16 (65536)
I0130 21:53:18.282011 13635 net.cpp:165] Memory required for data: 631767040
I0130 21:53:18.282016 13635 layer_factory.hpp:77] Creating layer res4b34_branch2b
I0130 21:53:18.282027 13635 net.cpp:100] Creating Layer res4b34_branch2b
I0130 21:53:18.282032 13635 net.cpp:434] res4b34_branch2b <- res4b34_branch2a
I0130 21:53:18.282042 13635 net.cpp:408] res4b34_branch2b -> res4b34_branch2b
I0130 21:53:18.285678 13635 net.cpp:150] Setting up res4b34_branch2b
I0130 21:53:18.285723 13635 net.cpp:157] Top shape: 1 256 16 16 (65536)
I0130 21:53:18.285751 13635 net.cpp:165] Memory required for data: 632029184
I0130 21:53:18.285768 13635 layer_factory.hpp:77] Creating layer bn4b34_branch2b
I0130 21:53:18.285801 13635 net.cpp:100] Creating Layer bn4b34_branch2b
I0130 21:53:18.285817 13635 net.cpp:434] bn4b34_branch2b <- res4b34_branch2b
I0130 21:53:18.285835 13635 net.cpp:395] bn4b34_branch2b -> res4b34_branch2b (in-place)
I0130 21:53:18.286164 13635 net.cpp:150] Setting up bn4b34_branch2b
I0130 21:53:18.286180 13635 net.cpp:157] Top shape: 1 256 16 16 (65536)
I0130 21:53:18.286183 13635 net.cpp:165] Memory required for data: 632291328
I0130 21:53:18.286195 13635 layer_factory.hpp:77] Creating layer scale4b34_branch2b
I0130 21:53:18.286204 13635 net.cpp:100] Creating Layer scale4b34_branch2b
I0130 21:53:18.286209 13635 net.cpp:434] scale4b34_branch2b <- res4b34_branch2b
I0130 21:53:18.286216 13635 net.cpp:395] scale4b34_branch2b -> res4b34_branch2b (in-place)
I0130 21:53:18.286275 13635 layer_factory.hpp:77] Creating layer scale4b34_branch2b
I0130 21:53:18.286429 13635 net.cpp:150] Setting up scale4b34_branch2b
I0130 21:53:18.286439 13635 net.cpp:157] Top shape: 1 256 16 16 (65536)
I0130 21:53:18.286444 13635 net.cpp:165] Memory required for data: 632553472
I0130 21:53:18.286473 13635 layer_factory.hpp:77] Creating layer res4b34_branch2b_relu
I0130 21:53:18.286487 13635 net.cpp:100] Creating Layer res4b34_branch2b_relu
I0130 21:53:18.286494 13635 net.cpp:434] res4b34_branch2b_relu <- res4b34_branch2b
I0130 21:53:18.286499 13635 net.cpp:395] res4b34_branch2b_relu -> res4b34_branch2b (in-place)
I0130 21:53:18.286867 13635 net.cpp:150] Setting up res4b34_branch2b_relu
I0130 21:53:18.286882 13635 net.cpp:157] Top shape: 1 256 16 16 (65536)
I0130 21:53:18.286887 13635 net.cpp:165] Memory required for data: 632815616
I0130 21:53:18.286892 13635 layer_factory.hpp:77] Creating layer res4b34_branch2c
I0130 21:53:18.286919 13635 net.cpp:100] Creating Layer res4b34_branch2c
I0130 21:53:18.286926 13635 net.cpp:434] res4b34_branch2c <- res4b34_branch2b
I0130 21:53:18.286936 13635 net.cpp:408] res4b34_branch2c -> res4b34_branch2c
I0130 21:53:18.290822 13635 net.cpp:150] Setting up res4b34_branch2c
I0130 21:53:18.290858 13635 net.cpp:157] Top shape: 1 1024 16 16 (262144)
I0130 21:53:18.290863 13635 net.cpp:165] Memory required for data: 633864192
I0130 21:53:18.290874 13635 layer_factory.hpp:77] Creating layer bn4b34_branch2c
I0130 21:53:18.290885 13635 net.cpp:100] Creating Layer bn4b34_branch2c
I0130 21:53:18.290894 13635 net.cpp:434] bn4b34_branch2c <- res4b34_branch2c
I0130 21:53:18.290901 13635 net.cpp:395] bn4b34_branch2c -> res4b34_branch2c (in-place)
I0130 21:53:18.291239 13635 net.cpp:150] Setting up bn4b34_branch2c
I0130 21:53:18.291252 13635 net.cpp:157] Top shape: 1 1024 16 16 (262144)
I0130 21:53:18.291256 13635 net.cpp:165] Memory required for data: 634912768
I0130 21:53:18.291266 13635 layer_factory.hpp:77] Creating layer scale4b34_branch2c
I0130 21:53:18.291275 13635 net.cpp:100] Creating Layer scale4b34_branch2c
I0130 21:53:18.291280 13635 net.cpp:434] scale4b34_branch2c <- res4b34_branch2c
I0130 21:53:18.291285 13635 net.cpp:395] scale4b34_branch2c -> res4b34_branch2c (in-place)
I0130 21:53:18.291363 13635 layer_factory.hpp:77] Creating layer scale4b34_branch2c
I0130 21:53:18.291573 13635 net.cpp:150] Setting up scale4b34_branch2c
I0130 21:53:18.291604 13635 net.cpp:157] Top shape: 1 1024 16 16 (262144)
I0130 21:53:18.291607 13635 net.cpp:165] Memory required for data: 635961344
I0130 21:53:18.291615 13635 layer_factory.hpp:77] Creating layer res4b34
I0130 21:53:18.291630 13635 net.cpp:100] Creating Layer res4b34
I0130 21:53:18.291635 13635 net.cpp:434] res4b34 <- res4b33_res4b33_relu_0_split_1
I0130 21:53:18.291641 13635 net.cpp:434] res4b34 <- res4b34_branch2c
I0130 21:53:18.291648 13635 net.cpp:408] res4b34 -> res4b34
I0130 21:53:18.291683 13635 net.cpp:150] Setting up res4b34
I0130 21:53:18.291690 13635 net.cpp:157] Top shape: 1 1024 16 16 (262144)
I0130 21:53:18.291694 13635 net.cpp:165] Memory required for data: 637009920
I0130 21:53:18.291698 13635 layer_factory.hpp:77] Creating layer res4b34_relu
I0130 21:53:18.291707 13635 net.cpp:100] Creating Layer res4b34_relu
I0130 21:53:18.291710 13635 net.cpp:434] res4b34_relu <- res4b34
I0130 21:53:18.291716 13635 net.cpp:395] res4b34_relu -> res4b34 (in-place)
I0130 21:53:18.292338 13635 net.cpp:150] Setting up res4b34_relu
I0130 21:53:18.292371 13635 net.cpp:157] Top shape: 1 1024 16 16 (262144)
I0130 21:53:18.292399 13635 net.cpp:165] Memory required for data: 638058496
I0130 21:53:18.292407 13635 layer_factory.hpp:77] Creating layer res4b34_res4b34_relu_0_split
I0130 21:53:18.292415 13635 net.cpp:100] Creating Layer res4b34_res4b34_relu_0_split
I0130 21:53:18.292420 13635 net.cpp:434] res4b34_res4b34_relu_0_split <- res4b34
I0130 21:53:18.292436 13635 net.cpp:408] res4b34_res4b34_relu_0_split -> res4b34_res4b34_relu_0_split_0
I0130 21:53:18.292464 13635 net.cpp:408] res4b34_res4b34_relu_0_split -> res4b34_res4b34_relu_0_split_1
I0130 21:53:18.292534 13635 net.cpp:150] Setting up res4b34_res4b34_relu_0_split
I0130 21:53:18.292546 13635 net.cpp:157] Top shape: 1 1024 16 16 (262144)
I0130 21:53:18.292551 13635 net.cpp:157] Top shape: 1 1024 16 16 (262144)
I0130 21:53:18.292556 13635 net.cpp:165] Memory required for data: 640155648
I0130 21:53:18.292559 13635 layer_factory.hpp:77] Creating layer res4b35_branch2a
I0130 21:53:18.292572 13635 net.cpp:100] Creating Layer res4b35_branch2a
I0130 21:53:18.292578 13635 net.cpp:434] res4b35_branch2a <- res4b34_res4b34_relu_0_split_0
I0130 21:53:18.292585 13635 net.cpp:408] res4b35_branch2a -> res4b35_branch2a
I0130 21:53:18.295413 13635 net.cpp:150] Setting up res4b35_branch2a
I0130 21:53:18.295449 13635 net.cpp:157] Top shape: 1 256 16 16 (65536)
I0130 21:53:18.295454 13635 net.cpp:165] Memory required for data: 640417792
I0130 21:53:18.295464 13635 layer_factory.hpp:77] Creating layer bn4b35_branch2a
I0130 21:53:18.295473 13635 net.cpp:100] Creating Layer bn4b35_branch2a
I0130 21:53:18.295480 13635 net.cpp:434] bn4b35_branch2a <- res4b35_branch2a
I0130 21:53:18.295490 13635 net.cpp:395] bn4b35_branch2a -> res4b35_branch2a (in-place)
I0130 21:53:18.295779 13635 net.cpp:150] Setting up bn4b35_branch2a
I0130 21:53:18.295792 13635 net.cpp:157] Top shape: 1 256 16 16 (65536)
I0130 21:53:18.295796 13635 net.cpp:165] Memory required for data: 640679936
I0130 21:53:18.295817 13635 layer_factory.hpp:77] Creating layer scale4b35_branch2a
I0130 21:53:18.295828 13635 net.cpp:100] Creating Layer scale4b35_branch2a
I0130 21:53:18.295833 13635 net.cpp:434] scale4b35_branch2a <- res4b35_branch2a
I0130 21:53:18.295840 13635 net.cpp:395] scale4b35_branch2a -> res4b35_branch2a (in-place)
I0130 21:53:18.295923 13635 layer_factory.hpp:77] Creating layer scale4b35_branch2a
I0130 21:53:18.296169 13635 net.cpp:150] Setting up scale4b35_branch2a
I0130 21:53:18.296188 13635 net.cpp:157] Top shape: 1 256 16 16 (65536)
I0130 21:53:18.296195 13635 net.cpp:165] Memory required for data: 640942080
I0130 21:53:18.296210 13635 layer_factory.hpp:77] Creating layer res4b35_branch2a_relu
I0130 21:53:18.296223 13635 net.cpp:100] Creating Layer res4b35_branch2a_relu
I0130 21:53:18.296255 13635 net.cpp:434] res4b35_branch2a_relu <- res4b35_branch2a
I0130 21:53:18.296272 13635 net.cpp:395] res4b35_branch2a_relu -> res4b35_branch2a (in-place)
I0130 21:53:18.296638 13635 net.cpp:150] Setting up res4b35_branch2a_relu
I0130 21:53:18.296658 13635 net.cpp:157] Top shape: 1 256 16 16 (65536)
I0130 21:53:18.296663 13635 net.cpp:165] Memory required for data: 641204224
I0130 21:53:18.296667 13635 layer_factory.hpp:77] Creating layer res4b35_branch2b
I0130 21:53:18.296679 13635 net.cpp:100] Creating Layer res4b35_branch2b
I0130 21:53:18.296684 13635 net.cpp:434] res4b35_branch2b <- res4b35_branch2a
I0130 21:53:18.296694 13635 net.cpp:408] res4b35_branch2b -> res4b35_branch2b
I0130 21:53:18.300426 13635 net.cpp:150] Setting up res4b35_branch2b
I0130 21:53:18.300462 13635 net.cpp:157] Top shape: 1 256 16 16 (65536)
I0130 21:53:18.300468 13635 net.cpp:165] Memory required for data: 641466368
I0130 21:53:18.300479 13635 layer_factory.hpp:77] Creating layer bn4b35_branch2b
I0130 21:53:18.300508 13635 net.cpp:100] Creating Layer bn4b35_branch2b
I0130 21:53:18.300518 13635 net.cpp:434] bn4b35_branch2b <- res4b35_branch2b
I0130 21:53:18.300526 13635 net.cpp:395] bn4b35_branch2b -> res4b35_branch2b (in-place)
I0130 21:53:18.300935 13635 net.cpp:150] Setting up bn4b35_branch2b
I0130 21:53:18.300950 13635 net.cpp:157] Top shape: 1 256 16 16 (65536)
I0130 21:53:18.300966 13635 net.cpp:165] Memory required for data: 641728512
I0130 21:53:18.300978 13635 layer_factory.hpp:77] Creating layer scale4b35_branch2b
I0130 21:53:18.300988 13635 net.cpp:100] Creating Layer scale4b35_branch2b
I0130 21:53:18.300993 13635 net.cpp:434] scale4b35_branch2b <- res4b35_branch2b
I0130 21:53:18.301000 13635 net.cpp:395] scale4b35_branch2b -> res4b35_branch2b (in-place)
I0130 21:53:18.301136 13635 layer_factory.hpp:77] Creating layer scale4b35_branch2b
I0130 21:53:18.301347 13635 net.cpp:150] Setting up scale4b35_branch2b
I0130 21:53:18.301362 13635 net.cpp:157] Top shape: 1 256 16 16 (65536)
I0130 21:53:18.301365 13635 net.cpp:165] Memory required for data: 641990656
I0130 21:53:18.301373 13635 layer_factory.hpp:77] Creating layer res4b35_branch2b_relu
I0130 21:53:18.301383 13635 net.cpp:100] Creating Layer res4b35_branch2b_relu
I0130 21:53:18.301409 13635 net.cpp:434] res4b35_branch2b_relu <- res4b35_branch2b
I0130 21:53:18.301417 13635 net.cpp:395] res4b35_branch2b_relu -> res4b35_branch2b (in-place)
I0130 21:53:18.301779 13635 net.cpp:150] Setting up res4b35_branch2b_relu
I0130 21:53:18.301800 13635 net.cpp:157] Top shape: 1 256 16 16 (65536)
I0130 21:53:18.301805 13635 net.cpp:165] Memory required for data: 642252800
I0130 21:53:18.301810 13635 layer_factory.hpp:77] Creating layer res4b35_branch2c
I0130 21:53:18.301823 13635 net.cpp:100] Creating Layer res4b35_branch2c
I0130 21:53:18.301829 13635 net.cpp:434] res4b35_branch2c <- res4b35_branch2b
I0130 21:53:18.301836 13635 net.cpp:408] res4b35_branch2c -> res4b35_branch2c
I0130 21:53:18.304723 13635 net.cpp:150] Setting up res4b35_branch2c
I0130 21:53:18.304780 13635 net.cpp:157] Top shape: 1 1024 16 16 (262144)
I0130 21:53:18.304788 13635 net.cpp:165] Memory required for data: 643301376
I0130 21:53:18.304800 13635 layer_factory.hpp:77] Creating layer bn4b35_branch2c
I0130 21:53:18.304822 13635 net.cpp:100] Creating Layer bn4b35_branch2c
I0130 21:53:18.304831 13635 net.cpp:434] bn4b35_branch2c <- res4b35_branch2c
I0130 21:53:18.304838 13635 net.cpp:395] bn4b35_branch2c -> res4b35_branch2c (in-place)
I0130 21:53:18.305341 13635 net.cpp:150] Setting up bn4b35_branch2c
I0130 21:53:18.305363 13635 net.cpp:157] Top shape: 1 1024 16 16 (262144)
I0130 21:53:18.305371 13635 net.cpp:165] Memory required for data: 644349952
I0130 21:53:18.305393 13635 layer_factory.hpp:77] Creating layer scale4b35_branch2c
I0130 21:53:18.305409 13635 net.cpp:100] Creating Layer scale4b35_branch2c
I0130 21:53:18.305430 13635 net.cpp:434] scale4b35_branch2c <- res4b35_branch2c
I0130 21:53:18.305439 13635 net.cpp:395] scale4b35_branch2c -> res4b35_branch2c (in-place)
I0130 21:53:18.305567 13635 layer_factory.hpp:77] Creating layer scale4b35_branch2c
I0130 21:53:18.305822 13635 net.cpp:150] Setting up scale4b35_branch2c
I0130 21:53:18.305837 13635 net.cpp:157] Top shape: 1 1024 16 16 (262144)
I0130 21:53:18.305841 13635 net.cpp:165] Memory required for data: 645398528
I0130 21:53:18.305850 13635 layer_factory.hpp:77] Creating layer res4b35
I0130 21:53:18.305862 13635 net.cpp:100] Creating Layer res4b35
I0130 21:53:18.305868 13635 net.cpp:434] res4b35 <- res4b34_res4b34_relu_0_split_1
I0130 21:53:18.305874 13635 net.cpp:434] res4b35 <- res4b35_branch2c
I0130 21:53:18.305881 13635 net.cpp:408] res4b35 -> res4b35
I0130 21:53:18.305937 13635 net.cpp:150] Setting up res4b35
I0130 21:53:18.305949 13635 net.cpp:157] Top shape: 1 1024 16 16 (262144)
I0130 21:53:18.305953 13635 net.cpp:165] Memory required for data: 646447104
I0130 21:53:18.305958 13635 layer_factory.hpp:77] Creating layer res4b35_relu
I0130 21:53:18.305969 13635 net.cpp:100] Creating Layer res4b35_relu
I0130 21:53:18.305974 13635 net.cpp:434] res4b35_relu <- res4b35
I0130 21:53:18.305979 13635 net.cpp:395] res4b35_relu -> res4b35 (in-place)
I0130 21:53:18.306607 13635 net.cpp:150] Setting up res4b35_relu
I0130 21:53:18.306627 13635 net.cpp:157] Top shape: 1 1024 16 16 (262144)
I0130 21:53:18.306632 13635 net.cpp:165] Memory required for data: 647495680
I0130 21:53:18.306637 13635 layer_factory.hpp:77] Creating layer res4b35_res4b35_relu_0_split
I0130 21:53:18.306644 13635 net.cpp:100] Creating Layer res4b35_res4b35_relu_0_split
I0130 21:53:18.306655 13635 net.cpp:434] res4b35_res4b35_relu_0_split <- res4b35
I0130 21:53:18.306663 13635 net.cpp:408] res4b35_res4b35_relu_0_split -> res4b35_res4b35_relu_0_split_0
I0130 21:53:18.306675 13635 net.cpp:408] res4b35_res4b35_relu_0_split -> res4b35_res4b35_relu_0_split_1
I0130 21:53:18.306740 13635 net.cpp:150] Setting up res4b35_res4b35_relu_0_split
I0130 21:53:18.306747 13635 net.cpp:157] Top shape: 1 1024 16 16 (262144)
I0130 21:53:18.306752 13635 net.cpp:157] Top shape: 1 1024 16 16 (262144)
I0130 21:53:18.306756 13635 net.cpp:165] Memory required for data: 649592832
I0130 21:53:18.306761 13635 layer_factory.hpp:77] Creating layer res5a_branch1
I0130 21:53:18.306772 13635 net.cpp:100] Creating Layer res5a_branch1
I0130 21:53:18.306777 13635 net.cpp:434] res5a_branch1 <- res4b35_res4b35_relu_0_split_0
I0130 21:53:18.306785 13635 net.cpp:408] res5a_branch1 -> res5a_branch1
I0130 21:53:18.316565 13635 net.cpp:150] Setting up res5a_branch1
I0130 21:53:18.316606 13635 net.cpp:157] Top shape: 1 2048 8 8 (131072)
I0130 21:53:18.316611 13635 net.cpp:165] Memory required for data: 650117120
I0130 21:53:18.316622 13635 layer_factory.hpp:77] Creating layer bn5a_branch1
I0130 21:53:18.316637 13635 net.cpp:100] Creating Layer bn5a_branch1
I0130 21:53:18.316643 13635 net.cpp:434] bn5a_branch1 <- res5a_branch1
I0130 21:53:18.316651 13635 net.cpp:395] bn5a_branch1 -> res5a_branch1 (in-place)
I0130 21:53:18.317185 13635 net.cpp:150] Setting up bn5a_branch1
I0130 21:53:18.317229 13635 net.cpp:157] Top shape: 1 2048 8 8 (131072)
I0130 21:53:18.317239 13635 net.cpp:165] Memory required for data: 650641408
I0130 21:53:18.317282 13635 layer_factory.hpp:77] Creating layer scale5a_branch1
I0130 21:53:18.317308 13635 net.cpp:100] Creating Layer scale5a_branch1
I0130 21:53:18.317315 13635 net.cpp:434] scale5a_branch1 <- res5a_branch1
I0130 21:53:18.317324 13635 net.cpp:395] scale5a_branch1 -> res5a_branch1 (in-place)
I0130 21:53:18.317440 13635 layer_factory.hpp:77] Creating layer scale5a_branch1
I0130 21:53:18.317744 13635 net.cpp:150] Setting up scale5a_branch1
I0130 21:53:18.317760 13635 net.cpp:157] Top shape: 1 2048 8 8 (131072)
I0130 21:53:18.317765 13635 net.cpp:165] Memory required for data: 651165696
I0130 21:53:18.317775 13635 layer_factory.hpp:77] Creating layer res5a_branch2a
I0130 21:53:18.317785 13635 net.cpp:100] Creating Layer res5a_branch2a
I0130 21:53:18.317791 13635 net.cpp:434] res5a_branch2a <- res4b35_res4b35_relu_0_split_1
I0130 21:53:18.317802 13635 net.cpp:408] res5a_branch2a -> res5a_branch2a
I0130 21:53:18.321097 13635 net.cpp:150] Setting up res5a_branch2a
I0130 21:53:18.321128 13635 net.cpp:157] Top shape: 1 512 8 8 (32768)
I0130 21:53:18.321135 13635 net.cpp:165] Memory required for data: 651296768
I0130 21:53:18.321143 13635 layer_factory.hpp:77] Creating layer bn5a_branch2a
I0130 21:53:18.321164 13635 net.cpp:100] Creating Layer bn5a_branch2a
I0130 21:53:18.321171 13635 net.cpp:434] bn5a_branch2a <- res5a_branch2a
I0130 21:53:18.321180 13635 net.cpp:395] bn5a_branch2a -> res5a_branch2a (in-place)
I0130 21:53:18.321611 13635 net.cpp:150] Setting up bn5a_branch2a
I0130 21:53:18.321626 13635 net.cpp:157] Top shape: 1 512 8 8 (32768)
I0130 21:53:18.321631 13635 net.cpp:165] Memory required for data: 651427840
I0130 21:53:18.321660 13635 layer_factory.hpp:77] Creating layer scale5a_branch2a
I0130 21:53:18.321673 13635 net.cpp:100] Creating Layer scale5a_branch2a
I0130 21:53:18.321679 13635 net.cpp:434] scale5a_branch2a <- res5a_branch2a
I0130 21:53:18.321686 13635 net.cpp:395] scale5a_branch2a -> res5a_branch2a (in-place)
I0130 21:53:18.321789 13635 layer_factory.hpp:77] Creating layer scale5a_branch2a
I0130 21:53:18.322002 13635 net.cpp:150] Setting up scale5a_branch2a
I0130 21:53:18.322031 13635 net.cpp:157] Top shape: 1 512 8 8 (32768)
I0130 21:53:18.322037 13635 net.cpp:165] Memory required for data: 651558912
I0130 21:53:18.322046 13635 layer_factory.hpp:77] Creating layer res5a_branch2a_relu
I0130 21:53:18.322053 13635 net.cpp:100] Creating Layer res5a_branch2a_relu
I0130 21:53:18.322058 13635 net.cpp:434] res5a_branch2a_relu <- res5a_branch2a
I0130 21:53:18.322069 13635 net.cpp:395] res5a_branch2a_relu -> res5a_branch2a (in-place)
I0130 21:53:18.322682 13635 net.cpp:150] Setting up res5a_branch2a_relu
I0130 21:53:18.322705 13635 net.cpp:157] Top shape: 1 512 8 8 (32768)
I0130 21:53:18.322712 13635 net.cpp:165] Memory required for data: 651689984
I0130 21:53:18.322721 13635 layer_factory.hpp:77] Creating layer res5a_branch2b
I0130 21:53:18.322739 13635 net.cpp:100] Creating Layer res5a_branch2b
I0130 21:53:18.322748 13635 net.cpp:434] res5a_branch2b <- res5a_branch2a
I0130 21:53:18.322762 13635 net.cpp:408] res5a_branch2b -> res5a_branch2b
I0130 21:53:18.332514 13635 net.cpp:150] Setting up res5a_branch2b
I0130 21:53:18.332550 13635 net.cpp:157] Top shape: 1 512 8 8 (32768)
I0130 21:53:18.332556 13635 net.cpp:165] Memory required for data: 651821056
I0130 21:53:18.332568 13635 layer_factory.hpp:77] Creating layer bn5a_branch2b
I0130 21:53:18.332581 13635 net.cpp:100] Creating Layer bn5a_branch2b
I0130 21:53:18.332594 13635 net.cpp:434] bn5a_branch2b <- res5a_branch2b
I0130 21:53:18.332603 13635 net.cpp:395] bn5a_branch2b -> res5a_branch2b (in-place)
I0130 21:53:18.333011 13635 net.cpp:150] Setting up bn5a_branch2b
I0130 21:53:18.333041 13635 net.cpp:157] Top shape: 1 512 8 8 (32768)
I0130 21:53:18.333046 13635 net.cpp:165] Memory required for data: 651952128
I0130 21:53:18.333057 13635 layer_factory.hpp:77] Creating layer scale5a_branch2b
I0130 21:53:18.333067 13635 net.cpp:100] Creating Layer scale5a_branch2b
I0130 21:53:18.333076 13635 net.cpp:434] scale5a_branch2b <- res5a_branch2b
I0130 21:53:18.333082 13635 net.cpp:395] scale5a_branch2b -> res5a_branch2b (in-place)
I0130 21:53:18.333192 13635 layer_factory.hpp:77] Creating layer scale5a_branch2b
I0130 21:53:18.333410 13635 net.cpp:150] Setting up scale5a_branch2b
I0130 21:53:18.333421 13635 net.cpp:157] Top shape: 1 512 8 8 (32768)
I0130 21:53:18.333425 13635 net.cpp:165] Memory required for data: 652083200
I0130 21:53:18.333433 13635 layer_factory.hpp:77] Creating layer res5a_branch2b_relu
I0130 21:53:18.333441 13635 net.cpp:100] Creating Layer res5a_branch2b_relu
I0130 21:53:18.333446 13635 net.cpp:434] res5a_branch2b_relu <- res5a_branch2b
I0130 21:53:18.333453 13635 net.cpp:395] res5a_branch2b_relu -> res5a_branch2b (in-place)
I0130 21:53:18.333742 13635 net.cpp:150] Setting up res5a_branch2b_relu
I0130 21:53:18.333756 13635 net.cpp:157] Top shape: 1 512 8 8 (32768)
I0130 21:53:18.333760 13635 net.cpp:165] Memory required for data: 652214272
I0130 21:53:18.333765 13635 layer_factory.hpp:77] Creating layer res5a_branch2c
I0130 21:53:18.333777 13635 net.cpp:100] Creating Layer res5a_branch2c
I0130 21:53:18.333783 13635 net.cpp:434] res5a_branch2c <- res5a_branch2b
I0130 21:53:18.333791 13635 net.cpp:408] res5a_branch2c -> res5a_branch2c
I0130 21:53:18.339429 13635 net.cpp:150] Setting up res5a_branch2c
I0130 21:53:18.339469 13635 net.cpp:157] Top shape: 1 2048 8 8 (131072)
I0130 21:53:18.339475 13635 net.cpp:165] Memory required for data: 652738560
I0130 21:53:18.339486 13635 layer_factory.hpp:77] Creating layer bn5a_branch2c
I0130 21:53:18.339504 13635 net.cpp:100] Creating Layer bn5a_branch2c
I0130 21:53:18.339512 13635 net.cpp:434] bn5a_branch2c <- res5a_branch2c
I0130 21:53:18.339527 13635 net.cpp:395] bn5a_branch2c -> res5a_branch2c (in-place)
I0130 21:53:18.339890 13635 net.cpp:150] Setting up bn5a_branch2c
I0130 21:53:18.339901 13635 net.cpp:157] Top shape: 1 2048 8 8 (131072)
I0130 21:53:18.339905 13635 net.cpp:165] Memory required for data: 653262848
I0130 21:53:18.339915 13635 layer_factory.hpp:77] Creating layer scale5a_branch2c
I0130 21:53:18.339925 13635 net.cpp:100] Creating Layer scale5a_branch2c
I0130 21:53:18.339929 13635 net.cpp:434] scale5a_branch2c <- res5a_branch2c
I0130 21:53:18.339936 13635 net.cpp:395] scale5a_branch2c -> res5a_branch2c (in-place)
I0130 21:53:18.340016 13635 layer_factory.hpp:77] Creating layer scale5a_branch2c
I0130 21:53:18.340226 13635 net.cpp:150] Setting up scale5a_branch2c
I0130 21:53:18.340240 13635 net.cpp:157] Top shape: 1 2048 8 8 (131072)
I0130 21:53:18.340245 13635 net.cpp:165] Memory required for data: 653787136
I0130 21:53:18.340252 13635 layer_factory.hpp:77] Creating layer res5a
I0130 21:53:18.340260 13635 net.cpp:100] Creating Layer res5a
I0130 21:53:18.340265 13635 net.cpp:434] res5a <- res5a_branch1
I0130 21:53:18.340270 13635 net.cpp:434] res5a <- res5a_branch2c
I0130 21:53:18.340276 13635 net.cpp:408] res5a -> res5a
I0130 21:53:18.340318 13635 net.cpp:150] Setting up res5a
I0130 21:53:18.340329 13635 net.cpp:157] Top shape: 1 2048 8 8 (131072)
I0130 21:53:18.340333 13635 net.cpp:165] Memory required for data: 654311424
I0130 21:53:18.340337 13635 layer_factory.hpp:77] Creating layer res5a_relu
I0130 21:53:18.340344 13635 net.cpp:100] Creating Layer res5a_relu
I0130 21:53:18.340351 13635 net.cpp:434] res5a_relu <- res5a
I0130 21:53:18.340356 13635 net.cpp:395] res5a_relu -> res5a (in-place)
I0130 21:53:18.340888 13635 net.cpp:150] Setting up res5a_relu
I0130 21:53:18.340911 13635 net.cpp:157] Top shape: 1 2048 8 8 (131072)
I0130 21:53:18.340915 13635 net.cpp:165] Memory required for data: 654835712
I0130 21:53:18.340926 13635 layer_factory.hpp:77] Creating layer res5a_res5a_relu_0_split
I0130 21:53:18.340935 13635 net.cpp:100] Creating Layer res5a_res5a_relu_0_split
I0130 21:53:18.340946 13635 net.cpp:434] res5a_res5a_relu_0_split <- res5a
I0130 21:53:18.340953 13635 net.cpp:408] res5a_res5a_relu_0_split -> res5a_res5a_relu_0_split_0
I0130 21:53:18.340968 13635 net.cpp:408] res5a_res5a_relu_0_split -> res5a_res5a_relu_0_split_1
I0130 21:53:18.341040 13635 net.cpp:150] Setting up res5a_res5a_relu_0_split
I0130 21:53:18.341050 13635 net.cpp:157] Top shape: 1 2048 8 8 (131072)
I0130 21:53:18.341056 13635 net.cpp:157] Top shape: 1 2048 8 8 (131072)
I0130 21:53:18.341059 13635 net.cpp:165] Memory required for data: 655884288
I0130 21:53:18.341064 13635 layer_factory.hpp:77] Creating layer res5b_branch2a
I0130 21:53:18.341075 13635 net.cpp:100] Creating Layer res5b_branch2a
I0130 21:53:18.341080 13635 net.cpp:434] res5b_branch2a <- res5a_res5a_relu_0_split_0
I0130 21:53:18.341086 13635 net.cpp:408] res5b_branch2a -> res5b_branch2a
I0130 21:53:18.345722 13635 net.cpp:150] Setting up res5b_branch2a
I0130 21:53:18.345760 13635 net.cpp:157] Top shape: 1 512 8 8 (32768)
I0130 21:53:18.345767 13635 net.cpp:165] Memory required for data: 656015360
I0130 21:53:18.345777 13635 layer_factory.hpp:77] Creating layer bn5b_branch2a
I0130 21:53:18.345795 13635 net.cpp:100] Creating Layer bn5b_branch2a
I0130 21:53:18.345803 13635 net.cpp:434] bn5b_branch2a <- res5b_branch2a
I0130 21:53:18.345810 13635 net.cpp:395] bn5b_branch2a -> res5b_branch2a (in-place)
I0130 21:53:18.346145 13635 net.cpp:150] Setting up bn5b_branch2a
I0130 21:53:18.346159 13635 net.cpp:157] Top shape: 1 512 8 8 (32768)
I0130 21:53:18.346163 13635 net.cpp:165] Memory required for data: 656146432
I0130 21:53:18.346174 13635 layer_factory.hpp:77] Creating layer scale5b_branch2a
I0130 21:53:18.346182 13635 net.cpp:100] Creating Layer scale5b_branch2a
I0130 21:53:18.346187 13635 net.cpp:434] scale5b_branch2a <- res5b_branch2a
I0130 21:53:18.346194 13635 net.cpp:395] scale5b_branch2a -> res5b_branch2a (in-place)
I0130 21:53:18.346272 13635 layer_factory.hpp:77] Creating layer scale5b_branch2a
I0130 21:53:18.346436 13635 net.cpp:150] Setting up scale5b_branch2a
I0130 21:53:18.346447 13635 net.cpp:157] Top shape: 1 512 8 8 (32768)
I0130 21:53:18.346451 13635 net.cpp:165] Memory required for data: 656277504
I0130 21:53:18.346459 13635 layer_factory.hpp:77] Creating layer res5b_branch2a_relu
I0130 21:53:18.346467 13635 net.cpp:100] Creating Layer res5b_branch2a_relu
I0130 21:53:18.346472 13635 net.cpp:434] res5b_branch2a_relu <- res5b_branch2a
I0130 21:53:18.346478 13635 net.cpp:395] res5b_branch2a_relu -> res5b_branch2a (in-place)
I0130 21:53:18.346973 13635 net.cpp:150] Setting up res5b_branch2a_relu
I0130 21:53:18.346989 13635 net.cpp:157] Top shape: 1 512 8 8 (32768)
I0130 21:53:18.346994 13635 net.cpp:165] Memory required for data: 656408576
I0130 21:53:18.346998 13635 layer_factory.hpp:77] Creating layer res5b_branch2b
I0130 21:53:18.347010 13635 net.cpp:100] Creating Layer res5b_branch2b
I0130 21:53:18.347017 13635 net.cpp:434] res5b_branch2b <- res5b_branch2a
I0130 21:53:18.347023 13635 net.cpp:408] res5b_branch2b -> res5b_branch2b
I0130 21:53:18.356362 13635 net.cpp:150] Setting up res5b_branch2b
I0130 21:53:18.356398 13635 net.cpp:157] Top shape: 1 512 8 8 (32768)
I0130 21:53:18.356403 13635 net.cpp:165] Memory required for data: 656539648
I0130 21:53:18.356415 13635 layer_factory.hpp:77] Creating layer bn5b_branch2b
I0130 21:53:18.356436 13635 net.cpp:100] Creating Layer bn5b_branch2b
I0130 21:53:18.356443 13635 net.cpp:434] bn5b_branch2b <- res5b_branch2b
I0130 21:53:18.356451 13635 net.cpp:395] bn5b_branch2b -> res5b_branch2b (in-place)
I0130 21:53:18.356750 13635 net.cpp:150] Setting up bn5b_branch2b
I0130 21:53:18.356761 13635 net.cpp:157] Top shape: 1 512 8 8 (32768)
I0130 21:53:18.356766 13635 net.cpp:165] Memory required for data: 656670720
I0130 21:53:18.356776 13635 layer_factory.hpp:77] Creating layer scale5b_branch2b
I0130 21:53:18.356784 13635 net.cpp:100] Creating Layer scale5b_branch2b
I0130 21:53:18.356789 13635 net.cpp:434] scale5b_branch2b <- res5b_branch2b
I0130 21:53:18.356797 13635 net.cpp:395] scale5b_branch2b -> res5b_branch2b (in-place)
I0130 21:53:18.356880 13635 layer_factory.hpp:77] Creating layer scale5b_branch2b
I0130 21:53:18.357048 13635 net.cpp:150] Setting up scale5b_branch2b
I0130 21:53:18.357060 13635 net.cpp:157] Top shape: 1 512 8 8 (32768)
I0130 21:53:18.357064 13635 net.cpp:165] Memory required for data: 656801792
I0130 21:53:18.357071 13635 layer_factory.hpp:77] Creating layer res5b_branch2b_relu
I0130 21:53:18.357079 13635 net.cpp:100] Creating Layer res5b_branch2b_relu
I0130 21:53:18.357084 13635 net.cpp:434] res5b_branch2b_relu <- res5b_branch2b
I0130 21:53:18.357089 13635 net.cpp:395] res5b_branch2b_relu -> res5b_branch2b (in-place)
I0130 21:53:18.357367 13635 net.cpp:150] Setting up res5b_branch2b_relu
I0130 21:53:18.357380 13635 net.cpp:157] Top shape: 1 512 8 8 (32768)
I0130 21:53:18.357385 13635 net.cpp:165] Memory required for data: 656932864
I0130 21:53:18.357389 13635 layer_factory.hpp:77] Creating layer res5b_branch2c
I0130 21:53:18.357401 13635 net.cpp:100] Creating Layer res5b_branch2c
I0130 21:53:18.357406 13635 net.cpp:434] res5b_branch2c <- res5b_branch2b
I0130 21:53:18.357415 13635 net.cpp:408] res5b_branch2c -> res5b_branch2c
I0130 21:53:18.361384 13635 net.cpp:150] Setting up res5b_branch2c
I0130 21:53:18.361410 13635 net.cpp:157] Top shape: 1 2048 8 8 (131072)
I0130 21:53:18.361423 13635 net.cpp:165] Memory required for data: 657457152
I0130 21:53:18.361431 13635 layer_factory.hpp:77] Creating layer bn5b_branch2c
I0130 21:53:18.361441 13635 net.cpp:100] Creating Layer bn5b_branch2c
I0130 21:53:18.361449 13635 net.cpp:434] bn5b_branch2c <- res5b_branch2c
I0130 21:53:18.361459 13635 net.cpp:395] bn5b_branch2c -> res5b_branch2c (in-place)
I0130 21:53:18.361759 13635 net.cpp:150] Setting up bn5b_branch2c
I0130 21:53:18.361771 13635 net.cpp:157] Top shape: 1 2048 8 8 (131072)
I0130 21:53:18.361776 13635 net.cpp:165] Memory required for data: 657981440
I0130 21:53:18.361786 13635 layer_factory.hpp:77] Creating layer scale5b_branch2c
I0130 21:53:18.361794 13635 net.cpp:100] Creating Layer scale5b_branch2c
I0130 21:53:18.361799 13635 net.cpp:434] scale5b_branch2c <- res5b_branch2c
I0130 21:53:18.361804 13635 net.cpp:395] scale5b_branch2c -> res5b_branch2c (in-place)
I0130 21:53:18.361881 13635 layer_factory.hpp:77] Creating layer scale5b_branch2c
I0130 21:53:18.362057 13635 net.cpp:150] Setting up scale5b_branch2c
I0130 21:53:18.362069 13635 net.cpp:157] Top shape: 1 2048 8 8 (131072)
I0130 21:53:18.362073 13635 net.cpp:165] Memory required for data: 658505728
I0130 21:53:18.362081 13635 layer_factory.hpp:77] Creating layer res5b
I0130 21:53:18.362090 13635 net.cpp:100] Creating Layer res5b
I0130 21:53:18.362095 13635 net.cpp:434] res5b <- res5a_res5a_relu_0_split_1
I0130 21:53:18.362102 13635 net.cpp:434] res5b <- res5b_branch2c
I0130 21:53:18.362107 13635 net.cpp:408] res5b -> res5b
I0130 21:53:18.362138 13635 net.cpp:150] Setting up res5b
I0130 21:53:18.362144 13635 net.cpp:157] Top shape: 1 2048 8 8 (131072)
I0130 21:53:18.362149 13635 net.cpp:165] Memory required for data: 659030016
I0130 21:53:18.362152 13635 layer_factory.hpp:77] Creating layer res5b_relu
I0130 21:53:18.362159 13635 net.cpp:100] Creating Layer res5b_relu
I0130 21:53:18.362164 13635 net.cpp:434] res5b_relu <- res5b
I0130 21:53:18.362169 13635 net.cpp:395] res5b_relu -> res5b (in-place)
I0130 21:53:18.362623 13635 net.cpp:150] Setting up res5b_relu
I0130 21:53:18.362640 13635 net.cpp:157] Top shape: 1 2048 8 8 (131072)
I0130 21:53:18.362644 13635 net.cpp:165] Memory required for data: 659554304
I0130 21:53:18.362649 13635 layer_factory.hpp:77] Creating layer res5b_res5b_relu_0_split
I0130 21:53:18.362658 13635 net.cpp:100] Creating Layer res5b_res5b_relu_0_split
I0130 21:53:18.362663 13635 net.cpp:434] res5b_res5b_relu_0_split <- res5b
I0130 21:53:18.362671 13635 net.cpp:408] res5b_res5b_relu_0_split -> res5b_res5b_relu_0_split_0
I0130 21:53:18.362681 13635 net.cpp:408] res5b_res5b_relu_0_split -> res5b_res5b_relu_0_split_1
I0130 21:53:18.362730 13635 net.cpp:150] Setting up res5b_res5b_relu_0_split
I0130 21:53:18.362737 13635 net.cpp:157] Top shape: 1 2048 8 8 (131072)
I0130 21:53:18.362742 13635 net.cpp:157] Top shape: 1 2048 8 8 (131072)
I0130 21:53:18.362746 13635 net.cpp:165] Memory required for data: 660602880
I0130 21:53:18.362751 13635 layer_factory.hpp:77] Creating layer res5c_branch2a
I0130 21:53:18.362761 13635 net.cpp:100] Creating Layer res5c_branch2a
I0130 21:53:18.362764 13635 net.cpp:434] res5c_branch2a <- res5b_res5b_relu_0_split_0
I0130 21:53:18.362773 13635 net.cpp:408] res5c_branch2a -> res5c_branch2a
I0130 21:53:18.367579 13635 net.cpp:150] Setting up res5c_branch2a
I0130 21:53:18.367614 13635 net.cpp:157] Top shape: 1 512 8 8 (32768)
I0130 21:53:18.367620 13635 net.cpp:165] Memory required for data: 660733952
I0130 21:53:18.367630 13635 layer_factory.hpp:77] Creating layer bn5c_branch2a
I0130 21:53:18.367642 13635 net.cpp:100] Creating Layer bn5c_branch2a
I0130 21:53:18.367650 13635 net.cpp:434] bn5c_branch2a <- res5c_branch2a
I0130 21:53:18.367656 13635 net.cpp:395] bn5c_branch2a -> res5c_branch2a (in-place)
I0130 21:53:18.367944 13635 net.cpp:150] Setting up bn5c_branch2a
I0130 21:53:18.367956 13635 net.cpp:157] Top shape: 1 512 8 8 (32768)
I0130 21:53:18.367961 13635 net.cpp:165] Memory required for data: 660865024
I0130 21:53:18.367970 13635 layer_factory.hpp:77] Creating layer scale5c_branch2a
I0130 21:53:18.367979 13635 net.cpp:100] Creating Layer scale5c_branch2a
I0130 21:53:18.367983 13635 net.cpp:434] scale5c_branch2a <- res5c_branch2a
I0130 21:53:18.367991 13635 net.cpp:395] scale5c_branch2a -> res5c_branch2a (in-place)
I0130 21:53:18.368063 13635 layer_factory.hpp:77] Creating layer scale5c_branch2a
I0130 21:53:18.368234 13635 net.cpp:150] Setting up scale5c_branch2a
I0130 21:53:18.368245 13635 net.cpp:157] Top shape: 1 512 8 8 (32768)
I0130 21:53:18.368249 13635 net.cpp:165] Memory required for data: 660996096
I0130 21:53:18.368257 13635 layer_factory.hpp:77] Creating layer res5c_branch2a_relu
I0130 21:53:18.368264 13635 net.cpp:100] Creating Layer res5c_branch2a_relu
I0130 21:53:18.368269 13635 net.cpp:434] res5c_branch2a_relu <- res5c_branch2a
I0130 21:53:18.368274 13635 net.cpp:395] res5c_branch2a_relu -> res5c_branch2a (in-place)
I0130 21:53:18.368754 13635 net.cpp:150] Setting up res5c_branch2a_relu
I0130 21:53:18.368770 13635 net.cpp:157] Top shape: 1 512 8 8 (32768)
I0130 21:53:18.368775 13635 net.cpp:165] Memory required for data: 661127168
I0130 21:53:18.368780 13635 layer_factory.hpp:77] Creating layer res5c_branch2b
I0130 21:53:18.368793 13635 net.cpp:100] Creating Layer res5c_branch2b
I0130 21:53:18.368798 13635 net.cpp:434] res5c_branch2b <- res5c_branch2a
I0130 21:53:18.368805 13635 net.cpp:408] res5c_branch2b -> res5c_branch2b
I0130 21:53:18.377259 13635 net.cpp:150] Setting up res5c_branch2b
I0130 21:53:18.377301 13635 net.cpp:157] Top shape: 1 512 8 8 (32768)
I0130 21:53:18.377310 13635 net.cpp:165] Memory required for data: 661258240
I0130 21:53:18.377324 13635 layer_factory.hpp:77] Creating layer bn5c_branch2b
I0130 21:53:18.377342 13635 net.cpp:100] Creating Layer bn5c_branch2b
I0130 21:53:18.377354 13635 net.cpp:434] bn5c_branch2b <- res5c_branch2b
I0130 21:53:18.377374 13635 net.cpp:395] bn5c_branch2b -> res5c_branch2b (in-place)
I0130 21:53:18.377707 13635 net.cpp:150] Setting up bn5c_branch2b
I0130 21:53:18.377723 13635 net.cpp:157] Top shape: 1 512 8 8 (32768)
I0130 21:53:18.377732 13635 net.cpp:165] Memory required for data: 661389312
I0130 21:53:18.377748 13635 layer_factory.hpp:77] Creating layer scale5c_branch2b
I0130 21:53:18.377768 13635 net.cpp:100] Creating Layer scale5c_branch2b
I0130 21:53:18.377780 13635 net.cpp:434] scale5c_branch2b <- res5c_branch2b
I0130 21:53:18.377791 13635 net.cpp:395] scale5c_branch2b -> res5c_branch2b (in-place)
I0130 21:53:18.377884 13635 layer_factory.hpp:77] Creating layer scale5c_branch2b
I0130 21:53:18.378070 13635 net.cpp:150] Setting up scale5c_branch2b
I0130 21:53:18.378087 13635 net.cpp:157] Top shape: 1 512 8 8 (32768)
I0130 21:53:18.378093 13635 net.cpp:165] Memory required for data: 661520384
I0130 21:53:18.378108 13635 layer_factory.hpp:77] Creating layer res5c_branch2b_relu
I0130 21:53:18.378119 13635 net.cpp:100] Creating Layer res5c_branch2b_relu
I0130 21:53:18.378129 13635 net.cpp:434] res5c_branch2b_relu <- res5c_branch2b
I0130 21:53:18.378141 13635 net.cpp:395] res5c_branch2b_relu -> res5c_branch2b (in-place)
I0130 21:53:18.378432 13635 net.cpp:150] Setting up res5c_branch2b_relu
I0130 21:53:18.378449 13635 net.cpp:157] Top shape: 1 512 8 8 (32768)
I0130 21:53:18.378458 13635 net.cpp:165] Memory required for data: 661651456
I0130 21:53:18.378465 13635 layer_factory.hpp:77] Creating layer res5c_branch2c
I0130 21:53:18.378484 13635 net.cpp:100] Creating Layer res5c_branch2c
I0130 21:53:18.378496 13635 net.cpp:434] res5c_branch2c <- res5c_branch2b
I0130 21:53:18.378511 13635 net.cpp:408] res5c_branch2c -> res5c_branch2c
I0130 21:53:18.382532 13635 net.cpp:150] Setting up res5c_branch2c
I0130 21:53:18.382588 13635 net.cpp:157] Top shape: 1 2048 8 8 (131072)
I0130 21:53:18.382599 13635 net.cpp:165] Memory required for data: 662175744
I0130 21:53:18.382616 13635 layer_factory.hpp:77] Creating layer bn5c_branch2c
I0130 21:53:18.382664 13635 net.cpp:100] Creating Layer bn5c_branch2c
I0130 21:53:18.382691 13635 net.cpp:434] bn5c_branch2c <- res5c_branch2c
I0130 21:53:18.382705 13635 net.cpp:395] bn5c_branch2c -> res5c_branch2c (in-place)
I0130 21:53:18.383138 13635 net.cpp:150] Setting up bn5c_branch2c
I0130 21:53:18.383157 13635 net.cpp:157] Top shape: 1 2048 8 8 (131072)
I0130 21:53:18.383164 13635 net.cpp:165] Memory required for data: 662700032
I0130 21:53:18.383182 13635 layer_factory.hpp:77] Creating layer scale5c_branch2c
I0130 21:53:18.383196 13635 net.cpp:100] Creating Layer scale5c_branch2c
I0130 21:53:18.383208 13635 net.cpp:434] scale5c_branch2c <- res5c_branch2c
I0130 21:53:18.383229 13635 net.cpp:395] scale5c_branch2c -> res5c_branch2c (in-place)
I0130 21:53:18.383322 13635 layer_factory.hpp:77] Creating layer scale5c_branch2c
I0130 21:53:18.383621 13635 net.cpp:150] Setting up scale5c_branch2c
I0130 21:53:18.383640 13635 net.cpp:157] Top shape: 1 2048 8 8 (131072)
I0130 21:53:18.383643 13635 net.cpp:165] Memory required for data: 663224320
I0130 21:53:18.383652 13635 layer_factory.hpp:77] Creating layer res5c
I0130 21:53:18.383661 13635 net.cpp:100] Creating Layer res5c
I0130 21:53:18.383666 13635 net.cpp:434] res5c <- res5b_res5b_relu_0_split_1
I0130 21:53:18.383672 13635 net.cpp:434] res5c <- res5c_branch2c
I0130 21:53:18.383678 13635 net.cpp:408] res5c -> res5c
I0130 21:53:18.383710 13635 net.cpp:150] Setting up res5c
I0130 21:53:18.383718 13635 net.cpp:157] Top shape: 1 2048 8 8 (131072)
I0130 21:53:18.383723 13635 net.cpp:165] Memory required for data: 663748608
I0130 21:53:18.383726 13635 layer_factory.hpp:77] Creating layer res5c_relu
I0130 21:53:18.383734 13635 net.cpp:100] Creating Layer res5c_relu
I0130 21:53:18.383739 13635 net.cpp:434] res5c_relu <- res5c
I0130 21:53:18.383744 13635 net.cpp:395] res5c_relu -> res5c (in-place)
I0130 21:53:18.384239 13635 net.cpp:150] Setting up res5c_relu
I0130 21:53:18.384256 13635 net.cpp:157] Top shape: 1 2048 8 8 (131072)
I0130 21:53:18.384261 13635 net.cpp:165] Memory required for data: 664272896
I0130 21:53:18.384266 13635 layer_factory.hpp:77] Creating layer res5c_res5c_relu_0_split
I0130 21:53:18.384275 13635 net.cpp:100] Creating Layer res5c_res5c_relu_0_split
I0130 21:53:18.384280 13635 net.cpp:434] res5c_res5c_relu_0_split <- res5c
I0130 21:53:18.384287 13635 net.cpp:408] res5c_res5c_relu_0_split -> res5c_res5c_relu_0_split_0
I0130 21:53:18.384295 13635 net.cpp:408] res5c_res5c_relu_0_split -> res5c_res5c_relu_0_split_1
I0130 21:53:18.384347 13635 net.cpp:150] Setting up res5c_res5c_relu_0_split
I0130 21:53:18.384354 13635 net.cpp:157] Top shape: 1 2048 8 8 (131072)
I0130 21:53:18.384361 13635 net.cpp:157] Top shape: 1 2048 8 8 (131072)
I0130 21:53:18.384363 13635 net.cpp:165] Memory required for data: 665321472
I0130 21:53:18.384368 13635 layer_factory.hpp:77] Creating layer score_fr_sem
I0130 21:53:18.384382 13635 net.cpp:100] Creating Layer score_fr_sem
I0130 21:53:18.384387 13635 net.cpp:434] score_fr_sem <- res5c_res5c_relu_0_split_0
I0130 21:53:18.384397 13635 net.cpp:408] score_fr_sem -> score_fr_sem
I0130 21:53:18.389757 13635 net.cpp:150] Setting up score_fr_sem
I0130 21:53:18.389801 13635 net.cpp:157] Top shape: 1 33 8 8 (2112)
I0130 21:53:18.389807 13635 net.cpp:165] Memory required for data: 665329920
I0130 21:53:18.389819 13635 layer_factory.hpp:77] Creating layer upscore_sem
I0130 21:53:18.389839 13635 net.cpp:100] Creating Layer upscore_sem
I0130 21:53:18.389847 13635 net.cpp:434] upscore_sem <- score_fr_sem
I0130 21:53:18.389871 13635 net.cpp:408] upscore_sem -> upscore_sem
I0130 21:53:18.404795 13635 net.cpp:150] Setting up upscore_sem
I0130 21:53:18.404839 13635 net.cpp:157] Top shape: 1 33 288 288 (2737152)
I0130 21:53:18.404844 13635 net.cpp:165] Memory required for data: 676278528
I0130 21:53:18.404891 13635 layer_factory.hpp:77] Creating layer score_sem
I0130 21:53:18.404924 13635 net.cpp:100] Creating Layer score_sem
I0130 21:53:18.404934 13635 net.cpp:434] score_sem <- upscore_sem
I0130 21:53:18.404942 13635 net.cpp:434] score_sem <- data_data_0_split_1
I0130 21:53:18.404949 13635 net.cpp:408] score_sem -> score_sem
I0130 21:53:18.405019 13635 net.cpp:150] Setting up score_sem
I0130 21:53:18.405031 13635 net.cpp:157] Top shape: 1 33 256 256 (2162688)
I0130 21:53:18.405036 13635 net.cpp:165] Memory required for data: 684929280
I0130 21:53:18.405041 13635 layer_factory.hpp:77] Creating layer loss
I0130 21:53:18.405051 13635 net.cpp:100] Creating Layer loss
I0130 21:53:18.405068 13635 net.cpp:434] loss <- score_sem
I0130 21:53:18.405076 13635 net.cpp:434] loss <- sem
I0130 21:53:18.405083 13635 net.cpp:408] loss -> loss
I0130 21:53:18.405098 13635 layer_factory.hpp:77] Creating layer loss
I0130 21:53:18.412621 13635 net.cpp:150] Setting up loss
I0130 21:53:18.412654 13635 net.cpp:157] Top shape: (1)
I0130 21:53:18.412685 13635 net.cpp:160]     with loss weight 1
I0130 21:53:18.412705 13635 net.cpp:165] Memory required for data: 684929284
I0130 21:53:18.412729 13635 layer_factory.hpp:77] Creating layer score_fr_geo
I0130 21:53:18.412773 13635 net.cpp:100] Creating Layer score_fr_geo
I0130 21:53:18.412784 13635 net.cpp:434] score_fr_geo <- res5c_res5c_relu_0_split_1
I0130 21:53:18.412797 13635 net.cpp:408] score_fr_geo -> score_fr_geo
I0130 21:53:18.415513 13635 net.cpp:150] Setting up score_fr_geo
I0130 21:53:18.415629 13635 net.cpp:157] Top shape: 1 3 8 8 (192)
I0130 21:53:18.415666 13635 net.cpp:165] Memory required for data: 684930052
I0130 21:53:18.415707 13635 layer_factory.hpp:77] Creating layer upscore_geo
I0130 21:53:18.415755 13635 net.cpp:100] Creating Layer upscore_geo
I0130 21:53:18.415791 13635 net.cpp:434] upscore_geo <- score_fr_geo
I0130 21:53:18.415854 13635 net.cpp:408] upscore_geo -> upscore_geo
I0130 21:53:18.416323 13635 net.cpp:150] Setting up upscore_geo
I0130 21:53:18.416340 13635 net.cpp:157] Top shape: 1 3 288 288 (248832)
I0130 21:53:18.416344 13635 net.cpp:165] Memory required for data: 685925380
I0130 21:53:18.416352 13635 layer_factory.hpp:77] Creating layer score_geo
I0130 21:53:18.416366 13635 net.cpp:100] Creating Layer score_geo
I0130 21:53:18.416373 13635 net.cpp:434] score_geo <- upscore_geo
I0130 21:53:18.416380 13635 net.cpp:434] score_geo <- data_data_0_split_2
I0130 21:53:18.416388 13635 net.cpp:408] score_geo -> score_geo
I0130 21:53:18.416419 13635 net.cpp:150] Setting up score_geo
I0130 21:53:18.416425 13635 net.cpp:157] Top shape: 1 3 256 256 (196608)
I0130 21:53:18.416429 13635 net.cpp:165] Memory required for data: 686711812
I0130 21:53:18.416434 13635 layer_factory.hpp:77] Creating layer loss_geo
I0130 21:53:18.416446 13635 net.cpp:100] Creating Layer loss_geo
I0130 21:53:18.416451 13635 net.cpp:434] loss_geo <- score_geo
I0130 21:53:18.416456 13635 net.cpp:434] loss_geo <- geo
I0130 21:53:18.416462 13635 net.cpp:408] loss_geo -> loss_geo
…
