…
snapshot_prefix: "log1"
test_initialization: false
average_loss: 20
iter_size: 1
I0212 18:49:30.892933 14329 solver.cpp:81] Creating training net from train_net file: trainval.prototxt
I0212 18:49:30.894623 14329 net.cpp:58] Initializing net from parameters: 
state {
  phase: TRAIN
}
layer {
  name: "data"
  type: "Python"
  top: "data"
  top: "sem"
  top: "geo"
  python_param {
    module: "siftflow_layers_distillation"
    layer: "SIFTFlowSegDataLayer"
    param_str: "{\'siftflow_dir\': \'../data/sift-flow\', \'seed\': 1337, \'split\': \'trainval\'}"
  }
}
layer {
  name: "conv1_1"
  type: "Convolution"
  bottom: "data"
  top: "conv1_1"
  param {
    lr_mult: 1
    decay_mult: 1
  }
  param {
    lr_mult: 2
    decay_mult: 0
  }
  convolution_param {
    num_output: 64
    pad: 100
    kernel_size: 3
    stride: 1
  }
}
layer {
  name: "relu1_1"
  type: "ReLU"
  bottom: "conv1_1"
  top: "conv1_1"
}
layer {
  name: "conv1_2"
  type: "Convolution"
  bottom: "conv1_1"
  top: "conv1_2"
  param {
    lr_mult: 1
    decay_mult: 1
  }
  param {
    lr_mult: 2
    decay_mult: 0
  }
  convolution_param {
    num_output: 64
    pad: 1
    kernel_size: 3
    stride: 1
  }
}
layer {
  name: "relu1_2"
  type: "ReLU"
  bottom: "conv1_2"
  top: "conv1_2"
}
layer {
  name: "pool1"
  type: "Pooling"
  bottom: "conv1_2"
  top: "pool1"
  pooling_param {
    pool: MAX
    kernel_size: 2
    stride: 2
  }
}
layer {
  name: "conv2_1"
  type: "Convolution"
  bottom: "pool1"
  top: "conv2_1"
  param {
    lr_mult: 1
    decay_mult: 1
  }
  param {
    lr_mult: 2
    decay_mult: 0
  }
  convolution_param {
    num_output: 128
    pad: 1
    kernel_size: 3
    stride: 1
  }
}
layer {
  name: "relu2_1"
  type: "ReLU"
  bottom: "conv2_1"
  top: "conv2_1"
}
layer {
  name: "conv2_2"
  type: "Convolution"
  bottom: "conv2_1"
  top: "conv2_2"
  param {
    lr_mult: 1
    decay_mult: 1
  }
  param {
    lr_mult: 2
    decay_mult: 0
  }
  convolution_param {
    num_output: 128
    pad: 1
    kernel_size: 3
    stride: 1
  }
}
layer {
  name: "relu2_2"
  type: "ReLU"
  bottom: "conv2_2"
  top: "conv2_2"
}
layer {
  name: "pool2"
  type: "Pooling"
  bottom: "conv2_2"
  top: "pool2"
  pooling_param {
    pool: MAX
    kernel_size: 2
    stride: 2
  }
}
layer {
  name: "conv3_1"
  type: "Convolution"
  bottom: "pool2"
  top: "conv3_1"
  param {
    lr_mult: 1
    decay_mult: 1
  }
  param {
    lr_mult: 2
    decay_mult: 0
  }
  convolution_param {
    num_output: 256
    pad: 1
    kernel_size: 3
    stride: 1
  }
}
layer {
  name: "relu3_1"
  type: "ReLU"
  bottom: "conv3_1"
  top: "conv3_1"
}
layer {
  name: "conv3_2"
  type: "Convolution"
  bottom: "conv3_1"
  top: "conv3_2"
  param {
    lr_mult: 1
    decay_mult: 1
  }
  param {
    lr_mult: 2
    decay_mult: 0
  }
  convolution_param {
    num_output: 256
    pad: 1
    kernel_size: 3
    stride: 1
  }
}
layer {
  name: "relu3_2"
  type: "ReLU"
  bottom: "conv3_2"
  top: "conv3_2"
}
layer {
  name: "conv3_3"
  type: "Convolution"
  bottom: "conv3_2"
  top: "conv3_3"
  param {
    lr_mult: 1
    decay_mult: 1
  }
  param {
    lr_mult: 2
    decay_mult: 0
  }
  convolution_param {
    num_output: 256
    pad: 1
    kernel_size: 3
    stride: 1
  }
}
layer {
  name: "relu3_3"
  type: "ReLU"
  bottom: "conv3_3"
  top: "conv3_3"
}
layer {
  name: "pool3"
  type: "Pooling"
  bottom: "conv3_3"
  top: "pool3"
  pooling_param {
    pool: MAX
    kernel_size: 2
    stride: 2
  }
}
layer {
  name: "conv4_1"
  type: "Convolution"
  bottom: "pool3"
  top: "conv4_1"
  param {
    lr_mult: 1
    decay_mult: 1
  }
  param {
    lr_mult: 2
    decay_mult: 0
  }
  convolution_param {
    num_output: 512
    pad: 1
    kernel_size: 3
    stride: 1
  }
}
layer {
  name: "relu4_1"
  type: "ReLU"
  bottom: "conv4_1"
  top: "conv4_1"
}
layer {
  name: "conv4_2"
  type: "Convolution"
  bottom: "conv4_1"
  top: "conv4_2"
  param {
    lr_mult: 1
    decay_mult: 1
  }
  param {
    lr_mult: 2
    decay_mult: 0
  }
  convolution_param {
    num_output: 512
    pad: 1
    kernel_size: 3
    stride: 1
  }
}
layer {
  name: "relu4_2"
  type: "ReLU"
  bottom: "conv4_2"
  top: "conv4_2"
}
layer {
  name: "conv4_3"
  type: "Convolution"
  bottom: "conv4_2"
  top: "conv4_3"
  param {
    lr_mult: 1
    decay_mult: 1
  }
  param {
    lr_mult: 2
    decay_mult: 0
  }
  convolution_param {
    num_output: 512
    pad: 1
    kernel_size: 3
    stride: 1
  }
}
layer {
  name: "relu4_3"
  type: "ReLU"
  bottom: "conv4_3"
  top: "conv4_3"
}
layer {
  name: "pool4"
  type: "Pooling"
  bottom: "conv4_3"
  top: "pool4"
  pooling_param {
    pool: MAX
    kernel_size: 2
    stride: 2
  }
}
layer {
  name: "conv5_1"
  type: "Convolution"
  bottom: "pool4"
  top: "conv5_1"
  param {
    lr_mult: 1
    decay_mult: 1
  }
  param {
    lr_mult: 2
    decay_mult: 0
  }
  convolution_param {
    num_output: 512
    pad: 1
    kernel_size: 3
    stride: 1
  }
}
layer {
  name: "relu5_1"
  type: "ReLU"
  bottom: "conv5_1"
  top: "conv5_1"
}
layer {
  name: "conv5_2"
  type: "Convolution"
  bottom: "conv5_1"
  top: "conv5_2"
  param {
    lr_mult: 1
    decay_mult: 1
  }
  param {
    lr_mult: 2
    decay_mult: 0
  }
  convolution_param {
    num_output: 512
    pad: 1
    kernel_size: 3
    stride: 1
  }
}
layer {
  name: "relu5_2"
  type: "ReLU"
  bottom: "conv5_2"
  top: "conv5_2"
}
layer {
  name: "conv5_3"
  type: "Convolution"
  bottom: "conv5_2"
  top: "conv5_3"
  param {
    lr_mult: 1
    decay_mult: 1
  }
  param {
    lr_mult: 2
    decay_mult: 0
  }
  convolution_param {
    num_output: 512
    pad: 1
    kernel_size: 3
    stride: 1
  }
}
layer {
  name: "relu5_3"
  type: "ReLU"
  bottom: "conv5_3"
  top: "conv5_3"
}
layer {
  name: "pool5"
  type: "Pooling"
  bottom: "conv5_3"
  top: "pool5"
  pooling_param {
    pool: MAX
    kernel_size: 2
    stride: 2
  }
}
layer {
  name: "fc6"
  type: "Convolution"
  bottom: "pool5"
  top: "fc6"
  param {
    lr_mult: 1
    decay_mult: 1
  }
  param {
    lr_mult: 2
    decay_mult: 0
  }
  convolution_param {
    num_output: 4096
    pad: 0
    kernel_size: 7
    stride: 1
  }
}
layer {
  name: "relu6"
  type: "ReLU"
  bottom: "fc6"
  top: "fc6"
}
layer {
  name: "drop6"
  type: "Dropout"
  bottom: "fc6"
  top: "fc6"
  dropout_param {
    dropout_ratio: 0.5
  }
}
layer {
  name: "fc7"
  type: "Convolution"
  bottom: "fc6"
  top: "fc7"
  param {
    lr_mult: 1
    decay_mult: 1
  }
  param {
    lr_mult: 2
    decay_mult: 0
  }
  convolution_param {
    num_output: 4096
    pad: 0
    kernel_size: 1
    stride: 1
  }
}
layer {
  name: "relu7"
  type: "ReLU"
  bottom: "fc7"
  top: "fc7"
}
layer {
  name: "drop7"
  type: "Dropout"
  bottom: "fc7"
  top: "fc7"
  dropout_param {
    dropout_ratio: 0.5
  }
}
layer {
  name: "score_fr_sem"
  type: "Convolution"
  bottom: "fc7"
  top: "score_fr_sem"
  param {
    lr_mult: 1
    decay_mult: 1
  }
  param {
    lr_mult: 2
    decay_mult: 0
  }
  convolution_param {
    num_output: 33
    pad: 0
    kernel_size: 1
  }
}
layer {
  name: "upscore2_sem"
  type: "Deconvolution"
  bottom: "score_fr_sem"
  top: "upscore2_sem"
  param {
    lr_mult: 0
  }
  convolution_param {
    num_output: 33
    bias_term: false
    kernel_size: 4
    stride: 2
  }
}
layer {
  name: "score_pool4_sem"
  type: "Convolution"
  bottom: "pool4"
  top: "score_pool4_sem"
  param {
    lr_mult: 1
    decay_mult: 1
  }
  param {
    lr_mult: 2
    decay_mult: 0
  }
  convolution_param {
    num_output: 33
    pad: 0
    kernel_size: 1
  }
}
layer {
  name: "score_pool4_semc"
  type: "Crop"
  bottom: "score_pool4_sem"
  bottom: "upscore2_sem"
  top: "score_pool4_semc"
  crop_param {
    axis: 2
    offset: 5
  }
}
layer {
  name: "fuse_pool4_sem"
  type: "Eltwise"
  bottom: "upscore2_sem"
  bottom: "score_pool4_semc"
  top: "fuse_pool4_sem"
  eltwise_param {
    operation: SUM
  }
}
layer {
  name: "upscore_pool4_sem"
  type: "Deconvolution"
  bottom: "fuse_pool4_sem"
  top: "upscore_pool4_sem"
  param {
    lr_mult: 0
  }
  convolution_param {
    num_output: 33
    bias_term: false
    kernel_size: 4
    stride: 2
  }
}
layer {
  name: "score_pool3_sem"
  type: "Convolution"
  bottom: "pool3"
  top: "score_pool3_sem"
  param {
    lr_mult: 1
    decay_mult: 1
  }
  param {
    lr_mult: 2
    decay_mult: 0
  }
  convolution_param {
    num_output: 33
    pad: 0
    kernel_size: 1
  }
}
layer {
  name: "score_pool3_semc"
  type: "Crop"
  bottom: "score_pool3_sem"
  bottom: "upscore_pool4_sem"
  top: "score_pool3_semc"
  crop_param {
    axis: 2
    offset: 9
  }
}
layer {
  name: "fuse_pool3_sem"
  type: "Eltwise"
  bottom: "upscore_pool4_sem"
  bottom: "score_pool3_semc"
  top: "fuse_pool3_sem"
  eltwise_param {
    operation: SUM
  }
}
layer {
  name: "upscore8_sem"
  type: "Deconvolution"
  bottom: "fuse_pool3_sem"
  top: "upscore8_sem"
  param {
    lr_mult: 0
  }
  convolution_param {
    num_output: 33
    bias_term: false
    kernel_size: 16
    stride: 8
  }
}
layer {
  name: "score_sem"
  type: "Crop"
  bottom: "upscore8_sem"
  bottom: "data"
  top: "score_sem"
  crop_param {
    axis: 2
    offset: 31
  }
}
layer {
  name: "loss"
  type: "EuclideanLoss"
  bottom: "score_sem"
  bottom: "sem"
  top: "loss"
}
layer {
  name: "score_fr_geo"
  type: "Convolution"
  bottom: "fc7"
  top: "score_fr_geo"
  param {
    lr_mult: 1
    decay_mult: 1
  }
  param {
    lr_mult: 2
    decay_mult: 0
  }
  convolution_param {
    num_output: 3
    pad: 0
    kernel_size: 1
  }
}
layer {
  name: "upscore2_geo"
  type: "Deconvolution"
  bottom: "score_fr_geo"
  top: "upscore2_geo"
  param {
    lr_mult: 0
  }
  convolution_param {
    num_output: 3
    bias_term: false
    kernel_size: 4
    stride: 2
  }
}
layer {
  name: "score_pool4_geo"
  type: "Convolution"
  bottom: "pool4"
  top: "score_pool4_geo"
  param {
    lr_mult: 1
    decay_mult: 1
  }
  param {
    lr_mult: 2
    decay_mult: 0
  }
  convolution_param {
    num_output: 3
    pad: 0
    kernel_size: 1
  }
}
layer {
  name: "score_pool4_geoc"
  type: "Crop"
  bottom: "score_pool4_geo"
  bottom: "upscore2_geo"
  top: "score_pool4_geoc"
  crop_param {
    axis: 2
    offset: 5
  }
}
layer {
  name: "fuse_pool4_geo"
  type: "Eltwise"
  bottom: "upscore2_geo"
  bottom: "score_pool4_geoc"
  top: "fuse_pool4_geo"
  eltwise_param {
    operation: SUM
  }
}
layer {
  name: "upscore_pool4_geo"
  type: "Deconvolution"
  bottom: "fuse_pool4_geo"
  top: "upscore_pool4_geo"
  param {
    lr_mult: 0
  }
  convolution_param {
    num_output: 3
    bias_term: false
    kernel_size: 4
    stride: 2
  }
}
layer {
  name: "score_pool3_geo"
  type: "Convolution"
  bottom: "pool3"
  top: "score_pool3_geo"
  param {
    lr_mult: 1
    decay_mult: 1
  }
  param {
    lr_mult: 2
    decay_mult: 0
  }
  convolution_param {
    num_output: 3
    pad: 0
    kernel_size: 1
  }
}
layer {
  name: "score_pool3_geoc"
  type: "Crop"
  bottom: "score_pool3_geo"
  bottom: "upscore_pool4_geo"
  top: "score_pool3_geoc"
  crop_param {
    axis: 2
    offset: 9
  }
}
layer {
  name: "fuse_pool3_geo"
  type: "Eltwise"
  bottom: "upscore_pool4_geo"
  bottom: "score_pool3_geoc"
  top: "fuse_pool3_geo"
  eltwise_param {
    operation: SUM
  }
}
layer {
  name: "upscore8_geo"
  type: "Deconvolution"
  bottom: "fuse_pool3_geo"
  top: "upscore8_geo"
  param {
    lr_mult: 0
  }
  convolution_param {
    num_output: 3
    bias_term: false
    kernel_size: 16
    stride: 8
  }
}
layer {
  name: "score_geo"
  type: "Crop"
  bottom: "upscore8_geo"
  bottom: "data"
  top: "score_geo"
  crop_param {
    axis: 2
    offset: 31
  }
}
layer {
  name: "loss_geo"
  type: "EuclideanLoss"
  bottom: "score_geo"
  bottom: "geo"
  top: "loss_geo"
}
I0212 18:49:30.894963 14329 layer_factory.hpp:77] Creating layer data
I0212 18:49:30.912390 14329 net.cpp:100] Creating Layer data
I0212 18:49:30.912431 14329 net.cpp:408] data -> data
I0212 18:49:30.912451 14329 net.cpp:408] data -> sem
I0212 18:49:30.912472 14329 net.cpp:408] data -> geo
I0212 18:49:30.951583 14329 net.cpp:150] Setting up data
I0212 18:49:30.951627 14329 net.cpp:157] Top shape: 1 3 256 256 (196608)
I0212 18:49:30.951635 14329 net.cpp:157] Top shape: 1 33 256 256 (2162688)
I0212 18:49:30.951640 14329 net.cpp:157] Top shape: 1 3 256 256 (196608)
I0212 18:49:30.951643 14329 net.cpp:165] Memory required for data: 10223616
I0212 18:49:30.951652 14329 layer_factory.hpp:77] Creating layer data_data_0_split
I0212 18:49:30.951676 14329 net.cpp:100] Creating Layer data_data_0_split
I0212 18:49:30.951681 14329 net.cpp:434] data_data_0_split <- data
I0212 18:49:30.951692 14329 net.cpp:408] data_data_0_split -> data_data_0_split_0
I0212 18:49:30.951704 14329 net.cpp:408] data_data_0_split -> data_data_0_split_1
I0212 18:49:30.951711 14329 net.cpp:408] data_data_0_split -> data_data_0_split_2
I0212 18:49:30.951753 14329 net.cpp:150] Setting up data_data_0_split
I0212 18:49:30.951762 14329 net.cpp:157] Top shape: 1 3 256 256 (196608)
I0212 18:49:30.951767 14329 net.cpp:157] Top shape: 1 3 256 256 (196608)
I0212 18:49:30.951771 14329 net.cpp:157] Top shape: 1 3 256 256 (196608)
I0212 18:49:30.951776 14329 net.cpp:165] Memory required for data: 12582912
I0212 18:49:30.951778 14329 layer_factory.hpp:77] Creating layer conv1_1
I0212 18:49:30.951792 14329 net.cpp:100] Creating Layer conv1_1
I0212 18:49:30.951799 14329 net.cpp:434] conv1_1 <- data_data_0_split_0
I0212 18:49:30.951805 14329 net.cpp:408] conv1_1 -> conv1_1
I0212 18:49:31.078058 14329 net.cpp:150] Setting up conv1_1
I0212 18:49:31.078099 14329 net.cpp:157] Top shape: 1 64 454 454 (13191424)
I0212 18:49:31.078105 14329 net.cpp:165] Memory required for data: 65348608
I0212 18:49:31.078124 14329 layer_factory.hpp:77] Creating layer relu1_1
I0212 18:49:31.078136 14329 net.cpp:100] Creating Layer relu1_1
I0212 18:49:31.078142 14329 net.cpp:434] relu1_1 <- conv1_1
I0212 18:49:31.078161 14329 net.cpp:395] relu1_1 -> conv1_1 (in-place)
I0212 18:49:31.078332 14329 net.cpp:150] Setting up relu1_1
I0212 18:49:31.078346 14329 net.cpp:157] Top shape: 1 64 454 454 (13191424)
I0212 18:49:31.078351 14329 net.cpp:165] Memory required for data: 118114304
I0212 18:49:31.078354 14329 layer_factory.hpp:77] Creating layer conv1_2
I0212 18:49:31.078366 14329 net.cpp:100] Creating Layer conv1_2
I0212 18:49:31.078372 14329 net.cpp:434] conv1_2 <- conv1_1
I0212 18:49:31.078378 14329 net.cpp:408] conv1_2 -> conv1_2
I0212 18:49:31.080377 14329 net.cpp:150] Setting up conv1_2
I0212 18:49:31.080406 14329 net.cpp:157] Top shape: 1 64 454 454 (13191424)
I0212 18:49:31.080423 14329 net.cpp:165] Memory required for data: 170880000
I0212 18:49:31.080433 14329 layer_factory.hpp:77] Creating layer relu1_2
I0212 18:49:31.080442 14329 net.cpp:100] Creating Layer relu1_2
I0212 18:49:31.080446 14329 net.cpp:434] relu1_2 <- conv1_2
I0212 18:49:31.080451 14329 net.cpp:395] relu1_2 -> conv1_2 (in-place)
I0212 18:49:31.080806 14329 net.cpp:150] Setting up relu1_2
I0212 18:49:31.080822 14329 net.cpp:157] Top shape: 1 64 454 454 (13191424)
I0212 18:49:31.080826 14329 net.cpp:165] Memory required for data: 223645696
I0212 18:49:31.080832 14329 layer_factory.hpp:77] Creating layer pool1
I0212 18:49:31.080840 14329 net.cpp:100] Creating Layer pool1
I0212 18:49:31.080844 14329 net.cpp:434] pool1 <- conv1_2
I0212 18:49:31.080850 14329 net.cpp:408] pool1 -> pool1
I0212 18:49:31.080901 14329 net.cpp:150] Setting up pool1
I0212 18:49:31.080912 14329 net.cpp:157] Top shape: 1 64 227 227 (3297856)
I0212 18:49:31.080916 14329 net.cpp:165] Memory required for data: 236837120
I0212 18:49:31.080920 14329 layer_factory.hpp:77] Creating layer conv2_1
I0212 18:49:31.080929 14329 net.cpp:100] Creating Layer conv2_1
I0212 18:49:31.080934 14329 net.cpp:434] conv2_1 <- pool1
I0212 18:49:31.080940 14329 net.cpp:408] conv2_1 -> conv2_1
I0212 18:49:31.082607 14329 net.cpp:150] Setting up conv2_1
I0212 18:49:31.082622 14329 net.cpp:157] Top shape: 1 128 227 227 (6595712)
I0212 18:49:31.082638 14329 net.cpp:165] Memory required for data: 263219968
I0212 18:49:31.082648 14329 layer_factory.hpp:77] Creating layer relu2_1
I0212 18:49:31.082656 14329 net.cpp:100] Creating Layer relu2_1
I0212 18:49:31.082660 14329 net.cpp:434] relu2_1 <- conv2_1
I0212 18:49:31.082669 14329 net.cpp:395] relu2_1 -> conv2_1 (in-place)
I0212 18:49:31.082855 14329 net.cpp:150] Setting up relu2_1
I0212 18:49:31.082872 14329 net.cpp:157] Top shape: 1 128 227 227 (6595712)
I0212 18:49:31.082876 14329 net.cpp:165] Memory required for data: 289602816
I0212 18:49:31.082880 14329 layer_factory.hpp:77] Creating layer conv2_2
I0212 18:49:31.082890 14329 net.cpp:100] Creating Layer conv2_2
I0212 18:49:31.082895 14329 net.cpp:434] conv2_2 <- conv2_1
I0212 18:49:31.082901 14329 net.cpp:408] conv2_2 -> conv2_2
I0212 18:49:31.084136 14329 net.cpp:150] Setting up conv2_2
I0212 18:49:31.084151 14329 net.cpp:157] Top shape: 1 128 227 227 (6595712)
I0212 18:49:31.084168 14329 net.cpp:165] Memory required for data: 315985664
I0212 18:49:31.084177 14329 layer_factory.hpp:77] Creating layer relu2_2
I0212 18:49:31.084184 14329 net.cpp:100] Creating Layer relu2_2
I0212 18:49:31.084192 14329 net.cpp:434] relu2_2 <- conv2_2
I0212 18:49:31.084200 14329 net.cpp:395] relu2_2 -> conv2_2 (in-place)
I0212 18:49:31.084463 14329 net.cpp:150] Setting up relu2_2
I0212 18:49:31.084483 14329 net.cpp:157] Top shape: 1 128 227 227 (6595712)
I0212 18:49:31.084491 14329 net.cpp:165] Memory required for data: 342368512
I0212 18:49:31.084496 14329 layer_factory.hpp:77] Creating layer pool2
I0212 18:49:31.084508 14329 net.cpp:100] Creating Layer pool2
I0212 18:49:31.084516 14329 net.cpp:434] pool2 <- conv2_2
I0212 18:49:31.084524 14329 net.cpp:408] pool2 -> pool2
I0212 18:49:31.084583 14329 net.cpp:150] Setting up pool2
I0212 18:49:31.084594 14329 net.cpp:157] Top shape: 1 128 114 114 (1663488)
I0212 18:49:31.084601 14329 net.cpp:165] Memory required for data: 349022464
I0212 18:49:31.084607 14329 layer_factory.hpp:77] Creating layer conv3_1
I0212 18:49:31.084623 14329 net.cpp:100] Creating Layer conv3_1
I0212 18:49:31.084630 14329 net.cpp:434] conv3_1 <- pool2
I0212 18:49:31.084641 14329 net.cpp:408] conv3_1 -> conv3_1
I0212 18:49:31.087326 14329 net.cpp:150] Setting up conv3_1
I0212 18:49:31.087342 14329 net.cpp:157] Top shape: 1 256 114 114 (3326976)
I0212 18:49:31.087347 14329 net.cpp:165] Memory required for data: 362330368
I0212 18:49:31.087358 14329 layer_factory.hpp:77] Creating layer relu3_1
I0212 18:49:31.087365 14329 net.cpp:100] Creating Layer relu3_1
I0212 18:49:31.087370 14329 net.cpp:434] relu3_1 <- conv3_1
I0212 18:49:31.087375 14329 net.cpp:395] relu3_1 -> conv3_1 (in-place)
I0212 18:49:31.087699 14329 net.cpp:150] Setting up relu3_1
I0212 18:49:31.087712 14329 net.cpp:157] Top shape: 1 256 114 114 (3326976)
I0212 18:49:31.087715 14329 net.cpp:165] Memory required for data: 375638272
I0212 18:49:31.087720 14329 layer_factory.hpp:77] Creating layer conv3_2
I0212 18:49:31.087730 14329 net.cpp:100] Creating Layer conv3_2
I0212 18:49:31.087734 14329 net.cpp:434] conv3_2 <- conv3_1
I0212 18:49:31.087743 14329 net.cpp:408] conv3_2 -> conv3_2
I0212 18:49:31.090075 14329 net.cpp:150] Setting up conv3_2
I0212 18:49:31.090095 14329 net.cpp:157] Top shape: 1 256 114 114 (3326976)
I0212 18:49:31.090102 14329 net.cpp:165] Memory required for data: 388946176
I0212 18:49:31.090116 14329 layer_factory.hpp:77] Creating layer relu3_2
I0212 18:49:31.090131 14329 net.cpp:100] Creating Layer relu3_2
I0212 18:49:31.090139 14329 net.cpp:434] relu3_2 <- conv3_2
I0212 18:49:31.090150 14329 net.cpp:395] relu3_2 -> conv3_2 (in-place)
I0212 18:49:31.090347 14329 net.cpp:150] Setting up relu3_2
I0212 18:49:31.090363 14329 net.cpp:157] Top shape: 1 256 114 114 (3326976)
I0212 18:49:31.090369 14329 net.cpp:165] Memory required for data: 402254080
I0212 18:49:31.090378 14329 layer_factory.hpp:77] Creating layer conv3_3
I0212 18:49:31.090400 14329 net.cpp:100] Creating Layer conv3_3
I0212 18:49:31.090410 14329 net.cpp:434] conv3_3 <- conv3_2
I0212 18:49:31.090422 14329 net.cpp:408] conv3_3 -> conv3_3
I0212 18:49:31.092739 14329 net.cpp:150] Setting up conv3_3
I0212 18:49:31.092770 14329 net.cpp:157] Top shape: 1 256 114 114 (3326976)
I0212 18:49:31.092779 14329 net.cpp:165] Memory required for data: 415561984
I0212 18:49:31.092792 14329 layer_factory.hpp:77] Creating layer relu3_3
I0212 18:49:31.092806 14329 net.cpp:100] Creating Layer relu3_3
I0212 18:49:31.092814 14329 net.cpp:434] relu3_3 <- conv3_3
I0212 18:49:31.092836 14329 net.cpp:395] relu3_3 -> conv3_3 (in-place)
I0212 18:49:31.093061 14329 net.cpp:150] Setting up relu3_3
I0212 18:49:31.093077 14329 net.cpp:157] Top shape: 1 256 114 114 (3326976)
I0212 18:49:31.093085 14329 net.cpp:165] Memory required for data: 428869888
I0212 18:49:31.093092 14329 layer_factory.hpp:77] Creating layer pool3
I0212 18:49:31.093103 14329 net.cpp:100] Creating Layer pool3
I0212 18:49:31.093113 14329 net.cpp:434] pool3 <- conv3_3
I0212 18:49:31.093127 14329 net.cpp:408] pool3 -> pool3
I0212 18:49:31.093184 14329 net.cpp:150] Setting up pool3
I0212 18:49:31.093199 14329 net.cpp:157] Top shape: 1 256 57 57 (831744)
I0212 18:49:31.093206 14329 net.cpp:165] Memory required for data: 432196864
I0212 18:49:31.093214 14329 layer_factory.hpp:77] Creating layer pool3_pool3_0_split
I0212 18:49:31.093225 14329 net.cpp:100] Creating Layer pool3_pool3_0_split
I0212 18:49:31.093232 14329 net.cpp:434] pool3_pool3_0_split <- pool3
I0212 18:49:31.093242 14329 net.cpp:408] pool3_pool3_0_split -> pool3_pool3_0_split_0
I0212 18:49:31.093261 14329 net.cpp:408] pool3_pool3_0_split -> pool3_pool3_0_split_1
I0212 18:49:31.093276 14329 net.cpp:408] pool3_pool3_0_split -> pool3_pool3_0_split_2
I0212 18:49:31.093350 14329 net.cpp:150] Setting up pool3_pool3_0_split
I0212 18:49:31.093364 14329 net.cpp:157] Top shape: 1 256 57 57 (831744)
I0212 18:49:31.093374 14329 net.cpp:157] Top shape: 1 256 57 57 (831744)
I0212 18:49:31.093382 14329 net.cpp:157] Top shape: 1 256 57 57 (831744)
I0212 18:49:31.093389 14329 net.cpp:165] Memory required for data: 442177792
I0212 18:49:31.093396 14329 layer_factory.hpp:77] Creating layer conv4_1
I0212 18:49:31.093410 14329 net.cpp:100] Creating Layer conv4_1
I0212 18:49:31.093420 14329 net.cpp:434] conv4_1 <- pool3_pool3_0_split_0
I0212 18:49:31.093435 14329 net.cpp:408] conv4_1 -> conv4_1
I0212 18:49:31.097352 14329 net.cpp:150] Setting up conv4_1
I0212 18:49:31.097373 14329 net.cpp:157] Top shape: 1 512 57 57 (1663488)
I0212 18:49:31.097381 14329 net.cpp:165] Memory required for data: 448831744
I0212 18:49:31.097394 14329 layer_factory.hpp:77] Creating layer relu4_1
I0212 18:49:31.097407 14329 net.cpp:100] Creating Layer relu4_1
I0212 18:49:31.097415 14329 net.cpp:434] relu4_1 <- conv4_1
I0212 18:49:31.097429 14329 net.cpp:395] relu4_1 -> conv4_1 (in-place)
I0212 18:49:31.097770 14329 net.cpp:150] Setting up relu4_1
I0212 18:49:31.097789 14329 net.cpp:157] Top shape: 1 512 57 57 (1663488)
I0212 18:49:31.097796 14329 net.cpp:165] Memory required for data: 455485696
I0212 18:49:31.097803 14329 layer_factory.hpp:77] Creating layer conv4_2
I0212 18:49:31.097820 14329 net.cpp:100] Creating Layer conv4_2
I0212 18:49:31.097829 14329 net.cpp:434] conv4_2 <- conv4_1
I0212 18:49:31.097843 14329 net.cpp:408] conv4_2 -> conv4_2
I0212 18:49:31.103924 14329 net.cpp:150] Setting up conv4_2
I0212 18:49:31.103955 14329 net.cpp:157] Top shape: 1 512 57 57 (1663488)
I0212 18:49:31.103962 14329 net.cpp:165] Memory required for data: 462139648
I0212 18:49:31.103988 14329 layer_factory.hpp:77] Creating layer relu4_2
I0212 18:49:31.104004 14329 net.cpp:100] Creating Layer relu4_2
I0212 18:49:31.104024 14329 net.cpp:434] relu4_2 <- conv4_2
I0212 18:49:31.104038 14329 net.cpp:395] relu4_2 -> conv4_2 (in-place)
I0212 18:49:31.104229 14329 net.cpp:150] Setting up relu4_2
I0212 18:49:31.104248 14329 net.cpp:157] Top shape: 1 512 57 57 (1663488)
I0212 18:49:31.104254 14329 net.cpp:165] Memory required for data: 468793600
I0212 18:49:31.104262 14329 layer_factory.hpp:77] Creating layer conv4_3
I0212 18:49:31.104280 14329 net.cpp:100] Creating Layer conv4_3
I0212 18:49:31.104295 14329 net.cpp:434] conv4_3 <- conv4_2
I0212 18:49:31.104307 14329 net.cpp:408] conv4_3 -> conv4_3
I0212 18:49:31.109880 14329 net.cpp:150] Setting up conv4_3
I0212 18:49:31.109908 14329 net.cpp:157] Top shape: 1 512 57 57 (1663488)
I0212 18:49:31.109917 14329 net.cpp:165] Memory required for data: 475447552
I0212 18:49:31.109931 14329 layer_factory.hpp:77] Creating layer relu4_3
I0212 18:49:31.109946 14329 net.cpp:100] Creating Layer relu4_3
I0212 18:49:31.109956 14329 net.cpp:434] relu4_3 <- conv4_3
I0212 18:49:31.109966 14329 net.cpp:395] relu4_3 -> conv4_3 (in-place)
I0212 18:49:31.110167 14329 net.cpp:150] Setting up relu4_3
I0212 18:49:31.110183 14329 net.cpp:157] Top shape: 1 512 57 57 (1663488)
I0212 18:49:31.110191 14329 net.cpp:165] Memory required for data: 482101504
I0212 18:49:31.110198 14329 layer_factory.hpp:77] Creating layer pool4
I0212 18:49:31.110213 14329 net.cpp:100] Creating Layer pool4
I0212 18:49:31.110221 14329 net.cpp:434] pool4 <- conv4_3
I0212 18:49:31.110232 14329 net.cpp:408] pool4 -> pool4
I0212 18:49:31.110302 14329 net.cpp:150] Setting up pool4
I0212 18:49:31.110317 14329 net.cpp:157] Top shape: 1 512 29 29 (430592)
I0212 18:49:31.110324 14329 net.cpp:165] Memory required for data: 483823872
I0212 18:49:31.110332 14329 layer_factory.hpp:77] Creating layer pool4_pool4_0_split
I0212 18:49:31.110342 14329 net.cpp:100] Creating Layer pool4_pool4_0_split
I0212 18:49:31.110349 14329 net.cpp:434] pool4_pool4_0_split <- pool4
I0212 18:49:31.110363 14329 net.cpp:408] pool4_pool4_0_split -> pool4_pool4_0_split_0
I0212 18:49:31.110376 14329 net.cpp:408] pool4_pool4_0_split -> pool4_pool4_0_split_1
I0212 18:49:31.110394 14329 net.cpp:408] pool4_pool4_0_split -> pool4_pool4_0_split_2
I0212 18:49:31.110455 14329 net.cpp:150] Setting up pool4_pool4_0_split
I0212 18:49:31.110471 14329 net.cpp:157] Top shape: 1 512 29 29 (430592)
I0212 18:49:31.110479 14329 net.cpp:157] Top shape: 1 512 29 29 (430592)
I0212 18:49:31.110488 14329 net.cpp:157] Top shape: 1 512 29 29 (430592)
I0212 18:49:31.110496 14329 net.cpp:165] Memory required for data: 488990976
I0212 18:49:31.110503 14329 layer_factory.hpp:77] Creating layer conv5_1
I0212 18:49:31.110517 14329 net.cpp:100] Creating Layer conv5_1
I0212 18:49:31.110532 14329 net.cpp:434] conv5_1 <- pool4_pool4_0_split_0
I0212 18:49:31.110546 14329 net.cpp:408] conv5_1 -> conv5_1
I0212 18:49:31.116005 14329 net.cpp:150] Setting up conv5_1
I0212 18:49:31.116029 14329 net.cpp:157] Top shape: 1 512 29 29 (430592)
I0212 18:49:31.116037 14329 net.cpp:165] Memory required for data: 490713344
I0212 18:49:31.116051 14329 layer_factory.hpp:77] Creating layer relu5_1
I0212 18:49:31.116067 14329 net.cpp:100] Creating Layer relu5_1
I0212 18:49:31.116075 14329 net.cpp:434] relu5_1 <- conv5_1
I0212 18:49:31.116086 14329 net.cpp:395] relu5_1 -> conv5_1 (in-place)
I0212 18:49:31.116417 14329 net.cpp:150] Setting up relu5_1
I0212 18:49:31.116436 14329 net.cpp:157] Top shape: 1 512 29 29 (430592)
I0212 18:49:31.116442 14329 net.cpp:165] Memory required for data: 492435712
I0212 18:49:31.116451 14329 layer_factory.hpp:77] Creating layer conv5_2
I0212 18:49:31.116468 14329 net.cpp:100] Creating Layer conv5_2
I0212 18:49:31.116477 14329 net.cpp:434] conv5_2 <- conv5_1
I0212 18:49:31.116492 14329 net.cpp:408] conv5_2 -> conv5_2
I0212 18:49:31.122099 14329 net.cpp:150] Setting up conv5_2
I0212 18:49:31.122126 14329 net.cpp:157] Top shape: 1 512 29 29 (430592)
I0212 18:49:31.122134 14329 net.cpp:165] Memory required for data: 494158080
I0212 18:49:31.122149 14329 layer_factory.hpp:77] Creating layer relu5_2
I0212 18:49:31.122162 14329 net.cpp:100] Creating Layer relu5_2
I0212 18:49:31.122171 14329 net.cpp:434] relu5_2 <- conv5_2
I0212 18:49:31.122185 14329 net.cpp:395] relu5_2 -> conv5_2 (in-place)
I0212 18:49:31.122380 14329 net.cpp:150] Setting up relu5_2
I0212 18:49:31.122396 14329 net.cpp:157] Top shape: 1 512 29 29 (430592)
I0212 18:49:31.122404 14329 net.cpp:165] Memory required for data: 495880448
I0212 18:49:31.122411 14329 layer_factory.hpp:77] Creating layer conv5_3
I0212 18:49:31.122437 14329 net.cpp:100] Creating Layer conv5_3
I0212 18:49:31.122447 14329 net.cpp:434] conv5_3 <- conv5_2
I0212 18:49:31.122459 14329 net.cpp:408] conv5_3 -> conv5_3
I0212 18:49:31.128588 14329 net.cpp:150] Setting up conv5_3
I0212 18:49:31.128633 14329 net.cpp:157] Top shape: 1 512 29 29 (430592)
I0212 18:49:31.128640 14329 net.cpp:165] Memory required for data: 497602816
I0212 18:49:31.128655 14329 layer_factory.hpp:77] Creating layer relu5_3
I0212 18:49:31.128671 14329 net.cpp:100] Creating Layer relu5_3
I0212 18:49:31.128681 14329 net.cpp:434] relu5_3 <- conv5_3
I0212 18:49:31.128693 14329 net.cpp:395] relu5_3 -> conv5_3 (in-place)
I0212 18:49:31.129073 14329 net.cpp:150] Setting up relu5_3
I0212 18:49:31.129093 14329 net.cpp:157] Top shape: 1 512 29 29 (430592)
I0212 18:49:31.129101 14329 net.cpp:165] Memory required for data: 499325184
I0212 18:49:31.129108 14329 layer_factory.hpp:77] Creating layer pool5
I0212 18:49:31.129122 14329 net.cpp:100] Creating Layer pool5
I0212 18:49:31.129129 14329 net.cpp:434] pool5 <- conv5_3
I0212 18:49:31.129144 14329 net.cpp:408] pool5 -> pool5
I0212 18:49:31.129223 14329 net.cpp:150] Setting up pool5
I0212 18:49:31.129240 14329 net.cpp:157] Top shape: 1 512 15 15 (115200)
I0212 18:49:31.129246 14329 net.cpp:165] Memory required for data: 499785984
I0212 18:49:31.129253 14329 layer_factory.hpp:77] Creating layer fc6
I0212 18:49:31.129274 14329 net.cpp:100] Creating Layer fc6
I0212 18:49:31.129286 14329 net.cpp:434] fc6 <- pool5
I0212 18:49:31.129297 14329 net.cpp:408] fc6 -> fc6
I0212 18:49:31.333537 14329 net.cpp:150] Setting up fc6
I0212 18:49:31.333575 14329 net.cpp:157] Top shape: 1 4096 9 9 (331776)
I0212 18:49:31.333582 14329 net.cpp:165] Memory required for data: 501113088
I0212 18:49:31.333611 14329 layer_factory.hpp:77] Creating layer relu6
I0212 18:49:31.333626 14329 net.cpp:100] Creating Layer relu6
I0212 18:49:31.333636 14329 net.cpp:434] relu6 <- fc6
I0212 18:49:31.333649 14329 net.cpp:395] relu6 -> fc6 (in-place)
I0212 18:49:31.334025 14329 net.cpp:150] Setting up relu6
I0212 18:49:31.334043 14329 net.cpp:157] Top shape: 1 4096 9 9 (331776)
I0212 18:49:31.334051 14329 net.cpp:165] Memory required for data: 502440192
I0212 18:49:31.334059 14329 layer_factory.hpp:77] Creating layer drop6
I0212 18:49:31.334077 14329 net.cpp:100] Creating Layer drop6
I0212 18:49:31.334085 14329 net.cpp:434] drop6 <- fc6
I0212 18:49:31.334098 14329 net.cpp:395] drop6 -> fc6 (in-place)
I0212 18:49:31.334159 14329 net.cpp:150] Setting up drop6
I0212 18:49:31.334172 14329 net.cpp:157] Top shape: 1 4096 9 9 (331776)
I0212 18:49:31.334179 14329 net.cpp:165] Memory required for data: 503767296
I0212 18:49:31.334197 14329 layer_factory.hpp:77] Creating layer fc7
I0212 18:49:31.334218 14329 net.cpp:100] Creating Layer fc7
I0212 18:49:31.334228 14329 net.cpp:434] fc7 <- fc6
I0212 18:49:31.334251 14329 net.cpp:408] fc7 -> fc7
I0212 18:49:31.368055 14329 net.cpp:150] Setting up fc7
I0212 18:49:31.368093 14329 net.cpp:157] Top shape: 1 4096 9 9 (331776)
I0212 18:49:31.368099 14329 net.cpp:165] Memory required for data: 505094400
I0212 18:49:31.368126 14329 layer_factory.hpp:77] Creating layer relu7
I0212 18:49:31.368140 14329 net.cpp:100] Creating Layer relu7
I0212 18:49:31.368149 14329 net.cpp:434] relu7 <- fc7
I0212 18:49:31.368162 14329 net.cpp:395] relu7 -> fc7 (in-place)
I0212 18:49:31.368386 14329 net.cpp:150] Setting up relu7
I0212 18:49:31.368402 14329 net.cpp:157] Top shape: 1 4096 9 9 (331776)
I0212 18:49:31.368410 14329 net.cpp:165] Memory required for data: 506421504
I0212 18:49:31.368418 14329 layer_factory.hpp:77] Creating layer drop7
I0212 18:49:31.368430 14329 net.cpp:100] Creating Layer drop7
I0212 18:49:31.368438 14329 net.cpp:434] drop7 <- fc7
I0212 18:49:31.368448 14329 net.cpp:395] drop7 -> fc7 (in-place)
I0212 18:49:31.368494 14329 net.cpp:150] Setting up drop7
I0212 18:49:31.368507 14329 net.cpp:157] Top shape: 1 4096 9 9 (331776)
I0212 18:49:31.368515 14329 net.cpp:165] Memory required for data: 507748608
I0212 18:49:31.368521 14329 layer_factory.hpp:77] Creating layer fc7_drop7_0_split
I0212 18:49:31.368532 14329 net.cpp:100] Creating Layer fc7_drop7_0_split
I0212 18:49:31.368538 14329 net.cpp:434] fc7_drop7_0_split <- fc7
I0212 18:49:31.368551 14329 net.cpp:408] fc7_drop7_0_split -> fc7_drop7_0_split_0
I0212 18:49:31.368571 14329 net.cpp:408] fc7_drop7_0_split -> fc7_drop7_0_split_1
I0212 18:49:31.368626 14329 net.cpp:150] Setting up fc7_drop7_0_split
I0212 18:49:31.368649 14329 net.cpp:157] Top shape: 1 4096 9 9 (331776)
I0212 18:49:31.368657 14329 net.cpp:157] Top shape: 1 4096 9 9 (331776)
I0212 18:49:31.368664 14329 net.cpp:165] Memory required for data: 510402816
I0212 18:49:31.368670 14329 layer_factory.hpp:77] Creating layer score_fr_sem
I0212 18:49:31.368688 14329 net.cpp:100] Creating Layer score_fr_sem
I0212 18:49:31.368696 14329 net.cpp:434] score_fr_sem <- fc7_drop7_0_split_0
I0212 18:49:31.368710 14329 net.cpp:408] score_fr_sem -> score_fr_sem
I0212 18:49:31.370508 14329 net.cpp:150] Setting up score_fr_sem
I0212 18:49:31.370527 14329 net.cpp:157] Top shape: 1 33 9 9 (2673)
I0212 18:49:31.370533 14329 net.cpp:165] Memory required for data: 510413508
I0212 18:49:31.370558 14329 layer_factory.hpp:77] Creating layer upscore2_sem
I0212 18:49:31.370579 14329 net.cpp:100] Creating Layer upscore2_sem
I0212 18:49:31.370590 14329 net.cpp:434] upscore2_sem <- score_fr_sem
I0212 18:49:31.370604 14329 net.cpp:408] upscore2_sem -> upscore2_sem
I0212 18:49:31.370874 14329 net.cpp:150] Setting up upscore2_sem
I0212 18:49:31.370889 14329 net.cpp:157] Top shape: 1 33 20 20 (13200)
I0212 18:49:31.370896 14329 net.cpp:165] Memory required for data: 510466308
I0212 18:49:31.370915 14329 layer_factory.hpp:77] Creating layer upscore2_sem_upscore2_sem_0_split
I0212 18:49:31.370932 14329 net.cpp:100] Creating Layer upscore2_sem_upscore2_sem_0_split
I0212 18:49:31.370944 14329 net.cpp:434] upscore2_sem_upscore2_sem_0_split <- upscore2_sem
I0212 18:49:31.370954 14329 net.cpp:408] upscore2_sem_upscore2_sem_0_split -> upscore2_sem_upscore2_sem_0_split_0
I0212 18:49:31.370967 14329 net.cpp:408] upscore2_sem_upscore2_sem_0_split -> upscore2_sem_upscore2_sem_0_split_1
I0212 18:49:31.371019 14329 net.cpp:150] Setting up upscore2_sem_upscore2_sem_0_split
I0212 18:49:31.371031 14329 net.cpp:157] Top shape: 1 33 20 20 (13200)
I0212 18:49:31.371040 14329 net.cpp:157] Top shape: 1 33 20 20 (13200)
I0212 18:49:31.371047 14329 net.cpp:165] Memory required for data: 510571908
I0212 18:49:31.371054 14329 layer_factory.hpp:77] Creating layer score_pool4_sem
I0212 18:49:31.371070 14329 net.cpp:100] Creating Layer score_pool4_sem
I0212 18:49:31.371081 14329 net.cpp:434] score_pool4_sem <- pool4_pool4_0_split_1
I0212 18:49:31.371093 14329 net.cpp:408] score_pool4_sem -> score_pool4_sem
I0212 18:49:31.372226 14329 net.cpp:150] Setting up score_pool4_sem
I0212 18:49:31.372246 14329 net.cpp:157] Top shape: 1 33 29 29 (27753)
I0212 18:49:31.372252 14329 net.cpp:165] Memory required for data: 510682920
I0212 18:49:31.372277 14329 layer_factory.hpp:77] Creating layer score_pool4_semc
I0212 18:49:31.372293 14329 net.cpp:100] Creating Layer score_pool4_semc
I0212 18:49:31.372303 14329 net.cpp:434] score_pool4_semc <- score_pool4_sem
I0212 18:49:31.372313 14329 net.cpp:434] score_pool4_semc <- upscore2_sem_upscore2_sem_0_split_0
I0212 18:49:31.372324 14329 net.cpp:408] score_pool4_semc -> score_pool4_semc
I0212 18:49:31.372370 14329 net.cpp:150] Setting up score_pool4_semc
I0212 18:49:31.372400 14329 net.cpp:157] Top shape: 1 33 20 20 (13200)
I0212 18:49:31.372406 14329 net.cpp:165] Memory required for data: 510735720
I0212 18:49:31.372413 14329 layer_factory.hpp:77] Creating layer fuse_pool4_sem
I0212 18:49:31.372428 14329 net.cpp:100] Creating Layer fuse_pool4_sem
I0212 18:49:31.372438 14329 net.cpp:434] fuse_pool4_sem <- upscore2_sem_upscore2_sem_0_split_1
I0212 18:49:31.372458 14329 net.cpp:434] fuse_pool4_sem <- score_pool4_semc
I0212 18:49:31.372469 14329 net.cpp:408] fuse_pool4_sem -> fuse_pool4_sem
I0212 18:49:31.372509 14329 net.cpp:150] Setting up fuse_pool4_sem
I0212 18:49:31.372521 14329 net.cpp:157] Top shape: 1 33 20 20 (13200)
I0212 18:49:31.372527 14329 net.cpp:165] Memory required for data: 510788520
I0212 18:49:31.372534 14329 layer_factory.hpp:77] Creating layer upscore_pool4_sem
I0212 18:49:31.372552 14329 net.cpp:100] Creating Layer upscore_pool4_sem
I0212 18:49:31.372561 14329 net.cpp:434] upscore_pool4_sem <- fuse_pool4_sem
I0212 18:49:31.372573 14329 net.cpp:408] upscore_pool4_sem -> upscore_pool4_sem
I0212 18:49:31.372803 14329 net.cpp:150] Setting up upscore_pool4_sem
I0212 18:49:31.372818 14329 net.cpp:157] Top shape: 1 33 42 42 (58212)
I0212 18:49:31.372825 14329 net.cpp:165] Memory required for data: 511021368
I0212 18:49:31.372835 14329 layer_factory.hpp:77] Creating layer upscore_pool4_sem_upscore_pool4_sem_0_split
I0212 18:49:31.372846 14329 net.cpp:100] Creating Layer upscore_pool4_sem_upscore_pool4_sem_0_split
I0212 18:49:31.372853 14329 net.cpp:434] upscore_pool4_sem_upscore_pool4_sem_0_split <- upscore_pool4_sem
I0212 18:49:31.372864 14329 net.cpp:408] upscore_pool4_sem_upscore_pool4_sem_0_split -> upscore_pool4_sem_upscore_pool4_sem_0_split_0
I0212 18:49:31.372882 14329 net.cpp:408] upscore_pool4_sem_upscore_pool4_sem_0_split -> upscore_pool4_sem_upscore_pool4_sem_0_split_1
I0212 18:49:31.372932 14329 net.cpp:150] Setting up upscore_pool4_sem_upscore_pool4_sem_0_split
I0212 18:49:31.372944 14329 net.cpp:157] Top shape: 1 33 42 42 (58212)
I0212 18:49:31.372953 14329 net.cpp:157] Top shape: 1 33 42 42 (58212)
I0212 18:49:31.372961 14329 net.cpp:165] Memory required for data: 511487064
I0212 18:49:31.372967 14329 layer_factory.hpp:77] Creating layer score_pool3_sem
I0212 18:49:31.372983 14329 net.cpp:100] Creating Layer score_pool3_sem
I0212 18:49:31.372993 14329 net.cpp:434] score_pool3_sem <- pool3_pool3_0_split_1
I0212 18:49:31.373008 14329 net.cpp:408] score_pool3_sem -> score_pool3_sem
I0212 18:49:31.374171 14329 net.cpp:150] Setting up score_pool3_sem
I0212 18:49:31.374188 14329 net.cpp:157] Top shape: 1 33 57 57 (107217)
I0212 18:49:31.374195 14329 net.cpp:165] Memory required for data: 511915932
I0212 18:49:31.374219 14329 layer_factory.hpp:77] Creating layer score_pool3_semc
I0212 18:49:31.374236 14329 net.cpp:100] Creating Layer score_pool3_semc
I0212 18:49:31.374248 14329 net.cpp:434] score_pool3_semc <- score_pool3_sem
I0212 18:49:31.374258 14329 net.cpp:434] score_pool3_semc <- upscore_pool4_sem_upscore_pool4_sem_0_split_0
I0212 18:49:31.374269 14329 net.cpp:408] score_pool3_semc -> score_pool3_semc
I0212 18:49:31.374311 14329 net.cpp:150] Setting up score_pool3_semc
I0212 18:49:31.374325 14329 net.cpp:157] Top shape: 1 33 42 42 (58212)
I0212 18:49:31.374331 14329 net.cpp:165] Memory required for data: 512148780
I0212 18:49:31.374349 14329 layer_factory.hpp:77] Creating layer fuse_pool3_sem
I0212 18:49:31.374361 14329 net.cpp:100] Creating Layer fuse_pool3_sem
I0212 18:49:31.374368 14329 net.cpp:434] fuse_pool3_sem <- upscore_pool4_sem_upscore_pool4_sem_0_split_1
I0212 18:49:31.374377 14329 net.cpp:434] fuse_pool3_sem <- score_pool3_semc
I0212 18:49:31.374390 14329 net.cpp:408] fuse_pool3_sem -> fuse_pool3_sem
I0212 18:49:31.374428 14329 net.cpp:150] Setting up fuse_pool3_sem
I0212 18:49:31.374446 14329 net.cpp:157] Top shape: 1 33 42 42 (58212)
I0212 18:49:31.374452 14329 net.cpp:165] Memory required for data: 512381628
I0212 18:49:31.374459 14329 layer_factory.hpp:77] Creating layer upscore8_sem
I0212 18:49:31.374475 14329 net.cpp:100] Creating Layer upscore8_sem
I0212 18:49:31.374482 14329 net.cpp:434] upscore8_sem <- fuse_pool3_sem
I0212 18:49:31.374495 14329 net.cpp:408] upscore8_sem -> upscore8_sem
I0212 18:49:31.375370 14329 net.cpp:150] Setting up upscore8_sem
I0212 18:49:31.375386 14329 net.cpp:157] Top shape: 1 33 344 344 (3905088)
I0212 18:49:31.375393 14329 net.cpp:165] Memory required for data: 528001980
I0212 18:49:31.375413 14329 layer_factory.hpp:77] Creating layer score_sem
I0212 18:49:31.375428 14329 net.cpp:100] Creating Layer score_sem
I0212 18:49:31.375437 14329 net.cpp:434] score_sem <- upscore8_sem
I0212 18:49:31.375447 14329 net.cpp:434] score_sem <- data_data_0_split_1
I0212 18:49:31.375458 14329 net.cpp:408] score_sem -> score_sem
I0212 18:49:31.375496 14329 net.cpp:150] Setting up score_sem
I0212 18:49:31.375509 14329 net.cpp:157] Top shape: 1 33 256 256 (2162688)
I0212 18:49:31.375526 14329 net.cpp:165] Memory required for data: 536652732
I0212 18:49:31.375532 14329 layer_factory.hpp:77] Creating layer loss
I0212 18:49:31.375546 14329 net.cpp:100] Creating Layer loss
I0212 18:49:31.375555 14329 net.cpp:434] loss <- score_sem
I0212 18:49:31.375563 14329 net.cpp:434] loss <- sem
I0212 18:49:31.375576 14329 net.cpp:408] loss -> loss
I0212 18:49:31.375638 14329 net.cpp:150] Setting up loss
I0212 18:49:31.375650 14329 net.cpp:157] Top shape: (1)
I0212 18:49:31.375658 14329 net.cpp:160]     with loss weight 1
I0212 18:49:31.375679 14329 net.cpp:165] Memory required for data: 536652736
I0212 18:49:31.375687 14329 layer_factory.hpp:77] Creating layer score_fr_geo
I0212 18:49:31.375705 14329 net.cpp:100] Creating Layer score_fr_geo
I0212 18:49:31.375715 14329 net.cpp:434] score_fr_geo <- fc7_drop7_0_split_1
I0212 18:49:31.375726 14329 net.cpp:408] score_fr_geo -> score_fr_geo
I0212 18:49:31.376986 14329 net.cpp:150] Setting up score_fr_geo
I0212 18:49:31.377003 14329 net.cpp:157] Top shape: 1 3 9 9 (243)
I0212 18:49:31.377010 14329 net.cpp:165] Memory required for data: 536653708
I0212 18:49:31.377035 14329 layer_factory.hpp:77] Creating layer upscore2_geo
I0212 18:49:31.377051 14329 net.cpp:100] Creating Layer upscore2_geo
I0212 18:49:31.377059 14329 net.cpp:434] upscore2_geo <- score_fr_geo
I0212 18:49:31.377074 14329 net.cpp:408] upscore2_geo -> upscore2_geo
I0212 18:49:31.377305 14329 net.cpp:150] Setting up upscore2_geo
I0212 18:49:31.377321 14329 net.cpp:157] Top shape: 1 3 20 20 (1200)
I0212 18:49:31.377327 14329 net.cpp:165] Memory required for data: 536658508
I0212 18:49:31.377337 14329 layer_factory.hpp:77] Creating layer upscore2_geo_upscore2_geo_0_split
I0212 18:49:31.377347 14329 net.cpp:100] Creating Layer upscore2_geo_upscore2_geo_0_split
I0212 18:49:31.377355 14329 net.cpp:434] upscore2_geo_upscore2_geo_0_split <- upscore2_geo
I0212 18:49:31.377365 14329 net.cpp:408] upscore2_geo_upscore2_geo_0_split -> upscore2_geo_upscore2_geo_0_split_0
I0212 18:49:31.377379 14329 net.cpp:408] upscore2_geo_upscore2_geo_0_split -> upscore2_geo_upscore2_geo_0_split_1
I0212 18:49:31.377432 14329 net.cpp:150] Setting up upscore2_geo_upscore2_geo_0_split
I0212 18:49:31.377444 14329 net.cpp:157] Top shape: 1 3 20 20 (1200)
I0212 18:49:31.377454 14329 net.cpp:157] Top shape: 1 3 20 20 (1200)
I0212 18:49:31.377460 14329 net.cpp:165] Memory required for data: 536668108
I0212 18:49:31.377468 14329 layer_factory.hpp:77] Creating layer score_pool4_geo
I0212 18:49:31.377485 14329 net.cpp:100] Creating Layer score_pool4_geo
I0212 18:49:31.377496 14329 net.cpp:434] score_pool4_geo <- pool4_pool4_0_split_2
I0212 18:49:31.377509 14329 net.cpp:408] score_pool4_geo -> score_pool4_geo
I0212 18:49:31.378657 14329 net.cpp:150] Setting up score_pool4_geo
I0212 18:49:31.378676 14329 net.cpp:157] Top shape: 1 3 29 29 (2523)
I0212 18:49:31.378684 14329 net.cpp:165] Memory required for data: 536678200
I0212 18:49:31.378697 14329 layer_factory.hpp:77] Creating layer score_pool4_geoc
I0212 18:49:31.378715 14329 net.cpp:100] Creating Layer score_pool4_geoc
I0212 18:49:31.378726 14329 net.cpp:434] score_pool4_geoc <- score_pool4_geo
I0212 18:49:31.378736 14329 net.cpp:434] score_pool4_geoc <- upscore2_geo_upscore2_geo_0_split_0
I0212 18:49:31.378747 14329 net.cpp:408] score_pool4_geoc -> score_pool4_geoc
I0212 18:49:31.378792 14329 net.cpp:150] Setting up score_pool4_geoc
I0212 18:49:31.378803 14329 net.cpp:157] Top shape: 1 3 20 20 (1200)
I0212 18:49:31.378810 14329 net.cpp:165] Memory required for data: 536683000
I0212 18:49:31.378818 14329 layer_factory.hpp:77] Creating layer fuse_pool4_geo
I0212 18:49:31.378829 14329 net.cpp:100] Creating Layer fuse_pool4_geo
I0212 18:49:31.378836 14329 net.cpp:434] fuse_pool4_geo <- upscore2_geo_upscore2_geo_0_split_1
I0212 18:49:31.378849 14329 net.cpp:434] fuse_pool4_geo <- score_pool4_geoc
I0212 18:49:31.378859 14329 net.cpp:408] fuse_pool4_geo -> fuse_pool4_geo
I0212 18:49:31.378901 14329 net.cpp:150] Setting up fuse_pool4_geo
I0212 18:49:31.378913 14329 net.cpp:157] Top shape: 1 3 20 20 (1200)
I0212 18:49:31.378919 14329 net.cpp:165] Memory required for data: 536687800
I0212 18:49:31.378926 14329 layer_factory.hpp:77] Creating layer upscore_pool4_geo
I0212 18:49:31.378942 14329 net.cpp:100] Creating Layer upscore_pool4_geo
I0212 18:49:31.378949 14329 net.cpp:434] upscore_pool4_geo <- fuse_pool4_geo
I0212 18:49:31.378960 14329 net.cpp:408] upscore_pool4_geo -> upscore_pool4_geo
I0212 18:49:31.379171 14329 net.cpp:150] Setting up upscore_pool4_geo
I0212 18:49:31.379185 14329 net.cpp:157] Top shape: 1 3 42 42 (5292)
I0212 18:49:31.379192 14329 net.cpp:165] Memory required for data: 536708968
I0212 18:49:31.379202 14329 layer_factory.hpp:77] Creating layer upscore_pool4_geo_upscore_pool4_geo_0_split
I0212 18:49:31.379212 14329 net.cpp:100] Creating Layer upscore_pool4_geo_upscore_pool4_geo_0_split
I0212 18:49:31.379220 14329 net.cpp:434] upscore_pool4_geo_upscore_pool4_geo_0_split <- upscore_pool4_geo
I0212 18:49:31.379230 14329 net.cpp:408] upscore_pool4_geo_upscore_pool4_geo_0_split -> upscore_pool4_geo_upscore_pool4_geo_0_split_0
I0212 18:49:31.379245 14329 net.cpp:408] upscore_pool4_geo_upscore_pool4_geo_0_split -> upscore_pool4_geo_upscore_pool4_geo_0_split_1
I0212 18:49:31.379295 14329 net.cpp:150] Setting up upscore_pool4_geo_upscore_pool4_geo_0_split
I0212 18:49:31.379307 14329 net.cpp:157] Top shape: 1 3 42 42 (5292)
I0212 18:49:31.379317 14329 net.cpp:157] Top shape: 1 3 42 42 (5292)
I0212 18:49:31.379323 14329 net.cpp:165] Memory required for data: 536751304
I0212 18:49:31.379330 14329 layer_factory.hpp:77] Creating layer score_pool3_geo
I0212 18:49:31.379354 14329 net.cpp:100] Creating Layer score_pool3_geo
I0212 18:49:31.379364 14329 net.cpp:434] score_pool3_geo <- pool3_pool3_0_split_2
I0212 18:49:31.379375 14329 net.cpp:408] score_pool3_geo -> score_pool3_geo
I0212 18:49:31.380498 14329 net.cpp:150] Setting up score_pool3_geo
I0212 18:49:31.380517 14329 net.cpp:157] Top shape: 1 3 57 57 (9747)
I0212 18:49:31.380524 14329 net.cpp:165] Memory required for data: 536790292
I0212 18:49:31.380538 14329 layer_factory.hpp:77] Creating layer score_pool3_geoc
I0212 18:49:31.380554 14329 net.cpp:100] Creating Layer score_pool3_geoc
I0212 18:49:31.380566 14329 net.cpp:434] score_pool3_geoc <- score_pool3_geo
I0212 18:49:31.380576 14329 net.cpp:434] score_pool3_geoc <- upscore_pool4_geo_upscore_pool4_geo_0_split_0
I0212 18:49:31.380587 14329 net.cpp:408] score_pool3_geoc -> score_pool3_geoc
I0212 18:49:31.380632 14329 net.cpp:150] Setting up score_pool3_geoc
I0212 18:49:31.380645 14329 net.cpp:157] Top shape: 1 3 42 42 (5292)
I0212 18:49:31.380652 14329 net.cpp:165] Memory required for data: 536811460
I0212 18:49:31.380659 14329 layer_factory.hpp:77] Creating layer fuse_pool3_geo
I0212 18:49:31.380671 14329 net.cpp:100] Creating Layer fuse_pool3_geo
I0212 18:49:31.380678 14329 net.cpp:434] fuse_pool3_geo <- upscore_pool4_geo_upscore_pool4_geo_0_split_1
I0212 18:49:31.380687 14329 net.cpp:434] fuse_pool3_geo <- score_pool3_geoc
I0212 18:49:31.380702 14329 net.cpp:408] fuse_pool3_geo -> fuse_pool3_geo
I0212 18:49:31.380739 14329 net.cpp:150] Setting up fuse_pool3_geo
I0212 18:49:31.380764 14329 net.cpp:157] Top shape: 1 3 42 42 (5292)
I0212 18:49:31.380771 14329 net.cpp:165] Memory required for data: 536832628
I0212 18:49:31.380779 14329 layer_factory.hpp:77] Creating layer upscore8_geo
I0212 18:49:31.380800 14329 net.cpp:100] Creating Layer upscore8_geo
I0212 18:49:31.380810 14329 net.cpp:434] upscore8_geo <- fuse_pool3_geo
I0212 18:49:31.380825 14329 net.cpp:408] upscore8_geo -> upscore8_geo
I0212 18:49:31.381048 14329 net.cpp:150] Setting up upscore8_geo
I0212 18:49:31.381062 14329 net.cpp:157] Top shape: 1 3 344 344 (355008)
I0212 18:49:31.381069 14329 net.cpp:165] Memory required for data: 538252660
I0212 18:49:31.381079 14329 layer_factory.hpp:77] Creating layer score_geo
I0212 18:49:31.381090 14329 net.cpp:100] Creating Layer score_geo
I0212 18:49:31.381098 14329 net.cpp:434] score_geo <- upscore8_geo
I0212 18:49:31.381108 14329 net.cpp:434] score_geo <- data_data_0_split_2
I0212 18:49:31.381117 14329 net.cpp:408] score_geo -> score_geo
I0212 18:49:31.381167 14329 net.cpp:150] Setting up score_geo
I0212 18:49:31.381181 14329 net.cpp:157] Top shape: 1 3 256 256 (196608)
I0212 18:49:31.381187 14329 net.cpp:165] Memory required for data: 539039092
I0212 18:49:31.381196 14329 layer_factory.hpp:77] Creating layer loss_geo
I0212 18:49:31.381208 14329 net.cpp:100] Creating Layer loss_geo
I0212 18:49:31.381217 14329 net.cpp:434] loss_geo <- score_geo
I0212 18:49:31.381225 14329 net.cpp:434] loss_geo <- geo
I0212 18:49:31.381235 14329 net.cpp:408] loss_geo -> loss_geo
…
I0212 18:49:31.381830 14329 net.cpp:270] This network produces output loss_geo
I0212 18:49:31.381897 14329 net.cpp:283] Network initialization done.
I0212 18:49:31.383438 14329 solver.cpp:181] Creating test net (#0) specified by test_net file: test.prototxt
I0212 18:49:31.383882 14329 net.cpp:58] Initializing net from parameters: 
state {
  phase: TEST
}
layer {
  name: "data"
  type: "Python"
  top: "data"
  top: "sem"
  top: "geo"
  python_param {
    module: "siftflow_layers"
    layer: "SIFTFlowSegDataLayer"
    param_str: "{\'siftflow_dir\': \'../data/sift-flow\', \'seed\': 1337, \'split\': \'test\'}"
  }
}
layer {
  name: "conv1_1"
  type: "Convolution"
  bottom: "data"
  top: "conv1_1"
  param {
    lr_mult: 1
    decay_mult: 1
  }
  param {
    lr_mult: 2
    decay_mult: 0
  }
  convolution_param {
    num_output: 64
    pad: 100
    kernel_size: 3
    stride: 1
  }
}
layer {
  name: "relu1_1"
  type: "ReLU"
  bottom: "conv1_1"
  top: "conv1_1"
}
layer {
  name: "conv1_2"
  type: "Convolution"
  bottom: "conv1_1"
  top: "conv1_2"
  param {
    lr_mult: 1
    decay_mult: 1
  }
  param {
    lr_mult: 2
    decay_mult: 0
  }
  convolution_param {
    num_output: 64
    pad: 1
    kernel_size: 3
    stride: 1
  }
}
layer {
  name: "relu1_2"
  type: "ReLU"
  bottom: "conv1_2"
  top: "conv1_2"
}
layer {
  name: "pool1"
  type: "Pooling"
  bottom: "conv1_2"
  top: "pool1"
  pooling_param {
    pool: MAX
    kernel_size: 2
    stride: 2
  }
}
layer {
  name: "conv2_1"
  type: "Convolution"
  bottom: "pool1"
  top: "conv2_1"
  param {
    lr_mult: 1
    decay_mult: 1
  }
  param {
    lr_mult: 2
    decay_mult: 0
  }
  convolution_param {
    num_output: 128
    pad: 1
    kernel_size: 3
    stride: 1
  }
}
layer {
  name: "relu2_1"
  type: "ReLU"
  bottom: "conv2_1"
  top: "conv2_1"
}
layer {
  name: "conv2_2"
  type: "Convolution"
  bottom: "conv2_1"
  top: "conv2_2"
  param {
    lr_mult: 1
    decay_mult: 1
  }
  param {
    lr_mult: 2
    decay_mult: 0
  }
  convolution_param {
    num_output: 128
    pad: 1
    kernel_size: 3
    stride: 1
  }
}
layer {
  name: "relu2_2"
  type: "ReLU"
  bottom: "conv2_2"
  top: "conv2_2"
}
layer {
  name: "pool2"
  type: "Pooling"
  bottom: "conv2_2"
  top: "pool2"
  pooling_param {
    pool: MAX
    kernel_size: 2
    stride: 2
  }
}
layer {
  name: "conv3_1"
  type: "Convolution"
  bottom: "pool2"
  top: "conv3_1"
  param {
    lr_mult: 1
    decay_mult: 1
  }
  param {
    lr_mult: 2
    decay_mult: 0
  }
  convolution_param {
    num_output: 256
    pad: 1
    kernel_size: 3
    stride: 1
  }
}
layer {
  name: "relu3_1"
  type: "ReLU"
  bottom: "conv3_1"
  top: "conv3_1"
}
layer {
  name: "conv3_2"
  type: "Convolution"
  bottom: "conv3_1"
  top: "conv3_2"
  param {
    lr_mult: 1
    decay_mult: 1
  }
  param {
    lr_mult: 2
    decay_mult: 0
  }
  convolution_param {
    num_output: 256
    pad: 1
    kernel_size: 3
    stride: 1
  }
}
layer {
  name: "relu3_2"
  type: "ReLU"
  bottom: "conv3_2"
  top: "conv3_2"
}
layer {
  name: "conv3_3"
  type: "Convolution"
  bottom: "conv3_2"
  top: "conv3_3"
  param {
    lr_mult: 1
    decay_mult: 1
  }
  param {
    lr_mult: 2
    decay_mult: 0
  }
  convolution_param {
    num_output: 256
    pad: 1
    kernel_size: 3
    stride: 1
  }
}
layer {
  name: "relu3_3"
  type: "ReLU"
  bottom: "conv3_3"
  top: "conv3_3"
}
layer {
  name: "pool3"
  type: "Pooling"
  bottom: "conv3_3"
  top: "pool3"
  pooling_param {
    pool: MAX
    kernel_size: 2
    stride: 2
  }
}
layer {
  name: "conv4_1"
  type: "Convolution"
  bottom: "pool3"
  top: "conv4_1"
  param {
    lr_mult: 1
    decay_mult: 1
  }
  param {
    lr_mult: 2
    decay_mult: 0
  }
  convolution_param {
    num_output: 512
    pad: 1
    kernel_size: 3
    stride: 1
  }
}
layer {
  name: "relu4_1"
  type: "ReLU"
  bottom: "conv4_1"
  top: "conv4_1"
}
layer {
  name: "conv4_2"
  type: "Convolution"
  bottom: "conv4_1"
  top: "conv4_2"
  param {
    lr_mult: 1
    decay_mult: 1
  }
  param {
    lr_mult: 2
    decay_mult: 0
  }
  convolution_param {
    num_output: 512
    pad: 1
    kernel_size: 3
    stride: 1
  }
}
layer {
  name: "relu4_2"
  type: "ReLU"
  bottom: "conv4_2"
  top: "conv4_2"
}
layer {
  name: "conv4_3"
  type: "Convolution"
  bottom: "conv4_2"
  top: "conv4_3"
  param {
    lr_mult: 1
    decay_mult: 1
  }
  param {
    lr_mult: 2
    decay_mult: 0
  }
  convolution_param {
    num_output: 512
    pad: 1
    kernel_size: 3
    stride: 1
  }
}
layer {
  name: "relu4_3"
  type: "ReLU"
  bottom: "conv4_3"
  top: "conv4_3"
}
layer {
  name: "pool4"
  type: "Pooling"
  bottom: "conv4_3"
  top: "pool4"
  pooling_param {
    pool: MAX
    kernel_size: 2
    stride: 2
  }
}
layer {
  name: "conv5_1"
  type: "Convolution"
  bottom: "pool4"
  top: "conv5_1"
  param {
    lr_mult: 1
    decay_mult: 1
  }
  param {
    lr_mult: 2
    decay_mult: 0
  }
  convolution_param {
    num_output: 512
    pad: 1
    kernel_size: 3
    stride: 1
  }
}
layer {
  name: "relu5_1"
  type: "ReLU"
  bottom: "conv5_1"
  top: "conv5_1"
}
layer {
  name: "conv5_2"
  type: "Convolution"
  bottom: "conv5_1"
  top: "conv5_2"
  param {
    lr_mult: 1
    decay_mult: 1
  }
  param {
    lr_mult: 2
    decay_mult: 0
  }
  convolution_param {
    num_output: 512
    pad: 1
    kernel_size: 3
    stride: 1
  }
}
layer {
  name: "relu5_2"
  type: "ReLU"
  bottom: "conv5_2"
  top: "conv5_2"
}
layer {
  name: "conv5_3"
  type: "Convolution"
  bottom: "conv5_2"
  top: "conv5_3"
  param {
    lr_mult: 1
    decay_mult: 1
  }
  param {
    lr_mult: 2
    decay_mult: 0
  }
  convolution_param {
    num_output: 512
    pad: 1
    kernel_size: 3
    stride: 1
  }
}
layer {
  name: "relu5_3"
  type: "ReLU"
  bottom: "conv5_3"
  top: "conv5_3"
}
layer {
  name: "pool5"
  type: "Pooling"
  bottom: "conv5_3"
  top: "pool5"
  pooling_param {
    pool: MAX
    kernel_size: 2
    stride: 2
  }
}
layer {
  name: "fc6"
  type: "Convolution"
  bottom: "pool5"
  top: "fc6"
  param {
    lr_mult: 1
    decay_mult: 1
  }
  param {
    lr_mult: 2
    decay_mult: 0
  }
  convolution_param {
    num_output: 4096
    pad: 0
    kernel_size: 7
    stride: 1
  }
}
layer {
  name: "relu6"
  type: "ReLU"
  bottom: "fc6"
  top: "fc6"
}
layer {
  name: "drop6"
  type: "Dropout"
  bottom: "fc6"
  top: "fc6"
  dropout_param {
    dropout_ratio: 0.5
  }
}
layer {
  name: "fc7"
  type: "Convolution"
  bottom: "fc6"
  top: "fc7"
  param {
    lr_mult: 1
    decay_mult: 1
  }
  param {
    lr_mult: 2
    decay_mult: 0
  }
  convolution_param {
    num_output: 4096
    pad: 0
    kernel_size: 1
    stride: 1
  }
}
layer {
  name: "relu7"
  type: "ReLU"
  bottom: "fc7"
  top: "fc7"
}
layer {
  name: "drop7"
  type: "Dropout"
  bottom: "fc7"
  top: "fc7"
  dropout_param {
    dropout_ratio: 0.5
  }
}
layer {
  name: "score_fr_sem"
  type: "Convolution"
  bottom: "fc7"
  top: "score_fr_sem"
  param {
    lr_mult: 1
    decay_mult: 1
  }
  param {
    lr_mult: 2
    decay_mult: 0
  }
  convolution_param {
    num_output: 33
    pad: 0
    kernel_size: 1
  }
}
layer {
  name: "upscore2_sem"
  type: "Deconvolution"
  bottom: "score_fr_sem"
  top: "upscore2_sem"
  param {
    lr_mult: 0
  }
  convolution_param {
    num_output: 33
    bias_term: false
    kernel_size: 4
    stride: 2
  }
}
layer {
  name: "score_pool4_sem"
  type: "Convolution"
  bottom: "pool4"
  top: "score_pool4_sem"
  param {
    lr_mult: 1
    decay_mult: 1
  }
  param {
    lr_mult: 2
    decay_mult: 0
  }
  convolution_param {
    num_output: 33
    pad: 0
    kernel_size: 1
  }
}
layer {
  name: "score_pool4_semc"
  type: "Crop"
  bottom: "score_pool4_sem"
  bottom: "upscore2_sem"
  top: "score_pool4_semc"
  crop_param {
    axis: 2
    offset: 5
  }
}
layer {
  name: "fuse_pool4_sem"
  type: "Eltwise"
  bottom: "upscore2_sem"
  bottom: "score_pool4_semc"
  top: "fuse_pool4_sem"
  eltwise_param {
    operation: SUM
  }
}
layer {
  name: "upscore_pool4_sem"
  type: "Deconvolution"
  bottom: "fuse_pool4_sem"
  top: "upscore_pool4_sem"
  param {
    lr_mult: 0
  }
  convolution_param {
    num_output: 33
    bias_term: false
    kernel_size: 4
    stride: 2
  }
}
layer {
  name: "score_pool3_sem"
  type: "Convolution"
  bottom: "pool3"
  top: "score_pool3_sem"
  param {
    lr_mult: 1
    decay_mult: 1
  }
  param {
    lr_mult: 2
    decay_mult: 0
  }
  convolution_param {
    num_output: 33
    pad: 0
    kernel_size: 1
  }
}
layer {
  name: "score_pool3_semc"
  type: "Crop"
  bottom: "score_pool3_sem"
  bottom: "upscore_pool4_sem"
  top: "score_pool3_semc"
  crop_param {
    axis: 2
    offset: 9
  }
}
layer {
  name: "fuse_pool3_sem"
  type: "Eltwise"
  bottom: "upscore_pool4_sem"
  bottom: "score_pool3_semc"
  top: "fuse_pool3_sem"
  eltwise_param {
    operation: SUM
  }
}
layer {
  name: "upscore8_sem"
  type: "Deconvolution"
  bottom: "fuse_pool3_sem"
  top: "upscore8_sem"
  param {
    lr_mult: 0
  }
  convolution_param {
    num_output: 33
    bias_term: false
    kernel_size: 16
    stride: 8
  }
}
layer {
  name: "score_sem"
  type: "Crop"
  bottom: "upscore8_sem"
  bottom: "data"
  top: "score_sem"
  crop_param {
    axis: 2
    offset: 31
  }
}
layer {
  name: "loss"
  type: "SoftmaxWithLoss"
  bottom: "score_sem"
  bottom: "sem"
  top: "loss"
  loss_param {
    ignore_label: 255
    normalize: false
  }
}
layer {
  name: "score_fr_geo"
  type: "Convolution"
  bottom: "fc7"
  top: "score_fr_geo"
  param {
    lr_mult: 1
    decay_mult: 1
  }
  param {
    lr_mult: 2
    decay_mult: 0
  }
  convolution_param {
    num_output: 3
    pad: 0
    kernel_size: 1
  }
}
layer {
  name: "upscore2_geo"
  type: "Deconvolution"
  bottom: "score_fr_geo"
  top: "upscore2_geo"
  param {
    lr_mult: 0
  }
  convolution_param {
    num_output: 3
    bias_term: false
    kernel_size: 4
    stride: 2
  }
}
layer {
  name: "score_pool4_geo"
  type: "Convolution"
  bottom: "pool4"
  top: "score_pool4_geo"
  param {
    lr_mult: 1
    decay_mult: 1
  }
  param {
    lr_mult: 2
    decay_mult: 0
  }
  convolution_param {
    num_output: 3
    pad: 0
    kernel_size: 1
  }
}
layer {
  name: "score_pool4_geoc"
  type: "Crop"
  bottom: "score_pool4_geo"
  bottom: "upscore2_geo"
  top: "score_pool4_geoc"
  crop_param {
    axis: 2
    offset: 5
  }
}
layer {
  name: "fuse_pool4_geo"
  type: "Eltwise"
  bottom: "upscore2_geo"
  bottom: "score_pool4_geoc"
  top: "fuse_pool4_geo"
  eltwise_param {
    operation: SUM
  }
}
layer {
  name: "upscore_pool4_geo"
  type: "Deconvolution"
  bottom: "fuse_pool4_geo"
  top: "upscore_pool4_geo"
  param {
    lr_mult: 0
  }
  convolution_param {
    num_output: 3
    bias_term: false
    kernel_size: 4
    stride: 2
  }
}
layer {
  name: "score_pool3_geo"
  type: "Convolution"
  bottom: "pool3"
  top: "score_pool3_geo"
  param {
    lr_mult: 1
    decay_mult: 1
  }
  param {
    lr_mult: 2
    decay_mult: 0
  }
  convolution_param {
    num_output: 3
    pad: 0
    kernel_size: 1
  }
}
layer {
  name: "score_pool3_geoc"
  type: "Crop"
  bottom: "score_pool3_geo"
  bottom: "upscore_pool4_geo"
  top: "score_pool3_geoc"
  crop_param {
    axis: 2
    offset: 9
  }
}
layer {
  name: "fuse_pool3_geo"
  type: "Eltwise"
  bottom: "upscore_pool4_geo"
  bottom: "score_pool3_geoc"
  top: "fuse_pool3_geo"
  eltwise_param {
    operation: SUM
  }
}
layer {
  name: "upscore8_geo"
  type: "Deconvolution"
  bottom: "fuse_pool3_geo"
  top: "upscore8_geo"
  param {
    lr_mult: 0
  }
  convolution_param {
    num_output: 3
    bias_term: false
    kernel_size: 16
    stride: 8
  }
}
layer {
  name: "score_geo"
  type: "Crop"
  bottom: "upscore8_geo"
  bottom: "data"
  top: "score_geo"
  crop_param {
    axis: 2
    offset: 31
  }
}
layer {
  name: "loss_geo"
  type: "SoftmaxWithLoss"
  bottom: "score_geo"
  bottom: "geo"
  top: "loss_geo"
  loss_param {
    ignore_label: 255
    normalize: false
  }
}
I0212 18:49:31.384382 14329 layer_factory.hpp:77] Creating layer data
I0212 18:49:31.384730 14329 net.cpp:100] Creating Layer data
I0212 18:49:31.384753 14329 net.cpp:408] data -> data
I0212 18:49:31.384769 14329 net.cpp:408] data -> sem
I0212 18:49:31.384783 14329 net.cpp:408] data -> geo
I0212 18:49:31.391237 14329 net.cpp:150] Setting up data
I0212 18:49:31.391259 14329 net.cpp:157] Top shape: 1 3 256 256 (196608)
I0212 18:49:31.391271 14329 net.cpp:157] Top shape: 1 1 256 256 (65536)
I0212 18:49:31.391280 14329 net.cpp:157] Top shape: 1 1 256 256 (65536)
I0212 18:49:31.391288 14329 net.cpp:165] Memory required for data: 1310720
I0212 18:49:31.391295 14329 layer_factory.hpp:77] Creating layer data_data_0_split
I0212 18:49:31.391309 14329 net.cpp:100] Creating Layer data_data_0_split
I0212 18:49:31.391315 14329 net.cpp:434] data_data_0_split <- data
I0212 18:49:31.391326 14329 net.cpp:408] data_data_0_split -> data_data_0_split_0
I0212 18:49:31.391340 14329 net.cpp:408] data_data_0_split -> data_data_0_split_1
I0212 18:49:31.391365 14329 net.cpp:408] data_data_0_split -> data_data_0_split_2
I0212 18:49:31.391460 14329 net.cpp:150] Setting up data_data_0_split
I0212 18:49:31.391480 14329 net.cpp:157] Top shape: 1 3 256 256 (196608)
I0212 18:49:31.391489 14329 net.cpp:157] Top shape: 1 3 256 256 (196608)
I0212 18:49:31.391494 14329 net.cpp:157] Top shape: 1 3 256 256 (196608)
I0212 18:49:31.391497 14329 net.cpp:165] Memory required for data: 3670016
I0212 18:49:31.391502 14329 layer_factory.hpp:77] Creating layer conv1_1
I0212 18:49:31.391515 14329 net.cpp:100] Creating Layer conv1_1
I0212 18:49:31.391522 14329 net.cpp:434] conv1_1 <- data_data_0_split_0
I0212 18:49:31.391535 14329 net.cpp:408] conv1_1 -> conv1_1
I0212 18:49:31.393342 14329 net.cpp:150] Setting up conv1_1
I0212 18:49:31.393359 14329 net.cpp:157] Top shape: 1 64 454 454 (13191424)
I0212 18:49:31.393374 14329 net.cpp:165] Memory required for data: 56435712
I0212 18:49:31.393386 14329 layer_factory.hpp:77] Creating layer relu1_1
I0212 18:49:31.393393 14329 net.cpp:100] Creating Layer relu1_1
I0212 18:49:31.393399 14329 net.cpp:434] relu1_1 <- conv1_1
I0212 18:49:31.393404 14329 net.cpp:395] relu1_1 -> conv1_1 (in-place)
I0212 18:49:31.393628 14329 net.cpp:150] Setting up relu1_1
I0212 18:49:31.393645 14329 net.cpp:157] Top shape: 1 64 454 454 (13191424)
I0212 18:49:31.393649 14329 net.cpp:165] Memory required for data: 109201408
I0212 18:49:31.393653 14329 layer_factory.hpp:77] Creating layer conv1_2
I0212 18:49:31.393663 14329 net.cpp:100] Creating Layer conv1_2
I0212 18:49:31.393668 14329 net.cpp:434] conv1_2 <- conv1_1
I0212 18:49:31.393676 14329 net.cpp:408] conv1_2 -> conv1_2
I0212 18:49:31.395609 14329 net.cpp:150] Setting up conv1_2
I0212 18:49:31.395635 14329 net.cpp:157] Top shape: 1 64 454 454 (13191424)
I0212 18:49:31.395640 14329 net.cpp:165] Memory required for data: 161967104
I0212 18:49:31.395656 14329 layer_factory.hpp:77] Creating layer relu1_2
I0212 18:49:31.395663 14329 net.cpp:100] Creating Layer relu1_2
I0212 18:49:31.395668 14329 net.cpp:434] relu1_2 <- conv1_2
I0212 18:49:31.395685 14329 net.cpp:395] relu1_2 -> conv1_2 (in-place)
I0212 18:49:31.396013 14329 net.cpp:150] Setting up relu1_2
I0212 18:49:31.396029 14329 net.cpp:157] Top shape: 1 64 454 454 (13191424)
I0212 18:49:31.396034 14329 net.cpp:165] Memory required for data: 214732800
I0212 18:49:31.396039 14329 layer_factory.hpp:77] Creating layer pool1
I0212 18:49:31.396046 14329 net.cpp:100] Creating Layer pool1
I0212 18:49:31.396050 14329 net.cpp:434] pool1 <- conv1_2
I0212 18:49:31.396056 14329 net.cpp:408] pool1 -> pool1
I0212 18:49:31.396107 14329 net.cpp:150] Setting up pool1
I0212 18:49:31.396114 14329 net.cpp:157] Top shape: 1 64 227 227 (3297856)
I0212 18:49:31.396118 14329 net.cpp:165] Memory required for data: 227924224
I0212 18:49:31.396122 14329 layer_factory.hpp:77] Creating layer conv2_1
I0212 18:49:31.396131 14329 net.cpp:100] Creating Layer conv2_1
I0212 18:49:31.396136 14329 net.cpp:434] conv2_1 <- pool1
I0212 18:49:31.396142 14329 net.cpp:408] conv2_1 -> conv2_1
I0212 18:49:31.397750 14329 net.cpp:150] Setting up conv2_1
I0212 18:49:31.397778 14329 net.cpp:157] Top shape: 1 128 227 227 (6595712)
I0212 18:49:31.397783 14329 net.cpp:165] Memory required for data: 254307072
I0212 18:49:31.397805 14329 layer_factory.hpp:77] Creating layer relu2_1
I0212 18:49:31.397835 14329 net.cpp:100] Creating Layer relu2_1
I0212 18:49:31.397840 14329 net.cpp:434] relu2_1 <- conv2_1
I0212 18:49:31.397846 14329 net.cpp:395] relu2_1 -> conv2_1 (in-place)
I0212 18:49:31.398221 14329 net.cpp:150] Setting up relu2_1
I0212 18:49:31.398246 14329 net.cpp:157] Top shape: 1 128 227 227 (6595712)
I0212 18:49:31.398249 14329 net.cpp:165] Memory required for data: 280689920
I0212 18:49:31.398264 14329 layer_factory.hpp:77] Creating layer conv2_2
I0212 18:49:31.398286 14329 net.cpp:100] Creating Layer conv2_2
I0212 18:49:31.398291 14329 net.cpp:434] conv2_2 <- conv2_1
I0212 18:49:31.398298 14329 net.cpp:408] conv2_2 -> conv2_2
I0212 18:49:31.400063 14329 net.cpp:150] Setting up conv2_2
I0212 18:49:31.400079 14329 net.cpp:157] Top shape: 1 128 227 227 (6595712)
I0212 18:49:31.400084 14329 net.cpp:165] Memory required for data: 307072768
I0212 18:49:31.400092 14329 layer_factory.hpp:77] Creating layer relu2_2
I0212 18:49:31.400099 14329 net.cpp:100] Creating Layer relu2_2
I0212 18:49:31.400104 14329 net.cpp:434] relu2_2 <- conv2_2
I0212 18:49:31.400110 14329 net.cpp:395] relu2_2 -> conv2_2 (in-place)
I0212 18:49:31.400332 14329 net.cpp:150] Setting up relu2_2
I0212 18:49:31.400348 14329 net.cpp:157] Top shape: 1 128 227 227 (6595712)
I0212 18:49:31.400352 14329 net.cpp:165] Memory required for data: 333455616
I0212 18:49:31.400357 14329 layer_factory.hpp:77] Creating layer pool2
I0212 18:49:31.400365 14329 net.cpp:100] Creating Layer pool2
I0212 18:49:31.400369 14329 net.cpp:434] pool2 <- conv2_2
I0212 18:49:31.400375 14329 net.cpp:408] pool2 -> pool2
I0212 18:49:31.400430 14329 net.cpp:150] Setting up pool2
I0212 18:49:31.400446 14329 net.cpp:157] Top shape: 1 128 114 114 (1663488)
I0212 18:49:31.400454 14329 net.cpp:165] Memory required for data: 340109568
I0212 18:49:31.400460 14329 layer_factory.hpp:77] Creating layer conv3_1
I0212 18:49:31.400475 14329 net.cpp:100] Creating Layer conv3_1
I0212 18:49:31.400480 14329 net.cpp:434] conv3_1 <- pool2
I0212 18:49:31.400486 14329 net.cpp:408] conv3_1 -> conv3_1
I0212 18:49:31.402330 14329 net.cpp:150] Setting up conv3_1
I0212 18:49:31.402346 14329 net.cpp:157] Top shape: 1 256 114 114 (3326976)
I0212 18:49:31.402362 14329 net.cpp:165] Memory required for data: 353417472
I0212 18:49:31.402374 14329 layer_factory.hpp:77] Creating layer relu3_1
I0212 18:49:31.402380 14329 net.cpp:100] Creating Layer relu3_1
I0212 18:49:31.402384 14329 net.cpp:434] relu3_1 <- conv3_1
I0212 18:49:31.402391 14329 net.cpp:395] relu3_1 -> conv3_1 (in-place)
I0212 18:49:31.402743 14329 net.cpp:150] Setting up relu3_1
I0212 18:49:31.402770 14329 net.cpp:157] Top shape: 1 256 114 114 (3326976)
I0212 18:49:31.402775 14329 net.cpp:165] Memory required for data: 366725376
I0212 18:49:31.402789 14329 layer_factory.hpp:77] Creating layer conv3_2
I0212 18:49:31.402799 14329 net.cpp:100] Creating Layer conv3_2
I0212 18:49:31.402804 14329 net.cpp:434] conv3_2 <- conv3_1
I0212 18:49:31.402812 14329 net.cpp:408] conv3_2 -> conv3_2
I0212 18:49:31.405032 14329 net.cpp:150] Setting up conv3_2
I0212 18:49:31.405051 14329 net.cpp:157] Top shape: 1 256 114 114 (3326976)
I0212 18:49:31.405056 14329 net.cpp:165] Memory required for data: 380033280
I0212 18:49:31.405064 14329 layer_factory.hpp:77] Creating layer relu3_2
I0212 18:49:31.405071 14329 net.cpp:100] Creating Layer relu3_2
I0212 18:49:31.405076 14329 net.cpp:434] relu3_2 <- conv3_2
I0212 18:49:31.405081 14329 net.cpp:395] relu3_2 -> conv3_2 (in-place)
I0212 18:49:31.405436 14329 net.cpp:150] Setting up relu3_2
I0212 18:49:31.405454 14329 net.cpp:157] Top shape: 1 256 114 114 (3326976)
I0212 18:49:31.405458 14329 net.cpp:165] Memory required for data: 393341184
I0212 18:49:31.405463 14329 layer_factory.hpp:77] Creating layer conv3_3
I0212 18:49:31.405475 14329 net.cpp:100] Creating Layer conv3_3
I0212 18:49:31.405480 14329 net.cpp:434] conv3_3 <- conv3_2
I0212 18:49:31.405488 14329 net.cpp:408] conv3_3 -> conv3_3
I0212 18:49:31.407802 14329 net.cpp:150] Setting up conv3_3
I0212 18:49:31.407819 14329 net.cpp:157] Top shape: 1 256 114 114 (3326976)
I0212 18:49:31.407835 14329 net.cpp:165] Memory required for data: 406649088
I0212 18:49:31.407843 14329 layer_factory.hpp:77] Creating layer relu3_3
I0212 18:49:31.407852 14329 net.cpp:100] Creating Layer relu3_3
I0212 18:49:31.407857 14329 net.cpp:434] relu3_3 <- conv3_3
I0212 18:49:31.407862 14329 net.cpp:395] relu3_3 -> conv3_3 (in-place)
I0212 18:49:31.408056 14329 net.cpp:150] Setting up relu3_3
I0212 18:49:31.408074 14329 net.cpp:157] Top shape: 1 256 114 114 (3326976)
I0212 18:49:31.408082 14329 net.cpp:165] Memory required for data: 419956992
I0212 18:49:31.408087 14329 layer_factory.hpp:77] Creating layer pool3
I0212 18:49:31.408094 14329 net.cpp:100] Creating Layer pool3
I0212 18:49:31.408099 14329 net.cpp:434] pool3 <- conv3_3
I0212 18:49:31.408107 14329 net.cpp:408] pool3 -> pool3
I0212 18:49:31.408179 14329 net.cpp:150] Setting up pool3
I0212 18:49:31.408191 14329 net.cpp:157] Top shape: 1 256 57 57 (831744)
I0212 18:49:31.408195 14329 net.cpp:165] Memory required for data: 423283968
I0212 18:49:31.408200 14329 layer_factory.hpp:77] Creating layer pool3_pool3_0_split
I0212 18:49:31.408207 14329 net.cpp:100] Creating Layer pool3_pool3_0_split
I0212 18:49:31.408212 14329 net.cpp:434] pool3_pool3_0_split <- pool3
I0212 18:49:31.408218 14329 net.cpp:408] pool3_pool3_0_split -> pool3_pool3_0_split_0
I0212 18:49:31.408231 14329 net.cpp:408] pool3_pool3_0_split -> pool3_pool3_0_split_1
I0212 18:49:31.408243 14329 net.cpp:408] pool3_pool3_0_split -> pool3_pool3_0_split_2
I0212 18:49:31.408308 14329 net.cpp:150] Setting up pool3_pool3_0_split
I0212 18:49:31.408325 14329 net.cpp:157] Top shape: 1 256 57 57 (831744)
I0212 18:49:31.408335 14329 net.cpp:157] Top shape: 1 256 57 57 (831744)
I0212 18:49:31.408340 14329 net.cpp:157] Top shape: 1 256 57 57 (831744)
I0212 18:49:31.408344 14329 net.cpp:165] Memory required for data: 433264896
I0212 18:49:31.408347 14329 layer_factory.hpp:77] Creating layer conv4_1
I0212 18:49:31.408359 14329 net.cpp:100] Creating Layer conv4_1
I0212 18:49:31.408362 14329 net.cpp:434] conv4_1 <- pool3_pool3_0_split_0
I0212 18:49:31.408370 14329 net.cpp:408] conv4_1 -> conv4_1
I0212 18:49:31.411790 14329 net.cpp:150] Setting up conv4_1
I0212 18:49:31.411806 14329 net.cpp:157] Top shape: 1 512 57 57 (1663488)
I0212 18:49:31.411823 14329 net.cpp:165] Memory required for data: 439918848
I0212 18:49:31.411829 14329 layer_factory.hpp:77] Creating layer relu4_1
I0212 18:49:31.411839 14329 net.cpp:100] Creating Layer relu4_1
I0212 18:49:31.411842 14329 net.cpp:434] relu4_1 <- conv4_1
I0212 18:49:31.411849 14329 net.cpp:395] relu4_1 -> conv4_1 (in-place)
I0212 18:49:31.412227 14329 net.cpp:150] Setting up relu4_1
I0212 18:49:31.412257 14329 net.cpp:157] Top shape: 1 512 57 57 (1663488)
I0212 18:49:31.412261 14329 net.cpp:165] Memory required for data: 446572800
I0212 18:49:31.412266 14329 layer_factory.hpp:77] Creating layer conv4_2
I0212 18:49:31.412274 14329 net.cpp:100] Creating Layer conv4_2
I0212 18:49:31.412279 14329 net.cpp:434] conv4_2 <- conv4_1
I0212 18:49:31.412287 14329 net.cpp:408] conv4_2 -> conv4_2
I0212 18:49:31.417440 14329 net.cpp:150] Setting up conv4_2
I0212 18:49:31.417469 14329 net.cpp:157] Top shape: 1 512 57 57 (1663488)
I0212 18:49:31.417474 14329 net.cpp:165] Memory required for data: 453226752
I0212 18:49:31.417500 14329 layer_factory.hpp:77] Creating layer relu4_2
I0212 18:49:31.417520 14329 net.cpp:100] Creating Layer relu4_2
I0212 18:49:31.417536 14329 net.cpp:434] relu4_2 <- conv4_2
I0212 18:49:31.417541 14329 net.cpp:395] relu4_2 -> conv4_2 (in-place)
I0212 18:49:31.417954 14329 net.cpp:150] Setting up relu4_2
I0212 18:49:31.417970 14329 net.cpp:157] Top shape: 1 512 57 57 (1663488)
I0212 18:49:31.417985 14329 net.cpp:165] Memory required for data: 459880704
I0212 18:49:31.417989 14329 layer_factory.hpp:77] Creating layer conv4_3
I0212 18:49:31.418000 14329 net.cpp:100] Creating Layer conv4_3
I0212 18:49:31.418004 14329 net.cpp:434] conv4_3 <- conv4_2
I0212 18:49:31.418012 14329 net.cpp:408] conv4_3 -> conv4_3
I0212 18:49:31.423292 14329 net.cpp:150] Setting up conv4_3
I0212 18:49:31.423321 14329 net.cpp:157] Top shape: 1 512 57 57 (1663488)
I0212 18:49:31.423326 14329 net.cpp:165] Memory required for data: 466534656
I0212 18:49:31.423333 14329 layer_factory.hpp:77] Creating layer relu4_3
I0212 18:49:31.423341 14329 net.cpp:100] Creating Layer relu4_3
I0212 18:49:31.423344 14329 net.cpp:434] relu4_3 <- conv4_3
I0212 18:49:31.423349 14329 net.cpp:395] relu4_3 -> conv4_3 (in-place)
I0212 18:49:31.423539 14329 net.cpp:150] Setting up relu4_3
I0212 18:49:31.423552 14329 net.cpp:157] Top shape: 1 512 57 57 (1663488)
I0212 18:49:31.423555 14329 net.cpp:165] Memory required for data: 473188608
I0212 18:49:31.423562 14329 layer_factory.hpp:77] Creating layer pool4
I0212 18:49:31.423575 14329 net.cpp:100] Creating Layer pool4
I0212 18:49:31.423583 14329 net.cpp:434] pool4 <- conv4_3
I0212 18:49:31.423593 14329 net.cpp:408] pool4 -> pool4
I0212 18:49:31.423660 14329 net.cpp:150] Setting up pool4
I0212 18:49:31.423672 14329 net.cpp:157] Top shape: 1 512 29 29 (430592)
I0212 18:49:31.423676 14329 net.cpp:165] Memory required for data: 474910976
I0212 18:49:31.423679 14329 layer_factory.hpp:77] Creating layer pool4_pool4_0_split
I0212 18:49:31.423686 14329 net.cpp:100] Creating Layer pool4_pool4_0_split
I0212 18:49:31.423691 14329 net.cpp:434] pool4_pool4_0_split <- pool4
I0212 18:49:31.423696 14329 net.cpp:408] pool4_pool4_0_split -> pool4_pool4_0_split_0
I0212 18:49:31.423704 14329 net.cpp:408] pool4_pool4_0_split -> pool4_pool4_0_split_1
I0212 18:49:31.423710 14329 net.cpp:408] pool4_pool4_0_split -> pool4_pool4_0_split_2
I0212 18:49:31.423785 14329 net.cpp:150] Setting up pool4_pool4_0_split
I0212 18:49:31.423799 14329 net.cpp:157] Top shape: 1 512 29 29 (430592)
I0212 18:49:31.423806 14329 net.cpp:157] Top shape: 1 512 29 29 (430592)
I0212 18:49:31.423815 14329 net.cpp:157] Top shape: 1 512 29 29 (430592)
I0212 18:49:31.423820 14329 net.cpp:165] Memory required for data: 480078080
I0212 18:49:31.423825 14329 layer_factory.hpp:77] Creating layer conv5_1
I0212 18:49:31.423833 14329 net.cpp:100] Creating Layer conv5_1
I0212 18:49:31.423837 14329 net.cpp:434] conv5_1 <- pool4_pool4_0_split_0
I0212 18:49:31.423846 14329 net.cpp:408] conv5_1 -> conv5_1
I0212 18:49:31.428985 14329 net.cpp:150] Setting up conv5_1
I0212 18:49:31.429015 14329 net.cpp:157] Top shape: 1 512 29 29 (430592)
I0212 18:49:31.429020 14329 net.cpp:165] Memory required for data: 481800448
I0212 18:49:31.429029 14329 layer_factory.hpp:77] Creating layer relu5_1
I0212 18:49:31.429038 14329 net.cpp:100] Creating Layer relu5_1
I0212 18:49:31.429042 14329 net.cpp:434] relu5_1 <- conv5_1
I0212 18:49:31.429049 14329 net.cpp:395] relu5_1 -> conv5_1 (in-place)
I0212 18:49:31.429416 14329 net.cpp:150] Setting up relu5_1
I0212 18:49:31.429443 14329 net.cpp:157] Top shape: 1 512 29 29 (430592)
I0212 18:49:31.429458 14329 net.cpp:165] Memory required for data: 483522816
I0212 18:49:31.429462 14329 layer_factory.hpp:77] Creating layer conv5_2
I0212 18:49:31.429476 14329 net.cpp:100] Creating Layer conv5_2
I0212 18:49:31.429481 14329 net.cpp:434] conv5_2 <- conv5_1
I0212 18:49:31.429491 14329 net.cpp:408] conv5_2 -> conv5_2
I0212 18:49:31.434604 14329 net.cpp:150] Setting up conv5_2
I0212 18:49:31.434634 14329 net.cpp:157] Top shape: 1 512 29 29 (430592)
I0212 18:49:31.434638 14329 net.cpp:165] Memory required for data: 485245184
I0212 18:49:31.434646 14329 layer_factory.hpp:77] Creating layer relu5_2
I0212 18:49:31.434654 14329 net.cpp:100] Creating Layer relu5_2
I0212 18:49:31.434659 14329 net.cpp:434] relu5_2 <- conv5_2
I0212 18:49:31.434665 14329 net.cpp:395] relu5_2 -> conv5_2 (in-place)
I0212 18:49:31.435050 14329 net.cpp:150] Setting up relu5_2
I0212 18:49:31.435066 14329 net.cpp:157] Top shape: 1 512 29 29 (430592)
I0212 18:49:31.435081 14329 net.cpp:165] Memory required for data: 486967552
I0212 18:49:31.435086 14329 layer_factory.hpp:77] Creating layer conv5_3
I0212 18:49:31.435101 14329 net.cpp:100] Creating Layer conv5_3
I0212 18:49:31.435106 14329 net.cpp:434] conv5_3 <- conv5_2
I0212 18:49:31.435113 14329 net.cpp:408] conv5_3 -> conv5_3
I0212 18:49:31.440426 14329 net.cpp:150] Setting up conv5_3
I0212 18:49:31.440455 14329 net.cpp:157] Top shape: 1 512 29 29 (430592)
I0212 18:49:31.440459 14329 net.cpp:165] Memory required for data: 488689920
I0212 18:49:31.440467 14329 layer_factory.hpp:77] Creating layer relu5_3
I0212 18:49:31.440476 14329 net.cpp:100] Creating Layer relu5_3
I0212 18:49:31.440480 14329 net.cpp:434] relu5_3 <- conv5_3
I0212 18:49:31.440486 14329 net.cpp:395] relu5_3 -> conv5_3 (in-place)
I0212 18:49:31.440685 14329 net.cpp:150] Setting up relu5_3
I0212 18:49:31.440697 14329 net.cpp:157] Top shape: 1 512 29 29 (430592)
I0212 18:49:31.440704 14329 net.cpp:165] Memory required for data: 490412288
I0212 18:49:31.440711 14329 layer_factory.hpp:77] Creating layer pool5
I0212 18:49:31.440724 14329 net.cpp:100] Creating Layer pool5
I0212 18:49:31.440732 14329 net.cpp:434] pool5 <- conv5_3
I0212 18:49:31.440738 14329 net.cpp:408] pool5 -> pool5
I0212 18:49:31.440820 14329 net.cpp:150] Setting up pool5
I0212 18:49:31.440838 14329 net.cpp:157] Top shape: 1 512 15 15 (115200)
I0212 18:49:31.440845 14329 net.cpp:165] Memory required for data: 490873088
I0212 18:49:31.440852 14329 layer_factory.hpp:77] Creating layer fc6
I0212 18:49:31.440868 14329 net.cpp:100] Creating Layer fc6
I0212 18:49:31.440876 14329 net.cpp:434] fc6 <- pool5
I0212 18:49:31.440887 14329 net.cpp:408] fc6 -> fc6
I0212 18:49:31.641072 14329 net.cpp:150] Setting up fc6
I0212 18:49:31.641119 14329 net.cpp:157] Top shape: 1 4096 9 9 (331776)
I0212 18:49:31.641124 14329 net.cpp:165] Memory required for data: 492200192
I0212 18:49:31.641134 14329 layer_factory.hpp:77] Creating layer relu6
I0212 18:49:31.641145 14329 net.cpp:100] Creating Layer relu6
I0212 18:49:31.641150 14329 net.cpp:434] relu6 <- fc6
I0212 18:49:31.641160 14329 net.cpp:395] relu6 -> fc6 (in-place)
I0212 18:49:31.641533 14329 net.cpp:150] Setting up relu6
I0212 18:49:31.641561 14329 net.cpp:157] Top shape: 1 4096 9 9 (331776)
I0212 18:49:31.641577 14329 net.cpp:165] Memory required for data: 493527296
I0212 18:49:31.641582 14329 layer_factory.hpp:77] Creating layer drop6
I0212 18:49:31.641589 14329 net.cpp:100] Creating Layer drop6
I0212 18:49:31.641593 14329 net.cpp:434] drop6 <- fc6
I0212 18:49:31.641600 14329 net.cpp:395] drop6 -> fc6 (in-place)
I0212 18:49:31.641641 14329 net.cpp:150] Setting up drop6
I0212 18:49:31.641649 14329 net.cpp:157] Top shape: 1 4096 9 9 (331776)
I0212 18:49:31.641652 14329 net.cpp:165] Memory required for data: 494854400
I0212 18:49:31.641655 14329 layer_factory.hpp:77] Creating layer fc7
I0212 18:49:31.641669 14329 net.cpp:100] Creating Layer fc7
I0212 18:49:31.641687 14329 net.cpp:434] fc7 <- fc6
I0212 18:49:31.641693 14329 net.cpp:408] fc7 -> fc7
I0212 18:49:31.675705 14329 net.cpp:150] Setting up fc7
I0212 18:49:31.675750 14329 net.cpp:157] Top shape: 1 4096 9 9 (331776)
I0212 18:49:31.675755 14329 net.cpp:165] Memory required for data: 496181504
I0212 18:49:31.675765 14329 layer_factory.hpp:77] Creating layer relu7
I0212 18:49:31.675777 14329 net.cpp:100] Creating Layer relu7
I0212 18:49:31.675782 14329 net.cpp:434] relu7 <- fc7
I0212 18:49:31.675789 14329 net.cpp:395] relu7 -> fc7 (in-place)
I0212 18:49:31.676189 14329 net.cpp:150] Setting up relu7
I0212 18:49:31.676205 14329 net.cpp:157] Top shape: 1 4096 9 9 (331776)
I0212 18:49:31.676221 14329 net.cpp:165] Memory required for data: 497508608
I0212 18:49:31.676226 14329 layer_factory.hpp:77] Creating layer drop7
I0212 18:49:31.676235 14329 net.cpp:100] Creating Layer drop7
I0212 18:49:31.676240 14329 net.cpp:434] drop7 <- fc7
I0212 18:49:31.676246 14329 net.cpp:395] drop7 -> fc7 (in-place)
I0212 18:49:31.676286 14329 net.cpp:150] Setting up drop7
I0212 18:49:31.676304 14329 net.cpp:157] Top shape: 1 4096 9 9 (331776)
I0212 18:49:31.676308 14329 net.cpp:165] Memory required for data: 498835712
I0212 18:49:31.676312 14329 layer_factory.hpp:77] Creating layer fc7_drop7_0_split
I0212 18:49:31.676318 14329 net.cpp:100] Creating Layer fc7_drop7_0_split
I0212 18:49:31.676321 14329 net.cpp:434] fc7_drop7_0_split <- fc7
I0212 18:49:31.676329 14329 net.cpp:408] fc7_drop7_0_split -> fc7_drop7_0_split_0
I0212 18:49:31.676340 14329 net.cpp:408] fc7_drop7_0_split -> fc7_drop7_0_split_1
I0212 18:49:31.676399 14329 net.cpp:150] Setting up fc7_drop7_0_split
I0212 18:49:31.676412 14329 net.cpp:157] Top shape: 1 4096 9 9 (331776)
I0212 18:49:31.676420 14329 net.cpp:157] Top shape: 1 4096 9 9 (331776)
I0212 18:49:31.676426 14329 net.cpp:165] Memory required for data: 501489920
I0212 18:49:31.676432 14329 layer_factory.hpp:77] Creating layer score_fr_sem
I0212 18:49:31.676450 14329 net.cpp:100] Creating Layer score_fr_sem
I0212 18:49:31.676457 14329 net.cpp:434] score_fr_sem <- fc7_drop7_0_split_0
I0212 18:49:31.676470 14329 net.cpp:408] score_fr_sem -> score_fr_sem
I0212 18:49:31.678324 14329 net.cpp:150] Setting up score_fr_sem
I0212 18:49:31.678340 14329 net.cpp:157] Top shape: 1 33 9 9 (2673)
I0212 18:49:31.678356 14329 net.cpp:165] Memory required for data: 501500612
I0212 18:49:31.678365 14329 layer_factory.hpp:77] Creating layer upscore2_sem
I0212 18:49:31.678375 14329 net.cpp:100] Creating Layer upscore2_sem
I0212 18:49:31.678378 14329 net.cpp:434] upscore2_sem <- score_fr_sem
I0212 18:49:31.678385 14329 net.cpp:408] upscore2_sem -> upscore2_sem
I0212 18:49:31.678689 14329 net.cpp:150] Setting up upscore2_sem
I0212 18:49:31.678704 14329 net.cpp:157] Top shape: 1 33 20 20 (13200)
I0212 18:49:31.678709 14329 net.cpp:165] Memory required for data: 501553412
I0212 18:49:31.678724 14329 layer_factory.hpp:77] Creating layer upscore2_sem_upscore2_sem_0_split
I0212 18:49:31.678730 14329 net.cpp:100] Creating Layer upscore2_sem_upscore2_sem_0_split
I0212 18:49:31.678735 14329 net.cpp:434] upscore2_sem_upscore2_sem_0_split <- upscore2_sem
I0212 18:49:31.678740 14329 net.cpp:408] upscore2_sem_upscore2_sem_0_split -> upscore2_sem_upscore2_sem_0_split_0
I0212 18:49:31.678747 14329 net.cpp:408] upscore2_sem_upscore2_sem_0_split -> upscore2_sem_upscore2_sem_0_split_1
I0212 18:49:31.678793 14329 net.cpp:150] Setting up upscore2_sem_upscore2_sem_0_split
I0212 18:49:31.678809 14329 net.cpp:157] Top shape: 1 33 20 20 (13200)
I0212 18:49:31.678817 14329 net.cpp:157] Top shape: 1 33 20 20 (13200)
I0212 18:49:31.678822 14329 net.cpp:165] Memory required for data: 501659012
I0212 18:49:31.678828 14329 layer_factory.hpp:77] Creating layer score_pool4_sem
I0212 18:49:31.678843 14329 net.cpp:100] Creating Layer score_pool4_sem
I0212 18:49:31.678851 14329 net.cpp:434] score_pool4_sem <- pool4_pool4_0_split_1
I0212 18:49:31.678863 14329 net.cpp:408] score_pool4_sem -> score_pool4_sem
I0212 18:49:31.679955 14329 net.cpp:150] Setting up score_pool4_sem
I0212 18:49:31.679970 14329 net.cpp:157] Top shape: 1 33 29 29 (27753)
I0212 18:49:31.679986 14329 net.cpp:165] Memory required for data: 501770024
I0212 18:49:31.679993 14329 layer_factory.hpp:77] Creating layer score_pool4_semc
I0212 18:49:31.680002 14329 net.cpp:100] Creating Layer score_pool4_semc
I0212 18:49:31.680007 14329 net.cpp:434] score_pool4_semc <- score_pool4_sem
I0212 18:49:31.680012 14329 net.cpp:434] score_pool4_semc <- upscore2_sem_upscore2_sem_0_split_0
I0212 18:49:31.680018 14329 net.cpp:408] score_pool4_semc -> score_pool4_semc
I0212 18:49:31.680054 14329 net.cpp:150] Setting up score_pool4_semc
I0212 18:49:31.680060 14329 net.cpp:157] Top shape: 1 33 20 20 (13200)
I0212 18:49:31.680063 14329 net.cpp:165] Memory required for data: 501822824
I0212 18:49:31.680068 14329 layer_factory.hpp:77] Creating layer fuse_pool4_sem
I0212 18:49:31.680074 14329 net.cpp:100] Creating Layer fuse_pool4_sem
I0212 18:49:31.680078 14329 net.cpp:434] fuse_pool4_sem <- upscore2_sem_upscore2_sem_0_split_1
I0212 18:49:31.680083 14329 net.cpp:434] fuse_pool4_sem <- score_pool4_semc
I0212 18:49:31.680088 14329 net.cpp:408] fuse_pool4_sem -> fuse_pool4_sem
I0212 18:49:31.680130 14329 net.cpp:150] Setting up fuse_pool4_sem
I0212 18:49:31.680136 14329 net.cpp:157] Top shape: 1 33 20 20 (13200)
I0212 18:49:31.680140 14329 net.cpp:165] Memory required for data: 501875624
I0212 18:49:31.680145 14329 layer_factory.hpp:77] Creating layer upscore_pool4_sem
I0212 18:49:31.680150 14329 net.cpp:100] Creating Layer upscore_pool4_sem
I0212 18:49:31.680155 14329 net.cpp:434] upscore_pool4_sem <- fuse_pool4_sem
I0212 18:49:31.680161 14329 net.cpp:408] upscore_pool4_sem -> upscore_pool4_sem
I0212 18:49:31.680449 14329 net.cpp:150] Setting up upscore_pool4_sem
I0212 18:49:31.680469 14329 net.cpp:157] Top shape: 1 33 42 42 (58212)
I0212 18:49:31.680475 14329 net.cpp:165] Memory required for data: 502108472
I0212 18:49:31.680485 14329 layer_factory.hpp:77] Creating layer upscore_pool4_sem_upscore_pool4_sem_0_split
I0212 18:49:31.680498 14329 net.cpp:100] Creating Layer upscore_pool4_sem_upscore_pool4_sem_0_split
I0212 18:49:31.680505 14329 net.cpp:434] upscore_pool4_sem_upscore_pool4_sem_0_split <- upscore_pool4_sem
I0212 18:49:31.680516 14329 net.cpp:408] upscore_pool4_sem_upscore_pool4_sem_0_split -> upscore_pool4_sem_upscore_pool4_sem_0_split_0
I0212 18:49:31.680523 14329 net.cpp:408] upscore_pool4_sem_upscore_pool4_sem_0_split -> upscore_pool4_sem_upscore_pool4_sem_0_split_1
I0212 18:49:31.680577 14329 net.cpp:150] Setting up upscore_pool4_sem_upscore_pool4_sem_0_split
I0212 18:49:31.680593 14329 net.cpp:157] Top shape: 1 33 42 42 (58212)
I0212 18:49:31.680598 14329 net.cpp:157] Top shape: 1 33 42 42 (58212)
I0212 18:49:31.680603 14329 net.cpp:165] Memory required for data: 502574168
I0212 18:49:31.680606 14329 layer_factory.hpp:77] Creating layer score_pool3_sem
I0212 18:49:31.680614 14329 net.cpp:100] Creating Layer score_pool3_sem
I0212 18:49:31.680619 14329 net.cpp:434] score_pool3_sem <- pool3_pool3_0_split_1
I0212 18:49:31.680627 14329 net.cpp:408] score_pool3_sem -> score_pool3_sem
I0212 18:49:31.681846 14329 net.cpp:150] Setting up score_pool3_sem
I0212 18:49:31.681875 14329 net.cpp:157] Top shape: 1 33 57 57 (107217)
I0212 18:49:31.681880 14329 net.cpp:165] Memory required for data: 503003036
I0212 18:49:31.681887 14329 layer_factory.hpp:77] Creating layer score_pool3_semc
I0212 18:49:31.681895 14329 net.cpp:100] Creating Layer score_pool3_semc
I0212 18:49:31.681900 14329 net.cpp:434] score_pool3_semc <- score_pool3_sem
I0212 18:49:31.681905 14329 net.cpp:434] score_pool3_semc <- upscore_pool4_sem_upscore_pool4_sem_0_split_0
I0212 18:49:31.681910 14329 net.cpp:408] score_pool3_semc -> score_pool3_semc
I0212 18:49:31.681946 14329 net.cpp:150] Setting up score_pool3_semc
I0212 18:49:31.681952 14329 net.cpp:157] Top shape: 1 33 42 42 (58212)
I0212 18:49:31.681957 14329 net.cpp:165] Memory required for data: 503235884
I0212 18:49:31.681960 14329 layer_factory.hpp:77] Creating layer fuse_pool3_sem
I0212 18:49:31.681967 14329 net.cpp:100] Creating Layer fuse_pool3_sem
I0212 18:49:31.681972 14329 net.cpp:434] fuse_pool3_sem <- upscore_pool4_sem_upscore_pool4_sem_0_split_1
I0212 18:49:31.681977 14329 net.cpp:434] fuse_pool3_sem <- score_pool3_semc
I0212 18:49:31.681982 14329 net.cpp:408] fuse_pool3_sem -> fuse_pool3_sem
I0212 18:49:31.682023 14329 net.cpp:150] Setting up fuse_pool3_sem
I0212 18:49:31.682029 14329 net.cpp:157] Top shape: 1 33 42 42 (58212)
I0212 18:49:31.682032 14329 net.cpp:165] Memory required for data: 503468732
I0212 18:49:31.682037 14329 layer_factory.hpp:77] Creating layer upscore8_sem
I0212 18:49:31.682049 14329 net.cpp:100] Creating Layer upscore8_sem
I0212 18:49:31.682057 14329 net.cpp:434] upscore8_sem <- fuse_pool3_sem
I0212 18:49:31.682067 14329 net.cpp:408] upscore8_sem -> upscore8_sem
I0212 18:49:31.682996 14329 net.cpp:150] Setting up upscore8_sem
I0212 18:49:31.683010 14329 net.cpp:157] Top shape: 1 33 344 344 (3905088)
I0212 18:49:31.683025 14329 net.cpp:165] Memory required for data: 519089084
I0212 18:49:31.683032 14329 layer_factory.hpp:77] Creating layer score_sem
I0212 18:49:31.683038 14329 net.cpp:100] Creating Layer score_sem
I0212 18:49:31.683043 14329 net.cpp:434] score_sem <- upscore8_sem
I0212 18:49:31.683048 14329 net.cpp:434] score_sem <- data_data_0_split_1
I0212 18:49:31.683053 14329 net.cpp:408] score_sem -> score_sem
I0212 18:49:31.683085 14329 net.cpp:150] Setting up score_sem
I0212 18:49:31.683091 14329 net.cpp:157] Top shape: 1 33 256 256 (2162688)
I0212 18:49:31.683094 14329 net.cpp:165] Memory required for data: 527739836
I0212 18:49:31.683099 14329 layer_factory.hpp:77] Creating layer loss
I0212 18:49:31.683111 14329 net.cpp:100] Creating Layer loss
I0212 18:49:31.683115 14329 net.cpp:434] loss <- score_sem
I0212 18:49:31.683120 14329 net.cpp:434] loss <- sem
I0212 18:49:31.683125 14329 net.cpp:408] loss -> loss
I0212 18:49:31.683136 14329 layer_factory.hpp:77] Creating layer loss
I0212 18:49:31.687424 14329 net.cpp:150] Setting up loss
I0212 18:49:31.687443 14329 net.cpp:157] Top shape: (1)
I0212 18:49:31.687458 14329 net.cpp:160]     with loss weight 1
I0212 18:49:31.687469 14329 net.cpp:165] Memory required for data: 527739840
I0212 18:49:31.687472 14329 layer_factory.hpp:77] Creating layer score_fr_geo
I0212 18:49:31.687482 14329 net.cpp:100] Creating Layer score_fr_geo
I0212 18:49:31.687487 14329 net.cpp:434] score_fr_geo <- fc7_drop7_0_split_1
I0212 18:49:31.687495 14329 net.cpp:408] score_fr_geo -> score_fr_geo
I0212 18:49:31.688844 14329 net.cpp:150] Setting up score_fr_geo
I0212 18:49:31.688859 14329 net.cpp:157] Top shape: 1 3 9 9 (243)
I0212 18:49:31.688875 14329 net.cpp:165] Memory required for data: 527740812
I0212 18:49:31.688885 14329 layer_factory.hpp:77] Creating layer upscore2_geo
I0212 18:49:31.688894 14329 net.cpp:100] Creating Layer upscore2_geo
I0212 18:49:31.688899 14329 net.cpp:434] upscore2_geo <- score_fr_geo
I0212 18:49:31.688905 14329 net.cpp:408] upscore2_geo -> upscore2_geo
I0212 18:49:31.689193 14329 net.cpp:150] Setting up upscore2_geo
I0212 18:49:31.689208 14329 net.cpp:157] Top shape: 1 3 20 20 (1200)
I0212 18:49:31.689211 14329 net.cpp:165] Memory required for data: 527745612
I0212 18:49:31.689218 14329 layer_factory.hpp:77] Creating layer upscore2_geo_upscore2_geo_0_split
I0212 18:49:31.689224 14329 net.cpp:100] Creating Layer upscore2_geo_upscore2_geo_0_split
I0212 18:49:31.689229 14329 net.cpp:434] upscore2_geo_upscore2_geo_0_split <- upscore2_geo
I0212 18:49:31.689235 14329 net.cpp:408] upscore2_geo_upscore2_geo_0_split -> upscore2_geo_upscore2_geo_0_split_0
I0212 18:49:31.689244 14329 net.cpp:408] upscore2_geo_upscore2_geo_0_split -> upscore2_geo_upscore2_geo_0_split_1
I0212 18:49:31.689288 14329 net.cpp:150] Setting up upscore2_geo_upscore2_geo_0_split
I0212 18:49:31.689301 14329 net.cpp:157] Top shape: 1 3 20 20 (1200)
I0212 18:49:31.689306 14329 net.cpp:157] Top shape: 1 3 20 20 (1200)
I0212 18:49:31.689309 14329 net.cpp:165] Memory required for data: 527755212
I0212 18:49:31.689314 14329 layer_factory.hpp:77] Creating layer score_pool4_geo
I0212 18:49:31.689332 14329 net.cpp:100] Creating Layer score_pool4_geo
I0212 18:49:31.689339 14329 net.cpp:434] score_pool4_geo <- pool4_pool4_0_split_2
I0212 18:49:31.689350 14329 net.cpp:408] score_pool4_geo -> score_pool4_geo
I0212 18:49:31.690456 14329 net.cpp:150] Setting up score_pool4_geo
I0212 18:49:31.690472 14329 net.cpp:157] Top shape: 1 3 29 29 (2523)
I0212 18:49:31.690488 14329 net.cpp:165] Memory required for data: 527765304
I0212 18:49:31.690495 14329 layer_factory.hpp:77] Creating layer score_pool4_geoc
I0212 18:49:31.690505 14329 net.cpp:100] Creating Layer score_pool4_geoc
I0212 18:49:31.690510 14329 net.cpp:434] score_pool4_geoc <- score_pool4_geo
I0212 18:49:31.690515 14329 net.cpp:434] score_pool4_geoc <- upscore2_geo_upscore2_geo_0_split_0
I0212 18:49:31.690521 14329 net.cpp:408] score_pool4_geoc -> score_pool4_geoc
I0212 18:49:31.690557 14329 net.cpp:150] Setting up score_pool4_geoc
I0212 18:49:31.690563 14329 net.cpp:157] Top shape: 1 3 20 20 (1200)
I0212 18:49:31.690567 14329 net.cpp:165] Memory required for data: 527770104
I0212 18:49:31.690570 14329 layer_factory.hpp:77] Creating layer fuse_pool4_geo
I0212 18:49:31.690577 14329 net.cpp:100] Creating Layer fuse_pool4_geo
I0212 18:49:31.690580 14329 net.cpp:434] fuse_pool4_geo <- upscore2_geo_upscore2_geo_0_split_1
I0212 18:49:31.690584 14329 net.cpp:434] fuse_pool4_geo <- score_pool4_geoc
I0212 18:49:31.690592 14329 net.cpp:408] fuse_pool4_geo -> fuse_pool4_geo
I0212 18:49:31.690634 14329 net.cpp:150] Setting up fuse_pool4_geo
I0212 18:49:31.690640 14329 net.cpp:157] Top shape: 1 3 20 20 (1200)
I0212 18:49:31.690644 14329 net.cpp:165] Memory required for data: 527774904
I0212 18:49:31.690647 14329 layer_factory.hpp:77] Creating layer upscore_pool4_geo
I0212 18:49:31.690654 14329 net.cpp:100] Creating Layer upscore_pool4_geo
I0212 18:49:31.690657 14329 net.cpp:434] upscore_pool4_geo <- fuse_pool4_geo
I0212 18:49:31.690665 14329 net.cpp:408] upscore_pool4_geo -> upscore_pool4_geo
I0212 18:49:31.690951 14329 net.cpp:150] Setting up upscore_pool4_geo
I0212 18:49:31.690971 14329 net.cpp:157] Top shape: 1 3 42 42 (5292)
I0212 18:49:31.690979 14329 net.cpp:165] Memory required for data: 527796072
I0212 18:49:31.690987 14329 layer_factory.hpp:77] Creating layer upscore_pool4_geo_upscore_pool4_geo_0_split
I0212 18:49:31.690996 14329 net.cpp:100] Creating Layer upscore_pool4_geo_upscore_pool4_geo_0_split
I0212 18:49:31.691004 14329 net.cpp:434] upscore_pool4_geo_upscore_pool4_geo_0_split <- upscore_pool4_geo
I0212 18:49:31.691014 14329 net.cpp:408] upscore_pool4_geo_upscore_pool4_geo_0_split -> upscore_pool4_geo_upscore_pool4_geo_0_split_0
I0212 18:49:31.691021 14329 net.cpp:408] upscore_pool4_geo_upscore_pool4_geo_0_split -> upscore_pool4_geo_upscore_pool4_geo_0_split_1
I0212 18:49:31.691074 14329 net.cpp:150] Setting up upscore_pool4_geo_upscore_pool4_geo_0_split
I0212 18:49:31.691089 14329 net.cpp:157] Top shape: 1 3 42 42 (5292)
I0212 18:49:31.691097 14329 net.cpp:157] Top shape: 1 3 42 42 (5292)
I0212 18:49:31.691100 14329 net.cpp:165] Memory required for data: 527838408
I0212 18:49:31.691104 14329 layer_factory.hpp:77] Creating layer score_pool3_geo
I0212 18:49:31.691121 14329 net.cpp:100] Creating Layer score_pool3_geo
I0212 18:49:31.691125 14329 net.cpp:434] score_pool3_geo <- pool3_pool3_0_split_2
I0212 18:49:31.691133 14329 net.cpp:408] score_pool3_geo -> score_pool3_geo
I0212 18:49:31.692327 14329 net.cpp:150] Setting up score_pool3_geo
I0212 18:49:31.692343 14329 net.cpp:157] Top shape: 1 3 57 57 (9747)
I0212 18:49:31.692359 14329 net.cpp:165] Memory required for data: 527877396
I0212 18:49:31.692368 14329 layer_factory.hpp:77] Creating layer score_pool3_geoc
I0212 18:49:31.692374 14329 net.cpp:100] Creating Layer score_pool3_geoc
I0212 18:49:31.692380 14329 net.cpp:434] score_pool3_geoc <- score_pool3_geo
I0212 18:49:31.692386 14329 net.cpp:434] score_pool3_geoc <- upscore_pool4_geo_upscore_pool4_geo_0_split_0
I0212 18:49:31.692392 14329 net.cpp:408] score_pool3_geoc -> score_pool3_geoc
I0212 18:49:31.692428 14329 net.cpp:150] Setting up score_pool3_geoc
I0212 18:49:31.692435 14329 net.cpp:157] Top shape: 1 3 42 42 (5292)
I0212 18:49:31.692438 14329 net.cpp:165] Memory required for data: 527898564
I0212 18:49:31.692441 14329 layer_factory.hpp:77] Creating layer fuse_pool3_geo
I0212 18:49:31.692450 14329 net.cpp:100] Creating Layer fuse_pool3_geo
I0212 18:49:31.692453 14329 net.cpp:434] fuse_pool3_geo <- upscore_pool4_geo_upscore_pool4_geo_0_split_1
I0212 18:49:31.692458 14329 net.cpp:434] fuse_pool3_geo <- score_pool3_geoc
I0212 18:49:31.692466 14329 net.cpp:408] fuse_pool3_geo -> fuse_pool3_geo
I0212 18:49:31.692494 14329 net.cpp:150] Setting up fuse_pool3_geo
I0212 18:49:31.692500 14329 net.cpp:157] Top shape: 1 3 42 42 (5292)
I0212 18:49:31.692504 14329 net.cpp:165] Memory required for data: 527919732
I0212 18:49:31.692508 14329 layer_factory.hpp:77] Creating layer upscore8_geo
I0212 18:49:31.692518 14329 net.cpp:100] Creating Layer upscore8_geo
I0212 18:49:31.692526 14329 net.cpp:434] upscore8_geo <- fuse_pool3_geo
I0212 18:49:31.692538 14329 net.cpp:408] upscore8_geo -> upscore8_geo
I0212 18:49:31.692868 14329 net.cpp:150] Setting up upscore8_geo
I0212 18:49:31.692898 14329 net.cpp:157] Top shape: 1 3 344 344 (355008)
I0212 18:49:31.692905 14329 net.cpp:165] Memory required for data: 529339764
I0212 18:49:31.692912 14329 layer_factory.hpp:77] Creating layer score_geo
I0212 18:49:31.692919 14329 net.cpp:100] Creating Layer score_geo
I0212 18:49:31.692924 14329 net.cpp:434] score_geo <- upscore8_geo
I0212 18:49:31.692929 14329 net.cpp:434] score_geo <- data_data_0_split_2
I0212 18:49:31.692934 14329 net.cpp:408] score_geo -> score_geo
I0212 18:49:31.692975 14329 net.cpp:150] Setting up score_geo
I0212 18:49:31.692982 14329 net.cpp:157] Top shape: 1 3 256 256 (196608)
I0212 18:49:31.692986 14329 net.cpp:165] Memory required for data: 530126196
I0212 18:49:31.692991 14329 layer_factory.hpp:77] Creating layer loss_geo
I0212 18:49:31.692999 14329 net.cpp:100] Creating Layer loss_geo
I0212 18:49:31.693003 14329 net.cpp:434] loss_geo <- score_geo
I0212 18:49:31.693008 14329 net.cpp:434] loss_geo <- geo
I0212 18:49:31.693013 14329 net.cpp:408] loss_geo -> loss_geo
…
