…
snapshot_prefix: "log1"
test_initialization: false
average_loss: 20
iter_size: 1
I0212 01:20:47.272240  6054 solver.cpp:81] Creating training net from train_net file: trainval.prototxt
I0212 01:20:47.282389  6054 net.cpp:58] Initializing net from parameters: 
state {
  phase: TRAIN
}
layer {
  name: "data"
  type: "Python"
  top: "data"
  top: "sem"
  top: "geo"
  python_param {
    module: "siftflow_layers_distillation"
    layer: "SIFTFlowSegDataLayer"
    param_str: "{\'siftflow_dir\': \'../data/sift-flow\', \'seed\': 1337, \'split\': \'trainval\'}"
  }
}
layer {
  name: "conv1_1"
  type: "Convolution"
  bottom: "data"
  top: "conv1_1"
  param {
    lr_mult: 1
    decay_mult: 1
  }
  param {
    lr_mult: 2
    decay_mult: 0
  }
  convolution_param {
    num_output: 64
    pad: 100
    kernel_size: 3
    stride: 1
  }
}
layer {
  name: "relu1_1"
  type: "ReLU"
  bottom: "conv1_1"
  top: "conv1_1"
}
layer {
  name: "conv1_2"
  type: "Convolution"
  bottom: "conv1_1"
  top: "conv1_2"
  param {
    lr_mult: 1
    decay_mult: 1
  }
  param {
    lr_mult: 2
    decay_mult: 0
  }
  convolution_param {
    num_output: 64
    pad: 1
    kernel_size: 3
    stride: 1
  }
}
layer {
  name: "relu1_2"
  type: "ReLU"
  bottom: "conv1_2"
  top: "conv1_2"
}
layer {
  name: "pool1"
  type: "Pooling"
  bottom: "conv1_2"
  top: "pool1"
  pooling_param {
    pool: MAX
    kernel_size: 2
    stride: 2
  }
}
layer {
  name: "conv2_1"
  type: "Convolution"
  bottom: "pool1"
  top: "conv2_1"
  param {
    lr_mult: 1
    decay_mult: 1
  }
  param {
    lr_mult: 2
    decay_mult: 0
  }
  convolution_param {
    num_output: 128
    pad: 1
    kernel_size: 3
    stride: 1
  }
}
layer {
  name: "relu2_1"
  type: "ReLU"
  bottom: "conv2_1"
  top: "conv2_1"
}
layer {
  name: "conv2_2"
  type: "Convolution"
  bottom: "conv2_1"
  top: "conv2_2"
  param {
    lr_mult: 1
    decay_mult: 1
  }
  param {
    lr_mult: 2
    decay_mult: 0
  }
  convolution_param {
    num_output: 128
    pad: 1
    kernel_size: 3
    stride: 1
  }
}
layer {
  name: "relu2_2"
  type: "ReLU"
  bottom: "conv2_2"
  top: "conv2_2"
}
layer {
  name: "pool2"
  type: "Pooling"
  bottom: "conv2_2"
  top: "pool2"
  pooling_param {
    pool: MAX
    kernel_size: 2
    stride: 2
  }
}
layer {
  name: "conv3_1"
  type: "Convolution"
  bottom: "pool2"
  top: "conv3_1"
  param {
    lr_mult: 1
    decay_mult: 1
  }
  param {
    lr_mult: 2
    decay_mult: 0
  }
  convolution_param {
    num_output: 256
    pad: 1
    kernel_size: 3
    stride: 1
  }
}
layer {
  name: "relu3_1"
  type: "ReLU"
  bottom: "conv3_1"
  top: "conv3_1"
}
layer {
  name: "conv3_2"
  type: "Convolution"
  bottom: "conv3_1"
  top: "conv3_2"
  param {
    lr_mult: 1
    decay_mult: 1
  }
  param {
    lr_mult: 2
    decay_mult: 0
  }
  convolution_param {
    num_output: 256
    pad: 1
    kernel_size: 3
    stride: 1
  }
}
layer {
  name: "relu3_2"
  type: "ReLU"
  bottom: "conv3_2"
  top: "conv3_2"
}
layer {
  name: "conv3_3"
  type: "Convolution"
  bottom: "conv3_2"
  top: "conv3_3"
  param {
    lr_mult: 1
    decay_mult: 1
  }
  param {
    lr_mult: 2
    decay_mult: 0
  }
  convolution_param {
    num_output: 256
    pad: 1
    kernel_size: 3
    stride: 1
  }
}
layer {
  name: "relu3_3"
  type: "ReLU"
  bottom: "conv3_3"
  top: "conv3_3"
}
layer {
  name: "pool3"
  type: "Pooling"
  bottom: "conv3_3"
  top: "pool3"
  pooling_param {
    pool: MAX
    kernel_size: 2
    stride: 2
  }
}
layer {
  name: "conv4_1"
  type: "Convolution"
  bottom: "pool3"
  top: "conv4_1"
  param {
    lr_mult: 1
    decay_mult: 1
  }
  param {
    lr_mult: 2
    decay_mult: 0
  }
  convolution_param {
    num_output: 512
    pad: 1
    kernel_size: 3
    stride: 1
  }
}
layer {
  name: "relu4_1"
  type: "ReLU"
  bottom: "conv4_1"
  top: "conv4_1"
}
layer {
  name: "conv4_2"
  type: "Convolution"
  bottom: "conv4_1"
  top: "conv4_2"
  param {
    lr_mult: 1
    decay_mult: 1
  }
  param {
    lr_mult: 2
    decay_mult: 0
  }
  convolution_param {
    num_output: 512
    pad: 1
    kernel_size: 3
    stride: 1
  }
}
layer {
  name: "relu4_2"
  type: "ReLU"
  bottom: "conv4_2"
  top: "conv4_2"
}
layer {
  name: "conv4_3"
  type: "Convolution"
  bottom: "conv4_2"
  top: "conv4_3"
  param {
    lr_mult: 1
    decay_mult: 1
  }
  param {
    lr_mult: 2
    decay_mult: 0
  }
  convolution_param {
    num_output: 512
    pad: 1
    kernel_size: 3
    stride: 1
  }
}
layer {
  name: "relu4_3"
  type: "ReLU"
  bottom: "conv4_3"
  top: "conv4_3"
}
layer {
  name: "pool4"
  type: "Pooling"
  bottom: "conv4_3"
  top: "pool4"
  pooling_param {
    pool: MAX
    kernel_size: 2
    stride: 2
  }
}
layer {
  name: "conv5_1"
  type: "Convolution"
  bottom: "pool4"
  top: "conv5_1"
  param {
    lr_mult: 1
    decay_mult: 1
  }
  param {
    lr_mult: 2
    decay_mult: 0
  }
  convolution_param {
    num_output: 512
    pad: 1
    kernel_size: 3
    stride: 1
  }
}
layer {
  name: "relu5_1"
  type: "ReLU"
  bottom: "conv5_1"
  top: "conv5_1"
}
layer {
  name: "conv5_2"
  type: "Convolution"
  bottom: "conv5_1"
  top: "conv5_2"
  param {
    lr_mult: 1
    decay_mult: 1
  }
  param {
    lr_mult: 2
    decay_mult: 0
  }
  convolution_param {
    num_output: 512
    pad: 1
    kernel_size: 3
    stride: 1
  }
}
layer {
  name: "relu5_2"
  type: "ReLU"
  bottom: "conv5_2"
  top: "conv5_2"
}
layer {
  name: "conv5_3"
  type: "Convolution"
  bottom: "conv5_2"
  top: "conv5_3"
  param {
    lr_mult: 1
    decay_mult: 1
  }
  param {
    lr_mult: 2
    decay_mult: 0
  }
  convolution_param {
    num_output: 512
    pad: 1
    kernel_size: 3
    stride: 1
  }
}
layer {
  name: "relu5_3"
  type: "ReLU"
  bottom: "conv5_3"
  top: "conv5_3"
}
layer {
  name: "pool5"
  type: "Pooling"
  bottom: "conv5_3"
  top: "pool5"
  pooling_param {
    pool: MAX
    kernel_size: 2
    stride: 2
  }
}
layer {
  name: "fc6"
  type: "Convolution"
  bottom: "pool5"
  top: "fc6"
  param {
    lr_mult: 1
    decay_mult: 1
  }
  param {
    lr_mult: 2
    decay_mult: 0
  }
  convolution_param {
    num_output: 4096
    pad: 0
    kernel_size: 7
    stride: 1
  }
}
layer {
  name: "relu6"
  type: "ReLU"
  bottom: "fc6"
  top: "fc6"
}
layer {
  name: "drop6"
  type: "Dropout"
  bottom: "fc6"
  top: "fc6"
  dropout_param {
    dropout_ratio: 0.5
  }
}
layer {
  name: "fc7"
  type: "Convolution"
  bottom: "fc6"
  top: "fc7"
  param {
    lr_mult: 1
    decay_mult: 1
  }
  param {
    lr_mult: 2
    decay_mult: 0
  }
  convolution_param {
    num_output: 4096
    pad: 0
    kernel_size: 1
    stride: 1
  }
}
layer {
  name: "relu7"
  type: "ReLU"
  bottom: "fc7"
  top: "fc7"
}
layer {
  name: "drop7"
  type: "Dropout"
  bottom: "fc7"
  top: "fc7"
  dropout_param {
    dropout_ratio: 0.5
  }
}
layer {
  name: "score_fr_sem"
  type: "Convolution"
  bottom: "fc7"
  top: "score_fr_sem"
  param {
    lr_mult: 1
    decay_mult: 1
  }
  param {
    lr_mult: 2
    decay_mult: 0
  }
  convolution_param {
    num_output: 33
    pad: 0
    kernel_size: 1
  }
}
layer {
  name: "upscore2_sem"
  type: "Deconvolution"
  bottom: "score_fr_sem"
  top: "upscore2_sem"
  param {
    lr_mult: 0
  }
  convolution_param {
    num_output: 33
    bias_term: false
    kernel_size: 4
    stride: 2
  }
}
layer {
  name: "score_pool4_sem"
  type: "Convolution"
  bottom: "pool4"
  top: "score_pool4_sem"
  param {
    lr_mult: 1
    decay_mult: 1
  }
  param {
    lr_mult: 2
    decay_mult: 0
  }
  convolution_param {
    num_output: 33
    pad: 0
    kernel_size: 1
  }
}
layer {
  name: "score_pool4_semc"
  type: "Crop"
  bottom: "score_pool4_sem"
  bottom: "upscore2_sem"
  top: "score_pool4_semc"
  crop_param {
    axis: 2
    offset: 5
  }
}
layer {
  name: "fuse_pool4_sem"
  type: "Eltwise"
  bottom: "upscore2_sem"
  bottom: "score_pool4_semc"
  top: "fuse_pool4_sem"
  eltwise_param {
    operation: SUM
  }
}
layer {
  name: "upscore_pool4_sem"
  type: "Deconvolution"
  bottom: "fuse_pool4_sem"
  top: "upscore_pool4_sem"
  param {
    lr_mult: 0
  }
  convolution_param {
    num_output: 33
    bias_term: false
    kernel_size: 4
    stride: 2
  }
}
layer {
  name: "score_pool3_sem"
  type: "Convolution"
  bottom: "pool3"
  top: "score_pool3_sem"
  param {
    lr_mult: 1
    decay_mult: 1
  }
  param {
    lr_mult: 2
    decay_mult: 0
  }
  convolution_param {
    num_output: 33
    pad: 0
    kernel_size: 1
  }
}
layer {
  name: "score_pool3_semc"
  type: "Crop"
  bottom: "score_pool3_sem"
  bottom: "upscore_pool4_sem"
  top: "score_pool3_semc"
  crop_param {
    axis: 2
    offset: 9
  }
}
layer {
  name: "fuse_pool3_sem"
  type: "Eltwise"
  bottom: "upscore_pool4_sem"
  bottom: "score_pool3_semc"
  top: "fuse_pool3_sem"
  eltwise_param {
    operation: SUM
  }
}
layer {
  name: "upscore8_sem"
  type: "Deconvolution"
  bottom: "fuse_pool3_sem"
  top: "upscore8_sem"
  param {
    lr_mult: 0
  }
  convolution_param {
    num_output: 33
    bias_term: false
    kernel_size: 16
    stride: 8
  }
}
layer {
  name: "score_sem"
  type: "Crop"
  bottom: "upscore8_sem"
  bottom: "data"
  top: "score_sem"
  crop_param {
    axis: 2
    offset: 31
  }
}
layer {
  name: "loss"
  type: "EuclideanLoss"
  bottom: "score_sem"
  bottom: "sem"
  top: "loss"
}
layer {
  name: "score_fr_geo"
  type: "Convolution"
  bottom: "fc7"
  top: "score_fr_geo"
  param {
    lr_mult: 1
    decay_mult: 1
  }
  param {
    lr_mult: 2
    decay_mult: 0
  }
  convolution_param {
    num_output: 3
    pad: 0
    kernel_size: 1
  }
}
layer {
  name: "upscore2_geo"
  type: "Deconvolution"
  bottom: "score_fr_geo"
  top: "upscore2_geo"
  param {
    lr_mult: 0
  }
  convolution_param {
    num_output: 3
    bias_term: false
    kernel_size: 4
    stride: 2
  }
}
layer {
  name: "score_pool4_geo"
  type: "Convolution"
  bottom: "pool4"
  top: "score_pool4_geo"
  param {
    lr_mult: 1
    decay_mult: 1
  }
  param {
    lr_mult: 2
    decay_mult: 0
  }
  convolution_param {
    num_output: 3
    pad: 0
    kernel_size: 1
  }
}
layer {
  name: "score_pool4_geoc"
  type: "Crop"
  bottom: "score_pool4_geo"
  bottom: "upscore2_geo"
  top: "score_pool4_geoc"
  crop_param {
    axis: 2
    offset: 5
  }
}
layer {
  name: "fuse_pool4_geo"
  type: "Eltwise"
  bottom: "upscore2_geo"
  bottom: "score_pool4_geoc"
  top: "fuse_pool4_geo"
  eltwise_param {
    operation: SUM
  }
}
layer {
  name: "upscore_pool4_geo"
  type: "Deconvolution"
  bottom: "fuse_pool4_geo"
  top: "upscore_pool4_geo"
  param {
    lr_mult: 0
  }
  convolution_param {
    num_output: 3
    bias_term: false
    kernel_size: 4
    stride: 2
  }
}
layer {
  name: "score_pool3_geo"
  type: "Convolution"
  bottom: "pool3"
  top: "score_pool3_geo"
  param {
    lr_mult: 1
    decay_mult: 1
  }
  param {
    lr_mult: 2
    decay_mult: 0
  }
  convolution_param {
    num_output: 3
    pad: 0
    kernel_size: 1
  }
}
layer {
  name: "score_pool3_geoc"
  type: "Crop"
  bottom: "score_pool3_geo"
  bottom: "upscore_pool4_geo"
  top: "score_pool3_geoc"
  crop_param {
    axis: 2
    offset: 9
  }
}
layer {
  name: "fuse_pool3_geo"
  type: "Eltwise"
  bottom: "upscore_pool4_geo"
  bottom: "score_pool3_geoc"
  top: "fuse_pool3_geo"
  eltwise_param {
    operation: SUM
  }
}
layer {
  name: "upscore8_geo"
  type: "Deconvolution"
  bottom: "fuse_pool3_geo"
  top: "upscore8_geo"
  param {
    lr_mult: 0
  }
  convolution_param {
    num_output: 3
    bias_term: false
    kernel_size: 16
    stride: 8
  }
}
layer {
  name: "score_geo"
  type: "Crop"
  bottom: "upscore8_geo"
  bottom: "data"
  top: "score_geo"
  crop_param {
    axis: 2
    offset: 31
  }
}
layer {
  name: "loss_geo"
  type: "EuclideanLoss"
  bottom: "score_geo"
  bottom: "geo"
  top: "loss_geo"
}
I0212 01:20:47.282713  6054 layer_factory.hpp:77] Creating layer data
I0212 01:20:47.407496  6054 net.cpp:100] Creating Layer data
I0212 01:20:47.407711  6054 net.cpp:408] data -> data
I0212 01:20:47.407737  6054 net.cpp:408] data -> sem
I0212 01:20:47.407744  6054 net.cpp:408] data -> geo
I0212 01:20:47.686934  6054 net.cpp:150] Setting up data
I0212 01:20:47.686977  6054 net.cpp:157] Top shape: 1 3 256 256 (196608)
I0212 01:20:47.686983  6054 net.cpp:157] Top shape: 1 33 256 256 (2162688)
I0212 01:20:47.686988  6054 net.cpp:157] Top shape: 1 3 256 256 (196608)
I0212 01:20:47.686991  6054 net.cpp:165] Memory required for data: 10223616
I0212 01:20:47.687000  6054 layer_factory.hpp:77] Creating layer data_data_0_split
I0212 01:20:47.687012  6054 net.cpp:100] Creating Layer data_data_0_split
I0212 01:20:47.687028  6054 net.cpp:434] data_data_0_split <- data
I0212 01:20:47.687038  6054 net.cpp:408] data_data_0_split -> data_data_0_split_0
I0212 01:20:47.687048  6054 net.cpp:408] data_data_0_split -> data_data_0_split_1
I0212 01:20:47.687055  6054 net.cpp:408] data_data_0_split -> data_data_0_split_2
I0212 01:20:47.687100  6054 net.cpp:150] Setting up data_data_0_split
I0212 01:20:47.687108  6054 net.cpp:157] Top shape: 1 3 256 256 (196608)
I0212 01:20:47.687113  6054 net.cpp:157] Top shape: 1 3 256 256 (196608)
I0212 01:20:47.687117  6054 net.cpp:157] Top shape: 1 3 256 256 (196608)
I0212 01:20:47.687120  6054 net.cpp:165] Memory required for data: 12582912
I0212 01:20:47.687124  6054 layer_factory.hpp:77] Creating layer conv1_1
I0212 01:20:47.687137  6054 net.cpp:100] Creating Layer conv1_1
I0212 01:20:47.687141  6054 net.cpp:434] conv1_1 <- data_data_0_split_0
I0212 01:20:47.687149  6054 net.cpp:408] conv1_1 -> conv1_1
I0212 01:20:49.228610  6054 net.cpp:150] Setting up conv1_1
I0212 01:20:49.228669  6054 net.cpp:157] Top shape: 1 64 454 454 (13191424)
I0212 01:20:49.228675  6054 net.cpp:165] Memory required for data: 65348608
I0212 01:20:49.228698  6054 layer_factory.hpp:77] Creating layer relu1_1
I0212 01:20:49.228725  6054 net.cpp:100] Creating Layer relu1_1
I0212 01:20:49.228730  6054 net.cpp:434] relu1_1 <- conv1_1
I0212 01:20:49.228737  6054 net.cpp:395] relu1_1 -> conv1_1 (in-place)
I0212 01:20:49.228992  6054 net.cpp:150] Setting up relu1_1
I0212 01:20:49.229012  6054 net.cpp:157] Top shape: 1 64 454 454 (13191424)
I0212 01:20:49.229017  6054 net.cpp:165] Memory required for data: 118114304
I0212 01:20:49.229022  6054 layer_factory.hpp:77] Creating layer conv1_2
I0212 01:20:49.229043  6054 net.cpp:100] Creating Layer conv1_2
I0212 01:20:49.229049  6054 net.cpp:434] conv1_2 <- conv1_1
I0212 01:20:49.229058  6054 net.cpp:408] conv1_2 -> conv1_2
I0212 01:20:49.231537  6054 net.cpp:150] Setting up conv1_2
I0212 01:20:49.231560  6054 net.cpp:157] Top shape: 1 64 454 454 (13191424)
I0212 01:20:49.231565  6054 net.cpp:165] Memory required for data: 170880000
I0212 01:20:49.231577  6054 layer_factory.hpp:77] Creating layer relu1_2
I0212 01:20:49.231585  6054 net.cpp:100] Creating Layer relu1_2
I0212 01:20:49.231590  6054 net.cpp:434] relu1_2 <- conv1_2
I0212 01:20:49.231598  6054 net.cpp:395] relu1_2 -> conv1_2 (in-place)
I0212 01:20:49.231982  6054 net.cpp:150] Setting up relu1_2
I0212 01:20:49.232014  6054 net.cpp:157] Top shape: 1 64 454 454 (13191424)
I0212 01:20:49.232018  6054 net.cpp:165] Memory required for data: 223645696
I0212 01:20:49.232023  6054 layer_factory.hpp:77] Creating layer pool1
I0212 01:20:49.232034  6054 net.cpp:100] Creating Layer pool1
I0212 01:20:49.232039  6054 net.cpp:434] pool1 <- conv1_2
I0212 01:20:49.232046  6054 net.cpp:408] pool1 -> pool1
I0212 01:20:49.232311  6054 net.cpp:150] Setting up pool1
I0212 01:20:49.232329  6054 net.cpp:157] Top shape: 1 64 227 227 (3297856)
I0212 01:20:49.232334  6054 net.cpp:165] Memory required for data: 236837120
I0212 01:20:49.232338  6054 layer_factory.hpp:77] Creating layer conv2_1
I0212 01:20:49.232352  6054 net.cpp:100] Creating Layer conv2_1
I0212 01:20:49.232357  6054 net.cpp:434] conv2_1 <- pool1
I0212 01:20:49.232374  6054 net.cpp:408] conv2_1 -> conv2_1
I0212 01:20:49.234371  6054 net.cpp:150] Setting up conv2_1
I0212 01:20:49.234405  6054 net.cpp:157] Top shape: 1 128 227 227 (6595712)
I0212 01:20:49.234421  6054 net.cpp:165] Memory required for data: 263219968
I0212 01:20:49.234431  6054 layer_factory.hpp:77] Creating layer relu2_1
I0212 01:20:49.234443  6054 net.cpp:100] Creating Layer relu2_1
I0212 01:20:49.234447  6054 net.cpp:434] relu2_1 <- conv2_1
I0212 01:20:49.234465  6054 net.cpp:395] relu2_1 -> conv2_1 (in-place)
I0212 01:20:49.234652  6054 net.cpp:150] Setting up relu2_1
I0212 01:20:49.234666  6054 net.cpp:157] Top shape: 1 128 227 227 (6595712)
I0212 01:20:49.234671  6054 net.cpp:165] Memory required for data: 289602816
I0212 01:20:49.234675  6054 layer_factory.hpp:77] Creating layer conv2_2
I0212 01:20:49.234702  6054 net.cpp:100] Creating Layer conv2_2
I0212 01:20:49.234706  6054 net.cpp:434] conv2_2 <- conv2_1
I0212 01:20:49.234714  6054 net.cpp:408] conv2_2 -> conv2_2
I0212 01:20:49.235965  6054 net.cpp:150] Setting up conv2_2
I0212 01:20:49.235997  6054 net.cpp:157] Top shape: 1 128 227 227 (6595712)
I0212 01:20:49.236002  6054 net.cpp:165] Memory required for data: 315985664
I0212 01:20:49.236011  6054 layer_factory.hpp:77] Creating layer relu2_2
I0212 01:20:49.236018  6054 net.cpp:100] Creating Layer relu2_2
I0212 01:20:49.236023  6054 net.cpp:434] relu2_2 <- conv2_2
I0212 01:20:49.236032  6054 net.cpp:395] relu2_2 -> conv2_2 (in-place)
I0212 01:20:49.236220  6054 net.cpp:150] Setting up relu2_2
I0212 01:20:49.236234  6054 net.cpp:157] Top shape: 1 128 227 227 (6595712)
I0212 01:20:49.236238  6054 net.cpp:165] Memory required for data: 342368512
I0212 01:20:49.236243  6054 layer_factory.hpp:77] Creating layer pool2
I0212 01:20:49.236264  6054 net.cpp:100] Creating Layer pool2
I0212 01:20:49.236268  6054 net.cpp:434] pool2 <- conv2_2
I0212 01:20:49.236274  6054 net.cpp:408] pool2 -> pool2
I0212 01:20:49.236322  6054 net.cpp:150] Setting up pool2
I0212 01:20:49.236333  6054 net.cpp:157] Top shape: 1 128 114 114 (1663488)
I0212 01:20:49.236337  6054 net.cpp:165] Memory required for data: 349022464
I0212 01:20:49.236341  6054 layer_factory.hpp:77] Creating layer conv3_1
I0212 01:20:49.236351  6054 net.cpp:100] Creating Layer conv3_1
I0212 01:20:49.236356  6054 net.cpp:434] conv3_1 <- pool2
I0212 01:20:49.236362  6054 net.cpp:408] conv3_1 -> conv3_1
I0212 01:20:49.238900  6054 net.cpp:150] Setting up conv3_1
I0212 01:20:49.238934  6054 net.cpp:157] Top shape: 1 256 114 114 (3326976)
I0212 01:20:49.238939  6054 net.cpp:165] Memory required for data: 362330368
I0212 01:20:49.238953  6054 layer_factory.hpp:77] Creating layer relu3_1
I0212 01:20:49.238973  6054 net.cpp:100] Creating Layer relu3_1
I0212 01:20:49.238978  6054 net.cpp:434] relu3_1 <- conv3_1
I0212 01:20:49.238986  6054 net.cpp:395] relu3_1 -> conv3_1 (in-place)
I0212 01:20:49.239362  6054 net.cpp:150] Setting up relu3_1
I0212 01:20:49.239387  6054 net.cpp:157] Top shape: 1 256 114 114 (3326976)
I0212 01:20:49.239392  6054 net.cpp:165] Memory required for data: 375638272
I0212 01:20:49.239397  6054 layer_factory.hpp:77] Creating layer conv3_2
I0212 01:20:49.239408  6054 net.cpp:100] Creating Layer conv3_2
I0212 01:20:49.239413  6054 net.cpp:434] conv3_2 <- conv3_1
I0212 01:20:49.239420  6054 net.cpp:408] conv3_2 -> conv3_2
I0212 01:20:49.242166  6054 net.cpp:150] Setting up conv3_2
I0212 01:20:49.242187  6054 net.cpp:157] Top shape: 1 256 114 114 (3326976)
I0212 01:20:49.242205  6054 net.cpp:165] Memory required for data: 388946176
I0212 01:20:49.242213  6054 layer_factory.hpp:77] Creating layer relu3_2
I0212 01:20:49.242223  6054 net.cpp:100] Creating Layer relu3_2
I0212 01:20:49.242228  6054 net.cpp:434] relu3_2 <- conv3_2
I0212 01:20:49.242235  6054 net.cpp:395] relu3_2 -> conv3_2 (in-place)
I0212 01:20:49.242431  6054 net.cpp:150] Setting up relu3_2
I0212 01:20:49.242446  6054 net.cpp:157] Top shape: 1 256 114 114 (3326976)
I0212 01:20:49.242450  6054 net.cpp:165] Memory required for data: 402254080
I0212 01:20:49.242455  6054 layer_factory.hpp:77] Creating layer conv3_3
I0212 01:20:49.242470  6054 net.cpp:100] Creating Layer conv3_3
I0212 01:20:49.242475  6054 net.cpp:434] conv3_3 <- conv3_2
I0212 01:20:49.242494  6054 net.cpp:408] conv3_3 -> conv3_3
I0212 01:20:49.245050  6054 net.cpp:150] Setting up conv3_3
I0212 01:20:49.245096  6054 net.cpp:157] Top shape: 1 256 114 114 (3326976)
I0212 01:20:49.245101  6054 net.cpp:165] Memory required for data: 415561984
I0212 01:20:49.245133  6054 layer_factory.hpp:77] Creating layer relu3_3
I0212 01:20:49.245156  6054 net.cpp:100] Creating Layer relu3_3
I0212 01:20:49.245162  6054 net.cpp:434] relu3_3 <- conv3_3
I0212 01:20:49.245167  6054 net.cpp:395] relu3_3 -> conv3_3 (in-place)
I0212 01:20:49.245359  6054 net.cpp:150] Setting up relu3_3
I0212 01:20:49.245374  6054 net.cpp:157] Top shape: 1 256 114 114 (3326976)
I0212 01:20:49.245379  6054 net.cpp:165] Memory required for data: 428869888
I0212 01:20:49.245384  6054 layer_factory.hpp:77] Creating layer pool3
I0212 01:20:49.245391  6054 net.cpp:100] Creating Layer pool3
I0212 01:20:49.245396  6054 net.cpp:434] pool3 <- conv3_3
I0212 01:20:49.245404  6054 net.cpp:408] pool3 -> pool3
I0212 01:20:49.245452  6054 net.cpp:150] Setting up pool3
I0212 01:20:49.245463  6054 net.cpp:157] Top shape: 1 256 57 57 (831744)
I0212 01:20:49.245467  6054 net.cpp:165] Memory required for data: 432196864
I0212 01:20:49.245471  6054 layer_factory.hpp:77] Creating layer pool3_pool3_0_split
I0212 01:20:49.245481  6054 net.cpp:100] Creating Layer pool3_pool3_0_split
I0212 01:20:49.245486  6054 net.cpp:434] pool3_pool3_0_split <- pool3
I0212 01:20:49.245491  6054 net.cpp:408] pool3_pool3_0_split -> pool3_pool3_0_split_0
I0212 01:20:49.245502  6054 net.cpp:408] pool3_pool3_0_split -> pool3_pool3_0_split_1
I0212 01:20:49.245510  6054 net.cpp:408] pool3_pool3_0_split -> pool3_pool3_0_split_2
I0212 01:20:49.245560  6054 net.cpp:150] Setting up pool3_pool3_0_split
I0212 01:20:49.245568  6054 net.cpp:157] Top shape: 1 256 57 57 (831744)
I0212 01:20:49.245573  6054 net.cpp:157] Top shape: 1 256 57 57 (831744)
I0212 01:20:49.245578  6054 net.cpp:157] Top shape: 1 256 57 57 (831744)
I0212 01:20:49.245581  6054 net.cpp:165] Memory required for data: 442177792
I0212 01:20:49.245585  6054 layer_factory.hpp:77] Creating layer conv4_1
I0212 01:20:49.245596  6054 net.cpp:100] Creating Layer conv4_1
I0212 01:20:49.245602  6054 net.cpp:434] conv4_1 <- pool3_pool3_0_split_0
I0212 01:20:49.245609  6054 net.cpp:408] conv4_1 -> conv4_1
I0212 01:20:49.250248  6054 net.cpp:150] Setting up conv4_1
I0212 01:20:49.250283  6054 net.cpp:157] Top shape: 1 512 57 57 (1663488)
I0212 01:20:49.250288  6054 net.cpp:165] Memory required for data: 448831744
I0212 01:20:49.250295  6054 layer_factory.hpp:77] Creating layer relu4_1
I0212 01:20:49.250303  6054 net.cpp:100] Creating Layer relu4_1
I0212 01:20:49.250308  6054 net.cpp:434] relu4_1 <- conv4_1
I0212 01:20:49.250316  6054 net.cpp:395] relu4_1 -> conv4_1 (in-place)
I0212 01:20:49.250660  6054 net.cpp:150] Setting up relu4_1
I0212 01:20:49.250700  6054 net.cpp:157] Top shape: 1 512 57 57 (1663488)
I0212 01:20:49.250705  6054 net.cpp:165] Memory required for data: 455485696
I0212 01:20:49.250710  6054 layer_factory.hpp:77] Creating layer conv4_2
I0212 01:20:49.250721  6054 net.cpp:100] Creating Layer conv4_2
I0212 01:20:49.250725  6054 net.cpp:434] conv4_2 <- conv4_1
I0212 01:20:49.250735  6054 net.cpp:408] conv4_2 -> conv4_2
I0212 01:20:49.256912  6054 net.cpp:150] Setting up conv4_2
I0212 01:20:49.256940  6054 net.cpp:157] Top shape: 1 512 57 57 (1663488)
I0212 01:20:49.256945  6054 net.cpp:165] Memory required for data: 462139648
I0212 01:20:49.256960  6054 layer_factory.hpp:77] Creating layer relu4_2
I0212 01:20:49.256975  6054 net.cpp:100] Creating Layer relu4_2
I0212 01:20:49.256981  6054 net.cpp:434] relu4_2 <- conv4_2
I0212 01:20:49.256989  6054 net.cpp:395] relu4_2 -> conv4_2 (in-place)
I0212 01:20:49.257189  6054 net.cpp:150] Setting up relu4_2
I0212 01:20:49.257205  6054 net.cpp:157] Top shape: 1 512 57 57 (1663488)
I0212 01:20:49.257208  6054 net.cpp:165] Memory required for data: 468793600
I0212 01:20:49.257225  6054 layer_factory.hpp:77] Creating layer conv4_3
I0212 01:20:49.257238  6054 net.cpp:100] Creating Layer conv4_3
I0212 01:20:49.257243  6054 net.cpp:434] conv4_3 <- conv4_2
I0212 01:20:49.257251  6054 net.cpp:408] conv4_3 -> conv4_3
I0212 01:20:49.263355  6054 net.cpp:150] Setting up conv4_3
I0212 01:20:49.263384  6054 net.cpp:157] Top shape: 1 512 57 57 (1663488)
I0212 01:20:49.263389  6054 net.cpp:165] Memory required for data: 475447552
I0212 01:20:49.263399  6054 layer_factory.hpp:77] Creating layer relu4_3
I0212 01:20:49.263420  6054 net.cpp:100] Creating Layer relu4_3
I0212 01:20:49.263425  6054 net.cpp:434] relu4_3 <- conv4_3
I0212 01:20:49.263433  6054 net.cpp:395] relu4_3 -> conv4_3 (in-place)
I0212 01:20:49.263638  6054 net.cpp:150] Setting up relu4_3
I0212 01:20:49.263651  6054 net.cpp:157] Top shape: 1 512 57 57 (1663488)
I0212 01:20:49.263655  6054 net.cpp:165] Memory required for data: 482101504
I0212 01:20:49.263660  6054 layer_factory.hpp:77] Creating layer pool4
I0212 01:20:49.263680  6054 net.cpp:100] Creating Layer pool4
I0212 01:20:49.263685  6054 net.cpp:434] pool4 <- conv4_3
I0212 01:20:49.263692  6054 net.cpp:408] pool4 -> pool4
I0212 01:20:49.263743  6054 net.cpp:150] Setting up pool4
I0212 01:20:49.263754  6054 net.cpp:157] Top shape: 1 512 29 29 (430592)
I0212 01:20:49.263757  6054 net.cpp:165] Memory required for data: 483823872
I0212 01:20:49.263761  6054 layer_factory.hpp:77] Creating layer pool4_pool4_0_split
I0212 01:20:49.263768  6054 net.cpp:100] Creating Layer pool4_pool4_0_split
I0212 01:20:49.263773  6054 net.cpp:434] pool4_pool4_0_split <- pool4
I0212 01:20:49.263780  6054 net.cpp:408] pool4_pool4_0_split -> pool4_pool4_0_split_0
I0212 01:20:49.263787  6054 net.cpp:408] pool4_pool4_0_split -> pool4_pool4_0_split_1
I0212 01:20:49.263794  6054 net.cpp:408] pool4_pool4_0_split -> pool4_pool4_0_split_2
I0212 01:20:49.263842  6054 net.cpp:150] Setting up pool4_pool4_0_split
I0212 01:20:49.263852  6054 net.cpp:157] Top shape: 1 512 29 29 (430592)
I0212 01:20:49.263857  6054 net.cpp:157] Top shape: 1 512 29 29 (430592)
I0212 01:20:49.263872  6054 net.cpp:157] Top shape: 1 512 29 29 (430592)
I0212 01:20:49.263876  6054 net.cpp:165] Memory required for data: 488990976
I0212 01:20:49.263880  6054 layer_factory.hpp:77] Creating layer conv5_1
I0212 01:20:49.263893  6054 net.cpp:100] Creating Layer conv5_1
I0212 01:20:49.263898  6054 net.cpp:434] conv5_1 <- pool4_pool4_0_split_0
I0212 01:20:49.263906  6054 net.cpp:408] conv5_1 -> conv5_1
I0212 01:20:49.269995  6054 net.cpp:150] Setting up conv5_1
I0212 01:20:49.270020  6054 net.cpp:157] Top shape: 1 512 29 29 (430592)
I0212 01:20:49.270025  6054 net.cpp:165] Memory required for data: 490713344
I0212 01:20:49.270045  6054 layer_factory.hpp:77] Creating layer relu5_1
I0212 01:20:49.270056  6054 net.cpp:100] Creating Layer relu5_1
I0212 01:20:49.270061  6054 net.cpp:434] relu5_1 <- conv5_1
I0212 01:20:49.270068  6054 net.cpp:395] relu5_1 -> conv5_1 (in-place)
I0212 01:20:49.270406  6054 net.cpp:150] Setting up relu5_1
I0212 01:20:49.270424  6054 net.cpp:157] Top shape: 1 512 29 29 (430592)
I0212 01:20:49.270429  6054 net.cpp:165] Memory required for data: 492435712
I0212 01:20:49.270434  6054 layer_factory.hpp:77] Creating layer conv5_2
I0212 01:20:49.270445  6054 net.cpp:100] Creating Layer conv5_2
I0212 01:20:49.270450  6054 net.cpp:434] conv5_2 <- conv5_1
I0212 01:20:49.270458  6054 net.cpp:408] conv5_2 -> conv5_2
I0212 01:20:49.276417  6054 net.cpp:150] Setting up conv5_2
I0212 01:20:49.276438  6054 net.cpp:157] Top shape: 1 512 29 29 (430592)
I0212 01:20:49.276443  6054 net.cpp:165] Memory required for data: 494158080
I0212 01:20:49.276451  6054 layer_factory.hpp:77] Creating layer relu5_2
I0212 01:20:49.276471  6054 net.cpp:100] Creating Layer relu5_2
I0212 01:20:49.276476  6054 net.cpp:434] relu5_2 <- conv5_2
I0212 01:20:49.276485  6054 net.cpp:395] relu5_2 -> conv5_2 (in-place)
I0212 01:20:49.276674  6054 net.cpp:150] Setting up relu5_2
I0212 01:20:49.276690  6054 net.cpp:157] Top shape: 1 512 29 29 (430592)
I0212 01:20:49.276695  6054 net.cpp:165] Memory required for data: 495880448
I0212 01:20:49.276700  6054 layer_factory.hpp:77] Creating layer conv5_3
I0212 01:20:49.276715  6054 net.cpp:100] Creating Layer conv5_3
I0212 01:20:49.276720  6054 net.cpp:434] conv5_3 <- conv5_2
I0212 01:20:49.276727  6054 net.cpp:408] conv5_3 -> conv5_3
I0212 01:20:49.282821  6054 net.cpp:150] Setting up conv5_3
I0212 01:20:49.282860  6054 net.cpp:157] Top shape: 1 512 29 29 (430592)
I0212 01:20:49.282866  6054 net.cpp:165] Memory required for data: 497602816
I0212 01:20:49.282873  6054 layer_factory.hpp:77] Creating layer relu5_3
I0212 01:20:49.282882  6054 net.cpp:100] Creating Layer relu5_3
I0212 01:20:49.282887  6054 net.cpp:434] relu5_3 <- conv5_3
I0212 01:20:49.282894  6054 net.cpp:395] relu5_3 -> conv5_3 (in-place)
I0212 01:20:49.283255  6054 net.cpp:150] Setting up relu5_3
I0212 01:20:49.283283  6054 net.cpp:157] Top shape: 1 512 29 29 (430592)
I0212 01:20:49.283288  6054 net.cpp:165] Memory required for data: 499325184
I0212 01:20:49.283293  6054 layer_factory.hpp:77] Creating layer pool5
I0212 01:20:49.283303  6054 net.cpp:100] Creating Layer pool5
I0212 01:20:49.283308  6054 net.cpp:434] pool5 <- conv5_3
I0212 01:20:49.283314  6054 net.cpp:408] pool5 -> pool5
I0212 01:20:49.283365  6054 net.cpp:150] Setting up pool5
I0212 01:20:49.283376  6054 net.cpp:157] Top shape: 1 512 15 15 (115200)
I0212 01:20:49.283380  6054 net.cpp:165] Memory required for data: 499785984
I0212 01:20:49.283385  6054 layer_factory.hpp:77] Creating layer fc6
I0212 01:20:49.283396  6054 net.cpp:100] Creating Layer fc6
I0212 01:20:49.283399  6054 net.cpp:434] fc6 <- pool5
I0212 01:20:49.283406  6054 net.cpp:408] fc6 -> fc6
I0212 01:20:49.491574  6054 net.cpp:150] Setting up fc6
I0212 01:20:49.491607  6054 net.cpp:157] Top shape: 1 4096 9 9 (331776)
I0212 01:20:49.491612  6054 net.cpp:165] Memory required for data: 501113088
I0212 01:20:49.491621  6054 layer_factory.hpp:77] Creating layer relu6
I0212 01:20:49.491631  6054 net.cpp:100] Creating Layer relu6
I0212 01:20:49.491637  6054 net.cpp:434] relu6 <- fc6
I0212 01:20:49.491643  6054 net.cpp:395] relu6 -> fc6 (in-place)
I0212 01:20:49.491976  6054 net.cpp:150] Setting up relu6
I0212 01:20:49.491991  6054 net.cpp:157] Top shape: 1 4096 9 9 (331776)
I0212 01:20:49.491996  6054 net.cpp:165] Memory required for data: 502440192
I0212 01:20:49.491999  6054 layer_factory.hpp:77] Creating layer drop6
I0212 01:20:49.492010  6054 net.cpp:100] Creating Layer drop6
I0212 01:20:49.492015  6054 net.cpp:434] drop6 <- fc6
I0212 01:20:49.492022  6054 net.cpp:395] drop6 -> fc6 (in-place)
I0212 01:20:49.492056  6054 net.cpp:150] Setting up drop6
I0212 01:20:49.492069  6054 net.cpp:157] Top shape: 1 4096 9 9 (331776)
I0212 01:20:49.492072  6054 net.cpp:165] Memory required for data: 503767296
I0212 01:20:49.492075  6054 layer_factory.hpp:77] Creating layer fc7
I0212 01:20:49.492084  6054 net.cpp:100] Creating Layer fc7
I0212 01:20:49.492089  6054 net.cpp:434] fc7 <- fc6
I0212 01:20:49.492097  6054 net.cpp:408] fc7 -> fc7
I0212 01:20:49.525051  6054 net.cpp:150] Setting up fc7
I0212 01:20:49.525084  6054 net.cpp:157] Top shape: 1 4096 9 9 (331776)
I0212 01:20:49.525087  6054 net.cpp:165] Memory required for data: 505094400
I0212 01:20:49.525097  6054 layer_factory.hpp:77] Creating layer relu7
I0212 01:20:49.525107  6054 net.cpp:100] Creating Layer relu7
I0212 01:20:49.525112  6054 net.cpp:434] relu7 <- fc7
I0212 01:20:49.525120  6054 net.cpp:395] relu7 -> fc7 (in-place)
I0212 01:20:49.525311  6054 net.cpp:150] Setting up relu7
I0212 01:20:49.525324  6054 net.cpp:157] Top shape: 1 4096 9 9 (331776)
I0212 01:20:49.525328  6054 net.cpp:165] Memory required for data: 506421504
I0212 01:20:49.525331  6054 layer_factory.hpp:77] Creating layer drop7
I0212 01:20:49.525341  6054 net.cpp:100] Creating Layer drop7
I0212 01:20:49.525344  6054 net.cpp:434] drop7 <- fc7
I0212 01:20:49.525349  6054 net.cpp:395] drop7 -> fc7 (in-place)
I0212 01:20:49.525384  6054 net.cpp:150] Setting up drop7
I0212 01:20:49.525408  6054 net.cpp:157] Top shape: 1 4096 9 9 (331776)
I0212 01:20:49.525411  6054 net.cpp:165] Memory required for data: 507748608
I0212 01:20:49.525414  6054 layer_factory.hpp:77] Creating layer fc7_drop7_0_split
I0212 01:20:49.525421  6054 net.cpp:100] Creating Layer fc7_drop7_0_split
I0212 01:20:49.525424  6054 net.cpp:434] fc7_drop7_0_split <- fc7
I0212 01:20:49.525431  6054 net.cpp:408] fc7_drop7_0_split -> fc7_drop7_0_split_0
I0212 01:20:49.525442  6054 net.cpp:408] fc7_drop7_0_split -> fc7_drop7_0_split_1
I0212 01:20:49.525482  6054 net.cpp:150] Setting up fc7_drop7_0_split
I0212 01:20:49.525490  6054 net.cpp:157] Top shape: 1 4096 9 9 (331776)
I0212 01:20:49.525493  6054 net.cpp:157] Top shape: 1 4096 9 9 (331776)
I0212 01:20:49.525497  6054 net.cpp:165] Memory required for data: 510402816
I0212 01:20:49.525501  6054 layer_factory.hpp:77] Creating layer score_fr_sem
I0212 01:20:49.525512  6054 net.cpp:100] Creating Layer score_fr_sem
I0212 01:20:49.525516  6054 net.cpp:434] score_fr_sem <- fc7_drop7_0_split_0
I0212 01:20:49.525523  6054 net.cpp:408] score_fr_sem -> score_fr_sem
I0212 01:20:49.527191  6054 net.cpp:150] Setting up score_fr_sem
I0212 01:20:49.527206  6054 net.cpp:157] Top shape: 1 33 9 9 (2673)
I0212 01:20:49.527210  6054 net.cpp:165] Memory required for data: 510413508
I0212 01:20:49.527217  6054 layer_factory.hpp:77] Creating layer upscore2_sem
I0212 01:20:49.527403  6054 net.cpp:100] Creating Layer upscore2_sem
I0212 01:20:49.527415  6054 net.cpp:434] upscore2_sem <- score_fr_sem
I0212 01:20:49.527421  6054 net.cpp:408] upscore2_sem -> upscore2_sem
I0212 01:20:49.527685  6054 net.cpp:150] Setting up upscore2_sem
I0212 01:20:49.527698  6054 net.cpp:157] Top shape: 1 33 20 20 (13200)
I0212 01:20:49.527701  6054 net.cpp:165] Memory required for data: 510466308
I0212 01:20:49.527715  6054 layer_factory.hpp:77] Creating layer upscore2_sem_upscore2_sem_0_split
I0212 01:20:49.527722  6054 net.cpp:100] Creating Layer upscore2_sem_upscore2_sem_0_split
I0212 01:20:49.527726  6054 net.cpp:434] upscore2_sem_upscore2_sem_0_split <- upscore2_sem
I0212 01:20:49.527732  6054 net.cpp:408] upscore2_sem_upscore2_sem_0_split -> upscore2_sem_upscore2_sem_0_split_0
I0212 01:20:49.527740  6054 net.cpp:408] upscore2_sem_upscore2_sem_0_split -> upscore2_sem_upscore2_sem_0_split_1
I0212 01:20:49.527783  6054 net.cpp:150] Setting up upscore2_sem_upscore2_sem_0_split
I0212 01:20:49.527792  6054 net.cpp:157] Top shape: 1 33 20 20 (13200)
I0212 01:20:49.527798  6054 net.cpp:157] Top shape: 1 33 20 20 (13200)
I0212 01:20:49.527801  6054 net.cpp:165] Memory required for data: 510571908
I0212 01:20:49.527806  6054 layer_factory.hpp:77] Creating layer score_pool4_sem
I0212 01:20:49.527827  6054 net.cpp:100] Creating Layer score_pool4_sem
I0212 01:20:49.527832  6054 net.cpp:434] score_pool4_sem <- pool4_pool4_0_split_1
I0212 01:20:49.527849  6054 net.cpp:408] score_pool4_sem -> score_pool4_sem
I0212 01:20:49.528874  6054 net.cpp:150] Setting up score_pool4_sem
I0212 01:20:49.528888  6054 net.cpp:157] Top shape: 1 33 29 29 (27753)
I0212 01:20:49.528892  6054 net.cpp:165] Memory required for data: 510682920
I0212 01:20:49.528899  6054 layer_factory.hpp:77] Creating layer score_pool4_semc
I0212 01:20:49.528909  6054 net.cpp:100] Creating Layer score_pool4_semc
I0212 01:20:49.528913  6054 net.cpp:434] score_pool4_semc <- score_pool4_sem
I0212 01:20:49.528918  6054 net.cpp:434] score_pool4_semc <- upscore2_sem_upscore2_sem_0_split_0
I0212 01:20:49.528923  6054 net.cpp:408] score_pool4_semc -> score_pool4_semc
I0212 01:20:49.528965  6054 net.cpp:150] Setting up score_pool4_semc
I0212 01:20:49.528971  6054 net.cpp:157] Top shape: 1 33 20 20 (13200)
I0212 01:20:49.528975  6054 net.cpp:165] Memory required for data: 510735720
I0212 01:20:49.528978  6054 layer_factory.hpp:77] Creating layer fuse_pool4_sem
I0212 01:20:49.548375  6054 net.cpp:100] Creating Layer fuse_pool4_sem
I0212 01:20:49.548404  6054 net.cpp:434] fuse_pool4_sem <- upscore2_sem_upscore2_sem_0_split_1
I0212 01:20:49.548411  6054 net.cpp:434] fuse_pool4_sem <- score_pool4_semc
I0212 01:20:49.548425  6054 net.cpp:408] fuse_pool4_sem -> fuse_pool4_sem
I0212 01:20:49.548478  6054 net.cpp:150] Setting up fuse_pool4_sem
I0212 01:20:49.548486  6054 net.cpp:157] Top shape: 1 33 20 20 (13200)
I0212 01:20:49.548491  6054 net.cpp:165] Memory required for data: 510788520
I0212 01:20:49.548493  6054 layer_factory.hpp:77] Creating layer upscore_pool4_sem
I0212 01:20:49.548503  6054 net.cpp:100] Creating Layer upscore_pool4_sem
I0212 01:20:49.548507  6054 net.cpp:434] upscore_pool4_sem <- fuse_pool4_sem
I0212 01:20:49.548512  6054 net.cpp:408] upscore_pool4_sem -> upscore_pool4_sem
I0212 01:20:49.548727  6054 net.cpp:150] Setting up upscore_pool4_sem
I0212 01:20:49.548738  6054 net.cpp:157] Top shape: 1 33 42 42 (58212)
I0212 01:20:49.548753  6054 net.cpp:165] Memory required for data: 511021368
I0212 01:20:49.548759  6054 layer_factory.hpp:77] Creating layer upscore_pool4_sem_upscore_pool4_sem_0_split
I0212 01:20:49.548765  6054 net.cpp:100] Creating Layer upscore_pool4_sem_upscore_pool4_sem_0_split
I0212 01:20:49.548780  6054 net.cpp:434] upscore_pool4_sem_upscore_pool4_sem_0_split <- upscore_pool4_sem
I0212 01:20:49.548786  6054 net.cpp:408] upscore_pool4_sem_upscore_pool4_sem_0_split -> upscore_pool4_sem_upscore_pool4_sem_0_split_0
I0212 01:20:49.548794  6054 net.cpp:408] upscore_pool4_sem_upscore_pool4_sem_0_split -> upscore_pool4_sem_upscore_pool4_sem_0_split_1
I0212 01:20:49.548832  6054 net.cpp:150] Setting up upscore_pool4_sem_upscore_pool4_sem_0_split
I0212 01:20:49.548840  6054 net.cpp:157] Top shape: 1 33 42 42 (58212)
I0212 01:20:49.548843  6054 net.cpp:157] Top shape: 1 33 42 42 (58212)
I0212 01:20:49.548847  6054 net.cpp:165] Memory required for data: 511487064
I0212 01:20:49.548851  6054 layer_factory.hpp:77] Creating layer score_pool3_sem
I0212 01:20:49.548859  6054 net.cpp:100] Creating Layer score_pool3_sem
I0212 01:20:49.548863  6054 net.cpp:434] score_pool3_sem <- pool3_pool3_0_split_1
I0212 01:20:49.548871  6054 net.cpp:408] score_pool3_sem -> score_pool3_sem
I0212 01:20:49.549940  6054 net.cpp:150] Setting up score_pool3_sem
I0212 01:20:49.549954  6054 net.cpp:157] Top shape: 1 33 57 57 (107217)
I0212 01:20:49.549958  6054 net.cpp:165] Memory required for data: 511915932
I0212 01:20:49.549965  6054 layer_factory.hpp:77] Creating layer score_pool3_semc
I0212 01:20:49.549974  6054 net.cpp:100] Creating Layer score_pool3_semc
I0212 01:20:49.549979  6054 net.cpp:434] score_pool3_semc <- score_pool3_sem
I0212 01:20:49.549984  6054 net.cpp:434] score_pool3_semc <- upscore_pool4_sem_upscore_pool4_sem_0_split_0
I0212 01:20:49.549989  6054 net.cpp:408] score_pool3_semc -> score_pool3_semc
I0212 01:20:49.550030  6054 net.cpp:150] Setting up score_pool3_semc
I0212 01:20:49.550037  6054 net.cpp:157] Top shape: 1 33 42 42 (58212)
I0212 01:20:49.550040  6054 net.cpp:165] Memory required for data: 512148780
I0212 01:20:49.550045  6054 layer_factory.hpp:77] Creating layer fuse_pool3_sem
I0212 01:20:49.550050  6054 net.cpp:100] Creating Layer fuse_pool3_sem
I0212 01:20:49.550055  6054 net.cpp:434] fuse_pool3_sem <- upscore_pool4_sem_upscore_pool4_sem_0_split_1
I0212 01:20:49.550058  6054 net.cpp:434] fuse_pool3_sem <- score_pool3_semc
I0212 01:20:49.550065  6054 net.cpp:408] fuse_pool3_sem -> fuse_pool3_sem
I0212 01:20:49.550089  6054 net.cpp:150] Setting up fuse_pool3_sem
I0212 01:20:49.550096  6054 net.cpp:157] Top shape: 1 33 42 42 (58212)
I0212 01:20:49.550098  6054 net.cpp:165] Memory required for data: 512381628
I0212 01:20:49.550102  6054 layer_factory.hpp:77] Creating layer upscore8_sem
I0212 01:20:49.550108  6054 net.cpp:100] Creating Layer upscore8_sem
I0212 01:20:49.550112  6054 net.cpp:434] upscore8_sem <- fuse_pool3_sem
I0212 01:20:49.550118  6054 net.cpp:408] upscore8_sem -> upscore8_sem
I0212 01:20:49.550971  6054 net.cpp:150] Setting up upscore8_sem
I0212 01:20:49.550986  6054 net.cpp:157] Top shape: 1 33 344 344 (3905088)
I0212 01:20:49.550988  6054 net.cpp:165] Memory required for data: 528001980
I0212 01:20:49.550993  6054 layer_factory.hpp:77] Creating layer score_sem
I0212 01:20:49.550999  6054 net.cpp:100] Creating Layer score_sem
I0212 01:20:49.551003  6054 net.cpp:434] score_sem <- upscore8_sem
I0212 01:20:49.551008  6054 net.cpp:434] score_sem <- data_data_0_split_1
I0212 01:20:49.551013  6054 net.cpp:408] score_sem -> score_sem
I0212 01:20:49.551062  6054 net.cpp:150] Setting up score_sem
I0212 01:20:49.551069  6054 net.cpp:157] Top shape: 1 33 256 256 (2162688)
I0212 01:20:49.551072  6054 net.cpp:165] Memory required for data: 536652732
I0212 01:20:49.551075  6054 layer_factory.hpp:77] Creating layer loss
I0212 01:20:49.551084  6054 net.cpp:100] Creating Layer loss
I0212 01:20:49.551087  6054 net.cpp:434] loss <- score_sem
I0212 01:20:49.551091  6054 net.cpp:434] loss <- sem
I0212 01:20:49.551096  6054 net.cpp:408] loss -> loss
I0212 01:20:49.551136  6054 net.cpp:150] Setting up loss
I0212 01:20:49.551142  6054 net.cpp:157] Top shape: (1)
I0212 01:20:49.551146  6054 net.cpp:160]     with loss weight 1
I0212 01:20:49.551161  6054 net.cpp:165] Memory required for data: 536652736
I0212 01:20:49.551164  6054 layer_factory.hpp:77] Creating layer score_fr_geo
I0212 01:20:49.551173  6054 net.cpp:100] Creating Layer score_fr_geo
I0212 01:20:49.551177  6054 net.cpp:434] score_fr_geo <- fc7_drop7_0_split_1
I0212 01:20:49.551183  6054 net.cpp:408] score_fr_geo -> score_fr_geo
I0212 01:20:49.552389  6054 net.cpp:150] Setting up score_fr_geo
I0212 01:20:49.552403  6054 net.cpp:157] Top shape: 1 3 9 9 (243)
I0212 01:20:49.552407  6054 net.cpp:165] Memory required for data: 536653708
I0212 01:20:49.552414  6054 layer_factory.hpp:77] Creating layer upscore2_geo
I0212 01:20:49.552423  6054 net.cpp:100] Creating Layer upscore2_geo
I0212 01:20:49.552428  6054 net.cpp:434] upscore2_geo <- score_fr_geo
I0212 01:20:49.552433  6054 net.cpp:408] upscore2_geo -> upscore2_geo
I0212 01:20:49.552652  6054 net.cpp:150] Setting up upscore2_geo
I0212 01:20:49.552664  6054 net.cpp:157] Top shape: 1 3 20 20 (1200)
I0212 01:20:49.552669  6054 net.cpp:165] Memory required for data: 536658508
I0212 01:20:49.552673  6054 layer_factory.hpp:77] Creating layer upscore2_geo_upscore2_geo_0_split
I0212 01:20:49.552681  6054 net.cpp:100] Creating Layer upscore2_geo_upscore2_geo_0_split
I0212 01:20:49.552696  6054 net.cpp:434] upscore2_geo_upscore2_geo_0_split <- upscore2_geo
I0212 01:20:49.552702  6054 net.cpp:408] upscore2_geo_upscore2_geo_0_split -> upscore2_geo_upscore2_geo_0_split_0
I0212 01:20:49.552709  6054 net.cpp:408] upscore2_geo_upscore2_geo_0_split -> upscore2_geo_upscore2_geo_0_split_1
I0212 01:20:49.552754  6054 net.cpp:150] Setting up upscore2_geo_upscore2_geo_0_split
I0212 01:20:49.552762  6054 net.cpp:157] Top shape: 1 3 20 20 (1200)
I0212 01:20:49.552767  6054 net.cpp:157] Top shape: 1 3 20 20 (1200)
I0212 01:20:49.552772  6054 net.cpp:165] Memory required for data: 536668108
I0212 01:20:49.552775  6054 layer_factory.hpp:77] Creating layer score_pool4_geo
I0212 01:20:49.552784  6054 net.cpp:100] Creating Layer score_pool4_geo
I0212 01:20:49.552789  6054 net.cpp:434] score_pool4_geo <- pool4_pool4_0_split_2
I0212 01:20:49.552800  6054 net.cpp:408] score_pool4_geo -> score_pool4_geo
I0212 01:20:49.553827  6054 net.cpp:150] Setting up score_pool4_geo
I0212 01:20:49.553841  6054 net.cpp:157] Top shape: 1 3 29 29 (2523)
I0212 01:20:49.553845  6054 net.cpp:165] Memory required for data: 536678200
I0212 01:20:49.553853  6054 layer_factory.hpp:77] Creating layer score_pool4_geoc
I0212 01:20:49.553859  6054 net.cpp:100] Creating Layer score_pool4_geoc
I0212 01:20:49.553864  6054 net.cpp:434] score_pool4_geoc <- score_pool4_geo
I0212 01:20:49.553869  6054 net.cpp:434] score_pool4_geoc <- upscore2_geo_upscore2_geo_0_split_0
I0212 01:20:49.553874  6054 net.cpp:408] score_pool4_geoc -> score_pool4_geoc
I0212 01:20:49.553913  6054 net.cpp:150] Setting up score_pool4_geoc
I0212 01:20:49.553920  6054 net.cpp:157] Top shape: 1 3 20 20 (1200)
I0212 01:20:49.553923  6054 net.cpp:165] Memory required for data: 536683000
I0212 01:20:49.553926  6054 layer_factory.hpp:77] Creating layer fuse_pool4_geo
I0212 01:20:49.553933  6054 net.cpp:100] Creating Layer fuse_pool4_geo
I0212 01:20:49.553937  6054 net.cpp:434] fuse_pool4_geo <- upscore2_geo_upscore2_geo_0_split_1
I0212 01:20:49.553941  6054 net.cpp:434] fuse_pool4_geo <- score_pool4_geoc
I0212 01:20:49.553946  6054 net.cpp:408] fuse_pool4_geo -> fuse_pool4_geo
I0212 01:20:49.553970  6054 net.cpp:150] Setting up fuse_pool4_geo
I0212 01:20:49.553977  6054 net.cpp:157] Top shape: 1 3 20 20 (1200)
I0212 01:20:49.553979  6054 net.cpp:165] Memory required for data: 536687800
I0212 01:20:49.553982  6054 layer_factory.hpp:77] Creating layer upscore_pool4_geo
I0212 01:20:49.553990  6054 net.cpp:100] Creating Layer upscore_pool4_geo
I0212 01:20:49.553993  6054 net.cpp:434] upscore_pool4_geo <- fuse_pool4_geo
I0212 01:20:49.553999  6054 net.cpp:408] upscore_pool4_geo -> upscore_pool4_geo
I0212 01:20:49.554198  6054 net.cpp:150] Setting up upscore_pool4_geo
I0212 01:20:49.554208  6054 net.cpp:157] Top shape: 1 3 42 42 (5292)
I0212 01:20:49.554211  6054 net.cpp:165] Memory required for data: 536708968
I0212 01:20:49.554216  6054 layer_factory.hpp:77] Creating layer upscore_pool4_geo_upscore_pool4_geo_0_split
I0212 01:20:49.554222  6054 net.cpp:100] Creating Layer upscore_pool4_geo_upscore_pool4_geo_0_split
I0212 01:20:49.554226  6054 net.cpp:434] upscore_pool4_geo_upscore_pool4_geo_0_split <- upscore_pool4_geo
I0212 01:20:49.554232  6054 net.cpp:408] upscore_pool4_geo_upscore_pool4_geo_0_split -> upscore_pool4_geo_upscore_pool4_geo_0_split_0
I0212 01:20:49.554240  6054 net.cpp:408] upscore_pool4_geo_upscore_pool4_geo_0_split -> upscore_pool4_geo_upscore_pool4_geo_0_split_1
I0212 01:20:49.554275  6054 net.cpp:150] Setting up upscore_pool4_geo_upscore_pool4_geo_0_split
I0212 01:20:49.554288  6054 net.cpp:157] Top shape: 1 3 42 42 (5292)
I0212 01:20:49.554293  6054 net.cpp:157] Top shape: 1 3 42 42 (5292)
I0212 01:20:49.554296  6054 net.cpp:165] Memory required for data: 536751304
I0212 01:20:49.554301  6054 layer_factory.hpp:77] Creating layer score_pool3_geo
I0212 01:20:49.554316  6054 net.cpp:100] Creating Layer score_pool3_geo
I0212 01:20:49.554321  6054 net.cpp:434] score_pool3_geo <- pool3_pool3_0_split_2
I0212 01:20:49.554327  6054 net.cpp:408] score_pool3_geo -> score_pool3_geo
I0212 01:20:49.555338  6054 net.cpp:150] Setting up score_pool3_geo
I0212 01:20:49.555353  6054 net.cpp:157] Top shape: 1 3 57 57 (9747)
I0212 01:20:49.555357  6054 net.cpp:165] Memory required for data: 536790292
I0212 01:20:49.555363  6054 layer_factory.hpp:77] Creating layer score_pool3_geoc
I0212 01:20:49.555371  6054 net.cpp:100] Creating Layer score_pool3_geoc
I0212 01:20:49.555374  6054 net.cpp:434] score_pool3_geoc <- score_pool3_geo
I0212 01:20:49.555380  6054 net.cpp:434] score_pool3_geoc <- upscore_pool4_geo_upscore_pool4_geo_0_split_0
I0212 01:20:49.555387  6054 net.cpp:408] score_pool3_geoc -> score_pool3_geoc
I0212 01:20:49.555426  6054 net.cpp:150] Setting up score_pool3_geoc
I0212 01:20:49.555433  6054 net.cpp:157] Top shape: 1 3 42 42 (5292)
I0212 01:20:49.555436  6054 net.cpp:165] Memory required for data: 536811460
I0212 01:20:49.555439  6054 layer_factory.hpp:77] Creating layer fuse_pool3_geo
I0212 01:20:49.555445  6054 net.cpp:100] Creating Layer fuse_pool3_geo
I0212 01:20:49.555449  6054 net.cpp:434] fuse_pool3_geo <- upscore_pool4_geo_upscore_pool4_geo_0_split_1
I0212 01:20:49.555454  6054 net.cpp:434] fuse_pool3_geo <- score_pool3_geoc
I0212 01:20:49.555460  6054 net.cpp:408] fuse_pool3_geo -> fuse_pool3_geo
I0212 01:20:49.555485  6054 net.cpp:150] Setting up fuse_pool3_geo
I0212 01:20:49.555491  6054 net.cpp:157] Top shape: 1 3 42 42 (5292)
I0212 01:20:49.555495  6054 net.cpp:165] Memory required for data: 536832628
I0212 01:20:49.555497  6054 layer_factory.hpp:77] Creating layer upscore8_geo
I0212 01:20:49.555503  6054 net.cpp:100] Creating Layer upscore8_geo
I0212 01:20:49.555507  6054 net.cpp:434] upscore8_geo <- fuse_pool3_geo
I0212 01:20:49.555513  6054 net.cpp:408] upscore8_geo -> upscore8_geo
I0212 01:20:49.555721  6054 net.cpp:150] Setting up upscore8_geo
I0212 01:20:49.555732  6054 net.cpp:157] Top shape: 1 3 344 344 (355008)
I0212 01:20:49.555737  6054 net.cpp:165] Memory required for data: 538252660
I0212 01:20:49.555742  6054 layer_factory.hpp:77] Creating layer score_geo
I0212 01:20:49.555747  6054 net.cpp:100] Creating Layer score_geo
I0212 01:20:49.555752  6054 net.cpp:434] score_geo <- upscore8_geo
I0212 01:20:49.555755  6054 net.cpp:434] score_geo <- data_data_0_split_2
I0212 01:20:49.555761  6054 net.cpp:408] score_geo -> score_geo
I0212 01:20:49.555797  6054 net.cpp:150] Setting up score_geo
I0212 01:20:49.555805  6054 net.cpp:157] Top shape: 1 3 256 256 (196608)
I0212 01:20:49.555809  6054 net.cpp:165] Memory required for data: 539039092
I0212 01:20:49.555812  6054 layer_factory.hpp:77] Creating layer loss_geo
I0212 01:20:49.555819  6054 net.cpp:100] Creating Layer loss_geo
I0212 01:20:49.555822  6054 net.cpp:434] loss_geo <- score_geo
I0212 01:20:49.555827  6054 net.cpp:434] loss_geo <- geo
I0212 01:20:49.555832  6054 net.cpp:408] loss_geo -> loss_geo
…
I0212 01:20:49.556162  6054 net.cpp:270] This network produces output loss_geo
I0212 01:20:49.556213  6054 net.cpp:283] Network initialization done.
I0212 01:20:49.574048  6054 solver.cpp:181] Creating test net (#0) specified by test_net file: test.prototxt
I0212 01:20:49.574513  6054 net.cpp:58] Initializing net from parameters: 
state {
  phase: TEST
}
layer {
  name: "data"
  type: "Python"
  top: "data"
  top: "sem"
  top: "geo"
  python_param {
    module: "siftflow_layers"
    layer: "SIFTFlowSegDataLayer"
    param_str: "{\'siftflow_dir\': \'../data/sift-flow\', \'seed\': 1337, \'split\': \'test\'}"
  }
}
layer {
  name: "conv1_1"
  type: "Convolution"
  bottom: "data"
  top: "conv1_1"
  param {
    lr_mult: 1
    decay_mult: 1
  }
  param {
    lr_mult: 2
    decay_mult: 0
  }
  convolution_param {
    num_output: 64
    pad: 100
    kernel_size: 3
    stride: 1
  }
}
layer {
  name: "relu1_1"
  type: "ReLU"
  bottom: "conv1_1"
  top: "conv1_1"
}
layer {
  name: "conv1_2"
  type: "Convolution"
  bottom: "conv1_1"
  top: "conv1_2"
  param {
    lr_mult: 1
    decay_mult: 1
  }
  param {
    lr_mult: 2
    decay_mult: 0
  }
  convolution_param {
    num_output: 64
    pad: 1
    kernel_size: 3
    stride: 1
  }
}
layer {
  name: "relu1_2"
  type: "ReLU"
  bottom: "conv1_2"
  top: "conv1_2"
}
layer {
  name: "pool1"
  type: "Pooling"
  bottom: "conv1_2"
  top: "pool1"
  pooling_param {
    pool: MAX
    kernel_size: 2
    stride: 2
  }
}
layer {
  name: "conv2_1"
  type: "Convolution"
  bottom: "pool1"
  top: "conv2_1"
  param {
    lr_mult: 1
    decay_mult: 1
  }
  param {
    lr_mult: 2
    decay_mult: 0
  }
  convolution_param {
    num_output: 128
    pad: 1
    kernel_size: 3
    stride: 1
  }
}
layer {
  name: "relu2_1"
  type: "ReLU"
  bottom: "conv2_1"
  top: "conv2_1"
}
layer {
  name: "conv2_2"
  type: "Convolution"
  bottom: "conv2_1"
  top: "conv2_2"
  param {
    lr_mult: 1
    decay_mult: 1
  }
  param {
    lr_mult: 2
    decay_mult: 0
  }
  convolution_param {
    num_output: 128
    pad: 1
    kernel_size: 3
    stride: 1
  }
}
layer {
  name: "relu2_2"
  type: "ReLU"
  bottom: "conv2_2"
  top: "conv2_2"
}
layer {
  name: "pool2"
  type: "Pooling"
  bottom: "conv2_2"
  top: "pool2"
  pooling_param {
    pool: MAX
    kernel_size: 2
    stride: 2
  }
}
layer {
  name: "conv3_1"
  type: "Convolution"
  bottom: "pool2"
  top: "conv3_1"
  param {
    lr_mult: 1
    decay_mult: 1
  }
  param {
    lr_mult: 2
    decay_mult: 0
  }
  convolution_param {
    num_output: 256
    pad: 1
    kernel_size: 3
    stride: 1
  }
}
layer {
  name: "relu3_1"
  type: "ReLU"
  bottom: "conv3_1"
  top: "conv3_1"
}
layer {
  name: "conv3_2"
  type: "Convolution"
  bottom: "conv3_1"
  top: "conv3_2"
  param {
    lr_mult: 1
    decay_mult: 1
  }
  param {
    lr_mult: 2
    decay_mult: 0
  }
  convolution_param {
    num_output: 256
    pad: 1
    kernel_size: 3
    stride: 1
  }
}
layer {
  name: "relu3_2"
  type: "ReLU"
  bottom: "conv3_2"
  top: "conv3_2"
}
layer {
  name: "conv3_3"
  type: "Convolution"
  bottom: "conv3_2"
  top: "conv3_3"
  param {
    lr_mult: 1
    decay_mult: 1
  }
  param {
    lr_mult: 2
    decay_mult: 0
  }
  convolution_param {
    num_output: 256
    pad: 1
    kernel_size: 3
    stride: 1
  }
}
layer {
  name: "relu3_3"
  type: "ReLU"
  bottom: "conv3_3"
  top: "conv3_3"
}
layer {
  name: "pool3"
  type: "Pooling"
  bottom: "conv3_3"
  top: "pool3"
  pooling_param {
    pool: MAX
    kernel_size: 2
    stride: 2
  }
}
layer {
  name: "conv4_1"
  type: "Convolution"
  bottom: "pool3"
  top: "conv4_1"
  param {
    lr_mult: 1
    decay_mult: 1
  }
  param {
    lr_mult: 2
    decay_mult: 0
  }
  convolution_param {
    num_output: 512
    pad: 1
    kernel_size: 3
    stride: 1
  }
}
layer {
  name: "relu4_1"
  type: "ReLU"
  bottom: "conv4_1"
  top: "conv4_1"
}
layer {
  name: "conv4_2"
  type: "Convolution"
  bottom: "conv4_1"
  top: "conv4_2"
  param {
    lr_mult: 1
    decay_mult: 1
  }
  param {
    lr_mult: 2
    decay_mult: 0
  }
  convolution_param {
    num_output: 512
    pad: 1
    kernel_size: 3
    stride: 1
  }
}
layer {
  name: "relu4_2"
  type: "ReLU"
  bottom: "conv4_2"
  top: "conv4_2"
}
layer {
  name: "conv4_3"
  type: "Convolution"
  bottom: "conv4_2"
  top: "conv4_3"
  param {
    lr_mult: 1
    decay_mult: 1
  }
  param {
    lr_mult: 2
    decay_mult: 0
  }
  convolution_param {
    num_output: 512
    pad: 1
    kernel_size: 3
    stride: 1
  }
}
layer {
  name: "relu4_3"
  type: "ReLU"
  bottom: "conv4_3"
  top: "conv4_3"
}
layer {
  name: "pool4"
  type: "Pooling"
  bottom: "conv4_3"
  top: "pool4"
  pooling_param {
    pool: MAX
    kernel_size: 2
    stride: 2
  }
}
layer {
  name: "conv5_1"
  type: "Convolution"
  bottom: "pool4"
  top: "conv5_1"
  param {
    lr_mult: 1
    decay_mult: 1
  }
  param {
    lr_mult: 2
    decay_mult: 0
  }
  convolution_param {
    num_output: 512
    pad: 1
    kernel_size: 3
    stride: 1
  }
}
layer {
  name: "relu5_1"
  type: "ReLU"
  bottom: "conv5_1"
  top: "conv5_1"
}
layer {
  name: "conv5_2"
  type: "Convolution"
  bottom: "conv5_1"
  top: "conv5_2"
  param {
    lr_mult: 1
    decay_mult: 1
  }
  param {
    lr_mult: 2
    decay_mult: 0
  }
  convolution_param {
    num_output: 512
    pad: 1
    kernel_size: 3
    stride: 1
  }
}
layer {
  name: "relu5_2"
  type: "ReLU"
  bottom: "conv5_2"
  top: "conv5_2"
}
layer {
  name: "conv5_3"
  type: "Convolution"
  bottom: "conv5_2"
  top: "conv5_3"
  param {
    lr_mult: 1
    decay_mult: 1
  }
  param {
    lr_mult: 2
    decay_mult: 0
  }
  convolution_param {
    num_output: 512
    pad: 1
    kernel_size: 3
    stride: 1
  }
}
layer {
  name: "relu5_3"
  type: "ReLU"
  bottom: "conv5_3"
  top: "conv5_3"
}
layer {
  name: "pool5"
  type: "Pooling"
  bottom: "conv5_3"
  top: "pool5"
  pooling_param {
    pool: MAX
    kernel_size: 2
    stride: 2
  }
}
layer {
  name: "fc6"
  type: "Convolution"
  bottom: "pool5"
  top: "fc6"
  param {
    lr_mult: 1
    decay_mult: 1
  }
  param {
    lr_mult: 2
    decay_mult: 0
  }
  convolution_param {
    num_output: 4096
    pad: 0
    kernel_size: 7
    stride: 1
  }
}
layer {
  name: "relu6"
  type: "ReLU"
  bottom: "fc6"
  top: "fc6"
}
layer {
  name: "drop6"
  type: "Dropout"
  bottom: "fc6"
  top: "fc6"
  dropout_param {
    dropout_ratio: 0.5
  }
}
layer {
  name: "fc7"
  type: "Convolution"
  bottom: "fc6"
  top: "fc7"
  param {
    lr_mult: 1
    decay_mult: 1
  }
  param {
    lr_mult: 2
    decay_mult: 0
  }
  convolution_param {
    num_output: 4096
    pad: 0
    kernel_size: 1
    stride: 1
  }
}
layer {
  name: "relu7"
  type: "ReLU"
  bottom: "fc7"
  top: "fc7"
}
layer {
  name: "drop7"
  type: "Dropout"
  bottom: "fc7"
  top: "fc7"
  dropout_param {
    dropout_ratio: 0.5
  }
}
layer {
  name: "score_fr_sem"
  type: "Convolution"
  bottom: "fc7"
  top: "score_fr_sem"
  param {
    lr_mult: 1
    decay_mult: 1
  }
  param {
    lr_mult: 2
    decay_mult: 0
  }
  convolution_param {
    num_output: 33
    pad: 0
    kernel_size: 1
  }
}
layer {
  name: "upscore2_sem"
  type: "Deconvolution"
  bottom: "score_fr_sem"
  top: "upscore2_sem"
  param {
    lr_mult: 0
  }
  convolution_param {
    num_output: 33
    bias_term: false
    kernel_size: 4
    stride: 2
  }
}
layer {
  name: "score_pool4_sem"
  type: "Convolution"
  bottom: "pool4"
  top: "score_pool4_sem"
  param {
    lr_mult: 1
    decay_mult: 1
  }
  param {
    lr_mult: 2
    decay_mult: 0
  }
  convolution_param {
    num_output: 33
    pad: 0
    kernel_size: 1
  }
}
layer {
  name: "score_pool4_semc"
  type: "Crop"
  bottom: "score_pool4_sem"
  bottom: "upscore2_sem"
  top: "score_pool4_semc"
  crop_param {
    axis: 2
    offset: 5
  }
}
layer {
  name: "fuse_pool4_sem"
  type: "Eltwise"
  bottom: "upscore2_sem"
  bottom: "score_pool4_semc"
  top: "fuse_pool4_sem"
  eltwise_param {
    operation: SUM
  }
}
layer {
  name: "upscore_pool4_sem"
  type: "Deconvolution"
  bottom: "fuse_pool4_sem"
  top: "upscore_pool4_sem"
  param {
    lr_mult: 0
  }
  convolution_param {
    num_output: 33
    bias_term: false
    kernel_size: 4
    stride: 2
  }
}
layer {
  name: "score_pool3_sem"
  type: "Convolution"
  bottom: "pool3"
  top: "score_pool3_sem"
  param {
    lr_mult: 1
    decay_mult: 1
  }
  param {
    lr_mult: 2
    decay_mult: 0
  }
  convolution_param {
    num_output: 33
    pad: 0
    kernel_size: 1
  }
}
layer {
  name: "score_pool3_semc"
  type: "Crop"
  bottom: "score_pool3_sem"
  bottom: "upscore_pool4_sem"
  top: "score_pool3_semc"
  crop_param {
    axis: 2
    offset: 9
  }
}
layer {
  name: "fuse_pool3_sem"
  type: "Eltwise"
  bottom: "upscore_pool4_sem"
  bottom: "score_pool3_semc"
  top: "fuse_pool3_sem"
  eltwise_param {
    operation: SUM
  }
}
layer {
  name: "upscore8_sem"
  type: "Deconvolution"
  bottom: "fuse_pool3_sem"
  top: "upscore8_sem"
  param {
    lr_mult: 0
  }
  convolution_param {
    num_output: 33
    bias_term: false
    kernel_size: 16
    stride: 8
  }
}
layer {
  name: "score_sem"
  type: "Crop"
  bottom: "upscore8_sem"
  bottom: "data"
  top: "score_sem"
  crop_param {
    axis: 2
    offset: 31
  }
}
layer {
  name: "loss"
  type: "SoftmaxWithLoss"
  bottom: "score_sem"
  bottom: "sem"
  top: "loss"
  loss_param {
    ignore_label: 255
    normalize: false
  }
}
layer {
  name: "score_fr_geo"
  type: "Convolution"
  bottom: "fc7"
  top: "score_fr_geo"
  param {
    lr_mult: 1
    decay_mult: 1
  }
  param {
    lr_mult: 2
    decay_mult: 0
  }
  convolution_param {
    num_output: 3
    pad: 0
    kernel_size: 1
  }
}
layer {
  name: "upscore2_geo"
  type: "Deconvolution"
  bottom: "score_fr_geo"
  top: "upscore2_geo"
  param {
    lr_mult: 0
  }
  convolution_param {
    num_output: 3
    bias_term: false
    kernel_size: 4
    stride: 2
  }
}
layer {
  name: "score_pool4_geo"
  type: "Convolution"
  bottom: "pool4"
  top: "score_pool4_geo"
  param {
    lr_mult: 1
    decay_mult: 1
  }
  param {
    lr_mult: 2
    decay_mult: 0
  }
  convolution_param {
    num_output: 3
    pad: 0
    kernel_size: 1
  }
}
layer {
  name: "score_pool4_geoc"
  type: "Crop"
  bottom: "score_pool4_geo"
  bottom: "upscore2_geo"
  top: "score_pool4_geoc"
  crop_param {
    axis: 2
    offset: 5
  }
}
layer {
  name: "fuse_pool4_geo"
  type: "Eltwise"
  bottom: "upscore2_geo"
  bottom: "score_pool4_geoc"
  top: "fuse_pool4_geo"
  eltwise_param {
    operation: SUM
  }
}
layer {
  name: "upscore_pool4_geo"
  type: "Deconvolution"
  bottom: "fuse_pool4_geo"
  top: "upscore_pool4_geo"
  param {
    lr_mult: 0
  }
  convolution_param {
    num_output: 3
    bias_term: false
    kernel_size: 4
    stride: 2
  }
}
layer {
  name: "score_pool3_geo"
  type: "Convolution"
  bottom: "pool3"
  top: "score_pool3_geo"
  param {
    lr_mult: 1
    decay_mult: 1
  }
  param {
    lr_mult: 2
    decay_mult: 0
  }
  convolution_param {
    num_output: 3
    pad: 0
    kernel_size: 1
  }
}
layer {
  name: "score_pool3_geoc"
  type: "Crop"
  bottom: "score_pool3_geo"
  bottom: "upscore_pool4_geo"
  top: "score_pool3_geoc"
  crop_param {
    axis: 2
    offset: 9
  }
}
layer {
  name: "fuse_pool3_geo"
  type: "Eltwise"
  bottom: "upscore_pool4_geo"
  bottom: "score_pool3_geoc"
  top: "fuse_pool3_geo"
  eltwise_param {
    operation: SUM
  }
}
layer {
  name: "upscore8_geo"
  type: "Deconvolution"
  bottom: "fuse_pool3_geo"
  top: "upscore8_geo"
  param {
    lr_mult: 0
  }
  convolution_param {
    num_output: 3
    bias_term: false
    kernel_size: 16
    stride: 8
  }
}
layer {
  name: "score_geo"
  type: "Crop"
  bottom: "upscore8_geo"
  bottom: "data"
  top: "score_geo"
  crop_param {
    axis: 2
    offset: 31
  }
}
layer {
  name: "loss_geo"
  type: "SoftmaxWithLoss"
  bottom: "score_geo"
  bottom: "geo"
  top: "loss_geo"
  loss_param {
    ignore_label: 255
    normalize: false
  }
}
I0212 01:20:49.574847  6054 layer_factory.hpp:77] Creating layer data
I0212 01:20:49.590806  6054 net.cpp:100] Creating Layer data
I0212 01:20:49.590833  6054 net.cpp:408] data -> data
I0212 01:20:49.590842  6054 net.cpp:408] data -> sem
I0212 01:20:49.590862  6054 net.cpp:408] data -> geo
I0212 01:20:49.670013  6054 net.cpp:150] Setting up data
I0212 01:20:49.670032  6054 net.cpp:157] Top shape: 1 3 256 256 (196608)
I0212 01:20:49.670038  6054 net.cpp:157] Top shape: 1 1 256 256 (65536)
I0212 01:20:49.670042  6054 net.cpp:157] Top shape: 1 1 256 256 (65536)
I0212 01:20:49.670045  6054 net.cpp:165] Memory required for data: 1310720
I0212 01:20:49.670050  6054 layer_factory.hpp:77] Creating layer data_data_0_split
I0212 01:20:49.670058  6054 net.cpp:100] Creating Layer data_data_0_split
I0212 01:20:49.670061  6054 net.cpp:434] data_data_0_split <- data
I0212 01:20:49.670066  6054 net.cpp:408] data_data_0_split -> data_data_0_split_0
I0212 01:20:49.670073  6054 net.cpp:408] data_data_0_split -> data_data_0_split_1
I0212 01:20:49.670080  6054 net.cpp:408] data_data_0_split -> data_data_0_split_2
I0212 01:20:49.670141  6054 net.cpp:150] Setting up data_data_0_split
I0212 01:20:49.670148  6054 net.cpp:157] Top shape: 1 3 256 256 (196608)
I0212 01:20:49.670152  6054 net.cpp:157] Top shape: 1 3 256 256 (196608)
I0212 01:20:49.670157  6054 net.cpp:157] Top shape: 1 3 256 256 (196608)
I0212 01:20:49.670161  6054 net.cpp:165] Memory required for data: 3670016
I0212 01:20:49.670163  6054 layer_factory.hpp:77] Creating layer conv1_1
I0212 01:20:49.670172  6054 net.cpp:100] Creating Layer conv1_1
I0212 01:20:49.670176  6054 net.cpp:434] conv1_1 <- data_data_0_split_0
I0212 01:20:49.670182  6054 net.cpp:408] conv1_1 -> conv1_1
I0212 01:20:49.671775  6054 net.cpp:150] Setting up conv1_1
I0212 01:20:49.671792  6054 net.cpp:157] Top shape: 1 64 454 454 (13191424)
I0212 01:20:49.671797  6054 net.cpp:165] Memory required for data: 56435712
I0212 01:20:49.671808  6054 layer_factory.hpp:77] Creating layer relu1_1
I0212 01:20:49.671814  6054 net.cpp:100] Creating Layer relu1_1
I0212 01:20:49.671818  6054 net.cpp:434] relu1_1 <- conv1_1
I0212 01:20:49.671823  6054 net.cpp:395] relu1_1 -> conv1_1 (in-place)
I0212 01:20:49.672011  6054 net.cpp:150] Setting up relu1_1
I0212 01:20:49.672024  6054 net.cpp:157] Top shape: 1 64 454 454 (13191424)
I0212 01:20:49.672029  6054 net.cpp:165] Memory required for data: 109201408
I0212 01:20:49.672032  6054 layer_factory.hpp:77] Creating layer conv1_2
I0212 01:20:49.672041  6054 net.cpp:100] Creating Layer conv1_2
I0212 01:20:49.672045  6054 net.cpp:434] conv1_2 <- conv1_1
I0212 01:20:49.672051  6054 net.cpp:408] conv1_2 -> conv1_2
I0212 01:20:49.673790  6054 net.cpp:150] Setting up conv1_2
I0212 01:20:49.673807  6054 net.cpp:157] Top shape: 1 64 454 454 (13191424)
I0212 01:20:49.673811  6054 net.cpp:165] Memory required for data: 161967104
I0212 01:20:49.673821  6054 layer_factory.hpp:77] Creating layer relu1_2
I0212 01:20:49.673827  6054 net.cpp:100] Creating Layer relu1_2
I0212 01:20:49.673831  6054 net.cpp:434] relu1_2 <- conv1_2
I0212 01:20:49.673836  6054 net.cpp:395] relu1_2 -> conv1_2 (in-place)
I0212 01:20:49.674180  6054 net.cpp:150] Setting up relu1_2
I0212 01:20:49.674196  6054 net.cpp:157] Top shape: 1 64 454 454 (13191424)
I0212 01:20:49.674201  6054 net.cpp:165] Memory required for data: 214732800
I0212 01:20:49.674206  6054 layer_factory.hpp:77] Creating layer pool1
I0212 01:20:49.674212  6054 net.cpp:100] Creating Layer pool1
I0212 01:20:49.674216  6054 net.cpp:434] pool1 <- conv1_2
I0212 01:20:49.674222  6054 net.cpp:408] pool1 -> pool1
I0212 01:20:49.674273  6054 net.cpp:150] Setting up pool1
I0212 01:20:49.674281  6054 net.cpp:157] Top shape: 1 64 227 227 (3297856)
I0212 01:20:49.674285  6054 net.cpp:165] Memory required for data: 227924224
I0212 01:20:49.674289  6054 layer_factory.hpp:77] Creating layer conv2_1
I0212 01:20:49.674298  6054 net.cpp:100] Creating Layer conv2_1
I0212 01:20:49.674301  6054 net.cpp:434] conv2_1 <- pool1
I0212 01:20:49.674307  6054 net.cpp:408] conv2_1 -> conv2_1
I0212 01:20:49.675707  6054 net.cpp:150] Setting up conv2_1
I0212 01:20:49.675737  6054 net.cpp:157] Top shape: 1 128 227 227 (6595712)
I0212 01:20:49.675741  6054 net.cpp:165] Memory required for data: 254307072
I0212 01:20:49.675765  6054 layer_factory.hpp:77] Creating layer relu2_1
I0212 01:20:49.675772  6054 net.cpp:100] Creating Layer relu2_1
I0212 01:20:49.675776  6054 net.cpp:434] relu2_1 <- conv2_1
I0212 01:20:49.675782  6054 net.cpp:395] relu2_1 -> conv2_1 (in-place)
I0212 01:20:49.676165  6054 net.cpp:150] Setting up relu2_1
I0212 01:20:49.676193  6054 net.cpp:157] Top shape: 1 128 227 227 (6595712)
I0212 01:20:49.676198  6054 net.cpp:165] Memory required for data: 280689920
I0212 01:20:49.676203  6054 layer_factory.hpp:77] Creating layer conv2_2
I0212 01:20:49.676213  6054 net.cpp:100] Creating Layer conv2_2
I0212 01:20:49.676218  6054 net.cpp:434] conv2_2 <- conv2_1
I0212 01:20:49.676223  6054 net.cpp:408] conv2_2 -> conv2_2
I0212 01:20:49.677999  6054 net.cpp:150] Setting up conv2_2
I0212 01:20:49.678019  6054 net.cpp:157] Top shape: 1 128 227 227 (6595712)
I0212 01:20:49.678022  6054 net.cpp:165] Memory required for data: 307072768
I0212 01:20:49.678030  6054 layer_factory.hpp:77] Creating layer relu2_2
I0212 01:20:49.678038  6054 net.cpp:100] Creating Layer relu2_2
I0212 01:20:49.678055  6054 net.cpp:434] relu2_2 <- conv2_2
I0212 01:20:49.678071  6054 net.cpp:395] relu2_2 -> conv2_2 (in-place)
I0212 01:20:49.678267  6054 net.cpp:150] Setting up relu2_2
I0212 01:20:49.678279  6054 net.cpp:157] Top shape: 1 128 227 227 (6595712)
I0212 01:20:49.678283  6054 net.cpp:165] Memory required for data: 333455616
I0212 01:20:49.678287  6054 layer_factory.hpp:77] Creating layer pool2
I0212 01:20:49.678295  6054 net.cpp:100] Creating Layer pool2
I0212 01:20:49.678299  6054 net.cpp:434] pool2 <- conv2_2
I0212 01:20:49.678305  6054 net.cpp:408] pool2 -> pool2
I0212 01:20:49.678364  6054 net.cpp:150] Setting up pool2
I0212 01:20:49.678375  6054 net.cpp:157] Top shape: 1 128 114 114 (1663488)
I0212 01:20:49.678378  6054 net.cpp:165] Memory required for data: 340109568
I0212 01:20:49.678382  6054 layer_factory.hpp:77] Creating layer conv3_1
I0212 01:20:49.678391  6054 net.cpp:100] Creating Layer conv3_1
I0212 01:20:49.678395  6054 net.cpp:434] conv3_1 <- pool2
I0212 01:20:49.678401  6054 net.cpp:408] conv3_1 -> conv3_1
I0212 01:20:49.680111  6054 net.cpp:150] Setting up conv3_1
I0212 01:20:49.680127  6054 net.cpp:157] Top shape: 1 256 114 114 (3326976)
I0212 01:20:49.680131  6054 net.cpp:165] Memory required for data: 353417472
I0212 01:20:49.680141  6054 layer_factory.hpp:77] Creating layer relu3_1
I0212 01:20:49.680148  6054 net.cpp:100] Creating Layer relu3_1
I0212 01:20:49.680151  6054 net.cpp:434] relu3_1 <- conv3_1
I0212 01:20:49.680158  6054 net.cpp:395] relu3_1 -> conv3_1 (in-place)
I0212 01:20:49.680502  6054 net.cpp:150] Setting up relu3_1
I0212 01:20:49.680518  6054 net.cpp:157] Top shape: 1 256 114 114 (3326976)
I0212 01:20:49.680522  6054 net.cpp:165] Memory required for data: 366725376
I0212 01:20:49.680527  6054 layer_factory.hpp:77] Creating layer conv3_2
I0212 01:20:49.680536  6054 net.cpp:100] Creating Layer conv3_2
I0212 01:20:49.680541  6054 net.cpp:434] conv3_2 <- conv3_1
I0212 01:20:49.680549  6054 net.cpp:408] conv3_2 -> conv3_2
I0212 01:20:49.682770  6054 net.cpp:150] Setting up conv3_2
I0212 01:20:49.682786  6054 net.cpp:157] Top shape: 1 256 114 114 (3326976)
I0212 01:20:49.682790  6054 net.cpp:165] Memory required for data: 380033280
I0212 01:20:49.682797  6054 layer_factory.hpp:77] Creating layer relu3_2
I0212 01:20:49.682806  6054 net.cpp:100] Creating Layer relu3_2
I0212 01:20:49.682809  6054 net.cpp:434] relu3_2 <- conv3_2
I0212 01:20:49.682816  6054 net.cpp:395] relu3_2 -> conv3_2 (in-place)
I0212 01:20:49.683162  6054 net.cpp:150] Setting up relu3_2
I0212 01:20:49.683178  6054 net.cpp:157] Top shape: 1 256 114 114 (3326976)
I0212 01:20:49.683182  6054 net.cpp:165] Memory required for data: 393341184
I0212 01:20:49.683187  6054 layer_factory.hpp:77] Creating layer conv3_3
I0212 01:20:49.683202  6054 net.cpp:100] Creating Layer conv3_3
I0212 01:20:49.683207  6054 net.cpp:434] conv3_3 <- conv3_2
I0212 01:20:49.683213  6054 net.cpp:408] conv3_3 -> conv3_3
I0212 01:20:49.685458  6054 net.cpp:150] Setting up conv3_3
I0212 01:20:49.685475  6054 net.cpp:157] Top shape: 1 256 114 114 (3326976)
I0212 01:20:49.685480  6054 net.cpp:165] Memory required for data: 406649088
I0212 01:20:49.685487  6054 layer_factory.hpp:77] Creating layer relu3_3
I0212 01:20:49.685494  6054 net.cpp:100] Creating Layer relu3_3
I0212 01:20:49.685498  6054 net.cpp:434] relu3_3 <- conv3_3
I0212 01:20:49.685503  6054 net.cpp:395] relu3_3 -> conv3_3 (in-place)
I0212 01:20:49.685716  6054 net.cpp:150] Setting up relu3_3
I0212 01:20:49.685729  6054 net.cpp:157] Top shape: 1 256 114 114 (3326976)
I0212 01:20:49.685732  6054 net.cpp:165] Memory required for data: 419956992
I0212 01:20:49.685736  6054 layer_factory.hpp:77] Creating layer pool3
I0212 01:20:49.685744  6054 net.cpp:100] Creating Layer pool3
I0212 01:20:49.685748  6054 net.cpp:434] pool3 <- conv3_3
I0212 01:20:49.685767  6054 net.cpp:408] pool3 -> pool3
I0212 01:20:49.685819  6054 net.cpp:150] Setting up pool3
I0212 01:20:49.685832  6054 net.cpp:157] Top shape: 1 256 57 57 (831744)
I0212 01:20:49.685835  6054 net.cpp:165] Memory required for data: 423283968
I0212 01:20:49.685838  6054 layer_factory.hpp:77] Creating layer pool3_pool3_0_split
I0212 01:20:49.685844  6054 net.cpp:100] Creating Layer pool3_pool3_0_split
I0212 01:20:49.685848  6054 net.cpp:434] pool3_pool3_0_split <- pool3
I0212 01:20:49.685854  6054 net.cpp:408] pool3_pool3_0_split -> pool3_pool3_0_split_0
I0212 01:20:49.685868  6054 net.cpp:408] pool3_pool3_0_split -> pool3_pool3_0_split_1
I0212 01:20:49.685875  6054 net.cpp:408] pool3_pool3_0_split -> pool3_pool3_0_split_2
I0212 01:20:49.685930  6054 net.cpp:150] Setting up pool3_pool3_0_split
I0212 01:20:49.685941  6054 net.cpp:157] Top shape: 1 256 57 57 (831744)
I0212 01:20:49.685946  6054 net.cpp:157] Top shape: 1 256 57 57 (831744)
I0212 01:20:49.685950  6054 net.cpp:157] Top shape: 1 256 57 57 (831744)
I0212 01:20:49.685955  6054 net.cpp:165] Memory required for data: 433264896
I0212 01:20:49.685958  6054 layer_factory.hpp:77] Creating layer conv4_1
I0212 01:20:49.685966  6054 net.cpp:100] Creating Layer conv4_1
I0212 01:20:49.685971  6054 net.cpp:434] conv4_1 <- pool3_pool3_0_split_0
I0212 01:20:49.685978  6054 net.cpp:408] conv4_1 -> conv4_1
I0212 01:20:49.689254  6054 net.cpp:150] Setting up conv4_1
I0212 01:20:49.689283  6054 net.cpp:157] Top shape: 1 512 57 57 (1663488)
I0212 01:20:49.689288  6054 net.cpp:165] Memory required for data: 439918848
I0212 01:20:49.689296  6054 layer_factory.hpp:77] Creating layer relu4_1
I0212 01:20:49.689304  6054 net.cpp:100] Creating Layer relu4_1
I0212 01:20:49.689308  6054 net.cpp:434] relu4_1 <- conv4_1
I0212 01:20:49.689314  6054 net.cpp:395] relu4_1 -> conv4_1 (in-place)
I0212 01:20:49.689684  6054 net.cpp:150] Setting up relu4_1
I0212 01:20:49.689712  6054 net.cpp:157] Top shape: 1 512 57 57 (1663488)
I0212 01:20:49.689716  6054 net.cpp:165] Memory required for data: 446572800
I0212 01:20:49.689720  6054 layer_factory.hpp:77] Creating layer conv4_2
I0212 01:20:49.689733  6054 net.cpp:100] Creating Layer conv4_2
I0212 01:20:49.689738  6054 net.cpp:434] conv4_2 <- conv4_1
I0212 01:20:49.689745  6054 net.cpp:408] conv4_2 -> conv4_2
I0212 01:20:49.695060  6054 net.cpp:150] Setting up conv4_2
I0212 01:20:49.695078  6054 net.cpp:157] Top shape: 1 512 57 57 (1663488)
I0212 01:20:49.695082  6054 net.cpp:165] Memory required for data: 453226752
I0212 01:20:49.695093  6054 layer_factory.hpp:77] Creating layer relu4_2
I0212 01:20:49.695101  6054 net.cpp:100] Creating Layer relu4_2
I0212 01:20:49.695103  6054 net.cpp:434] relu4_2 <- conv4_2
I0212 01:20:49.695112  6054 net.cpp:395] relu4_2 -> conv4_2 (in-place)
I0212 01:20:49.695472  6054 net.cpp:150] Setting up relu4_2
I0212 01:20:49.695511  6054 net.cpp:157] Top shape: 1 512 57 57 (1663488)
I0212 01:20:49.695516  6054 net.cpp:165] Memory required for data: 459880704
I0212 01:20:49.695520  6054 layer_factory.hpp:77] Creating layer conv4_3
I0212 01:20:49.695530  6054 net.cpp:100] Creating Layer conv4_3
I0212 01:20:49.695535  6054 net.cpp:434] conv4_3 <- conv4_2
I0212 01:20:49.695544  6054 net.cpp:408] conv4_3 -> conv4_3
I0212 01:20:49.700865  6054 net.cpp:150] Setting up conv4_3
I0212 01:20:49.700884  6054 net.cpp:157] Top shape: 1 512 57 57 (1663488)
I0212 01:20:49.700888  6054 net.cpp:165] Memory required for data: 466534656
I0212 01:20:49.700896  6054 layer_factory.hpp:77] Creating layer relu4_3
I0212 01:20:49.700902  6054 net.cpp:100] Creating Layer relu4_3
I0212 01:20:49.700906  6054 net.cpp:434] relu4_3 <- conv4_3
I0212 01:20:49.700913  6054 net.cpp:395] relu4_3 -> conv4_3 (in-place)
I0212 01:20:49.701102  6054 net.cpp:150] Setting up relu4_3
I0212 01:20:49.701113  6054 net.cpp:157] Top shape: 1 512 57 57 (1663488)
I0212 01:20:49.701117  6054 net.cpp:165] Memory required for data: 473188608
I0212 01:20:49.701122  6054 layer_factory.hpp:77] Creating layer pool4
I0212 01:20:49.701130  6054 net.cpp:100] Creating Layer pool4
I0212 01:20:49.701135  6054 net.cpp:434] pool4 <- conv4_3
I0212 01:20:49.701140  6054 net.cpp:408] pool4 -> pool4
I0212 01:20:49.701203  6054 net.cpp:150] Setting up pool4
I0212 01:20:49.701213  6054 net.cpp:157] Top shape: 1 512 29 29 (430592)
I0212 01:20:49.701217  6054 net.cpp:165] Memory required for data: 474910976
I0212 01:20:49.701220  6054 layer_factory.hpp:77] Creating layer pool4_pool4_0_split
I0212 01:20:49.701226  6054 net.cpp:100] Creating Layer pool4_pool4_0_split
I0212 01:20:49.701231  6054 net.cpp:434] pool4_pool4_0_split <- pool4
I0212 01:20:49.701237  6054 net.cpp:408] pool4_pool4_0_split -> pool4_pool4_0_split_0
I0212 01:20:49.701244  6054 net.cpp:408] pool4_pool4_0_split -> pool4_pool4_0_split_1
I0212 01:20:49.701251  6054 net.cpp:408] pool4_pool4_0_split -> pool4_pool4_0_split_2
I0212 01:20:49.701310  6054 net.cpp:150] Setting up pool4_pool4_0_split
I0212 01:20:49.701318  6054 net.cpp:157] Top shape: 1 512 29 29 (430592)
I0212 01:20:49.701323  6054 net.cpp:157] Top shape: 1 512 29 29 (430592)
I0212 01:20:49.701326  6054 net.cpp:157] Top shape: 1 512 29 29 (430592)
I0212 01:20:49.701329  6054 net.cpp:165] Memory required for data: 480078080
I0212 01:20:49.701333  6054 layer_factory.hpp:77] Creating layer conv5_1
I0212 01:20:49.701347  6054 net.cpp:100] Creating Layer conv5_1
I0212 01:20:49.701351  6054 net.cpp:434] conv5_1 <- pool4_pool4_0_split_0
I0212 01:20:49.701359  6054 net.cpp:408] conv5_1 -> conv5_1
I0212 01:20:49.706537  6054 net.cpp:150] Setting up conv5_1
I0212 01:20:49.706555  6054 net.cpp:157] Top shape: 1 512 29 29 (430592)
I0212 01:20:49.706559  6054 net.cpp:165] Memory required for data: 481800448
I0212 01:20:49.706567  6054 layer_factory.hpp:77] Creating layer relu5_1
I0212 01:20:49.706574  6054 net.cpp:100] Creating Layer relu5_1
I0212 01:20:49.706579  6054 net.cpp:434] relu5_1 <- conv5_1
I0212 01:20:49.706584  6054 net.cpp:395] relu5_1 -> conv5_1 (in-place)
I0212 01:20:49.706933  6054 net.cpp:150] Setting up relu5_1
I0212 01:20:49.706949  6054 net.cpp:157] Top shape: 1 512 29 29 (430592)
I0212 01:20:49.706954  6054 net.cpp:165] Memory required for data: 483522816
I0212 01:20:49.706959  6054 layer_factory.hpp:77] Creating layer conv5_2
I0212 01:20:49.706969  6054 net.cpp:100] Creating Layer conv5_2
I0212 01:20:49.706972  6054 net.cpp:434] conv5_2 <- conv5_1
I0212 01:20:49.706980  6054 net.cpp:408] conv5_2 -> conv5_2
I0212 01:20:49.712172  6054 net.cpp:150] Setting up conv5_2
I0212 01:20:49.712190  6054 net.cpp:157] Top shape: 1 512 29 29 (430592)
I0212 01:20:49.712194  6054 net.cpp:165] Memory required for data: 485245184
I0212 01:20:49.712201  6054 layer_factory.hpp:77] Creating layer relu5_2
I0212 01:20:49.712209  6054 net.cpp:100] Creating Layer relu5_2
I0212 01:20:49.712214  6054 net.cpp:434] relu5_2 <- conv5_2
I0212 01:20:49.712219  6054 net.cpp:395] relu5_2 -> conv5_2 (in-place)
I0212 01:20:49.712570  6054 net.cpp:150] Setting up relu5_2
I0212 01:20:49.712599  6054 net.cpp:157] Top shape: 1 512 29 29 (430592)
I0212 01:20:49.712604  6054 net.cpp:165] Memory required for data: 486967552
I0212 01:20:49.712618  6054 layer_factory.hpp:77] Creating layer conv5_3
I0212 01:20:49.712633  6054 net.cpp:100] Creating Layer conv5_3
I0212 01:20:49.712637  6054 net.cpp:434] conv5_3 <- conv5_2
I0212 01:20:49.712646  6054 net.cpp:408] conv5_3 -> conv5_3
I0212 01:20:49.717885  6054 net.cpp:150] Setting up conv5_3
I0212 01:20:49.717902  6054 net.cpp:157] Top shape: 1 512 29 29 (430592)
I0212 01:20:49.717906  6054 net.cpp:165] Memory required for data: 488689920
I0212 01:20:49.717913  6054 layer_factory.hpp:77] Creating layer relu5_3
I0212 01:20:49.717921  6054 net.cpp:100] Creating Layer relu5_3
I0212 01:20:49.717924  6054 net.cpp:434] relu5_3 <- conv5_3
I0212 01:20:49.717932  6054 net.cpp:395] relu5_3 -> conv5_3 (in-place)
I0212 01:20:49.718127  6054 net.cpp:150] Setting up relu5_3
I0212 01:20:49.718150  6054 net.cpp:157] Top shape: 1 512 29 29 (430592)
I0212 01:20:49.718154  6054 net.cpp:165] Memory required for data: 490412288
I0212 01:20:49.718170  6054 layer_factory.hpp:77] Creating layer pool5
I0212 01:20:49.718179  6054 net.cpp:100] Creating Layer pool5
I0212 01:20:49.718183  6054 net.cpp:434] pool5 <- conv5_3
I0212 01:20:49.718190  6054 net.cpp:408] pool5 -> pool5
I0212 01:20:49.718261  6054 net.cpp:150] Setting up pool5
I0212 01:20:49.718271  6054 net.cpp:157] Top shape: 1 512 15 15 (115200)
I0212 01:20:49.718276  6054 net.cpp:165] Memory required for data: 490873088
I0212 01:20:49.718286  6054 layer_factory.hpp:77] Creating layer fc6
I0212 01:20:49.718297  6054 net.cpp:100] Creating Layer fc6
I0212 01:20:49.718300  6054 net.cpp:434] fc6 <- pool5
I0212 01:20:49.718307  6054 net.cpp:408] fc6 -> fc6
I0212 01:20:49.911679  6054 net.cpp:150] Setting up fc6
I0212 01:20:49.911712  6054 net.cpp:157] Top shape: 1 4096 9 9 (331776)
I0212 01:20:49.911716  6054 net.cpp:165] Memory required for data: 492200192
I0212 01:20:49.911725  6054 layer_factory.hpp:77] Creating layer relu6
I0212 01:20:49.911736  6054 net.cpp:100] Creating Layer relu6
I0212 01:20:49.911741  6054 net.cpp:434] relu6 <- fc6
I0212 01:20:49.911748  6054 net.cpp:395] relu6 -> fc6 (in-place)
I0212 01:20:49.912112  6054 net.cpp:150] Setting up relu6
I0212 01:20:49.912127  6054 net.cpp:157] Top shape: 1 4096 9 9 (331776)
I0212 01:20:49.912132  6054 net.cpp:165] Memory required for data: 493527296
I0212 01:20:49.912135  6054 layer_factory.hpp:77] Creating layer drop6
I0212 01:20:49.912147  6054 net.cpp:100] Creating Layer drop6
I0212 01:20:49.912153  6054 net.cpp:434] drop6 <- fc6
I0212 01:20:49.912158  6054 net.cpp:395] drop6 -> fc6 (in-place)
I0212 01:20:49.912195  6054 net.cpp:150] Setting up drop6
I0212 01:20:49.912201  6054 net.cpp:157] Top shape: 1 4096 9 9 (331776)
I0212 01:20:49.912204  6054 net.cpp:165] Memory required for data: 494854400
I0212 01:20:49.912209  6054 layer_factory.hpp:77] Creating layer fc7
I0212 01:20:49.912221  6054 net.cpp:100] Creating Layer fc7
I0212 01:20:49.912225  6054 net.cpp:434] fc7 <- fc6
I0212 01:20:49.912231  6054 net.cpp:408] fc7 -> fc7
I0212 01:20:49.944766  6054 net.cpp:150] Setting up fc7
I0212 01:20:49.944799  6054 net.cpp:157] Top shape: 1 4096 9 9 (331776)
I0212 01:20:49.944803  6054 net.cpp:165] Memory required for data: 496181504
I0212 01:20:49.944813  6054 layer_factory.hpp:77] Creating layer relu7
I0212 01:20:49.944823  6054 net.cpp:100] Creating Layer relu7
I0212 01:20:49.944828  6054 net.cpp:434] relu7 <- fc7
I0212 01:20:49.944833  6054 net.cpp:395] relu7 -> fc7 (in-place)
I0212 01:20:49.945184  6054 net.cpp:150] Setting up relu7
I0212 01:20:49.945200  6054 net.cpp:157] Top shape: 1 4096 9 9 (331776)
I0212 01:20:49.945204  6054 net.cpp:165] Memory required for data: 497508608
I0212 01:20:49.945209  6054 layer_factory.hpp:77] Creating layer drop7
I0212 01:20:49.945216  6054 net.cpp:100] Creating Layer drop7
I0212 01:20:49.945220  6054 net.cpp:434] drop7 <- fc7
I0212 01:20:49.945225  6054 net.cpp:395] drop7 -> fc7 (in-place)
I0212 01:20:49.945264  6054 net.cpp:150] Setting up drop7
I0212 01:20:49.945271  6054 net.cpp:157] Top shape: 1 4096 9 9 (331776)
I0212 01:20:49.945274  6054 net.cpp:165] Memory required for data: 498835712
I0212 01:20:49.945278  6054 layer_factory.hpp:77] Creating layer fc7_drop7_0_split
I0212 01:20:49.945286  6054 net.cpp:100] Creating Layer fc7_drop7_0_split
I0212 01:20:49.945289  6054 net.cpp:434] fc7_drop7_0_split <- fc7
I0212 01:20:49.945294  6054 net.cpp:408] fc7_drop7_0_split -> fc7_drop7_0_split_0
I0212 01:20:49.945307  6054 net.cpp:408] fc7_drop7_0_split -> fc7_drop7_0_split_1
I0212 01:20:49.945351  6054 net.cpp:150] Setting up fc7_drop7_0_split
I0212 01:20:49.945360  6054 net.cpp:157] Top shape: 1 4096 9 9 (331776)
I0212 01:20:49.945365  6054 net.cpp:157] Top shape: 1 4096 9 9 (331776)
I0212 01:20:49.945369  6054 net.cpp:165] Memory required for data: 501489920
I0212 01:20:49.945372  6054 layer_factory.hpp:77] Creating layer score_fr_sem
I0212 01:20:49.945394  6054 net.cpp:100] Creating Layer score_fr_sem
I0212 01:20:49.945399  6054 net.cpp:434] score_fr_sem <- fc7_drop7_0_split_0
I0212 01:20:49.945406  6054 net.cpp:408] score_fr_sem -> score_fr_sem
I0212 01:20:49.947163  6054 net.cpp:150] Setting up score_fr_sem
I0212 01:20:49.947190  6054 net.cpp:157] Top shape: 1 33 9 9 (2673)
I0212 01:20:49.947193  6054 net.cpp:165] Memory required for data: 501500612
I0212 01:20:49.947201  6054 layer_factory.hpp:77] Creating layer upscore2_sem
I0212 01:20:49.947213  6054 net.cpp:100] Creating Layer upscore2_sem
I0212 01:20:49.947217  6054 net.cpp:434] upscore2_sem <- score_fr_sem
I0212 01:20:49.947235  6054 net.cpp:408] upscore2_sem -> upscore2_sem
I0212 01:20:49.947510  6054 net.cpp:150] Setting up upscore2_sem
I0212 01:20:49.947521  6054 net.cpp:157] Top shape: 1 33 20 20 (13200)
I0212 01:20:49.947525  6054 net.cpp:165] Memory required for data: 501553412
I0212 01:20:49.947540  6054 layer_factory.hpp:77] Creating layer upscore2_sem_upscore2_sem_0_split
I0212 01:20:49.947546  6054 net.cpp:100] Creating Layer upscore2_sem_upscore2_sem_0_split
I0212 01:20:49.947551  6054 net.cpp:434] upscore2_sem_upscore2_sem_0_split <- upscore2_sem
I0212 01:20:49.947556  6054 net.cpp:408] upscore2_sem_upscore2_sem_0_split -> upscore2_sem_upscore2_sem_0_split_0
I0212 01:20:49.947563  6054 net.cpp:408] upscore2_sem_upscore2_sem_0_split -> upscore2_sem_upscore2_sem_0_split_1
I0212 01:20:49.947607  6054 net.cpp:150] Setting up upscore2_sem_upscore2_sem_0_split
I0212 01:20:49.947613  6054 net.cpp:157] Top shape: 1 33 20 20 (13200)
I0212 01:20:49.947618  6054 net.cpp:157] Top shape: 1 33 20 20 (13200)
I0212 01:20:49.947621  6054 net.cpp:165] Memory required for data: 501659012
I0212 01:20:49.947624  6054 layer_factory.hpp:77] Creating layer score_pool4_sem
I0212 01:20:49.947633  6054 net.cpp:100] Creating Layer score_pool4_sem
I0212 01:20:49.947638  6054 net.cpp:434] score_pool4_sem <- pool4_pool4_0_split_1
I0212 01:20:49.947645  6054 net.cpp:408] score_pool4_sem -> score_pool4_sem
I0212 01:20:49.948623  6054 net.cpp:150] Setting up score_pool4_sem
I0212 01:20:49.948638  6054 net.cpp:157] Top shape: 1 33 29 29 (27753)
I0212 01:20:49.948642  6054 net.cpp:165] Memory required for data: 501770024
I0212 01:20:49.948648  6054 layer_factory.hpp:77] Creating layer score_pool4_semc
I0212 01:20:49.948657  6054 net.cpp:100] Creating Layer score_pool4_semc
I0212 01:20:49.948662  6054 net.cpp:434] score_pool4_semc <- score_pool4_sem
I0212 01:20:49.948667  6054 net.cpp:434] score_pool4_semc <- upscore2_sem_upscore2_sem_0_split_0
I0212 01:20:49.948671  6054 net.cpp:408] score_pool4_semc -> score_pool4_semc
I0212 01:20:49.948715  6054 net.cpp:150] Setting up score_pool4_semc
I0212 01:20:49.948722  6054 net.cpp:157] Top shape: 1 33 20 20 (13200)
I0212 01:20:49.948725  6054 net.cpp:165] Memory required for data: 501822824
I0212 01:20:49.948729  6054 layer_factory.hpp:77] Creating layer fuse_pool4_sem
I0212 01:20:49.948736  6054 net.cpp:100] Creating Layer fuse_pool4_sem
I0212 01:20:49.948745  6054 net.cpp:434] fuse_pool4_sem <- upscore2_sem_upscore2_sem_0_split_1
I0212 01:20:49.948751  6054 net.cpp:434] fuse_pool4_sem <- score_pool4_semc
I0212 01:20:49.948756  6054 net.cpp:408] fuse_pool4_sem -> fuse_pool4_sem
I0212 01:20:49.948784  6054 net.cpp:150] Setting up fuse_pool4_sem
I0212 01:20:49.948791  6054 net.cpp:157] Top shape: 1 33 20 20 (13200)
I0212 01:20:49.948794  6054 net.cpp:165] Memory required for data: 501875624
I0212 01:20:49.948797  6054 layer_factory.hpp:77] Creating layer upscore_pool4_sem
I0212 01:20:49.948806  6054 net.cpp:100] Creating Layer upscore_pool4_sem
I0212 01:20:49.948810  6054 net.cpp:434] upscore_pool4_sem <- fuse_pool4_sem
I0212 01:20:49.948815  6054 net.cpp:408] upscore_pool4_sem -> upscore_pool4_sem
I0212 01:20:49.949074  6054 net.cpp:150] Setting up upscore_pool4_sem
I0212 01:20:49.949085  6054 net.cpp:157] Top shape: 1 33 42 42 (58212)
I0212 01:20:49.949090  6054 net.cpp:165] Memory required for data: 502108472
I0212 01:20:49.949095  6054 layer_factory.hpp:77] Creating layer upscore_pool4_sem_upscore_pool4_sem_0_split
I0212 01:20:49.949100  6054 net.cpp:100] Creating Layer upscore_pool4_sem_upscore_pool4_sem_0_split
I0212 01:20:49.949105  6054 net.cpp:434] upscore_pool4_sem_upscore_pool4_sem_0_split <- upscore_pool4_sem
I0212 01:20:49.949110  6054 net.cpp:408] upscore_pool4_sem_upscore_pool4_sem_0_split -> upscore_pool4_sem_upscore_pool4_sem_0_split_0
I0212 01:20:49.949118  6054 net.cpp:408] upscore_pool4_sem_upscore_pool4_sem_0_split -> upscore_pool4_sem_upscore_pool4_sem_0_split_1
I0212 01:20:49.949160  6054 net.cpp:150] Setting up upscore_pool4_sem_upscore_pool4_sem_0_split
I0212 01:20:49.949169  6054 net.cpp:157] Top shape: 1 33 42 42 (58212)
I0212 01:20:49.949174  6054 net.cpp:157] Top shape: 1 33 42 42 (58212)
I0212 01:20:49.949177  6054 net.cpp:165] Memory required for data: 502574168
I0212 01:20:49.949182  6054 layer_factory.hpp:77] Creating layer score_pool3_sem
I0212 01:20:49.949190  6054 net.cpp:100] Creating Layer score_pool3_sem
I0212 01:20:49.949195  6054 net.cpp:434] score_pool3_sem <- pool3_pool3_0_split_1
I0212 01:20:49.949203  6054 net.cpp:408] score_pool3_sem -> score_pool3_sem
I0212 01:20:49.950297  6054 net.cpp:150] Setting up score_pool3_sem
I0212 01:20:49.950311  6054 net.cpp:157] Top shape: 1 33 57 57 (107217)
I0212 01:20:49.950315  6054 net.cpp:165] Memory required for data: 503003036
I0212 01:20:49.950322  6054 layer_factory.hpp:77] Creating layer score_pool3_semc
I0212 01:20:49.950331  6054 net.cpp:100] Creating Layer score_pool3_semc
I0212 01:20:49.950335  6054 net.cpp:434] score_pool3_semc <- score_pool3_sem
I0212 01:20:49.950341  6054 net.cpp:434] score_pool3_semc <- upscore_pool4_sem_upscore_pool4_sem_0_split_0
I0212 01:20:49.950346  6054 net.cpp:408] score_pool3_semc -> score_pool3_semc
I0212 01:20:49.950392  6054 net.cpp:150] Setting up score_pool3_semc
I0212 01:20:49.950399  6054 net.cpp:157] Top shape: 1 33 42 42 (58212)
I0212 01:20:49.950402  6054 net.cpp:165] Memory required for data: 503235884
I0212 01:20:49.950405  6054 layer_factory.hpp:77] Creating layer fuse_pool3_sem
I0212 01:20:49.950413  6054 net.cpp:100] Creating Layer fuse_pool3_sem
I0212 01:20:49.950417  6054 net.cpp:434] fuse_pool3_sem <- upscore_pool4_sem_upscore_pool4_sem_0_split_1
I0212 01:20:49.950422  6054 net.cpp:434] fuse_pool3_sem <- score_pool3_semc
I0212 01:20:49.950426  6054 net.cpp:408] fuse_pool3_sem -> fuse_pool3_sem
I0212 01:20:49.950453  6054 net.cpp:150] Setting up fuse_pool3_sem
I0212 01:20:49.950459  6054 net.cpp:157] Top shape: 1 33 42 42 (58212)
I0212 01:20:49.950462  6054 net.cpp:165] Memory required for data: 503468732
I0212 01:20:49.950465  6054 layer_factory.hpp:77] Creating layer upscore8_sem
I0212 01:20:49.950472  6054 net.cpp:100] Creating Layer upscore8_sem
I0212 01:20:49.950476  6054 net.cpp:434] upscore8_sem <- fuse_pool3_sem
I0212 01:20:49.950481  6054 net.cpp:408] upscore8_sem -> upscore8_sem
I0212 01:20:49.951426  6054 net.cpp:150] Setting up upscore8_sem
I0212 01:20:49.951439  6054 net.cpp:157] Top shape: 1 33 344 344 (3905088)
I0212 01:20:49.951443  6054 net.cpp:165] Memory required for data: 519089084
I0212 01:20:49.951448  6054 layer_factory.hpp:77] Creating layer score_sem
I0212 01:20:49.951454  6054 net.cpp:100] Creating Layer score_sem
I0212 01:20:49.951457  6054 net.cpp:434] score_sem <- upscore8_sem
I0212 01:20:49.951462  6054 net.cpp:434] score_sem <- data_data_0_split_1
I0212 01:20:49.951468  6054 net.cpp:408] score_sem -> score_sem
I0212 01:20:49.951508  6054 net.cpp:150] Setting up score_sem
I0212 01:20:49.951514  6054 net.cpp:157] Top shape: 1 33 256 256 (2162688)
I0212 01:20:49.951517  6054 net.cpp:165] Memory required for data: 527739836
I0212 01:20:49.951520  6054 layer_factory.hpp:77] Creating layer loss
I0212 01:20:49.951894  6054 net.cpp:100] Creating Layer loss
I0212 01:20:49.951903  6054 net.cpp:434] loss <- score_sem
I0212 01:20:49.951920  6054 net.cpp:434] loss <- sem
I0212 01:20:49.951926  6054 net.cpp:408] loss -> loss
I0212 01:20:49.951937  6054 layer_factory.hpp:77] Creating layer loss
I0212 01:20:49.956094  6054 net.cpp:150] Setting up loss
I0212 01:20:49.956109  6054 net.cpp:157] Top shape: (1)
I0212 01:20:49.956112  6054 net.cpp:160]     with loss weight 1
I0212 01:20:49.956121  6054 net.cpp:165] Memory required for data: 527739840
I0212 01:20:49.956125  6054 layer_factory.hpp:77] Creating layer score_fr_geo
I0212 01:20:49.956136  6054 net.cpp:100] Creating Layer score_fr_geo
I0212 01:20:49.956141  6054 net.cpp:434] score_fr_geo <- fc7_drop7_0_split_1
I0212 01:20:49.956148  6054 net.cpp:408] score_fr_geo -> score_fr_geo
I0212 01:20:49.957439  6054 net.cpp:150] Setting up score_fr_geo
I0212 01:20:49.957454  6054 net.cpp:157] Top shape: 1 3 9 9 (243)
I0212 01:20:49.957458  6054 net.cpp:165] Memory required for data: 527740812
I0212 01:20:49.957465  6054 layer_factory.hpp:77] Creating layer upscore2_geo
I0212 01:20:49.957473  6054 net.cpp:100] Creating Layer upscore2_geo
I0212 01:20:49.957476  6054 net.cpp:434] upscore2_geo <- score_fr_geo
I0212 01:20:49.957485  6054 net.cpp:408] upscore2_geo -> upscore2_geo
I0212 01:20:49.957749  6054 net.cpp:150] Setting up upscore2_geo
I0212 01:20:49.957762  6054 net.cpp:157] Top shape: 1 3 20 20 (1200)
I0212 01:20:49.957764  6054 net.cpp:165] Memory required for data: 527745612
I0212 01:20:49.957770  6054 layer_factory.hpp:77] Creating layer upscore2_geo_upscore2_geo_0_split
I0212 01:20:49.957777  6054 net.cpp:100] Creating Layer upscore2_geo_upscore2_geo_0_split
I0212 01:20:49.957780  6054 net.cpp:434] upscore2_geo_upscore2_geo_0_split <- upscore2_geo
I0212 01:20:49.957785  6054 net.cpp:408] upscore2_geo_upscore2_geo_0_split -> upscore2_geo_upscore2_geo_0_split_0
I0212 01:20:49.957792  6054 net.cpp:408] upscore2_geo_upscore2_geo_0_split -> upscore2_geo_upscore2_geo_0_split_1
I0212 01:20:49.957836  6054 net.cpp:150] Setting up upscore2_geo_upscore2_geo_0_split
I0212 01:20:49.957844  6054 net.cpp:157] Top shape: 1 3 20 20 (1200)
I0212 01:20:49.957849  6054 net.cpp:157] Top shape: 1 3 20 20 (1200)
I0212 01:20:49.957854  6054 net.cpp:165] Memory required for data: 527755212
I0212 01:20:49.957857  6054 layer_factory.hpp:77] Creating layer score_pool4_geo
I0212 01:20:49.957864  6054 net.cpp:100] Creating Layer score_pool4_geo
I0212 01:20:49.957868  6054 net.cpp:434] score_pool4_geo <- pool4_pool4_0_split_2
I0212 01:20:49.957875  6054 net.cpp:408] score_pool4_geo -> score_pool4_geo
I0212 01:20:49.958916  6054 net.cpp:150] Setting up score_pool4_geo
I0212 01:20:49.958931  6054 net.cpp:157] Top shape: 1 3 29 29 (2523)
I0212 01:20:49.958935  6054 net.cpp:165] Memory required for data: 527765304
I0212 01:20:49.958942  6054 layer_factory.hpp:77] Creating layer score_pool4_geoc
I0212 01:20:49.958948  6054 net.cpp:100] Creating Layer score_pool4_geoc
I0212 01:20:49.958952  6054 net.cpp:434] score_pool4_geoc <- score_pool4_geo
I0212 01:20:49.958958  6054 net.cpp:434] score_pool4_geoc <- upscore2_geo_upscore2_geo_0_split_0
I0212 01:20:49.958963  6054 net.cpp:408] score_pool4_geoc -> score_pool4_geoc
I0212 01:20:49.959007  6054 net.cpp:150] Setting up score_pool4_geoc
I0212 01:20:49.959014  6054 net.cpp:157] Top shape: 1 3 20 20 (1200)
I0212 01:20:49.959017  6054 net.cpp:165] Memory required for data: 527770104
I0212 01:20:49.959022  6054 layer_factory.hpp:77] Creating layer fuse_pool4_geo
I0212 01:20:49.959029  6054 net.cpp:100] Creating Layer fuse_pool4_geo
I0212 01:20:49.959033  6054 net.cpp:434] fuse_pool4_geo <- upscore2_geo_upscore2_geo_0_split_1
I0212 01:20:49.959038  6054 net.cpp:434] fuse_pool4_geo <- score_pool4_geoc
I0212 01:20:49.959043  6054 net.cpp:408] fuse_pool4_geo -> fuse_pool4_geo
I0212 01:20:49.959072  6054 net.cpp:150] Setting up fuse_pool4_geo
I0212 01:20:49.959079  6054 net.cpp:157] Top shape: 1 3 20 20 (1200)
I0212 01:20:49.959082  6054 net.cpp:165] Memory required for data: 527774904
I0212 01:20:49.959085  6054 layer_factory.hpp:77] Creating layer upscore_pool4_geo
I0212 01:20:49.959092  6054 net.cpp:100] Creating Layer upscore_pool4_geo
I0212 01:20:49.959096  6054 net.cpp:434] upscore_pool4_geo <- fuse_pool4_geo
I0212 01:20:49.959102  6054 net.cpp:408] upscore_pool4_geo -> upscore_pool4_geo
I0212 01:20:49.959341  6054 net.cpp:150] Setting up upscore_pool4_geo
I0212 01:20:49.959350  6054 net.cpp:157] Top shape: 1 3 42 42 (5292)
I0212 01:20:49.959354  6054 net.cpp:165] Memory required for data: 527796072
I0212 01:20:49.959359  6054 layer_factory.hpp:77] Creating layer upscore_pool4_geo_upscore_pool4_geo_0_split
I0212 01:20:49.959365  6054 net.cpp:100] Creating Layer upscore_pool4_geo_upscore_pool4_geo_0_split
I0212 01:20:49.959369  6054 net.cpp:434] upscore_pool4_geo_upscore_pool4_geo_0_split <- upscore_pool4_geo
I0212 01:20:49.959377  6054 net.cpp:408] upscore_pool4_geo_upscore_pool4_geo_0_split -> upscore_pool4_geo_upscore_pool4_geo_0_split_0
I0212 01:20:49.959383  6054 net.cpp:408] upscore_pool4_geo_upscore_pool4_geo_0_split -> upscore_pool4_geo_upscore_pool4_geo_0_split_1
I0212 01:20:49.959424  6054 net.cpp:150] Setting up upscore_pool4_geo_upscore_pool4_geo_0_split
I0212 01:20:49.959434  6054 net.cpp:157] Top shape: 1 3 42 42 (5292)
I0212 01:20:49.959437  6054 net.cpp:157] Top shape: 1 3 42 42 (5292)
I0212 01:20:49.959441  6054 net.cpp:165] Memory required for data: 527838408
I0212 01:20:49.959445  6054 layer_factory.hpp:77] Creating layer score_pool3_geo
I0212 01:20:49.959460  6054 net.cpp:100] Creating Layer score_pool3_geo
I0212 01:20:49.959465  6054 net.cpp:434] score_pool3_geo <- pool3_pool3_0_split_2
I0212 01:20:49.959472  6054 net.cpp:408] score_pool3_geo -> score_pool3_geo
I0212 01:20:49.960573  6054 net.cpp:150] Setting up score_pool3_geo
I0212 01:20:49.960588  6054 net.cpp:157] Top shape: 1 3 57 57 (9747)
I0212 01:20:49.960592  6054 net.cpp:165] Memory required for data: 527877396
I0212 01:20:49.960598  6054 layer_factory.hpp:77] Creating layer score_pool3_geoc
I0212 01:20:49.960605  6054 net.cpp:100] Creating Layer score_pool3_geoc
I0212 01:20:49.960609  6054 net.cpp:434] score_pool3_geoc <- score_pool3_geo
I0212 01:20:49.960614  6054 net.cpp:434] score_pool3_geoc <- upscore_pool4_geo_upscore_pool4_geo_0_split_0
I0212 01:20:49.960620  6054 net.cpp:408] score_pool3_geoc -> score_pool3_geoc
I0212 01:20:49.960675  6054 net.cpp:150] Setting up score_pool3_geoc
I0212 01:20:49.960693  6054 net.cpp:157] Top shape: 1 3 42 42 (5292)
I0212 01:20:49.960697  6054 net.cpp:165] Memory required for data: 527898564
I0212 01:20:49.960700  6054 layer_factory.hpp:77] Creating layer fuse_pool3_geo
I0212 01:20:49.960706  6054 net.cpp:100] Creating Layer fuse_pool3_geo
I0212 01:20:49.960711  6054 net.cpp:434] fuse_pool3_geo <- upscore_pool4_geo_upscore_pool4_geo_0_split_1
I0212 01:20:49.960716  6054 net.cpp:434] fuse_pool3_geo <- score_pool3_geoc
I0212 01:20:49.960721  6054 net.cpp:408] fuse_pool3_geo -> fuse_pool3_geo
I0212 01:20:49.960760  6054 net.cpp:150] Setting up fuse_pool3_geo
I0212 01:20:49.960769  6054 net.cpp:157] Top shape: 1 3 42 42 (5292)
I0212 01:20:49.960773  6054 net.cpp:165] Memory required for data: 527919732
I0212 01:20:49.960777  6054 layer_factory.hpp:77] Creating layer upscore8_geo
I0212 01:20:49.960783  6054 net.cpp:100] Creating Layer upscore8_geo
I0212 01:20:49.960788  6054 net.cpp:434] upscore8_geo <- fuse_pool3_geo
I0212 01:20:49.960794  6054 net.cpp:408] upscore8_geo -> upscore8_geo
I0212 01:20:49.961074  6054 net.cpp:150] Setting up upscore8_geo
I0212 01:20:49.961086  6054 net.cpp:157] Top shape: 1 3 344 344 (355008)
I0212 01:20:49.961088  6054 net.cpp:165] Memory required for data: 529339764
I0212 01:20:49.961094  6054 layer_factory.hpp:77] Creating layer score_geo
I0212 01:20:49.961102  6054 net.cpp:100] Creating Layer score_geo
I0212 01:20:49.961105  6054 net.cpp:434] score_geo <- upscore8_geo
I0212 01:20:49.961110  6054 net.cpp:434] score_geo <- data_data_0_split_2
I0212 01:20:49.961117  6054 net.cpp:408] score_geo -> score_geo
I0212 01:20:49.961153  6054 net.cpp:150] Setting up score_geo
I0212 01:20:49.961165  6054 net.cpp:157] Top shape: 1 3 256 256 (196608)
I0212 01:20:49.961169  6054 net.cpp:165] Memory required for data: 530126196
I0212 01:20:49.961174  6054 layer_factory.hpp:77] Creating layer loss_geo
I0212 01:20:49.961179  6054 net.cpp:100] Creating Layer loss_geo
I0212 01:20:49.961184  6054 net.cpp:434] loss_geo <- score_geo
I0212 01:20:49.961189  6054 net.cpp:434] loss_geo <- geo
I0212 01:20:49.961194  6054 net.cpp:408] loss_geo -> loss_geo
…
