…
snapshot_prefix: "log1"
test_initialization: false
average_loss: 20
iter_size: 1
I0210 20:01:59.415263 29817 solver.cpp:81] Creating training net from train_net file: trainval.prototxt
I0210 20:01:59.416940 29817 net.cpp:58] Initializing net from parameters: 
state {
  phase: TRAIN
}
layer {
  name: "data"
  type: "Python"
  top: "data"
  top: "sem"
  top: "geo"
  python_param {
    module: "siftflow_layers_distillation"
    layer: "SIFTFlowSegDataLayer"
    param_str: "{\'siftflow_dir\': \'../data/sift-flow\', \'seed\': 1337, \'split\': \'trainval\'}"
  }
}
layer {
  name: "conv1_1"
  type: "Convolution"
  bottom: "data"
  top: "conv1_1"
  param {
    lr_mult: 1
    decay_mult: 1
  }
  param {
    lr_mult: 2
    decay_mult: 0
  }
  convolution_param {
    num_output: 64
    pad: 100
    kernel_size: 3
    stride: 1
  }
}
layer {
  name: "relu1_1"
  type: "ReLU"
  bottom: "conv1_1"
  top: "conv1_1"
}
layer {
  name: "conv1_2"
  type: "Convolution"
  bottom: "conv1_1"
  top: "conv1_2"
  param {
    lr_mult: 1
    decay_mult: 1
  }
  param {
    lr_mult: 2
    decay_mult: 0
  }
  convolution_param {
    num_output: 64
    pad: 1
    kernel_size: 3
    stride: 1
  }
}
layer {
  name: "relu1_2"
  type: "ReLU"
  bottom: "conv1_2"
  top: "conv1_2"
}
layer {
  name: "pool1"
  type: "Pooling"
  bottom: "conv1_2"
  top: "pool1"
  pooling_param {
    pool: MAX
    kernel_size: 2
    stride: 2
  }
}
layer {
  name: "conv2_1"
  type: "Convolution"
  bottom: "pool1"
  top: "conv2_1"
  param {
    lr_mult: 1
    decay_mult: 1
  }
  param {
    lr_mult: 2
    decay_mult: 0
  }
  convolution_param {
    num_output: 128
    pad: 1
    kernel_size: 3
    stride: 1
  }
}
layer {
  name: "relu2_1"
  type: "ReLU"
  bottom: "conv2_1"
  top: "conv2_1"
}
layer {
  name: "conv2_2"
  type: "Convolution"
  bottom: "conv2_1"
  top: "conv2_2"
  param {
    lr_mult: 1
    decay_mult: 1
  }
  param {
    lr_mult: 2
    decay_mult: 0
  }
  convolution_param {
    num_output: 128
    pad: 1
    kernel_size: 3
    stride: 1
  }
}
layer {
  name: "relu2_2"
  type: "ReLU"
  bottom: "conv2_2"
  top: "conv2_2"
}
layer {
  name: "pool2"
  type: "Pooling"
  bottom: "conv2_2"
  top: "pool2"
  pooling_param {
    pool: MAX
    kernel_size: 2
    stride: 2
  }
}
layer {
  name: "conv3_1"
  type: "Convolution"
  bottom: "pool2"
  top: "conv3_1"
  param {
    lr_mult: 1
    decay_mult: 1
  }
  param {
    lr_mult: 2
    decay_mult: 0
  }
  convolution_param {
    num_output: 256
    pad: 1
    kernel_size: 3
    stride: 1
  }
}
layer {
  name: "relu3_1"
  type: "ReLU"
  bottom: "conv3_1"
  top: "conv3_1"
}
layer {
  name: "conv3_2"
  type: "Convolution"
  bottom: "conv3_1"
  top: "conv3_2"
  param {
    lr_mult: 1
    decay_mult: 1
  }
  param {
    lr_mult: 2
    decay_mult: 0
  }
  convolution_param {
    num_output: 256
    pad: 1
    kernel_size: 3
    stride: 1
  }
}
layer {
  name: "relu3_2"
  type: "ReLU"
  bottom: "conv3_2"
  top: "conv3_2"
}
layer {
  name: "conv3_3"
  type: "Convolution"
  bottom: "conv3_2"
  top: "conv3_3"
  param {
    lr_mult: 1
    decay_mult: 1
  }
  param {
    lr_mult: 2
    decay_mult: 0
  }
  convolution_param {
    num_output: 256
    pad: 1
    kernel_size: 3
    stride: 1
  }
}
layer {
  name: "relu3_3"
  type: "ReLU"
  bottom: "conv3_3"
  top: "conv3_3"
}
layer {
  name: "pool3"
  type: "Pooling"
  bottom: "conv3_3"
  top: "pool3"
  pooling_param {
    pool: MAX
    kernel_size: 2
    stride: 2
  }
}
layer {
  name: "conv4_1"
  type: "Convolution"
  bottom: "pool3"
  top: "conv4_1"
  param {
    lr_mult: 1
    decay_mult: 1
  }
  param {
    lr_mult: 2
    decay_mult: 0
  }
  convolution_param {
    num_output: 512
    pad: 1
    kernel_size: 3
    stride: 1
  }
}
layer {
  name: "relu4_1"
  type: "ReLU"
  bottom: "conv4_1"
  top: "conv4_1"
}
layer {
  name: "conv4_2"
  type: "Convolution"
  bottom: "conv4_1"
  top: "conv4_2"
  param {
    lr_mult: 1
    decay_mult: 1
  }
  param {
    lr_mult: 2
    decay_mult: 0
  }
  convolution_param {
    num_output: 512
    pad: 1
    kernel_size: 3
    stride: 1
  }
}
layer {
  name: "relu4_2"
  type: "ReLU"
  bottom: "conv4_2"
  top: "conv4_2"
}
layer {
  name: "conv4_3"
  type: "Convolution"
  bottom: "conv4_2"
  top: "conv4_3"
  param {
    lr_mult: 1
    decay_mult: 1
  }
  param {
    lr_mult: 2
    decay_mult: 0
  }
  convolution_param {
    num_output: 512
    pad: 1
    kernel_size: 3
    stride: 1
  }
}
layer {
  name: "relu4_3"
  type: "ReLU"
  bottom: "conv4_3"
  top: "conv4_3"
}
layer {
  name: "pool4"
  type: "Pooling"
  bottom: "conv4_3"
  top: "pool4"
  pooling_param {
    pool: MAX
    kernel_size: 2
    stride: 2
  }
}
layer {
  name: "conv5_1"
  type: "Convolution"
  bottom: "pool4"
  top: "conv5_1"
  param {
    lr_mult: 1
    decay_mult: 1
  }
  param {
    lr_mult: 2
    decay_mult: 0
  }
  convolution_param {
    num_output: 512
    pad: 1
    kernel_size: 3
    stride: 1
  }
}
layer {
  name: "relu5_1"
  type: "ReLU"
  bottom: "conv5_1"
  top: "conv5_1"
}
layer {
  name: "conv5_2"
  type: "Convolution"
  bottom: "conv5_1"
  top: "conv5_2"
  param {
    lr_mult: 1
    decay_mult: 1
  }
  param {
    lr_mult: 2
    decay_mult: 0
  }
  convolution_param {
    num_output: 512
    pad: 1
    kernel_size: 3
    stride: 1
  }
}
layer {
  name: "relu5_2"
  type: "ReLU"
  bottom: "conv5_2"
  top: "conv5_2"
}
layer {
  name: "conv5_3"
  type: "Convolution"
  bottom: "conv5_2"
  top: "conv5_3"
  param {
    lr_mult: 1
    decay_mult: 1
  }
  param {
    lr_mult: 2
    decay_mult: 0
  }
  convolution_param {
    num_output: 512
    pad: 1
    kernel_size: 3
    stride: 1
  }
}
layer {
  name: "relu5_3"
  type: "ReLU"
  bottom: "conv5_3"
  top: "conv5_3"
}
layer {
  name: "pool5"
  type: "Pooling"
  bottom: "conv5_3"
  top: "pool5"
  pooling_param {
    pool: MAX
    kernel_size: 2
    stride: 2
  }
}
layer {
  name: "fc6"
  type: "Convolution"
  bottom: "pool5"
  top: "fc6"
  param {
    lr_mult: 1
    decay_mult: 1
  }
  param {
    lr_mult: 2
    decay_mult: 0
  }
  convolution_param {
    num_output: 4096
    pad: 0
    kernel_size: 7
    stride: 1
  }
}
layer {
  name: "relu6"
  type: "ReLU"
  bottom: "fc6"
  top: "fc6"
}
layer {
  name: "drop6"
  type: "Dropout"
  bottom: "fc6"
  top: "fc6"
  dropout_param {
    dropout_ratio: 0.5
  }
}
layer {
  name: "fc7"
  type: "Convolution"
  bottom: "fc6"
  top: "fc7"
  param {
    lr_mult: 1
    decay_mult: 1
  }
  param {
    lr_mult: 2
    decay_mult: 0
  }
  convolution_param {
    num_output: 4096
    pad: 0
    kernel_size: 1
    stride: 1
  }
}
layer {
  name: "relu7"
  type: "ReLU"
  bottom: "fc7"
  top: "fc7"
}
layer {
  name: "drop7"
  type: "Dropout"
  bottom: "fc7"
  top: "fc7"
  dropout_param {
    dropout_ratio: 0.5
  }
}
layer {
  name: "score_fr_sem"
  type: "Convolution"
  bottom: "fc7"
  top: "score_fr_sem"
  param {
    lr_mult: 1
    decay_mult: 1
  }
  param {
    lr_mult: 2
    decay_mult: 0
  }
  convolution_param {
    num_output: 33
    pad: 0
    kernel_size: 1
  }
}
layer {
  name: "upscore2_sem"
  type: "Deconvolution"
  bottom: "score_fr_sem"
  top: "upscore2_sem"
  param {
    lr_mult: 0
  }
  convolution_param {
    num_output: 33
    bias_term: false
    kernel_size: 4
    stride: 2
  }
}
layer {
  name: "score_pool4_sem"
  type: "Convolution"
  bottom: "pool4"
  top: "score_pool4_sem"
  param {
    lr_mult: 1
    decay_mult: 1
  }
  param {
    lr_mult: 2
    decay_mult: 0
  }
  convolution_param {
    num_output: 33
    pad: 0
    kernel_size: 1
  }
}
layer {
  name: "score_pool4_semc"
  type: "Crop"
  bottom: "score_pool4_sem"
  bottom: "upscore2_sem"
  top: "score_pool4_semc"
  crop_param {
    axis: 2
    offset: 5
  }
}
layer {
  name: "fuse_pool4_sem"
  type: "Eltwise"
  bottom: "upscore2_sem"
  bottom: "score_pool4_semc"
  top: "fuse_pool4_sem"
  eltwise_param {
    operation: SUM
  }
}
layer {
  name: "upscore_pool4_sem"
  type: "Deconvolution"
  bottom: "fuse_pool4_sem"
  top: "upscore_pool4_sem"
  param {
    lr_mult: 0
  }
  convolution_param {
    num_output: 33
    bias_term: false
    kernel_size: 4
    stride: 2
  }
}
layer {
  name: "score_pool3_sem"
  type: "Convolution"
  bottom: "pool3"
  top: "score_pool3_sem"
  param {
    lr_mult: 1
    decay_mult: 1
  }
  param {
    lr_mult: 2
    decay_mult: 0
  }
  convolution_param {
    num_output: 33
    pad: 0
    kernel_size: 1
  }
}
layer {
  name: "score_pool3_semc"
  type: "Crop"
  bottom: "score_pool3_sem"
  bottom: "upscore_pool4_sem"
  top: "score_pool3_semc"
  crop_param {
    axis: 2
    offset: 9
  }
}
layer {
  name: "fuse_pool3_sem"
  type: "Eltwise"
  bottom: "upscore_pool4_sem"
  bottom: "score_pool3_semc"
  top: "fuse_pool3_sem"
  eltwise_param {
    operation: SUM
  }
}
layer {
  name: "upscore8_sem"
  type: "Deconvolution"
  bottom: "fuse_pool3_sem"
  top: "upscore8_sem"
  param {
    lr_mult: 0
  }
  convolution_param {
    num_output: 33
    bias_term: false
    kernel_size: 16
    stride: 8
  }
}
layer {
  name: "score_sem"
  type: "Crop"
  bottom: "upscore8_sem"
  bottom: "data"
  top: "score_sem"
  crop_param {
    axis: 2
    offset: 31
  }
}
layer {
  name: "loss"
  type: "EuclideanLoss"
  bottom: "score_sem"
  bottom: "sem"
  top: "loss"
}
layer {
  name: "score_fr_geo"
  type: "Convolution"
  bottom: "fc7"
  top: "score_fr_geo"
  param {
    lr_mult: 1
    decay_mult: 1
  }
  param {
    lr_mult: 2
    decay_mult: 0
  }
  convolution_param {
    num_output: 3
    pad: 0
    kernel_size: 1
  }
}
layer {
  name: "upscore2_geo"
  type: "Deconvolution"
  bottom: "score_fr_geo"
  top: "upscore2_geo"
  param {
    lr_mult: 0
  }
  convolution_param {
    num_output: 3
    bias_term: false
    kernel_size: 4
    stride: 2
  }
}
layer {
  name: "score_pool4_geo"
  type: "Convolution"
  bottom: "pool4"
  top: "score_pool4_geo"
  param {
    lr_mult: 1
    decay_mult: 1
  }
  param {
    lr_mult: 2
    decay_mult: 0
  }
  convolution_param {
    num_output: 3
    pad: 0
    kernel_size: 1
  }
}
layer {
  name: "score_pool4_geoc"
  type: "Crop"
  bottom: "score_pool4_geo"
  bottom: "upscore2_geo"
  top: "score_pool4_geoc"
  crop_param {
    axis: 2
    offset: 5
  }
}
layer {
  name: "fuse_pool4_geo"
  type: "Eltwise"
  bottom: "upscore2_geo"
  bottom: "score_pool4_geoc"
  top: "fuse_pool4_geo"
  eltwise_param {
    operation: SUM
  }
}
layer {
  name: "upscore_pool4_geo"
  type: "Deconvolution"
  bottom: "fuse_pool4_geo"
  top: "upscore_pool4_geo"
  param {
    lr_mult: 0
  }
  convolution_param {
    num_output: 3
    bias_term: false
    kernel_size: 4
    stride: 2
  }
}
layer {
  name: "score_pool3_geo"
  type: "Convolution"
  bottom: "pool3"
  top: "score_pool3_geo"
  param {
    lr_mult: 1
    decay_mult: 1
  }
  param {
    lr_mult: 2
    decay_mult: 0
  }
  convolution_param {
    num_output: 3
    pad: 0
    kernel_size: 1
  }
}
layer {
  name: "score_pool3_geoc"
  type: "Crop"
  bottom: "score_pool3_geo"
  bottom: "upscore_pool4_geo"
  top: "score_pool3_geoc"
  crop_param {
    axis: 2
    offset: 9
  }
}
layer {
  name: "fuse_pool3_geo"
  type: "Eltwise"
  bottom: "upscore_pool4_geo"
  bottom: "score_pool3_geoc"
  top: "fuse_pool3_geo"
  eltwise_param {
    operation: SUM
  }
}
layer {
  name: "upscore8_geo"
  type: "Deconvolution"
  bottom: "fuse_pool3_geo"
  top: "upscore8_geo"
  param {
    lr_mult: 0
  }
  convolution_param {
    num_output: 3
    bias_term: false
    kernel_size: 16
    stride: 8
  }
}
layer {
  name: "score_geo"
  type: "Crop"
  bottom: "upscore8_geo"
  bottom: "data"
  top: "score_geo"
  crop_param {
    axis: 2
    offset: 31
  }
}
layer {
  name: "loss_geo"
  type: "EuclideanLoss"
  bottom: "score_geo"
  bottom: "geo"
  top: "loss_geo"
}
I0210 20:01:59.417278 29817 layer_factory.hpp:77] Creating layer data
I0210 20:01:59.432281 29817 net.cpp:100] Creating Layer data
I0210 20:01:59.432312 29817 net.cpp:408] data -> data
I0210 20:01:59.432330 29817 net.cpp:408] data -> sem
I0210 20:01:59.432337 29817 net.cpp:408] data -> geo
I0210 20:01:59.477634 29817 net.cpp:150] Setting up data
I0210 20:01:59.477675 29817 net.cpp:157] Top shape: 1 3 256 256 (196608)
I0210 20:01:59.477681 29817 net.cpp:157] Top shape: 1 33 256 256 (2162688)
I0210 20:01:59.477686 29817 net.cpp:157] Top shape: 1 3 256 256 (196608)
I0210 20:01:59.477689 29817 net.cpp:165] Memory required for data: 10223616
I0210 20:01:59.477697 29817 layer_factory.hpp:77] Creating layer data_data_0_split
I0210 20:01:59.477721 29817 net.cpp:100] Creating Layer data_data_0_split
I0210 20:01:59.477725 29817 net.cpp:434] data_data_0_split <- data
I0210 20:01:59.477749 29817 net.cpp:408] data_data_0_split -> data_data_0_split_0
I0210 20:01:59.477761 29817 net.cpp:408] data_data_0_split -> data_data_0_split_1
I0210 20:01:59.477768 29817 net.cpp:408] data_data_0_split -> data_data_0_split_2
I0210 20:01:59.477807 29817 net.cpp:150] Setting up data_data_0_split
I0210 20:01:59.477814 29817 net.cpp:157] Top shape: 1 3 256 256 (196608)
I0210 20:01:59.477819 29817 net.cpp:157] Top shape: 1 3 256 256 (196608)
I0210 20:01:59.477823 29817 net.cpp:157] Top shape: 1 3 256 256 (196608)
I0210 20:01:59.477826 29817 net.cpp:165] Memory required for data: 12582912
I0210 20:01:59.477830 29817 layer_factory.hpp:77] Creating layer conv1_1
I0210 20:01:59.477840 29817 net.cpp:100] Creating Layer conv1_1
I0210 20:01:59.477844 29817 net.cpp:434] conv1_1 <- data_data_0_split_0
I0210 20:01:59.477851 29817 net.cpp:408] conv1_1 -> conv1_1
I0210 20:01:59.605013 29817 net.cpp:150] Setting up conv1_1
I0210 20:01:59.605046 29817 net.cpp:157] Top shape: 1 64 454 454 (13191424)
I0210 20:01:59.605051 29817 net.cpp:165] Memory required for data: 65348608
I0210 20:01:59.605072 29817 layer_factory.hpp:77] Creating layer relu1_1
I0210 20:01:59.605096 29817 net.cpp:100] Creating Layer relu1_1
I0210 20:01:59.605101 29817 net.cpp:434] relu1_1 <- conv1_1
I0210 20:01:59.605108 29817 net.cpp:395] relu1_1 -> conv1_1 (in-place)
I0210 20:01:59.605300 29817 net.cpp:150] Setting up relu1_1
I0210 20:01:59.605314 29817 net.cpp:157] Top shape: 1 64 454 454 (13191424)
I0210 20:01:59.605319 29817 net.cpp:165] Memory required for data: 118114304
I0210 20:01:59.605322 29817 layer_factory.hpp:77] Creating layer conv1_2
I0210 20:01:59.605334 29817 net.cpp:100] Creating Layer conv1_2
I0210 20:01:59.605340 29817 net.cpp:434] conv1_2 <- conv1_1
I0210 20:01:59.605345 29817 net.cpp:408] conv1_2 -> conv1_2
I0210 20:01:59.607653 29817 net.cpp:150] Setting up conv1_2
I0210 20:01:59.607683 29817 net.cpp:157] Top shape: 1 64 454 454 (13191424)
I0210 20:01:59.607687 29817 net.cpp:165] Memory required for data: 170880000
I0210 20:01:59.607697 29817 layer_factory.hpp:77] Creating layer relu1_2
I0210 20:01:59.607705 29817 net.cpp:100] Creating Layer relu1_2
I0210 20:01:59.607709 29817 net.cpp:434] relu1_2 <- conv1_2
I0210 20:01:59.607714 29817 net.cpp:395] relu1_2 -> conv1_2 (in-place)
I0210 20:01:59.608047 29817 net.cpp:150] Setting up relu1_2
I0210 20:01:59.608063 29817 net.cpp:157] Top shape: 1 64 454 454 (13191424)
I0210 20:01:59.608067 29817 net.cpp:165] Memory required for data: 223645696
I0210 20:01:59.608072 29817 layer_factory.hpp:77] Creating layer pool1
I0210 20:01:59.608080 29817 net.cpp:100] Creating Layer pool1
I0210 20:01:59.608084 29817 net.cpp:434] pool1 <- conv1_2
I0210 20:01:59.608091 29817 net.cpp:408] pool1 -> pool1
I0210 20:01:59.608145 29817 net.cpp:150] Setting up pool1
I0210 20:01:59.608158 29817 net.cpp:157] Top shape: 1 64 227 227 (3297856)
I0210 20:01:59.608162 29817 net.cpp:165] Memory required for data: 236837120
I0210 20:01:59.608167 29817 layer_factory.hpp:77] Creating layer conv2_1
I0210 20:01:59.608176 29817 net.cpp:100] Creating Layer conv2_1
I0210 20:01:59.608180 29817 net.cpp:434] conv2_1 <- pool1
I0210 20:01:59.608186 29817 net.cpp:408] conv2_1 -> conv2_1
I0210 20:01:59.609796 29817 net.cpp:150] Setting up conv2_1
I0210 20:01:59.609810 29817 net.cpp:157] Top shape: 1 128 227 227 (6595712)
I0210 20:01:59.609814 29817 net.cpp:165] Memory required for data: 263219968
I0210 20:01:59.609827 29817 layer_factory.hpp:77] Creating layer relu2_1
I0210 20:01:59.609834 29817 net.cpp:100] Creating Layer relu2_1
I0210 20:01:59.609838 29817 net.cpp:434] relu2_1 <- conv2_1
I0210 20:01:59.609845 29817 net.cpp:395] relu2_1 -> conv2_1 (in-place)
I0210 20:01:59.610028 29817 net.cpp:150] Setting up relu2_1
I0210 20:01:59.610040 29817 net.cpp:157] Top shape: 1 128 227 227 (6595712)
I0210 20:01:59.610044 29817 net.cpp:165] Memory required for data: 289602816
I0210 20:01:59.610049 29817 layer_factory.hpp:77] Creating layer conv2_2
I0210 20:01:59.610059 29817 net.cpp:100] Creating Layer conv2_2
I0210 20:01:59.610062 29817 net.cpp:434] conv2_2 <- conv2_1
I0210 20:01:59.610069 29817 net.cpp:408] conv2_2 -> conv2_2
I0210 20:01:59.611147 29817 net.cpp:150] Setting up conv2_2
I0210 20:01:59.611161 29817 net.cpp:157] Top shape: 1 128 227 227 (6595712)
I0210 20:01:59.611166 29817 net.cpp:165] Memory required for data: 315985664
I0210 20:01:59.611172 29817 layer_factory.hpp:77] Creating layer relu2_2
I0210 20:01:59.611179 29817 net.cpp:100] Creating Layer relu2_2
I0210 20:01:59.611183 29817 net.cpp:434] relu2_2 <- conv2_2
I0210 20:01:59.611189 29817 net.cpp:395] relu2_2 -> conv2_2 (in-place)
I0210 20:01:59.611368 29817 net.cpp:150] Setting up relu2_2
I0210 20:01:59.611382 29817 net.cpp:157] Top shape: 1 128 227 227 (6595712)
I0210 20:01:59.611385 29817 net.cpp:165] Memory required for data: 342368512
I0210 20:01:59.611388 29817 layer_factory.hpp:77] Creating layer pool2
I0210 20:01:59.611395 29817 net.cpp:100] Creating Layer pool2
I0210 20:01:59.611399 29817 net.cpp:434] pool2 <- conv2_2
I0210 20:01:59.611407 29817 net.cpp:408] pool2 -> pool2
I0210 20:01:59.611445 29817 net.cpp:150] Setting up pool2
I0210 20:01:59.611465 29817 net.cpp:157] Top shape: 1 128 114 114 (1663488)
I0210 20:01:59.611469 29817 net.cpp:165] Memory required for data: 349022464
I0210 20:01:59.611474 29817 layer_factory.hpp:77] Creating layer conv3_1
I0210 20:01:59.611484 29817 net.cpp:100] Creating Layer conv3_1
I0210 20:01:59.611487 29817 net.cpp:434] conv3_1 <- pool2
I0210 20:01:59.611493 29817 net.cpp:408] conv3_1 -> conv3_1
I0210 20:01:59.613903 29817 net.cpp:150] Setting up conv3_1
I0210 20:01:59.613919 29817 net.cpp:157] Top shape: 1 256 114 114 (3326976)
I0210 20:01:59.613922 29817 net.cpp:165] Memory required for data: 362330368
I0210 20:01:59.613932 29817 layer_factory.hpp:77] Creating layer relu3_1
I0210 20:01:59.613940 29817 net.cpp:100] Creating Layer relu3_1
I0210 20:01:59.613943 29817 net.cpp:434] relu3_1 <- conv3_1
I0210 20:01:59.613948 29817 net.cpp:395] relu3_1 -> conv3_1 (in-place)
I0210 20:01:59.614270 29817 net.cpp:150] Setting up relu3_1
I0210 20:01:59.614285 29817 net.cpp:157] Top shape: 1 256 114 114 (3326976)
I0210 20:01:59.614290 29817 net.cpp:165] Memory required for data: 375638272
I0210 20:01:59.614295 29817 layer_factory.hpp:77] Creating layer conv3_2
I0210 20:01:59.614307 29817 net.cpp:100] Creating Layer conv3_2
I0210 20:01:59.614311 29817 net.cpp:434] conv3_2 <- conv3_1
I0210 20:01:59.614318 29817 net.cpp:408] conv3_2 -> conv3_2
I0210 20:01:59.616909 29817 net.cpp:150] Setting up conv3_2
I0210 20:01:59.616935 29817 net.cpp:157] Top shape: 1 256 114 114 (3326976)
I0210 20:01:59.616940 29817 net.cpp:165] Memory required for data: 388946176
I0210 20:01:59.616948 29817 layer_factory.hpp:77] Creating layer relu3_2
I0210 20:01:59.616955 29817 net.cpp:100] Creating Layer relu3_2
I0210 20:01:59.616960 29817 net.cpp:434] relu3_2 <- conv3_2
I0210 20:01:59.616966 29817 net.cpp:395] relu3_2 -> conv3_2 (in-place)
I0210 20:01:59.617182 29817 net.cpp:150] Setting up relu3_2
I0210 20:01:59.617194 29817 net.cpp:157] Top shape: 1 256 114 114 (3326976)
I0210 20:01:59.617199 29817 net.cpp:165] Memory required for data: 402254080
I0210 20:01:59.617204 29817 layer_factory.hpp:77] Creating layer conv3_3
I0210 20:01:59.617215 29817 net.cpp:100] Creating Layer conv3_3
I0210 20:01:59.617219 29817 net.cpp:434] conv3_3 <- conv3_2
I0210 20:01:59.617238 29817 net.cpp:408] conv3_3 -> conv3_3
I0210 20:01:59.619767 29817 net.cpp:150] Setting up conv3_3
I0210 20:01:59.619783 29817 net.cpp:157] Top shape: 1 256 114 114 (3326976)
I0210 20:01:59.619787 29817 net.cpp:165] Memory required for data: 415561984
I0210 20:01:59.619817 29817 layer_factory.hpp:77] Creating layer relu3_3
I0210 20:01:59.619823 29817 net.cpp:100] Creating Layer relu3_3
I0210 20:01:59.619827 29817 net.cpp:434] relu3_3 <- conv3_3
I0210 20:01:59.619835 29817 net.cpp:395] relu3_3 -> conv3_3 (in-place)
I0210 20:01:59.620018 29817 net.cpp:150] Setting up relu3_3
I0210 20:01:59.620030 29817 net.cpp:157] Top shape: 1 256 114 114 (3326976)
I0210 20:01:59.620034 29817 net.cpp:165] Memory required for data: 428869888
I0210 20:01:59.620039 29817 layer_factory.hpp:77] Creating layer pool3
I0210 20:01:59.620045 29817 net.cpp:100] Creating Layer pool3
I0210 20:01:59.620049 29817 net.cpp:434] pool3 <- conv3_3
I0210 20:01:59.620055 29817 net.cpp:408] pool3 -> pool3
I0210 20:01:59.620097 29817 net.cpp:150] Setting up pool3
I0210 20:01:59.620121 29817 net.cpp:157] Top shape: 1 256 57 57 (831744)
I0210 20:01:59.620126 29817 net.cpp:165] Memory required for data: 432196864
I0210 20:01:59.620129 29817 layer_factory.hpp:77] Creating layer pool3_pool3_0_split
I0210 20:01:59.620147 29817 net.cpp:100] Creating Layer pool3_pool3_0_split
I0210 20:01:59.620151 29817 net.cpp:434] pool3_pool3_0_split <- pool3
I0210 20:01:59.620157 29817 net.cpp:408] pool3_pool3_0_split -> pool3_pool3_0_split_0
I0210 20:01:59.620167 29817 net.cpp:408] pool3_pool3_0_split -> pool3_pool3_0_split_1
I0210 20:01:59.620174 29817 net.cpp:408] pool3_pool3_0_split -> pool3_pool3_0_split_2
I0210 20:01:59.620218 29817 net.cpp:150] Setting up pool3_pool3_0_split
I0210 20:01:59.620227 29817 net.cpp:157] Top shape: 1 256 57 57 (831744)
I0210 20:01:59.620232 29817 net.cpp:157] Top shape: 1 256 57 57 (831744)
I0210 20:01:59.620237 29817 net.cpp:157] Top shape: 1 256 57 57 (831744)
I0210 20:01:59.620240 29817 net.cpp:165] Memory required for data: 442177792
I0210 20:01:59.620244 29817 layer_factory.hpp:77] Creating layer conv4_1
I0210 20:01:59.620254 29817 net.cpp:100] Creating Layer conv4_1
I0210 20:01:59.620257 29817 net.cpp:434] conv4_1 <- pool3_pool3_0_split_0
I0210 20:01:59.620265 29817 net.cpp:408] conv4_1 -> conv4_1
I0210 20:01:59.624611 29817 net.cpp:150] Setting up conv4_1
I0210 20:01:59.624629 29817 net.cpp:157] Top shape: 1 512 57 57 (1663488)
I0210 20:01:59.624634 29817 net.cpp:165] Memory required for data: 448831744
I0210 20:01:59.624641 29817 layer_factory.hpp:77] Creating layer relu4_1
I0210 20:01:59.624660 29817 net.cpp:100] Creating Layer relu4_1
I0210 20:01:59.624676 29817 net.cpp:434] relu4_1 <- conv4_1
I0210 20:01:59.624682 29817 net.cpp:395] relu4_1 -> conv4_1 (in-place)
I0210 20:01:59.625067 29817 net.cpp:150] Setting up relu4_1
I0210 20:01:59.625094 29817 net.cpp:157] Top shape: 1 512 57 57 (1663488)
I0210 20:01:59.625099 29817 net.cpp:165] Memory required for data: 455485696
I0210 20:01:59.625103 29817 layer_factory.hpp:77] Creating layer conv4_2
I0210 20:01:59.625114 29817 net.cpp:100] Creating Layer conv4_2
I0210 20:01:59.625119 29817 net.cpp:434] conv4_2 <- conv4_1
I0210 20:01:59.625126 29817 net.cpp:408] conv4_2 -> conv4_2
I0210 20:01:59.632223 29817 net.cpp:150] Setting up conv4_2
I0210 20:01:59.632269 29817 net.cpp:157] Top shape: 1 512 57 57 (1663488)
I0210 20:01:59.632275 29817 net.cpp:165] Memory required for data: 462139648
I0210 20:01:59.632289 29817 layer_factory.hpp:77] Creating layer relu4_2
I0210 20:01:59.632299 29817 net.cpp:100] Creating Layer relu4_2
I0210 20:01:59.632304 29817 net.cpp:434] relu4_2 <- conv4_2
I0210 20:01:59.632314 29817 net.cpp:395] relu4_2 -> conv4_2 (in-place)
I0210 20:01:59.632506 29817 net.cpp:150] Setting up relu4_2
I0210 20:01:59.632520 29817 net.cpp:157] Top shape: 1 512 57 57 (1663488)
I0210 20:01:59.632524 29817 net.cpp:165] Memory required for data: 468793600
I0210 20:01:59.632529 29817 layer_factory.hpp:77] Creating layer conv4_3
I0210 20:01:59.632539 29817 net.cpp:100] Creating Layer conv4_3
I0210 20:01:59.632544 29817 net.cpp:434] conv4_3 <- conv4_2
I0210 20:01:59.632551 29817 net.cpp:408] conv4_3 -> conv4_3
I0210 20:01:59.638365 29817 net.cpp:150] Setting up conv4_3
I0210 20:01:59.638396 29817 net.cpp:157] Top shape: 1 512 57 57 (1663488)
I0210 20:01:59.638401 29817 net.cpp:165] Memory required for data: 475447552
I0210 20:01:59.638409 29817 layer_factory.hpp:77] Creating layer relu4_3
I0210 20:01:59.638419 29817 net.cpp:100] Creating Layer relu4_3
I0210 20:01:59.638424 29817 net.cpp:434] relu4_3 <- conv4_3
I0210 20:01:59.638429 29817 net.cpp:395] relu4_3 -> conv4_3 (in-place)
I0210 20:01:59.638633 29817 net.cpp:150] Setting up relu4_3
I0210 20:01:59.638645 29817 net.cpp:157] Top shape: 1 512 57 57 (1663488)
I0210 20:01:59.638649 29817 net.cpp:165] Memory required for data: 482101504
I0210 20:01:59.638653 29817 layer_factory.hpp:77] Creating layer pool4
I0210 20:01:59.638661 29817 net.cpp:100] Creating Layer pool4
I0210 20:01:59.638665 29817 net.cpp:434] pool4 <- conv4_3
I0210 20:01:59.638674 29817 net.cpp:408] pool4 -> pool4
I0210 20:01:59.638716 29817 net.cpp:150] Setting up pool4
I0210 20:01:59.638737 29817 net.cpp:157] Top shape: 1 512 29 29 (430592)
I0210 20:01:59.638741 29817 net.cpp:165] Memory required for data: 483823872
I0210 20:01:59.638746 29817 layer_factory.hpp:77] Creating layer pool4_pool4_0_split
I0210 20:01:59.638754 29817 net.cpp:100] Creating Layer pool4_pool4_0_split
I0210 20:01:59.638758 29817 net.cpp:434] pool4_pool4_0_split <- pool4
I0210 20:01:59.638774 29817 net.cpp:408] pool4_pool4_0_split -> pool4_pool4_0_split_0
I0210 20:01:59.638782 29817 net.cpp:408] pool4_pool4_0_split -> pool4_pool4_0_split_1
I0210 20:01:59.638789 29817 net.cpp:408] pool4_pool4_0_split -> pool4_pool4_0_split_2
I0210 20:01:59.638837 29817 net.cpp:150] Setting up pool4_pool4_0_split
I0210 20:01:59.638846 29817 net.cpp:157] Top shape: 1 512 29 29 (430592)
I0210 20:01:59.638851 29817 net.cpp:157] Top shape: 1 512 29 29 (430592)
I0210 20:01:59.638856 29817 net.cpp:157] Top shape: 1 512 29 29 (430592)
I0210 20:01:59.638859 29817 net.cpp:165] Memory required for data: 488990976
I0210 20:01:59.638864 29817 layer_factory.hpp:77] Creating layer conv5_1
I0210 20:01:59.638875 29817 net.cpp:100] Creating Layer conv5_1
I0210 20:01:59.638878 29817 net.cpp:434] conv5_1 <- pool4_pool4_0_split_0
I0210 20:01:59.638886 29817 net.cpp:408] conv5_1 -> conv5_1
I0210 20:01:59.644946 29817 net.cpp:150] Setting up conv5_1
I0210 20:01:59.644980 29817 net.cpp:157] Top shape: 1 512 29 29 (430592)
I0210 20:01:59.644985 29817 net.cpp:165] Memory required for data: 490713344
I0210 20:01:59.644994 29817 layer_factory.hpp:77] Creating layer relu5_1
I0210 20:01:59.645002 29817 net.cpp:100] Creating Layer relu5_1
I0210 20:01:59.645007 29817 net.cpp:434] relu5_1 <- conv5_1
I0210 20:01:59.645015 29817 net.cpp:395] relu5_1 -> conv5_1 (in-place)
I0210 20:01:59.645393 29817 net.cpp:150] Setting up relu5_1
I0210 20:01:59.645421 29817 net.cpp:157] Top shape: 1 512 29 29 (430592)
I0210 20:01:59.645426 29817 net.cpp:165] Memory required for data: 492435712
I0210 20:01:59.645429 29817 layer_factory.hpp:77] Creating layer conv5_2
I0210 20:01:59.645442 29817 net.cpp:100] Creating Layer conv5_2
I0210 20:01:59.645447 29817 net.cpp:434] conv5_2 <- conv5_1
I0210 20:01:59.645455 29817 net.cpp:408] conv5_2 -> conv5_2
I0210 20:01:59.651482 29817 net.cpp:150] Setting up conv5_2
I0210 20:01:59.651513 29817 net.cpp:157] Top shape: 1 512 29 29 (430592)
I0210 20:01:59.651517 29817 net.cpp:165] Memory required for data: 494158080
I0210 20:01:59.651526 29817 layer_factory.hpp:77] Creating layer relu5_2
I0210 20:01:59.651535 29817 net.cpp:100] Creating Layer relu5_2
I0210 20:01:59.651540 29817 net.cpp:434] relu5_2 <- conv5_2
I0210 20:01:59.651546 29817 net.cpp:395] relu5_2 -> conv5_2 (in-place)
I0210 20:01:59.651726 29817 net.cpp:150] Setting up relu5_2
I0210 20:01:59.651737 29817 net.cpp:157] Top shape: 1 512 29 29 (430592)
I0210 20:01:59.651741 29817 net.cpp:165] Memory required for data: 495880448
I0210 20:01:59.651746 29817 layer_factory.hpp:77] Creating layer conv5_3
I0210 20:01:59.651762 29817 net.cpp:100] Creating Layer conv5_3
I0210 20:01:59.651767 29817 net.cpp:434] conv5_3 <- conv5_2
I0210 20:01:59.651774 29817 net.cpp:408] conv5_3 -> conv5_3
I0210 20:01:59.657999 29817 net.cpp:150] Setting up conv5_3
I0210 20:01:59.658028 29817 net.cpp:157] Top shape: 1 512 29 29 (430592)
I0210 20:01:59.658032 29817 net.cpp:165] Memory required for data: 497602816
I0210 20:01:59.658051 29817 layer_factory.hpp:77] Creating layer relu5_3
I0210 20:01:59.658061 29817 net.cpp:100] Creating Layer relu5_3
I0210 20:01:59.658066 29817 net.cpp:434] relu5_3 <- conv5_3
I0210 20:01:59.658071 29817 net.cpp:395] relu5_3 -> conv5_3 (in-place)
I0210 20:01:59.658424 29817 net.cpp:150] Setting up relu5_3
I0210 20:01:59.658463 29817 net.cpp:157] Top shape: 1 512 29 29 (430592)
I0210 20:01:59.658478 29817 net.cpp:165] Memory required for data: 499325184
I0210 20:01:59.658483 29817 layer_factory.hpp:77] Creating layer pool5
I0210 20:01:59.658490 29817 net.cpp:100] Creating Layer pool5
I0210 20:01:59.658495 29817 net.cpp:434] pool5 <- conv5_3
I0210 20:01:59.658504 29817 net.cpp:408] pool5 -> pool5
I0210 20:01:59.658551 29817 net.cpp:150] Setting up pool5
I0210 20:01:59.658561 29817 net.cpp:157] Top shape: 1 512 15 15 (115200)
I0210 20:01:59.658565 29817 net.cpp:165] Memory required for data: 499785984
I0210 20:01:59.658570 29817 layer_factory.hpp:77] Creating layer fc6
I0210 20:01:59.658578 29817 net.cpp:100] Creating Layer fc6
I0210 20:01:59.658582 29817 net.cpp:434] fc6 <- pool5
I0210 20:01:59.658591 29817 net.cpp:408] fc6 -> fc6
I0210 20:01:59.895347 29817 net.cpp:150] Setting up fc6
I0210 20:01:59.895393 29817 net.cpp:157] Top shape: 1 4096 9 9 (331776)
I0210 20:01:59.895398 29817 net.cpp:165] Memory required for data: 501113088
I0210 20:01:59.895409 29817 layer_factory.hpp:77] Creating layer relu6
I0210 20:01:59.895419 29817 net.cpp:100] Creating Layer relu6
I0210 20:01:59.895437 29817 net.cpp:434] relu6 <- fc6
I0210 20:01:59.895443 29817 net.cpp:395] relu6 -> fc6 (in-place)
I0210 20:01:59.895788 29817 net.cpp:150] Setting up relu6
I0210 20:01:59.895814 29817 net.cpp:157] Top shape: 1 4096 9 9 (331776)
I0210 20:01:59.895819 29817 net.cpp:165] Memory required for data: 502440192
I0210 20:01:59.895823 29817 layer_factory.hpp:77] Creating layer drop6
I0210 20:01:59.895835 29817 net.cpp:100] Creating Layer drop6
I0210 20:01:59.895839 29817 net.cpp:434] drop6 <- fc6
I0210 20:01:59.895845 29817 net.cpp:395] drop6 -> fc6 (in-place)
I0210 20:01:59.895881 29817 net.cpp:150] Setting up drop6
I0210 20:01:59.895890 29817 net.cpp:157] Top shape: 1 4096 9 9 (331776)
I0210 20:01:59.895906 29817 net.cpp:165] Memory required for data: 503767296
I0210 20:01:59.895910 29817 layer_factory.hpp:77] Creating layer fc7
I0210 20:01:59.895923 29817 net.cpp:100] Creating Layer fc7
I0210 20:01:59.895931 29817 net.cpp:434] fc7 <- fc6
I0210 20:01:59.895938 29817 net.cpp:408] fc7 -> fc7
I0210 20:01:59.935727 29817 net.cpp:150] Setting up fc7
I0210 20:01:59.935770 29817 net.cpp:157] Top shape: 1 4096 9 9 (331776)
I0210 20:01:59.935775 29817 net.cpp:165] Memory required for data: 505094400
I0210 20:01:59.935787 29817 layer_factory.hpp:77] Creating layer relu7
I0210 20:01:59.935797 29817 net.cpp:100] Creating Layer relu7
I0210 20:01:59.935814 29817 net.cpp:434] relu7 <- fc7
I0210 20:01:59.935822 29817 net.cpp:395] relu7 -> fc7 (in-place)
I0210 20:01:59.936012 29817 net.cpp:150] Setting up relu7
I0210 20:01:59.936025 29817 net.cpp:157] Top shape: 1 4096 9 9 (331776)
I0210 20:01:59.936029 29817 net.cpp:165] Memory required for data: 506421504
I0210 20:01:59.936033 29817 layer_factory.hpp:77] Creating layer drop7
I0210 20:01:59.936040 29817 net.cpp:100] Creating Layer drop7
I0210 20:01:59.936044 29817 net.cpp:434] drop7 <- fc7
I0210 20:01:59.936053 29817 net.cpp:395] drop7 -> fc7 (in-place)
I0210 20:01:59.936086 29817 net.cpp:150] Setting up drop7
I0210 20:01:59.936095 29817 net.cpp:157] Top shape: 1 4096 9 9 (331776)
I0210 20:01:59.936100 29817 net.cpp:165] Memory required for data: 507748608
I0210 20:01:59.936102 29817 layer_factory.hpp:77] Creating layer fc7_drop7_0_split
I0210 20:01:59.936110 29817 net.cpp:100] Creating Layer fc7_drop7_0_split
I0210 20:01:59.936112 29817 net.cpp:434] fc7_drop7_0_split <- fc7
I0210 20:01:59.936118 29817 net.cpp:408] fc7_drop7_0_split -> fc7_drop7_0_split_0
I0210 20:01:59.936142 29817 net.cpp:408] fc7_drop7_0_split -> fc7_drop7_0_split_1
I0210 20:01:59.936183 29817 net.cpp:150] Setting up fc7_drop7_0_split
I0210 20:01:59.936193 29817 net.cpp:157] Top shape: 1 4096 9 9 (331776)
I0210 20:01:59.936198 29817 net.cpp:157] Top shape: 1 4096 9 9 (331776)
I0210 20:01:59.936203 29817 net.cpp:165] Memory required for data: 510402816
I0210 20:01:59.936206 29817 layer_factory.hpp:77] Creating layer score_fr_sem
I0210 20:01:59.936216 29817 net.cpp:100] Creating Layer score_fr_sem
I0210 20:01:59.936224 29817 net.cpp:434] score_fr_sem <- fc7_drop7_0_split_0
I0210 20:01:59.936231 29817 net.cpp:408] score_fr_sem -> score_fr_sem
I0210 20:01:59.937964 29817 net.cpp:150] Setting up score_fr_sem
I0210 20:01:59.937993 29817 net.cpp:157] Top shape: 1 33 9 9 (2673)
I0210 20:01:59.937997 29817 net.cpp:165] Memory required for data: 510413508
I0210 20:01:59.938005 29817 layer_factory.hpp:77] Creating layer upscore2_sem
I0210 20:01:59.938019 29817 net.cpp:100] Creating Layer upscore2_sem
I0210 20:01:59.938024 29817 net.cpp:434] upscore2_sem <- score_fr_sem
I0210 20:01:59.938031 29817 net.cpp:408] upscore2_sem -> upscore2_sem
I0210 20:01:59.938323 29817 net.cpp:150] Setting up upscore2_sem
I0210 20:01:59.938335 29817 net.cpp:157] Top shape: 1 33 20 20 (13200)
I0210 20:01:59.938339 29817 net.cpp:165] Memory required for data: 510466308
I0210 20:01:59.938352 29817 layer_factory.hpp:77] Creating layer upscore2_sem_upscore2_sem_0_split
I0210 20:01:59.938361 29817 net.cpp:100] Creating Layer upscore2_sem_upscore2_sem_0_split
I0210 20:01:59.938366 29817 net.cpp:434] upscore2_sem_upscore2_sem_0_split <- upscore2_sem
I0210 20:01:59.938372 29817 net.cpp:408] upscore2_sem_upscore2_sem_0_split -> upscore2_sem_upscore2_sem_0_split_0
I0210 20:01:59.938380 29817 net.cpp:408] upscore2_sem_upscore2_sem_0_split -> upscore2_sem_upscore2_sem_0_split_1
I0210 20:01:59.938418 29817 net.cpp:150] Setting up upscore2_sem_upscore2_sem_0_split
I0210 20:01:59.938439 29817 net.cpp:157] Top shape: 1 33 20 20 (13200)
I0210 20:01:59.938447 29817 net.cpp:157] Top shape: 1 33 20 20 (13200)
I0210 20:01:59.938452 29817 net.cpp:165] Memory required for data: 510571908
I0210 20:01:59.938455 29817 layer_factory.hpp:77] Creating layer score_pool4_sem
I0210 20:01:59.938465 29817 net.cpp:100] Creating Layer score_pool4_sem
I0210 20:01:59.938469 29817 net.cpp:434] score_pool4_sem <- pool4_pool4_0_split_1
I0210 20:01:59.938477 29817 net.cpp:408] score_pool4_sem -> score_pool4_sem
I0210 20:01:59.939575 29817 net.cpp:150] Setting up score_pool4_sem
I0210 20:01:59.939601 29817 net.cpp:157] Top shape: 1 33 29 29 (27753)
I0210 20:01:59.939605 29817 net.cpp:165] Memory required for data: 510682920
I0210 20:01:59.939612 29817 layer_factory.hpp:77] Creating layer score_pool4_semc
I0210 20:01:59.939622 29817 net.cpp:100] Creating Layer score_pool4_semc
I0210 20:01:59.939638 29817 net.cpp:434] score_pool4_semc <- score_pool4_sem
I0210 20:01:59.939646 29817 net.cpp:434] score_pool4_semc <- upscore2_sem_upscore2_sem_0_split_0
I0210 20:01:59.939651 29817 net.cpp:408] score_pool4_semc -> score_pool4_semc
I0210 20:01:59.939684 29817 net.cpp:150] Setting up score_pool4_semc
I0210 20:01:59.939693 29817 net.cpp:157] Top shape: 1 33 20 20 (13200)
I0210 20:01:59.939697 29817 net.cpp:165] Memory required for data: 510735720
I0210 20:01:59.939700 29817 layer_factory.hpp:77] Creating layer fuse_pool4_sem
I0210 20:01:59.939708 29817 net.cpp:100] Creating Layer fuse_pool4_sem
I0210 20:01:59.939713 29817 net.cpp:434] fuse_pool4_sem <- upscore2_sem_upscore2_sem_0_split_1
I0210 20:01:59.939718 29817 net.cpp:434] fuse_pool4_sem <- score_pool4_semc
I0210 20:01:59.939723 29817 net.cpp:408] fuse_pool4_sem -> fuse_pool4_sem
I0210 20:01:59.939751 29817 net.cpp:150] Setting up fuse_pool4_sem
I0210 20:01:59.939761 29817 net.cpp:157] Top shape: 1 33 20 20 (13200)
I0210 20:01:59.939764 29817 net.cpp:165] Memory required for data: 510788520
I0210 20:01:59.939769 29817 layer_factory.hpp:77] Creating layer upscore_pool4_sem
I0210 20:01:59.939774 29817 net.cpp:100] Creating Layer upscore_pool4_sem
I0210 20:01:59.939779 29817 net.cpp:434] upscore_pool4_sem <- fuse_pool4_sem
I0210 20:01:59.939786 29817 net.cpp:408] upscore_pool4_sem -> upscore_pool4_sem
I0210 20:01:59.940001 29817 net.cpp:150] Setting up upscore_pool4_sem
I0210 20:01:59.940012 29817 net.cpp:157] Top shape: 1 33 42 42 (58212)
I0210 20:01:59.940016 29817 net.cpp:165] Memory required for data: 511021368
I0210 20:01:59.940021 29817 layer_factory.hpp:77] Creating layer upscore_pool4_sem_upscore_pool4_sem_0_split
I0210 20:01:59.940029 29817 net.cpp:100] Creating Layer upscore_pool4_sem_upscore_pool4_sem_0_split
I0210 20:01:59.940033 29817 net.cpp:434] upscore_pool4_sem_upscore_pool4_sem_0_split <- upscore_pool4_sem
I0210 20:01:59.940039 29817 net.cpp:408] upscore_pool4_sem_upscore_pool4_sem_0_split -> upscore_pool4_sem_upscore_pool4_sem_0_split_0
I0210 20:01:59.940047 29817 net.cpp:408] upscore_pool4_sem_upscore_pool4_sem_0_split -> upscore_pool4_sem_upscore_pool4_sem_0_split_1
I0210 20:01:59.940081 29817 net.cpp:150] Setting up upscore_pool4_sem_upscore_pool4_sem_0_split
I0210 20:01:59.940090 29817 net.cpp:157] Top shape: 1 33 42 42 (58212)
I0210 20:01:59.940094 29817 net.cpp:157] Top shape: 1 33 42 42 (58212)
I0210 20:01:59.940099 29817 net.cpp:165] Memory required for data: 511487064
I0210 20:01:59.940102 29817 layer_factory.hpp:77] Creating layer score_pool3_sem
I0210 20:01:59.940109 29817 net.cpp:100] Creating Layer score_pool3_sem
I0210 20:01:59.940114 29817 net.cpp:434] score_pool3_sem <- pool3_pool3_0_split_1
I0210 20:01:59.940121 29817 net.cpp:408] score_pool3_sem -> score_pool3_sem
I0210 20:01:59.941306 29817 net.cpp:150] Setting up score_pool3_sem
I0210 20:01:59.941323 29817 net.cpp:157] Top shape: 1 33 57 57 (107217)
I0210 20:01:59.941328 29817 net.cpp:165] Memory required for data: 511915932
I0210 20:01:59.941335 29817 layer_factory.hpp:77] Creating layer score_pool3_semc
I0210 20:01:59.941354 29817 net.cpp:100] Creating Layer score_pool3_semc
I0210 20:01:59.941359 29817 net.cpp:434] score_pool3_semc <- score_pool3_sem
I0210 20:01:59.941365 29817 net.cpp:434] score_pool3_semc <- upscore_pool4_sem_upscore_pool4_sem_0_split_0
I0210 20:01:59.941372 29817 net.cpp:408] score_pool3_semc -> score_pool3_semc
I0210 20:01:59.941406 29817 net.cpp:150] Setting up score_pool3_semc
I0210 20:01:59.941416 29817 net.cpp:157] Top shape: 1 33 42 42 (58212)
I0210 20:01:59.941419 29817 net.cpp:165] Memory required for data: 512148780
I0210 20:01:59.941423 29817 layer_factory.hpp:77] Creating layer fuse_pool3_sem
I0210 20:01:59.941429 29817 net.cpp:100] Creating Layer fuse_pool3_sem
I0210 20:01:59.941433 29817 net.cpp:434] fuse_pool3_sem <- upscore_pool4_sem_upscore_pool4_sem_0_split_1
I0210 20:01:59.941438 29817 net.cpp:434] fuse_pool3_sem <- score_pool3_semc
I0210 20:01:59.941444 29817 net.cpp:408] fuse_pool3_sem -> fuse_pool3_sem
I0210 20:01:59.941473 29817 net.cpp:150] Setting up fuse_pool3_sem
I0210 20:01:59.941480 29817 net.cpp:157] Top shape: 1 33 42 42 (58212)
I0210 20:01:59.941484 29817 net.cpp:165] Memory required for data: 512381628
I0210 20:01:59.941488 29817 layer_factory.hpp:77] Creating layer upscore8_sem
I0210 20:01:59.941496 29817 net.cpp:100] Creating Layer upscore8_sem
I0210 20:01:59.941500 29817 net.cpp:434] upscore8_sem <- fuse_pool3_sem
I0210 20:01:59.941507 29817 net.cpp:408] upscore8_sem -> upscore8_sem
I0210 20:01:59.942762 29817 net.cpp:150] Setting up upscore8_sem
I0210 20:01:59.942788 29817 net.cpp:157] Top shape: 1 33 344 344 (3905088)
I0210 20:01:59.942792 29817 net.cpp:165] Memory required for data: 528001980
I0210 20:01:59.942797 29817 layer_factory.hpp:77] Creating layer score_sem
I0210 20:01:59.942805 29817 net.cpp:100] Creating Layer score_sem
I0210 20:01:59.942808 29817 net.cpp:434] score_sem <- upscore8_sem
I0210 20:01:59.942824 29817 net.cpp:434] score_sem <- data_data_0_split_1
I0210 20:01:59.942831 29817 net.cpp:408] score_sem -> score_sem
I0210 20:01:59.942859 29817 net.cpp:150] Setting up score_sem
I0210 20:01:59.942867 29817 net.cpp:157] Top shape: 1 33 256 256 (2162688)
I0210 20:01:59.942872 29817 net.cpp:165] Memory required for data: 536652732
I0210 20:01:59.942874 29817 layer_factory.hpp:77] Creating layer loss
I0210 20:01:59.942883 29817 net.cpp:100] Creating Layer loss
I0210 20:01:59.942886 29817 net.cpp:434] loss <- score_sem
I0210 20:01:59.942891 29817 net.cpp:434] loss <- sem
I0210 20:01:59.942896 29817 net.cpp:408] loss -> loss
I0210 20:01:59.942950 29817 net.cpp:150] Setting up loss
I0210 20:01:59.942960 29817 net.cpp:157] Top shape: (1)
I0210 20:01:59.942965 29817 net.cpp:160]     with loss weight 1
I0210 20:01:59.942981 29817 net.cpp:165] Memory required for data: 536652736
I0210 20:01:59.942984 29817 layer_factory.hpp:77] Creating layer score_fr_geo
I0210 20:01:59.942992 29817 net.cpp:100] Creating Layer score_fr_geo
I0210 20:01:59.942996 29817 net.cpp:434] score_fr_geo <- fc7_drop7_0_split_1
I0210 20:01:59.943004 29817 net.cpp:408] score_fr_geo -> score_fr_geo
I0210 20:01:59.944244 29817 net.cpp:150] Setting up score_fr_geo
I0210 20:01:59.944260 29817 net.cpp:157] Top shape: 1 3 9 9 (243)
I0210 20:01:59.944264 29817 net.cpp:165] Memory required for data: 536653708
I0210 20:01:59.944285 29817 layer_factory.hpp:77] Creating layer upscore2_geo
I0210 20:01:59.944294 29817 net.cpp:100] Creating Layer upscore2_geo
I0210 20:01:59.944300 29817 net.cpp:434] upscore2_geo <- score_fr_geo
I0210 20:01:59.944306 29817 net.cpp:408] upscore2_geo -> upscore2_geo
I0210 20:01:59.944524 29817 net.cpp:150] Setting up upscore2_geo
I0210 20:01:59.944533 29817 net.cpp:157] Top shape: 1 3 20 20 (1200)
I0210 20:01:59.944537 29817 net.cpp:165] Memory required for data: 536658508
I0210 20:01:59.944543 29817 layer_factory.hpp:77] Creating layer upscore2_geo_upscore2_geo_0_split
I0210 20:01:59.944550 29817 net.cpp:100] Creating Layer upscore2_geo_upscore2_geo_0_split
I0210 20:01:59.944553 29817 net.cpp:434] upscore2_geo_upscore2_geo_0_split <- upscore2_geo
I0210 20:01:59.944561 29817 net.cpp:408] upscore2_geo_upscore2_geo_0_split -> upscore2_geo_upscore2_geo_0_split_0
I0210 20:01:59.944568 29817 net.cpp:408] upscore2_geo_upscore2_geo_0_split -> upscore2_geo_upscore2_geo_0_split_1
I0210 20:01:59.944605 29817 net.cpp:150] Setting up upscore2_geo_upscore2_geo_0_split
I0210 20:01:59.944614 29817 net.cpp:157] Top shape: 1 3 20 20 (1200)
I0210 20:01:59.944619 29817 net.cpp:157] Top shape: 1 3 20 20 (1200)
I0210 20:01:59.944622 29817 net.cpp:165] Memory required for data: 536668108
I0210 20:01:59.944627 29817 layer_factory.hpp:77] Creating layer score_pool4_geo
I0210 20:01:59.944635 29817 net.cpp:100] Creating Layer score_pool4_geo
I0210 20:01:59.944640 29817 net.cpp:434] score_pool4_geo <- pool4_pool4_0_split_2
I0210 20:01:59.944646 29817 net.cpp:408] score_pool4_geo -> score_pool4_geo
I0210 20:01:59.945732 29817 net.cpp:150] Setting up score_pool4_geo
I0210 20:01:59.945747 29817 net.cpp:157] Top shape: 1 3 29 29 (2523)
I0210 20:01:59.945752 29817 net.cpp:165] Memory required for data: 536678200
I0210 20:01:59.945772 29817 layer_factory.hpp:77] Creating layer score_pool4_geoc
I0210 20:01:59.945780 29817 net.cpp:100] Creating Layer score_pool4_geoc
I0210 20:01:59.945787 29817 net.cpp:434] score_pool4_geoc <- score_pool4_geo
I0210 20:01:59.945792 29817 net.cpp:434] score_pool4_geoc <- upscore2_geo_upscore2_geo_0_split_0
I0210 20:01:59.945798 29817 net.cpp:408] score_pool4_geoc -> score_pool4_geoc
I0210 20:01:59.945828 29817 net.cpp:150] Setting up score_pool4_geoc
I0210 20:01:59.945837 29817 net.cpp:157] Top shape: 1 3 20 20 (1200)
I0210 20:01:59.945840 29817 net.cpp:165] Memory required for data: 536683000
I0210 20:01:59.945843 29817 layer_factory.hpp:77] Creating layer fuse_pool4_geo
I0210 20:01:59.945850 29817 net.cpp:100] Creating Layer fuse_pool4_geo
I0210 20:01:59.945853 29817 net.cpp:434] fuse_pool4_geo <- upscore2_geo_upscore2_geo_0_split_1
I0210 20:01:59.945858 29817 net.cpp:434] fuse_pool4_geo <- score_pool4_geoc
I0210 20:01:59.945865 29817 net.cpp:408] fuse_pool4_geo -> fuse_pool4_geo
I0210 20:01:59.945889 29817 net.cpp:150] Setting up fuse_pool4_geo
I0210 20:01:59.945907 29817 net.cpp:157] Top shape: 1 3 20 20 (1200)
I0210 20:01:59.945911 29817 net.cpp:165] Memory required for data: 536687800
I0210 20:01:59.945915 29817 layer_factory.hpp:77] Creating layer upscore_pool4_geo
I0210 20:01:59.945924 29817 net.cpp:100] Creating Layer upscore_pool4_geo
I0210 20:01:59.945929 29817 net.cpp:434] upscore_pool4_geo <- fuse_pool4_geo
I0210 20:01:59.945935 29817 net.cpp:408] upscore_pool4_geo -> upscore_pool4_geo
I0210 20:01:59.946151 29817 net.cpp:150] Setting up upscore_pool4_geo
I0210 20:01:59.946161 29817 net.cpp:157] Top shape: 1 3 42 42 (5292)
I0210 20:01:59.946164 29817 net.cpp:165] Memory required for data: 536708968
I0210 20:01:59.946171 29817 layer_factory.hpp:77] Creating layer upscore_pool4_geo_upscore_pool4_geo_0_split
I0210 20:01:59.946177 29817 net.cpp:100] Creating Layer upscore_pool4_geo_upscore_pool4_geo_0_split
I0210 20:01:59.946180 29817 net.cpp:434] upscore_pool4_geo_upscore_pool4_geo_0_split <- upscore_pool4_geo
I0210 20:01:59.946188 29817 net.cpp:408] upscore_pool4_geo_upscore_pool4_geo_0_split -> upscore_pool4_geo_upscore_pool4_geo_0_split_0
I0210 20:01:59.946195 29817 net.cpp:408] upscore_pool4_geo_upscore_pool4_geo_0_split -> upscore_pool4_geo_upscore_pool4_geo_0_split_1
I0210 20:01:59.946233 29817 net.cpp:150] Setting up upscore_pool4_geo_upscore_pool4_geo_0_split
I0210 20:01:59.946241 29817 net.cpp:157] Top shape: 1 3 42 42 (5292)
I0210 20:01:59.946246 29817 net.cpp:157] Top shape: 1 3 42 42 (5292)
I0210 20:01:59.946250 29817 net.cpp:165] Memory required for data: 536751304
I0210 20:01:59.946254 29817 layer_factory.hpp:77] Creating layer score_pool3_geo
I0210 20:01:59.946271 29817 net.cpp:100] Creating Layer score_pool3_geo
I0210 20:01:59.946279 29817 net.cpp:434] score_pool3_geo <- pool3_pool3_0_split_2
I0210 20:01:59.946286 29817 net.cpp:408] score_pool3_geo -> score_pool3_geo
I0210 20:01:59.947382 29817 net.cpp:150] Setting up score_pool3_geo
I0210 20:01:59.947398 29817 net.cpp:157] Top shape: 1 3 57 57 (9747)
I0210 20:01:59.947402 29817 net.cpp:165] Memory required for data: 536790292
I0210 20:01:59.947423 29817 layer_factory.hpp:77] Creating layer score_pool3_geoc
I0210 20:01:59.947432 29817 net.cpp:100] Creating Layer score_pool3_geoc
I0210 20:01:59.947438 29817 net.cpp:434] score_pool3_geoc <- score_pool3_geo
I0210 20:01:59.947443 29817 net.cpp:434] score_pool3_geoc <- upscore_pool4_geo_upscore_pool4_geo_0_split_0
I0210 20:01:59.947451 29817 net.cpp:408] score_pool3_geoc -> score_pool3_geoc
I0210 20:01:59.947482 29817 net.cpp:150] Setting up score_pool3_geoc
I0210 20:01:59.947492 29817 net.cpp:157] Top shape: 1 3 42 42 (5292)
I0210 20:01:59.947496 29817 net.cpp:165] Memory required for data: 536811460
I0210 20:01:59.947500 29817 layer_factory.hpp:77] Creating layer fuse_pool3_geo
I0210 20:01:59.947506 29817 net.cpp:100] Creating Layer fuse_pool3_geo
I0210 20:01:59.947510 29817 net.cpp:434] fuse_pool3_geo <- upscore_pool4_geo_upscore_pool4_geo_0_split_1
I0210 20:01:59.947515 29817 net.cpp:434] fuse_pool3_geo <- score_pool3_geoc
I0210 20:01:59.947521 29817 net.cpp:408] fuse_pool3_geo -> fuse_pool3_geo
I0210 20:01:59.947561 29817 net.cpp:150] Setting up fuse_pool3_geo
I0210 20:01:59.947569 29817 net.cpp:157] Top shape: 1 3 42 42 (5292)
I0210 20:01:59.947573 29817 net.cpp:165] Memory required for data: 536832628
I0210 20:01:59.947577 29817 layer_factory.hpp:77] Creating layer upscore8_geo
I0210 20:01:59.947585 29817 net.cpp:100] Creating Layer upscore8_geo
I0210 20:01:59.947589 29817 net.cpp:434] upscore8_geo <- fuse_pool3_geo
I0210 20:01:59.947597 29817 net.cpp:408] upscore8_geo -> upscore8_geo
I0210 20:01:59.947830 29817 net.cpp:150] Setting up upscore8_geo
I0210 20:01:59.947841 29817 net.cpp:157] Top shape: 1 3 344 344 (355008)
I0210 20:01:59.947845 29817 net.cpp:165] Memory required for data: 538252660
I0210 20:01:59.947850 29817 layer_factory.hpp:77] Creating layer score_geo
I0210 20:01:59.947859 29817 net.cpp:100] Creating Layer score_geo
I0210 20:01:59.947863 29817 net.cpp:434] score_geo <- upscore8_geo
I0210 20:01:59.947868 29817 net.cpp:434] score_geo <- data_data_0_split_2
I0210 20:01:59.947875 29817 net.cpp:408] score_geo -> score_geo
I0210 20:01:59.947908 29817 net.cpp:150] Setting up score_geo
I0210 20:01:59.947917 29817 net.cpp:157] Top shape: 1 3 256 256 (196608)
I0210 20:01:59.947921 29817 net.cpp:165] Memory required for data: 539039092
I0210 20:01:59.947926 29817 layer_factory.hpp:77] Creating layer loss_geo
I0210 20:01:59.947932 29817 net.cpp:100] Creating Layer loss_geo
I0210 20:01:59.947935 29817 net.cpp:434] loss_geo <- score_geo
I0210 20:01:59.947940 29817 net.cpp:434] loss_geo <- geo
I0210 20:01:59.947947 29817 net.cpp:408] loss_geo -> loss_geo
…
I0210 20:01:59.948300 29817 net.cpp:270] This network produces output loss_geo
I0210 20:01:59.948354 29817 net.cpp:283] Network initialization done.
I0210 20:01:59.964821 29817 solver.cpp:181] Creating test net (#0) specified by test_net file: test.prototxt
I0210 20:01:59.965304 29817 net.cpp:58] Initializing net from parameters: 
state {
  phase: TEST
}
layer {
  name: "data"
  type: "Python"
  top: "data"
  top: "sem"
  top: "geo"
  python_param {
    module: "siftflow_layers"
    layer: "SIFTFlowSegDataLayer"
    param_str: "{\'siftflow_dir\': \'../data/sift-flow\', \'seed\': 1337, \'split\': \'test\'}"
  }
}
layer {
  name: "conv1_1"
  type: "Convolution"
  bottom: "data"
  top: "conv1_1"
  param {
    lr_mult: 1
    decay_mult: 1
  }
  param {
    lr_mult: 2
    decay_mult: 0
  }
  convolution_param {
    num_output: 64
    pad: 100
    kernel_size: 3
    stride: 1
  }
}
layer {
  name: "relu1_1"
  type: "ReLU"
  bottom: "conv1_1"
  top: "conv1_1"
}
layer {
  name: "conv1_2"
  type: "Convolution"
  bottom: "conv1_1"
  top: "conv1_2"
  param {
    lr_mult: 1
    decay_mult: 1
  }
  param {
    lr_mult: 2
    decay_mult: 0
  }
  convolution_param {
    num_output: 64
    pad: 1
    kernel_size: 3
    stride: 1
  }
}
layer {
  name: "relu1_2"
  type: "ReLU"
  bottom: "conv1_2"
  top: "conv1_2"
}
layer {
  name: "pool1"
  type: "Pooling"
  bottom: "conv1_2"
  top: "pool1"
  pooling_param {
    pool: MAX
    kernel_size: 2
    stride: 2
  }
}
layer {
  name: "conv2_1"
  type: "Convolution"
  bottom: "pool1"
  top: "conv2_1"
  param {
    lr_mult: 1
    decay_mult: 1
  }
  param {
    lr_mult: 2
    decay_mult: 0
  }
  convolution_param {
    num_output: 128
    pad: 1
    kernel_size: 3
    stride: 1
  }
}
layer {
  name: "relu2_1"
  type: "ReLU"
  bottom: "conv2_1"
  top: "conv2_1"
}
layer {
  name: "conv2_2"
  type: "Convolution"
  bottom: "conv2_1"
  top: "conv2_2"
  param {
    lr_mult: 1
    decay_mult: 1
  }
  param {
    lr_mult: 2
    decay_mult: 0
  }
  convolution_param {
    num_output: 128
    pad: 1
    kernel_size: 3
    stride: 1
  }
}
layer {
  name: "relu2_2"
  type: "ReLU"
  bottom: "conv2_2"
  top: "conv2_2"
}
layer {
  name: "pool2"
  type: "Pooling"
  bottom: "conv2_2"
  top: "pool2"
  pooling_param {
    pool: MAX
    kernel_size: 2
    stride: 2
  }
}
layer {
  name: "conv3_1"
  type: "Convolution"
  bottom: "pool2"
  top: "conv3_1"
  param {
    lr_mult: 1
    decay_mult: 1
  }
  param {
    lr_mult: 2
    decay_mult: 0
  }
  convolution_param {
    num_output: 256
    pad: 1
    kernel_size: 3
    stride: 1
  }
}
layer {
  name: "relu3_1"
  type: "ReLU"
  bottom: "conv3_1"
  top: "conv3_1"
}
layer {
  name: "conv3_2"
  type: "Convolution"
  bottom: "conv3_1"
  top: "conv3_2"
  param {
    lr_mult: 1
    decay_mult: 1
  }
  param {
    lr_mult: 2
    decay_mult: 0
  }
  convolution_param {
    num_output: 256
    pad: 1
    kernel_size: 3
    stride: 1
  }
}
layer {
  name: "relu3_2"
  type: "ReLU"
  bottom: "conv3_2"
  top: "conv3_2"
}
layer {
  name: "conv3_3"
  type: "Convolution"
  bottom: "conv3_2"
  top: "conv3_3"
  param {
    lr_mult: 1
    decay_mult: 1
  }
  param {
    lr_mult: 2
    decay_mult: 0
  }
  convolution_param {
    num_output: 256
    pad: 1
    kernel_size: 3
    stride: 1
  }
}
layer {
  name: "relu3_3"
  type: "ReLU"
  bottom: "conv3_3"
  top: "conv3_3"
}
layer {
  name: "pool3"
  type: "Pooling"
  bottom: "conv3_3"
  top: "pool3"
  pooling_param {
    pool: MAX
    kernel_size: 2
    stride: 2
  }
}
layer {
  name: "conv4_1"
  type: "Convolution"
  bottom: "pool3"
  top: "conv4_1"
  param {
    lr_mult: 1
    decay_mult: 1
  }
  param {
    lr_mult: 2
    decay_mult: 0
  }
  convolution_param {
    num_output: 512
    pad: 1
    kernel_size: 3
    stride: 1
  }
}
layer {
  name: "relu4_1"
  type: "ReLU"
  bottom: "conv4_1"
  top: "conv4_1"
}
layer {
  name: "conv4_2"
  type: "Convolution"
  bottom: "conv4_1"
  top: "conv4_2"
  param {
    lr_mult: 1
    decay_mult: 1
  }
  param {
    lr_mult: 2
    decay_mult: 0
  }
  convolution_param {
    num_output: 512
    pad: 1
    kernel_size: 3
    stride: 1
  }
}
layer {
  name: "relu4_2"
  type: "ReLU"
  bottom: "conv4_2"
  top: "conv4_2"
}
layer {
  name: "conv4_3"
  type: "Convolution"
  bottom: "conv4_2"
  top: "conv4_3"
  param {
    lr_mult: 1
    decay_mult: 1
  }
  param {
    lr_mult: 2
    decay_mult: 0
  }
  convolution_param {
    num_output: 512
    pad: 1
    kernel_size: 3
    stride: 1
  }
}
layer {
  name: "relu4_3"
  type: "ReLU"
  bottom: "conv4_3"
  top: "conv4_3"
}
layer {
  name: "pool4"
  type: "Pooling"
  bottom: "conv4_3"
  top: "pool4"
  pooling_param {
    pool: MAX
    kernel_size: 2
    stride: 2
  }
}
layer {
  name: "conv5_1"
  type: "Convolution"
  bottom: "pool4"
  top: "conv5_1"
  param {
    lr_mult: 1
    decay_mult: 1
  }
  param {
    lr_mult: 2
    decay_mult: 0
  }
  convolution_param {
    num_output: 512
    pad: 1
    kernel_size: 3
    stride: 1
  }
}
layer {
  name: "relu5_1"
  type: "ReLU"
  bottom: "conv5_1"
  top: "conv5_1"
}
layer {
  name: "conv5_2"
  type: "Convolution"
  bottom: "conv5_1"
  top: "conv5_2"
  param {
    lr_mult: 1
    decay_mult: 1
  }
  param {
    lr_mult: 2
    decay_mult: 0
  }
  convolution_param {
    num_output: 512
    pad: 1
    kernel_size: 3
    stride: 1
  }
}
layer {
  name: "relu5_2"
  type: "ReLU"
  bottom: "conv5_2"
  top: "conv5_2"
}
layer {
  name: "conv5_3"
  type: "Convolution"
  bottom: "conv5_2"
  top: "conv5_3"
  param {
    lr_mult: 1
    decay_mult: 1
  }
  param {
    lr_mult: 2
    decay_mult: 0
  }
  convolution_param {
    num_output: 512
    pad: 1
    kernel_size: 3
    stride: 1
  }
}
layer {
  name: "relu5_3"
  type: "ReLU"
  bottom: "conv5_3"
  top: "conv5_3"
}
layer {
  name: "pool5"
  type: "Pooling"
  bottom: "conv5_3"
  top: "pool5"
  pooling_param {
    pool: MAX
    kernel_size: 2
    stride: 2
  }
}
layer {
  name: "fc6"
  type: "Convolution"
  bottom: "pool5"
  top: "fc6"
  param {
    lr_mult: 1
    decay_mult: 1
  }
  param {
    lr_mult: 2
    decay_mult: 0
  }
  convolution_param {
    num_output: 4096
    pad: 0
    kernel_size: 7
    stride: 1
  }
}
layer {
  name: "relu6"
  type: "ReLU"
  bottom: "fc6"
  top: "fc6"
}
layer {
  name: "drop6"
  type: "Dropout"
  bottom: "fc6"
  top: "fc6"
  dropout_param {
    dropout_ratio: 0.5
  }
}
layer {
  name: "fc7"
  type: "Convolution"
  bottom: "fc6"
  top: "fc7"
  param {
    lr_mult: 1
    decay_mult: 1
  }
  param {
    lr_mult: 2
    decay_mult: 0
  }
  convolution_param {
    num_output: 4096
    pad: 0
    kernel_size: 1
    stride: 1
  }
}
layer {
  name: "relu7"
  type: "ReLU"
  bottom: "fc7"
  top: "fc7"
}
layer {
  name: "drop7"
  type: "Dropout"
  bottom: "fc7"
  top: "fc7"
  dropout_param {
    dropout_ratio: 0.5
  }
}
layer {
  name: "score_fr_sem"
  type: "Convolution"
  bottom: "fc7"
  top: "score_fr_sem"
  param {
    lr_mult: 1
    decay_mult: 1
  }
  param {
    lr_mult: 2
    decay_mult: 0
  }
  convolution_param {
    num_output: 33
    pad: 0
    kernel_size: 1
  }
}
layer {
  name: "upscore2_sem"
  type: "Deconvolution"
  bottom: "score_fr_sem"
  top: "upscore2_sem"
  param {
    lr_mult: 0
  }
  convolution_param {
    num_output: 33
    bias_term: false
    kernel_size: 4
    stride: 2
  }
}
layer {
  name: "score_pool4_sem"
  type: "Convolution"
  bottom: "pool4"
  top: "score_pool4_sem"
  param {
    lr_mult: 1
    decay_mult: 1
  }
  param {
    lr_mult: 2
    decay_mult: 0
  }
  convolution_param {
    num_output: 33
    pad: 0
    kernel_size: 1
  }
}
layer {
  name: "score_pool4_semc"
  type: "Crop"
  bottom: "score_pool4_sem"
  bottom: "upscore2_sem"
  top: "score_pool4_semc"
  crop_param {
    axis: 2
    offset: 5
  }
}
layer {
  name: "fuse_pool4_sem"
  type: "Eltwise"
  bottom: "upscore2_sem"
  bottom: "score_pool4_semc"
  top: "fuse_pool4_sem"
  eltwise_param {
    operation: SUM
  }
}
layer {
  name: "upscore_pool4_sem"
  type: "Deconvolution"
  bottom: "fuse_pool4_sem"
  top: "upscore_pool4_sem"
  param {
    lr_mult: 0
  }
  convolution_param {
    num_output: 33
    bias_term: false
    kernel_size: 4
    stride: 2
  }
}
layer {
  name: "score_pool3_sem"
  type: "Convolution"
  bottom: "pool3"
  top: "score_pool3_sem"
  param {
    lr_mult: 1
    decay_mult: 1
  }
  param {
    lr_mult: 2
    decay_mult: 0
  }
  convolution_param {
    num_output: 33
    pad: 0
    kernel_size: 1
  }
}
layer {
  name: "score_pool3_semc"
  type: "Crop"
  bottom: "score_pool3_sem"
  bottom: "upscore_pool4_sem"
  top: "score_pool3_semc"
  crop_param {
    axis: 2
    offset: 9
  }
}
layer {
  name: "fuse_pool3_sem"
  type: "Eltwise"
  bottom: "upscore_pool4_sem"
  bottom: "score_pool3_semc"
  top: "fuse_pool3_sem"
  eltwise_param {
    operation: SUM
  }
}
layer {
  name: "upscore8_sem"
  type: "Deconvolution"
  bottom: "fuse_pool3_sem"
  top: "upscore8_sem"
  param {
    lr_mult: 0
  }
  convolution_param {
    num_output: 33
    bias_term: false
    kernel_size: 16
    stride: 8
  }
}
layer {
  name: "score_sem"
  type: "Crop"
  bottom: "upscore8_sem"
  bottom: "data"
  top: "score_sem"
  crop_param {
    axis: 2
    offset: 31
  }
}
layer {
  name: "loss"
  type: "SoftmaxWithLoss"
  bottom: "score_sem"
  bottom: "sem"
  top: "loss"
  loss_param {
    ignore_label: 255
    normalize: false
  }
}
layer {
  name: "score_fr_geo"
  type: "Convolution"
  bottom: "fc7"
  top: "score_fr_geo"
  param {
    lr_mult: 1
    decay_mult: 1
  }
  param {
    lr_mult: 2
    decay_mult: 0
  }
  convolution_param {
    num_output: 3
    pad: 0
    kernel_size: 1
  }
}
layer {
  name: "upscore2_geo"
  type: "Deconvolution"
  bottom: "score_fr_geo"
  top: "upscore2_geo"
  param {
    lr_mult: 0
  }
  convolution_param {
    num_output: 3
    bias_term: false
    kernel_size: 4
    stride: 2
  }
}
layer {
  name: "score_pool4_geo"
  type: "Convolution"
  bottom: "pool4"
  top: "score_pool4_geo"
  param {
    lr_mult: 1
    decay_mult: 1
  }
  param {
    lr_mult: 2
    decay_mult: 0
  }
  convolution_param {
    num_output: 3
    pad: 0
    kernel_size: 1
  }
}
layer {
  name: "score_pool4_geoc"
  type: "Crop"
  bottom: "score_pool4_geo"
  bottom: "upscore2_geo"
  top: "score_pool4_geoc"
  crop_param {
    axis: 2
    offset: 5
  }
}
layer {
  name: "fuse_pool4_geo"
  type: "Eltwise"
  bottom: "upscore2_geo"
  bottom: "score_pool4_geoc"
  top: "fuse_pool4_geo"
  eltwise_param {
    operation: SUM
  }
}
layer {
  name: "upscore_pool4_geo"
  type: "Deconvolution"
  bottom: "fuse_pool4_geo"
  top: "upscore_pool4_geo"
  param {
    lr_mult: 0
  }
  convolution_param {
    num_output: 3
    bias_term: false
    kernel_size: 4
    stride: 2
  }
}
layer {
  name: "score_pool3_geo"
  type: "Convolution"
  bottom: "pool3"
  top: "score_pool3_geo"
  param {
    lr_mult: 1
    decay_mult: 1
  }
  param {
    lr_mult: 2
    decay_mult: 0
  }
  convolution_param {
    num_output: 3
    pad: 0
    kernel_size: 1
  }
}
layer {
  name: "score_pool3_geoc"
  type: "Crop"
  bottom: "score_pool3_geo"
  bottom: "upscore_pool4_geo"
  top: "score_pool3_geoc"
  crop_param {
    axis: 2
    offset: 9
  }
}
layer {
  name: "fuse_pool3_geo"
  type: "Eltwise"
  bottom: "upscore_pool4_geo"
  bottom: "score_pool3_geoc"
  top: "fuse_pool3_geo"
  eltwise_param {
    operation: SUM
  }
}
layer {
  name: "upscore8_geo"
  type: "Deconvolution"
  bottom: "fuse_pool3_geo"
  top: "upscore8_geo"
  param {
    lr_mult: 0
  }
  convolution_param {
    num_output: 3
    bias_term: false
    kernel_size: 16
    stride: 8
  }
}
layer {
  name: "score_geo"
  type: "Crop"
  bottom: "upscore8_geo"
  bottom: "data"
  top: "score_geo"
  crop_param {
    axis: 2
    offset: 31
  }
}
layer {
  name: "loss_geo"
  type: "SoftmaxWithLoss"
  bottom: "score_geo"
  bottom: "geo"
  top: "loss_geo"
  loss_param {
    ignore_label: 255
    normalize: false
  }
}
I0210 20:01:59.965659 29817 layer_factory.hpp:77] Creating layer data
I0210 20:01:59.981613 29817 net.cpp:100] Creating Layer data
I0210 20:01:59.981644 29817 net.cpp:408] data -> data
I0210 20:01:59.981672 29817 net.cpp:408] data -> sem
I0210 20:01:59.981693 29817 net.cpp:408] data -> geo
I0210 20:02:00.102687 29817 net.cpp:150] Setting up data
I0210 20:02:00.102715 29817 net.cpp:157] Top shape: 1 3 256 256 (196608)
I0210 20:02:00.102723 29817 net.cpp:157] Top shape: 1 1 256 256 (65536)
I0210 20:02:00.102730 29817 net.cpp:157] Top shape: 1 1 256 256 (65536)
I0210 20:02:00.102733 29817 net.cpp:165] Memory required for data: 1310720
I0210 20:02:00.102741 29817 layer_factory.hpp:77] Creating layer data_data_0_split
I0210 20:02:00.102751 29817 net.cpp:100] Creating Layer data_data_0_split
I0210 20:02:00.102756 29817 net.cpp:434] data_data_0_split <- data
I0210 20:02:00.102766 29817 net.cpp:408] data_data_0_split -> data_data_0_split_0
I0210 20:02:00.102777 29817 net.cpp:408] data_data_0_split -> data_data_0_split_1
I0210 20:02:00.102785 29817 net.cpp:408] data_data_0_split -> data_data_0_split_2
I0210 20:02:00.102846 29817 net.cpp:150] Setting up data_data_0_split
I0210 20:02:00.102857 29817 net.cpp:157] Top shape: 1 3 256 256 (196608)
I0210 20:02:00.102864 29817 net.cpp:157] Top shape: 1 3 256 256 (196608)
I0210 20:02:00.102869 29817 net.cpp:157] Top shape: 1 3 256 256 (196608)
I0210 20:02:00.102874 29817 net.cpp:165] Memory required for data: 3670016
I0210 20:02:00.102879 29817 layer_factory.hpp:77] Creating layer conv1_1
I0210 20:02:00.102890 29817 net.cpp:100] Creating Layer conv1_1
I0210 20:02:00.102895 29817 net.cpp:434] conv1_1 <- data_data_0_split_0
I0210 20:02:00.102902 29817 net.cpp:408] conv1_1 -> conv1_1
I0210 20:02:00.104903 29817 net.cpp:150] Setting up conv1_1
I0210 20:02:00.104946 29817 net.cpp:157] Top shape: 1 64 454 454 (13191424)
I0210 20:02:00.104957 29817 net.cpp:165] Memory required for data: 56435712
I0210 20:02:00.104992 29817 layer_factory.hpp:77] Creating layer relu1_1
I0210 20:02:00.105008 29817 net.cpp:100] Creating Layer relu1_1
I0210 20:02:00.105021 29817 net.cpp:434] relu1_1 <- conv1_1
I0210 20:02:00.105034 29817 net.cpp:395] relu1_1 -> conv1_1 (in-place)
I0210 20:02:00.105425 29817 net.cpp:150] Setting up relu1_1
I0210 20:02:00.105450 29817 net.cpp:157] Top shape: 1 64 454 454 (13191424)
I0210 20:02:00.105459 29817 net.cpp:165] Memory required for data: 109201408
I0210 20:02:00.105469 29817 layer_factory.hpp:77] Creating layer conv1_2
I0210 20:02:00.105489 29817 net.cpp:100] Creating Layer conv1_2
I0210 20:02:00.105499 29817 net.cpp:434] conv1_2 <- conv1_1
I0210 20:02:00.105514 29817 net.cpp:408] conv1_2 -> conv1_2
I0210 20:02:00.109092 29817 net.cpp:150] Setting up conv1_2
I0210 20:02:00.109129 29817 net.cpp:157] Top shape: 1 64 454 454 (13191424)
I0210 20:02:00.109140 29817 net.cpp:165] Memory required for data: 161967104
I0210 20:02:00.109163 29817 layer_factory.hpp:77] Creating layer relu1_2
I0210 20:02:00.109179 29817 net.cpp:100] Creating Layer relu1_2
I0210 20:02:00.109189 29817 net.cpp:434] relu1_2 <- conv1_2
I0210 20:02:00.109201 29817 net.cpp:395] relu1_2 -> conv1_2 (in-place)
I0210 20:02:00.109799 29817 net.cpp:150] Setting up relu1_2
I0210 20:02:00.109833 29817 net.cpp:157] Top shape: 1 64 454 454 (13191424)
I0210 20:02:00.109843 29817 net.cpp:165] Memory required for data: 214732800
I0210 20:02:00.109853 29817 layer_factory.hpp:77] Creating layer pool1
I0210 20:02:00.109869 29817 net.cpp:100] Creating Layer pool1
I0210 20:02:00.109877 29817 net.cpp:434] pool1 <- conv1_2
I0210 20:02:00.109891 29817 net.cpp:408] pool1 -> pool1
I0210 20:02:00.110002 29817 net.cpp:150] Setting up pool1
I0210 20:02:00.110020 29817 net.cpp:157] Top shape: 1 64 227 227 (3297856)
I0210 20:02:00.110031 29817 net.cpp:165] Memory required for data: 227924224
I0210 20:02:00.110041 29817 layer_factory.hpp:77] Creating layer conv2_1
I0210 20:02:00.110061 29817 net.cpp:100] Creating Layer conv2_1
I0210 20:02:00.110074 29817 net.cpp:434] conv2_1 <- pool1
I0210 20:02:00.110087 29817 net.cpp:408] conv2_1 -> conv2_1
I0210 20:02:00.113358 29817 net.cpp:150] Setting up conv2_1
I0210 20:02:00.113385 29817 net.cpp:157] Top shape: 1 128 227 227 (6595712)
I0210 20:02:00.113389 29817 net.cpp:165] Memory required for data: 254307072
I0210 20:02:00.113410 29817 layer_factory.hpp:77] Creating layer relu2_1
I0210 20:02:00.113431 29817 net.cpp:100] Creating Layer relu2_1
I0210 20:02:00.113436 29817 net.cpp:434] relu2_1 <- conv2_1
I0210 20:02:00.113441 29817 net.cpp:395] relu2_1 -> conv2_1 (in-place)
I0210 20:02:00.113801 29817 net.cpp:150] Setting up relu2_1
I0210 20:02:00.113828 29817 net.cpp:157] Top shape: 1 128 227 227 (6595712)
I0210 20:02:00.113832 29817 net.cpp:165] Memory required for data: 280689920
I0210 20:02:00.113838 29817 layer_factory.hpp:77] Creating layer conv2_2
I0210 20:02:00.113848 29817 net.cpp:100] Creating Layer conv2_2
I0210 20:02:00.113853 29817 net.cpp:434] conv2_2 <- conv2_1
I0210 20:02:00.113862 29817 net.cpp:408] conv2_2 -> conv2_2
I0210 20:02:00.115461 29817 net.cpp:150] Setting up conv2_2
I0210 20:02:00.115478 29817 net.cpp:157] Top shape: 1 128 227 227 (6595712)
I0210 20:02:00.115481 29817 net.cpp:165] Memory required for data: 307072768
I0210 20:02:00.115489 29817 layer_factory.hpp:77] Creating layer relu2_2
I0210 20:02:00.115496 29817 net.cpp:100] Creating Layer relu2_2
I0210 20:02:00.115500 29817 net.cpp:434] relu2_2 <- conv2_2
I0210 20:02:00.115505 29817 net.cpp:395] relu2_2 -> conv2_2 (in-place)
I0210 20:02:00.115703 29817 net.cpp:150] Setting up relu2_2
I0210 20:02:00.115716 29817 net.cpp:157] Top shape: 1 128 227 227 (6595712)
I0210 20:02:00.115720 29817 net.cpp:165] Memory required for data: 333455616
I0210 20:02:00.115725 29817 layer_factory.hpp:77] Creating layer pool2
I0210 20:02:00.115731 29817 net.cpp:100] Creating Layer pool2
I0210 20:02:00.115734 29817 net.cpp:434] pool2 <- conv2_2
I0210 20:02:00.115741 29817 net.cpp:408] pool2 -> pool2
I0210 20:02:00.115803 29817 net.cpp:150] Setting up pool2
I0210 20:02:00.115813 29817 net.cpp:157] Top shape: 1 128 114 114 (1663488)
I0210 20:02:00.115818 29817 net.cpp:165] Memory required for data: 340109568
I0210 20:02:00.115820 29817 layer_factory.hpp:77] Creating layer conv3_1
I0210 20:02:00.115833 29817 net.cpp:100] Creating Layer conv3_1
I0210 20:02:00.115836 29817 net.cpp:434] conv3_1 <- pool2
I0210 20:02:00.115842 29817 net.cpp:408] conv3_1 -> conv3_1
I0210 20:02:00.117607 29817 net.cpp:150] Setting up conv3_1
I0210 20:02:00.117636 29817 net.cpp:157] Top shape: 1 256 114 114 (3326976)
I0210 20:02:00.117641 29817 net.cpp:165] Memory required for data: 353417472
I0210 20:02:00.117651 29817 layer_factory.hpp:77] Creating layer relu3_1
I0210 20:02:00.117658 29817 net.cpp:100] Creating Layer relu3_1
I0210 20:02:00.117662 29817 net.cpp:434] relu3_1 <- conv3_1
I0210 20:02:00.117667 29817 net.cpp:395] relu3_1 -> conv3_1 (in-place)
I0210 20:02:00.118016 29817 net.cpp:150] Setting up relu3_1
I0210 20:02:00.118043 29817 net.cpp:157] Top shape: 1 256 114 114 (3326976)
I0210 20:02:00.118047 29817 net.cpp:165] Memory required for data: 366725376
I0210 20:02:00.118052 29817 layer_factory.hpp:77] Creating layer conv3_2
I0210 20:02:00.118065 29817 net.cpp:100] Creating Layer conv3_2
I0210 20:02:00.118070 29817 net.cpp:434] conv3_2 <- conv3_1
I0210 20:02:00.118078 29817 net.cpp:408] conv3_2 -> conv3_2
I0210 20:02:00.120587 29817 net.cpp:150] Setting up conv3_2
I0210 20:02:00.120616 29817 net.cpp:157] Top shape: 1 256 114 114 (3326976)
I0210 20:02:00.120620 29817 net.cpp:165] Memory required for data: 380033280
I0210 20:02:00.120628 29817 layer_factory.hpp:77] Creating layer relu3_2
I0210 20:02:00.120637 29817 net.cpp:100] Creating Layer relu3_2
I0210 20:02:00.120653 29817 net.cpp:434] relu3_2 <- conv3_2
I0210 20:02:00.120658 29817 net.cpp:395] relu3_2 -> conv3_2 (in-place)
I0210 20:02:00.121021 29817 net.cpp:150] Setting up relu3_2
I0210 20:02:00.121037 29817 net.cpp:157] Top shape: 1 256 114 114 (3326976)
I0210 20:02:00.121042 29817 net.cpp:165] Memory required for data: 393341184
I0210 20:02:00.121047 29817 layer_factory.hpp:77] Creating layer conv3_3
I0210 20:02:00.121060 29817 net.cpp:100] Creating Layer conv3_3
I0210 20:02:00.121064 29817 net.cpp:434] conv3_3 <- conv3_2
I0210 20:02:00.121071 29817 net.cpp:408] conv3_3 -> conv3_3
I0210 20:02:00.123651 29817 net.cpp:150] Setting up conv3_3
I0210 20:02:00.123678 29817 net.cpp:157] Top shape: 1 256 114 114 (3326976)
I0210 20:02:00.123682 29817 net.cpp:165] Memory required for data: 406649088
I0210 20:02:00.123700 29817 layer_factory.hpp:77] Creating layer relu3_3
I0210 20:02:00.123708 29817 net.cpp:100] Creating Layer relu3_3
I0210 20:02:00.123724 29817 net.cpp:434] relu3_3 <- conv3_3
I0210 20:02:00.123730 29817 net.cpp:395] relu3_3 -> conv3_3 (in-place)
I0210 20:02:00.123920 29817 net.cpp:150] Setting up relu3_3
I0210 20:02:00.123934 29817 net.cpp:157] Top shape: 1 256 114 114 (3326976)
I0210 20:02:00.123937 29817 net.cpp:165] Memory required for data: 419956992
I0210 20:02:00.123941 29817 layer_factory.hpp:77] Creating layer pool3
I0210 20:02:00.123950 29817 net.cpp:100] Creating Layer pool3
I0210 20:02:00.123953 29817 net.cpp:434] pool3 <- conv3_3
I0210 20:02:00.123960 29817 net.cpp:408] pool3 -> pool3
I0210 20:02:00.124024 29817 net.cpp:150] Setting up pool3
I0210 20:02:00.124034 29817 net.cpp:157] Top shape: 1 256 57 57 (831744)
I0210 20:02:00.124038 29817 net.cpp:165] Memory required for data: 423283968
I0210 20:02:00.124042 29817 layer_factory.hpp:77] Creating layer pool3_pool3_0_split
I0210 20:02:00.124049 29817 net.cpp:100] Creating Layer pool3_pool3_0_split
I0210 20:02:00.124053 29817 net.cpp:434] pool3_pool3_0_split <- pool3
I0210 20:02:00.124059 29817 net.cpp:408] pool3_pool3_0_split -> pool3_pool3_0_split_0
I0210 20:02:00.124068 29817 net.cpp:408] pool3_pool3_0_split -> pool3_pool3_0_split_1
I0210 20:02:00.124074 29817 net.cpp:408] pool3_pool3_0_split -> pool3_pool3_0_split_2
I0210 20:02:00.124130 29817 net.cpp:150] Setting up pool3_pool3_0_split
I0210 20:02:00.124138 29817 net.cpp:157] Top shape: 1 256 57 57 (831744)
I0210 20:02:00.124143 29817 net.cpp:157] Top shape: 1 256 57 57 (831744)
I0210 20:02:00.124147 29817 net.cpp:157] Top shape: 1 256 57 57 (831744)
I0210 20:02:00.124151 29817 net.cpp:165] Memory required for data: 433264896
I0210 20:02:00.124155 29817 layer_factory.hpp:77] Creating layer conv4_1
I0210 20:02:00.124166 29817 net.cpp:100] Creating Layer conv4_1
I0210 20:02:00.124171 29817 net.cpp:434] conv4_1 <- pool3_pool3_0_split_0
I0210 20:02:00.124179 29817 net.cpp:408] conv4_1 -> conv4_1
I0210 20:02:00.127770 29817 net.cpp:150] Setting up conv4_1
I0210 20:02:00.127787 29817 net.cpp:157] Top shape: 1 512 57 57 (1663488)
I0210 20:02:00.127791 29817 net.cpp:165] Memory required for data: 439918848
I0210 20:02:00.127799 29817 layer_factory.hpp:77] Creating layer relu4_1
I0210 20:02:00.127804 29817 net.cpp:100] Creating Layer relu4_1
I0210 20:02:00.127809 29817 net.cpp:434] relu4_1 <- conv4_1
I0210 20:02:00.127816 29817 net.cpp:395] relu4_1 -> conv4_1 (in-place)
I0210 20:02:00.128186 29817 net.cpp:150] Setting up relu4_1
I0210 20:02:00.128213 29817 net.cpp:157] Top shape: 1 512 57 57 (1663488)
I0210 20:02:00.128218 29817 net.cpp:165] Memory required for data: 446572800
I0210 20:02:00.128222 29817 layer_factory.hpp:77] Creating layer conv4_2
I0210 20:02:00.128234 29817 net.cpp:100] Creating Layer conv4_2
I0210 20:02:00.128239 29817 net.cpp:434] conv4_2 <- conv4_1
I0210 20:02:00.128247 29817 net.cpp:408] conv4_2 -> conv4_2
I0210 20:02:00.134672 29817 net.cpp:150] Setting up conv4_2
I0210 20:02:00.134691 29817 net.cpp:157] Top shape: 1 512 57 57 (1663488)
I0210 20:02:00.134697 29817 net.cpp:165] Memory required for data: 453226752
I0210 20:02:00.134708 29817 layer_factory.hpp:77] Creating layer relu4_2
I0210 20:02:00.134716 29817 net.cpp:100] Creating Layer relu4_2
I0210 20:02:00.134719 29817 net.cpp:434] relu4_2 <- conv4_2
I0210 20:02:00.134738 29817 net.cpp:395] relu4_2 -> conv4_2 (in-place)
I0210 20:02:00.135090 29817 net.cpp:150] Setting up relu4_2
I0210 20:02:00.135118 29817 net.cpp:157] Top shape: 1 512 57 57 (1663488)
I0210 20:02:00.135123 29817 net.cpp:165] Memory required for data: 459880704
I0210 20:02:00.135138 29817 layer_factory.hpp:77] Creating layer conv4_3
I0210 20:02:00.135149 29817 net.cpp:100] Creating Layer conv4_3
I0210 20:02:00.135154 29817 net.cpp:434] conv4_3 <- conv4_2
I0210 20:02:00.135162 29817 net.cpp:408] conv4_3 -> conv4_3
I0210 20:02:00.141460 29817 net.cpp:150] Setting up conv4_3
I0210 20:02:00.141480 29817 net.cpp:157] Top shape: 1 512 57 57 (1663488)
I0210 20:02:00.141484 29817 net.cpp:165] Memory required for data: 466534656
I0210 20:02:00.141491 29817 layer_factory.hpp:77] Creating layer relu4_3
I0210 20:02:00.141499 29817 net.cpp:100] Creating Layer relu4_3
I0210 20:02:00.141505 29817 net.cpp:434] relu4_3 <- conv4_3
I0210 20:02:00.141510 29817 net.cpp:395] relu4_3 -> conv4_3 (in-place)
I0210 20:02:00.141705 29817 net.cpp:150] Setting up relu4_3
I0210 20:02:00.141717 29817 net.cpp:157] Top shape: 1 512 57 57 (1663488)
I0210 20:02:00.141721 29817 net.cpp:165] Memory required for data: 473188608
I0210 20:02:00.141726 29817 layer_factory.hpp:77] Creating layer pool4
I0210 20:02:00.141731 29817 net.cpp:100] Creating Layer pool4
I0210 20:02:00.141736 29817 net.cpp:434] pool4 <- conv4_3
I0210 20:02:00.141743 29817 net.cpp:408] pool4 -> pool4
I0210 20:02:00.141808 29817 net.cpp:150] Setting up pool4
I0210 20:02:00.141818 29817 net.cpp:157] Top shape: 1 512 29 29 (430592)
I0210 20:02:00.141820 29817 net.cpp:165] Memory required for data: 474910976
I0210 20:02:00.141824 29817 layer_factory.hpp:77] Creating layer pool4_pool4_0_split
I0210 20:02:00.141832 29817 net.cpp:100] Creating Layer pool4_pool4_0_split
I0210 20:02:00.141837 29817 net.cpp:434] pool4_pool4_0_split <- pool4
I0210 20:02:00.141844 29817 net.cpp:408] pool4_pool4_0_split -> pool4_pool4_0_split_0
I0210 20:02:00.141850 29817 net.cpp:408] pool4_pool4_0_split -> pool4_pool4_0_split_1
I0210 20:02:00.141857 29817 net.cpp:408] pool4_pool4_0_split -> pool4_pool4_0_split_2
I0210 20:02:00.141912 29817 net.cpp:150] Setting up pool4_pool4_0_split
I0210 20:02:00.141921 29817 net.cpp:157] Top shape: 1 512 29 29 (430592)
I0210 20:02:00.141926 29817 net.cpp:157] Top shape: 1 512 29 29 (430592)
I0210 20:02:00.141930 29817 net.cpp:157] Top shape: 1 512 29 29 (430592)
I0210 20:02:00.141933 29817 net.cpp:165] Memory required for data: 480078080
I0210 20:02:00.141937 29817 layer_factory.hpp:77] Creating layer conv5_1
I0210 20:02:00.141948 29817 net.cpp:100] Creating Layer conv5_1
I0210 20:02:00.141966 29817 net.cpp:434] conv5_1 <- pool4_pool4_0_split_0
I0210 20:02:00.141974 29817 net.cpp:408] conv5_1 -> conv5_1
I0210 20:02:00.148073 29817 net.cpp:150] Setting up conv5_1
I0210 20:02:00.148094 29817 net.cpp:157] Top shape: 1 512 29 29 (430592)
I0210 20:02:00.148098 29817 net.cpp:165] Memory required for data: 481800448
I0210 20:02:00.148105 29817 layer_factory.hpp:77] Creating layer relu5_1
I0210 20:02:00.148113 29817 net.cpp:100] Creating Layer relu5_1
I0210 20:02:00.148118 29817 net.cpp:434] relu5_1 <- conv5_1
I0210 20:02:00.148124 29817 net.cpp:395] relu5_1 -> conv5_1 (in-place)
I0210 20:02:00.148478 29817 net.cpp:150] Setting up relu5_1
I0210 20:02:00.148505 29817 net.cpp:157] Top shape: 1 512 29 29 (430592)
I0210 20:02:00.148509 29817 net.cpp:165] Memory required for data: 483522816
I0210 20:02:00.148514 29817 layer_factory.hpp:77] Creating layer conv5_2
I0210 20:02:00.148525 29817 net.cpp:100] Creating Layer conv5_2
I0210 20:02:00.148530 29817 net.cpp:434] conv5_2 <- conv5_1
I0210 20:02:00.148537 29817 net.cpp:408] conv5_2 -> conv5_2
I0210 20:02:00.154712 29817 net.cpp:150] Setting up conv5_2
I0210 20:02:00.154731 29817 net.cpp:157] Top shape: 1 512 29 29 (430592)
I0210 20:02:00.154736 29817 net.cpp:165] Memory required for data: 485245184
I0210 20:02:00.154742 29817 layer_factory.hpp:77] Creating layer relu5_2
I0210 20:02:00.154752 29817 net.cpp:100] Creating Layer relu5_2
I0210 20:02:00.154757 29817 net.cpp:434] relu5_2 <- conv5_2
I0210 20:02:00.154762 29817 net.cpp:395] relu5_2 -> conv5_2 (in-place)
I0210 20:02:00.155117 29817 net.cpp:150] Setting up relu5_2
I0210 20:02:00.155143 29817 net.cpp:157] Top shape: 1 512 29 29 (430592)
I0210 20:02:00.155148 29817 net.cpp:165] Memory required for data: 486967552
I0210 20:02:00.155151 29817 layer_factory.hpp:77] Creating layer conv5_3
I0210 20:02:00.155167 29817 net.cpp:100] Creating Layer conv5_3
I0210 20:02:00.155184 29817 net.cpp:434] conv5_3 <- conv5_2
I0210 20:02:00.155192 29817 net.cpp:408] conv5_3 -> conv5_3
I0210 20:02:00.161382 29817 net.cpp:150] Setting up conv5_3
I0210 20:02:00.161401 29817 net.cpp:157] Top shape: 1 512 29 29 (430592)
I0210 20:02:00.161406 29817 net.cpp:165] Memory required for data: 488689920
I0210 20:02:00.161413 29817 layer_factory.hpp:77] Creating layer relu5_3
I0210 20:02:00.161422 29817 net.cpp:100] Creating Layer relu5_3
I0210 20:02:00.161427 29817 net.cpp:434] relu5_3 <- conv5_3
I0210 20:02:00.161443 29817 net.cpp:395] relu5_3 -> conv5_3 (in-place)
I0210 20:02:00.161623 29817 net.cpp:150] Setting up relu5_3
I0210 20:02:00.161634 29817 net.cpp:157] Top shape: 1 512 29 29 (430592)
I0210 20:02:00.161638 29817 net.cpp:165] Memory required for data: 490412288
I0210 20:02:00.161643 29817 layer_factory.hpp:77] Creating layer pool5
I0210 20:02:00.161649 29817 net.cpp:100] Creating Layer pool5
I0210 20:02:00.161653 29817 net.cpp:434] pool5 <- conv5_3
I0210 20:02:00.161661 29817 net.cpp:408] pool5 -> pool5
I0210 20:02:00.161725 29817 net.cpp:150] Setting up pool5
I0210 20:02:00.161733 29817 net.cpp:157] Top shape: 1 512 15 15 (115200)
I0210 20:02:00.161737 29817 net.cpp:165] Memory required for data: 490873088
I0210 20:02:00.161741 29817 layer_factory.hpp:77] Creating layer fc6
I0210 20:02:00.161753 29817 net.cpp:100] Creating Layer fc6
I0210 20:02:00.161757 29817 net.cpp:434] fc6 <- pool5
I0210 20:02:00.161763 29817 net.cpp:408] fc6 -> fc6
I0210 20:02:00.416497 29817 net.cpp:150] Setting up fc6
I0210 20:02:00.416543 29817 net.cpp:157] Top shape: 1 4096 9 9 (331776)
I0210 20:02:00.416549 29817 net.cpp:165] Memory required for data: 492200192
I0210 20:02:00.416563 29817 layer_factory.hpp:77] Creating layer relu6
I0210 20:02:00.416573 29817 net.cpp:100] Creating Layer relu6
I0210 20:02:00.416579 29817 net.cpp:434] relu6 <- fc6
I0210 20:02:00.416587 29817 net.cpp:395] relu6 -> fc6 (in-place)
I0210 20:02:00.416968 29817 net.cpp:150] Setting up relu6
I0210 20:02:00.416985 29817 net.cpp:157] Top shape: 1 4096 9 9 (331776)
I0210 20:02:00.416990 29817 net.cpp:165] Memory required for data: 493527296
I0210 20:02:00.416996 29817 layer_factory.hpp:77] Creating layer drop6
I0210 20:02:00.417002 29817 net.cpp:100] Creating Layer drop6
I0210 20:02:00.417007 29817 net.cpp:434] drop6 <- fc6
I0210 20:02:00.417014 29817 net.cpp:395] drop6 -> fc6 (in-place)
I0210 20:02:00.417054 29817 net.cpp:150] Setting up drop6
I0210 20:02:00.417062 29817 net.cpp:157] Top shape: 1 4096 9 9 (331776)
I0210 20:02:00.417065 29817 net.cpp:165] Memory required for data: 494854400
I0210 20:02:00.417069 29817 layer_factory.hpp:77] Creating layer fc7
I0210 20:02:00.417080 29817 net.cpp:100] Creating Layer fc7
I0210 20:02:00.417085 29817 net.cpp:434] fc7 <- fc6
I0210 20:02:00.417093 29817 net.cpp:408] fc7 -> fc7
I0210 20:02:00.457046 29817 net.cpp:150] Setting up fc7
I0210 20:02:00.457090 29817 net.cpp:157] Top shape: 1 4096 9 9 (331776)
I0210 20:02:00.457095 29817 net.cpp:165] Memory required for data: 496181504
I0210 20:02:00.457105 29817 layer_factory.hpp:77] Creating layer relu7
I0210 20:02:00.457115 29817 net.cpp:100] Creating Layer relu7
I0210 20:02:00.457121 29817 net.cpp:434] relu7 <- fc7
I0210 20:02:00.457128 29817 net.cpp:395] relu7 -> fc7 (in-place)
I0210 20:02:00.457520 29817 net.cpp:150] Setting up relu7
I0210 20:02:00.457547 29817 net.cpp:157] Top shape: 1 4096 9 9 (331776)
I0210 20:02:00.457551 29817 net.cpp:165] Memory required for data: 497508608
I0210 20:02:00.457556 29817 layer_factory.hpp:77] Creating layer drop7
I0210 20:02:00.457566 29817 net.cpp:100] Creating Layer drop7
I0210 20:02:00.457571 29817 net.cpp:434] drop7 <- fc7
I0210 20:02:00.457576 29817 net.cpp:395] drop7 -> fc7 (in-place)
I0210 20:02:00.457617 29817 net.cpp:150] Setting up drop7
I0210 20:02:00.457624 29817 net.cpp:157] Top shape: 1 4096 9 9 (331776)
I0210 20:02:00.457628 29817 net.cpp:165] Memory required for data: 498835712
I0210 20:02:00.457633 29817 layer_factory.hpp:77] Creating layer fc7_drop7_0_split
I0210 20:02:00.457639 29817 net.cpp:100] Creating Layer fc7_drop7_0_split
I0210 20:02:00.457643 29817 net.cpp:434] fc7_drop7_0_split <- fc7
I0210 20:02:00.457649 29817 net.cpp:408] fc7_drop7_0_split -> fc7_drop7_0_split_0
I0210 20:02:00.457661 29817 net.cpp:408] fc7_drop7_0_split -> fc7_drop7_0_split_1
I0210 20:02:00.457710 29817 net.cpp:150] Setting up fc7_drop7_0_split
I0210 20:02:00.457723 29817 net.cpp:157] Top shape: 1 4096 9 9 (331776)
I0210 20:02:00.457728 29817 net.cpp:157] Top shape: 1 4096 9 9 (331776)
I0210 20:02:00.457732 29817 net.cpp:165] Memory required for data: 501489920
I0210 20:02:00.457736 29817 layer_factory.hpp:77] Creating layer score_fr_sem
I0210 20:02:00.457759 29817 net.cpp:100] Creating Layer score_fr_sem
I0210 20:02:00.457763 29817 net.cpp:434] score_fr_sem <- fc7_drop7_0_split_0
I0210 20:02:00.457772 29817 net.cpp:408] score_fr_sem -> score_fr_sem
I0210 20:02:00.459650 29817 net.cpp:150] Setting up score_fr_sem
I0210 20:02:00.459676 29817 net.cpp:157] Top shape: 1 33 9 9 (2673)
I0210 20:02:00.459681 29817 net.cpp:165] Memory required for data: 501500612
I0210 20:02:00.459688 29817 layer_factory.hpp:77] Creating layer upscore2_sem
I0210 20:02:00.459697 29817 net.cpp:100] Creating Layer upscore2_sem
I0210 20:02:00.459702 29817 net.cpp:434] upscore2_sem <- score_fr_sem
I0210 20:02:00.459709 29817 net.cpp:408] upscore2_sem -> upscore2_sem
I0210 20:02:00.460002 29817 net.cpp:150] Setting up upscore2_sem
I0210 20:02:00.460013 29817 net.cpp:157] Top shape: 1 33 20 20 (13200)
I0210 20:02:00.460017 29817 net.cpp:165] Memory required for data: 501553412
I0210 20:02:00.460029 29817 layer_factory.hpp:77] Creating layer upscore2_sem_upscore2_sem_0_split
I0210 20:02:00.460038 29817 net.cpp:100] Creating Layer upscore2_sem_upscore2_sem_0_split
I0210 20:02:00.460042 29817 net.cpp:434] upscore2_sem_upscore2_sem_0_split <- upscore2_sem
I0210 20:02:00.460048 29817 net.cpp:408] upscore2_sem_upscore2_sem_0_split -> upscore2_sem_upscore2_sem_0_split_0
I0210 20:02:00.460057 29817 net.cpp:408] upscore2_sem_upscore2_sem_0_split -> upscore2_sem_upscore2_sem_0_split_1
I0210 20:02:00.460101 29817 net.cpp:150] Setting up upscore2_sem_upscore2_sem_0_split
I0210 20:02:00.460108 29817 net.cpp:157] Top shape: 1 33 20 20 (13200)
I0210 20:02:00.460114 29817 net.cpp:157] Top shape: 1 33 20 20 (13200)
I0210 20:02:00.460117 29817 net.cpp:165] Memory required for data: 501659012
I0210 20:02:00.460121 29817 layer_factory.hpp:77] Creating layer score_pool4_sem
I0210 20:02:00.460130 29817 net.cpp:100] Creating Layer score_pool4_sem
I0210 20:02:00.460134 29817 net.cpp:434] score_pool4_sem <- pool4_pool4_0_split_1
I0210 20:02:00.460141 29817 net.cpp:408] score_pool4_sem -> score_pool4_sem
I0210 20:02:00.461208 29817 net.cpp:150] Setting up score_pool4_sem
I0210 20:02:00.461235 29817 net.cpp:157] Top shape: 1 33 29 29 (27753)
I0210 20:02:00.461239 29817 net.cpp:165] Memory required for data: 501770024
I0210 20:02:00.461246 29817 layer_factory.hpp:77] Creating layer score_pool4_semc
I0210 20:02:00.461256 29817 net.cpp:100] Creating Layer score_pool4_semc
I0210 20:02:00.461259 29817 net.cpp:434] score_pool4_semc <- score_pool4_sem
I0210 20:02:00.461264 29817 net.cpp:434] score_pool4_semc <- upscore2_sem_upscore2_sem_0_split_0
I0210 20:02:00.461271 29817 net.cpp:408] score_pool4_semc -> score_pool4_semc
I0210 20:02:00.461314 29817 net.cpp:150] Setting up score_pool4_semc
I0210 20:02:00.461321 29817 net.cpp:157] Top shape: 1 33 20 20 (13200)
I0210 20:02:00.461324 29817 net.cpp:165] Memory required for data: 501822824
I0210 20:02:00.461328 29817 layer_factory.hpp:77] Creating layer fuse_pool4_sem
I0210 20:02:00.461336 29817 net.cpp:100] Creating Layer fuse_pool4_sem
I0210 20:02:00.461340 29817 net.cpp:434] fuse_pool4_sem <- upscore2_sem_upscore2_sem_0_split_1
I0210 20:02:00.461345 29817 net.cpp:434] fuse_pool4_sem <- score_pool4_semc
I0210 20:02:00.461352 29817 net.cpp:408] fuse_pool4_sem -> fuse_pool4_sem
I0210 20:02:00.461380 29817 net.cpp:150] Setting up fuse_pool4_sem
I0210 20:02:00.461385 29817 net.cpp:157] Top shape: 1 33 20 20 (13200)
I0210 20:02:00.461388 29817 net.cpp:165] Memory required for data: 501875624
I0210 20:02:00.461391 29817 layer_factory.hpp:77] Creating layer upscore_pool4_sem
I0210 20:02:00.461400 29817 net.cpp:100] Creating Layer upscore_pool4_sem
I0210 20:02:00.461403 29817 net.cpp:434] upscore_pool4_sem <- fuse_pool4_sem
I0210 20:02:00.461410 29817 net.cpp:408] upscore_pool4_sem -> upscore_pool4_sem
I0210 20:02:00.461665 29817 net.cpp:150] Setting up upscore_pool4_sem
I0210 20:02:00.461676 29817 net.cpp:157] Top shape: 1 33 42 42 (58212)
I0210 20:02:00.461679 29817 net.cpp:165] Memory required for data: 502108472
I0210 20:02:00.461685 29817 layer_factory.hpp:77] Creating layer upscore_pool4_sem_upscore_pool4_sem_0_split
I0210 20:02:00.461691 29817 net.cpp:100] Creating Layer upscore_pool4_sem_upscore_pool4_sem_0_split
I0210 20:02:00.461696 29817 net.cpp:434] upscore_pool4_sem_upscore_pool4_sem_0_split <- upscore_pool4_sem
I0210 20:02:00.461701 29817 net.cpp:408] upscore_pool4_sem_upscore_pool4_sem_0_split -> upscore_pool4_sem_upscore_pool4_sem_0_split_0
I0210 20:02:00.461709 29817 net.cpp:408] upscore_pool4_sem_upscore_pool4_sem_0_split -> upscore_pool4_sem_upscore_pool4_sem_0_split_1
I0210 20:02:00.461752 29817 net.cpp:150] Setting up upscore_pool4_sem_upscore_pool4_sem_0_split
I0210 20:02:00.461761 29817 net.cpp:157] Top shape: 1 33 42 42 (58212)
I0210 20:02:00.461766 29817 net.cpp:157] Top shape: 1 33 42 42 (58212)
I0210 20:02:00.461769 29817 net.cpp:165] Memory required for data: 502574168
I0210 20:02:00.461773 29817 layer_factory.hpp:77] Creating layer score_pool3_sem
I0210 20:02:00.461782 29817 net.cpp:100] Creating Layer score_pool3_sem
I0210 20:02:00.461786 29817 net.cpp:434] score_pool3_sem <- pool3_pool3_0_split_1
I0210 20:02:00.461794 29817 net.cpp:408] score_pool3_sem -> score_pool3_sem
I0210 20:02:00.463438 29817 net.cpp:150] Setting up score_pool3_sem
I0210 20:02:00.463454 29817 net.cpp:157] Top shape: 1 33 57 57 (107217)
I0210 20:02:00.463470 29817 net.cpp:165] Memory required for data: 503003036
I0210 20:02:00.463477 29817 layer_factory.hpp:77] Creating layer score_pool3_semc
I0210 20:02:00.463487 29817 net.cpp:100] Creating Layer score_pool3_semc
I0210 20:02:00.463491 29817 net.cpp:434] score_pool3_semc <- score_pool3_sem
I0210 20:02:00.463497 29817 net.cpp:434] score_pool3_semc <- upscore_pool4_sem_upscore_pool4_sem_0_split_0
I0210 20:02:00.463503 29817 net.cpp:408] score_pool3_semc -> score_pool3_semc
I0210 20:02:00.463551 29817 net.cpp:150] Setting up score_pool3_semc
I0210 20:02:00.463557 29817 net.cpp:157] Top shape: 1 33 42 42 (58212)
I0210 20:02:00.463560 29817 net.cpp:165] Memory required for data: 503235884
I0210 20:02:00.463563 29817 layer_factory.hpp:77] Creating layer fuse_pool3_sem
I0210 20:02:00.463569 29817 net.cpp:100] Creating Layer fuse_pool3_sem
I0210 20:02:00.463573 29817 net.cpp:434] fuse_pool3_sem <- upscore_pool4_sem_upscore_pool4_sem_0_split_1
I0210 20:02:00.463578 29817 net.cpp:434] fuse_pool3_sem <- score_pool3_semc
I0210 20:02:00.463585 29817 net.cpp:408] fuse_pool3_sem -> fuse_pool3_sem
I0210 20:02:00.463614 29817 net.cpp:150] Setting up fuse_pool3_sem
I0210 20:02:00.463621 29817 net.cpp:157] Top shape: 1 33 42 42 (58212)
I0210 20:02:00.463624 29817 net.cpp:165] Memory required for data: 503468732
I0210 20:02:00.463629 29817 layer_factory.hpp:77] Creating layer upscore8_sem
I0210 20:02:00.463635 29817 net.cpp:100] Creating Layer upscore8_sem
I0210 20:02:00.463651 29817 net.cpp:434] upscore8_sem <- fuse_pool3_sem
I0210 20:02:00.463659 29817 net.cpp:408] upscore8_sem -> upscore8_sem
I0210 20:02:00.464525 29817 net.cpp:150] Setting up upscore8_sem
I0210 20:02:00.464540 29817 net.cpp:157] Top shape: 1 33 344 344 (3905088)
I0210 20:02:00.464555 29817 net.cpp:165] Memory required for data: 519089084
I0210 20:02:00.464560 29817 layer_factory.hpp:77] Creating layer score_sem
I0210 20:02:00.464567 29817 net.cpp:100] Creating Layer score_sem
I0210 20:02:00.464571 29817 net.cpp:434] score_sem <- upscore8_sem
I0210 20:02:00.464576 29817 net.cpp:434] score_sem <- data_data_0_split_1
I0210 20:02:00.464581 29817 net.cpp:408] score_sem -> score_sem
I0210 20:02:00.464625 29817 net.cpp:150] Setting up score_sem
I0210 20:02:00.464632 29817 net.cpp:157] Top shape: 1 33 256 256 (2162688)
I0210 20:02:00.464635 29817 net.cpp:165] Memory required for data: 527739836
I0210 20:02:00.464638 29817 layer_factory.hpp:77] Creating layer loss
I0210 20:02:00.464649 29817 net.cpp:100] Creating Layer loss
I0210 20:02:00.464653 29817 net.cpp:434] loss <- score_sem
I0210 20:02:00.464658 29817 net.cpp:434] loss <- sem
I0210 20:02:00.464663 29817 net.cpp:408] loss -> loss
I0210 20:02:00.464673 29817 layer_factory.hpp:77] Creating layer loss
I0210 20:02:00.469874 29817 net.cpp:150] Setting up loss
I0210 20:02:00.469902 29817 net.cpp:157] Top shape: (1)
I0210 20:02:00.469907 29817 net.cpp:160]     with loss weight 1
I0210 20:02:00.469916 29817 net.cpp:165] Memory required for data: 527739840
I0210 20:02:00.469921 29817 layer_factory.hpp:77] Creating layer score_fr_geo
I0210 20:02:00.469931 29817 net.cpp:100] Creating Layer score_fr_geo
I0210 20:02:00.469936 29817 net.cpp:434] score_fr_geo <- fc7_drop7_0_split_1
I0210 20:02:00.469955 29817 net.cpp:408] score_fr_geo -> score_fr_geo
I0210 20:02:00.471273 29817 net.cpp:150] Setting up score_fr_geo
I0210 20:02:00.471299 29817 net.cpp:157] Top shape: 1 3 9 9 (243)
I0210 20:02:00.471305 29817 net.cpp:165] Memory required for data: 527740812
I0210 20:02:00.471312 29817 layer_factory.hpp:77] Creating layer upscore2_geo
I0210 20:02:00.471321 29817 net.cpp:100] Creating Layer upscore2_geo
I0210 20:02:00.471325 29817 net.cpp:434] upscore2_geo <- score_fr_geo
I0210 20:02:00.471333 29817 net.cpp:408] upscore2_geo -> upscore2_geo
I0210 20:02:00.471598 29817 net.cpp:150] Setting up upscore2_geo
I0210 20:02:00.471611 29817 net.cpp:157] Top shape: 1 3 20 20 (1200)
I0210 20:02:00.471614 29817 net.cpp:165] Memory required for data: 527745612
I0210 20:02:00.471619 29817 layer_factory.hpp:77] Creating layer upscore2_geo_upscore2_geo_0_split
I0210 20:02:00.471627 29817 net.cpp:100] Creating Layer upscore2_geo_upscore2_geo_0_split
I0210 20:02:00.471632 29817 net.cpp:434] upscore2_geo_upscore2_geo_0_split <- upscore2_geo
I0210 20:02:00.471637 29817 net.cpp:408] upscore2_geo_upscore2_geo_0_split -> upscore2_geo_upscore2_geo_0_split_0
I0210 20:02:00.471644 29817 net.cpp:408] upscore2_geo_upscore2_geo_0_split -> upscore2_geo_upscore2_geo_0_split_1
I0210 20:02:00.471689 29817 net.cpp:150] Setting up upscore2_geo_upscore2_geo_0_split
I0210 20:02:00.471696 29817 net.cpp:157] Top shape: 1 3 20 20 (1200)
I0210 20:02:00.471701 29817 net.cpp:157] Top shape: 1 3 20 20 (1200)
I0210 20:02:00.471705 29817 net.cpp:165] Memory required for data: 527755212
I0210 20:02:00.471709 29817 layer_factory.hpp:77] Creating layer score_pool4_geo
I0210 20:02:00.471716 29817 net.cpp:100] Creating Layer score_pool4_geo
I0210 20:02:00.471720 29817 net.cpp:434] score_pool4_geo <- pool4_pool4_0_split_2
I0210 20:02:00.471727 29817 net.cpp:408] score_pool4_geo -> score_pool4_geo
I0210 20:02:00.472793 29817 net.cpp:150] Setting up score_pool4_geo
I0210 20:02:00.472820 29817 net.cpp:157] Top shape: 1 3 29 29 (2523)
I0210 20:02:00.472825 29817 net.cpp:165] Memory required for data: 527765304
I0210 20:02:00.472831 29817 layer_factory.hpp:77] Creating layer score_pool4_geoc
I0210 20:02:00.472839 29817 net.cpp:100] Creating Layer score_pool4_geoc
I0210 20:02:00.472844 29817 net.cpp:434] score_pool4_geoc <- score_pool4_geo
I0210 20:02:00.472849 29817 net.cpp:434] score_pool4_geoc <- upscore2_geo_upscore2_geo_0_split_0
I0210 20:02:00.472856 29817 net.cpp:408] score_pool4_geoc -> score_pool4_geoc
I0210 20:02:00.472903 29817 net.cpp:150] Setting up score_pool4_geoc
I0210 20:02:00.472909 29817 net.cpp:157] Top shape: 1 3 20 20 (1200)
I0210 20:02:00.472913 29817 net.cpp:165] Memory required for data: 527770104
I0210 20:02:00.472916 29817 layer_factory.hpp:77] Creating layer fuse_pool4_geo
I0210 20:02:00.472923 29817 net.cpp:100] Creating Layer fuse_pool4_geo
I0210 20:02:00.472928 29817 net.cpp:434] fuse_pool4_geo <- upscore2_geo_upscore2_geo_0_split_1
I0210 20:02:00.472931 29817 net.cpp:434] fuse_pool4_geo <- score_pool4_geoc
I0210 20:02:00.472939 29817 net.cpp:408] fuse_pool4_geo -> fuse_pool4_geo
I0210 20:02:00.472967 29817 net.cpp:150] Setting up fuse_pool4_geo
I0210 20:02:00.472973 29817 net.cpp:157] Top shape: 1 3 20 20 (1200)
I0210 20:02:00.472976 29817 net.cpp:165] Memory required for data: 527774904
I0210 20:02:00.472980 29817 layer_factory.hpp:77] Creating layer upscore_pool4_geo
I0210 20:02:00.472988 29817 net.cpp:100] Creating Layer upscore_pool4_geo
I0210 20:02:00.472992 29817 net.cpp:434] upscore_pool4_geo <- fuse_pool4_geo
I0210 20:02:00.473011 29817 net.cpp:408] upscore_pool4_geo -> upscore_pool4_geo
I0210 20:02:00.473274 29817 net.cpp:150] Setting up upscore_pool4_geo
I0210 20:02:00.473285 29817 net.cpp:157] Top shape: 1 3 42 42 (5292)
I0210 20:02:00.473289 29817 net.cpp:165] Memory required for data: 527796072
I0210 20:02:00.473295 29817 layer_factory.hpp:77] Creating layer upscore_pool4_geo_upscore_pool4_geo_0_split
I0210 20:02:00.473301 29817 net.cpp:100] Creating Layer upscore_pool4_geo_upscore_pool4_geo_0_split
I0210 20:02:00.473306 29817 net.cpp:434] upscore_pool4_geo_upscore_pool4_geo_0_split <- upscore_pool4_geo
I0210 20:02:00.473311 29817 net.cpp:408] upscore_pool4_geo_upscore_pool4_geo_0_split -> upscore_pool4_geo_upscore_pool4_geo_0_split_0
I0210 20:02:00.473321 29817 net.cpp:408] upscore_pool4_geo_upscore_pool4_geo_0_split -> upscore_pool4_geo_upscore_pool4_geo_0_split_1
I0210 20:02:00.473376 29817 net.cpp:150] Setting up upscore_pool4_geo_upscore_pool4_geo_0_split
I0210 20:02:00.473386 29817 net.cpp:157] Top shape: 1 3 42 42 (5292)
I0210 20:02:00.473390 29817 net.cpp:157] Top shape: 1 3 42 42 (5292)
I0210 20:02:00.473393 29817 net.cpp:165] Memory required for data: 527838408
I0210 20:02:00.473397 29817 layer_factory.hpp:77] Creating layer score_pool3_geo
I0210 20:02:00.473413 29817 net.cpp:100] Creating Layer score_pool3_geo
I0210 20:02:00.473418 29817 net.cpp:434] score_pool3_geo <- pool3_pool3_0_split_2
I0210 20:02:00.473426 29817 net.cpp:408] score_pool3_geo -> score_pool3_geo
I0210 20:02:00.474567 29817 net.cpp:150] Setting up score_pool3_geo
I0210 20:02:00.474594 29817 net.cpp:157] Top shape: 1 3 57 57 (9747)
I0210 20:02:00.474599 29817 net.cpp:165] Memory required for data: 527877396
I0210 20:02:00.474607 29817 layer_factory.hpp:77] Creating layer score_pool3_geoc
I0210 20:02:00.474614 29817 net.cpp:100] Creating Layer score_pool3_geoc
I0210 20:02:00.474619 29817 net.cpp:434] score_pool3_geoc <- score_pool3_geo
I0210 20:02:00.474624 29817 net.cpp:434] score_pool3_geoc <- upscore_pool4_geo_upscore_pool4_geo_0_split_0
I0210 20:02:00.474632 29817 net.cpp:408] score_pool3_geoc -> score_pool3_geoc
I0210 20:02:00.474678 29817 net.cpp:150] Setting up score_pool3_geoc
I0210 20:02:00.474687 29817 net.cpp:157] Top shape: 1 3 42 42 (5292)
I0210 20:02:00.474691 29817 net.cpp:165] Memory required for data: 527898564
I0210 20:02:00.474695 29817 layer_factory.hpp:77] Creating layer fuse_pool3_geo
I0210 20:02:00.474701 29817 net.cpp:100] Creating Layer fuse_pool3_geo
I0210 20:02:00.474706 29817 net.cpp:434] fuse_pool3_geo <- upscore_pool4_geo_upscore_pool4_geo_0_split_1
I0210 20:02:00.474711 29817 net.cpp:434] fuse_pool3_geo <- score_pool3_geoc
I0210 20:02:00.474716 29817 net.cpp:408] fuse_pool3_geo -> fuse_pool3_geo
I0210 20:02:00.474747 29817 net.cpp:150] Setting up fuse_pool3_geo
I0210 20:02:00.474753 29817 net.cpp:157] Top shape: 1 3 42 42 (5292)
I0210 20:02:00.474757 29817 net.cpp:165] Memory required for data: 527919732
I0210 20:02:00.474761 29817 layer_factory.hpp:77] Creating layer upscore8_geo
I0210 20:02:00.474769 29817 net.cpp:100] Creating Layer upscore8_geo
I0210 20:02:00.474773 29817 net.cpp:434] upscore8_geo <- fuse_pool3_geo
I0210 20:02:00.474778 29817 net.cpp:408] upscore8_geo -> upscore8_geo
I0210 20:02:00.475008 29817 net.cpp:150] Setting up upscore8_geo
I0210 20:02:00.475019 29817 net.cpp:157] Top shape: 1 3 344 344 (355008)
I0210 20:02:00.475023 29817 net.cpp:165] Memory required for data: 529339764
I0210 20:02:00.475028 29817 layer_factory.hpp:77] Creating layer score_geo
I0210 20:02:00.475036 29817 net.cpp:100] Creating Layer score_geo
I0210 20:02:00.475040 29817 net.cpp:434] score_geo <- upscore8_geo
I0210 20:02:00.475045 29817 net.cpp:434] score_geo <- data_data_0_split_2
I0210 20:02:00.475051 29817 net.cpp:408] score_geo -> score_geo
I0210 20:02:00.475088 29817 net.cpp:150] Setting up score_geo
I0210 20:02:00.475100 29817 net.cpp:157] Top shape: 1 3 256 256 (196608)
I0210 20:02:00.475103 29817 net.cpp:165] Memory required for data: 530126196
I0210 20:02:00.475106 29817 layer_factory.hpp:77] Creating layer loss_geo
I0210 20:02:00.475113 29817 net.cpp:100] Creating Layer loss_geo
I0210 20:02:00.475117 29817 net.cpp:434] loss_geo <- score_geo
I0210 20:02:00.475123 29817 net.cpp:434] loss_geo <- geo
I0210 20:02:00.475128 29817 net.cpp:408] loss_geo -> loss_geo
…
